data/MTMR_28002/sim/random/NN_Dist_0.02/train/N10/D6_SinCosInput/6/result/model/ReLU_Dual_UDirection_BP.pt (torch_old, 22776 bytes, 20 tensors)

input_mean f4 [12]
0.2271158 0.15093927 0.037703015 0.010949725 0.13348451 0.088955574 0.9248084 0.9391312
0.94923717 0.31706542 0.42539218 0.92153144
00000000: 0b91 683e d38f 1a3e 7a6e 1a3d 7a66 333c
00000010: 2ab0 083e 572e b63d 3ec0 6c3f e76a 703f
00000020: 3501 733f 6656 a23e 01cd d93e 7ce9 6b3f

input_std f4 [12]
0.30142075 0.2982503 0.3086821 0.6852035 0.6158089 0.37221327 0.04790502 0.07931243
0.047311705 0.6556284 0.6496147 0.065814264
00000000: d253 9a3e 43b4 983e 950b 9e3e 7f69 2f3f
00000010: a7a5 1d3f bd92 be3e 0e38 443d 8e6e a23d
00000020: ebc9 413d 43d7 273f 264d 263f a1c9 863d

output_mean f4 [6]
-8.659811e-05 0.44431466 0.25958782 -0.006937851 -0.0041143983 -0.0012329633
00000000: 029c b5b8 367d e33e b2e8 843e ea56 e3bb
00000010: 13d2 86bb 629b a1ba

output_std f4 [6]
0.00019513904 0.19769944 0.17607306 0.049272425 0.039015807 0.006655621
00000000: 3d9e 4c39 b971 4a3e 7f4c 343e e2d1 493d
00000010: 0acf 1f3d 6517 da3b

pos_net.linears.0.weight f4 [30, 12]
0.2837437 0.2225801 -0.11685695 0.13930838 0.21370165 -0.13122188 -0.25051236 0.012976239
-0.0760342 0.19612867 -0.028166894 0.040184524 0.032734305 0.3914373 0.3335613 0.4041341
0.058762275 0.010416697 0.13584729 -0.2947462 0.031442247 -0.038651057 0.21866286 0.31961074
0.01726913 0.28008232 0.053291894 0.1549699 -0.079535805 0.20525585 0.15018336 -0.085962325
0.17352393 0.28100884 0.04697511 0.001112038 -0.22931577 -0.14300667 -0.38663563 -0.11217336
-0.123075575 -0.21465403 -0.115914874 -0.03382473 -0.12128451 -0.06759881 -0.23663403 -0.12279469
-0.18971895 -0.20668006 -0.3600886 -0.10971805 -0.12780972 0.2222695 -0.09893424 0.28982437
0.20834446 0.16153604 -0.3283779 0.02571525 -0.12602489 -0.13933483 0.26168972 -0.059756197
0.2360642 0.30843535 -0.093371205 -0.12455898 -0.15791093 -0.098451845 -0.19663267 0.46096197
0.0848504 0.08553871 -0.36361316 -0.38114604 -0.23436886 0.061323564 -0.27029493 0.25899234
0.17708077 -0.09015258 0.4033001 0.05805561 -0.4751424 -0.16778184 0.029848797 -0.01911915
-0.038638595 0.33199364 0.050835505 -0.18450366 -0.24218664 -0.19668834 0.064087465 -0.015086125
0.06829081 -0.067078166 -0.0827374 0.21181913 0.21379186 -0.46672326 -0.10456321 -0.021289336
-0.0020142365 0.17156571 -0.0145633295 -0.35329437 0.15020949 0.20016958 0.046735357 -0.06707045
0.3050247 -0.0653266 0.08815333 -0.20726578 0.00199786 0.11406389 -0.33442742 0.2208733
-0.02105568 0.1577998 0.35585827 0.31143996 -0.17241703 -0.099006034 0.1414875 -0.1404749
0.080745 -0.31195915 -0.2515864 0.11678363 -0.038509537 -0.12550265 0.006160733 -0.3090216
-0.30386546 0.158067 -0.26418608 0.32514483 0.119152166 0.23765534 -0.08359897 -0.30031222
0.037113518 0.43335092 -0.05650732 0.38526347 -0.27492666 -0.018588632 0.30088362 -0.103542745
-0.24429598 -0.10825051 0.33454818 0.05289047 0.27356791 0.5114363 0.31966883 0.14254226
0.04450327 -0.15254337 0.14261289 -0.11962016 0.18381329 -0.31967622 -0.23390843 -0.05456352
-0.046182282 -0.061010946 0.2636815 -0.23391879 0.26513726 -0.32406098 0.3904654 0.17849606
-0.29562417 -0.18983231 -0.4577837 0.31131935 -0.199249 -0.19969901 -0.18009885 -0.2790372
0.08387801 0.4073439 0.17767197 0.6263917 0.29179847 0.080921136 -0.06731239 0.25795352
0.09609611 0.11983379 -0.12682569 -0.21227019 -0.13870366 0.1375966 -0.25034404 0.24915709
-0.10914401 0.017697295 0.030380152 -0.40620673 0.29339483 -0.0056027253 0.3854662 -0.34606376
0.07940579 0.19799402 -0.032752316 0.041559935 -0.1430595 0.2992004 0.057958484 -0.22862801
-0.17539664 -0.25383615 -0.07518994 -0.02662613 0.12710835 0.29607484 0.19115554 0.34097484
0.2579988 0.049283326 -0.09191363 0.25553152 0.22075458 -0.44264966 0.09121437 0.31950635
0.20273407 -0.09502942 -0.32953572 0.05869806 -0.18283758 -0.15664646 0.10260417 0.6168948
-0.31137592 0.18214479 0.012099131 -0.48108375 -0.17950043 -0.17702447 0.27641413 0.29823798
-0.03987434 0.011515034 0.16387367 0.20115992 0.2711118 0.092901565 -0.34704626 0.26508242
00000000: db46 913e 0aec 633e b252 efbd dba6 0e3e
00000010: 9bd4 5a3e 075f 06be 2843 80be 4b9a 543c
00000020: d2b7 9bbd f4d5 483e 42be e6bc 8798 243d
00000030: 6814 063d 786a c83e 8cc8 aa3e aaea ce3e
00000040: b6b0 703d cbaa 2a3c 8d1b 0b3e f9e8 96be
00000050: 96c9 003d 9250 1ebd 28e9 5f3e 05a4 a33e
00000060: fe77 8d3c f366 8f3e 9a48 5a3d 6eb0 1e3e
00000070: abe3 a2bd 972e 523e abc9 193e 040d b0bd
00000080: 42b0 313e 64e0 8f3e f968 403d cec1 913a
00000090: c1d1 6abe 5770 12be 1bf5 c5be 26bb e5bd
000000a0: 0c0f fcbd 44ce 5bbe c764 edbd cd8b 0abd
000000b0: 0364 f8bd 3f71 8abd 3150 72be c87b fbbd
000000c0: af45 42be f0a3 53be 885d b8be dbb3 e0bd
000000d0: 8de0 02be 9e9a 633e 099e cabd dc63 943e
000000e0: 4058 553e b469 253e 2621 a8be caa8 d23c
000000f0: ab0c 01be caad 0ebe 32fc 853e eac2 74bd
00000100: d0ba 713e 3deb 9d3e 6739 bfbd c718 ffbd
00000110: 67b3 21be 1fa1 c9bd 135a 49be 3503 ec3e
00000120: 0cc6 ad3d eb2e af3d 812b babe 9325 c3be
00000130: 64fe 6fbe 6b2e 7b3d 1964 8abe a59a 843e
00000140: a954 353e eaa1 b8bd 5a7d ce3e b8cb 6d3d
00000150: dd45 f3be 01cf 2bbe 7785 f43c c39f 9cbc
00000160: 8143 1ebd 12fb a93e e438 503d 87ee 3cbe
00000170: c6ff 77be ab68 49be 4a40 833d cb2b 77bc
00000180: 0ddc 8b3d 4760 89bd 3a72 a9bd 1de7 583e
00000190: 41ec 5a3e 5af6 eebe 3c25 d6bd f966 aebc
000001a0: 4801 04bb ecae 2f3e 089b 6ebc 00e3 b4be
000001b0: 84d0 193e 41f9 4c3e 936d 3f3d 3b5c 89bd
000001c0: 332c 9c3e f4c9 85bd bc89 b43d 7b3d 54be
000001d0: 87ee 023b 549a e93d 123a abbe 9c2c 623e
000001e0: f67c acbc 4596 213e 0e33 b63e 0f75 9f3e
000001f0: 178e 30be adc3 cabd 19e2 103e a7d8 0fbe
00000200: a25d a53d 1cb9 9fbe efcf 80be 412c ef3d
00000210: 2dbc 1dbd c483 00be f9df c93b 1438 9ebe
00000220: 4194 9bbe 51dc 213e 6643 87be 6279 a63e
00000230: 0d06 f43d ec5b 733e f035 abbd 86c2 99be
00000240: 5804 183d 2ce0 dd3e 3874 67bd 4141 c53e
00000250: 30c3 8cbe 3047 98bc 6b0d 9a3e 380e d4bd
00000260: ba28 7abe 72b2 ddbd e649 ab3e ada3 583d
00000270: 1811 8c3e 7ded 023f a2ab a33e 99f6 113e
00000280: 1049 363d 5434 1cbe 1d09 123e 6afb f4bd
00000290: 8d39 3c3e 9aac a3be b185 6fbe ff7d 5fbd
000002a0: a229 3dbd 9de6 79bd 4301 873e 6888 6fbe
000002b0: 12c0 873e 52eb a5be 15eb c73e acc7 363e
000002c0: 0d5c 97be 6763 42be a062 eabe 4065 9f3e
000002d0: ee07 4cbe e67d 4cbe d56b 38be f7dd 8ebe
000002e0: 3cc8 ab3d 618f d03e a4ef 353e 355b 203f
000002f0: 9c66 953e fbb9 a53d 14db 89bd 7c12 843e
00000300: 0ace c43d 6b6b f53d 98de 01be 5b5d 59be
00000310: 5508 0ebe 20e6 0c3e 182d 80be 0923 7f3e
00000320: e586 dfbd ebf9 903c ccdf f83c 54fa cfbe
00000330: d937 963e 1197 b7bb d35b c53e 452f b1be
00000340: 819f a23d f2be 4a3e 4b27 06bd c03a 2a3d
00000350: 317e 12be cb30 993e e065 6d3d 761d 6abe
00000360: 2d9b 33be d0f6 81be 2ffd 99bd 0b1f dabc
00000370: b128 023e 1f97 973e 47be 433e 4194 ae3e
00000380: 6b18 843e 50dd 493d 373d bcbd 07d5 823e
00000390: 7d0d 623e faa2 e2be 9ace ba3d 5696 a33e
000003a0: 8599 4f3e c99e c2bd e8b8 a8be 616d 703d
000003b0: c639 3bbe ee67 20be 2322 d23d d1ec 1d3f
000003c0: aa6c 9fbe 2a84 3a3e 6f3b 463c 9c50 f6be
000003d0: f6ce 37be e745 35be 2786 8d3e a6b2 983e
000003e0: 4753 23bd 8ea9 3c3c 80ce 273e defc 4d3e
000003f0: 2acf 8a3e 2d43 be3d 0cb0 b1be e2b8 873e

pos_net.linears.0.bias f4 [30]
-0.110221565 0.041410048 -0.45647228 -0.5740606 -0.04127221 0.18367353 0.36902937 0.23494972
-0.29608867 0.07895197 -0.21783276 -0.11871685 0.025927378 0.006266932 -0.13298488 0.25070596
-0.3235117 -0.29982883 0.16572008 -0.0019715596 0.021871764 -0.18944217 -0.105666995 0.033708908
-0.25892907 -0.27530298 0.05492829 0.04180458 -0.20112318 -0.053587615
00000000: d8bb e1bd 959d 293d bcb6 e9be a3f5 12bf
00000010: 0d0d 29bd ea14 3c3e 6bf1 bc3e a996 703e
00000020: ef98 97be 92b1 a13d 8d0f 5fbe d221 f3bd
00000030: a765 d43c d65a cd3b 302d 08be 885c 803e
00000040: 53a3 a5be 2a83 99be 86b2 293e 4835 01bb
00000050: 6a2c b33c 21fd 41be f067 d8bd 5a12 0a3d
00000060: 5a92 84be 83f4 8cbe 7dfc 603d 473b 2b3d
00000070: 3cf3 4dbe b07e 5bbd

pos_net.linears.1.weight f4 [30, 30]
-0.11582647 0.015950706 0.055707805 -0.012895489 0.027603447 0.1051781 -0.38222313 0.31308246
0.048802078 0.2417392 0.2655868 -0.3679505 -0.15426211 0.17623496 -0.25236645 -0.35164365
-0.016398799 0.028965205 -0.40760118 -0.3732435 -0.31681257 -0.16234456 -0.18638998 0.32928422
-0.1561914 -0.019658905 -0.23314919 0.33021393 -0.11911681 -0.10120429 -0.12779868 -0.24498975
0.13735986 -0.20071566 -0.016238235 -0.28572184 -0.18569468 -0.07177895 -0.030917898 -0.3456335
-0.13771966 -0.08315933 -0.09563882 -0.0014377236 -0.055022534 -0.32966575 -0.25018665 -0.4853573
0.07013241 -0.10626018 -0.10007805 -0.20455335 -0.10943498 -0.335453 -0.34827557 -0.24150307
-0.143571 -0.3716851 -0.033152815 -0.26973107 -0.045351915 -0.032185532 0.011670026 0.10154431
0.111758545 0.053950213 -0.38753173 -0.179303 0.0056154607 0.09631887 0.07294096 -0.079618916
0.04386592 0.23053552 -0.48904034 -0.4850682 -0.20599566 -0.31210694 -0.27382877 -0.17032497
-0.3142906 0.3839413 -0.47446606 -0.070475 -0.007728897 -0.3470555 -0.12528017 0.2129865
0.029728733 0.19901343 -0.1553755 -0.29458144 0.2426387 -0.1431589 -0.42894533 -0.24826925
-0.29327092 0.1932088 -0.04043334 -0.26297376 -0.28470445 -0.2801242 0.03332412 -0.12988324
0.17528091 0.12779824 -0.363235 -0.25854975 0.12767677 -0.24783972 -0.18724282 -0.21781692
-0.21552154 -0.18738388 -0.14368363 -0.09572506 -0.22712491 -0.12306201 -0.3261415 -0.36594564
-0.10995636 0.30105063 0.14285327 -0.074372746 0.032897927 0.103673585 -0.06271472 0.10297306
-0.40951577 -0.07449311 -0.04546283 -0.006993911 0.30824417 -0.2338936 -0.056262705 0.27495408
-0.44274095 -0.52038574 0.043835644 0.46699163 -0.07958274 -0.19322285 0.2733594 -0.12290257
0.22880593 0.088339545 0.21366152 -0.3271954 -0.4289751 0.020796767 0.016816407 0.17358334
-0.09670358 -0.071833484 -0.16875553 0.09408009 -0.1396098 -0.16500884 0.06424044 0.25409713
0.2358687 -0.17959589 0.04262821 0.26565343 -0.08462109 -0.31852472 -0.29455933 -0.19264986
-0.21448162 -0.07477302 -0.39527774 0.14362206 -0.20356208 0.069292225 0.013926501 0.021655109
-0.15516171 0.36883017 0.2115258 0.28190634 -0.18341951 -0.30754784 -0.2809736 0.192584
0.11047776 -0.46519637 0.33086744 -0.13713741 -0.29730818 -0.39174384 -0.17227763 0.33988827
-0.12691383 -0.3895232 -0.52460307 -0.065830514 0.26496577 0.31895646 -0.14656237 -0.3038682
0.11815543 -0.4320344 -0.14178842 -0.1296619 0.04333139 0.061956037 -0.24213971 -0.15283833
-0.18601696 -0.1941204 -0.13220768 -0.35099927 0.10504137 0.35997966 -0.068338625 -0.15556939
-0.35612455 -0.3113719 -0.2258348 -0.20102087 -0.14135326 -0.23992442 -0.22483574 -0.14884833
-0.2637043 -0.25810114 -0.3572558 -0.30306366 -0.3057319 -0.21961536 -0.08766577 -0.09108426
0.4312687 0.0025574844 0.032806456 -0.25594044 -0.13096789 -0.33766636 -0.048860222 -0.03443208
0.14684753 0.022414956 0.0633813 -0.10562589 -0.22886553 -0.10438708 0.12183652 -0.03611288
0.15948138 -0.028670318 0.030681618 0.06581165 0.25101808 0.173395 -0.041575484 -0.50217927
00000000: 6e36 edbd 0eab 823c de2d 643d 9a47 53bc
00000010: a020 e23c 9e67 d73d c0b2 c3be 584c a03e
00000020: b0e4 473d 7b8a 773e fefa 873e 0264 bcbe
00000030: e3f6 1dbe f076 343e 2d36 81be a30a b4be
00000040: c656 86bc 7048 ed3c 1ab1 d0be c619 bfbe
00000050: 4235 a2be a73d 26be 04dd 3ebe f197 a83e
00000060: a3f0 1fbe b60b a1bc a9be 6ebe cd11 a93e
00000070: 84f3 f3bd 3244 cfbd a8dd 02be 98de 7abe
00000080: 10a8 0c3e 6888 4dbe 0c06 85bc 224a 92be
00000090: bf26 3ebe d800 93bd 8847 fdbc e0f6 b0be
000000a0: 6206 0dbe 704f aabd 49de c3bd 0072 bcba
000000b0: 4f5f 61bd f3c9 a8be 7718 80be c180 f8be
000000c0: 95a1 8f3d f09e d9bd b8f5 ccbd 6f76 51be
000000d0: 721f e0bd 7fc0 abbe 2d51 b2be 954c 77be
000000e0: 4704 13be 824d bebe 3fcb 07bd 311a 8abe
000000f0: eec2 39bd fad4 03bd a333 3f3c 77f6 cf3d
00000100: aae1 e43d e6fa 5c3d 8f6a c6be 359b 37be
00000110: e601 b83b d442 c53d 1262 953d 3e0f a3bd
00000120: c0ac 333d 8111 6c3e 7f63 fabe dc5a f8be
00000130: 87f0 52be 7bcc 9fbe 4933 8cbe ab69 2ebe
00000140: b3ea a0be f493 c43e 37ed f2be 3255 90bd
00000150: b042 fdbb 42b1 b1be 7249 00be 2219 5a3e
00000160: ac89 f33c 2dca 4b3e c11a 1fbe 61d3 96be
00000170: 4876 783e 3f98 12be b99e dbbe 4b3a 7ebe
00000180: 9b27 96be 87d8 453e 6e9d 25bd 7fa4 86be
00000190: c8c4 91be 706c 8fbe df7e 083d 1d00 05be
000001a0: d77c 333e 8bdd 023e f0f9 b9be a260 84be
000001b0: b3bd 023e b2c9 7dbe 95bc 3fbe 660b 5fbe
000001c0: aeb1 5cbe 8fe1 3fbe cd21 13be 800b c4bd
000001d0: 6f93 68be ef07 fcbd 05fc a6be 3a5d bbbe
000001e0: cd30 e1bd 4f23 9a3e 2148 123e bd50 98bd
000001f0: fabf 063d d152 d43d 9370 80bd 8ae3 d23d
00000200: 0dac d1be d88f 98bd 3c37 3abd 2e2d e5bb
00000210: 2ed2 9d3e ce81 6fbe b973 66bd c8c6 8c3e
00000220: f1ae e2be 0038 05bf 018d 333d 8719 ef3e
00000230: 47fc a2bd 36dc 45be c3f5 8b3e 58b4 fbbd
00000240: 1a4c 6a3e 5deb b43d 16ca 5a3e 2886 a7be
00000250: a0a2 dbbe fb5d aa3c 90c2 893c d5bf 313e
00000260: 870c c6bd 6f1d 93bd 40ce 2cbe 10ad c03d
00000270: dff5 0ebe 14f8 28be 7e90 833d 0519 823e
00000280: 9187 713e fce7 37be eb9a 2e3d ba03 883e
00000290: d24d adbd ac15 a3be 7bd0 96be 0146 45be
000002a0: 12a1 5bbe 9922 99bd d861 cabe a911 133e
000002b0: 9472 50be 15e9 8d3d fb2b 643c 0e66 b13c
000002c0: b6e2 1ebe 4fd7 bc3e 389a 583e 0756 903e
000002d0: 53d2 3bbe e976 9dbe c6db 8fbe bd34 453e
000002e0: 2a42 e23d 382e eebe 7567 a93e c06d 0cbe
000002f0: c738 98be a692 c8be 8c69 30be d605 ae3e
00000300: b3f5 01be 966f c7be 634c 06bf 26d2 86bd
00000310: 98a9 873e 434e a33e 7214 16be 9d94 9bbe
00000320: 79fb f13d 9d33 ddbe fc30 11be 17c6 04be
00000330: 417c 313d 9dc5 7d3d 79f3 77be a781 1cbe
00000340: 3b7b 3ebe 80c7 46be 7361 07be 2db6 b3be
00000350: ee1f d73d 414f b83e 1ff5 8bbd 954d 1fbe
00000360: f555 b6be 236c 9fbe 3d41 67be 6ad8 4dbe
00000370: e9be 10be bfae 75be 573b 66be b26b 18be
00000380: 4004 87be d525 84be 3bea b6be 292b 9bbe
00000390: e488 9cbe d9e2 60be 1c8a b3bd 628a babd
000003a0: 40cf dc3e 789b 273b 1060 063d a00a 83be
000003b0: 721c 06be 9be2 acbe a821 48bd a708 0dbd
000003c0: 335f 163e 929f b73c 0ece 813d 6352 d8bd
000003d0: ba5b 6abe e5c8 d5bd 6d85 f93d 19eb 13bd
000003e0: 164f 233e 04de eabc 0458 fb3c 42c8 863d
000003f0: 7185 803e 758e 313e 0e4b 2abd d28e 00bf

pos_net.linears.1.bias f4 [30]
0.10850292 -0.24194841 -0.013469496 -0.45768481 0.10220813 -0.16307977 -0.077973574 -0.52159965
0.10655589 -0.16397354 -0.30701932 0.023919566 -0.119729355 -0.09584949 0.16976523 -0.1396233
0.03778774 0.16467024 0.069525875 -0.33431128 -0.07703101 0.1224001 -0.16196467 0.052231412
-0.24278937 0.23463634 -0.18426883 -0.28350425 0.05966489 -0.17205383
00000000: c736 de3d 53c1 77be 29af 5cbc aa55 eabe
00000010: 7f52 d13d 62fe 26be 9cb0 9fbd 8e87 05bf
00000020: f939 da3d aee8 27be a331 9dbe f7f2 c33c
00000030: aa34 f5bd bd4c c4bd f0d6 2d3e 69f9 0ebe
00000040: 51c7 1a3d 519f 283e 9563 8e3d d92a abbe
00000050: 6fc2 9dbd e7ac fa3d 11da 25be 9bf0 553d
00000060: c79d 78be 8244 703e f8b0 3cbe 7827 91be
00000070: 2c63 743d e12e 30be

pos_net.linears.2.weight f4 [30, 30]
0.1762156 0.29305458 0.04829361 -0.023833126 0.024599852 0.27657458 -0.29489294 -0.04640294
-0.15812415 0.092696756 -0.043228984 0.14391133 0.041852243 -0.017407188 0.20285875 -0.09043625
0.008346505 0.34577596 -0.07009731 -0.15003793 0.12284873 -0.37772152 -0.08860795 0.14050125
0.018866438 -0.25123665 -0.20550337 0.013038667 -0.22693065 0.26641482 -0.47260296 -0.21444388
0.04422685 -0.12582275 0.19634421 -0.33142745 -0.33468223 -0.18251242 -0.1697317 -0.009085671
0.22415149 -0.38057542 0.084715106 -0.124252096 -0.33312285 0.095391646 -0.08522812 0.025500694
-0.2287638 0.08285468 -0.33942804 0.21645409 -0.104353674 -0.3600954 0.011458551 -0.033398934
-0.023781434 -0.19645953 -0.041961808 -0.11525814 -0.22239067 0.005253313 -0.050098594 0.06902664
-0.022310477 0.12654418 0.119695224 0.02610149 0.17696871 -0.070570216 0.11900221 -0.1483152
0.15308918 -0.2600376 0.12080062 -0.11866792 0.05040233 -0.11097831 0.050082795 -0.11942056
-0.22819774 0.19750635 0.22865233 -0.15092872 -0.07909937 0.2133658 -0.15089355 0.15706635
0.0988958 -0.020342847 -0.1963231 0.07813768 -0.34898853 -0.15416363 0.22193637 0.016664857
-0.42039007 -0.3373891 -0.020721328 -0.14457858 -0.31631142 0.12992272 0.097484685 -0.09143731
-0.06976558 0.11960435 -0.20770565 0.026955027 -0.07558414 0.20151831 -0.27570146 0.30351564
-0.21028043 -0.046857372 0.21329492 0.17060535 0.2875345 0.041633166 0.024152305 -0.43307757
0.22361393 0.20474659 0.027038608 0.0289179 -0.10801316 0.1463315 -0.16746691 0.13273634
-0.09592031 0.17692824 0.009022056 0.3892273 -0.08847444 0.34076998 -0.050242394 -0.054647025
0.33183905 0.0036507216 0.0134516265 -0.1146983 0.26159894 -0.3010209 0.12173454 0.15131739
0.12808052 -0.25498965 0.12830916 -0.009268252 -0.45918047 0.45529535 -0.038244344 -0.36599275
-0.1149182 0.1803531 -0.21374415 -0.07004545 -0.20119606 -0.02631059 -0.2684855 0.11488491
0.15554938 0.2592699 0.0040398445 -0.29868922 0.021650027 -0.08685776 0.0018851692 0.02497389
0.038982727 0.023403239 -0.2140203 -0.21346454 0.17861097 0.02463157 -0.17137821 0.044417
-0.30710605 0.25790673 0.17856824 0.11042361 -0.0412129 -0.07773385 -0.07126292 0.06550638
0.14810446 0.016003199 -0.09941974 -0.046814356 0.27425352 0.027594164 0.036282 0.058804367
0.11808317 0.15933159 0.28241596 0.20738205 0.017082358 -0.00078595616 0.14267235 -0.115909114
-0.28558826 0.29599968 0.0989577 0.05029901 0.03147164 0.07318527 0.0080087995 0.10420799
-0.060526658 0.1183918 -0.04281421 0.27451602 -0.34978363 -0.35417292 0.112610914 -0.3961276
0.26731083 0.016014649 -0.28354678 -0.13042563 -0.09374399 -0.08001234 0.14640868 0.034079053
-0.326101 0.11965934 -0.27372232 -0.047747195 0.24712761 0.22647314 0.23826218 -0.19054113
-0.13624504 0.06157106 -0.24057673 -0.05418245 -0.026309341 -0.09424317 -0.091497384 -0.028210841
-0.04501456 0.30375785 -0.19692479 -0.087094925 -0.2760035 -0.33514062 -0.3196341 -0.17194602
-0.31886873 -0.31777874 0.08924349 -0.23444901 -0.12486154 -0.4322287 -0.39340118 0.005672085
00000000: dd71 343e 400b 963e 85cf 453d b03d c3bc
00000010: a185 c93c 2f9b 8d3e 35fc 96be 0211 3ebd
00000020: 4ceb 21be ccd7 bd3d e010 31bd 7e5d 133e
00000030: 426d 2b3d 8599 8ebc 34ba 4f3e a436 b9bd
00000040: c8bf 083c 8c09 b13e 2e8f 8fbd 8ba3 19be
00000050: 1d98 fb3d b764 c1be 1678 b5bd 8fdf 0f3e
00000060: ca8d 9a3c 17a2 80be 7a6f 52be 22a0 553c
00000070: 8260 68be 8667 883e 04f9 f1be 2d97 5bbe
00000080: 3727 353d aed7 00be 750e 493e dcb0 a9be
00000090: 785b abbe 89e4 3abe 26ce 2dbe 11dc 14bc
000000a0: f887 653e c8da c2be 1d7f ad3d e277 febd
000000b0: 148f aabe b25c c33d 158c aebd d5e6 d03c
000000c0: 0f41 6abe b7af a93d 83c9 adbe 24a6 5d3e
000000d0: 61b7 d5bd 6d5e b8be a5bc 3b3c 52cd 08bd
000000e0: 48d1 c2bc b02c 49be 25e0 2bbd 760c ecbd
000000f0: 61ba 63be fc23 ac3b 2f34 4dbd d75d 8d3d
00000100: 76c4 b6bc cc94 013e c522 f53d cbd2 d53c
00000110: 4937 353e 1e87 90bd 6eb7 f33d f1df 17be
00000120: 69c3 1c3e a623 85be 5166 f73d 2b08 f3bd
00000130: ac72 4e3d 9948 e3bd 9e23 4d3d c492 f4bd
00000140: abac 69be 1b3f 4a3e d623 6a3e 0f8d 1abe
00000150: dafe a1bd 907c 5a3e d783 1abe 00d6 203e
00000160: e289 ca3d 0ba6 a6bc ec08 49be a606 a03d
00000170: a0ae b2be 12dd 1dbe 4a43 633e bd84 883c
00000180: 5e3d d7be 44be acbe c6bf a9bc 680c 14be
00000190: 92f3 a1be 760a 053e 0da6 c73d 7c43 bbbd
000001a0: 42e1 8ebd 20f3 f43d cab0 54be cad0 dc3c
000001b0: dccb 9abd d15a 4e3e be28 8dbe 6766 9b3e
000001c0: c153 57be 84ed 3fbd fc69 5a3e 2bb3 2e3e
000001d0: b937 933e 8a87 2a3d 0edb c53c 58bc ddbe
000001e0: 0dfb 643e 17a9 513e 1280 dd3c 3be5 ec3c
000001f0: 0136 ddbd edd7 153e 727c 2bbe 09ec 073e
00000200: de71 c4bd ad2c 353e 3fd1 133c cd48 c73e
00000210: 1632 b5bd 6779 ae3e f8ca 4dbd 8fd5 5fbd
00000220: cfe6 a93e f240 6f3b 3664 5c3c f1e6 eabd
00000230: 4cf0 853e 691f 9abe f54f f93d f2f2 1a3e
00000240: 8a27 033e 018e 82be 7a63 033e ded9 17bc
00000250: b419 ebbe 791c e93e 1aa6 1cbd 6763 bbbe
00000260: 3c5a ebbd 7cae 383e bfdf 5abe fd73 8fbd
00000270: 5706 4ebe 4e89 d7bc ee76 89be c848 eb3d
00000280: 5648 1f3e 06bf 843e ac60 843b cbed 98be
00000290: 665b b13c 7be2 b1bd c817 f73a 0b96 cc3c
000002a0: 5aac 1f3d 26b8 bf3c 2328 5bbe 7396 5abe
000002b0: cbe5 363e 25c8 c93c c57d 2fbe 9aee 353d
000002c0: 013d 9dbe 5a0c 843e 98da 363e c625 e23d
000002d0: dcce 28bd ed32 9fbd 4bf2 91bd 3528 863d
000002e0: b2a8 173e 2419 833c 949c cbbd 69c0 3fbd
000002f0: f56a 8c3e 280d e23c 6f9c 143d d9dc 703d
00000300: 97d5 f13d d227 233e d398 903e f65b 543e
00000310: 4df0 8b3c a008 4eba b318 123e c261 edbd
00000320: a038 92be 458d 973e 56aa ca3d 5606 4e3d
00000330: 68e8 003d 29e2 953d 5737 033c 006b d53d
00000340: cdea 77bd 6677 f23d f45d 2fbd 5d8d 8c3e
00000350: d716 b3be 2756 b5be 8da0 e63d 3dd1 cabe
00000360: f7dc 883e 2731 833c 0b2d 91be 4c8e 05be
00000370: d9fc bfbd 82dd a3bd 28ec 153e 7a96 0b3d
00000380: b6f6 a6be f50f f53d 5525 8cbe 9092 43bd
00000390: 050f 7d3e 93e8 673e 00fb 733e 371d 43be
000003a0: d283 0bbe f031 7c3d bf59 76be 6bee 5dbd
000003b0: b086 d7bc 9002 c1bd fb62 bbbd 6c1a e7bc
000003c0: 3061 38bd 2686 9b3e a7a6 49be d35e b2bd
000003d0: 5550 8dbe 8d97 abbe 15a7 a3be 9e12 30be
000003e0: c342 a3be e5b3 a2be 4ac5 b63d 6713 70be
000003f0: 68b7 ffbd 154d ddbe e16b c9be e6dc b93b

pos_net.linears.2.bias f4 [30]
-0.020743031 -0.2912518 0.31684685 0.121032745 -0.1796685 0.33079803 0.06470698 -0.010301017
-0.29617146 -0.22529548 -0.16149871 -0.3022866 -0.15088584 -0.19007432 0.13795413 -0.22536163
-0.24327901 -0.0099471 -0.24716382 0.08916272 0.087115 -0.1796517 0.30554312 -0.18104157
-0.35018146 0.3547908 0.18943647 -0.17717342 -0.039754625 -0.19167762
00000000: 4aed a9bc f51e 95be c039 a23e 04e0 f73d
00000010: 05fb 37be 5c5e a93e 1885 843d 99c5 28bc
00000020: c9a3 97be dcb3 66be eb5f 25be 4fc5 9abe
00000030: d181 1abe d8a2 42be d943 0d3e 33c5 66be
00000040: 221e 79be 29f9 22bc 8318 7dbe f29a b63d
00000050: 5969 b23d 9ef6 37be 2670 9c3e f662 39be
00000060: fc4a b3be 24a7 b53e a2fb 413e f36c 35be
00000070: bfd5 22bd 2347 44be

pos_net.output_layer.weight f4 [6, 30]
0.19728838 -0.015585381 -0.19764787 -0.039391447 0.13480353 0.035985116 -0.23389165 0.018375594
0.06974661 0.123971865 -0.1694592 -0.02970985 0.032121006 0.14978264 0.24642313 0.3036208
-0.17971909 0.50973284 -0.21433999 -0.19184284 -0.01885955 0.21939024 0.22569945 0.102721035
-0.3392943 -0.28070527 -0.03098746 0.08612057 0.23215154 0.16257927 -0.27779675 -0.04944554
-0.058329348 0.42213842 -0.062154733 -0.060152907 -0.032303102 0.2954622 -0.2348896 -0.24543233
-0.09502941 -0.11722642 -0.007633171 0.06439206 0.25789472 -0.11680306 -0.053017173 -0.11048783
0.16195665 0.1971894 -0.19693369 -0.23629035 0.1979565 -0.15814416 0.19581689 0.007189896
-0.090053104 0.39702845 -0.3010248 -0.21495079 -0.029172964 -0.041712996 -0.15451057 -0.23759966
0.08064276 0.028747056 -0.05441065 0.25198263 0.2041811 -0.16524222 -0.01585947 -0.13550855
-0.063082695 0.18976928 0.2703199 0.114609994 -0.011588117 -0.08204931 -0.076276936 0.15625909
-0.21224263 0.15809089 0.34458578 -0.18624182 -0.18986736 -0.05002386 0.0046917885 0.21227348
-0.26345134 0.16498627 0.21249744 0.21812238 0.026017727 -0.05657678 0.2246785 0.0025810609
0.16805941 -0.012994753 0.16677457 0.115170866 0.13848251 0.2111111 0.363891 0.24751475
-0.020144327 0.12277452 0.20575018 -0.026252586 0.1509885 -0.014374912 0.16485704 0.15610081
-0.052503664 0.336129 0.09781214 -0.4144912 -0.4681698 0.32113165 0.35874483 0.13834919
0.11397067 0.0405844 0.09254591 0.12139193 -0.08365263 0.010203626 0.1691693 0.09105604
-0.060090758 -0.029900977 0.15175478 0.2629418 0.12729256 -0.012382993 0.14457437 -0.06318764
0.025068555 0.24979003 0.33359614 -0.11272627 0.10592873 -0.16737916 0.23107442 -0.0031796615
0.10991549 0.27314496 -0.08792711 -0.04396403 0.033298053 -0.20045412 0.2639841 0.040463068
-0.14138894 0.16165051 0.24357128 -0.38997343 0.17390232 0.10537538 -0.011205137 0.0061927764
0.08489491 0.20012276 0.1314968 0.32077307 0.36533383 0.25058284 -0.24833338 -0.24328542
-0.08033574 -0.3065742 0.13763425 -0.13850956 0.027143525 0.10649924 -0.17744306 -0.32047215
0.3997724 -0.26390347 -0.23213845 0.21417136
00000000: f705 4a3e d359 7fbc 3464 4abe ed58 21bd
00000010: f009 0a3e 2165 133d 4b81 6fbe 6a88 963c
00000020: 50d7 8e3d f6e4 fd3d b686 2dbe 1262 f3bc
00000030: 5191 033d 9f60 193e 5856 7c3e 2f74 9b3e
00000040: 4808 38be da7d 023f f17b 5bbe 7372 44be
00000050: 587f 9abc d6a7 603e c21d 673e 685f d23d
00000060: fcb7 adbe 9ab8 8fbe 6ad9 fdbc fb5f b03d
00000070: 22b9 6d3e 2e7b 263e 603b 8ebe 6887 4abd
00000080: c1ea 6ebd 8722 d83e f695 7ebd e562 76bd
00000090: 4250 04bd d246 973e e686 70be 9d52 7bbe
000000a0: c89e c2bd 6814 f0bd ae1f fabb fcdf 833d
000000b0: c70a 843e 7136 efbd 8928 59bd 7247 e2bd
000000c0: f7d7 253e 05ec 493e fca8 49be 19f6 71be
000000d0: 1cb5 4a3e 8bf0 21be 3984 483e 3899 eb3b
000000e0: c36d b8bd 5047 cb3e ec1f 9abe 0f1c 5cbe
000000f0: 24fc eebc 3fdb 2abd 0538 1ebe 534d 73be
00000100: 0828 a53d f27e eb3c b4dd 5ebd de03 813e
00000110: da14 513e 4235 29be b8eb 81bc c1c2 0abe
00000120: 8031 81bd e152 423e 5f67 8a3e a5b8 ea3d
00000130: 16dc 3dbc 7809 a8bd 1537 9cbd 6202 203e
00000140: 2256 59be 94e2 213e 8c6d b03e 2db6 3ebe
00000150: 976c 42be d2e5 4cbd 93bd 993b 385e 593e
00000160: 18e3 86be 29f2 283e ee98 593e 795b 5f3e
00000170: 2123 d53c 0ebd 67bd 1f12 663e 0427 293b
00000180: c417 2c3e f2e7 54bc f4c6 2a3e b4de eb3d
00000190: 5cce 0d3e 822d 583e ec4f ba3e 8274 7d3e
000001a0: b705 a5bc 3571 fb3d 2db0 523e aa0f d7bc
000001b0: bb9c 1a3e c084 6bbc 49d0 283e e4d8 1f3e
000001c0: 150e 57bd 1a19 ac3e bb51 c83d 3138 d4be
000001d0: f4b3 efbe 5e6b a43e 67ad b73e 69ab 0d3e
000001e0: 7469 e93d d43b 263d b688 bd3d 559c f83d
000001f0: 1252 abbd 1c2d 273c b83a 2d3e 977b ba3d
00000200: ba21 76bd e5f2 f4bc 9b65 1b3e 4fa0 863e
00000210: fb58 023e 09e2 4abc 4e0b 143e 8568 81bd
00000220: 925c cd3c f5c8 7f3e 1dcd aa3e 08dd e6bd
00000230: 29f1 d83d 7165 2bbe c69e 6c3e de61 50bb
00000240: 5f1b e13d a8d9 8b3e 2113 b4bd a013 34bd
00000250: 8a63 083d d843 4dbe ed28 873e 9abc 253d
00000260: 43c8 10be b687 253e c06a 793e 99aa c7be
00000270: 7313 323e 0ccf d73d c095 37bc c6ec ca3b
00000280: 62dd ad3d fbec 4c3e 19a7 063e 5e3c a43e
00000290: 090d bb3e 654c 803e 1b4b 7ebe d01f 79be
000002a0: 1087 a4bd 4bf7 9cbe feef 0c3e 73d5 0dbe
000002b0: 195c de3c 461c da3d a2b3 35be ed14 a4be
000002c0: f8ae cc3e 5b1e 87be b4b5 6dbe bd4f 5b3e

pos_net.output_layer.bias f4 [6]
-0.33878845 0.113601185 -0.04093249 -0.23930347 0.2681823 -0.29879957
00000000: ae75 adbe bda7 e83d d4a8 27bd f80b 75be
00000010: 314f 893e 42fc 98be

neg_net.linears.0.weight f4 [30, 12]
0.19590096 0.20672466 -0.064177 -0.14684363 0.2003293 -0.22418839 0.38372582 0.1678449
-0.02008009 -0.040451244 0.10072446 0.20025103 -0.27021712 -0.3517815 -0.046242304 -0.027441673
-0.08953138 0.15377113 -0.09395426 -0.11990781 -0.14540392 0.10791882 -0.31336728 -0.067291565
0.08748805 0.26362956 -0.048477422 -0.22324146 0.22857653 0.06993896 0.012918114 -0.1313704
-0.13931143 -0.045079447 -0.16911313 0.5650135 -0.13023663 0.0039819246 -0.32655978 -0.17276517
-0.085771754 -0.12850296 -0.053307585 0.044918712 -0.23503718 0.113983534 0.09492352 -0.14381237
-0.121253185 -0.028690845 -0.3446936 -0.14502168 0.026067596 -0.0697487 -0.37938583 0.24203908
-0.06761309 -0.37309384 -0.21469675 0.32732594 -0.27224648 -0.3884485 -0.19515865 -0.14412493
0.12659681 -0.1401821 -0.10780229 0.33755964 0.47837374 -0.25556755 -0.36508662 0.39920565
-0.15194833 -0.12278914 0.13099062 -0.18311913 0.0636072 -0.33518898 0.39007282 -0.24531838
0.27739963 -0.38030884 -0.20438564 -0.29626605 0.027847523 -0.20469844 0.28141525 0.51088834
-0.17509316 0.21371526 -0.05146891 0.19610631 -0.11200959 0.22441767 -0.1324571 -0.2791999
-0.067079596 -0.023459986 0.03061523 -0.029974073 -0.45277885 0.014876113 0.05783815 0.15626591
-0.18575847 -0.049892318 -0.53109324 -0.23458731 0.029535545 0.12212502 -0.23719248 0.113558844
0.25314686 -0.4959304 -0.047046512 -0.020327985 0.44094017 -0.21645762 -0.04228268 0.15262917
-0.0773776 -0.5828406 0.013405087 0.1393888 -0.23222773 0.6199321 0.07102889 -0.16862983
0.09010818 0.090420075 -0.3054399 -0.25911552 0.11052349 -0.11609207 -0.0459304 -0.10337732
-0.49093065 -0.025881 0.017872818 -0.18790197 -0.22101758 0.08841319 -0.05340497 0.3065742
0.04400533 -0.16237462 0.2090851 0.32423118 -0.15583196 -0.2404386 0.12644881 0.050818555
0.078094974 -0.13854988 0.13353354 -0.31536207 0.0076385764 -0.38119614 0.10931036 -0.20115182
0.22636236 -0.031153426 0.4413406 -0.11873103 0.03721606 -0.02680016 -0.27881598 0.05409237
-0.14035745 0.3341125 -0.28974304 -0.02127456 0.29301912 0.022522178 0.06283183 -0.31968942
0.10221446 0.159757 0.27219492 0.19928534 -0.33943805 0.28668925 -0.3216253 -0.18519628
0.11227545 -0.14142096 -0.06000022 0.13131063 0.15461534 0.25779223 0.5447669 0.44060183
0.30171606 0.16816543 -0.10055069 0.020991627 0.30060947 -0.29588652 -0.20366405 -0.17438728
-0.15159006 -0.20526616 0.02939922 -0.28269583 0.12281479 -0.07520207 -0.093092814 -0.23357758
-0.22031942 -0.40166107 -0.048406072 -0.2365367 0.023686323 0.011763135 -0.16062666 0.11706862
0.099259436 0.04254955 0.20080361 0.23898195 0.040864255 -0.19063653 0.11653229 -0.120871186
-0.09763456 -0.29301172 -0.26562682 0.06867163 -0.20506084 -0.010861309 -0.39996582 0.006017791
-0.22095451 0.012189753 -0.0023108125 -0.17456263 -0.092019394 -0.28232306 0.2017296 0.0218363
0.12691817 0.035386924 -0.08422477 -0.20956112 -0.049412858 0.28073853 0.07147602 -0.020116681
-0.06684145 -0.28242347 0.098948516 -0.16386929 0.02115507 0.11193881 -0.07826549 -0.20891152
00000000: 439a 483e a1af 533e 3b6f 83bd 2d5e 16be
00000010: 2023 4d3e a491 65be b677 c43e 89df 2b3e
00000020: 007f a4bc 34b0 25bd a048 ce3d 9b0e 4d3e
00000030: e659 8abe b41c b4be 9268 3dbd 5ccd e0bc
00000040: 3a5c b7bd 2e76 1d3e 176b c0bd 3a92 f5bd
00000050: c4e4 14be 8b04 dd3d ad71 a0be 29d0 89bd
00000060: ef2c b33d 74fa 863e 4390 46bd 6999 64be
00000070: f70f 6a3e 283c 8f3d 7fa6 533c f685 06be
00000080: a8a7 0ebe 3aa5 38bd fe2b 2dbe baa4 103f
00000090: c05c 05be ce7a 823b d832 a7be 5ae9 30be
000000a0: 1aa9 afbd 4896 03be 0e59 5abd affc 373d
000000b0: 96ad 70be 3370 e93d 4367 c23d 8d43 13be
000000c0: 9753 f8bd 1009 ebbc ae7b b0be 9080 14be
000000d0: b68b d53c 68d8 8ebd dc3e c2be 18d9 773e
000000e0: bb78 8abd 2806 bfbe 77d9 5bbe 4497 a73e
000000f0: e463 8bbe b9e2 c6be abd7 47be 7c95 13be
00000100: 98a2 013e e58b 0fbe 72c7 dcbd 9ed4 ac3e
00000110: 67ed f43e c0d9 82be a2ec babe af64 cc3e
00000120: 5898 1bbe df78 fbbd 6822 063e 9583 3bbe
00000130: 7e44 823d e49d abbe a0b7 c73e be34 7bbe
00000140: 5307 8e3e d7b7 c2be 784a 51be 2fb0 97be
00000150: 7d20 e43c 789c 51be a915 903e 94c9 023f
00000160: 9f4b 33be 2cd8 5a3e 10d1 52bd 18d0 483e
00000170: 4965 e5bd bfcd 653e d6a2 07be 4af3 8ebe
00000180: 0761 89bd 282f c0bc cacc fa3c 308c f5bc
00000190: a1d2 e7be f1ba 733c b2e7 6c3d 2c04 203e
000001a0: 7837 3ebe e35b 4cbd baf5 07bf a837 70be
000001b0: 87f4 f13c af1c fa3d 96e2 72be 8a91 e83d
000001c0: 779c 813e 97ea fdbe d8b3 40bd e086 a6bc
000001d0: e9c2 e13e 11a7 5dbe 9a30 2dbd d24a 1c3e
000001e0: 2678 9ebd 0b35 15bf 03a1 5b3c f0bb 0e3e
000001f0: 1bcd 6dbe dfb3 1e3f 9877 913d 4cad 2cbe
00000200: a38a b83d 292e b93d 9e62 9cbe caaa 84be
00000210: 245a e23d aec1 edbd 8421 3cbd 7db7 d3bd
00000220: 435b fbbe 6404 d4bc 046a 923c 6069 40be
00000230: 6f52 62be f911 b53d 2bbf 5abd 4bf7 9c3e
00000240: ef3e 343d 8845 26be 681a 563e a101 a63e
00000250: 6a92 1fbe 8935 76be cc7b 013e 1e27 503d
00000260: 42f0 9f3d 05e0 0dbe 04bd 083e 2377 a1be
00000270: 064d fa3b 242c c3be 1cde df3d befa 4dbe
00000280: 89cb 673e 7835 ffbc 65f7 e13e 4129 f3bd
00000290: de6f 183d 028c dbbc f8c0 8ebe f68f 5d3d
000002a0: ddb9 0fbe cb10 ab3e 3359 94be fc47 aebc
000002b0: 9a06 963e 6e80 b83c f9ad 803d 55ae a3be
000002c0: d155 d13d 5797 233e 225d 8b3e 7511 4c3e
000002d0: d3ca adbe efc8 923e 12ac a4be 18a4 3dbe
000002e0: acf0 e53d a8d0 10be cac2 75bd 4b76 063e
000002f0: 7c53 1e3e 58fd 833e d875 0b3f 9096 e13e
00000300: 877a 9a3e 8f33 2c3e 85ed cdbd a2f6 ab3c
00000310: 7ce9 993e 707e 97be 4f8d 50be 9492 32be
00000320: 6d3a 1bbe 4b31 52be a2d6 f03c 82bd 90be
00000330: 5286 fb3d 8b03 9abd 72a7 bebd f62e 6fbe
00000340: 6a9b 61be 85a6 cdbe 7245 46bd ad36 72be
00000350: d209 c23c 2aba 403c 517b 24be acc1 ef3d
00000360: 8848 cb3d 7048 2e3d 769f 4d3e afb7 743e
00000370: 4761 273d 3936 43be 7ba8 ee3d 508b f7bd
00000380: a1f4 c7bd a205 96be 3d00 88be b6a3 8c3d
00000390: 78fb 51be a2f3 31bc 52c8 ccbe e430 c53b
000003a0: e641 62be 88b7 473c 0071 17bb 8cc0 32be
000003b0: aa74 bcbd a68c 90be 3492 4e3e 0ae2 b23c
000003c0: d6f6 013e e1f1 103d 097e acbd 3197 56be
000003d0: 2365 4abd f6bc 8f3e 0562 923d bdcb a4bc
000003e0: 2ce4 88bd cf99 90be 85a5 ca3d 5acd 27be
000003f0: 664d ad3c 2d40 e53d a849 a0bd e7ec 55be

neg_net.linears.0.bias f4 [30]
0.104593754 -0.13084973 -0.21915673 -0.12502241 -0.12770435 -0.10891275 -0.1882146 -0.12805288
-0.06475718 -0.13131094 0.06496524 0.09246638 -0.19179311 0.08630226 -0.024565743 -0.03873587
-0.17376342 -0.22062561 -0.07771915 -0.119274914 -0.19898094 -0.06751282 0.16795896 0.06762166
0.09521277 -0.38148844 0.22229563 0.2065877 -0.14523162 -0.23699772
00000000: 4035 d63d 79fd 05be 9f6a 60be e005 00be
00000010: eec4 02be a60d dfbd 54bb 40be 4b20 03be
00000020: 6a9f 84bd 6076 06be 7f0c 853d 035f bd3d
00000030: 6a65 44be 3dbf b03d 193e c9bc 81a9 1ebd
00000040: 0aef 31be aeeb 61be 382b 9fbd 6846 f4bd
00000050: a9c1 4bbe 2944 8abd 6ffd 2b3e 3a7d 8a3d
00000060: eafe c23d 7452 c3be 77a1 633e ba8b 533e
00000070: 99b7 14be 88af 72be

neg_net.linears.1.weight f4 [30, 30]
0.18373467 -0.2639977 -0.18995467 -0.13013433 0.1627061 0.13532242 -0.15757555 -0.28649858
-0.16314395 0.27530134 -0.38493237 -0.15115812 -0.13727966 -0.41544083 0.09505194 0.2102387
-0.23225391 0.18068703 0.1028372 0.13274297 0.2994745 -0.0165884 -0.24772124 -0.5413376
-0.120823234 -0.2250227 -0.05717833 -0.2627114 -0.24431032 0.05004064 0.09520244 0.062772244
0.19129813 -0.18893075 -0.19874695 -0.25422776 0.033867635 -0.30497906 0.15055732 -0.17467862
0.06965177 -0.19676122 -0.15025762 0.27976295 -0.07308792 0.023077358 -0.17650747 -0.28475168
-0.22103146 -0.18439761 -0.024634248 0.2569485 -0.3292013 -0.24055241 -0.30416042 0.33124298
0.2082495 -0.29292333 0.22203307 0.065771244 -0.14296581 0.08673659 -0.039316367 -0.3422279
0.14567399 -0.0026215252 -0.2625238 0.13719878 0.17243224 -0.44805628 0.14234586 0.2005716
-0.29234305 -0.1633491 -0.20816618 -0.40131164 -0.18206203 -0.1609525 -0.045068137 -0.1382551
-0.041868642 -0.088802874 -0.20940697 -0.038063303 -0.037515856 -0.2751936 -0.15652409 0.1363222
-0.09018944 0.046850223 -0.32262036 0.04535048 -0.29006314 -0.13637811 0.09346505 -0.020727672
-0.25359055 -0.083090305 -0.1467216 -0.13841064 -0.04387518 -0.20002875 -0.10974717 -0.3617093
-0.049468875 0.29209828 -0.2189515 -0.14686255 -0.1760605 0.19560058 0.10519189 -0.21790837
-0.173558 0.14361806 -0.29269567 -0.023455974 -0.2269896 0.15661487 -0.18596944 0.029058136
-0.11579243 -0.12971911 0.04765451 -0.096079536 0.01456921 -0.12301066 -0.18492235 -0.018685013
0.0227087 -0.13613679 -0.02551832 -0.015891626 -0.22554117 -0.11829074 -0.1465966 -0.20859985
-0.082229845 -0.010484923 -0.12261747 0.0866797 0.014922123 -0.014905362 -0.1910786 -0.09702687
-0.15938133 0.0058175735 -0.21081941 0.04420166 0.06332005 -0.20820567 -0.043795798 -0.015261827
-0.03779733 -0.010854681 -0.295813 -0.18396175 -0.42766717 0.19535121 -0.07013561 -0.24119315
0.15761355 0.040525828 -0.30254883 -0.12962167 -0.13816442 -0.4166871 -0.11011372 0.09289109
0.12738559 -0.1449537 0.12332925 0.054137196 0.23476826 0.14365473 -0.051889803 -0.34448224
-0.28781044 0.1712267 -0.30605438 -0.01103106 0.13802545 -0.07576607 -0.10314205 -0.09459448
-0.11466463 -0.16421065 0.08251674 -0.23321217 -0.038355548 -0.035458274 -0.038172096 -0.14060408
-0.0048620636 0.09044029 -0.2241228 -0.030953765 -0.096580625 -0.15977432 -0.06309668 -0.30003724
0.05082584 -0.047590386 -0.05606282 -0.11985622 -0.2019571 0.22596781 0.24085756 -0.087178096
0.22604164 0.045703348 -0.26599464 -0.15275425 0.012968093 -0.19464107 0.0072152372 0.032030277
-0.0072730333 -0.004276745 -0.016382994 -0.017483756 -0.10534923 0.004500401 -0.021121366 0.021449784
-0.19648322 0.0054478273 -0.11785053 -0.0004085349 0.017018905 -0.035000183 -0.14829224 -0.10119568
-0.1929224 -0.10042404 -0.18753721 -0.013573041 -0.20673242 -0.28187463 0.025017053 -0.18391427
-0.2717973 -0.20008497 -0.17180556 -0.24046598 -0.20231435 -0.34671593 0.07955551 -0.20418826
-0.09794875 -0.06591555 -0.12770543 -0.1430784 0.050314784 -0.38130158 -0.19345413 -0.061190553
00000000: f124 3c3e b52a 87be 7a83 42be ef41 05be
00000010: 6e9c 263e f691 0a3e 7c5b 21be f1af 92be
00000020: 350f 27be 4cf4 8c3e db15 c5be 32c9 1abe
00000030: 0a93 0cbe a9b4 d4be 97aa c23d d048 573e
00000040: f8d3 6dbe 0506 393e 4f9c d23d c6ed 073e
00000050: b954 993e 65e4 87bc a3aa 7dbe 1a95 0abf
00000060: 2c72 f7bd 5a6c 66be d333 6abd 1c82 86be
00000070: 7c2c 7abe 6af7 4c3d 7ff9 c23d bc8e 803d
00000080: a8e3 433e 1077 41be 5284 4bbe 242a 82be
00000090: cab8 0a3d 3726 9cbe b32b 1a3e f4de 32be
000000a0: 96a5 8e3d c67b 49be 22dd 19be 173d 8f3e
000000b0: 1faf 95bd ba0c bd3c 60be 34be f9ca 91be
000000c0: 1256 62be bad2 3cbe c3cd c9bc c18e 833e
000000d0: 138d a8be 5f53 76be eaba 9bbe ae98 a93e
000000e0: 5b3f 553e 0cfa 95be a35c 633e 13b3 863d
000000f0: a165 12be f4a2 b13d 330a 21bd 7f38 afbe
00000100: 902b 153e e5cd 2bbb 8569 86be d67d 0c3e
00000110: 1492 303e a267 e5be 1dc3 113e a462 4d3e
00000120: fdad 95be fd44 27be 8429 55be b878 cdbe
00000130: 786e 3abe bbd0 24be 5e99 38bd bf92 0dbe
00000140: 747e 2bbd 48de b5bd c86e 56be 44e8 1bbd
00000150: 3aaa 19bd 2de6 8cbe da47 20be 0c98 0b3e
00000160: 3eb5 b8bd 05e6 3f3d 7f2e a5be 6dc1 393d
00000170: 2883 94be b4a6 0bbe 9b6a bf3d 14cd a9bc
00000180: 9fd6 81be 402b aabd 303e 16be 85bb 0dbe
00000190: 76b6 33bd 56d4 4cbe 20c3 e0bd f631 b9be
000001a0: e09f 4abd e88d 953e d234 60be 2363 16be
000001b0: 3449 34be 854b 483e d86e d73d 5f23 5fbe
000001c0: 30b9 31be 9d10 133e 35dc 95be be26 c0bc
000001d0: f66f 68be a65f 203e c66e 3ebe 540b ee3c
000001e0: 9524 edbd 16d5 04be 6031 433d 59c5 c4bd
000001f0: b2b3 6e3c 03ed fbbd 495c 3dbe 5011 99bc
00000200: 9807 ba3c 7167 0bbe cc0b d1bc 282f 82bc
00000210: 44f4 66be 6a42 f2bd 6b1d 16be 339b 55be
00000220: 1f68 a8bd f4c8 2bbc de1e fbbd 2085 b13d
00000230: ec7b 743c 9f35 74bc 1caa 43be 06b6 c6bd
00000240: dc34 23be 58a1 be3b 0be1 57be cd0c 353d
00000250: f1ad 813d de33 55be 3963 33bd be0c 7abc
00000260: 60d1 1abd d5d7 31bc cd74 97be 7860 3cbe
00000270: 31f7 dabe 260a 483e 42a3 8fbd 56fb 76be
00000280: 7265 213e 69fe 253d aee7 9abe 8bbb 04be
00000290: f97a 0dbe 0358 d5be 4d83 e1bd af3d be3d
000002a0: 5e71 023e be6e 14be 0c94 fc3d f7be 5d3d
000002b0: 1767 703e 3a1a 133e 678a 54bd fa5f b0be
000002c0: e45b 93be 0d56 2f3e 29b3 9cbe 9ebb 34bc
000002d0: 8b56 0d3e 3e2b 9bbd 243c d3bd c0ba c1bd
000002e0: 4ad5 eabd d626 28be 89fe a83d 2ccf 6ebe
000002f0: b51a 1dbd b23c 11bd 585a 1cbd 84fa 0fbe
00000300: f251 9fbb c238 b93d 7380 65be c092 fdbc
00000310: 10cc c5bd e19b 23be d538 81bd 7b9e 99be
00000320: c22e 503d 23ee 42bd 21a2 65bd 2e77 f5bd
00000330: d8cd 4ebe 1b64 673e 5da3 763e 6e8a b2bd
00000340: 7677 673e 6f33 3b3d 7330 88be 9c6b 1cbe
00000350: 2078 543c fd4f 47be cc6d ec3b 2e32 033d
00000360: a052 eebb f023 8cbb a135 86bc 183a 8fbc
00000370: 56c1 d7bd 1a78 933b b706 adbc 75b7 af3c
00000380: e632 49be b083 b23b 9e5b f1bd a030 d6b9
00000390: 3b6b 8b3c 5a5c 0fbd ecd9 17be ae3f cfbd
000003a0: 738d 45be 1eab cdbd c109 40be 7661 5ebc
000003b0: aab1 53be df51 90be 90f0 cc3c 0654 3cbe
000003c0: 0429 8bbe 13e3 4cbe cced 2fbe b73c 76be
000003d0: 7e2b 4fbe c084 b1be 00ee a23d ba16 51be
000003e0: 5b99 c8bd bbfe 86bd 36c5 02be 2583 12be
000003f0: e016 4e3d f639 c3be d718 46be f2a2 7abd

neg_net.linears.1.bias f4 [30]
-0.0034339805 0.15335205 0.11165036 0.05860939 -0.3512912 0.15118001 -0.11942424 -0.32583332
-0.23830734 -0.09641464 -0.3994736 -0.15527964 -0.03444724 -0.18989502 -0.231406 -0.044165816
-0.062218744 0.054735646 0.10364473 -0.32222837 0.17529143 -0.1816777 -0.14886636 -0.11567978
-0.20992345 -0.22066072 0.13848686 0.31002003 0.0757875 -0.04745728
00000000: a20c 61bb 5208 1d3e f2a8 e43d 6610 703d
00000010: 71dc b3be efce 1a3e b294 f4bd a0d3 a6be
00000020: d706 74be 0a75 c5bd ce87 ccbe a001 1fbe
00000030: 8d18 0dbd d773 42be b2f5 6cbe 37e7 34bd
00000040: 15d9 7ebd 7c32 603d b043 d43d 1efb a4be
00000050: 997f 333e b809 3abe 6c70 18be 85e9 ecbd
00000060: 2cf6 56be e2f4 61be 80cf 0d3e f2ba 9e3e
00000070: 7a36 9b3d 9162 42bd

neg_net.linears.2.weight f4 [30, 30]
0.020240445 -0.17492405 0.16942957 -0.18180932 -0.26867288 -0.17545818 -0.2277462 0.23542811
0.087052435 -0.23460227 -0.07306017 -0.3336283 -0.090222105 -0.17886855 -0.24179842 -0.40989095
-0.18301718 -0.098370485 -0.20620985 0.12829007 -0.010220693 0.010119913 -0.15878262 -0.12210078
-0.19842254 0.03807074 0.105375275 -0.1546525 -0.3295922 -0.007824514 -0.2416901 0.033988908
0.25414708 -0.03092877 -0.025851047 0.18944289 0.2847043 -0.013389049 -0.02416164 0.1270302
0.039393544 0.07366704 -0.0010089185 0.025385162 -0.29378295 0.16359954 0.1382266 0.24901593
0.23253262 0.1667831 0.14111218 -0.011759403 -0.12312757 -0.013760872 -0.0010357136 0.011983877
0.20908524 0.111465886 0.035868227 -0.051855013 0.25181618 0.027024023 0.19240814 -0.30594382
0.10455679 -0.107824996 0.018386966 -0.095816754 0.2574346 0.1926206 0.0030258447 0.28850526
-0.041344326 -0.1781845 -0.15452358 0.018552087 -0.06723955 -0.065846056 -0.1110995 -0.29054517
0.2258923 0.17293708 -0.1697696 -0.10698355 0.020085579 0.0038202344 0.1986048 -0.24849449
0.0027488098 0.2928929 0.032948703 -0.19339159 0.2512072 0.12532559 0.005033984 0.1874
-0.15586449 -0.009614399 -0.018645145 0.0336385 0.041264992 -0.01124378 0.032338507 -0.10384455
0.13969165 0.050080106 0.13816066 0.23780943 0.16010629 0.157983 0.042813983 0.04123532
0.11598705 0.011763828 -0.036754988 0.0133267455 0.11607463 -0.259002 -0.3647573 -0.08461805
-0.19257873 -0.20279646 -0.2565758 -0.20111962 0.105177544 -0.33305427 0.054910816 -0.02693962
-0.14675163 0.010452181 -0.036771145 -0.14741847 -0.040689435 0.10233274 -0.24049953 -0.08750701
-0.18402402 -0.11092242 -0.24453169 -0.17654082 -0.13014144 -0.09987698 -0.32707575 -0.22362337
-0.16326556 -0.016920425 -0.20235838 -0.03023109 0.079337284 -0.34569022 -0.13388763 0.110922486
-0.27002603 0.14348038 0.0047185645 -0.070028074 0.0201994 -0.011540738 -0.16879857 0.019618759
-0.03719496 -0.049321458 -0.014743285 -0.20921749 -0.10211425 0.040795762 -0.032585956 -0.17372388
-0.17768314 -0.043624133 -0.027886704 0.2421774 -0.10691753 -0.18444848 -0.094722554 0.038400162
0.1128004 0.045733638 -0.15418625 0.09549441 -0.23386371 -0.029920496 -0.25418803 -0.11525733
0.098433174 -0.46827322 -0.037339862 0.009373523 -0.24334729 -0.07930348 0.07070795 -0.035831384
-0.035932906 -0.12681818 -0.2167406 0.0032002544 -0.3083423 -0.31168208 -0.3119672 -0.17064345
-0.11301435 0.008945547 -0.29571843 -0.21887666 0.12684551 -0.106193036 -0.19049236 -0.08808786
-0.289205 -0.014773123 -0.0037429035 -0.22849691 -0.20259807 -0.18907386 0.018205117 0.004040852
-0.1557495 -0.0067208475 -0.020047618 0.029216008 0.027017215 -0.17024727 0.005888816 -0.20120884
-0.16662 -0.21394783 0.026840895 0.025195615 -0.18711285 -0.003007928 0.029017625 -0.0053551616
-0.013024034 -0.13971682 0.01888144 0.034651987 -0.02328817 -0.13776782 -0.14829099 0.039793987
-0.15727504 0.028963314 -0.3417394 -0.31924593 0.2540168 -0.029891022 0.13696237 0.12754415
0.10054354 -0.16382375 -0.040646292 -0.15194587 0.2354555 0.12801316 -0.22205006 0.0998315
00000000: 4acf a53c 4a1f 33be f27e 2d3e 392c 3abe
00000010: 7e8f 89be 4fab 33be 4d36 69be 1114 713e
00000020: 8c48 b23d 943b 70be 92a0 95bd 54d1 aabe
00000030: 5ec6 b8bd 5129 37be 019a 77be 3add d1be
00000040: db68 3bbe 7776 c9bd ad28 53be 795e 033e
00000050: b274 27bc fecd 253c e997 22be f90f fabd
00000060: 472f 4bbe 10f0 1b3d fece d73d 3a5d 1ebe
00000070: 4fc0 a8be 6432 00bc 9c7d 77be f437 0b3d
00000080: 911f 823e 555e fdbc 93c5 d3bc 51fd 413e
00000090: c3c4 913e be5d 5bbc a2ee c5bc 3414 023e
000000a0: 205b 213d bfde 963d b03d 84ba 8bf4 cf3c
000000b0: b86a 96be a386 273e 468b 0d3e 08fe 7e3e
000000c0: 081d 6e3e 30c9 2a3e b67f 103e 83aa 40bc
000000d0: 4f2a fcbd 4875 61bc c8c0 87ba 0658 443c
000000e0: 711a 563e 3a48 e43d 90ea 123d ec65 54bd
000000f0: 0dee 803e 7c61 dd3c a406 453e aba4 9cbe
00000100: df21 d63d 5ad3 dcbd 43a0 963c 933b c4bd
00000110: 78ce 833e 563e 453e 404d 463b f6b6 933e
00000120: ab58 29bd ff75 36be 6e3b 1ebe 8cfa 973c
00000130: e4b4 89bd 4cda 86bd 2288 e3bd 56c2 94be
00000140: 5050 673e 6b16 313e 15d8 2dbe 311a dbbd
00000150: 838a a43c e65c 7a3b 0f5f 4b3e 5775 7ebe
00000160: 6025 343b 0ff6 953e 38f5 063d 7208 46be
00000170: 3b9e 803e 5a55 003e 1ef4 a43b c9e5 3f3e
00000180: f19a 1fbe b685 1dbc b4bd 98bc 86c8 093d
00000190: 7b05 293d d537 38bc 6275 043d 74ac d4bd
000001a0: 540b 0f3e cc20 4d3d fd79 0d3e 5184 733e
000001b0: e7f2 233e 4cc6 213e b75d 2f3d 5ee6 283d
000001c0: 9e8a ed3d 12bd 403c 668c 16bd 6c58 5a3c
000001d0: 89b8 ed3d e99b 84be 78c1 babe 3a4c adbd
000001e0: 5c33 45be e0a9 4fbe e75d 83be 4df2 4dbe
000001f0: 5367 d73d 1786 aabe 2aea 603d 7ab0 dcbc
00000200: 0f46 16be a03f 2b3c 579d 16bd def4 16be
00000210: f7a9 26bd d493 d13d 8245 76be e036 b3bd
00000220: cb70 3cbe 4b2b e3bd 8466 7abe 1ec7 34be
00000230: cc43 05be 4d8c ccbd 7976 a7be 86fd 64be
00000240: 162f 27be b49c 8abc 0937 4fbe 31a7 f7bc
00000250: 967b a23d 4ffe b0be d719 09be 542b e33d
00000260: da40 8abe 85ec 123e 309e 9a3b e16a 8fbd
00000270: 3679 a53c 5d15 3dbc 88d9 2cbe 85b7 a03c
00000280: be59 18bd 4c05 4abd d28d 71bc 1c3d 56be
00000290: 4721 d1bd 7519 273d da78 05bd ace4 31be
000002a0: 92f2 35be 38af 32bd a872 e4bc 5afd 773e
000002b0: 94f7 dabd 10e0 3cbe e6fd c1bd 7d49 1d3d
000002c0: e503 e73d 3253 3b3d 00e3 1dbe 9392 c33d
000002d0: f879 6fbe d41b f5bc ef24 82be 090c ecbd
000002e0: 5597 c93d 82c1 efbe aff1 18bd 6893 193c
000002f0: 0830 79be dd69 a2bd 54cf 903d eec3 12bd
00000300: 622e 13bd a0dc 01be 3ff1 5dbe 5cbb 513b
00000310: 0bdf 9dbe cb94 9fbe 2aba 9fbe 28bd 2ebe
00000320: 1174 e7bd 5890 123c 6868 97be 3421 60be
00000330: cae3 013e bc7b d9bd 6e10 43be 6867 b4bd
00000340: ae12 94be f80a 72bc 804b 75bb 18fb 69be
00000350: de75 4fbe 949c 41be e622 953c 2069 843b
00000360: cc7c 1fbe 8e3a dcbb e73a a4bc 6956 ef3c
00000370: 3553 dd3c 4d55 2ebe f8f6 c03b b109 4ebe
00000380: 6f9e 2abe 2415 5bbe 70e1 db3c 0967 ce3c
00000390: 839a 3fbe a820 45bb 5fb6 ed3c 5a7a afbb
000003a0: c262 55bc ed11 0fbe 40ad 9a3c 3eef 0d3d
000003b0: d5c6 bebc 0213 0dbe 98d9 17be 05ff 223d
000003c0: b50c 21be 7944 ed3c 77f8 aebe 3474 a3be
000003d0: 7d0e 823e 04de f4bc dd3f 0c3e ef9a 023e
000003e0: c6e9 cd3d 6ac1 27be ba7c 26bd b397 1bbe
000003f0: 3f1b 713e e215 033e 1761 63be 7574 cc3d

neg_net.linears.2.bias f4 [30]
-0.35321307 0.11481362 0.029189901 0.16722491 -0.24339722 -0.22628745 -0.24392995 -0.22917609
0.045299716 -0.16831002 -0.016776452 -0.08615916 -0.12401508 0.011913445 0.0657442 -0.397615
0.047621336 0.06122097 -0.1373564 -0.022623057 -0.11126524 -0.14227729 0.21387385 0.16607617
-0.04446878 -0.0004941608 -0.29735512 -0.38384706 0.02971887 0.13559851
00000000: 58d8 b4be 6723 eb3d a91f ef3c 023d 2b3e
00000010: 1f3d 79be e6b7 67be c6c8 79be 23ad 6abe
00000020: 328c 393d 7659 2cbe c56e 89bc 3774 b0bd
00000030: 9efb fdbd 9c30 433c e5a4 863d 3194 cbbe
00000040: 970e 433d d7c2 7a3d 28a7 0cbe fd53 b9bc
00000050: 08df e3bd 23b1 11be bf01 5b3e df0f 2a3e
00000060: e524 36bd 928a 01ba ee3e 98be 9a87 c4be
00000070: fd74 f33c 56da 0a3e
