data/MTMR_28002/sim/random/Dist_1/train/N1000/D6_SinCosInput/8/result/model/ReLU_Dual_UDirection_BP.pt (torch_old, 22776 bytes, 20 tensors)

input_mean f4 [12]
0	0xbbc7d31f	-0.0060981656
1	0x3e85dd50	0.2614541
2	0x3be284ce	0.006912804
3	0x3e7936a8	0.24337256
4	0x3e8bf106	0.27332324
5	0xbc5b8a5a	-0.013399685
6	0x3f6d1f2c	0.9262569
7	0x3f6b70c3	0.91968936
8	0x3f71c073	0.9443428
9	0x3e403bd2	0.1877282
10	0x3e54c8e1	0.20779754
11	0x3f6b8f25	0.92015296

input_std f4 [12]
0	0x3ebda26f	0.3703799
1	0x3e8f6839	0.28009203
2	0x3ea664e3	0.32498845
3	0x3f25938c	0.64678264
4	0x3f27f001	0.6560059
5	0x3ec53009	0.3851321
6	0x3d8e534b	0.069494806
7	0x3dafb757	0.08579891
8	0x3d4edfa5	0.050506253
9	0x3f32aff4	0.69799733
10	0x3f2c114c	0.6721389
11	0x3d8e1357	0.069372825

output_mean f4 [6]
0	0x39221796	0.0001545831
1	0x3ec90019	0.39257887
2	0x3e43e240	0.19129276
3	0xbc3c2218	-0.011482738
4	0x3bbc7c8c	0.005752152
5	0x3ab774b6	0.0013996575

output_std f4 [6]
0	0x3b4c30e1	0.0031157064
1	0x3ee01925	0.43769184
2	0x3e5e0064	0.21679837
3	0x3d7aadb8	0.061200827
4	0x3d29920e	0.041399054
5	0x3c1cd0d5	0.009571274

pos_net.linears.0.weight f4 [30, 12]
0	0xbd98928f	-0.07449829
1	0x3e0420cd	0.12903138
2	0x3dddc3e4	0.10828379
3	0x3d2eed99	0.04270706
4	0xbe9eefc0	-0.3104229
5	0x3dbd00f3	0.09228697
6	0x3d012d61	0.031537417
7	0x3d93d510	0.07218373
8	0xbdaa1dc0	-0.083064556
9	0xbee8c45a	-0.45462304
10	0xbf1e561a	-0.6185013
11	0x3ddeba0d	0.1087533
12	0xbec8a71e	-0.3919
13	0x3db5d269	0.08878023
14	0x3e536fce	0.20648119
15	0xbf10a1ab	-0.56496686
16	0xbeaa64ed	-0.33280125
17	0xbe1167bb	-0.14199726
18	0xbe45b922	-0.19308904
19	0x3e0c4d62	0.13701394
20	0x3df7b82d	0.120956756
21	0x3da034cc	0.0782257
22	0x3e22871f	0.15871857
23	0x3dccdf7b	0.10003563
24	0xbcc8fd74	-0.024534918
25	0x3cbad17d	0.02280497
26	0x3d8027c1	0.062575825
27	0xbd02d831	-0.031944457
28	0xbe725430	-0.23664927
29	0x3e4cef03	0.2001305
30	0x3c75ac17	0.014994643
31	0x3d96f6bc	0.073712796
32	0x3e7192c8	0.23591149
33	0xbda85a6b	-0.08220371
34	0x3da4f30d	0.08054171
35	0xbcd9beaf	-0.026580183
36	0xbd8ed75f	-0.069746725
37	0xbeb0e9c4	-0.3455335
38	0xbeb12efa	-0.34606153
39	0xbe10465c	-0.1408934
40	0xbf096e06	-0.5368351
41	0x3caf1130	0.0213705
42	0x3d14c6fe	0.036322586
43	0x3e15a976	0.14615425
44	0xbc9a21c7	-0.018814934
45	0x3ea1a67b	0.31572327
46	0x3ec9418c	0.3930782
47	0x3dc887a2	0.09791495
48	0x3c4f736a	0.012661794
49	0xbf05b51f	-0.52229494
50	0xbee5b24c	-0.44862592
51	0xbf046eb8	-0.51731443
52	0x3e81fb23	0.25386915
53	0x3e8d3607	0.27580282
54	0xbc6c1cc2	-0.014411153
55	0x3d2b57e2	0.04183186
56	0x3cd5d140	0.026100755
57	0x3efb6cd6	0.49106473
58	0xbd126978	-0.035745114
59	0xbae71afa	-0.0017631941
60	0x3de8989d	0.11357234
61	0xbe6d824b	-0.23194234
62	0xbdf9f13a	-0.122042134
63	0xbed2d567	-0.41178438
64	0xbf0c18e0	-0.54725456
65	0xbec08032	-0.37597805
66	0xbd217c28	-0.039425045
67	0x3b0537ec	0.0020327521
68	0xbe0f1545	-0.13972957
69	0x3e23d355	0.15998586
70	0x3da6942a	0.08133729
71	0xbe1b42cd	-0.15162201
72	0x3db9bc78	0.09069151
73	0x3e5c3942	0.21506217
74	0x3e908220	0.28224277
75	0xbf4d64a3	-0.80231684
76	0x3ee9d7c5	0.45672432
77	0xbf035ca7	-0.5131325
78	0x3d00c199	0.03143463
79	0xbcf230f3	-0.029564356
80	0x3d45a7e8	0.04825583
81	0xbbbb9ae6	-0.0057252524
82	0x3d5cbded	0.053892065
83	0x3d256fd5	0.040389854
84	0x3dc6b940	0.097033024
85	0x3e6eda98	0.23325574
86	0x3e384553	0.17995195
87	0xbe0e6101	-0.13904192
88	0x3df078fc	0.11741826
89	0x3e14eb17	0.14542805
90	0x3d9846e6	0.07435398
91	0xbde513d1	-0.1118542
92	0x3d1e047c	0.038578495
93	0xbf68b6ea	-0.90904105
94	0x3e616e69	0.22014774
95	0xbddb1e6a	-0.106991604
96	0xbcee4496	-0.029085439
97	0x3e550e9e	0.20806357
98	0x3e9a379b	0.3012055
99	0x3deb02dc	0.11475155
100	0x3dd94709	0.10609252
101	0x3c9d872d	0.019229496
102	0x3d32b9a8	0.043634087
103	0x3d2f3b59	0.042781208
104	0xbbf80b3a	-0.0075696977
105	0xbf09f878	-0.5389476
106	0xbeb48e3c	-0.35264766
107	0x3d535f2f	0.051604446
108	0x3e4d44bd	0.20045753
109	0xbf113f65	-0.5673736
110	0xbf3cfb0e	-0.7382058
111	0x3ea2a037	0.3176286
112	0x3d565721	0.052329186
113	0xbebe3a89	-0.37154034
114	0x3d336a3c	0.043802485
115	0xbc40d1d2	-0.011768775
116	0xbd03b844	-0.03215815
117	0xbee6b5f2	-0.45060688
118	0xbe8472d8	-0.2586887
119	0xbcfab998	-0.030606076
120	0xbe364c3d	-0.1780252
121	0x3dd5e292	0.104436055
122	0x3c111852	0.008855896
123	0x3e23522e	0.15949318
124	0x3ca4e9fd	0.020131106
125	0xbe97f07d	-0.29675665
126	0x3d9d7f33	0.07690277
127	0xbdac7b6c	-0.08421978
128	0x3ca6f225	0.020379135
129	0xbeac7b09	-0.33687618
130	0x3d9a96ec	0.07548317
131	0xbd311694	-0.043234423
132	0x3d3b0d4e	0.045666985
133	0xbd84444e	-0.064583406
134	0xbe6f39e9	-0.23361935
135	0x3def1e31	0.116756804
136	0x3e10cb94	0.14140159
137	0x3e01ccfd	0.12675853
138	0xbdbe24d8	-0.09284371
139	0x3de1feeb	0.1103495
140	0x3d780656	0.060552917
141	0xbe86a822	-0.2630015
142	0xbf05e9b5	-0.52309734
143	0xbe1c335b	-0.15253966
144	0x3ccc888c	0.024967454
145	0xbe63912c	-0.22223347
146	0xbea80041	-0.32812694
147	0xbe41b893	-0.18918066
148	0xbea8f3fb	-0.32998642
149	0xbed12cf7	-0.40854618
150	0x3cc93f86	0.024566423
151	0x3d7f7793	0.062369894
152	0x3da3b528	0.07993537
153	0x3e86c004	0.2631837
154	0xbec4bac9	-0.38423756
155	0x3b961411	0.004580029
156	0x3dac5999	0.08415527
157	0x3e2f02a5	0.17090853
158	0x3e0a9f7f	0.13537405
159	0xbea4c085	-0.3217813
160	0xbe615baa	-0.22007623
161	0xbe2453bb	-0.16047566
162	0xbda3cb59	-0.0799777
163	0x3d9f902b	0.0779117
164	0x3be5784e	0.007002867
165	0xbf2e2a54	-0.6803334
166	0xbdd05f09	-0.101743765
167	0x37c660e0	2.364855e-05
168	0xbe7275c3	-0.23677735
169	0x3e8505db	0.2598103
170	0x3eb110ed	0.34583226
171	0x3d862eb6	0.06551878
172	0xbd0c879a	-0.034309007
173	0x3ea023cc	0.3127731
174	0x3c24ae9b	0.010051395
175	0xbe26d9c3	-0.16294007
176	0xbd16cc8c	-0.036816165
177	0xbe3b7a6f	-0.18308423
178	0x3e80ad21	0.25132087
179	0x3e2203bc	0.15821737
180	0x3d6e048a	0.058109798
181	0x3ec81a75	0.39082685
182	0x3ecece15	0.40391603
183	0x3f024326	0.5088371
184	0x3d1b8537	0.03796884
185	0xbdc5cae7	-0.09657841
186	0xbcb2db55	-0.021833101
187	0xbe0a2b74	-0.13493139
188	0x3d8fe3f3	0.070259
189	0xbd75a0e6	-0.059967898
190	0xbe89c23d	-0.26906005
191	0xbdaee9a5	-0.08540658
192	0xbdcd3608	-0.10020071
193	0xbdf1540f	-0.11783611
194	0xbebee27d	-0.37282172
195	0xbd17a0f3	-0.037018728
196	0x3e6f5e34	0.2337578
197	0xbdb3956a	-0.08768733
198	0xbd63884d	-0.05554991
199	0x3e008da8	0.12554038
200	0x3daecf4b	0.08535632
201	0xbf506f87	-0.8142018
202	0x3e33ad6c	0.17546624
203	0x3e1101ff	0.14160918
204	0x3be9d75e	0.0071362695
205	0x3cd6ffc3	0.026245004
206	0x3e1c007d	0.15234561
207	0xbcb608f9	-0.022221075
208	0xbe6dbb40	-0.23215961
209	0x3e7c868d	0.24660702
210	0xbdab4611	-0.083629735
211	0xbdef744f	-0.11692106
212	0x3dd302b1	0.10303248
213	0x3c045641	0.008077205
214	0xbe95a674	-0.29228556
215	0x3e22dc37	0.15904318
216	0xbc91d39d	-0.0178011
217	0x3ee4061b	0.44535908
218	0x3f30342d	0.68829614
219	0xbde10701	-0.10987664
220	0x3db4fd34	0.08837357
221	0xbd5ab24d	-0.053392697
222	0x3bdf648b	0.0068174056
223	0xbd148255	-0.036257107
224	0xbcaff3a6	-0.021478485
225	0x3f5b4307	0.8564915
226	0xbe08e9db	-0.13370459
227	0x3b6253ea	0.003453488
228	0x3d9880ec	0.07446465
229	0x3c8e8cd0	0.017401129
230	0xbc584f7f	-0.013202547
231	0xbeba118c	-0.36341512
232	0xbf673314	-0.90312314
233	0x3e12d636	0.14339527
234	0x3db860b8	0.09002823
235	0x3b1b88e3	0.0023732714
236	0x3dbfb6ed	0.09361062
237	0x3e1b33e8	0.1515652
238	0x3d957062	0.07296826
239	0x3d90f02b	0.070770584
240	0xbc67922f	-0.014133974
241	0x3edd7653	0.43254337
242	0x3ec94bed	0.3931574
243	0x3f13a176	0.57668245
244	0xbf141f98	-0.5786071
245	0xbeb31548	-0.34977174
246	0xbc7fed80	-0.015620589
247	0x3dbe46d8	0.09290856
248	0xbbeefa5c	-0.0072930288
249	0xbec93adc	-0.3930272
250	0x3eb7ac1c	0.35873497
251	0x3de62f72	0.11239518
252	0x3cd92e66	0.026511382
253	0x3f04e49a	0.5191132
254	0x3ec28805	0.379944
255	0xbdf99c3c	-0.121880025

pos_net.linears.0.bias f4 [30]
0	0xbe263513	-0.16231184
1	0xbc237377	-0.009976259
2	0xbee4fa26	-0.44722098
3	0xbd48e484	-0.049046054
4	0xbdffb54d	-0.12485752
5	0xbe0338d7	-0.12814651
6	0x3e78aabe	0.24283883
7	0xbe929be4	-0.2863456
8	0x3e916e6b	0.28404555
9	0xbd29f8a6	-0.041496895
10	0xbe9b7105	-0.30359665
11	0x3d1292ff	0.035784718
12	0xbeee92f2	-0.46596485
13	0xbed861f0	-0.4226222
14	0xbee74d9a	-0.45176393
15	0x3d98c58f	0.07459556
16	0xbec7f56b	-0.39054427
17	0xbea4e717	-0.32207558
18	0x3e8f097b	0.2793692
19	0xbcb09f7b	-0.021560421
20	0xbec28a1f	-0.37996003
21	0xbe4b0b59	-0.19828548
22	0xbe531451	-0.20613219
23	0xbee0a175	-0.43873182
24	0xbe7b4e25	-0.24541529
25	0xbeb674e5	-0.35636058
26	0x3d792276	0.06082388
27	0xbe9e90fc	-0.3096999
28	0xbddf6c24	-0.10909298
29	0x3e8e4f37	0.2779481

pos_net.linears.1.weight f4 [30, 30]
0	0x3e466528	0.19374526
1	0x3dd25d4c	0.10271701
2	0xbd8ed138	-0.06973499
3	0xbe761fe1	-0.24035598
4	0xbe19dc18	-0.15025365
5	0xbd09dd31	-0.03365821
6	0x3f13a830	0.5767851
7	0xbea938b5	-0.33051077
8	0xbda3d5c7	-0.07999759
9	0x3e35a27d	0.17737766
10	0x3e13703a	0.1439828
11	0x3e3eeed0	0.18645787
12	0xbe29aedc	-0.1657061
13	0xbea2b9b6	-0.3178231
14	0xbe4096b9	-0.18807496
15	0x3ccd7124	0.025078364
16	0xbe1f486b	-0.15554969
17	0x3d2eb6c0	0.042654753
18	0x3eb97094	0.36218703
19	0xbc0f9820	-0.008764297
20	0xbd7cab57	-0.06168684
21	0x3e1ed628	0.15511382
22	0x3dbf43e9	0.09339125
23	0xbe879440	-0.26480293
24	0xbec6cb96	-0.388272
25	0xbd14efc2	-0.036361463
26	0x3d92730c	0.0715085
27	0xbe8ba80c	-0.27276647
28	0x3ecbbf0f	0.39794204
29	0xbd4d3808	-0.050102264
30	0x3ee24976	0.4419667
31	0x3d898183	0.067141555
32	0xbdbca62a	-0.09211381
33	0xbe69e01d	-0.22839399
34	0x3ccec920	0.025242388
35	0xbe379f0d	-0.17931767
36	0xbc9e26ad	-0.019305551
37	0xbd81b32b	-0.06333002
38	0x3e78e786	0.24307069
39	0x3de7e95c	0.11323807
40	0xbd8193e7	-0.06327038
41	0x3ee14bb6	0.44003075
42	0x3dc6a5bc	0.0969958
43	0x3df7e1eb	0.12103637
44	0x3d65b60a	0.05608181
45	0x3dc99441	0.0984273
46	0x3db0725c	0.08615562
47	0x3df9eebe	0.122037396
48	0x3e9b7255	0.30360666
49	0xbe41982d	-0.18905707
50	0xbf008ecd	-0.50217897
51	0x3e45794d	0.19284554
52	0x3df7ff8a	0.12109287
53	0x3da4e13b	0.08050772
54	0xbd82a3e1	-0.06378914
55	0x3e21b4b4	0.15791589
56	0x3eedbc99	0.4643295
57	0xbe5f9799	-0.21835174
58	0x3e2be070	0.16784835
59	0x3ed31c8b	0.41232714
60	0xbd0ff307	-0.03514388
61	0xbdf90bc2	-0.12160446
62	0xba34c3cc	-0.0006895631
63	0xbce0c2ec	-0.027436696
64	0x38a9763a	8.0805694e-05
65	0xbd0a21f4	-0.033723786
66	0xbdac2377	-0.08405202
67	0xbb50a48f	-0.0031836366
68	0xbda7fdbe	-0.08202694
69	0xbc81f6b0	-0.0158647
70	0xbb6eb836	-0.0036425716
71	0xbcb47743	-0.022029525
72	0xbb63eed0	-0.0034779795
73	0x3ae70f9f	0.0017628557
74	0xbb783bf7	-0.0037877539
75	0xbcf8447b	-0.030306092
76	0xbc9f5bce	-0.019452956
77	0x3a3b83e1	0.00071531354
78	0xbe0db55d	-0.13838716
79	0xbd6fc8d0	-0.05854112
80	0x3a3ad188	0.00071265595
81	0xbcf68a36	-0.030095201
82	0x3bbd1335	0.005770112
83	0x3aa258e6	0.0012386113
84	0x3aa89443	0.0012861568
85	0xbd85130f	-0.06497776
86	0xbdb8ff0f	-0.090330236
87	0x3a930000	0.001121521
88	0xbddf2826	-0.108963296
89	0xbe0710c8	-0.13189995
90	0xbe8680ae	-0.2627005
91	0x3e09dfa6	0.13464221
92	0xbdca678b	-0.098830305
93	0x3e9eb932	0.31000668
94	0x3de35efb	0.111021005
95	0x3ea9d93b	0.33173546
96	0x3e3916d1	0.1807511
97	0xbdbf4421	-0.093391664
98	0xbea99388	-0.3312037
99	0xbd9f6cf3	-0.07784452
100	0xbe335544	-0.17512995
101	0xbea67a12	-0.32515007
102	0x3e3f5e9b	0.18688433
103	0xbd9825c3	-0.074290775
104	0xbdf1c10c	-0.11804399
105	0xbe32be0f	-0.17455314
106	0xbec32411	-0.38113454
107	0x3d1ce9e4	0.038308993
108	0xbd216795	-0.039405424
109	0x3e4ab8dd	0.19797082
110	0xbbdced06	-0.0067421226
111	0x3cfe4b38	0.031041726
112	0x3ddf7ade	0.10912107
113	0xbd7e8329	-0.062136803
114	0x3e0dcd9e	0.13847968
115	0xbe5c373b	-0.21505444
116	0xbe4d9b53	-0.20078783
117	0xbd94126c	-0.07230076
118	0xbcb00bca	-0.021489996
119	0xbe965b95	-0.29366747
120	0x3e116bd2	0.14201286
121	0xbe13503f	-0.1438608
122	0x3e622871	0.2208574
123	0xbe9ba9f3	-0.30403098
124	0xbe964d87	-0.29356024
125	0xbd263e83	-0.04058696
126	0xbe688fd9	-0.22711124
127	0x3e8c64cb	0.2742065
128	0x3ee420ce	0.44556278
129	0xbe8fa2ff	-0.28054044
130	0x3e091ecf	0.13390659
131	0x3e1a644b	0.15077321
132	0x3e4127ea	0.18862882
133	0x3ee8e04d	0.45483628
134	0x3e800319	0.25002363
135	0x3ebc25ea	0.36747676
136	0x3d78fdc7	0.060788896
137	0xbe302ccf	-0.17204593
138	0xbe04b74f	-0.12960552
139	0xbdd4a950	-0.10383856
140	0x3ebfe342	0.3747807
141	0x3e8eb549	0.27872685
142	0x3e54e9b3	0.20792274
143	0x3e922a56	0.28547925
144	0xbd78e01c	-0.060760602
145	0xbddfecab	-0.10933813
146	0xbc5d525c	-0.013508406
147	0x3ea36a0f	0.31916854
148	0x3d90bbb5	0.07067052
149	0x3eca1df4	0.39475977
150	0x3d4f7226	0.05064597
151	0xbe05e950	-0.13077283
152	0x3da1c67b	0.07899185
153	0xbd874543	-0.066050075
154	0xbe20e9bd	-0.15714164
155	0x3c65c905	0.014024978
156	0xbe9096fb	-0.2824019
157	0xbdd783d6	-0.105231926
158	0xbe6cf98e	-0.23142073
159	0xbdfc1a00	-0.123096466
160	0xbb3e055d	-0.0028994896
161	0xbdcf43f3	-0.10120382
162	0xbdcdc460	-0.10047221
163	0xbe051570	-0.12996459
164	0xbd3b3f51	-0.04571468
165	0xbe5894e4	-0.21150547
166	0xbe514d4f	-0.20439647
167	0xba4dbca5	-0.00078482396
168	0xbea1969a	-0.31560212
169	0x3cb58784	0.022159345
170	0x3ce8ee9e	0.028434094
171	0xbe879065	-0.26477352
172	0xbe41983b	-0.18905728
173	0xbc911a93	-0.017712867
174	0xbda9398d	-0.0826293
175	0xbdeb4e62	-0.1148956
176	0xbed0568f	-0.4069104
177	0xbe641b5c	-0.22276062
178	0xbda816d1	-0.08207477
179	0xbe95a5ee	-0.29228157
180	0xbe3b0afa	-0.18265906
181	0xbe6ab722	-0.22921422
182	0x3c34f0ee	0.01104377
183	0xbdee8c6e	-0.116478786
184	0x3e849c66	0.25900573
185	0x3e3e2cf8	0.18571842
186	0x3e9bf4ca	0.30460197
187	0xbd8ca6e5	-0.0686777
188	0xbe8914a0	-0.26773548
189	0x3ddea03b	0.10870405
190	0xbe070015	-0.13183625
191	0xbd6acfda	-0.05732713
192	0x3dcc3a4b	0.09972056
193	0xbe21f8dc	-0.15817589
194	0xba3f486c	-0.00072968635
195	0x3d997242	0.07492496
196	0xbdd0341f	-0.10166191
197	0xbdc3ff08	-0.09570128
198	0x3daf0bee	0.08547197
199	0x3e24b859	0.16085948
200	0x3cc34bfa	0.02383994
201	0xbe463e1c	-0.1935963
202	0xbe1bf28a	-0.1522924
203	0x3e243a8f	0.16037963
204	0x3e03eb58	0.12882745
205	0xbe8b655a	-0.27225763
206	0xbe0e7425	-0.13911493
207	0xbd0cfa37	-0.03441831
208	0xbcc8f03b	-0.024528613
209	0x3e715130	0.23566127
210	0xbe134ecf	-0.14385532
211	0xbc794981	-0.015215279
212	0x3d9625c6	0.073314235
213	0x3ea5dc05	0.32394424
214	0x3ecc7e43	0.3994008
215	0xbdfbf646	-0.12302832
216	0xbe840153	-0.2578226
217	0xbbab71d0	-0.0052320734
218	0xbe854b51	-0.26034024
219	0x3e906c12	0.2820745
220	0xbd9554ad	-0.07291541
221	0xbd795341	-0.060870413
222	0x3dacc9da	0.08436938
223	0xbe10696c	-0.14102715
224	0xbd032637	-0.032018866
225	0xbe460e1a	-0.19341317
226	0xbe93e71e	-0.28887266
227	0xbd83f036	-0.06442301
228	0xbdd2f119	-0.10299892
229	0xbe4ca672	-0.19985369
230	0x3e30392b	0.17209308
231	0xbe11e599	-0.14247741
232	0xbf08399d	-0.5321291
233	0x3e832c3d	0.2561969
234	0xbd68c8de	-0.056832187
235	0xbeeca0e5	-0.46216503
236	0x3e27d2a9	0.16388954
237	0x3e1a733a	0.15083018
238	0x3da3d19a	0.07998963
239	0xbe00bc64	-0.12571865
240	0xbea733d3	-0.32656726
241	0xbe120a21	-0.14261676
242	0xbdab6e94	-0.083707005
243	0xbe0c1751	-0.1368077
244	0x3f0c4c3f	0.5480384
245	0x3d8a33e9	0.06748182
246	0xbc7ad8dc	-0.015310492
247	0xbcaf458c	-0.021395467
248	0xbe990211	-0.2988439
249	0x3da6d980	0.081469536
250	0x3ba9c180	0.0051805377
251	0x3d9cde30	0.076595664
252	0xbd73f872	-0.059563108
253	0xbd456816	-0.048194967
254	0xbe056cdd	-0.1302981
255	0xbd06daf0	-0.03292364

pos_net.linears.1.bias f4 [30]
0	0xbcc45cd4	-0.023970045
1	0x3da4502b	0.08023103
2	0xbe077c91	-0.13231112
3	0x3d9e626c	0.07733616
4	0x3e7204bb	0.23634617
5	0xbe9d691b	-0.30744252
6	0xbd0156d7	-0.031576958
7	0x3da4212a	0.08014138
8	0xbc52dfa7	-0.012870706
9	0xbe0546dd	-0.13015313
10	0xbeac02bc	-0.33595836
11	0x3e2b6a3e	0.16739747
12	0xbe2430bc	-0.16034216
13	0xbddc2361	-0.107489355
14	0xbe72a79e	-0.23696753
15	0xbc6b5bc9	-0.014365145
16	0xbc9928bd	-0.018696183
17	0x3e95a0d1	0.29224256
18	0xbd938903	-0.07203867
19	0xbe2a308e	-0.16620085
20	0x3b2c39a4	0.0026279474
21	0x3dcd0f13	0.10012641
22	0x3d818f38	0.06326145
23	0xbbb9448b	-0.005653923
24	0xbeabdfa4	-0.33569062
25	0xbd3dac02	-0.046306618
26	0xbe1fd88a	-0.15609947
27	0xbe08caa5	-0.13358553
28	0xbc9c7928	-0.01910074
29	0xbdd11398	-0.10208815

pos_net.linears.2.weight f4 [30, 30]
0	0x3a2fbde3	0.00067040155
1	0xbaaff528	-0.0013424503
2	0x38f1e2f0	0.00011534046
3	0x39aa86a6	0.00032525248
4	0x3b6faf83	0.003657312
5	0x3b94eb43	0.004544647
6	0xba6b1572	-0.0008967734
7	0xb9d315fa	-0.0004026143
8	0x3a51d561	0.0008004513
9	0x3a9ec1db	0.0012112217
10	0xbb0976f9	-0.0020975454
11	0x3801a124	3.090607e-05
12	0xba88b8ba	-0.0010431029
13	0x3ae4a397	0.0017443773
14	0xb85e25d0	-5.296414e-05
15	0x39c60a66	0.0003777325
16	0x3b68e0be	0.0035534347
17	0x3b093b23	0.002093979
18	0xb9dfe11c	-0.00042701594
19	0xba91292a	-0.001107489
20	0xbce01856	-0.027355354
21	0x3bcc94af	0.0062433104
22	0x3ae079f8	0.0017126193
23	0x3a5e522b	0.0008480872
24	0xba88f244	-0.0010448177
25	0x3b1f4f7c	0.002430885
26	0xba4acaea	-0.0007735925
27	0x38f8e6da	0.00011868561
28	0xba21618c	-0.0006156198
29	0x3a0a4902	0.0005275161
30	0x3d903681	0.07041646
31	0x3d65ca3f	0.05610108
32	0x38c2fd3e	9.297811e-05
33	0x3e9a347b	0.30118164
34	0xbd676df6	-0.05650135
35	0xbd865007	-0.06558233
36	0x3cc5b85b	0.02413576
37	0x3e8c16d8	0.27361178
38	0x3d934a8d	0.07191954
39	0x3ccf830f	0.025331048
40	0xbd679329	-0.056536827
41	0xbe5bf303	-0.2147942
42	0xbbc5c76b	-0.0060357354
43	0x3dbc2b42	0.09187938
44	0xbcd3a35f	-0.025834737
45	0x3d7bd439	0.06148169
46	0xbcaa6f9e	-0.020805176
47	0xbeaea1e9	-0.34107903
48	0xbd2f0a72	-0.04273457
49	0x3e07f4a3	0.13276915
50	0x3ebda453	0.37039432
51	0xbe410e49	-0.18853106
52	0xbdd9dd3f	-0.106379025
53	0xbc2fa32e	-0.010720057
54	0xbc2692ac	-0.010166805
55	0x3dc0cb40	0.09413767
56	0xbe58b127	-0.21161328
57	0x3e488fd6	0.19586119
58	0xbe62d415	-0.22151215
59	0xbecd3bb9	-0.40084627
60	0x3ea17f97	0.31542656
61	0x3edc376a	0.43011028
62	0xbe6dff46	-0.2324191
63	0x3e82be46	0.25535792
64	0x3e707496	0.23481974
65	0xbd0e70cf	-0.03477555
66	0x3e6d6be6	0.23185691
67	0x3ed50482	0.41605002
68	0xbcc75ac4	-0.024335273
69	0x3da84e27	0.082180314
70	0x3d6952d2	0.05696375
71	0xbdd43431	-0.10361517
72	0xbe18cb2b	-0.14921252
73	0xbd43b760	-0.047782302
74	0xbe119bb7	-0.14219557
75	0x3e81c002	0.25341803
76	0xbe245068	-0.16046298
77	0xbe16ca61	-0.14725639
78	0xbd13f894	-0.036125734
79	0x3e2f4488	0.17115986
80	0xbeab7c70	-0.33493376
81	0xbebeefce	-0.3729233
82	0xbd33aa6e	-0.043863706
83	0x3ba149c6	0.0049221246
84	0xbe4a1fe1	-0.19738723
85	0x3e991504	0.29898846
86	0x3e8f6e2e	0.28013748
87	0x3d5e7030	0.05430621
88	0x3cc80eb3	0.024421072
89	0xbc6f300b	-0.014598857
90	0xbe80b2c4	-0.25136387
91	0xbed13c2a	-0.40866214
92	0xbe15b97a	-0.14621535
93	0x3eb93c8f	0.36179015
94	0xbdaa1169	-0.08304102
95	0xbc7064ab	-0.014672439
96	0xbd20565d	-0.039144862
97	0x3e1bb001	0.15203859
98	0xbd0768df	-0.033058997
99	0xbce6f94a	-0.028195042
100	0xbe61f3cd	-0.22065659
101	0xbd54e3d0	-0.05197507
102	0xbd4099a0	-0.04702151
103	0x3e8508b9	0.25983217
104	0xbd6a269c	-0.057165727
105	0xbde171c9	-0.11008031
106	0x3dea0302	0.11426355
107	0x3e238967	0.15970384
108	0xbe01424e	-0.1262295
109	0xbe2495a0	-0.16072702
110	0x3e2da6dc	0.16958183
111	0x3ec8b555	0.39200845
112	0xbd5bffe8	-0.053710848
113	0xbba00935	-0.00488391
114	0xbe68498a	-0.22684303
115	0xbaef557b	-0.0018259728
116	0x3e672e0a	0.22576156
117	0x3d47f762	0.048819907
118	0xbe3b193c	-0.18271345
119	0xbce8ee14	-0.028433837
120	0x3a3e6974	0.00072636385
121	0x3aabaa42	0.0013097005
122	0xb60b2000	-2.073124e-06
123	0x3ae0405e	0.0017109027
124	0x3a3da48c	0.0007234297
125	0xba81497f	-0.0009863822
126	0x3a3ecc01	0.0007278324
127	0x37d6ecf0	2.562112e-05
128	0x36ee1700	7.0956303e-06
129	0xba713dce	-0.000920263
130	0xb9aa13f9	-0.00032439808
131	0xb9e805a3	-0.00044254688
132	0x3a8446ee	0.001009194
133	0x3a2b1089	0.0006525596
134	0x39cd603e	0.00039172353
135	0xb9f07e14	-0.00045870303
136	0xb71e4030	-9.432479e-06
137	0xb91dda52	-0.00015054017
138	0xb9867bd3	-0.00025650728
139	0xba73b0da	-0.00092960673
140	0x399b1900	0.0002958253
141	0xbace696a	-0.0015747969
142	0x3bbcd44d	0.005762613
143	0xb9065354	-0.00012810278
144	0xba067bef	-0.0005130162
145	0xbad384ac	-0.0016137562
146	0xb92d3f6f	-0.00016522197
147	0xba29d056	-0.0006477883
148	0xb916e8fe	-0.00014391911
149	0xba3e4c88	-0.0007259329
150	0xbcda4d31	-0.026648136
151	0xbe84ce52	-0.2593866
152	0x3b6011e0	0.0034190342
153	0xbdfae842	-0.12251331
154	0x3d217af6	0.039423905
155	0x3d1b57e9	0.037925635
156	0xbd849b71	-0.064749606
157	0xbd8113c6	-0.063025996
158	0xbe275725	-0.16341837
159	0xbdd27620	-0.10276437
160	0xbd4cc99d	-0.04999696
161	0xbc2e448c	-0.01063646
162	0x3ab222a3	0.0013590645
163	0x3d2d2952	0.042275734
164	0xb98933b4	-0.00026169198
165	0x3d177db4	0.036985114
166	0xbc93287d	-0.017963642
167	0xbe0dd6aa	-0.13851419
168	0xbcca6ef2	-0.024711106
169	0xbd0675be	-0.03282713
170	0xbd930809	-0.07179267
171	0xbc4024ab	-0.011727492
172	0xbd2d8f38	-0.042372912
173	0x3a7e1da5	0.00096937484
174	0x3e2021a2	0.1563783
175	0xbdcbd8ec	-0.09953484
176	0x3e5f03b4	0.21778756
177	0x3daad238	0.08340877
178	0xbe090a79	-0.13382901
179	0x3df6fd53	0.120600365
180	0xbe16a5f0	-0.14711738
181	0x3e8690af	0.2628226
182	0xbb36f4f1	-0.0027916993
183	0x3d89ff46	0.06738143
184	0x3da102d0	0.078618646
185	0x3b593a76	0.0033146418
186	0x3e01ae81	0.12664224
187	0xbe5064fe	-0.20351025
188	0x3f1ec68e	0.6202172
189	0x3e20276b	0.15640037
190	0x3cc838e5	0.024441192
191	0x3ef69b06	0.48165148
192	0x3b15f209	0.002287986
193	0xbd3c1785	-0.045920867
194	0x39839ee9	0.00025104664
195	0xbebea83a	-0.37237722
196	0x3f25e914	0.64808774
197	0x3e1b8e62	0.15191033
198	0x3e6e3151	0.23261
199	0xbe0a3d3c	-0.13499922
200	0x3ed5c684	0.41753018
201	0xbe548da6	-0.2075716
202	0xbd030538	-0.0319874
203	0xba8b3f72	-0.0010623767
204	0x3eb6e9c8	0.35725236
205	0xbe111d7a	-0.141714
206	0xbec5f68d	-0.38664666
207	0xbe12ea4b	-0.14347188
208	0x3e3662ce	0.17811128
209	0xbeb18f50	-0.3467965
210	0xbeb274a6	-0.3485462
211	0x3d918782	0.07105924
212	0xbd5a34ed	-0.05327313
213	0x3daeb60f	0.08530819
214	0x3e632233	0.22181015
215	0x3af72fae	0.0018858814
216	0xbd57418e	-0.052552752
217	0x3cdfe3f0	0.027330369
218	0xbe418368	-0.18897784
219	0xbd4970be	-0.049179785
220	0x3d819868	0.06327897
221	0x3eb1f98d	0.34760705
222	0xbcf935be	-0.030421134
223	0xbdc66fd5	-0.09689299
224	0xbd9d21fc	-0.07672498
225	0xbed0b929	-0.40766266
226	0x3e7bc7f3	0.24587993
227	0x3e8729d7	0.2639911
228	0x3eec645c	0.46170318
229	0xbe20fee6	-0.15722236
230	0xbea0410b	-0.31299624
231	0x3ab80500	0.0014039576
232	0xbd23961b	-0.039938074
233	0xbc0807ed	-0.008302671
234	0xbd26c5f2	-0.04071612
235	0xbdb63777	-0.08897298
236	0xbd5fa95b	-0.05460487
237	0x3e183144	0.14862543
238	0x3d1f89de	0.03894984
239	0x3dd80991	0.105487
240	0x3eb6045d	0.35550204
241	0xbe835df3	-0.25657615
242	0xbdd21f6c	-0.102598995
243	0x3ec6391f	0.38715455
244	0xbef5cf2f	-0.4800963
245	0x3cae1006	0.021247875
246	0x3e8f0f98	0.27941585
247	0x3ee8e9f6	0.45490998
248	0xbe9873c7	-0.2977583
249	0x3c5544b6	0.01301687
250	0x3b9f9584	0.0048701186
251	0xbe2a2487	-0.16615497
252	0x3da4bd2c	0.08043894
253	0xbcb0b9f6	-0.021573048
254	0x3d45dfd6	0.04830917
255	0x3c1cd5b6	0.009572437

pos_net.linears.2.bias f4 [30]
0	0xbdfa185e	-0.12211679
1	0x3d42c4c3	0.047550928
2	0x3d1dd212	0.038530417
3	0x3ed4d12c	0.41565835
4	0xbd9f12b6	-0.07767241
5	0x3d2474b1	0.040150348
6	0x3eb7e350	0.35915613
7	0x3e697bfa	0.228012
8	0x3e4a2d1f	0.19743775
9	0xbe37d439	-0.1795205
10	0x3d861240	0.0654645
11	0x3d7bf2c2	0.06151081
12	0xbc1606c8	-0.00915689
13	0x3e92e763	0.2869216
14	0xbb1a349b	-0.002352989
15	0xbd1d3621	-0.0383817
16	0xbd818e65	-0.06325988
17	0xbf0d5711	-0.5521098
18	0xbf0409d6	-0.5157751
19	0x3e100019	0.14062537
20	0xbce51e62	-0.02796859
21	0x3e22d7d0	0.15902638
22	0x3dc6a2b7	0.09699004
23	0xbe2a0c10	-0.16606164
24	0xbe4e1c8e	-0.2012808
25	0x3e3b7e2d	0.18309851
26	0x3c9cb558	0.01912944
27	0x3e0f05db	0.13967077
28	0x3e025841	0.12728979
29	0xbe11ad40	-0.14226246

pos_net.output_layer.weight f4 [6, 30]
0	0xba413bb6	-0.00073712633
1	0x3ef487d2	0.47759873
2	0xbd83ba2f	-0.06431996
3	0x3e5ff9c6	0.21872625
4	0x399c3614	0.0002979493
5	0xbdf80db8	-0.12111992
6	0x3e9c9fef	0.3059077
7	0x3d0d9b43	0.034571897
8	0x3e77668f	0.24160217
9	0xbda0c909	-0.078508444
10	0xbe21dc18	-0.15806615
11	0x3d8633af	0.065528266
12	0x39beec5f	0.00036415734
13	0xbeabf0c3	-0.33582124
14	0x3cfe5c35	0.031049827
15	0x3cdc6626	0.026904177
16	0xbeee21bf	-0.4651012
17	0xbe1e2dc5	-0.15447147
18	0x3eaba8af	0.33527133
19	0x3e8acc3f	0.27108952
20	0xbc5e3740	-0.013562977
21	0xbe80262c	-0.25029123
22	0x3e14981d	0.14511152
23	0xbe696349	-0.2279178
24	0xbe6941c2	-0.22778991
25	0x3e0950cb	0.13409726
26	0x3e259e4c	0.16173667
27	0x3e5d082c	0.21585149
28	0xbe580154	-0.21094257
29	0xbe3f93fe	-0.18708798
30	0xbb4e033a	-0.0031435029
31	0x3e886fbc	0.26647747
32	0xbe95189d	-0.2912034
33	0x3ebf7b69	0.37398842
34	0xbd51b9c6	-0.051202558
35	0xbd9a4165	-0.07532004
36	0x3e872aaf	0.26399752
37	0x3db63207	0.08896261
38	0xbe0429a0	-0.12906504
39	0x3c5a2b8f	0.013316049
40	0xbd85f29f	-0.06540417
41	0xbdb117e9	-0.086471386
42	0xba606e7c	-0.00085613853
43	0xbe5aca60	-0.21366262
44	0xba9f8ada	-0.0012172118
45	0x3e6133de	0.21992442
46	0x3d38358f	0.044972952
47	0x3c3c91a4	0.011509333
48	0x3e02a99a	0.1276001
49	0x3ef5fb8e	0.48043483
50	0x3c3b07cd	0.011415434
51	0x3e99cdc1	0.3003979
52	0x3eb9e458	0.36307025
53	0xbe16e613	-0.14736204
54	0xbdbc5ac8	-0.09197003
55	0xbe66cbc2	-0.22538665
56	0x3d9d9576	0.07694523
57	0xbe7669e0	-0.24063826
58	0xbe2446d4	-0.16042644
59	0xbe07b5cb	-0.13252942
60	0x3aed688d	0.0018112824
61	0x3e7c60b8	0.2464627
62	0xbe5a8e85	-0.2134343
63	0x3ecb174a	0.39666206
64	0xbcb7dd45	-0.022444377
65	0x3ea3e75b	0.32012448
66	0x3e1810db	0.1485018
67	0xbdb7b6da	-0.08970423
68	0x3d9b0cd3	0.075708054
69	0xbda70b78	-0.08156484
70	0xbea29c5c	-0.31759918
71	0x3e0fe67a	0.14052764
72	0x3a6c8b9e	0.000902349
73	0xbcc71db7	-0.024306161
74	0x3ddb3859	0.10704107
75	0x3e461f25	0.19347818
76	0xbdd0f35f	-0.10202669
77	0xbd5cef05	-0.053938884
78	0x3efc946e	0.49331993
79	0xbdce1697	-0.100629024
80	0xbc39cc42	-0.011340203
81	0x3e6b039c	0.22950596
82	0x3e0bcfd2	0.13653496
83	0xbe0a6ac5	-0.13517292
84	0x3e018242	0.12647346
85	0xbdb7af2e	-0.0896896
86	0x3e710ea8	0.23540747
87	0xbf05d5ef	-0.5227956
88	0x3c7058c9	0.0146696055
89	0xbe034d7b	-0.12822525
90	0x3b6b261d	0.0035880872
91	0x3f0299a0	0.51015663
92	0x3e8c880d	0.27447549
93	0x3c608cd3	0.01370545
94	0x3a8be627	0.0010673449
95	0xbcf55598	-0.02994804
96	0xbe5ec737	-0.21755682
97	0xbe3708d6	-0.17874464
98	0x3e3527e7	0.17691003
99	0xbe106d15	-0.14104111
100	0x3e7cea57	0.24698769
101	0x3d7e5edb	0.06210218
102	0xbafa3737	-0.0019089942
103	0x3eed113b	0.46302208
104	0x3d686c89	0.056744132
105	0xbe3b52f1	-0.18293358
106	0xbe0a0d88	-0.13481724
107	0xbe4d4ae4	-0.200481
108	0x3e8b0d5c	0.2715863
109	0x3ed762bb	0.42067513
110	0x3cc617d0	0.024181277
111	0x3e3ddb41	0.1854067
112	0xbdc55361	-0.09635044
113	0x3dae6bdc	0.08516666
114	0xbed7a1bb	-0.42115578
115	0xbf1595b2	-0.5843154
116	0x3d425189	0.04744104
117	0xbd61106c	-0.0549473
118	0x3d94346b	0.072365604
119	0x3dce0ed9	0.10061426
120	0xbac8f583	-0.0015331957
121	0x3cc23a41	0.023709418
122	0x3e2d21a3	0.16907363
123	0xbf2c0c76	-0.67206514
124	0x3a84be56	0.0010127525
125	0xbe737a5d	-0.23777147
126	0x3ed4520f	0.41468856
127	0xbe1b9fd2	-0.15197685
128	0xbd926d38	-0.07149738
129	0xbcf6d426	-0.030130457
130	0x3e31bc57	0.17357002
131	0xbeb94234	-0.3618332
132	0xba1059df	-0.0005506556
133	0xbe251722	-0.16122106
134	0xbdc62c5c	-0.0967643
135	0xbc08c476	-0.008347621
136	0x3dce75ab	0.10081037
137	0xbf4035ab	-0.7508189
138	0x3e6c069f	0.23049401
139	0x3d3c42aa	0.045962013
140	0xbcb056e2	-0.021525804
141	0xbed555a2	-0.41666895
142	0xbcea7cb9	-0.028623926
143	0x3e2dcb98	0.16972196
144	0xbdbdfe73	-0.09277048
145	0x3e0dc8e9	0.13846172
146	0xbdcec4b1	-0.1009611
147	0xbdfbf1ed	-0.12302003
148	0x3e8827b8	0.26592803
149	0x3eaa418e	0.3325314
150	0xbaf317d3	-0.0018546529
151	0x3eb838d3	0.35980853
152	0xbee54ae3	-0.44783697
153	0xbe03b4e2	-0.1286197
154	0xbb0e5ae7	-0.0021721662
155	0x3da2b2db	0.0794427
156	0x3ee82f10	0.45348406
157	0x3ecee909	0.40412167
158	0xbedf35d0	-0.43595743
159	0xbc89bf10	-0.016814739
160	0x3da07dd4	0.078365
161	0x3edc3d80	0.4301567
162	0x384cfaa2	4.887081e-05
163	0x3ee2e2ae	0.44313568
164	0x3e96a8d4	0.2942568
165	0xbf04b965	-0.5184539
166	0x3e189941	0.14902212
167	0x3dcf0d8d	0.101100065
168	0x3e8f7e45	0.28026024
169	0xbea857ad	-0.3287939
170	0xbd5ecf9c	-0.05439721
171	0xbf09cecb	-0.53831166
172	0xbd8c5205	-0.068515815
173	0x3df1c787	0.11805635
174	0x3d8f3711	0.06992925
175	0xbda56d31	-0.08077467
176	0x3de2e86a	0.11079486
177	0x3de014a4	0.10941437
178	0xbe488dc9	-0.19585337
179	0x3c714323	0.014725479

pos_net.output_layer.bias f4 [6]
0	0xbe1bb404	-0.1520539
1	0x3e4f04f1	0.20216729
2	0x3e92771b	0.28606495
3	0xbcae0702	-0.021243576
4	0xbe42cbcf	-0.1902306
5	0xbe99f483	-0.3006936

neg_net.linears.0.weight f4 [30, 12]
0	0x3eb24446	0.34817713
1	0x3dbc5f7c	0.091979
2	0x3d04cf86	0.032424472
3	0x3db3d6bb	0.08781191
4	0xbd31067f	-0.043219086
5	0xbe514197	-0.20435177
6	0x3cc15632	0.023600671
7	0xbd534426	-0.051578663
8	0x3d3f32c5	0.046679277
9	0xbf220761	-0.6329251
10	0xbe4d478c	-0.20046824
11	0xbd683cb7	-0.056698527
12	0xbd428ec1	-0.047499422
13	0xbd692758	-0.056922287
14	0xbe2e2330	-0.1700561
15	0xbe59a3b9	-0.21253861
16	0xbed48cb4	-0.41513598
17	0xbf3d2acf	-0.73893446
18	0x3da3beb5	0.07995359
19	0x3e2a676c	0.16641015
20	0xbcd23c23	-0.025663441
21	0xbd07b783	-0.033133995
22	0xbdf770f8	-0.12082094
23	0xbd306efa	-0.043074585
24	0x3ec0c83b	0.37652764
25	0x3e88e4d8	0.26737094
26	0xbe5f6578	-0.21816051
27	0x3ed47790	0.4149747
28	0xbe85d306	-0.2613756
29	0x3e047953	0.12936907
30	0xbd8b2cc4	-0.06795648
31	0x3d1b39c1	0.037896875
32	0xbdc35961	-0.09538532
33	0xbeb91536	-0.36148995
34	0x3d855462	0.06510235
35	0xbb203938	-0.0024448168
36	0xbda1fec6	-0.07909922
37	0x3e3327ea	0.17495695
38	0x3e2b8e9a	0.16753617
39	0x3e190c27	0.14946042
40	0xbf185e2f	-0.5951871
41	0xbe2ac2be	-0.16675851
42	0x3c2a5a99	0.010397577
43	0x3db77a61	0.08958889
44	0xbd28f7ad	-0.041251827
45	0xbf064fc7	-0.5246548
46	0xbdeacc02	-0.11464693
47	0xbcfdcd33	-0.030981636
48	0x3e841fab	0.2580541
49	0xbeb95d13	-0.36203822
50	0xbea1718d	-0.31531945
51	0xbdbbecff	-0.09176063
52	0xbea900fe	-0.3300857
53	0x3ead29c8	0.3382094
54	0x3d5e6f0f	0.054305132
55	0x3daed64a	0.08536966
56	0x3e0ad664	0.13558346
57	0xbd83a606	-0.06428151
58	0xbd777280	-0.06041193
59	0xbd0d48b3	-0.03449316
60	0xbdba3f1a	-0.09094067
61	0x3e85edfc	0.2615813
62	0x3ee70b46	0.45125788
63	0x3e74d0e2	0.23907807
64	0x3e84a3c2	0.25906187
65	0x3eaf70fe	0.34265894
66	0x3c619dcb	0.013770531
67	0x3da06aff	0.07832908
68	0xbd96c155	-0.07361094
69	0xbf029a3b	-0.51016587
70	0x3ef64361	0.4809828
71	0x3dd39756	0.103315994
72	0x3e8705bb	0.2637156
73	0x3d4abf48	0.049498826
74	0x3c55d616	0.01305153
75	0xbe302dc1	-0.17204954
76	0x3ef86f98	0.4852264
77	0xbeb1a98f	-0.34699675
78	0x3cd3b73d	0.02584421
79	0x3c02c8b2	0.00798242
80	0x3d033c50	0.03203994
81	0xbf28f022	-0.65991414
82	0x3e87331a	0.26406175
83	0x3d5fbcbe	0.054623358
84	0x3de8e411	0.11371625
85	0x3e942c6e	0.28940147
86	0x3f01a6cc	0.50645137
87	0xbea7c0cc	-0.3276428
88	0x3ef74e6e	0.48302025
89	0xbebb515e	-0.36585516
90	0x3d1ca744	0.038245454
91	0xbd933b98	-0.07189101
92	0x3d5d51db	0.05403314
93	0x3f0d3c19	0.55169827
94	0xbe219308	-0.15778744
95	0xbd635a30	-0.05550593
96	0x3bef00c2	0.0072937915
97	0xbe381735	-0.17977603
98	0xbe261657	-0.1621946
99	0xbec922d0	-0.39284372
100	0xbd5f0b16	-0.05445393
101	0x3ebfd0b6	0.3746392
102	0xbcde9659	-0.0271713
103	0x3d10311b	0.03520308
104	0x3cc0f71e	0.023555335
105	0x3d4f2b0d	0.050578166
106	0x3f00af0d	0.50267106
107	0xbe3cbdac	-0.18431729
108	0x3e197dc5	0.14989384
109	0xbee2c145	-0.44288078
110	0xbf53e59a	-0.8277222
111	0x3d4cae00	0.049970627
112	0xbe06c8c8	-0.1316253
113	0x3d1086f9	0.03528497
114	0xbd4d730d	-0.05015855
115	0xbdb109c4	-0.08644441
116	0xbd7914b5	-0.060810763
117	0x3f039301	0.51396185
118	0xbe4f351f	-0.20235108
119	0x3caa3da3	0.020781344
120	0xbd09c8fb	-0.033638936
121	0x3ec5f945	0.3866674
122	0x3f0b721f	0.5447101
123	0x3e3289ce	0.17435381
124	0xbe814872	-0.25250584
125	0xbe8684e9	-0.26273277
126	0xbc9bbe8d	-0.01901176
127	0xbdcd4814	-0.100235134
128	0xbc9a6f3f	-0.018851874
129	0x3f089c85	0.5336383
130	0x3e043292	0.12909916
131	0xbdbd3c8d	-0.09240065
132	0x3e6ad3c7	0.22932349
133	0x3d6375bc	0.055532202
134	0x3e53dc27	0.2068945
135	0x3ea7ffbe	0.32812303
136	0x3ea11c4f	0.3146691
137	0x3e9c19b9	0.30488375
138	0xbe30aad0	-0.1725266
139	0x3d723f08	0.059142143
140	0x3dd2e1e2	0.1029699
141	0x3ea7cfbe	0.32775682
142	0x3cdc55c2	0.026896361
143	0x3e79c34c	0.24390906
144	0x3df0892b	0.11744913
145	0x3e4e1df3	0.20128612
146	0xbeafed2a	-0.3436063
147	0xbf179914	-0.59217954
148	0xbdd6d322	-0.10489489
149	0x3d007226	0.03135886
150	0x3ca548fa	0.0201764
151	0x3e2eaee3	0.17058901
152	0x3d2fac30	0.04288882
153	0x3d9d7c95	0.07689778
154	0xbecfc771	-0.4058185
155	0x3da8371d	0.08213637
156	0x3e8da617	0.2766578
157	0x3e8d9a06	0.27656573
158	0x3d33a1d0	0.04385549
159	0x3ea97ba6	0.3310215
160	0x3eae0977	0.33991596
161	0x3e5c68a8	0.21524298
162	0x3da635eb	0.08115753
163	0xbe49963d	-0.19686218
164	0xbd55695f	-0.052102443
165	0x3ca2cb5a	0.019872356
166	0x3eb32c76	0.34994859
167	0x3d741f86	0.059600376
168	0xbe390688	-0.18068898
169	0x3ec3ce04	0.38243115
170	0x3f0cad1d	0.5495165
171	0x3f1801cf	0.5937776
172	0x3e400275	0.18750937
173	0xbe685c17	-0.2269138
174	0xbd6d8c37	-0.057995047
175	0xbdd2ada2	-0.10287024
176	0xbcf838f7	-0.0303006
177	0xbe7c58c9	-0.24643244
178	0xbe0adf69	-0.13561787
179	0x3dad4bcb	0.08461722
180	0x3d97ae0f	0.07406246
181	0x3e841164	0.25794518
182	0x3e286876	0.16446099
183	0x3e768e37	0.24077688
184	0x3e15ba2d	0.14621802
185	0xbe88d1a6	-0.2672245
186	0x3cbde8af	0.023182241
187	0xbc8bcb89	-0.017064827
188	0x3d01b48d	0.031666327
189	0x3d52b395	0.051440794
190	0xbf2b83db	-0.6699807
191	0x3d46d386	0.04854157
192	0xbceba233	-0.028763866
193	0x3e7007a9	0.23440422
194	0x3f17f44c	0.5935714
195	0xbf162375	-0.58647853
196	0xbe1c0279	-0.15235318
197	0x3e85e504	0.26151288
198	0x3b5945ae	0.0033153105
199	0xbcda3d35	-0.026640514
200	0xbe029f90	-0.12756181
201	0xbe787ee0	-0.24267149
202	0xbde310f5	-0.11087219
203	0x3c8b4f98	0.017005727
204	0xbef9a981	-0.48762134
205	0x3de11885	0.10991005
206	0x3eabb336	0.33535165
207	0xbe159d7a	-0.14610854
208	0xbe701fa7	-0.23449574
209	0x3e150a4a	0.14554706
210	0xbd686965	-0.056741137
211	0xbd37e4fb	-0.044896107
212	0x3bfeeb90	0.007779546
213	0x3eb09645	0.34489647
214	0x3db4f2cf	0.088353746
215	0x3b461658	0.003022572
216	0xbdb507c9	-0.088393755
217	0x3e9ee1e7	0.31031725
218	0x3e073cb9	0.13206758
219	0x3e370836	0.17874226
220	0x3efa59de	0.48896688
221	0x3f081b47	0.5316662
222	0x3d1a6b3a	0.037699915
223	0x3d89fc18	0.06737536
224	0x3cd74020	0.026275694
225	0x3ed3242f	0.41238543
226	0xbecaecfe	-0.39633936
227	0xbd4d3c27	-0.050106194
228	0xbdfc41da	-0.12317248
229	0xbee92686	-0.45537204
230	0xbf07a01e	-0.52978694
231	0x3ec4e864	0.3845855
232	0x3ec6938c	0.38784444
233	0xbece3a8e	-0.4027905
234	0x3ca7b864	0.020473666
235	0x3ce84352	0.028352413
236	0x3c66a80c	0.014078151
237	0xbec0f8b6	-0.3768975
238	0xbea3e676	-0.32011765
239	0xbd120028	-0.03564468
240	0xbe30b024	-0.17254692
241	0x3d8af1af	0.06784379
242	0x3cd25ab8	0.025678024
243	0xbef1373a	-0.47112447
244	0xbe8adfbe	-0.27123827
245	0x3d664bbe	0.056224577
246	0xbcd6cad1	-0.026219757
247	0x3e0509aa	0.12991968
248	0xbd8bab1f	-0.06819748
249	0x3edb8aa4	0.42879212
250	0x3cc78b03	0.024358278
251	0x3d933cae	0.07189308
252	0xbd7b3144	-0.06132628
253	0x3e6758fe	0.22592542
254	0x3c157fce	0.009124709
255	0xbeeb7eb7	-0.45995113

neg_net.linears.0.bias f4 [30]
0	0xbcc5c952	-0.024143849
1	0xbe1e1203	-0.15436558
2	0x3e5116b2	0.20418814
3	0x3e66cde9	0.22539486
4	0x3be1b76e	0.0068883216
5	0x3e0aa912	0.13541058
6	0x3e58e077	0.21179377
7	0x3c89b7be	0.016811248
8	0x3d085762	0.03328646
9	0xbd010010	-0.0314942
10	0x3e1e1532	0.15437773
11	0xbdd4293c	-0.10359427
12	0xbe5c4aa0	-0.21512842
13	0x3b1d8e2c	0.002404104
14	0x3d916f67	0.071013264
15	0x3e801255	0.25013986
16	0xbe9ac3dc	-0.30227554
17	0x3c9965e6	0.018725347
18	0x3e60fee2	0.2197223
19	0x3d9d7e41	0.07690097
20	0x3e2ba560	0.16762304
21	0xbe50cbc2	-0.20390227
22	0xbe9158a6	-0.28387946
23	0xbe12fd04	-0.1435433
24	0x3e61747e	0.22017094
25	0xbe0e3ce1	-0.13890411
26	0xbe41fb7c	-0.1894359
27	0x3dbbdd69	0.0917309
28	0x3e5c9c14	0.21543914
29	0xbd90e265	-0.07074431

neg_net.linears.1.weight f4 [30, 30]
0	0xbd238a15	-0.039926607
1	0xbd5c62fe	-0.053805344
2	0xbd81020e	-0.0629922
3	0xbe113912	-0.14181927
4	0x3e67ad65	0.22624739
5	0xbdf881d4	-0.12134138
6	0xbd9bf831	-0.07615698
7	0x3e1ba5f1	0.1520002
8	0x3e598b91	0.21244647
9	0x3e5b2e83	0.21404462
10	0xbd7a40d2	-0.061096974
11	0x3db6693f	0.08906793
12	0x3c95b180	0.018273115
13	0xbd00125a	-0.0312675
14	0xbda2a665	-0.079418935
15	0xbe3d91ae	-0.18512604
16	0x3def8ce6	0.11696796
17	0xbe003e92	-0.12523869
18	0xbe761b27	-0.24033795
19	0x3d0ed206	0.034868263
20	0x3d2df5ce	0.042470746
21	0xbded5dff	-0.11590194
22	0xbe7e2024	-0.24816948
23	0x3e0b2b2b	0.13590686
24	0x3e8bc505	0.2729875
25	0xbd9b4695	-0.07581822
26	0xbe433a1e	-0.19065139
27	0xbe149d80	-0.14513206
28	0xbd38bddc	-0.04510294
29	0x3e01de9a	0.12682572
30	0xbe49626b	-0.1966645
31	0x3de13eee	0.10998331
32	0xbd02f8f7	-0.031975713
33	0x3d88d8af	0.06681954
34	0x3e1ed464	0.15510708
35	0xbe2f7a4d	-0.17136498
36	0xbe53b1a0	-0.20673227
37	0xbea75879	-0.32684687
38	0x3e83178b	0.256039
39	0xbea2d319	-0.3180168
40	0x3cb22dc1	0.021750333
41	0xbe0017ab	-0.12509029
42	0x3eb1b3ba	0.34707433
43	0x3e5da9c1	0.21646787
44	0xbe230c15	-0.15922578
45	0xbda2d96c	-0.07951626
46	0x3dbaae01	0.0911522
47	0xbbffac6e	-0.0078025376
48	0xbb968bf9	-0.0045943228
49	0xbd2649c4	-0.040597692
50	0x3d8bb641	0.068218715
51	0x3d9ef2f5	0.07761184
52	0x3e1d06f9	0.15334691
53	0xbdd151da	-0.1022069
54	0x3eee3a3a	0.46528798
55	0xbe3c99be	-0.18418023
56	0x3e040cba	0.1289548
57	0xbe578489	-0.21046652
58	0xbe829972	-0.25507694
59	0x3ec25217	0.37953255
60	0xbc903844	-0.017604955
61	0x3d90dbc2	0.070731655
62	0xbd75f2c1	-0.06004596
63	0x3e94a7e0	0.29034328
64	0x3c1e7cca	0.009673307
65	0xbe512f71	-0.20428254
66	0x3dc1ea30	0.09468496
67	0x3d98f5ef	0.07468783
68	0x3e79853b	0.2436723
69	0x3ccb856e	0.024843898
70	0xbd87c552	-0.06629433
71	0xbd5ef592	-0.054433413
72	0xbc565ae0	-0.01308319
73	0xbe5317ec	-0.20614594
74	0xbdb29db8	-0.08721489
75	0xbeed0e06	-0.46299762
76	0xbe142c21	-0.14469959
77	0x3e994d5f	0.29941842
78	0xbeab6c9f	-0.3348131
79	0x3e3f9e32	0.1871269
80	0x3e5f1886	0.21786699
81	0xbdfca6f9	-0.12336535
82	0x3c85175e	0.016246494
83	0x3e2f6b83	0.17130856
84	0xbe106bfb	-0.14103691
85	0xbe2b019d	-0.16699834
86	0x3e8cefa6	0.27526587
87	0xbcb9d2d2	-0.022683535
88	0x3eb6daee	0.35713905
89	0x3e9a904a	0.3018821
90	0x3b0fed9c	0.0021961695
91	0x3c525c85	0.012839441
92	0xbc208318	-0.00979688
93	0xbc45cea2	-0.012073191
94	0xbb0438ae	-0.0020175385
95	0x3c882d7a	0.016623247
96	0x3cc778a8	0.024349526
97	0x3c8a71bd	0.016899938
98	0xbc5cce18	-0.013476871
99	0xbb2c7283	-0.0026313371
100	0xbcd27a65	-0.025693128
101	0x3d452c5c	0.048138008
102	0x3c2081a8	0.009796537
103	0x3cc29924	0.023754664
104	0xbabf6be8	-0.0014604302
105	0x3cb3261b	0.021868756
106	0x3c76b0a0	0.015056759
107	0x3c911ff1	0.017715426
108	0x3ce7cb9f	0.028295336
109	0x3c82b85d	0.015957052
110	0xbca1d4f5	-0.019754866
111	0x3b902d37	0.0043999213
112	0x3bab5b5a	0.005229396
113	0xbc217862	-0.009855362
114	0xbc99187f	-0.018688438
115	0xbbc5bba8	-0.0060343333
116	0x3cc103fd	0.023561472
117	0x3d38070f	0.044928607
118	0xbc1b2ee6	-0.009471631
119	0xbb4cd7ce	-0.003125656
120	0x3df56afb	0.119832955
121	0x3df28710	0.118421674
122	0x3dd34338	0.10315555
123	0x3ed35cf8	0.41281867
124	0x3e50a37d	0.20374866
125	0x3e27bd3d	0.16380782
126	0x3e75453f	0.23952197
127	0xbe8f9e54	-0.28050482
128	0xbd5414c0	-0.0517776
129	0xbe8f9595	-0.2804381
130	0x3d6d2ba4	0.057902947
131	0xbd1c5f11	-0.0381766
132	0x3e5e0e2d	0.21685095
133	0x3cd1091c	0.025517039
134	0xbe03bfd0	-0.1286614
135	0xbebfc6e4	-0.3745643
136	0x3cfa26c1	0.030536057
137	0x3e3aa60f	0.18227409
138	0xbe2ca6ec	-0.1686055
139	0xbeb8d2d1	-0.3609834
140	0x3df11107	0.11770826
141	0xba06f9ac	-0.00051488983
142	0xbe1cda9e	-0.15317771
143	0x3e55a6be	0.20864388
144	0xbe0db0e5	-0.13837011
145	0x3e740551	0.23830153
146	0xbdf6948c	-0.12040052
147	0x3d2057d4	0.03914626
148	0x3e7d6bd7	0.24748169
149	0x3e4beac4	0.19913775
150	0xba08855e	-0.00052078615
151	0xb9d2e3fa	-0.00040224177
152	0xbb7f0dfd	-0.003891825
153	0xbd02478b	-0.03180651
154	0xbc20abc3	-0.009806576
155	0xbb9387d2	-0.004502275
156	0x3c101d22	0.008796008
157	0xbd38538a	-0.045001544
158	0xbce367af	-0.027759401
159	0xbc10b317	-0.008831761
160	0xbc51442f	-0.012772604
161	0x3b9a9fab	0.004718741
162	0xbd13e67a	-0.03610847
163	0xbb44116b	-0.0029917608
164	0xbb988397	-0.0046543586
165	0x3b37036e	0.0027925628
166	0x3acc06b9	0.0015565968
167	0xbbc3b7ee	-0.005972854
168	0xbc6e6526	-0.014550483
169	0xbd526914	-0.05136974
170	0xbd3f109d	-0.046646703
171	0xbcfb3e08	-0.030669227
172	0x3ae638f0	0.0017564576
173	0xbaf29ec9	-0.0018510456
174	0xbe01d53b	-0.12678997
175	0x3bd0bf31	0.006370448
176	0x3c12bd72	0.0089563
177	0x3b9f9e5e	0.0048711738
178	0xba330892	-0.0006829585
179	0x3b03eb85	0.0020129394
180	0xbd087764	-0.033316985
181	0x3d8180b7	0.063233785
182	0xbe1d854e	-0.15382883
183	0xbe1ae998	-0.15128171
184	0xbd0f2b58	-0.034953445
185	0xbe0d1a7c	-0.13779634
186	0xbcb43669	-0.021998601
187	0x3ad57088	0.0016284147
188	0xbd75b199	-0.059983823
189	0xbce8c4e0	-0.02841419
190	0xbe19dcb8	-0.15025604
191	0xbb9ff5a6	-0.0048815785
192	0x3d572669	0.052526865
193	0xbd09f8c9	-0.033684526
194	0xbe13c8fb	-0.14432137
195	0xbd5a7aa4	-0.053339615
196	0xbc8c5392	-0.017129693
197	0xbdb7cd92	-0.08974756
198	0xbdb6105c	-0.08889839
199	0xbcf4766d	-0.029841626
200	0xbd8c5bb0	-0.068534255
201	0xbb956b70	-0.0045599267
202	0xbc04635d	-0.008080331
203	0xbb28523c	-0.002568378
204	0xbcee29bf	-0.02907264
205	0x3c8f9258	0.017525837
206	0xbd3dc182	-0.04632712
207	0xbdaf668b	-0.085644804
208	0xbe03f4e3	-0.12886386
209	0xbcf1d64e	-0.029521134
210	0x36b85300	5.49329e-06
211	0x37ebb570	2.8098671e-05
212	0x3aca3fa4	0.0015430343
213	0xbbae1f36	-0.005313779
214	0x3a0908e8	0.00052274624
215	0x396a69b8	0.00022355362
216	0xbc304cde	-0.010760514
217	0xbbff1499	-0.007784438
218	0x3ae2e780	0.0017311424
219	0xba9f7775	-0.0012166338
220	0xbbf2e328	-0.007412333
221	0x3a7972b8	0.00095156906
222	0x3a2acc70	0.0006515449
223	0xbb0b90af	-0.0021295955
224	0xbc80c0c5	-0.01571692
225	0xbc7a8de5	-0.015292619
226	0xbb6658c3	-0.003514812
227	0xbaae20c1	-0.0013284908
228	0xba285285	-0.0006420988
229	0xbbad88a8	-0.0052958317
230	0xbc32e15e	-0.01091799
231	0x3b8cc588	0.0042960085
232	0x3a9d6736	0.0012008909
233	0xb9e8e47a	-0.00044420717
234	0x3a646cd8	0.0008713729
235	0xbb7803d8	-0.0037844088
236	0xba5b0912	-0.00083555386
237	0xbc23e726	-0.010003841
238	0xbb4c59c0	-0.0031181425
239	0x3a8cb474	0.0010734932
240	0x3dc9bf16	0.098509
241	0xbde5f940	-0.11229181
242	0xbcf3f127	-0.029778076
243	0x3ea3bcd8	0.31980014
244	0xbdec3a33	-0.11534538
245	0xbd6fdaaf	-0.058558162
246	0x3de03453	0.1094748
247	0xbe74db1d	-0.2391171
248	0x3c3a8450	0.011384085
249	0xbe96b35a	-0.2943371
250	0xbe22acb2	-0.1588619
251	0xbdf868fd	-0.121294
252	0x3e561ae1	0.20908691
253	0xbe969c23	-0.29415998
254	0x3ea8b862	0.32953173
255	0x3de2604d	0.11053524

neg_net.linears.1.bias f4 [30]
0	0xbda24b07	-0.079244666
1	0xbc6c0352	-0.0144050885
2	0x3e976c50	0.29574823
3	0xbd1722a9	-0.03689829
4	0x3de078fd	0.10960577
5	0xbe2c00f5	-0.1679724
6	0xbe5036be	-0.20333382
7	0xbc935e83	-0.017989403
8	0xbe80287b	-0.25030884
9	0x3e44de78	0.1922549
10	0xbd479f4a	-0.048735894
11	0xbe4070e0	-0.18793058
12	0xbd82e26c	-0.06390843
13	0x3d2479fb	0.040155392
14	0x3d8d5738	0.06901401
15	0xbd69a368	-0.057040602
16	0x3df63c6a	0.12023242
17	0x3cfca235	0.030839065
18	0x3de6d97a	0.11271949
19	0xbde3b41c	-0.111183375
20	0x3dcd485d	0.10023568
21	0x3d8e2569	0.06940729
22	0xbe1ff611	-0.1562121
23	0x3dccbfbd	0.09997509
24	0x3df32acd	0.11873398
25	0xbda01b83	-0.078177474
26	0xbd2717d5	-0.040794212
27	0x3e01cf92	0.12676838
28	0xbe81eebe	-0.25377458
29	0x3e56c2d5	0.2097276
