data/Backup/2/train/N500/D6_SinCosInput/3/result/model/ReLU_Dual_UDirection_BP.pt (torch_old, 22776 bytes, 20 tensors)

input_mean f4 [12]
00000000: ace4 cb3c 7913 7f3e 4f84 30bc cead 763e
00000010: 253e 6c3e dcf8 b03c 098b 6d3f 56cd 6c3f
00000020: eba7 703f 6e9f 5b3e 221e 883e 648b 6c3f
0.024889313 0.24909772 -0.010773732 0.24089739 0.23070581 0.02160304 0.92790276 0.9250082
0.9400622 0.21447536 0.2658549 0.92400193

input_std f4 [12]
00000000: 1a50 bb3e 00af 8c3e 5f79 ac3e d466 263f
00000010: fd7e 2c3f 8559 c03e 16e7 893d f403 a93d
00000020: 5d74 543d 4a26 303f db50 263f 1e22 8b3d
0.3658455 0.27477264 0.3368635 0.65000653 0.6738127 0.37568298 0.06733529 0.08252707
0.051868785 0.68808424 0.64967126 0.06793617

output_mean f4 [6]
00000000: 75e6 ea3c 196e f13e 3b9b 4a3e 0507 95bc
00000010: b0a1 2b3a a7dd 273b
0.028674344 0.4715431 0.19785778 -0.018191824 0.00065472256 0.0025614293

output_std f4 [6]
00000000: 2ded 0a3d ae6c 203e 47e9 0c3e 7c6b c63d
00000010: 8538 f23c c587 8e3c
0.033917595 0.15666458 0.13760863 0.0968847 0.029567966 0.017398724

pos_net.linears.0.weight f4 [30, 12]
00000000: 6e3a 9a3d 4c14 d03e 951f 36bd 2437 f5be
00000010: 743e 1b3f f61a 4fbe a99e ab3c 2de8 0d3e
00000020: 2662 433e fcc8 363e b92e 7bbd c406 143d
00000030: 636f 01bd 8344 26bf 5078 35bd c1c9 f73e
00000040: 5bcf c13e bafa 7bbe 7ce5 973e 9be0 b1bd
00000050: 11a8 47be 97fe 33be 51ea 1ebe b3da 0f3d
00000060: 88aa 98bc 74d6 d7bd b08d 4cbe b301 b7be
00000070: 7243 033f 3da9 b23e fbed e33c 14e5 ad3d
00000080: b40c 93bd 8533 313f 63c6 a3be a49d a83d
00000090: 2e2e e5be dbbc 123e e578 5b3e 0de0 32bf
000000a0: d0f2 633c cbe9 e83d 3664 d03e eda1 9cbe
000000b0: dccb da3d 7d32 163e d28c 3f3e 66d2 54bd
000000c0: 7dfb 60be 27b0 b83e 7623 8dbc d9ed 1abf
000000d0: 7da5 14be 0a74 ca3d 1c78 aebc d520 343e
000000e0: a5ea dabd f246 63be 44bb 083f 9973 58bd
000000f0: 2630 d6be 7893 5fbe 97ba 37bf 6fc1 1dbb
00000100: ea97 7fbe 85e9 15be f7c4 863d 06e0 a8bc
00000110: 9f13 4a3e 80a4 6e3e 98f2 a2be de47 edbd
00000120: 3db7 96be 6768 de3e b8c4 923e 29b9 123f
00000130: c73b 1ebe 8e1f bc3e 9ef9 b8bc c2d4 193d
00000140: 9751 e33d 14ed 6cbb 33ed d33e 39cc 28be
00000150: 8890 cdbe 2731 cfbd 6238 a03e 5e95 203e
00000160: a6bc b13e a2ba 443e b2d3 17be 23e3 063e
00000170: 566e ee3b 9e77 353d 7c29 96bc d3d4 5abe
00000180: 4f5c 4bbe 4d4c eabd ca73 f93e e934 9bbe
00000190: 70d9 fe3d 59a8 0ebe 14f7 f63c abae c2be
000001a0: 0e58 9dbd 65cd efbe 3d8a 0bbe 173b 123e
000001b0: f397 a83e 395a aa3e fa84 c1be 1cf0 b3be
000001c0: 75dc 3bbf 4ab0 80bd ccf2 e3bd 4d92 1e3e
000001d0: e259 eebb 9fe6 87be 8e84 c5bd aa53 813e
000001e0: 1025 73be f147 81bd 244f a13e ab1d cabe
000001f0: a7d6 a7be e413 3fbc 49a1 9fbd 0890 253e
00000200: 9441 40be 37a5 7ebd 30b7 943d b1bd e03e
00000210: 8e01 e8bc 7d89 cabd 637b 2a3e 2410 783e
00000220: fa40 52bf a8a7 ffbe b933 45ba 4862 6abd
00000230: a550 02be 5d93 413e 0625 3a3e 732a f53c
00000240: dee7 083f 6b73 313e 053f 92bd 690a 2dbe
00000250: 4cb3 ab3e ee1e 3b3e 4e1c 10be 4d13 1bbe
00000260: c0ce 7638 48bd 383e adaf a5bd 0841 d0be
00000270: 9f36 2dbf 1889 1b3e ff55 23be f77c 163c
00000280: f0d1 c83e d588 00bf 778e 9bbc 31b9 b73d
00000290: 5842 513e 66a4 1abe b5f0 9d3d 58e1 013e
000002a0: de77 c4bd bea6 a93e 1e5b e03e 6ed7 283e
000002b0: e0ea e5be ce19 92bc e861 423d 09cf f73d
000002c0: 3815 7a3e 4e1a 5fbd 5368 27bf a1b7 163e
000002d0: 183f 1a3f a3de e0bd bb74 473d 2c48 7d3e
000002e0: 258e 3bbe 2c62 613e 4639 91be 47a2 553c
000002f0: 7f66 6abe c889 8cbd 7a4c dcbd ebc0 923b
00000300: 8f11 05bf f130 40be 1a9c c03d d725 aabe
00000310: 073c 36bd 837e afbc d183 e13d 49f0 6a3e
00000320: b26a 2dbe dea2 65be fb96 3bbe 1539 e13d
00000330: ef76 75be 70a7 e5be a5ad e1be 8760 dcbe
00000340: 61a6 0cbf 94be 073f 8ccb a0bc 3259 923c
00000350: 3650 7a3d 1636 91be 0a4d c03d 4d33 b83d
00000360: b7b5 c4be bcd6 9f3e 5f5c 47be 2366 7cbe
00000370: 2873 ca3c 1144 293e 43f6 b4be 03a8 b5bc
00000380: e252 293d d47c f1bd 06e2 11be df72 48bd
00000390: 95a2 953d e82b 703e af37 863e f5c2 a63e
000003a0: a659 2b3f a5d4 c5bd de34 4ebd 810a ae3d
000003b0: 4157 c63e 7669 0cbf fc85 493d b600 5bbd
000003c0: 1cee d33d 6ef1 0b3e 5bb2 eb3e e64c cdbe
000003d0: 39d0 bdbd a7aa 2cbe 70f7 71be bf3e a33d
000003e0: 5868 913e 6c5f 233e daed 213f fbaf 933d
000003f0: e2dc 67bd b086 493e 7b17 463f 9a6a a7be
0.07530676 0.40640485 -0.044463713 -0.4789363 0.6064217 -0.20225129 0.020949678 0.138581
0.1908041 0.17850107 -0.061323855 0.036139265 -0.031600367 -0.6494829 -0.044304192 0.48396114
0.37853512 -0.24607363 0.2966727 -0.08685418 -0.19497706 -0.17577587 -0.15519072 0.035120677
-0.018636003 -0.105389506 -0.19975924 -0.35743484 0.5127479 0.34894744 0.027823439 0.08490959
-0.07180157 0.6921924 -0.31987295 0.082331926 -0.44761795 0.14329855 0.21432836 -0.69873124
0.0139128715 0.113727175 0.40701455 -0.3059229 0.10683414 0.14667697 0.18706062 -0.051958464
-0.21970935 0.36071894 -0.017228823 -0.60519177 -0.14516254 0.09885414 -0.021297507 0.1759065
-0.10689286 -0.22195032 0.53410745 -0.052844618 -0.4183361 -0.21833599 -0.7176909 -0.0024071594
-0.24960294 -0.14639862 0.06580537 -0.020614635 0.19734047 0.2330494 -0.3182571 -0.11585973
-0.29436675 0.43439028 0.2866571 0.5731378 -0.15452491 0.36742824 -0.022579964 0.037556417
0.110995464 -0.0036152052 0.41391906 -0.16484155 -0.4014933 -0.10116797 0.31293017 0.15681979
0.3471424 0.1921182 -0.14826849 0.13172583 0.0072763367 0.04430353 -0.018330328 -0.21370248
-0.19859432 -0.114403345 0.48721153 -0.30313805 0.12443817 -0.13931407 0.030147113 -0.38023886
-0.07682811 -0.4683639 -0.13626952 0.14280353 0.32928428 0.3327196 -0.37796766 -0.35144126
-0.73383266 -0.062836245 -0.11130294 0.15485497 -0.0072738985 -0.26543137 -0.096444234 0.25259143
-0.23744607 -0.0631255 0.31505692 -0.3947576 -0.32780954 -0.011662457 -0.077944346 0.16168225
-0.18775016 -0.06216928 0.07261503 0.43894723 -0.028321054 -0.09889505 0.16648631 0.24224907
-0.82130396 -0.499326 -0.0007522661 -0.057222635 -0.12726076 0.18903871 0.18178186 0.029927468
0.534788 0.17329185 -0.07140926 -0.16898502 0.3353523 0.18273517 -0.14073297 -0.15144081
5.884352e-05 0.18040955 -0.08090148 -0.40674615 -0.6766147 0.15189016 -0.15950774 0.009185067
0.3922267 -0.5020879 -0.018988831 0.08970869 0.20435464 -0.15101776 0.07711927 0.12683618
-0.09593175 0.33135027 0.43819517 0.1648843 -0.44905758 -0.01783457 0.047456652 0.12100036
0.24422157 -0.054468445 -0.6539356 0.14718486 0.60252523 -0.109799646 0.048695307 0.24734563
-0.18315943 0.22010106 -0.2836401 0.013039178 -0.22890662 -0.06862217 -0.10756774 0.004478564
-0.5197992 -0.1876867 0.09404774 -0.33231995 -0.04449084 -0.02142263 0.1101147 0.22943224
-0.16935232 -0.2242541 -0.18319313 0.10997216 -0.23971151 -0.44854307 -0.44077793 -0.43042395
-0.54941374 0.53025174 -0.019628309 0.017864797 0.06111165 -0.28361577 0.09389694 0.0899416
-0.38419887 0.31218517 -0.1946883 -0.24648337 0.024713114 0.16529872 -0.35344133 -0.02217484
0.04133881 -0.11791387 -0.14246377 -0.048937675 0.07306401 0.23454249 0.26214358 0.32570615
0.6693367 -0.09659699 -0.050343387 0.08498097 0.38738444 -0.5484842 0.049200043 -0.053467475
0.1034815 0.13666317 0.46034512 -0.4009773 -0.09268231 -0.16861974 -0.23629546 0.07970952
0.2839992 0.1595437 0.6325356 0.072113 -0.056607135 0.19680285 0.7737958 -0.32698518

pos_net.linears.0.bias f4 [30]
00000000: 4193 7d3d e224 cbbd ce72 50be 4081 77be
00000010: c951 eebb 38ca 473e abed a23e 1827 cfbd
00000020: 0f90 d1be 56f0 413e bcff e9be aeee 22be
00000030: 08b6 c4bb 349c 38be 56dd 9cbd e97b 21bd
00000040: 427c 84be 547f f1bd 2fc4 8fbe 2ec0 aabd
00000050: ebd4 a6bd 84b5 043d 6534 e3be fda6 93bd
00000060: 289b 84be 91e7 c9bd f72a 403d 658a 4abc
00000070: 1fd6 3d3d 6d79 63be
0.06190801 -0.09919144 -0.20356295 -0.24170399 -0.007272933 0.19510734 0.3182195 -0.101148784
-0.4093022 0.18939337 -0.45702922 -0.15911362 -0.006003145 -0.18028337 -0.07659404 -0.03942481
-0.2587605 -0.11791864 -0.28079364 -0.083374366 -0.0814608 0.03239967 -0.4437591 -0.07209585
-0.25899625 -0.09858621 0.046915974 -0.012362097 0.04634678 -0.22214289

pos_net.linears.1.weight f4 [30, 30]
00000000: c8d7 bd3c 309b 1dbe 3be0 783d 89b9 2bbc
00000010: 2b34 b4bb 8911 b5be 21f4 843e 9d3a 98bd
00000020: 4f12 983e 3374 063d 93f0 bfbe d109 073e
00000030: 5c57 d7be 22dc 643b c8f3 d33e 271b c63b
00000040: 3d22 a4be 237c 59bc 4644 0b3e bf15 3ebe
00000050: 8b7e b2be 23a8 7ebe 0e65 c83e ecc5 f6bd
00000060: 2588 8f3e 8244 47be 50fa 05bd 709a 2dbe
00000070: 9906 de3e 41e3 11bf 1ead 41bd 9847 a13e
00000080: 6317 b7bc 4d23 cc3d 59a4 c5bd 2706 ab3d
00000090: 9578 343d 788b c83e 31d7 6d3e 14bc 92be
000000a0: 0dfe 9d3d f534 0e3e e73e 83be 45aa 763e
000000b0: 9dd6 7f3e 158b 98be b836 f93e 30d1 a83e
000000c0: a8be 443e 1cc8 1dbe 01c7 c23d bb79 b63d
000000d0: f416 94bd 1fc2 4fbe 2b22 f4bd 821f 943e
000000e0: 1a25 9e3d 3b33 6c3d 56ba 0a3e 5e35 40be
000000f0: ec89 a43e 96c8 62be b32d e13e 111b fc3d
00000100: 72b9 ff3e 903f cb3d c09a 50be 8a39 ea3b
00000110: b306 60be 7c57 e33e 7dff f53d 52f4 613c
00000120: 91c2 d43d 8d81 55bc 4e39 8cbb 9e6d 38bd
00000130: d9d9 153e 2a91 773e c96c 073e 086a dfbd
00000140: f44b cd3d 0a8c fdbb 09d3 c4be 8b79 80be
00000150: 5ad9 d83e bf8f 79bd 1697 8e3e c8fe 743d
00000160: 6065 e03e a6a2 b6be 6636 5dbd 3857 0b3e
00000170: e6fb d03e cc1a e7bd e8ca b63e 5581 933e
00000180: f7b9 563e 061a cc3c 061f b63e f297 923e
00000190: 0b5a 893e a6ed a5be 35a7 16be 4420 543e
000001a0: 1836 883d e099 3cbe d00f b0bd 046d 9ebd
000001b0: 808b bbbd 9b5d b73e a367 11be 29e1 c3be
000001c0: 65c4 343e 78c1 223e 87a6 7a3d a318 1cbe
000001d0: 6852 1dbf 594d ac3e 6a5c febe 64bd df3d
000001e0: a571 fe3c 6ab1 c13d 1917 953d 3c23 40be
000001f0: e4c2 8dbb ba9c debd 8946 193e 209c b53b
00000200: 2b46 533e c065 6c3e 9ade 1a3e 63cd f5bd
00000210: e5ed a4be f490 153d 6f3a 31be 7063 523e
00000220: 05f2 97be 15dd 41be f128 11be 830f ef3e
00000230: 6934 4bbd 6547 b0be b8fd 0e3d 13b5 303c
00000240: bacb d63d a1fb 1bbe 272c cbbe 4752 c03e
00000250: a72e 8dbe 8188 ec3d f5d1 b63d 4baf b93e
00000260: b964 113e da6b 8a3c ef57 973c 7e0f 253e
00000270: ab35 efbe b787 c0bd b6a4 203e 493f 07be
00000280: 19ec 80bd c3bf 1dbe 8856 9abd 75e6 793d
00000290: 9727 203e 92c0 233e dd0f 9fbc 18ab bebe
000002a0: cea8 693e 5826 04be 9f85 9ebd 8960 8c3d
000002b0: e683 cb3d c199 1bbe 4a5c 593d 8e2a c8be
000002c0: 2c43 d73e ecca ef3d f8ed c2bd 3037 22bd
000002d0: b424 4abe a05e d83e cb56 dd3e e4ef 993e
000002e0: 9e9c 35bd 9ad5 c23e fec3 40be 1bdc 423e
000002f0: 5af8 f3be e6da c1be 8503 ca3e c056 113f
00000300: 9616 cb3d c221 babe 0fed afbb 2f13 423d
00000310: 6c28 aa3d 4f74 6abc 4513 66bc e7b1 c9be
00000320: fb12 8cbe 644a 9dbe bd5b 36be b34c 94be
00000330: 663a 4f3e 4262 063d f2e0 e5bd da86 983e
00000340: 0f93 ae3d 206c 013f 7336 853d dd51 cc3d
00000350: 035c 8b3e dbe3 51bd 1129 66be fca8 f9bd
00000360: 22b5 f93d ab75 ea3d 7354 79bc 1f01 803e
00000370: 8cde d1bd 544d 06be 3249 993e 45c7 66be
00000380: 875b aabd 023d 043e 07b1 c8bd 0406 81be
00000390: 5324 bdbd 4c21 573d 8188 7d3e c77a 50be
000003a0: 782f 9fbc e36d b23e 400f 7cbe 16f6 aa3e
000003b0: e9d3 37bc b2de 56be 45df 06be 8a6b d4be
000003c0: 1b84 7fbe 0e0f 793d e3ed 9cbd 0e2b ae3e
000003d0: 4bcb 99bd 37ce f2bd 6f08 823e 892e a43d
000003e0: 4937 14be b66b 6dbe a519 c2bd 742e c3bb
000003f0: 5bad 16be e249 1dbe c77d 40be 5bef 14be
0.023174182 -0.1539123 0.060760718 -0.010481247 -0.005499383 -0.3536494 0.25967506 -0.074330546
0.29701468 0.03282566 -0.3748823 0.13187338 -0.42058837 0.0034921248 0.41396928 0.0060457173
-0.32057372 -0.013274225 0.13600263 -0.18562983 -0.3486217 -0.24868827 0.391396 -0.12049469
0.28033558 -0.19459727 -0.03270942 -0.16953444 0.4336441 -0.56987387 -0.047284238 0.31499934
-0.022350019 0.099676706 -0.096504875 0.08350783 0.04406031 0.39168906 0.2322662 -0.28659117
0.07714472 0.13887389 -0.25633928 0.2408839 0.24984212 -0.2979361 0.4867456 0.32972097
0.19213355 -0.15408367 0.09510613 0.08909937 -0.072309405 -0.20288895 -0.119205795 0.2893029
0.0772192 0.057666045 0.13547644 -0.18770358 0.32136476 -0.2214683 0.43980178 0.1230985
0.4994617 0.09924233 -0.20371532 0.0071479725 -0.21877556 0.44402683 0.12011621 0.013791161
0.10388673 -0.013031376 -0.004279292 -0.045026414 0.14633884 0.2417647 0.13225092 -0.10908896
0.100242525 -0.007737641 -0.38442257 -0.2509273 0.42353326 -0.060928103 0.27849644 0.05981329
0.43827343 -0.35670966 -0.054006957 0.1360749 0.40817183 -0.11284408 0.3570168 0.2880961
0.20969377 0.024914753 0.35570544 0.2863155 0.2682651 -0.32407874 -0.14712222 0.20715433
0.066509426 -0.18418074 -0.08596766 -0.07735637 -0.09157467 0.35813603 -0.1419969 -0.3825772
0.17653044 0.15894115 0.06119397 -0.15243773 -0.61453867 0.33652762 -0.4967988 0.10924795
0.03106005 0.09457667 0.07279796 -0.18763441 -0.0043262113 -0.10869737 0.14968313 0.005542293
0.20632236 0.2308569 0.15123978 -0.12002065 -0.3221275 0.03651519 -0.17307447 0.20545745
-0.29676834 -0.18931992 -0.14175774 0.46691522 -0.04961053 -0.3442947 0.034909934 0.010785359
0.104880765 -0.15232708 -0.39682123 0.37562773 -0.27574655 0.115494736 0.08926765 0.3626655
0.14198579 0.01689713 0.018474547 0.16119191 -0.46720633 -0.094008856 0.15687832 -0.13207735
-0.06295032 -0.15405183 -0.07536036 0.061010797 0.15640102 0.15991428 -0.019416744 -0.3723991
0.228183 -0.12905252 -0.0774033 0.0685435 0.09937267 -0.15195371 0.05306653 -0.39094967
0.42043436 0.11708626 -0.09518045 -0.039603412 -0.19740564 0.42259693 0.4323028 0.30065835
-0.044338815 0.3805359 -0.18824765 0.19029276 -0.47650415 -0.3786232 0.3945581 0.56772995
0.09916417 -0.3635388 -0.0053688358 0.047381576 0.08308491 -0.014309957 -0.01404268 -0.3939354
-0.2735823 -0.30720818 -0.17808433 -0.28964767 0.20237121 0.03280855 -0.112245455 0.29790384
0.08524143 0.5055561 0.06504526 0.09976552 0.27218637 -0.05124269 -0.22476603 -0.12190434
0.121927515 0.11448225 -0.015217888 0.25000855 -0.102475256 -0.13115436 0.29938656 -0.22536953
-0.08318239 0.12913898 -0.0979939 -0.25199902 -0.09235444 0.05252199 0.24759103 -0.20359336
-0.019431815 0.34849462 -0.24615192 0.33390874 -0.011219957 -0.20983389 -0.13171108 -0.41488296
-0.24952738 0.060805373 -0.07662561 0.34017223 -0.07509478 -0.118557386 0.2539706 0.080166884
-0.14474215 -0.2318562 -0.094775476 -0.0059564654 -0.14714567 -0.15360215 -0.1879798 -0.14544432

pos_net.linears.1.bias f4 [30]
00000000: 83e7 90be 28a0 903d db73 0fbc 3e40 39bd
00000010: ca1e 5f3e fb59 3ebe 182e dabd ea46 c63d
00000020: 858c a5bd 714e a83d df4c 2cbd a907 63be
00000030: 57e3 f43d 69d3 803e 1c1a 8c3d b8e2 d13d
00000040: cc27 42be 6274 b93d f57e 893d 0837 d0bd
00000050: 63ee 15be cc3e 4abe 3990 acbe 8099 713e
00000060: f96e 1e3e 46e5 d6bd bca5 093d b092 20be
00000070: db1d 01be 6232 783d
-0.2830163 0.070617974 -0.008755649 -0.04522728 0.21789089 -0.18589012 -0.10653323 0.096814945
-0.080834426 0.082180865 -0.042065497 -0.22170891 0.11957424 0.25161293 0.068409175 0.10248321
-0.18960494 0.090554014 0.06713668 -0.101667464 -0.14641719 -0.19750518 -0.33703783 0.23593712
0.1547202 -0.10492949 0.033605322 -0.15680957 -0.12609045 0.060594924

pos_net.linears.2.weight f4 [30, 30]
00000000: 5902 08be 3612 24bf f597 793d 9042 93bb
00000010: 42c5 833e 2986 523d 778e 033e 35d2 703e
00000020: 68a1 ccbb 1be3 543d c0aa fe3a 99a9 0d3d
00000030: f0cf 943e 6d15 3f3e 5686 f13d bfe4 a6bd
00000040: 169e dfbc e809 a63e 63fc e2bd e896 f6bd
00000050: 0270 2c3d e214 a6bd 9065 ca3e d0e4 a03e
00000060: 7f1c 4fbe a181 913c 2033 ac3d 960c f2bd
00000070: dbfd bcbd 891b 49be 90c3 08b9 ea0f e9b8
00000080: 2f85 423b 3c30 42b8 9e34 153a 54ce 7eb8
00000090: 9065 5837 c0dd 6d3b c712 c539 c400 f43a
000000a0: d19a 963a e25e 353a 7902 7ebc 5409 f2b8
000000b0: a039 ee39 3849 c0b7 0ae2 0b3a de91 fb38
000000c0: 8411 5e3a c049 43b6 46c2 873a 3cbe feb9
000000d0: 1546 5cba cca3 053b c899 4c3a 5c8b 91ba
000000e0: 926e 463b f72f 62ba 6c94 e839 fb04 7939
000000f0: 2ea7 85bc aacf dfbc 00f8 6036 7787 83bd
00000100: e8c9 00be 50fa 263d 75ff 9fbd f559 46bd
00000110: 2982 723d a664 5cbd ba2c 5939 439b 1f3d
00000120: 3c47 e23c 9649 cebd be63 aabd 08c3 d83c
00000130: b02d abbc 3a15 e13c 5405 78bd 5356 bd3c
00000140: e75d e3bc 6d51 1c3d 7d3b 32bc 124c dfbd
00000150: 0772 2abe e054 10bb 7ce6 ab3b 84d7 d7bb
00000160: fae4 46bc f6e8 83bd 73db 22be 0dcf 7abe
00000170: d14c 023d 1d42 9a3e 4b62 683e 68b8 bdbd
00000180: a661 8fbd 075f df3d 1482 553d e478 d4bd
00000190: bad0 98bb c8a5 293d 014c 7fbd b010 833e
000001a0: 9f7f 80be 224b 673d 1762 1dbd 5fc8 77bd
000001b0: 0e05 70be 8254 593d 08be 8ebd fdbf efbc
000001c0: 8db6 06be 1d56 fcbc f089 d7be e71e 9dbb
000001d0: ab73 243d a76a 743e b801 3bbd b1fb a2bd
000001e0: bf1e 8c3e 964e 733d a2e1 5dbe a1d4 783e
000001f0: d271 713e 1b23 75bc 322e e33e 7b29 e2bb
00000200: 02bf 873d de72 f0bc 70cd de3c dcf9 9ebd
00000210: ba8f 4cbe 98df 053f 8f90 8e3c a99a febe
00000220: 8127 463d 1174 953e f668 75bc b8d9 6bbe
00000230: 2c4c 39be a5e2 04bf 42fd 0c3e b354 5c3e
00000240: a42b 2fbc 92ca 0b3d e4e1 2d3e 629c 263e
00000250: 9821 e2bd a0d4 dd3d c834 423d d40a 78bd
00000260: c0a0 3d39 9f34 aa3c fa78 2bbd b0bd 06bd
00000270: 027f 843c 184f 37bd d2cb 3cbc 363c 1e3e
00000280: c7c0 a639 ce87 5a3c e994 093d a943 dbbd
00000290: 2d38 e7bd 58e4 f4bd bd1c a3bb 405a f03b
000002a0: a83a a03d a45d 093d 8da4 ba3a e217 6f3d
000002b0: 2720 ecbc 2cdf d4bd 18d1 e33c 62eb e7bb
000002c0: 9f46 67bc dbf5 80bc a536 20bd 1e0d 5dbd
000002d0: 52e3 313d d471 34bd 5ef3 41bd 7ee1 58bc
000002e0: 269d 63bc 1a36 57bc 3e08 54bd fd70 bfbc
000002f0: ba2e ea3b 7543 78bc a0be 11b9 4cdd 2bbd
00000300: 46f2 b2bc c5e0 20bd 3eb6 4ebd 08f5 72bd
00000310: acaa f63b 4ac6 08bc 06ef aabc 94bc 8a3b
00000320: b3df 44bc 4897 18bd f4bf 3dbb 3f23 c3bc
00000330: deee 29bd c44f 1bba 485d 12bb 5193 c73c
00000340: bcbd 02bd f495 1fbd 6c06 dc3d 9053 793d
00000350: 7995 823e 3118 75bd c7de 8c3d d628 aa3e
00000360: 79a4 8ebe 0fc5 1d3e 87f3 00be faaf 473e
00000370: 7804 4ebb 645e e0be c7a2 9c3e c67d 76be
00000380: 1a59 b7bd 618a bb3e 5e87 e63d 6280 5e3a
00000390: c408 3abe 3ace fcbd efe0 f93e 78bf 97be
000003a0: 25e6 283e abeb 953d 2f57 5abc 9843 0dbf
000003b0: 4275 393e 7b4c 51bc 2549 eb3e 8fa9 313e
000003c0: af16 cfb9 8bd1 a6bd 0aa2 84bd dac5 6dbc
000003d0: 86ca 883c 9686 073d c320 dcbb 9416 323c
000003e0: c017 36bd a0f3 3abb 759e bfb9 83eb e7bb
000003f0: a38f b83b c5ee 8e3c 4ae4 66bd 45fd 03be
-0.13282146 -0.6409029 0.060935933 -0.004494019 0.25736433 0.051397476 0.12847315 0.23517688
-0.006244827 0.051974397 0.001942955 0.03458557 0.29064894 0.18660517 0.11793201 -0.081490986
-0.027297061 0.32429433 -0.11083295 -0.12040502 0.042099006 -0.08109452 0.3953061 0.3142457
-0.20225714 0.017762007 0.08408189 -0.11818807 -0.092281066 -0.1963941 -0.00013042823 -0.0001111327
0.0029681434 -4.6298126e-05 0.00056917395 -6.0750477e-05 1.289825e-05 0.0036295503 0.00037588758 0.0018615951
0.0011490231 0.00069187407 -0.015503519 -0.00011541197 0.0004543783 -2.2922279e-05 0.00053361116 0.000119957826
0.0008471238 -2.9100192e-06 0.0010357581 -0.0004858839 -0.0008402777 0.002039182 0.00078048976 -0.0011104154
0.0030278307 -0.0008628363 0.0004436107 0.00023748346 -0.016315069 -0.027320702 3.3522956e-06 -0.06422322
-0.12577021 0.04076606 -0.078123964 -0.048425633 0.05920616 -0.053806923 0.00020711395 0.03896643
0.027621858 -0.10072629 -0.083198056 0.026460186 -0.020895809 0.027475942 -0.060551956 0.023112452
-0.027754737 0.03816359 -0.010878441 -0.10903181 -0.1664506 -0.0022023246 0.0052459817 -0.0065869708
-0.012139553 -0.06440918 -0.15904026 -0.24493046 0.03181154 0.30128565 0.22693746 -0.09263688
-0.07001047 0.10906797 0.052126005 -0.103746206 -0.004663554 0.041417867 -0.062328342 0.2559867
-0.25097367 0.056468137 -0.038423624 -0.060493823 -0.23439428 0.05305911 -0.06969839 -0.029266352
-0.13155575 -0.03080278 -0.42097425 -0.0047949436 0.040149372 0.2386881 -0.045655936 -0.079581626
0.27367207 0.059401117 -0.21668103 0.24299861 0.23578575 -0.014961983 0.44371182 -0.0069019175
0.06628229 -0.029351648 0.02719757 -0.07762501 -0.19976702 0.522943 0.017402915 -0.4972737
0.048377518 0.29190114 -0.014978638 -0.23032272 -0.18095464 -0.5190833 0.13768485 0.21516685
-0.010691557 0.034128733 0.16980702 0.16270593 -0.11041564 0.108315706 0.047413617 -0.0605572
0.00018084329 0.020777045 -0.04186342 -0.032895744 0.016173843 -0.044753164 -0.011523204 0.15452656
0.00031805618 0.013338042 0.033589277 -0.107062645 -0.112900116 -0.119576156 -0.004977791 0.0073349774
0.07823688 0.03353657 0.0014239714 0.058372386 -0.028823925 -0.10394129 0.027809665 -0.0070776204
-0.0141159585 -0.015742233 -0.039114613 -0.053967588 0.04342968 -0.044053867 -0.047351234 -0.013237355
-0.013892448 -0.013135457 -0.051765673 -0.023369307 0.0071466835 -0.015152802 -0.00013899291 -0.041959092
-0.02184404 -0.039276857 -0.05046677 -0.05931571 0.00752767 -0.008348057 -0.020865928 0.004233906
-0.012016225 -0.037253648 -0.0028953524 -0.023820518 -0.041487567 -0.0005924667 -0.0022333432 0.024362238
-0.031919226 -0.038961366 0.107434124 0.060870707 0.25504664 -0.059837524 0.06878429 0.3323428
-0.27859858 0.15407203 -0.12592898 0.19500723 -0.003143577 -0.43822014 0.3059294 -0.24071416
-0.08952542 0.36629012 0.11256288 0.00084877585 -0.18167406 -0.12344022 0.48804423 -0.29638267
0.16494043 0.07320341 -0.01332645 -0.55181265 0.18111137 -0.012774582 0.45954242 0.17349838
-0.00039499017 -0.08145436 -0.06476219 -0.0145125035 0.016698133 0.033087336 -0.0067177727 0.010869641
-0.044456244 -0.002852656 -0.0003654842 -0.0070776357 0.005632357 0.017447839 -0.056370057 -0.12889583

pos_net.linears.2.bias f4 [30]
00000000: a607 cf3e 9452 9fbd 2311 e7bd 62e0 07be
00000010: 22a2 a23e be0a 84bd 4d8d b6bc e6d5 433c
00000020: e068 a7bd fe44 ac3e ccd8 673d 2009 43be
00000030: 4ea7 aa3e 6679 0f3d c8f6 dfbd c4c2 fbbd
00000040: 8b0e b8bd 9727 7ebe 09a6 ff3c 244e ba3e
00000050: e0e7 f53d 7843 a33e fa01 d8bd 3e6a 023c
00000060: fed1 2cbc be4b 283d a082 08bd 5502 04be
00000070: cc4c b2bb 4699 13bd
0.40435523 -0.077794224 -0.112825654 -0.13269189 0.31764323 -0.064473614 -0.022284174 0.011952853
-0.081743 0.33646387 0.056603238 -0.1904645 0.33330768 0.035027884 -0.10935742 -0.12293008
-0.08987149 -0.2481979 0.031207101 0.36387742 0.12007117 0.31887412 -0.10547252 0.0079599
-0.010548113 0.04108786 -0.0333277 -0.12891515 -0.005441284 -0.036034845

pos_net.output_layer.weight f4 [6, 30]
00000000: ac9c bc3e 21a0 c83b 718f 12bd 9243 9c3e
00000010: ab06 c43c c9b0 65bd 5bc9 cc3c 0adc e5bd
00000020: 1926 b9bc 66f6 68be ae55 e1bb 5795 cdbe
00000030: e413 f13e f455 51be 7a21 21be 1ef3 013e
00000040: dfc7 023d b169 91bd 194f 343d 0d64 e73d
00000050: 477e 633d ef95 81bd f113 1f3e 77e4 cf3d
00000060: 119e 48be 99f2 4c3d 17e0 8a3d 041e 573d
00000070: 7f42 cd3d a9b0 443c 286a 413e 80dd 123a
00000080: ce24 eb3d 6c84 883a 3eee 0abe 3131 86bd
00000090: eec2 5abe 9a15 9b3e ccd1 bdbc 15d2 6cbe
000000a0: e640 203e 51b4 993e d314 4cbe 23d6 bd3d
000000b0: 8bf5 553d e7f3 9a3e 3eab 2ebc fde4 18be
000000c0: f8b6 81be e418 4a3e b912 c5be 2588 053f
000000d0: 8f62 f33b a282 72be ab53 96bc 5e16 d6be
000000e0: 5926 dc3d a283 1c3e 1117 41be 285d 303d
000000f0: 691d 4bbe d67a fab9 8e17 e03c 4407 8c3e
00000100: e8df a8be 8d13 3cbe 1f24 06bc 3bc7 e03e
00000110: 8d72 0cbd 2e5a 553d f049 2d3b 82be fd3d
00000120: f7c4 083c 4dec 7fbe af97 473d 3936 9c3e
00000130: 1e86 373b 2690 0b3f a273 423e df1e 73be
00000140: af61 0fbe e8d0 7cbc ce0a 743c fdfd 75be
00000150: 03b6 9cbe 6bad 25be b9e9 01be f7da 983d
00000160: 73d9 d93d c8bd ecbc 37fd 723e 5fe6 113a
00000170: 4f53 32be ea85 e4bd 0efc 253f fc8f 423c
00000180: 59b7 8d3c b0c0 a13d 54c0 633c 638c d2bc
00000190: 323e 0bbf 1061 193e 8c65 9fbc 33d1 b03c
000001a0: 7491 303b a80c 03be 6d91 863a d600 883e
000001b0: 449f 803e 684b b43e 0cfc 83be 1546 873e
000001c0: 0a3c 093d 5ea3 fabe bb2a 843e 1837 a8be
000001d0: ea6e 983b 2356 8e3d 53c3 863e f97a 36bc
000001e0: 76ef a6be dd28 4b3a 4c98 ed3d 0322 17bf
000001f0: 881d 2dbe 760c 323e 1ed4 55bd 3ed4 1e3e
00000200: 403d ebbc 7f74 1a3f 854e 00bf d919 62be
00000210: 8010 aa3e 5fed d83e 374d f3bb 9d25 0b3e
00000220: 4b54 e8bb 95f9 d6be ffa5 863e 40f3 59bd
00000230: 9086 53be ce2d 563e 5661 c03c 1240 773f
00000240: 2cc9 a4be 374f b2bd 035e f43c fb15 d33d
00000250: 12a7 113f a2b5 23bb 7e63 353d 1a27 8eba
00000260: 3264 a13d 165e b03c 1170 9b3d 3e00 f13d
00000270: 00f2 973c 2bf3 f3be 98ec ddbc f59b ae3e
00000280: a5b3 4ebe 28b6 773e 19ff b8be ff4a a3bd
00000290: 2fa5 aaba 0740 323f 53f9 993b e0d0 013e
000002a0: e193 7b3e 35c3 ef3e 6b9a 033f c21f 4c3e
000002b0: 868d 0cbb e951 8ebd e379 c0be e98c 9fbe
000002c0: 0b73 31ba 0ea2 8d3c 57c0 eabe a374 86bb
0.3683828 0.0061226045 -0.035781328 0.30520302 0.02392896 -0.0560768 0.024998358 -0.1122361
-0.022601174 -0.22750244 -0.006876669 -0.40153 0.47085488 -0.20442945 -0.15735427 0.12690398
0.031928893 -0.07100237 0.044020746 0.1129838 0.05554035 -0.06327426 0.15534951 0.10150998
-0.19591548 0.050036047 0.06781023 0.05251886 0.10022449 0.01200501 0.18888152 0.0005602464
0.11481629 0.0010415441 -0.13567445 -0.06552351 -0.21363422 0.30289918 -0.023171328 -0.23127015
0.15649757 0.30020383 -0.19929819 0.09269359 0.05223612 0.30264208 -0.0106609445 -0.14931102
-0.25334907 0.19736058 -0.38490847 0.52160865 0.0074275206 -0.23682645 -0.018350443 -0.4181394
0.10749502 0.15284589 -0.18856455 0.04305759 -0.19835438 -0.00047775236 0.027354982 0.27349293
-0.32983327 -0.18366833 -0.008187323 0.43902 -0.03428893 0.052087955 0.0026441775 0.12389852
0.008347741 -0.24992485 0.04872864 0.3051012 0.0028003524 0.5451683 0.18989423 -0.23742245
-0.14002107 -0.0154306665 0.014895154 -0.2402267 -0.30607614 -0.16179435 -0.12686814 0.07463639
0.10637178 -0.028899089 0.23729406 0.0005565639 -0.17414592 -0.111583546 0.6483773 0.011875149
0.017299341 0.0789808 0.013900835 -0.025701707 -0.5439178 0.14978433 -0.019457601 0.021584129
0.0026942166 -0.12797797 0.0010266729 0.26563138 0.2512151 0.3521378 -0.25778234 0.26420656
0.033504523 -0.48952764 0.2581385 -0.32854533 0.004651894 0.06950023 0.26320896 -0.011137717
-0.3260457 0.00077499246 0.11601314 -0.5903627 -0.16905797 0.17387566 -0.052204244 0.15510651
-0.02871573 0.6033401 -0.5011981 -0.22080173 0.33215714 0.423686 -0.007424976 0.13588567
-0.0070901266 -0.4198729 0.2629852 -0.053210497 -0.206568 0.2091591 0.023483913 0.9658214
-0.32184732 -0.08706515 0.029829985 0.10306927 0.56895554 -0.0024980088 0.044284336 -0.0010845393
0.07880439 0.021529239 0.07589734 0.11767624 0.018548012 -0.4764646 -0.027090356 0.3410336
-0.20185716 0.24190581 -0.36132124 -0.07973289 -0.0013019199 0.6962895 0.004698911 0.12677336
0.2456813 0.4682862 0.514075 0.1993399 -0.002144666 -0.06949217 -0.37592992 -0.31162193
-0.0006769157 0.017289188 -0.4584987 -0.0041032596

pos_net.output_layer.bias f4 [6]
00000000: 3e5a 383e 996d 1d3e 072e e4bc 97c4 95be
00000010: d421 873e 1d36 2ebe
0.18003175 0.1537384 -0.027853979 -0.2925155 0.26392996 -0.1701283

neg_net.linears.0.weight f4 [30, 12]
00000000: c0f2 353f 104a 01be c6d4 42bd 498f e63e
00000010: 6226 053e 9c56 1f3e 055a c7be 1392 4dbe
00000020: 1c5f fabb 5476 003c 2420 27bf c2db 6dbc
00000030: 4705 11bf 66de 2d3d bc44 4fbe 74b5 b93d
00000040: 9ff1 90bc 08d1 34bc ea14 4abe 34f4 813a
00000050: 3a50 f8bd e078 7b3d e826 4abf 1455 fcbd
00000060: 3bd6 d93e 97ac adbe 448f 1b3e 0634 24be
00000070: b689 2dbd ba63 6bbe 5d1a 7abe fcef c03e
00000080: 45c2 ed3d da9d 3fbe 4eaa 953e bd37 6abe
00000090: fdeb d73e 8075 253e 96b0 f03d 6a8e 0b3e
000000a0: d5ed ab3d 8890 5c3e b55d 8fbd 17fb 95be
000000b0: dba9 b63d d104 113f 5c04 fc3e ff1b d03c
000000c0: 3653 993e 5768 a93e 8b0e 983e 0088 d93e
000000d0: 5658 1fbe 1081 babe 564a c2bc fc13 3cbe
000000e0: 4a39 193e 30e3 09bf 0ef8 80be da92 c43d
000000f0: 2fc0 1ebf 8844 cdbe a558 943e 18ac 213e
00000100: 23f0 d93c 6c67 72bb 252f b33d cee7 7abe
00000110: 6f0d 13bd 2af2 3e3e 675a 853e ab1a 00be
00000120: db82 0c3e 6cbb 9bbd 6377 333e 80b5 13bf
00000130: 370b 54bd e602 15bd 4372 c43e 7db5 8f3e
00000140: 1589 e63e 8e14 44bf 4441 693e 31cf 083e
00000150: 1ac5 19be 7d00 18bf 4d70 56bf 070e bc3e
00000160: 8412 c3be 7842 b5b9 0c9f 6e3e 7da2 18be
00000170: a990 3abd 1e75 2a3d 69a8 4e3e d4ba edbd
00000180: 4f3e 4cbf fbc8 5ebe 71e3 8e3c a697 bdbe
00000190: 0296 1cbe 2380 bd3d 6072 ddbd a0f3 5d3e
000001a0: ccb5 2bbe 8191 83bc ff6b e43d a1b7 a63c
000001b0: 76ac fb3e 76fa a53d ea42 a43e e40f f0be
000001c0: 88c5 afbe 4c48 4cbd 41c7 94be 86ca 8abd
000001d0: dbfe a5be 86e7 733e 9d29 3dbe 6151 05bd
000001e0: 3110 a73e 73e8 193e 0796 debe c8bf f8be
000001f0: 7954 863e 4a47 733e a343 ddbd 7ef8 5fbc
00000200: 8c5d d2bc 8032 103d d7b6 96bc 82ab d13d
00000210: 67cb babe 4c25 82bc 8864 e53e 8317 433f
00000220: a1d3 08bf 88a9 8abe 5191 a13d 0dfe 7bbe
00000230: bacc d5bd e0c7 eb3e bc63 423e 38f5 b8bc
00000240: 57f6 e43d 55d9 673e 087f d33e 6c03 a6be
00000250: 891b 613e 52f4 6bbe 3ed3 633e c5c5 6c3e
00000260: aa0b 59be 5521 f93e 91b1 c83e c27e 17bd
00000270: 9ab7 953c 84c5 ad3d 9f31 2ebf 9f95 12bf
00000280: 0079 b83e ce8c bcbd 1ed7 6f3e 713f 3a3e
00000290: 693b c23c 7c65 7a3e fcc1 1ebf 145f 1cbe
000002a0: dab5 70be 9aea 8e3e 64f9 073f 0820 a43d
000002b0: 3094 aabd f957 9a3e bd37 44be bd92 ba3d
000002c0: 80ad 0bbe d8d0 edbe a88d 44bc a41c 8e3d
000002d0: 61a3 5fbe 68e2 823e 5795 153f 289a fc3d
000002e0: a07c cd3e 745c 9abd d977 8c3d c28d 21be
000002f0: dba0 ddbb 3a1e 15bf ae1a 1cbf cb5c e5bd
00000300: ae2c 803d ee2a 49bd 9623 5abd f8e0 08bf
00000310: 4b50 d63e 5be7 e1bd 2e80 edbd 6b54 34bd
00000320: 57e6 353e 0b0c 003f 5116 d2be 958a 6b3d
00000330: c102 563e e49a a4be 00cf f13d b87b ec3e
00000340: fa1e 7fbe 8ac5 4fbe 2cce c6be 72b0 6dbd
00000350: e656 31bd 183f ce3d e8ea f63e 99d5 993e
00000360: c031 01be 1558 853e 16b5 cc3e 8554 883e
00000370: c48a 1dbf 38e6 843d 18fb efbd 22c0 2fbe
00000380: 5a58 933e 7280 093f 4b27 8d3d abf0 743e
00000390: 1660 55bd 3af2 87bd 01a5 c9be 0e1c cebe
000003a0: 2ced 2bbf 547a 9c3e ad36 2cbe 0f1b 9d3e
000003b0: 2cfe 27bc e4e3 27bf 20cf 8f3e baeb 543e
000003c0: e047 6dbe 7796 2cbe 52ef 49be a6c7 e33c
000003d0: fd4d 5c3f 6bfc 443f efdf 373d 9361 1abd
000003e0: b448 af3d b2a8 3cbe 30f1 603b 18ff 823d
000003f0: 701b 493e b58b 08bf 8052 8d3e 8f18 24be
0.7107353 -0.12625909 -0.047566198 0.45031193 0.13002923 0.15560383 -0.38935867 -0.20075254
-0.0076407325 0.007840712 -0.6528342 -0.014517726 -0.5664868 0.042448424 -0.20241064 0.090678126
-0.017693339 -0.011036165 -0.1973454 0.0009914697 -0.12124677 0.061394572 -0.78965616 -0.12320915
0.42546257 -0.33920738 0.1519137 -0.1603547 -0.04236766 -0.22987261 -0.2442412 0.37683094
0.116093196 -0.1871256 0.29231495 -0.22872825 0.42172232 0.16158104 0.11752431 0.13628545
0.08394972 0.2153951 -0.07000295 -0.2929313 0.08919116 0.56647974 0.49222076 0.025403975
0.29946297 0.33087417 0.29698595 0.42486572 -0.15561041 -0.36426592 -0.023717087 -0.18366998
0.1496326 -0.53862286 -0.2518925 0.09598322 -0.62012 -0.40091348 0.2897388 0.15788305
0.026603764 -0.0036987914 0.087492265 -0.24502489 -0.035901483 0.18647066 0.26045534 -0.12510173
0.13721792 -0.07604107 0.17526011 -0.5769882 -0.051768508 -0.036379717 0.38368425 0.28068152
0.4502646 -0.76593864 0.22778803 0.13360287 -0.15016595 -0.59375745 -0.8376511 0.36729452
-0.38100064 -0.00034572533 0.23302859 -0.14905734 -0.045548115 0.041615598 0.20181431 -0.116079
-0.79782575 -0.21756355 0.017442437 -0.3702976 -0.15291598 0.09252956 -0.10812831 0.21674967
-0.16768569 -0.016060593 0.11153411 0.020351233 0.49155015 0.08104412 0.320823 -0.46887124
-0.34330392 -0.049873635 -0.2905827 -0.067769095 -0.32421002 0.23818788 -0.18472905 -0.032548312
0.3262954 0.15030079 -0.43473837 -0.48583817 0.26236323 0.23757663 -0.10803916 -0.013670085
-0.025679372 0.03520441 -0.018397732 0.10237791 -0.3648331 -0.015886925 0.44803262 0.7620775
-0.5344792 -0.27082467 0.07889045 -0.24608631 -0.10439439 0.4605093 0.18983358 -0.022577867
0.11179798 0.226415 0.41307855 -0.32424486 0.2198316 -0.2304242 0.22248551 0.23122318
-0.21195856 0.48658243 0.39197972 -0.03698612 0.018276025 0.08484939 -0.68044466 -0.57259554
0.36029816 -0.09206544 0.23421904 0.18188263 0.02370997 0.24452776 -0.62014747 -0.15270644
-0.23506871 0.27913362 0.53114915 0.08013922 -0.08329046 0.30145243 -0.19161887 0.09110019
-0.13640404 -0.46448398 -0.011996664 0.069390565 -0.21839668 0.2556336 0.58431 0.123340905
0.40134144 -0.07537165 0.068587966 -0.15776733 -0.00676356 -0.5824925 -0.6097821 -0.111993395
0.06258522 -0.049113207 -0.053256594 -0.53468275 0.41858134 -0.11030456 -0.11596714 -0.04402582
0.17763649 0.50018376 -0.4103265 0.05750521 0.20899488 -0.32149422 0.1180706 0.4618814
-0.2491416 -0.20290199 -0.38829172 -0.0580296 -0.043295763 0.10070628 0.48226094 0.30045775
-0.12616634 0.26043764 0.39981908 0.26626983 -0.61539865 0.06489223 -0.11717814 -0.17163137
0.28778344 0.53711617 0.0689226 0.23919933 -0.052093588 -0.06637998 -0.393837 -0.4025578
-0.6715877 0.3056208 -0.16817732 0.30684707 -0.01025347 -0.6558211 0.2808771 0.20793048
-0.2317195 -0.16854273 -0.197202 0.02780516 0.860565 0.7694766 0.044891294 -0.03769071
0.08558789 -0.18423727 0.0034323446 0.063963115 0.19639373 -0.53338176 0.27602005 -0.16024993

neg_net.linears.0.bias f4 [30]
00000000: 3e21 943d 9b6b 7b3e 7f3a e3bb 08f7 8ebe
00000010: 4629 a6be 12e5 9ebe 0c82 7ebe a99f 843e
00000020: 8013 233e f38d 743c c976 e5be 886a 893d
00000030: c358 80be 5f7d fd3c 18f5 80be c31f 1d3d
00000040: 632d a23c e840 7cbe af99 3cbe 400e eabe
00000050: 94f9 773c 93c1 bb3c 5f8d 193e 8e53 b0be
00000060: a4d4 0c3e 76a0 5f3c 412a 253e 88e3 523c
00000070: 73c1 eabe b935 0bbe
0.07232903 0.24552767 -0.0069344635 -0.27922845 -0.32453364 -0.31034142 -0.24854296 0.2590306
0.15925407 0.014926421 -0.44817188 0.06709772 -0.2506772 0.03094357 -0.25186992 0.03836037
0.019797033 -0.24634135 -0.18418 -0.45713997 0.015135188 0.022919452 0.14995335 -0.34438747
0.13752991 0.013649097 0.161294 0.0128716305 -0.45850715 -0.13594712

neg_net.linears.1.weight f4 [30, 30]
00000000: 219a 21bf 25da 05bf 446c bd3e d893 bdbc
00000010: 138d c43e e151 a03e 4923 1d3f d95f 93bd
00000020: 05de 9d3e e0e5 aebd 66f2 a1be b40f b63d
00000030: ff49 40be 054f 0d3f 17f2 0c3f 3f23 d23d
00000040: b0f7 d0bd ad49 013e 5b7e 7dbc 20c8 9b3d
00000050: 37ac c3be 5eee ecbd 304b 143d 9e7f 54be
00000060: cf5b 9bbd fea9 edbe 3b5f 943d 4395 6ebe
00000070: 8a25 ef3e 9869 bbbe 954e c1be 4b7d 14be
00000080: 1ccb 98bd 945b 873e fb9a 9ebe e472 cb3d
00000090: 17e6 9dbe d117 30bd 2c72 133e 0d9b f5bd
000000a0: 2555 7ebd d8d6 4e3e 258e 123e b0ed b63d
000000b0: ceab e43d 3d8a 3bbe c076 d03d 226d 1cbd
000000c0: c1e0 323e b133 30be fdf4 e4bc f488 f3be
000000d0: 432b 2cbd acdd d13d f058 3cbd aa56 26bd
000000e0: b497 73bd 93a9 083f f5c6 4fbe 28c0 4dbe
000000f0: 7a74 453d cefb 863e 62d8 cabc 3907 41be
00000100: b054 b63e e712 48be 71e5 ecbe 2bc7 4f3e
00000110: 5d9e 1a3e ca45 083e f79a 4f3e 5e26 4cbd
00000120: 2b43 78be 6f86 47be fecd 0dbd 6522 223e
00000130: 69ee b2be 7d85 15be 1602 813e c14a 05be
00000140: 411f 19be a8c7 4d3d fa92 ad3e b61d 99be
00000150: afc4 623e a5c4 efbe 58e1 c03c 82ff aa3c
00000160: 38c4 f9be 92ca a33e 6e8b 653c c7a8 35be
00000170: 0d7f 6dbe f258 c83c 031d 803d 50fb c63d
00000180: d8a3 15bf 80eb 7cbe c477 80bd bd91 0cbe
00000190: d0eb 8ebe b399 863d 8798 2d3d 5326 96be
000001a0: 5bcc 853e e45b d83e 6f3a 46be 1777 22be
000001b0: 24af 0ebf 3b80 60be d590 9a3e cb4f 29bf
000001c0: 7f16 8fbd 9e36 d13d 337a 0c3e b436 483e
000001d0: f14a e8bc a705 54bc 9d96 4fbd 6583 25be
000001e0: 9d72 9dbd 090a 50bd 39bc 62bc 486c 75bd
000001f0: 0ca3 aabd 9550 d2bc a6ea 7bbc 59f0 febc
00000200: 40d1 4ebd 5b2f 05bd 0a83 153c b527 c7bd
00000210: 74bf 1a3b 37b0 58b9 dc31 bfbd 75e6 fbbd
00000220: 89d5 22bc 3e86 23bd 65e8 95bd a0ca 18bd
00000230: 43ec 36bd aa77 12bd 79fb 04be a59b 57bc
00000240: 1fd4 bcbd 0bad 12bd bc56 98bd 37c4 02bd
00000250: 96ed 09bd ee10 0abd 932d 93be 3078 9f3e
00000260: 9025 ea3e 9f95 bdbd 84b5 933d 6490 a33e
00000270: e820 53be b463 d4b9 288f c33e be4e 97be
00000280: 3658 69be 7390 1ebd 844b 5dbe bb34 3abe
00000290: 7e18 373e 8797 343e 129e 05bd dc20 10be
000002a0: 1ad5 94bd 61b1 36be 4fd5 73bd 3f55 0b3e
000002b0: 8e9b 833e af51 ebbc 8840 5abe 68de f5be
000002c0: 189a d73c 56f2 0d3e 1d07 203d 710c 913e
000002d0: 009c 40bb 5822 123a fc43 3dbc ff32 ccbc
000002e0: d9d4 e8ba d8b8 d43a 07f4 cb39 6a13 8bbb
000002f0: 5003 213b b652 4abd 66f2 c5b9 4382 6cbb
00000300: 7879 a8ba 07f0 aebc f728 b73a dd4d 963b
00000310: ca37 553c bc22 babb b01a e5b5 e76e 84ba
00000320: 2e6c 313b 984e 0bbb 9de2 53bc 6abc 28bb
00000330: 3e25 7fbc da86 5dbb b2f6 8a3c 76d3 7cb9
00000340: 3ece 6aba a268 deba 220b 933d 8fe1 94bd
00000350: 9b1c 443e c5af febd c8e2 263e 002d f83e
00000360: b2e9 4fbd 98f5 0b3f a6ca 9dbd a360 66be
00000370: d26f 013e e64e 603e eff0 af3b 45d1 953c
00000380: f4b9 17bc bed9 c23d b364 84be 4401 a23e
00000390: 3c66 d33e 7426 2a3d 24a5 1ebe c265 963c
000003a0: b7ac 2dbf 4d7d a73d 01a6 c63d c445 41be
000003b0: 90a5 6ebe b30b a3be e51d dabd fb4c 023f
000003c0: 43d6 32be 59f2 02be e5b0 60bd 0ba4 4abe
000003d0: 99db 2f3d 710a e1bd f744 70be 7712 b6bd
000003e0: 63af 973e 6714 f5bd fc3b 3c3a 0d05 77be
000003f0: e2de 28be 4ca1 0bbd 0e2d dcbd a32f a3be
-0.6312581 -0.5228599 0.36996663 -0.023141786 0.3838888 0.3131247 0.61381966 -0.07196016
0.3083345 -0.08539939 -0.31630248 0.08889714 -0.18778227 0.551987 0.550569 0.10260629
-0.10203493 0.12625761 -0.01547202 0.0760653 -0.38217327 -0.115689024 0.036204517 -0.20751807
-0.075858705 -0.46418756 0.07244726 -0.23299126 0.46708328 -0.36604 -0.37755266 -0.1450092
-0.07460615 0.26437056 -0.30977616 0.09934023 -0.30839607 -0.042991463 0.14399022 -0.11992464
-0.06209292 0.20199144 0.14312036 0.08932054 0.11165582 -0.18314452 0.101789 -0.038190015
0.1746855 -0.17207219 -0.02794885 -0.47565424 -0.042033445 0.10247359 -0.045983255 -0.040609993
-0.059470847 0.5338375 -0.2029074 -0.20092833 0.048206784 0.26363987 -0.024761382 -0.18850411
0.35611486 -0.1953846 -0.462688 0.2029082 0.15099473 0.13307872 0.20273958 -0.049841277
-0.24244373 -0.19484876 -0.034620278 0.15833433 -0.34947518 -0.14601703 0.25196904 -0.13016798
-0.14953329 0.050239235 0.33901197 -0.2990548 0.22145341 -0.46829715 0.023544952 0.020873789
-0.48782516 0.31990486 0.014010293 -0.17740165 -0.23192997 0.024456475 0.062555335 0.09715903
-0.5845313 -0.24699211 -0.062728435 -0.1372747 -0.27914286 0.065722845 0.04238179 -0.29326114
0.26132473 0.42257607 -0.19358228 -0.15865742 -0.55735993 -0.21923916 0.30188623 -0.6613738
-0.06986713 0.102154955 0.1371849 0.19552118 -0.028356047 -0.012940801 -0.050680745 -0.16163404
-0.076878764 -0.05079082 -0.013838821 -0.05991772 -0.0833188 -0.02567319 -0.015375769 -0.031120466
-0.050492525 -0.032515865 0.00912548 -0.097243704 0.002361265 -0.0002066501 -0.09335682 -0.122998156
-0.009938606 -0.039922945 -0.07319716 -0.037302613 -0.04465891 -0.03575865 -0.12986554 -0.013159667
-0.092201464 -0.035809558 -0.07438418 -0.031925406 -0.033673845 -0.03370755 -0.28745708 0.31146383
0.45731783 -0.092570536 0.07212356 0.319461 -0.20618021 -0.00040510076 0.38195157 -0.29552263
-0.22787556 -0.038711976 -0.21610838 -0.18184178 0.17880437 0.17635928 -0.03262145 -0.14075035
-0.072672084 -0.17841102 -0.0595296 0.13606738 0.25704616 -0.028725473 -0.21313679 -0.48021245
0.026318595 0.13861975 0.039069284 0.28329805 -0.0029389858 0.00055745756 -0.011551853 -0.02492666
-0.0017763629 0.0016229404 0.00038900992 -0.0042442577 0.0024568625 -0.049395286 -0.0003775537 -0.0036088384
-0.0012853583 -0.021354688 0.0013974 0.0045869187 0.013013789 -0.00568041 -1.7069597e-06 -0.0010103852
0.0027072537 -0.0021256562 -0.012932447 -0.002574707 -0.015572844 -0.0033802302 0.016963337 -0.00024111368
-0.0008957124 -0.0016968439 0.07179858 -0.072695844 0.19151537 -0.12435869 0.16297448 0.48471832
-0.05075998 0.5467162 -0.07704668 -0.22497801 0.12640312 0.21905097 0.0053692977 0.018288264
-0.009260643 0.09514187 -0.25858077 0.3164159 0.41288936 0.041540578 -0.15492684 0.018359069
-0.67841667 0.08178196 0.096996315 -0.1887427 -0.23305345 -0.31844863 -0.10650233 0.5089871
-0.17464547 -0.12787761 -0.0548562 -0.1978914 0.042934034 -0.1098832 -0.23463808 -0.08890241
0.29625997 -0.11966782 0.0007180569 -0.2412302 -0.16491273 -0.03408937 -0.10750781 -0.3187228

neg_net.linears.1.bias f4 [30]
00000000: c3b4 09be 3ad4 9dbd 7793 293e f3e8 b53d
00000010: 9f50 79bd 3846 8d3d 710f d9bd fbda 3b3e
00000020: f2ec 05be f19e 09be c818 13be f7f7 303d
00000030: 3982 ddbd 19d0 05be 0d3e c53c 9a4f 263a
00000040: b649 e63d c80d 8dbe 6fbc a3bd a9a8 9dbc
00000050: 0544 babd 3b8d 0ebe 24ff e1bd b0e6 8b39
00000060: 58ae 9dbd be7f adbb 5fb9 95bc 671a dbbd
00000070: 62c8 c03d b34c be3d
-0.13447861 -0.07706495 0.1656016 0.08882322 -0.060867902 0.06898159 -0.10598648 0.18345253
-0.13078669 -0.13439538 -0.14364922 0.043205228 -0.108158536 -0.13067664 0.02407744 0.0006344259
0.11244528 -0.27549577 -0.07994925 -0.019245462 -0.09095005 -0.13921063 -0.11034992 0.00026684022
-0.07699269 -0.005294769 -0.018276868 -0.10698395 0.0941322 0.09291973

neg_net.linears.2.weight f4 [30, 30]
00000000: 207f 0fbe e544 d0bc 4777 963e 7cfb 7cbe
00000010: cbd5 e73c 11e1 d43c eaf1 18bb f27c 023f
00000020: d77d 58be edeb 7b3e 1025 063e 16b8 65bd
00000030: 08f1 00bf cd66 4f3e 5c18 9fbe b5d0 b9be
00000040: c381 94be 171b 05be f406 46bb 394d ad3e
00000050: cc21 093f 6a20 783e a8dc cf3e c5f9 d7be
00000060: 2138 f0be 1681 66bd 0cc6 963e 3aa3 90bc
00000070: e51f 983e 2ffb 1c3d 1648 a83d 9bba 82bd
00000080: 1549 3dbe 2425 f13e be92 f83c bc81 14be
00000090: 290f 413b 4c43 da3d 85c4 aebd 9211 d2bc
000000a0: bcce 2abe 27cc 113e ee57 ea3c 2ebd af3e
000000b0: c6d8 0a3e fd09 213d d373 523d aa03 7fbc
000000c0: 2cbc 413b ff0e bcbc aa56 88be e084 453d
000000d0: e4da 2cbe b3b1 223d 8779 663e ed25 16be
000000e0: ac19 b3be 27f1 6a3a b7b4 a2bd 5077 fcbd
000000f0: 6207 e5bb 5644 c53a 78be 713b 8dc9 fbba
00000100: a89e 8439 7718 17ba 4a34 fbb8 ff24 daba
00000110: e064 06b8 c19a 8eb9 6b63 04bb db74 ef3a
00000120: 1ca9 a3ba a0aa 203a 8757 473a e87e 8bb8
00000130: e3a0 3bbc 812b abb9 b296 a638 d0ae 00bc
00000140: b084 87ba cc58 fdbc b457 08bb a5f0 17bb
00000150: 939c cabb e7a7 c43a 8431 983a aa73 73ba
00000160: ea6b c6ba 65ed 86bb 84b6 8ab8 3e9e 34ba
00000170: 6b23 03bd 3a5e 09ba 8488 c3b9 c295 fcba
00000180: bc82 4fb9 19f8 283b 4ec6 87b8 36fe 2db9
00000190: c1a6 49ba f099 0eba ee08 0a39 1e3e 533b
000001a0: 96d6 cab8 0577 02ba 6349 25bd d189 0939
000001b0: 1b01 80b9 c7e5 3cbb 5994 c9b9 4832 42b8
000001c0: 35e7 ba3a a038 66b9 6a61 9ebc bc21 b839
000001d0: 260c 123b a09c 753a b670 43ba 812d 10bb
000001e0: baee 0dbf 0c34 c03e afd0 31bd 7f9c c6be
000001f0: 1ece 36bc 3dfa a5be 15eb 2e39 0efc 2b3e
00000200: 5db0 a0be f6ec 933e 9ded e3bd d634 cf3d
00000210: 13e0 03be 78f6 613e 011b 163e ba97 c1bb
00000220: 646a 833e 1663 6abe d3ac 81b9 1e93 693e
00000230: 418f bdbe 5467 9abd a180 873e b0e7 4039
00000240: ce8b 5cbe 9eb8 ad3e d744 b1be 0e50 c038
00000250: 38ab 983e e4c2 173e 8cda 093e c92d 97be
00000260: 04d1 5c3b 6c8e b4be 680b e6bb c277 27bd
00000270: 790d 21bc ead9 483d db17 9d3d 699e 6a3e
00000280: c68b 9c3e 506c 55bd c644 77be 7874 c83e
00000290: c42a bd3d 2e72 d63b 0489 a1bd 474b 5fbe
000002a0: 681e 9fbb edf3 8a3e 21b2 d63e 4821 99be
000002b0: 2e6a b93d 7bb9 603e 7504 90be affc 813d
000002c0: 4db8 be3e 48eb 003b 3cd9 6a3e f905 50be
000002d0: 06a6 09bd 4f12 873e 7df7 75be f358 58be
000002e0: 8171 d83c 65e2 7bbe c2e1 923a 76f5 5e3d
000002f0: 6900 a9bd 0047 f13d 728e 7abe 8fa3 5c3c
00000300: 7e3c 1bbd c645 ffbd d8e5 7cbd 6540 853e
00000310: 9620 923c 2ae7 07bb 832d ce39 98be 803e
00000320: 169d e43e 655f 2a3b f3c8 4e3e f73c 7bbe
00000330: 5c78 62bd e224 5fbe be77 e4be 1852 2eb9
00000340: 220a 14bd cb45 0fbd f8f9 b837 4731 78ba
00000350: 89e4 48bd 3472 66ba 5df3 5e39 8bbc 20bc
00000360: 8c9b c239 c7a3 a5ba 6346 603a a5c6 ca3a
00000370: 0005 32b8 06e2 04bd 6a6e 8138 e317 843a
00000380: 4c01 8cba 89ff 8a3b e2a7 a9bd ac8c 9a3a
00000390: 1259 e7b9 3b84 003b 6841 a4b7 f8b3 87b7
000003a0: c71d 4abc 37f4 653a d598 d7bd 8189 92b9
000003b0: 0afb 5d3b 5b6d 5c39 8ded 813a 44e4 80bd
000003c0: d5d0 f03e dbb5 0d3f 04dc 293e 218c 703c
000003d0: fc1a 473d 8f1d 19bd 1bcb 9bbd f01c c4be
000003e0: d6a0 663d 4f8f c93d 6769 ca3c ea39 d9be
000003f0: 3e88 9f3d 5fd9 11bf 4a93 483e dd71 aa3e
-0.14013338 -0.025423476 0.29387876 -0.24705309 0.028300187 0.025986226 -0.0023337551 0.509719
-0.21141754 0.24601717 0.13100076 -0.05608376 -0.50367785 0.20254059 -0.31073272 -0.36292043
-0.2900525 -0.12998615 -0.0030216547 0.3384798 0.53567195 0.24231115 0.40598035 -0.42182747
-0.46917823 -0.05627545 0.29447973 -0.017655957 0.29711834 0.038325485 0.08216874 -0.063832484
-0.1848491 0.4709865 0.03034341 -0.14502615 0.00294585 0.10657367 -0.08533577 -0.025643144
-0.16680425 0.14238034 0.028606381 0.3432402 0.13559255 0.039316166 0.05137999 -0.015564838
0.0029561622 -0.02295637 -0.2662862 0.048222423 -0.16880375 0.03972025 0.22507297 -0.14662905
-0.34980524 0.0008962326 -0.07944625 -0.123274446 -0.0069894055 0.0015050273 0.003688721 -0.0019209847
0.0002529521 -0.00057638384 -0.00011978352 -0.0016643106 -3.2042037e-05 -0.0002719965 -0.002020086 0.0018269079
-0.0012486312 0.0006128941 0.000760429 -6.6516746e-05 -0.011451933 -0.00032648075 7.943566e-05 -0.007854179
-0.0010339227 -0.03092613 -0.0020804228 -0.0023184207 -0.006183216 0.0015003652 0.0011611436 -0.00092869496
-0.0015138362 -0.004117655 -6.614349e-05 -0.0006890035 -0.0320162 -0.0005240176 -0.0003729501 -0.0019270706
-0.0001978976 0.0025782643 -6.474239e-05 -0.00016593267 -0.000769239 -0.00054398086 0.00013164032 0.003223307
-9.67208e-05 -0.0004976842 -0.04035319 0.00013116679 -0.00024414886 -0.0028823481 -0.00038448235 -4.6300032e-05
0.0014259579 -0.00021955604 -0.01933356 0.0003512035 0.0022285073 0.0009369347 -0.0007455455 -0.0021999779
-0.5544239 0.3753971 -0.043411907 -0.38791272 -0.011157541 -0.3241748 0.00016681508 0.1679537
-0.31384555 0.28891724 -0.111293055 0.101174995 -0.12878446 0.22066677 0.14658739 -0.00590798
0.25667107 -0.22889361 -0.0002473356 0.22810027 -0.37023357 -0.075392395 0.26465324 0.00018396857
-0.21537706 0.33929914 -0.34622833 9.170185e-05 0.2981813 0.14820439 0.13462275 -0.2952712
0.003369392 -0.3526491 -0.0070204027 -0.040885694 -0.009829872 0.049035944 0.07670566 0.22911991
0.3057539 -0.052105248 -0.24147329 0.3915136 0.092366725 0.006544373 -0.07887462 -0.2180606
-0.0048559196 0.27139226 0.41932777 -0.29908204 0.09053455 0.21945755 -0.281284 0.06347024
0.37249985 0.0019671489 0.22934431 -0.20314778 -0.033605598 0.26381156 -0.2402019 -0.21127681
0.02642131 -0.24598081 0.0011206197 0.05443331 -0.08252031 0.1178112 -0.24468401 0.01346673
-0.037899487 -0.1246448 -0.061742634 0.26025692 0.017837804 -0.002073715 0.0003932529 0.25145411
0.44651097 0.00259968 0.20193844 -0.24534975 -0.055290565 -0.21791413 -0.44622606 -0.00016624515
-0.036142476 -0.03497867 2.205091e-05 -0.0009467792 -0.049046073 -0.00087908213 0.0002126223 -0.009810577
0.00037118455 -0.001263731 0.00085554103 0.0015470578 -4.2443164e-05 -0.032442115 6.1717656e-05 0.001007792
-0.0010681539 0.004241888 -0.08283974 0.0011791191 -0.00044126116 0.0019610066 -1.958078e-05 -1.6177059e-05
-0.012336201 0.00087720476 -0.10527197 -0.00027949738 0.0033871555 0.00021021573 0.0009912715 -0.06293538
0.47034326 0.55355614 0.16587836 0.014681847 0.04860972 -0.037381705 -0.07607099 -0.38303328
0.05630573 0.09841787 0.024708463 -0.42426997 0.07789658 -0.56972307 0.19587436 0.33289996

neg_net.linears.2.bias f4 [30]
00000000: abed 323e 8efe 40be e69c 3cbc 582a 9abc
00000010: 274c 26bf ba49 313e 2ad9 eebd f22a 33bd
00000020: e822 cf3b 95a8 0f3d 8ff3 423e 17a6 483d
00000030: 702a babd 26d3 fa3c 070f 79bd 2d09 1f3e
00000040: 4839 cc3c d7ff 223d 6a31 70bd 5daf 05be
00000050: 50a5 f4bd 31d1 b83d 35eb 0d3e a6c2 d8bd
00000060: 02a6 6b3e b962 ac3e 14c9 4abe 0685 003e
00000070: 53a5 6cbd 40c7 27bd
0.17473476 -0.18847105 -0.011512017 -0.01881902 -0.6495995 0.1731328 -0.116625145 -0.043742128
0.0063213 0.03507288 0.19038223 0.04898652 -0.090901256 0.030618262 -0.060805347 0.15530844
0.024929658 0.03979477 -0.058640875 -0.13055177 -0.11945593 0.09024275 0.13859256 -0.10584001
0.23012546 0.3366907 -0.19803268 0.12550744 -0.057774853 -0.040961504
