data/MTMR_28002/sim/random/Dist_1/train/N50/D6_SinCosInput/2/result/model/ReLU_Dual_UDirection_BP.pt (torch_old, 22856 bytes, 20 tensors)

input_mean f4 [12]
0	0xbd540f83	-0.051772606
1	0x3e5d926c	0.21637887
2	0xbc27850a	-0.01022459
3	0x3e51a276	0.2047213
4	0x3e552a37	0.20816885
5	0x3c4ea0bc	0.012611564
6	0x3f6e7868	0.93152475
7	0x3f7092fb	0.93974274
8	0x3f731683	0.94956225
9	0x3e6e7a63	0.23288874
10	0x3ea30aa5	0.3184406
11	0x3f6bbbba	0.92083323

input_std f4 [12]
0	0x3eb4a360	0.35280895
1	0x3e828f79	0.25500086
2	0x3e9f0392	0.3105741
3	0x3f24fc8f	0.64447874
4	0x3f35c278	0.7099986
5	0x3ec42673	0.38310584
6	0x3d925680	0.07145405
7	0x3d915b8d	0.0709754
8	0x3d2c8435	0.04211827
9	0x3f32ecdb	0.6989266
10	0x3f17b3ea	0.592589
11	0x3d92cbfd	0.07167814

output_mean f4 [6]
0	0x3974a2f6	0.00023330361
1	0x3ecfbc63	0.40573415
2	0x3e678756	0.2261022
3	0xbc776d20	-0.015101701
4	0x3a62372b	0.00086294365
5	0xb9f81255	-0.00047315905

output_std f4 [6]
0	0x3be17c82	0.0068812976
1	0x3ea5b804	0.32366955
2	0x3e8369e9	0.2566674
3	0x3d7b9957	0.061425533
4	0x3d244bee	0.040111475
5	0x3c21191a	0.009832645

pos_net.linears.0.weight f4 [30, 12]
0	0xbe36214f	-0.17786144
1	0x3d82b6a7	0.063824944
2	0xbea9ddfe	-0.3317718
3	0xbebd00e2	-0.36914736
4	0xbe8a3aa4	-0.26997864
5	0x3f0c200f	0.5473642
6	0xbe6d8f5f	-0.23199223
7	0xbeaf76de	-0.34270376
8	0xbd6ef996	-0.058343492
9	0x3d26ff3e	0.04077076
10	0xbc8b048b	-0.01696994
11	0xbcac0685	-0.020999203
12	0xbe763dbf	-0.24046992
13	0x3ba31afa	0.004977581
14	0xbf0e5725	-0.5560172
15	0x3ed97d83	0.4247857
16	0x3e4069b6	0.18790326
17	0x3e5f2a07	0.21793376
18	0xbde78fac	-0.113067
19	0x3e30bc58	0.17259347
20	0xbd1ce268	-0.038301855
21	0x3e8c49d7	0.27400085
22	0x3da8fbda	0.08251162
23	0x3d2f89d5	0.042856056
24	0x3d218363	0.03943194
25	0x3d0a2bd4	0.033733204
26	0x3ed598fe	0.41718286
27	0x3f029dd5	0.5102208
28	0x3e8985d1	0.26859906
29	0x3e54c338	0.20777595
30	0x3e3c92d9	0.18415393
31	0x3dc01797	0.093794994
32	0xbe3591eb	-0.17731445
33	0xbedec6a4	-0.43510926
34	0xbefc09f9	-0.4922636
35	0x3de213c1	0.11038924
36	0xbeae745c	-0.3407315
37	0x3e2e2c9c	0.17009205
38	0x3f0212a6	0.50809705
39	0xbe18f814	-0.14938384
40	0xbe29ef36	-0.16595158
41	0x3e79ea79	0.2440585
42	0xbe3101dd	-0.17285867
43	0xbd389d06	-0.045071624
44	0xbe75f73a	-0.2402009
45	0x3ebbcee6	0.36681288
46	0x3eabea5f	0.33577248
47	0xbb4b46bc	-0.0031017503
48	0xbcc813ef	-0.024423568
49	0x3d80b0ed	0.06283746
50	0x3f2daed4	0.6784489
51	0x3de04b5d	0.109518744
52	0xbed693e5	-0.4190971
53	0xbe8ddf0a	-0.27709228
54	0xbd9be35c	-0.07611725
55	0x3ee4c10f	0.44678542
56	0xbd9e327c	-0.07724473
57	0x3f19fdd4	0.60152936
58	0x3e690190	0.22754502
59	0xbd11d5ff	-0.035604473
60	0xbed38763	-0.4131423
61	0x3f015f71	0.5053626
62	0xbc2103d2	-0.009827571
63	0x3f1c84ee	0.61140335
64	0x3def8bae	0.11696564
65	0x3e5892e6	0.21149787
66	0x3d5eb34f	0.05437022
67	0xbe9df683	-0.30852136
68	0x3e5f4e4a	0.21807209
69	0xbf46f8e2	-0.77723515
70	0xbe6e0a98	-0.23246229
71	0xbe3cba30	-0.184304
72	0xbde3107a	-0.11087127
73	0xbe3ea989	-0.1861936
74	0xbf04b30f	-0.5183572
75	0x3f08d4d1	0.5344973
76	0x3c005e24	0.007834945
77	0x3e12bed8	0.14330614
78	0x3e0cac38	0.13737571
79	0x3e468739	0.19387521
80	0x3d5c8533	0.053837966
81	0xbf620536	-0.882892
82	0x3ec75785	0.3893396
83	0x3aaad1f8	0.0013032546
84	0xbebce873	-0.36896095
85	0xbd8095fd	-0.06278608
86	0x3dbbbade	0.091665015
87	0x3e973465	0.2953216
88	0x3e0cf35d	0.1376471
89	0x3f206e3d	0.6266821
90	0xbe94a353	-0.29030856
91	0xbe840177	-0.25782368
92	0xbd081318	-0.033221334
93	0xbe8365c8	-0.2566359
94	0xbf38b9cd	-0.7215851
95	0x3d1ba75a	0.038001396
96	0xbeb1fb1f	-0.34761903
97	0x3e30727c	0.17231172
98	0xbe85b1ec	-0.26112306
99	0xbe7efbbd	-0.24900718
100	0xbeb7f270	-0.35927153
101	0x3db22af7	0.08699601
102	0xbf28f315	-0.65995914
103	0xbdc6b797	-0.09702986
104	0x3e707bf4	0.23484784
105	0xbea4b6da	-0.32170755
106	0xbde24cfc	-0.1104984
107	0x3eb122ac	0.34596765
108	0xbd9c3ba0	-0.0762856
109	0xbed6794a	-0.4188941
110	0xbf665ccc	-0.89985347
111	0x3ed1dbbe	0.40987962
112	0xbe7c67cf	-0.24648975
113	0xbd89d172	-0.06729402
114	0x3d5b8822	0.053596623
115	0x3ce793ee	0.02826878
116	0xbeb28030	-0.34863424
117	0xbf018652	-0.5059558
118	0x3e66c8d7	0.22537552
119	0x3d35bb90	0.044368327
120	0x3d7dcc5a	0.061962463
121	0xbde11aa8	-0.109914124
122	0x3e993d69	0.29929665
123	0x3e127beb	0.14305083
124	0x3e35f5bd	0.17769523
125	0x3f35de89	0.71042687
126	0x3e90e414	0.2829901
127	0xbe25a311	-0.16175486
128	0xbd259f11	-0.0404349
129	0xbf38bfa8	-0.72167444
130	0xbf376df3	-0.71652144
131	0x3e2da81c	0.1695866
132	0xbd3d34f1	-0.046193067
133	0xbce88846	-0.028385293
134	0xbf08e5dc	-0.5347574
135	0x3e30d705	0.17269523
136	0x3d354a38	0.044260234
137	0xbf07ff9d	-0.5312441
138	0x3de5ab9f	0.11214375
139	0x3e8f0ed5	0.27941003
140	0x3e8ce012	0.27514702
141	0x3de4a02e	0.11163364
142	0xbe47656c	-0.19472283
143	0xbd4383e0	-0.047733188
144	0x3f06e2e3	0.5268995
145	0x3d22e825	0.03977217
146	0x3df41b23	0.119192384
147	0xbf08206a	-0.5317446
148	0x3d3231cf	0.043504532
149	0xbe1f5bc2	-0.15562347
150	0x3f0152e4	0.50517106
151	0xbcae7274	-0.02129481
152	0xbe17b31b	-0.14814417
153	0xbdb51c11	-0.08843244
154	0x3dc0d0e9	0.094148465
155	0xbc00cacc	-0.007860851
156	0xbef1ba2c	-0.4721235
157	0xbcd886e1	-0.026431503
158	0xbecb3484	-0.39688504
159	0x3e8fd66f	0.28093287
160	0x3f261712	0.6487895
161	0x3d2f1a1e	0.042749517
162	0xbe876fb0	-0.26452398
163	0x3cb7f3c3	0.022455102
164	0xbc82983a	-0.015941728
165	0xbf4e9871	-0.8070136
166	0xbee869ec	-0.45393312
167	0xbe1333f9	-0.14375295
168	0x3ee35728	0.44402432
169	0xbe8a29f7	-0.26985142
170	0xbef21bdc	-0.4728688
171	0xbe98fbaf	-0.2987952
172	0xbf0a2299	-0.5395904
173	0xbef5d845	-0.48016563
174	0x3e855d18	0.26047587
175	0x3f22da0a	0.6361395
176	0xbe98711f	-0.29773805
177	0x3e29afec	0.16571015
178	0x3ef885a6	0.48539466
179	0xbe9dd442	-0.30826002
180	0xbf120202	-0.57034314
181	0xbe39ca8d	-0.18143673
182	0xbefbc8e1	-0.49176696
183	0x3eebed5d	0.4607953
184	0x3df3e335	0.11908571
185	0x3ed442fc	0.41457355
186	0x3e589476	0.21150383
187	0x3d8ac4b4	0.067757994
188	0x3e38f489	0.18062033
189	0xbf31c2a8	-0.69437647
190	0x3eddf0e0	0.43347836
191	0x3d169642	0.03676439
192	0x3d743389	0.05961946
193	0x3d167b75	0.03673883
194	0xbe95f4d4	-0.29288352
195	0xbe7f5f94	-0.24938804
196	0xbf3c3171	-0.7351294
197	0x3f484e64	0.78244615
198	0xbea4af64	-0.32165062
199	0xbe17d3b7	-0.14826857
200	0x3ce115fe	0.027476307
201	0xbec1fec6	-0.3788969
202	0xbe89ecdc	-0.26938522
203	0x3c446cde	0.011988847
204	0xbe95c53f	-0.2925205
205	0xbe9b14ba	-0.3028925
206	0xbeefbbc5	-0.46822944
207	0x3f02464c	0.50888515
208	0x3c9f9755	0.01948134
209	0xbe2f34bb	-0.17109959
210	0x3d76de4e	0.0602706
211	0xbd88b2b7	-0.06674712
212	0x3c5faeb1	0.0136524895
213	0xbeff7eda	-0.49901468
214	0x3d9dcf92	0.077056065
215	0xbe6b76b7	-0.22994505
216	0x3d002fe2	0.031295665
217	0xbd3742ca	-0.04474143
218	0xbdf309a9	-0.11867077
219	0xbe5101d3	-0.20410852
220	0xbe9a9313	-0.30190334
221	0xbdb268be	-0.08711384
222	0xbcae1660	-0.021250904
223	0x3e62c87a	0.22146788
224	0xbcdfa773	-0.027301526
225	0x3e1af137	0.15131079
226	0x3e5f00ed	0.21777697
227	0x3d97c90f	0.07411396
228	0xbe3d758b	-0.1850187
229	0x3d889573	0.0666913
230	0xbe73193e	-0.23740098
231	0xbe2461eb	-0.16052978
232	0x3e9ef747	0.31048033
233	0xbd918b4a	-0.071066454
234	0xbcf568ca	-0.029957194
235	0xbe82af85	-0.25524536
236	0x3ed347dc	0.41265762
237	0x3dfaca26	0.12245588
238	0x3e81fb83	0.253872
239	0xbe9f6947	-0.31135008
240	0xbe3869c4	-0.18009096
241	0xbdeedbde	-0.1166303
242	0xbe4d9726	-0.2007719
243	0x3e5aa314	0.21351272
244	0xbeb14828	-0.34625363
245	0xbef394f7	-0.4757459
246	0xbe6802cd	-0.22657318
247	0xbcf3a5cb	-0.029742142
248	0x3e843b0e	0.25826305
249	0xbe835c6b	-0.25656447
250	0x3cef2c1b	0.029195836
251	0x3d18c753	0.037299465
252	0xbcb687e2	-0.02228159
253	0x3e36e1c8	0.17859566
254	0xbed573cd	-0.4168991
255	0x3e45f54c	0.19331855

pos_net.linears.0.bias f4 [30]
0	0xbe89dc8d	-0.2692608
1	0xbdd113f8	-0.10208887
2	0xbddde356	-0.108343765
3	0xbdb047ad	-0.08607421
4	0x3eaa39f3	0.33247337
5	0x3e3945f3	0.1809309
6	0xbeb07ce9	-0.344703
7	0xbe9cf179	-0.3065298
8	0xbe708ff3	-0.23492412
9	0xbee1ecfc	-0.44126117
10	0xbe9fdb63	-0.31222066
11	0xbe16f51e	-0.14741942
12	0xbf3a5890	-0.72791386
13	0xbdbb9589	-0.09159381
14	0xbe81cd3e	-0.253519
15	0x3cf69cc9	0.030104058
16	0xbebd8784	-0.37017453
17	0xbec12d02	-0.3772965
18	0x3db7529d	0.08951304
19	0xbedad297	-0.42738792
20	0xbf166767	-0.5875153
21	0xbeb41d03	-0.35178384
22	0xbe864e47	-0.26231596
23	0xbe874174	-0.26417124
24	0xbd0836d5	-0.033255417
25	0xbb811bcc	-0.003940081
26	0xbe244b5c	-0.16044372
27	0xbed3a051	-0.4133325
28	0x3d402166	0.04690685
29	0xbf2cce43	-0.6750223

pos_net.linears.1.weight f4 [30, 30]
0	0xbedd656e	-0.43241447
1	0xbdc1a234	-0.09454766
2	0x3dc1174b	0.09428271
3	0xbca45718	-0.02006106
4	0xbda058bc	-0.07829425
5	0x3f03dc62	0.5150815
6	0xbeaf27cd	-0.34210053
7	0x3e6f18ad	0.23349257
8	0x3e331082	0.17486766
9	0xbebfcae1	-0.37459472
10	0x3e23af47	0.15984832
11	0xbea95ed8	-0.33080173
12	0xbc732682	-0.014840724
13	0x3e579bb2	0.21055487
14	0xbe9d3320	-0.30703068
15	0x3d540af3	0.051768254
16	0x3e1ab3c8	0.15107644
17	0x3df88b1e	0.121359095
18	0xbede3b66	-0.43404692
19	0xbdd297aa	-0.10282834
20	0x3dd32f2d	0.103117324
21	0x3d1757cc	0.036948964
22	0xbe944f17	-0.2896659
23	0xbef96fb4	-0.48718035
24	0x3e16efba	0.14739886
25	0xbeed1bb7	-0.46310207
26	0x3e2f8661	0.17141105
27	0xbe2bc6d9	-0.16775073
28	0xbd0361cc	-0.03207569
29	0x3e7d91d0	0.24762654
30	0x3e7aca3e	0.24491212
31	0xbe774446	-0.24147138
32	0xbe93d195	-0.28870836
33	0x3e296d83	0.16545682
34	0xbe7eec23	-0.24894767
35	0xbea4bebc	-0.3217677
36	0xbe2f47ba	-0.17117205
37	0x3c4f0c66	0.012637233
38	0x3dd0889d	0.10182307
39	0xbe52168c	-0.20516413
40	0xbe61fb17	-0.2206844
41	0xbd2136f1	-0.039359037
42	0x3e2dd8e0	0.16977262
43	0xbe90b618	-0.28263927
44	0xbe829bf5	-0.2550961
45	0xbeee3d5a	-0.46531183
46	0xbd4a2145	-0.049348135
47	0xbdf5adee	-0.11996065
48	0x3dddc975	0.108294405
49	0x3c4fc48d	0.012681139
50	0xbd819d69	-0.06328852
51	0xbe262f36	-0.16228947
52	0x3e8c6081	0.27417377
53	0x3c82b584	0.015955694
54	0xbe039e57	-0.1285337
55	0x3e1e39db	0.15451758
56	0xbce4bd32	-0.027922247
57	0xbdaad9a2	-0.083422914
58	0x3e11d51a	0.14241448
59	0xbe42f5a7	-0.19039021
60	0xbe77d39f	-0.24201821
61	0xbe459e0a	-0.19298568
62	0xbeb4b915	-0.35297456
63	0xbebeee8f	-0.3729138
64	0xbf0c8126	-0.54884565
65	0xbe8fd764	-0.28094018
66	0xbe9a6cf5	-0.30161253
67	0x3cab8292	0.020936284
68	0xbd8aac54	-0.0677115
69	0xbe3352ea	-0.17512098
70	0xbe895dab	-0.26829275
71	0xbec0e8f6	-0.37677735
72	0xbdb9e587	-0.09076982
73	0xbe6d33b3	-0.23164253
74	0xbe58042a	-0.21095338
75	0xbe1db1c8	-0.1539985
76	0xbebf6242	-0.37379652
77	0xbeb936eb	-0.36174712
78	0xbeac544d	-0.33658066
79	0xbec7d5cf	-0.3903031
80	0xbedce59a	-0.43143922
81	0xbcf15406	-0.02945901
82	0xbe9622b8	-0.29323363
83	0xbecbb4c8	-0.39786363
84	0xbe3822a7	-0.17981969
85	0xbea77a66	-0.3271057
86	0xbaa97bc8	-0.0012930566
87	0xbdb896df	-0.090131514
88	0xbee13468	-0.43985295
89	0xbc66c2d7	-0.014084539
90	0xbcfade68	-0.03062363
91	0xbcaa0ffc	-0.020759575
92	0xbd5229a3	-0.05130924
93	0x3d33aad2	0.04386408
94	0xbdc3f758	-0.095686615
95	0x3d7aadf7	0.061201062
96	0xbd5d8670	-0.054083288
97	0x3c9abfc4	0.01889027
98	0xbd67bdba	-0.05657742
99	0xbd24fb4c	-0.040278718
100	0x3c4be230	0.012444064
101	0xbce8b491	-0.028406413
102	0xbc72ad23	-0.014811787
103	0x3b21ef90	0.002470944
104	0xbe139f08	-0.14416134
105	0x3c522d0e	0.012828125
106	0xbd03811d	-0.032105554
107	0xbb9bcea4	-0.004754858
108	0xbd38433d	-0.044986
109	0xbd734717	-0.05939397
110	0xbc1ff992	-0.009764092
111	0xbd1708c4	-0.036873594
112	0xbe08e6c6	-0.13369283
113	0x3bf6dd60	0.007533714
114	0xbe0cc97e	-0.13748738
115	0xbd2b7044	-0.04185511
116	0xbce01f4a	-0.02735867
117	0x3ca86079	0.020553814
118	0x3d8195cf	0.06327402
119	0xbd087443	-0.033314
120	0xbe0f433c	-0.13990492
121	0xbc6e2718	-0.014535688
122	0xbd670b35	-0.056407172
123	0xbee6187f	-0.44940564
124	0xbebc241b	-0.36746296
125	0xbe64ea3b	-0.22354977
126	0xbd9955b1	-0.074870475
127	0xbe577ade	-0.21042964
128	0xbdcb11d4	-0.0991551
129	0xbeaa61b6	-0.33277673
130	0xbe41a05e	-0.18908831
131	0xbd970e22	-0.073757425
132	0xbe0a5b23	-0.13511328
133	0xbea833da	-0.3285206
134	0xbe6312aa	-0.22175089
135	0xbe2d6228	-0.16931975
136	0xbdf290b0	-0.11844003
137	0xbe429e68	-0.1900574
138	0xbecebd09	-0.40378597
139	0xbe411d95	-0.18858941
140	0xbd851405	-0.06497959
141	0xbdf2ba9b	-0.118519984
142	0xbe8940c3	-0.26807222
143	0xbe78fcbc	-0.2431516
144	0x3cee546a	0.029092986
145	0xbec11d65	-0.3771774
146	0xbd6b1f64	-0.057402983
147	0xbe9b2d47	-0.3030798
148	0xbdba39c7	-0.090930514
149	0xbe5b3ec1	-0.21410657
150	0x3e211ff2	0.15734842
151	0xbea55d0d	-0.32297555
152	0xbebb5488	-0.3658793
153	0x3da421b0	0.08014238
154	0x3e01592c	0.12631673
155	0xbef4638a	-0.47732192
156	0xbe74288e	-0.23843595
157	0xbd9f02e3	-0.077642225
158	0x3e9dfc82	0.3085671
159	0x3d20dd28	0.03927341
160	0x3da9717b	0.08273598
161	0xbce46226	-0.027878832
162	0x3e976c42	0.29574782
163	0xbe50a86a	-0.20376745
164	0x3ea2f94d	0.31830826
165	0xbe28b474	-0.16475087
166	0x3e85d4fd	0.2613906
167	0xbe40daaa	-0.18833414
168	0x3e1ec2a0	0.15503931
169	0x3dd7dd3e	0.105402455
170	0x3c9a4ca3	0.018835371
171	0x3e8fe2a7	0.2810261
172	0x3e61f354	0.22065479
173	0xbeb98620	-0.36235142
174	0xbf1e581c	-0.61853194
175	0x3e1c8ec4	0.15288836
176	0xbf3f1c59	-0.7465263
177	0x3e25e796	0.16201624
178	0xbd1763fa	-0.03696058
179	0xbdbb991c	-0.09160063
180	0xbebda336	-0.37038583
181	0xbe4039f3	-0.18772106
182	0xbe8a71fd	-0.2704009
183	0xbe84db03	-0.25948343
184	0xbe37979f	-0.17928933
185	0xbd2d6c80	-0.0423398
186	0xbe8f41d2	-0.27979904
187	0xbcebc60f	-0.028780965
188	0xbe3d310d	-0.18475743
189	0xbe8b2a5d	-0.27180758
190	0xbda6493a	-0.081194356
191	0xbea54b3b	-0.3228396
192	0xbddc5492	-0.10758318
193	0xbd8c33ef	-0.06845843
194	0xbe96f705	-0.29485336
195	0xbdad598c	-0.08464345
196	0xbe3acca4	-0.18242127
197	0xbe40e2aa	-0.18836465
198	0xbeb62bef	-0.35580394
199	0xbeb6e837	-0.3572404
200	0xbe0d1238	-0.13776481
201	0xbe7b4eb6	-0.24541745
202	0xbf0989a3	-0.5372564
203	0xbecf99df	-0.40547082
204	0xbe9cf06c	-0.30652177
205	0xbebc8fe1	-0.3682852
206	0xbe8a978f	-0.27068755
207	0xbceadde8	-0.028670266
208	0xbedcd352	-0.43129975
209	0xbcd129c2	-0.025532607
210	0xbf52536d	-0.8215855
211	0x3e33ed6a	0.17571035
212	0xbedeb305	-0.43495956
213	0xbe16667e	-0.14687535
214	0x3e75cb96	0.24003443
215	0xbf0068cc	-0.5015991
216	0xbcd31495	-0.02576665
217	0xbee4e572	-0.44706303
218	0xbecb7654	-0.39738715
219	0x3eb7c133	0.35889587
220	0xbf32664a	-0.6968733
221	0x3e881463	0.26578054
222	0x3d27cce0	0.04096687
223	0x3dd2d24d	0.10294018
224	0x3c719eac	0.014747303
225	0xbea64463	-0.3247405
226	0xbed56c68	-0.4168427
227	0x3db33cfd	0.08751867
228	0x3eb50fb6	0.3536355
229	0xbe9738f5	-0.29535642
230	0xbe74aaba	-0.23893252
231	0x3c90af41	0.017661693
232	0xbe500611	-0.20314814
233	0x3e8d00ee	0.27539772
234	0x3f1f878a	0.6231619
235	0x3e8e7811	0.27825978
236	0xbe68e058	-0.2274183
237	0xbee252e5	-0.44203869
238	0xbd49e149	-0.049287114
239	0xbe5feec4	-0.21868426
240	0xbe90a1fe	-0.2824859
241	0x3e349d39	0.176381
242	0xbe70f098	-0.23529279
243	0xbee320bb	-0.4436091
244	0xbeba8fb4	-0.36437762
245	0xbebe1ad2	-0.37129837
246	0x3da306af	0.07960259
247	0xbe7ce8e6	-0.24698219
248	0xbdc2ab23	-0.09505298
249	0xbe449b58	-0.19199884
250	0xbe0298d4	-0.12753612
251	0x3dfb93d8	0.12284058
252	0xbddcfd14	-0.10790458
253	0xbcc3616a	-0.023850162
254	0x3ea69276	0.32533616
255	0xbdcab2be	-0.098973736

pos_net.linears.1.bias f4 [30]
0	0xbe2320a9	-0.15930428
1	0x3cae7ae7	0.021298839
2	0xbf0a389a	-0.5399262
3	0xbe2a6fa3	-0.16644149
4	0xbdc14dfb	-0.09438702
5	0x3dc9831d	0.09839461
6	0xbeaf6e86	-0.3426401
7	0xbd9fcc8a	-0.078026846
8	0xbe4353c2	-0.1907492
9	0x3e05d75e	0.13070437
10	0xbee6aa4d	-0.45051804
11	0xbd1b2d46	-0.037884973
12	0xbeada5e0	-0.33915615
13	0xbeb97188	-0.3621943
14	0xbd8230ca	-0.06356962
15	0xbecbc945	-0.39801994
16	0xbe4c36dc	-0.19942802
17	0x3eb9e083	0.363041
18	0xbe698b6b	-0.2280709
19	0x3e5f35f3	0.21797924
20	0xbe882fa5	-0.2659885
21	0x3e0d589c	0.13803333
22	0xbda4596b	-0.080248676
23	0xbe91800b	-0.28418002
24	0xbe98fe56	-0.29881543
25	0xbdd13e46	-0.10216956
26	0xbe538620	-0.20656633
27	0x3e365608	0.17806256
28	0xbe2b90b9	-0.16754426
29	0x3d37fce6	0.044918917

pos_net.linears.2.weight f4 [30, 30]
0	0xbe3a74d9	-0.18208636
1	0xbe8ffd95	-0.28123155
2	0xbe525ce8	-0.20543253
3	0x3ac7a4f4	0.0015231655
4	0xbec0afab	-0.37634024
5	0xbe6bfc54	-0.23045474
6	0xbe47ba50	-0.19504666
7	0xbe2a6475	-0.16639884
8	0xbeb15ac7	-0.3463957
9	0xbe3c4d6d	-0.1838891
10	0xbe91968e	-0.28435177
11	0xbe714597	-0.23561703
12	0xbde68c8b	-0.11257275
13	0xbea6b7fb	-0.3256224
14	0x3c28d378	0.010304324
15	0xbdc7bd9d	-0.09752963
16	0xbe521026	-0.20513973
17	0xbe246364	-0.1605354
18	0xbd486dc2	-0.0489328
19	0xbe853798	-0.26018977
20	0xbe908d20	-0.2823267
21	0xbec6f493	-0.3885847
22	0xbe2a570e	-0.16634771
23	0xbe737efe	-0.23778912
24	0xbd073a71	-0.03301472
25	0xbe8ee7da	-0.27911264
26	0x3b8133a5	0.003942924
27	0xbebc41d9	-0.36768988
28	0xbb46695d	-0.0030275204
29	0xbe8711a6	-0.26380652
30	0xbe03c233	-0.1286705
31	0xbcbebad8	-0.023282453
32	0xbe1c8df9	-0.15288533
33	0xbd08cf5c	-0.03340088
34	0xbe02a8c7	-0.12759696
35	0x3cac2989	0.0210159
36	0x3d212cb2	0.039349265
37	0xbd008b54	-0.031382874
38	0xba77eefc	-0.00094579137
39	0x3a305a68	0.0006727339
40	0xbc1b69b3	-0.00948565
41	0x3d41c4f9	0.04730699
42	0x3cca47ae	0.024692383
43	0x3c74c15a	0.014938677
44	0xbdb0fec3	-0.08642342
45	0x3c791dea	0.015204886
46	0xbde302eb	-0.11084541
47	0xbdf4b45f	-0.119484656
48	0x3ca103c5	0.019655118
49	0xbe2c0427	-0.16798459
50	0x3a8e54b8	0.0010858988
51	0xbcc100f8	-0.023560032
52	0xbde7aecc	-0.11312637
53	0xbbd73ac4	-0.0065682847
54	0x3c434476	0.011918178
55	0xbd52daa5	-0.051478047
56	0xbc826eb4	-0.015921928
57	0x3d8e5f22	0.06951739
58	0xbd0b0874	-0.03394361
59	0xbc9e0226	-0.019288134
60	0xbc5b919a	-0.013401413
61	0xb9aa6090	-0.0003249687
62	0xbda5f7a3	-0.081038736
63	0xbccf5d34	-0.025312997
64	0xbdac2200	-0.084049225
65	0x3d8c9f59	0.06866331
66	0xbdc0a57e	-0.09406565
67	0xbe26b05c	-0.16278213
68	0xbcbeeefb	-0.023307314
69	0xbad9aaa0	-0.0016606636
70	0xbd18e222	-0.037325032
71	0xbc07a5f4	-0.008279312
72	0xbe09f7ef	-0.13473485
73	0xbc51f217	-0.012814066
74	0x3d2f0801	0.042732242
75	0x3d1d531e	0.038409345
76	0xbcb5353a	-0.022120107
77	0xbc3aa93e	-0.01139289
78	0x3c7abed0	0.015304282
79	0x3c9c5a7e	0.019086119
80	0x3c102b5f	0.008799403
81	0xbe14fd3e	-0.14549729
82	0x3c32cdb0	0.0109132975
83	0x3c5326f1	0.012887702
84	0xbcb972bb	-0.022637716
85	0xbd41b0c7	-0.04728773
86	0xbc4d93dd	-0.01254746
87	0xbdbe3ac5	-0.09288553
88	0xbb1fa548	-0.002435999
89	0x3d4d62e0	0.050143123
90	0x3ab4e170	0.0013800096
91	0x3dbdf151	0.09274543
92	0x3d2f4e15	0.042799074
93	0x3e25db55	0.1619695
94	0x3e4493f7	0.19197069
95	0x3e8772e6	0.26454848
96	0xbd5a186b	-0.053245943
97	0xbefe897f	-0.49714276
98	0xbe80a3c8	-0.25124955
99	0x3ec086f8	0.37602973
100	0xbdb76494	-0.08954731
101	0xbe3f25f9	-0.18666829
102	0xbdc4e9e1	-0.09614921
103	0xbeea7d82	-0.4579888
104	0x3e3732e6	0.1789051
105	0xbf0df3d7	-0.55450195
106	0xbf164893	-0.5870449
107	0x3e814114	0.25244963
108	0xbe2c8996	-0.1684936
109	0xbe2d019c	-0.16895145
110	0x3e3acb61	0.18241645
111	0x3e19ea65	0.1503082
112	0xbea2bdef	-0.31785533
113	0xbddc4b36	-0.10756533
114	0xbe0c409c	-0.13696522
115	0x3e2543fb	0.16139214
116	0xbe0eab33	-0.13932495
117	0xbe6e84f3	-0.23292904
118	0xbd34d162	-0.044144996
119	0xbedf7b9f	-0.43649003
120	0xbd149f04	-0.03628446
121	0x3c569656	0.013097366
122	0xbe0e8c09	-0.13920607
123	0x3c02a6d6	0.007974347
124	0x3cd2f316	0.025750678
125	0x3ea76a3a	0.32698232
126	0xbd7cfe02	-0.06176568
127	0x3ebf4141	0.37354472
128	0x3e55b5d3	0.20870142
129	0x3df56ace	0.11983262
130	0xbc082ecd	-0.008311939
131	0xbe2a1f60	-0.16613531
132	0x3dbdea2b	0.092731796
133	0xbed24267	-0.41066286
134	0xbe6370af	-0.22210954
135	0x3db40994	0.087908894
136	0x3da4b81d	0.08042929
137	0xbce71268	-0.028207019
138	0xbe550851	-0.20803954
139	0xbd500639	-0.050787184
140	0x3e8ee9b0	0.27912664
141	0x3e3f008b	0.18652551
142	0xbe80f385	-0.2518579
143	0xbe0c12df	-0.13679074
144	0xbd17e71a	-0.03708563
145	0x3e2bc1ba	0.1677312
146	0x3d42baf6	0.04754158
147	0x3e78fed8	0.24315965
148	0xbd289c43	-0.041164648
149	0xbe831a54	-0.25606024
150	0xbe9dbd22	-0.3080836
151	0xbe72160e	-0.23641226
152	0xbd9c1798	-0.07621688
153	0xbb736389	-0.0037138185
154	0xbeba34e6	-0.36368483
155	0xbea467a0	-0.3211031
156	0xbe89eb9a	-0.26937562
157	0xbe88654a	-0.26639777
158	0xbe26d242	-0.16291144
159	0xbe058d78	-0.13042247
160	0xbec96eac	-0.39342248
161	0xbe4829d5	-0.19547208
162	0xbe2d6d5c	-0.16936249
163	0xbef09c7f	-0.46994397
164	0x3e818b04	0.25301373
165	0xbe28f9bd	-0.16501518
166	0x3e6a2cba	0.22868624
167	0x3e8ec0cb	0.27881464
168	0xbd163bdc	-0.03667818
169	0xbee5f68a	-0.44914657
170	0xbe582796	-0.21108851
171	0xbf0bac63	-0.54559916
172	0xbdb8e94b	-0.09028872
173	0xbe38f268	-0.1806122
174	0xbe6318a3	-0.22177367
175	0xbe7bc4f7	-0.24586855
176	0xbc5251eb	-0.012836914
177	0xbe81fccf	-0.2538819
178	0x3da17f82	0.07885648
179	0xbe9fbb59	-0.31197622
180	0xbd766f5b	-0.06016479
181	0xbef35013	-0.4752203
182	0xbd1ae2a1	-0.037813786
183	0x3b91bf3c	0.0044478457
184	0xbdd63676	-0.10459606
185	0xbef5d818	-0.4801643
186	0xbcb5cd9b	-0.022192767
187	0xbea5ff99	-0.32421568
188	0xbeb7b3da	-0.35879403
189	0xbcfb46a9	-0.030673342
190	0xbec4f6ca	-0.38469535
191	0xbe63b605	-0.22237404
192	0xbdafb376	-0.08579151
193	0x3c28830e	0.010285152
194	0x3e107cda	0.14110127
195	0xbe6b391e	-0.22971007
196	0x3e661b6c	0.22471398
197	0xbf2f44d9	-0.6846443
198	0x3e0ccc69	0.13749851
199	0x3ef04280	0.46925735
200	0xbe700380	-0.23438835
201	0xbe8db26e	-0.27675194
202	0xbd5af6c0	-0.053457975
203	0xbdfa2307	-0.12213712
204	0xbe38d3d1	-0.18049552
205	0xbeefd425	-0.4684154
206	0xbdf4685e	-0.11933969
207	0xbeaa3ad6	-0.33248013
208	0x3b0cc180	0.002147764
209	0xbefe6226	-0.49684256
210	0x3d1aeb48	0.037822038
211	0xbd0a4f2a	-0.033766903
212	0x3ca65787	0.020305408
213	0x3bcb0945	0.0061961734
214	0xbd182b6c	-0.037150785
215	0xbcddaac6	-0.02705897
216	0xbc170b07	-0.009218938
217	0x3df5d4fa	0.12003513
218	0x3c3dbe14	0.011580963
219	0x3c5ddeaa	0.013541857
220	0x3c0feb76	0.008784166
221	0xbda3fea6	-0.08007555
222	0xbd027004	-0.031845108
223	0xbca6129f	-0.020272551
224	0x3ca5b620	0.020228446
225	0x3d2e52ad	0.042559315
226	0xbb92e475	-0.0044828006
227	0x3cddf78d	0.02709558
228	0x3b239974	0.0024963291
229	0xbd28faf7	-0.041254964
230	0x3ca32c3c	0.019918554
231	0x3d44f604	0.04808618
232	0x3b19eeaf	0.0023488214
233	0xbc1d323b	-0.009594495
234	0x39ce8fc0	0.00039398484
235	0xbce3e8c6	-0.027820956
236	0xbcafb937	-0.021450622
237	0x3cccb5d0	0.024989039
238	0x3c1ebcd5	0.009688576
239	0x3c65f836	0.014036229
240	0xbe3abe17	-0.18236576
241	0xbe6e26f3	-0.23257045
242	0xbed20d59	-0.41025808
243	0x3d6dd69f	0.058066007
244	0x3e1bb2f6	0.15204987
245	0xbe553b4a	-0.20823398
246	0xbd7a16c1	-0.061056856
247	0x3e19682e	0.14981148
248	0xbee6e3b7	-0.45095608
249	0x3f11760d	0.56820756
250	0xbe0ed58e	-0.13948652
251	0x3d477bb8	0.04870197
252	0xbef5ce75	-0.48009077
253	0xbd9fc02f	-0.07800328
254	0xbf326f44	-0.6970103
255	0xbda1ee76	-0.07906811

pos_net.linears.2.bias f4 [30]
0	0xbe51cbb3	-0.20487861
1	0xbe78f03b	-0.2431039
2	0xbea42692	-0.32060677
3	0x3ebbfcef	0.3671641
4	0x3baab05c	0.005209012
5	0xbe98927c	-0.2979926
6	0x3de742dd	0.1129205
7	0xbe2bca46	-0.1677638
8	0x3c4add13	0.01238181
9	0x3ea28b69	0.31746987
10	0x3c877387	0.01653458
11	0xbede1afe	-0.43379968
12	0x3e9634d9	0.29337195
13	0x3d41a3c8	0.047275335
14	0xbd95536c	-0.07291302
15	0xbe7c56a5	-0.24642427
16	0x3d4b2b6a	0.04960195
17	0x3e2686b1	0.16262318
18	0xbe3913d5	-0.18073972
19	0x3d9edc37	0.077568464
20	0x3c486cd4	0.012232978
21	0xbedd893e	-0.4326877
22	0x3ed005f0	0.4062953
23	0x3e5399af	0.20664094
24	0xbe965c6d	-0.2936739
25	0xbeb41284	-0.35170376
26	0x3e7b3511	0.24531962
27	0xbe3b9d2c	-0.18321675
28	0x3dc672c8	0.096898615
29	0x3dcd5182	0.10025312

pos_net.output_layer.weight f4 [6, 30]
0	0x3de4529b	0.11148568
1	0xbe223b45	-0.15842922
2	0xbd3cdd54	-0.046109512
3	0x3d23c50c	0.03998284
4	0x3dfed92f	0.12443768
5	0xbd81a018	-0.063293636
6	0xbe7d8879	-0.24759091
7	0xbe26bb57	-0.16282402
8	0x3cb6c277	0.022309525
9	0xbdda1de5	-0.10650233
10	0xbe32dd41	-0.17467214
11	0xbdce5f6e	-0.100767955
12	0x3ea6f53a	0.32608968
13	0x3de2fa9b	0.110829554
14	0xbcc884dc	-0.024477415
15	0xbdb40aa9	-0.08791096
16	0x3e171d5b	0.14757292
17	0xbcdb1ac5	-0.026746163
18	0x3daa9b47	0.08330398
19	0x3ea7a89a	0.3274582
20	0x3e5a4ada	0.21317616
21	0xbe3ee9c4	-0.18643862
22	0xbee4287a	-0.4456213
23	0x3eaf3b5c	0.34224975
24	0xbda751e5	-0.08169917
25	0xbe7cc7ef	-0.24685644
26	0x3e0d3956	0.13791403
27	0x3d877303	0.066137336
28	0xbdb005c1	-0.085948475
29	0xbdacbd8d	-0.084345914
30	0x3e9631d3	0.29334888
31	0xbe056728	-0.13027632
32	0xbc051123	-0.0081217615
33	0x3ddfa1ab	0.109195076
34	0xbd5eed0f	-0.054425295
35	0x3ee22090	0.44165468
36	0xbeeab9c1	-0.45844844
37	0x3e48f16f	0.1962335
38	0xbeb6de8d	-0.35716668
39	0x3f13675b	0.5757958
40	0xbdf499ff	-0.11943435
41	0xbe82487e	-0.25445932
42	0xbe039e3d	-0.12853332
43	0xbe867bc6	-0.26266307
44	0xbe643f96	-0.22289881
45	0xbe8fe663	-0.2810546
46	0x3ec509d0	0.3848405
47	0xbe7ac36d	-0.24488612
48	0x3e8cd6ab	0.2750753
49	0x3e856deb	0.26060423
50	0x3e965adf	0.29366204
51	0xbeb7a9b8	-0.35871673
52	0x3e75aa71	0.239908
53	0x3e695564	0.2278648
54	0xbd86e051	-0.06585754
55	0xbe64faed	-0.22361346
56	0x3c26ffa5	0.010192786
57	0x3f1e5c62	0.61859715
58	0x3e507a6c	0.203592
59	0xbecf3f89	-0.4047816
60	0x3e200fb4	0.1563099
61	0xbe28dbcc	-0.16490096
62	0x3d2470e6	0.04014673
63	0xbec0a21b	-0.37623677
64	0xbd002cae	-0.03129261
65	0x3e4ffabf	0.20310496
66	0xbdd9847d	-0.10620973
67	0x3dc2c0d4	0.09509435
68	0x3d99fd82	0.07519056
69	0x3db1eab0	0.08687341
70	0x3e45fb45	0.19334133
71	0x3edefc78	0.43551993
72	0x3dccf9e7	0.100086026
73	0xbd7b952d	-0.061421562
74	0xbd9c3d41	-0.07628871
75	0xbb0b19e2	-0.0021225144
76	0xbd4d6ff0	-0.05015558
77	0x3d84bba5	0.06481103
78	0x3ed19900	0.40937042
79	0x3e8d63de	0.27615255
80	0x3e1050d8	0.1409334
81	0xbd8649c9	-0.06557042
82	0xbf1161f2	-0.5679008
83	0x3f0ab021	0.54175
84	0xbd6f1d28	-0.058377415
85	0xbeaa8488	-0.33304238
86	0x3d85da8d	0.06535826
87	0x3e04aa44	0.12955576
88	0xba28cbd1	-0.00064390624
89	0xbe1e9e93	-0.15490179
90	0xbd8bbd79	-0.068232484
91	0xbcbb9bc3	-0.022901421
92	0xbc795014	-0.015216846
93	0x3e7f7974	0.24948674
94	0x3d811407	0.06302648
95	0xbf112816	-0.5670179
96	0xbe968419	-0.29397658
97	0xbd2bb1c3	-0.041917574
98	0xbd9a8a0c	-0.075458616
99	0x3effba4f	0.4994683
100	0xbc58ae09	-0.013225087
101	0x3eae16bf	0.3400173
102	0xbe5c96ce	-0.21541902
103	0xbe30f16d	-0.17279597
104	0xbeba5224	-0.36390793
105	0xbc5b54ca	-0.0133869145
106	0xbf423aed	-0.75871164
107	0x3e09b295	0.1344703
108	0x3e2c0d83	0.1680203
109	0x3d13b8e1	0.036064986
110	0xbe83eeb6	-0.2576806
111	0x3e93f1e4	0.28895485
112	0xbdeb032d	-0.11475215
113	0xbe623761	-0.22091438
114	0x3d7cbfe4	0.06170644
115	0x3e70e282	0.23523906
116	0x3e8b1169	0.2716172
117	0xbe2a407f	-0.16626166
118	0x3e4c7762	0.19967416
119	0x3ec2db83	0.380581
120	0xbe5e320e	-0.21698782
121	0xbdbabbcd	-0.091178514
122	0xbbf2e37e	-0.007412373
123	0xbf0cd58b	-0.5501334
124	0xbee18528	-0.44046903
125	0xbe6244e8	-0.22096598
126	0xbe4dce58	-0.20098245
127	0x3c33c656	0.01097258
128	0x3e8c2aa3	0.2737628
129	0xbe15f785	-0.14645202
130	0x3efd383e	0.49456972
131	0xbe50c9fc	-0.20389551
132	0x3d540671	0.051763956
133	0x3ed8092d	0.421945
134	0xbe252e7c	-0.16131014
135	0x3ea546b4	0.32280505
136	0x3ea3456b	0.318889
137	0x3da54d02	0.08071329
138	0x3e3cd6a1	0.1844125
139	0x3c8e8c34	0.017400838
140	0xbf13411c	-0.57521224
141	0x3dd2eb68	0.102988064
142	0xbebf357b	-0.3734549
143	0xbe1a207f	-0.15051459
144	0x3da8f160	0.08249164
145	0x3ea22372	0.31667668
146	0x3e4d963a	0.20076838
147	0xbee11d55	-0.4396769
148	0xbf0a8828	-0.5411401
149	0x3d848866	0.064713284
150	0xbe9062b4	-0.28200305
151	0xbe045506	-0.12923059
152	0xbc31b845	-0.010847156
153	0xbdcf6148	-0.10125977
154	0x3e1e314f	0.15448497
155	0xbc092ef2	-0.008373009
156	0x3ec69e71	0.38792756
157	0x3e0614df	0.13093899
158	0x3eddb11f	0.43299195
159	0x3e2f936c	0.1714608
160	0xbd30f1b8	-0.04319927
161	0xbf071f4c	-0.5278213
162	0xbde94077	-0.11389249
163	0xbe2c638d	-0.1683485
164	0x3ec8d3c6	0.3922407
165	0x3d5abc4f	0.05340224
166	0x3dcfe570	0.101511836
167	0x3db8a7b1	0.090163596
168	0xbe923e85	-0.28563324
169	0xbf05cee8	-0.5226884
170	0xbd9191a3	-0.07107856
171	0x3d90fd1a	0.07079525
172	0xbd067ddd	-0.032834876
173	0xbed0bb06	-0.40767688
174	0x3d9008e2	0.07032944
175	0x3e9d78e4	0.30756295
176	0x3e7d89ce	0.247596
177	0xbf05a58e	-0.5220574
178	0xbe2c9e03	-0.16857152
179	0x3ec382f6	0.38185853

pos_net.output_layer.bias f4 [6]
0	0xbe05217a	-0.13001052
1	0xbe4cd5d0	-0.20003438
2	0xbe210bc4	-0.15727144
3	0x3ef748d8	0.48297763
4	0x3eb47531	0.3524566
5	0xbe3e2615	-0.18569215

neg_net.linears.0.weight f4 [30, 12]
0	0x3e6b39c2	0.22971252
1	0x3e9fc831	0.3120742
2	0x3ef9dd9a	0.4880188
3	0xbf0f03d5	-0.5586522
4	0xbda0cb27	-0.07851248
5	0x3dbc1c3f	0.09185075
6	0xbd81a744	-0.063307315
7	0xbe8917d5	-0.26775995
8	0xbeaf8fd9	-0.34289435
9	0x3f0a17bb	0.5394246
10	0x3e8a359d	0.2699403
11	0x3f176e2e	0.59152496
12	0x3eaae79d	0.33379832
13	0x3d630796	0.055427156
14	0xbef46c39	-0.47738817
15	0xbe89448c	-0.2681011
16	0x3e2c2ac9	0.16813196
17	0xbe6a07d0	-0.22854543
18	0xbe6fcadc	-0.23417228
19	0xbe8b919e	-0.27259535
20	0x3db33b72	0.08751573
21	0x3ead8388	0.33889413
22	0xbebf4df2	-0.37364155
23	0xbd8ad3b4	-0.067786604
24	0x3daa9641	0.0832944
25	0x3d2d07f8	0.042243928
26	0xbe9737af	-0.2953467
27	0xbf18f9fb	-0.5975644
28	0x3e6472f5	0.22309478
29	0xbe76ce3f	-0.24102114
30	0xbee32957	-0.44367477
31	0x3d828666	0.06373291
32	0xbec3481c	-0.38140953
33	0x3ee57a5b	0.44819912
34	0x3d82d458	0.063881576
35	0x3e45047b	0.1923999
36	0xbee59472	-0.44839817
37	0x3e08da2c	0.13364476
38	0x3e26af69	0.16277851
39	0xbe9a096e	-0.3008532
40	0xbe450720	-0.19240999
41	0xbe042ab6	-0.12906918
42	0x3dbafd92	0.09130396
43	0xbd9d3260	-0.07675624
44	0x3e8e5380	0.2779808
45	0xbe6c4abf	-0.23075388
46	0x3e9c70cf	0.30554816
47	0x3dc89a7c	0.097950906
48	0x3d902362	0.07037999
49	0xbe906c4f	-0.28207633
50	0x3f098752	0.5372211
51	0xbd89d0d4	-0.06729284
52	0x3d70dae1	0.05880249
53	0xbe934f3a	-0.28771383
54	0x3e64737e	0.22309682
55	0xbe446712	-0.19179943
56	0xbee9a019	-0.45629957
57	0xbeb25613	-0.34831294
58	0xbe144338	-0.14478767
59	0xbca49a62	-0.020093147
60	0xbe7e82e7	-0.24854623
61	0xbe82311e	-0.25428098
62	0xbe07f382	-0.13276485
63	0xbdf8e687	-0.121533446
64	0xbedb4d64	-0.42832482
65	0xbdc40db5	-0.09572927
66	0xbe876f7e	-0.2645225
67	0x3de5f209	0.11227805
68	0x3df64fc6	0.12026934
69	0xbd86bf5c	-0.06579468
70	0x3ec47dbb	0.38377175
71	0xbe3433db	-0.17597906
72	0xbba736c0	-0.0051029623
73	0x3e812e4c	0.25230634
74	0x3f4a87be	0.79113376
75	0x3edec1de	0.43507284
76	0x3d516138	0.051118106
77	0x3d0971ce	0.0335558
78	0xbe9a3de2	-0.30125338
79	0x3dbbcbef	0.091697566
80	0x3ebfb34f	0.3744149
81	0xbe42f87a	-0.19040099
82	0x3e0c3e79	0.13695706
83	0x3cf4840c	0.029848121
84	0x3d544296	0.051821314
85	0x3e953b35	0.29146734
86	0x3e288a39	0.16458978
87	0x3e97d5f9	0.29655436
88	0x3e6572a0	0.22407007
89	0xbceb3a82	-0.028714422
90	0xbcc224db	-0.023699215
91	0xbc904459	-0.017610716
92	0xbef0d265	-0.47035518
93	0xbe83dbbe	-0.25753587
94	0x3eba7f92	0.36425453
95	0xbd92888e	-0.07154952
96	0xbe1da496	-0.15394816
97	0x3e482e61	0.19548942
98	0xbec041b7	-0.37550136
99	0xbe3551bb	-0.17706959
100	0x3ebba25f	0.36647317
101	0x3e4ec624	0.20192772
102	0x3da55cb5	0.08074323
103	0x3e6345d8	0.22194612
104	0xbe78f3fd	-0.24311824
105	0x3ea94bd6	0.3306567
106	0xbf039b4d	-0.51408845
107	0x3e8de0fc	0.27710712
108	0x3dc7c8bf	0.09755086
109	0xbd61b672	-0.055105634
110	0x3e8747c3	0.26421937
111	0x3dfcd624	0.123455316
112	0x3f115fcb	0.56786793
113	0xbe90c7f9	-0.28277567
114	0x3c945ab7	0.018109662
115	0xbea33a6a	-0.31880504
116	0xbd0e16da	-0.03468976
117	0xbf16a02b	-0.58838147
118	0xbe5f6f50	-0.21819806
119	0xbdd83d34	-0.105585486
120	0xbce1ef6c	-0.027579986
121	0x3e3d0b45	0.1846133
122	0x3dc64cc2	0.09682609
123	0xbe96399c	-0.29340827
124	0x3e141727	0.14461957
125	0xbe845914	-0.2584921
126	0xbe4fd7f9	-0.20297231
127	0x3e104e90	0.14092469
128	0xbe828d5b	-0.2549847
129	0xbe24aa0e	-0.16080496
130	0x3e828446	0.25491542
131	0x3ef86afc	0.48519123
132	0x3e0b940a	0.13630691
133	0xbe6055a0	-0.21907663
134	0xbe60a31d	-0.21937223
135	0x3c9776ef	0.01848933
136	0xbf1bafcd	-0.60815126
137	0x3d60f0e6	0.05491724
138	0xbe1b61e1	-0.15174057
139	0x3e3b1c70	0.18272567
140	0xbe22367d	-0.15841098
141	0x3e0406ba	0.12893191
142	0xbd0eacd3	-0.034832787
143	0x3e3a2e9b	0.18181841
144	0xbe54cc0b	-0.20780961
145	0xbeab99be	-0.33515733
146	0xbdccb0e0	-0.09994674
147	0x3cd5a505	0.026079664
148	0xbf1dda3f	-0.6166114
149	0x3e758582	0.2397671
150	0xbe13501f	-0.14386033
151	0xbe5afbbf	-0.21385096
152	0xbea73557	-0.32657883
153	0xbe022579	-0.12709607
154	0x3e974655	0.29545847
155	0x3ebf5ab5	0.3737389
156	0xbd2bd496	-0.041950785
157	0x3c282a8a	0.010264048
158	0xbbf8dd90	-0.0075947717
159	0xbec81430	-0.39077902
160	0x3d867b74	0.065665156
161	0x3ebb9d7f	0.36643597
162	0xbd0ecb78	-0.03486201
163	0xbcd464f1	-0.025927039
164	0xbeb88640	-0.36039925
165	0xbea6bb79	-0.32564905
166	0x3e7a01e7	0.24414788
167	0x3f31613a	0.6928898
168	0xbe6bc181	-0.23023035
169	0x3e4d7d95	0.20067437
170	0x3c445ce8	0.011985041
171	0x3ea0daaa	0.31416827
172	0x3e7c4e36	0.2463921
173	0xbdd5ec8d	-0.10445509
174	0x3dd97cec	0.1061953
175	0xbd9f3ec1	-0.07775641
176	0xbe9765ea	-0.29569942
177	0xbe9da7b5	-0.30792013
178	0xbe05262b	-0.13002841
179	0xbee26a83	-0.44221887
180	0xbe82a8c0	-0.2551937
181	0xbd026ab7	-0.031840052
182	0x3e24769b	0.1606087
183	0x3e06a08a	0.13147178
184	0x3e6e1bf7	0.23252855
185	0x3ec2a016	0.3801276
186	0x3ee9e8f4	0.45685542
187	0x3e6e70d1	0.23285224
188	0x3f281b3b	0.6566655
189	0x3e32155d	0.17390962
190	0x3e5492c9	0.20759119
191	0xbeebdd53	-0.46067294
192	0x3eca68da	0.3953312
193	0xbe0812d5	-0.13288434
194	0x3db60c5a	0.088890746
195	0xbdb46deb	-0.08810028
196	0x3ebc6e06	0.3680269
197	0xbda65914	-0.08122459
198	0x3e312ae5	0.17301519
199	0x3e2794f1	0.1636541
200	0x3b8da8ae	0.0043230867
201	0xbe8da579	-0.27665308
202	0xbea7ab8f	-0.32748076
203	0x3d385229	0.04500023
204	0xbe5f14ad	-0.21785231
205	0xbf02ed2c	-0.51143146
206	0x3ea227a8	0.3167088
207	0x3e61b53f	0.22041796
208	0xbe9a644c	-0.30154645
209	0xbccb78a6	-0.024837803
210	0x3e392110	0.18079019
211	0x3e6afa23	0.22946982
212	0xbe00d010	-0.1257937
213	0x3dfa2cbb	0.12215563
214	0x3ecfa9f7	0.4055936
215	0xbe8ce64b	-0.2751945
216	0xbe6eb8ee	-0.23312733
217	0xbda4ddc9	-0.08050115
218	0x3b61c732	0.0034451005
219	0xbd56cf69	-0.052443895
220	0x3e7ad870	0.24496627
221	0x3ea6102f	0.32434222
222	0x3d9fa203	0.07794573
223	0xbd0b4624	-0.03400244
224	0x3de98f2a	0.114042595
225	0xbe1fe349	-0.15614046
226	0xbe1911fb	-0.14948265
227	0xbe27fed5	-0.16405804
228	0xbb3f50af	-0.0029192378
229	0xbe1456ae	-0.1448619
230	0x3ee55a3a	0.447954
231	0x3eb10985	0.34577575
232	0x3d25c7f2	0.040473886
233	0xbe6aa661	-0.22915031
234	0x3f119330	0.56865215
235	0xbeaf8d64	-0.3428756
236	0xbc82c7ca	-0.015964407
237	0xbe9f6b52	-0.31136566
238	0x3e4a5bee	0.19761631
239	0xbde16de1	-0.11007286
240	0x3ea05d7c	0.31321323
241	0x3cb1ebda	0.021718908
242	0xbe7bdea8	-0.24596655
243	0xbe186081	-0.14880563
244	0xbeeb1d01	-0.45920566
245	0xbca9786d	-0.020687306
246	0x3e46718c	0.19379252
247	0xbb8b79a0	-0.004256442
248	0x3f07d89f	0.5306491
249	0x3ef2ac4c	0.47397077
250	0x3e2b5263	0.16730647
251	0xbe033de0	-0.12816572
252	0x3d0f50e6	0.03498926
253	0xbf418f57	-0.75609344
254	0xbe12f3b9	-0.14350785
255	0x3e7ac0f9	0.24487676

neg_net.linears.0.bias f4 [30]
0	0xbdf6bbb0	-0.12047517
1	0xbe0949bb	-0.13407032
2	0x3e4ca916	0.19986376
3	0xbe16c3ec	-0.14723176
4	0xbe5523c8	-0.2081443
5	0xbeaed363	-0.3414565
6	0xbde8ab7f	-0.11360835
7	0xbeb5815a	-0.3545025
8	0xbe140cda	-0.14458027
9	0x3dfbb6eb	0.12290748
10	0xbdf62898	-0.120194614
11	0xbd028c58	-0.031872123
12	0xbde51a3c	-0.111866444
13	0xbe8ce629	-0.27519348
14	0xbeab3eb2	-0.3344627
15	0xbe30b0c9	-0.17254938
16	0xbe93a020	-0.28833103
17	0x3e88f16d	0.26746693
18	0xbed44ced	-0.4146494
19	0x3e4ca371	0.19984223
20	0x3df2890c	0.11842546
21	0xbe49ee37	-0.19719778
22	0xbeb18488	-0.34671426
23	0x3e696f04	0.22796255
24	0xbe416160	-0.18884802
25	0xbe08f935	-0.13376315
26	0xbe5a119e	-0.21295783
27	0x3d32583e	0.043541186
28	0xbceb36da	-0.028712679
29	0xbe3b4ab6	-0.18290219

neg_net.linears.1.weight f4 [30, 30]
0	0x3e491e5d	0.19640489
1	0xbe435210	-0.19074273
2	0x3d0d051d	0.034428705
3	0x3df5b904	0.119981796
4	0x3d7edd9f	0.062223073
5	0x3db71b07	0.08940702
6	0xbe5b91ee	-0.21442387
7	0xbee5b542	-0.4486485
8	0xbe7c4350	-0.24635053
9	0xbefcfa2f	-0.49409625
10	0x3daaba2e	0.08336292
11	0x3e83044e	0.25589222
12	0x3e51569c	0.20443195
13	0xbc75cb61	-0.015002103
14	0xbe873233	-0.26405486
15	0xbe8d4cc2	-0.27597624
16	0xbdac53dc	-0.084144324
17	0x3d11f387	0.035632636
18	0xbe5fcc06	-0.21855173
19	0xbd3d362a	-0.046194233
20	0x3e83796f	0.25678584
21	0x3e4f608f	0.20251678
22	0x3e6217b9	0.22079362
23	0xbd868e54	-0.06570116
24	0xbe96fd0a	-0.29489928
25	0xbe4447ca	-0.1916801
26	0x3d273a4b	0.040827077
27	0x3d83b503	0.064310096
28	0x3d2286c7	0.039679315
29	0x3d2a8bf0	0.04163736
30	0xbe770dab	-0.24126308
31	0xbeb2dcd4	-0.34934103
32	0xbe135ab2	-0.14390066
33	0x3dbcfd93	0.09228053
34	0xbdd5de0e	-0.10442744
35	0xbc992834	-0.018695928
36	0x3d1798ba	0.037010886
37	0x3db15ff8	0.08660883
38	0xbe4ae111	-0.19812419
39	0x3eaf3e9d	0.34227458
40	0x3d2b2362	0.04178179
41	0xbf0e0987	-0.5548329
42	0xbea20f99	-0.31652525
43	0x3ddeb549	0.10874421
44	0x3dbeafd4	0.0931088
45	0xbea00983	-0.31257257
46	0xbd932b8e	-0.07186042
47	0xbed94647	-0.4243643
48	0xbe13e83f	-0.14444064
49	0x3d6d4b33	0.057933044
50	0xbf00a124	-0.5024588
51	0x3edd0a44	0.43171895
52	0xbec84f7a	-0.39123136
53	0xbd8718f0	-0.06596553
54	0x3e44d36c	0.19221276
55	0xbe98e2fd	-0.29860678
56	0xbedf40c9	-0.43604115
57	0xbecf653b	-0.4050692
58	0x3c33138a	0.010929951
59	0xbe3a3c0f	-0.18186973
60	0xbdd78de6	-0.10525112
61	0xbd306783	-0.043067466
62	0xbe4cb27d	-0.19989963
63	0xbe36f88d	-0.17868252
64	0xbed0d4df	-0.40787408
65	0xbe7bf074	-0.24603444
66	0x3f145266	0.5793823
67	0x3cbe8f21	0.023261609
68	0x3e446be0	0.19181776
69	0xbe09fcbc	-0.13475317
70	0xbe5a2c80	-0.21306038
71	0xbe7ead34	-0.24870759
72	0xbef6abf0	-0.48178053
73	0xbee6a36d	-0.4504656
74	0xbec107ea	-0.3770135
75	0x3f1832db	0.594526
76	0xbe901c00	-0.28146362
77	0x3e49bb91	0.19700457
78	0x3ec656aa	0.38737994
79	0xbe81633d	-0.25271025
80	0xbe6a640d	-0.22889729
81	0xbbe250fe	-0.0069066277
82	0x3cb9e1c4	0.022690661
83	0xbc728c7f	-0.014804005
84	0xbcb7bdb6	-0.022429328
85	0xbd46e085	-0.048553962
86	0xbeb853ec	-0.36001527
87	0xbc6999e5	-0.014257883
88	0x3d7a69be	0.061136
89	0xbef7ac12	-0.48373467
90	0x3d0252ee	0.03181737
91	0x3c5f1bb4	0.013617445
92	0x3da95357	0.08267849
93	0xbd137752	-0.036002465
94	0x3e172262	0.1475921
95	0xbe9bd27f	-0.30434033
96	0xbe516133	-0.20447235
97	0x3e50f297	0.2040504
98	0x3e36fe57	0.1787046
99	0x3eaa45c2	0.33256346
100	0x3d9267b9	0.0714869
101	0xbe9a1eaa	-0.3010152
102	0xbe90865f	-0.28227517
103	0x3e585836	0.211274
104	0x3df2ce9a	0.11855812
105	0xbebe6257	-0.37184402
106	0x3e24058c	0.16017741
107	0xbea48fb7	-0.32140896
108	0xbd2cdef7	-0.042204823
109	0x3e90ecb5	0.28305593
110	0xbe241f0f	-0.16027473
111	0x3ec6a7d0	0.38799906
112	0xbe828d52	-0.25498444
113	0x3d724d22	0.05915559
114	0x3ee54979	0.44782618
115	0x3e3d4c3c	0.18486112
116	0xbe7e2720	-0.24819613
117	0xbe960f7e	-0.29308695
118	0xbe52613d	-0.20544906
119	0x3b6109e5	0.0034338173
120	0xbd332c4b	-0.043743413
121	0xbef47cef	-0.47751567
122	0xbea49ecd	-0.32152405
123	0xbd3dc31f	-0.04632866
124	0x3e839d1b	0.257058
125	0xbed16a99	-0.4090164
126	0x3e4feb90	0.20304704
127	0x3ecbcfdd	0.39807025
128	0x3e7575da	0.23970738
129	0x3eb99c5c	0.36252105
130	0x3d87be1a	0.06628056
131	0xbea43b71	-0.320766
132	0xbea2d226	-0.31800956
133	0xbe10cc1a	-0.14140359
134	0x3e508b56	0.20365652
135	0x3e7d57ff	0.24740599
136	0xbeaf6d77	-0.34263203
137	0x3e4379bd	0.19089408
138	0x3eaf55c7	0.3424513
139	0x3c5d4baf	0.013506814
140	0xbe9eb5a7	-0.30997965
141	0x3e4600c6	0.19336233
142	0xbe84b43c	-0.25918758
143	0xbeb36cb0	-0.3504386
144	0xbddd39c3	-0.10802033
145	0x3e1a7d35	0.15086825
146	0xbee48602	-0.4463349
147	0xbe8faca5	-0.28061405
148	0xbdcb8fb6	-0.0993952
149	0xbe4004cc	-0.1875183
150	0x3eaa8af4	0.33309138
151	0xbd3f86fd	-0.046759594
152	0xbe7498b3	-0.23886375
153	0xbe0782b3	-0.13233452
154	0x3ed4c080	0.41553116
155	0x3c334855	0.010942538
156	0xbd05dd7a	-0.03268192
157	0x3e44388e	0.19162199
158	0xbe7db564	-0.24776226
159	0x3ca1c640	0.019747853
160	0xbe74f803	-0.23922734
161	0x3e9649e2	0.29353243
162	0xbdee69a2	-0.116412416
163	0x3e5a5138	0.21320045
164	0x3e7ef6f3	0.24898891
165	0xbe6981e3	-0.22803454
166	0x3d3ecf2d	0.046584297
167	0x3e505729	0.20345749
168	0xbead3da3	-0.33836088
169	0x3eac7ad2	0.33687454
170	0xbc65ee7c	-0.01403391
171	0xbec74e0f	-0.3892674
172	0xbe6f4a53	-0.23368196
173	0xbef0f019	-0.4705818
174	0x3e92228b	0.2854198
175	0xbefdb63c	-0.49553096
176	0xbe92e69c	-0.28691566
177	0xbe19a397	-0.15003811
178	0xbed1b2cc	-0.40956724
179	0xbea1d03a	-0.31604177
180	0x3ae5fbac	0.0017546318
181	0xbefb3a10	-0.49067736
182	0xbcb7308c	-0.022362016
183	0x3d19339a	0.037402727
184	0xbeaa08c3	-0.3320981
185	0xbd9fa59b	-0.077952586
186	0x3e6ac9cb	0.2292854
187	0xbe82c9e6	-0.2554466
188	0xbe49cfd2	-0.19708183
189	0xbda4c9a4	-0.080462724
190	0x3d5081f2	0.050905176
191	0x3e9436d7	0.2894809
192	0x3de5660e	0.11201106
193	0xbf304027	-0.6884789
194	0xbe38ff56	-0.18066153
195	0xbe09f0d5	-0.13470776
196	0xbf092486	-0.53571355
197	0x3dfd7593	0.12375941
198	0xbe85790c	-0.26068914
199	0xbe19e8b3	-0.15030174
200	0x3cca4b5c	0.024694137
201	0x3e458118	0.19287527
202	0x3e8df9a1	0.27729514
203	0x3ea83f21	0.32860664
204	0xbe971d4e	-0.29514545
205	0xbe12a23c	-0.143197
206	0xbdbf8588	-0.09351641
207	0xbccd0d0b	-0.025030633
208	0x3dd3b2d6	0.103368446
209	0xbb883d01	-0.004157663
210	0x3e89d83d	0.2692279
211	0xbe9080a9	-0.2822316
212	0xbe6592de	-0.22419307
213	0xbd278aa8	-0.040903717
214	0xbe7cde33	-0.24694137
215	0xbd95f308	-0.07321745
216	0xbe8b6f3f	-0.27233312
217	0xbe2f8c18	-0.17143285
218	0x3b4dc744	0.003139929
219	0xbec0a682	-0.37627035
220	0x3e291239	0.16510858
221	0xbdc5a9a0	-0.09651494
222	0xbd3150ba	-0.043289877
223	0xbe8ec3c4	-0.27883732
224	0xbe3a5dc0	-0.18199825
225	0xbdad0890	-0.08448899
226	0xbec09583	-0.37614068
227	0xbedf4a1a	-0.43611223
228	0x3d91665b	0.07099601
229	0xbef144a6	-0.47122687
230	0xbe42ef6b	-0.19036643
231	0xbf09fd78	-0.5390239
232	0xbeb1018b	-0.3457149
233	0xbdbeaed1	-0.09310687
234	0xbeb99d6e	-0.36252922
235	0xbdcbf192	-0.09958185
236	0xbc28e1bd	-0.010307726
237	0x3d5b6136	0.053559504
238	0x3e0eccca	0.13945308
239	0xbe5e0309	-0.21680845
240	0x3c242cc6	0.01002044
241	0x3d5329d7	0.051553573
242	0xbc9e56ee	-0.01932856
243	0xbd1b8ec8	-0.037977964
244	0xbb42a980	-0.002970308
245	0xbc86077e	-0.016360994
246	0xbda8322e	-0.08212696
247	0xbdd65653	-0.10465684
248	0xbe15e5ab	-0.14638393
249	0xbdd92e9d	-0.10604594
250	0xbd651a46	-0.05593326
251	0x3d08c7d4	0.033393696
252	0xbd31795c	-0.043328628
253	0xbd2336c1	-0.03984714
254	0xbba3b2df	-0.0049956883
255	0xbe695246	-0.22785291

neg_net.linears.1.bias f4 [30]
0	0x3de0e332	0.10980834
1	0x3dda7d45	0.106684245
2	0xbdb34173	-0.08752718
3	0x3df6e7ce	0.12055932
4	0x3e0bff28	0.13671553
5	0xbe320204	-0.17383581
6	0xbd98171a	-0.07426281
7	0xbdb9ec3c	-0.09078261
8	0xbe9fa5b3	-0.31181106
9	0x3d104a8a	0.035227336
10	0xbd3ed0f5	-0.046585996
11	0x3da6d437	0.081459455
12	0xbe9d9c34	-0.30783236
13	0x3de81b12	0.11333288
14	0xbdd3d19a	-0.10342713
15	0xbd7fce98	-0.062452883
16	0xbc5e93cb	-0.013585041
17	0xbddf4488	-0.10901743
18	0xbe8fbce7	-0.2807381
19	0x3d8e7aa3	0.06956985
20	0xbd2a5e2e	-0.041593723
21	0x3d787658	0.060659736
22	0xbe88ffef	-0.26757762
23	0x3d2e9bca	0.04262904
24	0xbe5ef289	-0.21772207
25	0xbecbbfa0	-0.39794636
26	0xbcfee463	-0.031114763
27	0xbe473513	-0.1945384
28	0x3e3937d7	0.18087707
29	0xbe2c95a1	-0.16853954

neg_net.linears.2.weight f4 [30, 30]
0	0xbe2b8a6d	-0.16752024
1	0xbccc3c96	-0.024931233
2	0x3e3ed3d7	0.18635498
3	0xbe5860e1	-0.21130706
4	0x3d891ad4	0.0669457
5	0xbecb3973	-0.39692268
6	0xbe3ca16f	-0.18420957
7	0xbe14a5ca	-0.14516369
8	0x3b7fb608	0.0039018411
9	0xbd4aea21	-0.04953969
10	0xbe4647b3	-0.19363289
11	0xbe7f6862	-0.24942163
12	0xbc4206f7	-0.011842481
13	0xbe774188	-0.24146092
14	0x3c5b2bba	0.013377124
15	0xbeb8d8f5	-0.36103025
16	0x3ccdc936	0.025120359
17	0x3d0fd7b0	0.035117805
18	0x3dfb3671	0.12266243
19	0xbe994e7f	-0.299427
20	0xbee25327	-0.44204065
21	0xbee86209	-0.45387295
22	0xbf0692b9	-0.5256763
23	0xbd894c3d	-0.067039944
24	0x3d372b03	0.044718754
25	0xbe382efe	-0.17986676
26	0xbd580bbe	-0.052745573
27	0xbedb6a37	-0.42854473
28	0xbebc9771	-0.3683429
29	0xbdb5b78e	-0.08872901
30	0xbe5ceddc	-0.21575111
31	0x3dac64c3	0.08417656
32	0xbef4ce4b	-0.4781364
33	0xbcca19c0	-0.024670482
34	0x3cd13db5	0.02554212
35	0x3ef10af5	0.47078672
36	0xbe9432b5	-0.28944936
37	0xbc12c8e0	-0.008959025
38	0xbd17ccea	-0.037060656
39	0xbe816423	-0.2527171
40	0xbc1f1c2e	-0.009711308
41	0x3dc54ff5	0.09634391
42	0xbdc985c4	-0.09839967
43	0x3e184e0a	0.1487352
44	0xbd2350c6	-0.039871953
45	0x3e623d62	0.22093728
46	0xbcb53a9b	-0.022122672
47	0xbc63db8d	-0.013907325
48	0xbe3e37bc	-0.18575948
49	0xbe3f2e63	-0.18670039
50	0x3e25f4bc	0.1620664
51	0xbe0fd374	-0.14045507
52	0xbf167148	-0.58766603
53	0xbec01393	-0.37514934
54	0xbd1b0b03	-0.0378523
55	0x3bc453fa	0.005991456
56	0xbe2aa9a1	-0.16666271
57	0xbe685445	-0.22688396
58	0xbef0a40b	-0.47000155
59	0xbe9015dc	-0.28141677
60	0xbda9d282	-0.08292104
61	0x3cc34cee	0.023840394
62	0x3d3b09a5	0.045663495
63	0xbc2d2631	-0.010568188
64	0xbc091fe1	-0.008369417
65	0x3c84594e	0.016155865
66	0xbb68342c	-0.0035431487
67	0xbc3515f6	-0.011052599
68	0xbca10aa9	-0.019658403
69	0xbc93573c	-0.017985933
70	0x3c143840	0.009046614
71	0xbd159182	-0.03651572
72	0xbc352ff8	-0.0110588
73	0x3c97fb3d	0.018552417
74	0xbb71fe75	-0.003692535
75	0xbcccb7a2	-0.024989907
76	0xbda59dfc	-0.08086774
77	0x3b82fec6	0.0039976565
78	0xbb9a0e55	-0.0047014155
79	0xbd731096	-0.05934199
80	0xbc152b34	-0.009104539
81	0x3c42e1d0	0.011894658
82	0x3d0ee99f	0.034890767
83	0xbdae8b51	-0.08522666
84	0x3c7df1f6	0.0154995825
85	0x3c972d4c	0.018454216
86	0xbd311419	-0.043232057
87	0x3d753f10	0.059874594
88	0x3ce4174a	0.027843136
89	0x3d14ce18	0.03632936
90	0xbdc8187a	-0.097702935
91	0x3e81adba	0.25327855
92	0xbeae807c	-0.340824
93	0x3e58952b	0.21150653
94	0x3cdb0998	0.026737973
95	0x3eb97274	0.36220133
96	0xbeef5392	-0.46743447
97	0x3c95b954	0.018276848
98	0x3c5d107b	0.013492699
99	0xbbbe2960	-0.005803272
100	0xbe031e42	-0.12804511
101	0x3d442ba1	0.04789317
102	0x3c1111b9	0.008854323
103	0xbe127e9a	-0.14306107
104	0xbab5e2a0	-0.0013876744
105	0xbdd5441b	-0.10413381
106	0xbeae14e0	-0.340003
107	0xbd151ca4	-0.036404267
108	0xbbe7fd34	-0.0070797447
109	0x3dc9edc6	0.09859805
110	0xbe97bb22	-0.29634959
111	0xbe971f0a	-0.29515868
112	0x3e68d9d2	0.22739342
113	0xbdac8071	-0.08422936
114	0x3b16bdc8	0.0023001302
115	0x3d245fd2	0.040130444
116	0x3ea0c390	0.31399202
117	0x3e8d9534	0.27652895
118	0xbe05558d	-0.13020916
119	0xbde40fc5	-0.1113582
120	0xbd630ea9	-0.055433903
121	0x3e4b336b	0.19843833
122	0xbe3bf7a5	-0.18356188
123	0x3e098458	0.13429391
124	0xbe741dea	-0.23839536
125	0xbe497309	-0.19672789
126	0xbe9964cb	-0.2995971
127	0xbdcf9756	-0.10136287
128	0x3c424144	0.011856381
129	0x3df1e42a	0.11811097
130	0xbe446e8a	-0.19182792
131	0xbcb852a8	-0.022500351
132	0xbca57cf8	-0.020201191
133	0xbdd92316	-0.10602395
134	0x3cbd3ea4	0.023101158
135	0xbea8f305	-0.3299791
136	0xbe1d4b1a	-0.1536068
137	0x3c687184	0.0141872205
138	0xbe2163c8	-0.1576072
139	0x3d5ef8fe	0.054436676
140	0xbe8f1841	-0.27948192
141	0xbece0501	-0.40238193
142	0xbdf7c253	-0.12097611
143	0x3e19e8ff	0.15030287
144	0xbba421aa	-0.005008896
145	0xbe188773	-0.1489542
146	0x3e81ccea	0.2535165
147	0xbb61474c	-0.0034374772
148	0xbcb9514f	-0.022621779
149	0xbdcecf61	-0.10098148
150	0xbe01033b	-0.12598889
151	0xbea69e25	-0.3254253
152	0x3bf0c17c	0.007347284
153	0xbd76c054	-0.060242012
154	0xbee4503f	-0.44592473
155	0x3c844a76	0.016148787
156	0xbf35065e	-0.7071284
157	0xbd2103ab	-0.03931014
158	0x3c35bda8	0.011092581
159	0x3eb609dd	0.355544
160	0xbe85a10e	-0.26099437
161	0x3e97a071	0.29614595
162	0xbe0360ba	-0.12829867
163	0x3ea95b64	0.33077538
164	0xbc871ca4	-0.01649315
165	0xbe25a0f8	-0.16174686
166	0xbebd8b28	-0.3702023
167	0xbde2bd16	-0.110712215
168	0x3da1d778	0.079024255
169	0xbe189ae5	-0.14902838
170	0x3ec9756a	0.39347392
171	0x3c205564	0.009785984
172	0x391c03f0	0.00014878786
173	0x3d8c742c	0.068580955
174	0xbc976290	-0.018479615
175	0x3e74c594	0.23903495
176	0x3e5b49a7	0.21414815
177	0x3e28159c	0.16414493
178	0x3ec730a4	0.38904297
179	0xbd8d0022	-0.06884791
180	0xbe46e740	-0.19424152
181	0x3d5f7852	0.054558106
182	0x3d9e1532	0.077188864
183	0x3ea40ebf	0.320425
184	0x3e003349	0.12519564
185	0x3ef495af	0.4777045
186	0xbd0fb419	-0.035083864
187	0x3cad2bd2	0.02113906
188	0x3d09a792	0.033607073
189	0xbe49939e	-0.19685218
190	0xbe1bd581	-0.15218164
191	0xbdd459cb	-0.10368689
192	0x3d25a4f6	0.040440522
193	0x3cc78977	0.02435754
194	0xbbcd1ff8	-0.0062599145
195	0x3e7da493	0.24769811
196	0x3cfdffe0	0.0310058
197	0x3e6dbda4	0.23216873
198	0xbd96f08a	-0.07370098
199	0x3de7b10b	0.11313065
200	0x3e493bed	0.19651766
201	0x3e41bb98	0.18919218
202	0xbeb472f9	-0.35243967
203	0xbe39becc	-0.1813919
204	0xbd1fb8cc	-0.038994595
205	0xbd4816f8	-0.04885003
206	0x3b84094f	0.00402943
207	0xbdd6bb7b	-0.10484978
208	0x3ddd6745	0.10810713
209	0x3e94988a	0.29022628
210	0xbc1cbe47	-0.00956685
211	0x3ea714ab	0.32632956
212	0x3dc0ec18	0.09420031
213	0xbca43c8e	-0.020048406
214	0x3e5090a1	0.20367672
215	0xbe8a05f5	-0.2695767
216	0x3ee29bf0	0.44259596
217	0x3deb1c5d	0.11480019
218	0xbd0ff230	-0.035143077
219	0xbed5a72f	-0.41729113
220	0xbe8b0d84	-0.2715875
221	0xbed346a1	-0.41264823
222	0xbb8e985f	-0.00435166
223	0x3e0a69de	0.13516948
224	0xbdc5702c	-0.09640536
225	0x3e2ef8c6	0.17087087
226	0x3e5df3e4	0.21675068
227	0xbd37a808	-0.04483798
228	0xbdda5bc1	-0.10662032
229	0xbe3eccf3	-0.1863287
230	0xbe86608b	-0.2624553
231	0x3e8228f1	0.2542186
232	0xbf078a1c	-0.52945113
233	0xbd884929	-0.06654579
234	0xbd37c3a7	-0.044864323
235	0xbec9f0a6	-0.39441413
236	0xbe3042ac	-0.17212933
237	0xbef6f140	-0.48230934
238	0xbee2269e	-0.44170088
239	0xbe696a07	-0.22794352
240	0x3cbc1c67	0.022962762
241	0xbc848462	-0.016176406
242	0xbb82601c	-0.0039787423
243	0x3e371272	0.1787813
244	0x3da6d508	0.08146101
245	0x3e45747c	0.19282717
246	0xbd73c7b2	-0.059516616
247	0x3cbbf63e	0.022944566
248	0x3d1648f9	0.036690686
249	0xbc8c0bf7	-0.017095549
250	0x3d2f3cb2	0.042782493
251	0xbdf908ce	-0.121598825
252	0xbc48e4ef	-0.012261613
253	0x3d2c80c2	0.04211498
254	0xbd2039d0	-0.039117634
255	0x3e204446	0.15651044
