data/MTMR_28002/sim/random/Dist_0.02/train/N50/D6_SinCosInput/9/result/model/ReLU_Dual_UDirection_PKD.pt (torch_old, 22776 bytes, 20 tensors)

input_mean f4 [12]
0	0xbb805464	-0.00391631
1	0x3e819d94	0.25315535
2	0x3a9787f8	0.0011560908
3	0x3e799ce2	0.24376252
4	0x3e7829d6	0.24234709
5	0xbb164681	-0.0022930207
6	0x3f6bd1fd	0.9211729
7	0x3f6c1c4d	0.92230684
8	0x3f712849	0.94202095
9	0x3e365af7	0.17808138
10	0x3e791ffb	0.24328606
11	0x3f6be720	0.92149544

input_std f4 [12]
0	0x3ec3f86f	0.38275477
1	0x3e8ef41f	0.27920625
2	0x3ea9cbdc	0.33163345
3	0x3f22a1e7	0.63528293
4	0x3f29b111	0.66285807
5	0x3ec39b3e	0.38204378
6	0x3d8fb5b5	0.0701708
7	0x3daf0e7f	0.08547687
8	0x3d516f69	0.05113164
9	0x3f35f91a	0.71083224
10	0x3f2a54c9	0.6653562
11	0x3d8f1def	0.06988131

output_mean f4 [6]
0	0x3363f3f4	5.307443e-08
1	0x3eb8c3a8	0.36086774
2	0x3e49a5dd	0.19692178
3	0xbbecd298	-0.007227253
4	0x3b463390	0.0030243136
5	0x3aaeacd7	0.0013326657

output_std f4 [6]
0	0x37135227	8.78101e-06
1	0x3e55fe33	0.2089775
2	0x3e223ceb	0.15843551
3	0x3d7e27bb	0.06204961
4	0x3d22f1f7	0.039781537
5	0x3c1abe97	0.009444854

pos_net.linears.0.weight f4 [30, 12]
0	0xbe61fc43	-0.22068886
1	0x3e0dccaf	0.13847612
2	0xbe919736	-0.28435677
3	0xbe2b744a	-0.1674358
4	0xbeac78e6	-0.33685988
5	0x3ccf71e8	0.02532287
6	0x3d7fcf87	0.062453773
7	0xbd342a03	-0.043985378
8	0x3e669756	0.22518668
9	0x3dcd34aa	0.100198105
10	0xbcf2aedc	-0.029624395
11	0xbf13c988	-0.5772939
12	0xbe3da0fd	-0.18518443
13	0xbe9a2b8b	-0.30111346
14	0x3e90d494	0.28287184
15	0x3d99c3c5	0.07508043
16	0xbf1e633d	-0.61870176
17	0xbe1655c6	-0.14681157
18	0x3e28234b	0.16419713
19	0x3e913517	0.28360817
20	0xbf096930	-0.5367613
21	0xbe612eb6	-0.21990475
22	0xbda591b2	-0.0808443
23	0xbf0e9cbb	-0.557079
24	0xba0179db	-0.00049391174
25	0xbdfd8e08	-0.12380606
26	0xbeb2b104	-0.34900677
27	0x3ec6265a	0.38701135
28	0x3eda9df4	0.42698634
29	0xbd955363	-0.072912954
30	0x3e21cc57	0.15800606
31	0x3ee86935	0.45392767
32	0xbf05d0b9	-0.5227161
33	0xbea7cac2	-0.3277188
34	0xbf975854	-1.1823831
35	0xbea94483	-0.33060083
36	0xbd72d8d8	-0.05928883
37	0xbd10fbad	-0.035396267
38	0xbdf68325	-0.120367326
39	0xbe988ea3	-0.29796323
40	0xbe96709b	-0.29382786
41	0xbe102acd	-0.14078827
42	0xbe9cdb43	-0.30636033
43	0x3e8ab24c	0.27089155
44	0x3ce6a633	0.028155422
45	0x3f39ca7d	0.725746
46	0xbe43cd24	-0.19121224
47	0xbe1f362c	-0.15548009
48	0x3f5b7441	0.85724264
49	0xbe462cb0	-0.19352984
50	0x3ec19482	0.37808615
51	0x3e034cb4	0.12822229
52	0x3dd80fc0	0.10549879
53	0xbe711cb7	-0.2354611
54	0xbe99cff0	-0.30041456
55	0x3ddf4681	0.109021194
56	0x3a073190	0.00051572267
57	0x3ed0c98e	0.40778774
58	0x3f125e7f	0.5717544
59	0xbec52f94	-0.38512862
60	0xbd9f2e28	-0.077724755
61	0x3d9e7d3c	0.0773873
62	0xbea2867c	-0.31743228
63	0xbe4b4c65	-0.19853361
64	0xbf00eb45	-0.5035899
65	0xbdbf99e6	-0.09355526
66	0x3e68a158	0.22717798
67	0x3e9677c1	0.2938824
68	0x3d094abc	0.033518538
69	0x3e1101fc	0.14160913
70	0xbdba10e9	-0.090852566
71	0xbeb85827	-0.36004755
72	0xbe8186d5	-0.2529818
73	0xbe5decbe	-0.21672341
74	0xbf78de27	-0.9721398
75	0xbd0848be	-0.033272497
76	0x3daae4dc	0.08344433
77	0xbf02b37e	-0.51055133
78	0x3d914e73	0.07095041
79	0x3e284ca6	0.16435489
80	0xbe6cf73d	-0.23141189
81	0xbf011430	-0.5042143
82	0x3dd28c6e	0.10280691
83	0x3e752101	0.23938371
84	0x3f1345c7	0.57528347
85	0x3dbd82fc	0.09253499
86	0x3e5206c8	0.205104
87	0xbe04a235	-0.12952502
88	0xbf1ac9b3	-0.6046402
89	0xbe1513ff	-0.14558409
90	0x3e615869	0.22006382
91	0x3f0b6784	0.5445483
92	0x3f167fbb	0.5878865
93	0xbe69c512	-0.22829083
94	0x3e4c1837	0.19931112
95	0xbe852818	-0.26007152
96	0xbf17334f	-0.59062666
97	0x3ef11679	0.47087458
98	0x3e784e5a	0.24248639
99	0x3d851634	0.064983755
100	0x3edc445a	0.43020898
101	0x3e4ea192	0.20178822
102	0xbda488fe	-0.08033942
103	0xbe5c134c	-0.21491736
104	0xbaa7ae4a	-0.0012793031
105	0x3e1165f0	0.14199042
106	0xbf58d196	-0.846948
107	0xbe983fda	-0.29736215
108	0x3e97722e	0.295793
109	0xbdca8de4	-0.09890345
110	0xbeec5abb	-0.46162972
111	0x3e6a324f	0.22870754
112	0xbf87dd16	-1.0614345
113	0xbe06b191	-0.13153674
114	0x3e652d2e	0.22380516
115	0xbddd0ea0	-0.10793805
116	0x3ca469a1	0.020069899
117	0xbe6507f3	-0.22366314
118	0x3eb5fa23	0.35542402
119	0xbe5ac2b4	-0.21363336
120	0x3ef7ea91	0.48421147
121	0x3c62d878	0.0138455555
122	0x3d437ae0	0.047724605
123	0x3eaddbc7	0.3395674
124	0xbf442984	-0.7662585
125	0xbecbee32	-0.39830166
126	0xbee0e10e	-0.43921703
127	0x3dac45da	0.08411761
128	0xbed00ac0	-0.40633202
129	0x3e2a0f15	0.16607316
130	0x3e9dca93	0.30818614
131	0x3f1d2712	0.6138774
132	0xbea4f2c3	-0.32216462
133	0xbd96b78a	-0.07359226
134	0x3de7143c	0.11283156
135	0xbc861cd8	-0.016371176
136	0xbe206da2	-0.15666822
137	0xbec12205	-0.37721267
138	0x3b180b3e	0.002320006
139	0x3e5df58f	0.21675704
140	0x3c6d1440	0.01447016
141	0x3e85a998	0.26105952
142	0xbebbfa8b	-0.36714587
143	0x3e93fa4d	0.28901902
144	0x3f3f3038	0.7468295
145	0x3ebb834f	0.36623618
146	0x3e2be6a7	0.16787206
147	0x3e38b35d	0.18037172
148	0xbf2ae133	-0.66749877
149	0x3c9e3b92	0.019315515
150	0xbedc1dca	-0.42991477
151	0xbeaa1516	-0.33219212
152	0x3d04315b	0.03227363
153	0xbf342201	-0.70364386
154	0xbbb60278	-0.0055544935
155	0x3ded194c	0.115770906
156	0xbf50b20f	-0.81521696
157	0xbdcebbc0	-0.10094404
158	0xbcc74b4f	-0.024327902
159	0xbe5b153f	-0.21394823
160	0x3edc16a8	0.42986035
161	0xbe2796a7	-0.16366063
162	0xbefb1c88	-0.49045205
163	0xbe94668e	-0.28984493
164	0x3e1b2ff7	0.15155016
165	0x3d7e035f	0.062014934
166	0xbe988d81	-0.2979546
167	0x3df5b812	0.11997999
168	0xbf0aecb7	-0.5426745
169	0x3cf5bb0e	0.029996421
170	0xbd005fec	-0.03134148
171	0x3edcb72c	0.431085
172	0x3efe1109	0.49622372
173	0x3eac7ec4	0.33690464
174	0xbde720ed	-0.11285577
175	0xbc1c952c	-0.00955705
176	0xbe126997	-0.14298092
177	0x3e3501e6	0.17676505
178	0xbf7089db	-0.9396035
179	0x3dbeb90c	0.09312639
180	0xbe492304	-0.19642264
181	0xbf08d4a6	-0.53449476
182	0x3d3162a6	0.04330697
183	0xbe74fe1f	-0.23925065
184	0xbf0d076f	-0.5508947
185	0xbcd5e776	-0.026111346
186	0x3b6b5fb2	0.0035915193
187	0x3eb4ae37	0.35289165
188	0xbec2ca43	-0.38044938
189	0x3d6f5eda	0.058440067
190	0xbe820998	-0.25397944
191	0x3e962e8c	0.29332387
192	0x3f34780a	0.70495665
193	0x3eaf6d07	0.3426287
194	0xbd93c215	-0.072147526
195	0xbe754eff	-0.23955916
196	0xbecdf18c	-0.40223348
197	0xbf0f87f3	-0.5606682
198	0x3d16c026	0.03680434
199	0x3daac3f4	0.08338156
200	0x3e18860a	0.14894882
201	0xbe72bf12	-0.237057
202	0x3e3498ee	0.17636463
203	0xbe642d2b	-0.22282855
204	0xbe9a14ec	-0.30094087
205	0x3efe980e	0.49725384
206	0x3e6b6ed5	0.22991498
207	0x3d857906	0.06517224
208	0x3eccfa77	0.4003484
209	0x3edb00b8	0.42773986
210	0x3dab386c	0.08360371
211	0x3dd50701	0.104017265
212	0x3d8fbf64	0.07018927
213	0x3cc16181	0.023606064
214	0xbf913d09	-1.1346751
215	0x3e7da3f0	0.24769568
216	0xbf31a9db	-0.69399804
217	0x3e3fda7c	0.18735689
218	0x3ef1355d	0.47111025
219	0xbf1fac7f	-0.62372583
220	0x3e5850e5	0.21124609
221	0x3ebb4478	0.36575675
222	0xbe50d0bf	-0.2039213
223	0x3d3fdb64	0.046840087
224	0x3e5c943f	0.21540926
225	0x3ef26985	0.4734613
226	0xbeb31b4a	-0.34981757
227	0x3f125f3b	0.5717656
228	0x3f36803b	0.71289414
229	0x3e0451b3	0.12921791
230	0xbecbb479	-0.39786127
231	0xbf005d01	-0.5014191
232	0xbf21895d	-0.63100225
233	0xbd51d737	-0.051230635
234	0x3eaa3d3a	0.33249837
235	0x3dd87c30	0.10570562
236	0xbe505fcc	-0.20349044
237	0xbb878158	-0.004135292
238	0xbf0a68a5	-0.54065925
239	0x3ea80f67	0.3282425
240	0x3efb98a4	0.49139893
241	0xbe95c4cf	-0.29251716
242	0xbf4f0e40	-0.8088112
243	0x3e00b630	0.12569499
244	0x3e007cb1	0.12547566
245	0x3e92ca89	0.28670147
246	0xbec1c6d2	-0.37847
247	0xbe077a1a	-0.13230172
248	0x3dc01769	0.09379465
249	0x3e860367	0.2617447
250	0x3f0c012d	0.54689294
251	0x3ec7195c	0.38886535
252	0x3f30f498	0.6912322
253	0x3d9b3bc3	0.07579758
254	0x3e67f5e2	0.2265239
255	0xbea45b4d	-0.32100907

pos_net.linears.0.bias f4 [30]
0	0xbe8354c4	-0.2565061
1	0xbd964995	-0.073382534
2	0x3eee3c41	0.46530345
3	0xbe12c07b	-0.14331238
4	0x3dd1db52	0.1024691
5	0xbeb3b4c7	-0.3509886
6	0xbe6bb99f	-0.23020028
7	0xbb2d924e	-0.002648491
8	0x3c9d4d48	0.01920189
9	0xbd796bf9	-0.060893986
10	0x3c1af5d3	0.009458023
11	0xbef9d0fe	-0.4879226
12	0x3d8ccb6d	0.06874738
13	0xbdb69992	-0.0891601
14	0x3eed9613	0.4640356
15	0xbf129029	-0.5725122
16	0x3db1b831	0.0867771
17	0x3e2d540e	0.16926596
18	0x3da981b9	0.08276696
19	0xbe900dbd	-0.2813548
20	0xbe217a35	-0.15769275
21	0x3e861744	0.26189625
22	0x3e719e23	0.2359548
23	0x3e909aa6	0.28242987
24	0xbe51fc48	-0.20506394
25	0xbecb502a	-0.39709598
26	0xbec2ff17	-0.38085243
27	0x3e2ad9e2	0.16684678
28	0x3ddb3c95	0.107049145
29	0x3e5220ed	0.20520373

pos_net.linears.1.weight f4 [30, 30]
0	0x3e2adab4	0.16684991
1	0x3d86b6b2	0.06577815
2	0x3eaadd38	0.33371902
3	0x3c8be473	0.017076707
4	0xbe2b0524	-0.1670118
5	0xbe20d466	-0.15706024
6	0xbead2166	-0.33814543
7	0xbe66a2de	-0.22523066
8	0x3ec2bf04	0.38036358
9	0xbef3db46	-0.4762823
10	0xbef83fd1	-0.48486188
11	0x3d9d487e	0.076798424
12	0x3dc6b6fb	0.097028695
13	0x3ea5a07f	0.3234901
14	0x3ed5653d	0.416788
15	0xbe1702f9	-0.14747228
16	0xbeefd364	-0.46840966
17	0x3ed3e5ae	0.4138617
18	0x3e803e88	0.25047708
19	0x3df911ab	0.12161573
20	0xbf04b440	-0.5183754
21	0x3e40beb3	0.18822746
22	0x3e86a011	0.26293996
23	0x3dc7fbba	0.0976481
24	0xbdba349e	-0.09092067
25	0xbaafcd88	-0.0013412694
26	0xbbd03f50	-0.0063552037
27	0xbea79dd5	-0.32737604
28	0x3ecc221e	0.3986978
29	0x3dcb54e6	0.099283025
30	0x3deccb24	0.115621835
31	0x3e4af980	0.19821739
32	0xbed456f7	-0.414726
33	0x3d847597	0.06467741
34	0x3ddce315	0.107855
35	0x3e935c96	0.28781575
36	0xbe630b08	-0.22172177
37	0x3e5a2916	0.21304736
38	0xbc9d19e7	-0.01917739
39	0x3ebc3e46	0.3676626
40	0x3e336d9d	0.17522283
41	0x3b43ac60	0.0029857382
42	0x3e8f4b2f	0.27987048
43	0x3db0e490	0.08637345
44	0xbecaea12	-0.39631706
45	0xbda9d8bf	-0.08293294
46	0x3b607e64	0.0034255022
47	0xbf171dd7	-0.59029907
48	0xbf36e707	-0.7144627
49	0x3e9e0a52	0.3086725
50	0x3e680bde	0.22660777
51	0x3ed4c301	0.41555026
52	0xbe9742d2	-0.29543167
53	0x3e51d75f	0.20492314
54	0xbcaf4622	-0.021395747
55	0x3e7cfb58	0.24705255
56	0x3d33c688	0.043890506
57	0x3e521d30	0.20518947
58	0xbe5c0ff1	-0.21490456
59	0x3efc3e58	0.49266315
60	0xbdaa667d	-0.08320329
61	0x3c66ae39	0.014079624
62	0x3ee38883	0.44440088
63	0x3e1ba583	0.15199856
64	0xbe5d89b6	-0.21634564
65	0xbe1a10ad	-0.15045424
66	0x3edf90ec	0.43665254
67	0xbe5ae3e6	-0.21375999
68	0x3e62ee36	0.22161183
69	0xbf099eab	-0.53757733
70	0xbea387cd	-0.31939545
71	0x3e844539	0.25834063
72	0x3c75c0dc	0.014999595
73	0x3eef1736	0.46697396
74	0x3ed8527c	0.4225043
75	0x3d42244f	0.047397908
76	0xbd8a4ac7	-0.06752544
77	0x3ef11854	0.47088873
78	0x3ef6cf3b	0.4820498
79	0x3ec98351	0.39358
80	0xbe94b150	-0.2904153
81	0x3e5e2341	0.21693136
82	0x3f01ea3c	0.5074804
83	0x3eaf7a63	0.3427306
84	0x3ea3c8cc	0.31989133
85	0xbc6e15fe	-0.0145316105
86	0xbebba977	-0.3665273
87	0xbebca2b8	-0.36842895
88	0x3f0cef21	0.5505238
89	0x3dcb88f9	0.09938235
90	0x3eda80ae	0.426763
91	0xbf0df053	-0.5544483
92	0xbe16a9ef	-0.14713262
93	0xbe1f616e	-0.1556451
94	0xbed84658	-0.42241168
95	0x3e471dac	0.19444913
96	0xbed38dbc	-0.41319072
97	0x3d974668	0.07386476
98	0xbd9d3d76	-0.07677738
99	0x3f1b2338	0.60600615
100	0xbef7896b	-0.4834703
101	0xbe9f7453	-0.31143436
102	0xbd9bc1c8	-0.0760532
103	0x3d8c021d	0.068363406
104	0xbe1bf3bb	-0.15229695
105	0xbde06312	-0.10956396
106	0xbf002562	-0.5005704
107	0xbd87e92f	-0.06636273
108	0x3eaa6267	0.332782
109	0x3c377bd7	0.011198959
110	0x3db19958	0.08671826
111	0x3ead0420	0.3379221
112	0x3e760182	0.24024013
113	0x3f066eee	0.52513015
114	0x3ef0c158	0.4702251
115	0xbeb0303b	-0.34411797
116	0x3ea3c6a2	0.31987482
117	0x3d9e6512	0.077341214
118	0x3ee25d44	0.4421178
119	0xbd4f8571	-0.05066437
120	0x3e67ccc5	0.22636707
121	0x3ebbe2d9	0.3669651
122	0xbee910e8	-0.4552071
123	0xbe8a8bc7	-0.27059767
124	0xbe094389	-0.13404669
125	0x3e8f46a8	0.27983594
126	0x3ce36600	0.027758598
127	0x3eb17302	0.34658056
128	0xbebe4889	-0.37164715
129	0x3e912c65	0.28354183
130	0x3eadfead	0.33983365
131	0xbea25bd1	-0.31710675
132	0x3ead76ce	0.33879703
133	0xbdde7e3b	-0.1086392
134	0xbf2533f4	-0.645324
135	0x3e7af68a	0.2450811
136	0x3e28b655	0.16475804
137	0xbf025d8e	-0.50924003
138	0xbf5cc965	-0.86244804
139	0x3ec6ed2b	0.3885282
140	0x3eaf2d4f	0.34214255
141	0x3ee427d3	0.44561633
142	0x3d853063	0.0650337
143	0x3e56df1e	0.2098355
144	0x3d9b306e	0.075775966
145	0x3d0933ec	0.033496782
146	0x3ea71a8e	0.32637447
147	0x3e2d7b53	0.16941576
148	0xbec020bb	-0.3752497
149	0x3eb48d50	0.35264063
150	0xbf19f848	-0.6014447
151	0x3e07a5f9	0.13246907
152	0xbf48cb9a	-0.7843567
153	0xbf0140d4	-0.50489545
154	0xbebd1a35	-0.36934057
155	0xbe756cf8	-0.2396735
156	0xbf07a915	-0.52992374
157	0x3d9d8e21	0.076931246
158	0xbe03a25c	-0.12854904
159	0x3ea85515	0.32877412
160	0x3ea0baf3	0.3139263
161	0xbee815ab	-0.4532903
162	0x3eb4d64c	0.35319746
163	0xbe0479a2	-0.12937024
164	0xbf378bf2	-0.71697915
165	0x3e63881a	0.22219887
166	0xbe8e81cd	-0.27833405
167	0xbf1b7e2f	-0.60739416
168	0xbf1cdd40	-0.612751
169	0x3da79e3f	0.0818448
170	0xbe43fa0c	-0.19138354
171	0x3ea9179a	0.3302582
172	0xbdccb945	-0.09996275
173	0xbed2f26e	-0.41200584
174	0xbec6524c	-0.38734663
175	0xbf20b289	-0.62772423
176	0xbe5a2909	-0.21304716
177	0xbef9db61	-0.48800185
178	0xbf34d6c4	-0.70640206
179	0x3ee7f262	0.4530211
180	0xbf028bfd	-0.50994855
181	0x3ee487bf	0.44634816
182	0xbd68c14f	-0.05682498
183	0xbe568fb0	-0.2095325
184	0xbebc16f8	-0.36736274
185	0xbecc2cd2	-0.39877945
186	0xbea55c62	-0.32297045
187	0xbec0f787	-0.37688848
188	0xbe25ac3e	-0.16178986
189	0xbeb6ad7b	-0.3567923
190	0xbf647299	-0.8923736
191	0xbecbd8a8	-0.39813733
192	0xbecfca6a	-0.40584117
193	0x3d8db383	0.06919005
194	0x3c3edbac	0.011649054
195	0xbdded8ce	-0.10881196
196	0xbeb7e691	-0.35918096
197	0xbeaa9c12	-0.33322197
198	0xbe431c79	-0.1905383
199	0xbf005f46	-0.50145376
200	0xbd6345a7	-0.055486348
201	0x3c28754f	0.010281875
202	0xbe8ec985	-0.27888122
203	0xbf15b307	-0.584763
204	0xbf2315d1	-0.63705164
205	0x3b923762	0.0044621686
206	0xbf02f6e5	-0.5115798
207	0xbc919f5e	-0.017776188
208	0x3d2dc542	0.042424448
209	0xbf150ba6	-0.582209
210	0xbe63c42f	-0.22242807
211	0xbf0fe7d2	-0.56213105
212	0xbf106858	-0.56409216
213	0xbe0a5a01	-0.13510896
214	0xbf138295	-0.5762113
215	0x3f0b8d44	0.5451243
216	0xbe013428	-0.12617552
217	0xbe96ea4a	-0.29475623
218	0xbec00699	-0.37505034
219	0x3f1a2ace	0.60221565
220	0x3d0c9193	0.034318518
221	0xbf077890	-0.5291834
222	0xbf357b8b	-0.70891637
223	0x3d5dc939	0.05414698
224	0xbc5507bb	-0.013002331
225	0xbe8e63b0	-0.2781043
226	0xbe75d82a	-0.24008241
227	0x3d7477a7	0.059684422
228	0xbd04f25a	-0.032457687
229	0x3f1251a3	0.5715582
230	0x3e8fcfdc	0.28088272
231	0xbd167c9e	-0.036739938
232	0xbde16904	-0.11006358
233	0x3dd8783f	0.1056981
234	0xbef8e2f0	-0.4861064
235	0xbef8654c	-0.48514783
236	0x3da599f4	0.08086005
237	0x3ded1a22	0.1157725
238	0x3e89c972	0.26911503
239	0xbf0bfbca	-0.54681075
240	0xbe239903	-0.15976338
241	0xbbdc2a5a	-0.006718916
242	0xbda40857	-0.08009403
243	0x3cd5fc48	0.026121274
244	0xbdc01904	-0.09379771
245	0x3ce5d939	0.028057681
246	0x3d151b76	0.036403142
247	0xbe376c4a	-0.17912403
248	0x3d022bf8	0.031780213
249	0x3d26820a	0.04065136
250	0x3d86ba47	0.06578498
251	0xbd678f4d	-0.056533147
252	0xbdbcc674	-0.092175394
253	0xbb51772a	-0.0031961896
254	0xbd09a159	-0.03360114
255	0x3b8831b8	0.0041563176

pos_net.linears.1.bias f4 [30]
0	0x3d0bc9ea	0.034128107
1	0x3e3b6dbe	0.18303582
2	0x3eb2820a	0.34864837
3	0xbe0b4a2f	-0.13602518
4	0x3e080f74	0.13287145
5	0xbddf6898	-0.109086215
6	0xbeab9883	-0.33514795
7	0xbe47ebab	-0.19523494
8	0xbe787030	-0.24261546
9	0xbeac6628	-0.3367169
10	0x3e051f90	0.13000321
11	0x3d83f2de	0.064428076
12	0x3d4f4f8f	0.050612982
13	0x3dc663ad	0.096869804
14	0xbd8c9cd2	-0.068658486
15	0x3ddbc2f4	0.10730544
16	0xbe32c3e5	-0.1745754
17	0xbee08146	-0.43848628
18	0xbef2b9d4	-0.474074
19	0xbd1defa9	-0.038558636
20	0x3ebc617e	0.3679313
21	0xbeb8b9a2	-0.36079127
22	0x3e661f4d	0.22472878
23	0x3e58b469	0.21162571
24	0x3e8dc711	0.27690938
25	0x3e89fc18	0.26950145
26	0x3e92f28e	0.2870068
27	0x3ea3f148	0.3202002
28	0x3eb1ee6e	0.3475222
29	0x3d66d08d	0.056351233

pos_net.linears.2.weight f4 [30, 30]
0	0x3eaeedcb	0.34165797
1	0xbed46052	-0.41479737
2	0x3e68401f	0.2268071
3	0xbebecf8d	-0.37267724
4	0xbe96b5c2	-0.29435545
5	0x3d1f7c1d	0.038936723
6	0xbed6f85f	-0.41986367
7	0xbe2332fe	-0.1593742
8	0x3cae0112	0.021240745
9	0xbcf1cdb1	-0.029517027
10	0x3dde2cb6	0.10848372
11	0x3e22a1b5	0.15881999
12	0x3e15b8b3	0.14621238
13	0x3c36ec90	0.011164799
14	0x3e3b3ba5	0.18284471
15	0xbeb3dc94	-0.35129225
16	0x3ab1a9bc	0.0013554613
17	0xbdf4f063	-0.11959913
18	0xbecd6a90	-0.40120363
19	0x3e3f6808	0.18692029
20	0x3e9bf192	0.3045774
21	0x3d283901	0.04106999
22	0x3d92ddfa	0.07171245
23	0xbe822914	-0.25421965
24	0x3c3f6a6a	0.011683086
25	0xbd650a68	-0.055918127
26	0xbee438f1	-0.44574693
27	0x3e86aa73	0.26301917
28	0xbf53d1fb	-0.8274228
29	0xbdb0aeff	-0.08627128
30	0x3e3f2dce	0.18669817
31	0xbecb44bd	-0.3970088
32	0x3e2b24be	0.16713235
33	0x3d90d9a4	0.07072762
34	0xbe915919	-0.2838829
35	0xbe8db877	-0.27679798
36	0xbee19b81	-0.44063953
37	0x3e9e14dd	0.30875292
38	0x3ca0f4d8	0.019648
39	0x3e9900c5	0.298834
40	0xbeabdd4c	-0.33567274
41	0xbe3a3cf2	-0.18187311
42	0x3e2bfb41	0.16795065
43	0x3e46c319	0.19410361
44	0xbe5e89d5	-0.21732266
45	0xbe869459	-0.26285055
46	0xbe8f94e4	-0.28043282
47	0x3c39f08b	0.011348854
48	0xbe26d30e	-0.16291448
49	0x3ce86228	0.028367117
50	0xbe94e887	-0.29083654
51	0x3e82c576	0.25541276
52	0xbe693228	-0.2277304
53	0xbdc52a8d	-0.096272565
54	0xbe43fc90	-0.19139314
55	0xbe1e8bb5	-0.15482982
56	0xbf186dfb	-0.59542817
57	0x3c4c6965	0.0124763
58	0x3e1e3f98	0.15453947
59	0xbe9a4cc8	-0.30136704
60	0xbe83034c	-0.25588453
61	0xbe2d7045	-0.16937359
62	0xbe93a2fc	-0.28835285
63	0x3e1c686a	0.15274206
64	0xbe77d0d1	-0.24200751
65	0xbadeb060	-0.001698982
66	0xbcccbdc3	-0.02499283
67	0xbedc5a01	-0.43037418
68	0xbc732c59	-0.014842116
69	0xbe82a089	-0.25513104
70	0xbe3a7d44	-0.18211848
71	0xbe8c458c	-0.2739681
72	0xbe8decdb	-0.2771977
73	0xbeb80d42	-0.35947615
74	0xbe752ae5	-0.23942144
75	0xbe4bfc88	-0.19920552
76	0xbe558af5	-0.20853789
77	0xbd0fe3ef	-0.035129484
78	0xbb9ca452	-0.0047803307
79	0x3c8594e1	0.016306343
80	0xbe900785	-0.28130737
81	0xbef16e91	-0.47154668
82	0xbe65387e	-0.22384831
83	0xbe60995c	-0.21933502
84	0xbeb9b7ca	-0.36273032
85	0xbe8aaf58	-0.27086902
86	0xbe6593ec	-0.22419709
87	0xbebd0f8d	-0.36925927
88	0xbe9011ad	-0.28138486
89	0xbe4ccfc5	-0.20001133
90	0xbec65e56	-0.38743848
91	0x3e835d6e	0.2565722
92	0xbf2c8a54	-0.6739857
93	0xbe360623	-0.17775778
94	0x3ecda6d9	0.40166357
95	0x3f0d7d40	0.5526924
96	0xbeb8bf58	-0.36083484
97	0x3df1e330	0.11810911
98	0x3bd0cab9	0.0063718227
99	0x3e4ff338	0.20307624
100	0x3ebd997a	0.37031156
101	0x3eb22f7b	0.3480185
102	0x3e73f722	0.23824742
103	0xbf38deab	-0.72214764
104	0x3f178961	0.59194
105	0x3dd64005	0.104614295
106	0x3d6b9c23	0.05752195
107	0xbe89acb7	-0.26889583
108	0xbe167d31	-0.14696194
109	0x3df54e7f	0.119778626
110	0x3eacb8d9	0.33734778
111	0x3d4d88b4	0.0501792
112	0xbe8176e8	-0.2528603
113	0x3d13fadb	0.036127906
114	0xbe442a4a	-0.19156757
115	0x3eaf93f4	0.34292567
116	0x3b1c5c42	0.00238587
117	0xbf1d58d4	-0.61463666
118	0xbe6f5f89	-0.23376288
119	0x3d4db604	0.05022241
120	0x3e97e83f	0.29669377
121	0x3d237c8a	0.03991369
122	0x3eb5ba20	0.35493565
123	0xbd7d4ec6	-0.061842702
124	0x3e82974f	0.25506064
125	0x3e8afc1f	0.27145478
126	0x3c2203d7	0.009888611
127	0x3dba3126	0.090914056
128	0xbd1caf60	-0.038253188
129	0x3e634cee	0.22197315
130	0x3dcdd7f4	0.100509554
131	0x3e6dabcd	0.23210068
132	0x3eab1714	0.33416045
133	0x3eb261be	0.34840196
134	0x3e968dd5	0.29405084
135	0x3ecbcfe7	0.39807054
136	0xbc9482ac	-0.018128715
137	0xbd918dc5	-0.071071185
138	0xbe400bbd	-0.18754478
139	0x3e464ce0	0.19365263
140	0x3f0b7e3a	0.5448948
141	0x3d5db59a	0.054128267
142	0xbe323de0	-0.17406416
143	0xbe6982d8	-0.22803819
144	0x3e657353	0.22407274
145	0x3d9638c8	0.07335049
146	0xbeb993ca	-0.36245567
147	0x3ed5b77c	0.4174155
148	0xbeb1264e	-0.34599537
149	0xbe287634	-0.16451341
150	0xbee1c313	-0.44094142
151	0x3ecabd17	0.3959739
152	0xbf2e0878	-0.6798167
153	0xbdb1740e	-0.08664714
154	0x3ef902b1	0.48634866
155	0x3ec26197	0.3796508
156	0xbe9ca73b	-0.30596337
157	0xbe203877	-0.1564654
158	0x3c8effe8	0.01745601
159	0x3c107e9d	0.008819249
160	0x3e10137a	0.1406993
161	0xbe906cfe	-0.28208154
162	0xbe810345	-0.25197807
163	0xbe5dd365	-0.21662672
164	0x3ec65dc7	0.3874342
165	0x3e016674	0.12636739
166	0x3e99f4c1	0.30069545
167	0xbe14754e	-0.14497873
168	0xbd9e34bd	-0.07724903
169	0x3e52303a	0.2052621
170	0x3ea722f5	0.32643858
171	0xbcfb0151	-0.030640276
172	0xbe9604fb	-0.29300675
173	0x3e52fa18	0.20603216
174	0xbec9cc85	-0.3941385
175	0x3eedec70	0.4646945
176	0x3d5e0c2d	0.05421083
177	0xbeee78f4	-0.46576655
178	0xbdf1715e	-0.11789201
179	0x3ebd53cd	0.36977997
180	0xbe822c8f	-0.2542462
181	0xbcc46d61	-0.023977937
182	0xbd0145a5	-0.03156056
183	0xbd1b82ef	-0.037966665
184	0xbe3b90f7	-0.18317018
185	0xbe5378c5	-0.20651539
186	0x3cd79e7e	0.026320692
187	0xbeb593c8	-0.3546431
188	0xbda6d3f9	-0.08145899
189	0x3d348896	0.04407557
190	0xbdba8172	-0.09106721
191	0xbbef0ba8	-0.0072950907
192	0xbee8f664	-0.4550048
193	0x3cd25d40	0.02567923
194	0xbe5f9573	-0.21834354
195	0xbc985dd6	-0.018599432
196	0xbe04b696	-0.12960276
197	0xbbb00289	-0.005371396
198	0x3d697fde	0.05700671
199	0xbe0c2db3	-0.13689308
200	0x3d789d26	0.060696743
201	0x3cc22173	0.02369759
202	0xbe90b98e	-0.28266567
203	0xbe60cca2	-0.21953061
204	0xbead3fb6	-0.3383767
205	0x3d3bd7d9	0.045860145
206	0xbee1985e	-0.4406156
207	0xbed077a4	-0.4071628
208	0x3d5b53e7	0.053546812
209	0xbe9673b9	-0.29385164
210	0x3e1bcc15	0.1521457
211	0x3dabbcd4	0.083856255
212	0xbf0bbceb	-0.5458514
213	0xbf0ee237	-0.55813926
214	0x3e2ef599	0.17085876
215	0xbd41df80	-0.047332287
216	0xbdd0c62e	-0.1019405
217	0xbd10757b	-0.035268288
218	0xbd32f69c	-0.043692216
219	0x3e50dee2	0.20397523
220	0xbd8c7d3c	-0.06859824
221	0x3e520948	0.20511353
222	0xbc4d4e74	-0.012530912
223	0xbea6055d	-0.32425967
224	0x3e400dfe	0.18755338
225	0x3e8daa52	0.27669007
226	0x3c08ffec	0.008361798
227	0xbec7ed4d	-0.39048234
228	0x3c582032	0.01319127
229	0xbdb0f239	-0.0863995
230	0xbdcba041	-0.099426754
231	0xbe93aa70	-0.2884097
232	0x3e8cc889	0.27496746
233	0xbe2271d6	-0.15863737
234	0x3e08a0b3	0.13342552
235	0x3e060097	0.13086163
236	0xbe3be9ea	-0.1835095
237	0xbefd1177	-0.49427387
238	0xbda73671	-0.08164681
239	0x3d55c75d	0.05219208
240	0xbeb809ea	-0.35945064
241	0x3eeecaf4	0.46639216
242	0xbe366eda	-0.17815724
243	0x3f586adc	0.84538054
244	0x3ec3d8b2	0.38251263
245	0x3f29e358	0.66362524
246	0x3d1a90c7	0.037735727
247	0xbece3c92	-0.40280586
248	0xbae93c64	-0.0017794487
249	0x3c9b1c77	0.018934472
250	0x3ed84df1	0.42246965
251	0xbec7496a	-0.38923198
252	0xbda317a5	-0.07963494
253	0xbee9472e	-0.45562118
254	0xbcf371bc	-0.029717319
255	0x3e83d070	0.25744963

pos_net.linears.2.bias f4 [30]
0	0x3dbd315e	0.09237932
1	0xbe56f072	-0.2099016
2	0xbec2e0bf	-0.38062093
3	0x3f054516	0.5205854
4	0x3ebf8cc1	0.37412074
5	0x3dfce3aa	0.12348111
6	0xbe4434d1	-0.19160773
7	0x39a761d0	0.00031925598
8	0x3ef753c8	0.48306108
9	0xbe29274d	-0.16518898
10	0x3d486976	0.0489287
11	0xbed82a55	-0.42219797
12	0x3f04617d	0.51711255
13	0x3ddd573d	0.10807655
14	0x3f00353b	0.50081223
15	0xbe82105c	-0.25403106
16	0x3e49baea	0.19700208
17	0xbee0449f	-0.43802354
18	0xbda9036f	-0.08252608
19	0x3ed84662	0.42241198
20	0xbed28d53	-0.41123447
21	0xbd44b1b3	-0.04802103
22	0x3e968405	0.29397598
23	0x3e77295b	0.2413687
24	0xbe2b3774	-0.16720372
25	0xbe84e2ca	-0.25954276
26	0xbf085585	-0.5325549
27	0xbe60bda9	-0.2194735
28	0x3d443851	0.04790527
29	0xbd2358c1	-0.039879564

pos_net.output_layer.weight f4 [6, 30]
0	0x3edda752	0.43291718
1	0x3ed199e7	0.4093773
2	0x3ec168b8	0.37775207
3	0xbf2345ad	-0.6377819
4	0x3f2a6b36	0.6656984
5	0xbf05c66e	-0.52255905
6	0xbdb5a36f	-0.08869063
7	0xbe430fb8	-0.19048965
8	0xbf09e2fc	-0.53861976
9	0xbf0a1f11	-0.53953654
10	0x3f02390d	0.508683
11	0x3c9b1fcd	0.018936062
12	0x3ee8df3e	0.4548282
13	0xbedd871a	-0.43267137
14	0x3f1d82e1	0.6152783
15	0xbd13045a	-0.03589282
16	0xbf01fa6f	-0.50772756
17	0x3e898376	0.2685811
18	0x3eebb9f0	0.46040297
19	0xbbed0f55	-0.0072344937
20	0x3cf52378	0.02992414
21	0x3f0edf39	0.5580936
22	0x3c9f94cd	0.019480133
23	0x3f00d1fd	0.50320417
24	0x3f0ffc53	0.5624439
25	0xbdd75f9c	-0.10516283
26	0x3e887a79	0.2665594
27	0xbef660a9	-0.4812062
28	0xbeab679e	-0.3347749
29	0x3eb51309	0.35366085
30	0x3d5792db	0.052630287
31	0x3ed6ce20	0.41954136
32	0xbddf5975	-0.109057344
33	0xbe41f256	-0.189401
34	0xbdb88951	-0.09010566
35	0xbc34d120	-0.011036187
36	0xbe7ed370	-0.24885345
37	0xbdd2cf0c	-0.10293397
38	0xbd86112a	-0.065462425
39	0x3d3ae137	0.045624938
40	0x3d96b221	0.07358194
41	0x3e9d0b2b	0.30672583
42	0xbcf7b74e	-0.030238774
43	0x3e1ec860	0.15506124
44	0xbdad84d4	-0.084726006
45	0xbe60ba4e	-0.2194607
46	0x3b7909af	0.0038000157
47	0x3e29038a	0.16505256
48	0x3c44a70c	0.012002718
49	0xbe418300	-0.18897629
50	0xbd9cd646	-0.07658057
51	0x3ddef078	0.108857095
52	0xbe9de88c	-0.30841482
53	0xbc51c2bb	-0.012802775
54	0x3cfbc118	0.030731723
55	0x3a67eb00	0.00088469684
56	0x3de2f801	0.11082459
57	0xbd8b8bdb	-0.06813785
58	0x3e9d76bf	0.3075466
59	0xbea41df6	-0.32054108
60	0xbd927d1e	-0.071527705
61	0x3ebf1ca3	0.37326536
62	0x3e397c23	0.1811376
63	0xbdb88400	-0.09009552
64	0xbd14819b	-0.036256414
65	0xbe17855e	-0.1479697
66	0x3c887e68	0.016661838
67	0x3d81334e	0.06308614
68	0xbdc8d56e	-0.098063335
69	0xbe1c1a30	-0.15244365
70	0xbe1e4476	-0.15455803
71	0x3dd900ab	0.105958305
72	0xbc3e8f48	-0.011630841
73	0x3dfee555	0.12446085
74	0xbcd4df3e	-0.025985356
75	0xbe116f1f	-0.14202546
76	0x3d8006b2	0.06251277
77	0x3eb2499f	0.34821793
78	0xbe077853	-0.13229494
79	0xbedee8aa	-0.43536884
80	0x3e10322f	0.14081644
81	0x3e45ffab	0.19335811
82	0xbe0fd4fb	-0.1404609
83	0xbda280d8	-0.07934731
84	0xbd23e789	-0.04001573
85	0xbcaf1052	-0.021370087
86	0xbdac0165	-0.083987035
87	0x3de89509	0.11356551
88	0x3ec08897	0.3760421
89	0x3ed97893	0.42474803
90	0x3daaed66	0.083460614
91	0x3dba738c	0.0910407
92	0xbd4c9f17	-0.049956407
93	0x3e2f62f0	0.17127585
94	0x3e85d2d2	0.26137406
95	0x3e4881fb	0.19580834
96	0xbdccb368	-0.099951565
97	0xbdece664	-0.11567381
98	0xbe7e2dd5	-0.24822171
99	0x3ea6a831	0.32550195
100	0x3e1df9d3	0.15427332
101	0xbe3800af	-0.17969011
102	0xbe930224	-0.2871257
103	0xbe10ca55	-0.14139684
104	0xbd9d5b99	-0.076834865
105	0xbe57656e	-0.21034786
106	0x3dc190e6	0.09451465
107	0xbd22024f	-0.039552983
108	0x3d58e8ac	0.05295627
109	0xbd1145ce	-0.03546696
110	0x3e2ff004	0.17181402
111	0xbe1d81b3	-0.15381508
112	0xbe426495	-0.18983681
113	0xbd491fb2	-0.049102493
114	0x3d709eba	0.058745123
115	0x3c595317	0.013264439
116	0x3db754fe	0.08951758
117	0x3d7606d3	0.0600651
118	0xbd282d79	-0.04105899
119	0xbe2bff71	-0.16796662
120	0xbd962ab8	-0.07332367
121	0x3df5101f	0.119659655
122	0xbe41ebc0	-0.18937588
123	0xbdf64ed6	-0.120267555
124	0x3dc47bfc	0.09593961
125	0x3d06f3f1	0.032947484
126	0xbc53ea5d	-0.0129342945
127	0xbe3dc3c3	-0.18531708
128	0xbe112062	-0.1417251
129	0x3dfac45c	0.12244484
130	0x3dd08b13	0.10182776
131	0x3e04c6bc	0.12966436
132	0xbc84c1a9	-0.016205626
133	0xbda57851	-0.08079589
134	0xba674f68	-0.0008823783
135	0x3cddc599	0.027071761
136	0x3e31b5fd	0.1735458
137	0x3de65245	0.112461604
138	0x3e2eae66	0.17058715
139	0x3e0c69d1	0.13712241
140	0xbe0dd2d7	-0.1384996
141	0xbd342572	-0.043981023
142	0xbd5e93c4	-0.05434014
143	0x3d49ddf4	0.049283937
144	0xbebeaa62	-0.37239367
145	0x3e197ec8	0.1498977
146	0x3d81e242	0.063419834
147	0xbdbe942a	-0.09305604
148	0x3c1d19bc	0.009588655
149	0x3e1f142e	0.15535042
150	0x3e758525	0.23976572
151	0xbc83f7d2	-0.01610938
152	0xbe18ef89	-0.14935125
153	0x3e364368	0.17799151
154	0x3e4d05a7	0.20021687
155	0xbd511889	-0.05104879
156	0xbedcbaf1	-0.43111375
157	0x3e15c7e8	0.1462704
158	0xbe91156f	-0.28336665
159	0x3e4d6fc3	0.20062165
160	0xbdfaa3e3	-0.1223829
161	0x3e20fcb3	0.15721397
162	0x3de97a7e	0.11400317
163	0x3e8dfae9	0.27730492
164	0xbd2a72a9	-0.041613255
165	0x3e4ac72f	0.19802545
166	0x3b0ecf8c	0.0021791188
167	0xbda623bf	-0.08112287
168	0xbde94b86	-0.11391358
169	0x3ea2264a	0.31669837
170	0x3e2a6a80	0.16642189
171	0xbe2c91eb	-0.16852538
172	0x3e536bd5	0.20646603
173	0xbdc4c93b	-0.09608694
174	0xbd19ea27	-0.03757682
175	0xbcd263a2	-0.025682274
176	0xbc52e4bd	-0.012871918
177	0xbd8676bd	-0.06565616
178	0xbe9e36b4	-0.3090111
179	0xbf4139d4	-0.75478864

pos_net.output_layer.bias f4 [6]
0	0xbeda80de	-0.42676443
1	0xbec7b72c	-0.39006937
2	0xbe258da0	-0.16167307
3	0xbea4bddb	-0.32176098
4	0x3e08022e	0.13282081
5	0x3e50d9af	0.2039554

neg_net.linears.0.weight f4 [30, 12]
0	0x3ec11168	0.37708592
1	0x3e080a53	0.13285188
2	0xbd9dddef	-0.07708346
3	0xbe913a0d	-0.28364602
4	0xbeb9e8ca	-0.36310416
5	0xbe68e1b0	-0.22742343
6	0x3d9ac60e	0.07557307
7	0xbef2cde5	-0.4742271
8	0xbd182b52	-0.03715069
9	0x3e8fde4f	0.28099295
10	0x3e83b500	0.2572403
11	0xbd1ce517	-0.038304415
12	0xbf2666b1	-0.65000445
13	0x3e27173e	0.1631746
14	0x3ec3c060	0.38232708
15	0xbe4e3a34	-0.2013939
16	0x3b623fc0	0.0034522861
17	0xbe284794	-0.16433555
18	0xbde2fb78	-0.1108312
19	0xbea20d09	-0.3165057
20	0xbeb49910	-0.35273027
21	0x3e8f336c	0.2796892
22	0x3dbb605d	0.09149239
23	0xbf18c6f2	-0.59678566
24	0x3e5c4f6c	0.21514672
25	0x3e89f942	0.2694798
26	0x3f062c48	0.5241132
27	0x3e533697	0.20626293
28	0x3e9bbe31	0.30418542
29	0x3c748742	0.014924826
30	0x3e69c23a	0.22827998
31	0xbf35fa65	-0.71085197
32	0xbeb0c745	-0.3452703
33	0xbf30804d	-0.6894577
34	0xbec764d0	-0.389441
35	0x3e806755	0.25078836
36	0xbd059422	-0.032611974
37	0x3eda1f25	0.42601886
38	0x3f030975	0.51186305
39	0x3d3e8dc7	0.04652193
40	0x3e8bb187	0.2728388
41	0x3f00d837	0.5032992
42	0xbddf3627	-0.108990006
43	0xbeeabec3	-0.45848665
44	0xbefab64f	-0.48967215
45	0xbdb80701	-0.08985711
46	0xbe21d4a4	-0.15803772
47	0x3e35a784	0.17739683
48	0x3cbe808f	0.02325466
49	0x3d903651	0.0704161
50	0xbedbb154	-0.42908728
51	0xbe97fed5	-0.2968661
52	0x3d94e33e	0.072699055
53	0x3e81f74b	0.25383982
54	0xbd7c3d17	-0.061581697
55	0xbd21f82c	-0.039543316
56	0xbeae78c0	-0.340765
57	0x3e86ef5a	0.26354486
58	0xbeb7ec37	-0.35922405
59	0xbdd96a61	-0.10615993
60	0xbedf1a69	-0.43574837
61	0x3e8ed8e8	0.2789986
62	0x3f581315	0.84404117
63	0xbe97bf3e	-0.29638094
64	0x3e65213a	0.22375956
65	0x3e62f453	0.22163515
66	0xbd859032	-0.06521644
67	0xbee3d57c	-0.44498813
68	0xbea656c9	-0.32488087
69	0xbd8c93ff	-0.068641655
70	0x3d827d1d	0.0637152
71	0xbe0d76f5	-0.1381491
72	0x3f09b2ad	0.5378826
73	0xbf0f67ed	-0.56017953
74	0xbda4a263	-0.08038785
75	0xbd28f913	-0.04125316
76	0x3f2ee51c	0.68318343
77	0xbd36909b	-0.0445715
78	0xbccb4db3	-0.024817323
79	0x3e3058fa	0.17221442
80	0xbe180679	-0.14846219
81	0xbf189db9	-0.59615666
82	0xbe63f1d8	-0.22260225
83	0xbf40b671	-0.75278383
84	0x3ee95aa1	0.45576957
85	0xbe95d0ac	-0.29260767
86	0xbe67e1f4	-0.22644788
87	0x3d258936	0.040414058
88	0x3e7a8842	0.2446604
89	0x3ea0673a	0.31328756
90	0x3de87aed	0.11351571
91	0xbe82580d	-0.25457802
92	0x3e2b7639	0.16744317
93	0xbf21fad8	-0.6327338
94	0xbf48754f	-0.78304
95	0xbe2588f5	-0.16165526
96	0xbe8ad090	-0.27112246
97	0xbd31fde4	-0.04345502
98	0xbd6ba19d	-0.057527173
99	0x3ea51c93	0.32248363
100	0xbf4070cc	-0.75172114
101	0xbe447bb9	-0.19187821
102	0x3ecc434d	0.39895096
103	0xbd3ebe9f	-0.04656851
104	0xbe542c79	-0.2072009
105	0x3e0c89ef	0.13724492
106	0x3f2b8baa	0.67009985
107	0x3ebf1715	0.37322298
108	0x3f155752	0.58336365
109	0xbf239340	-0.6389656
110	0xbd83a530	-0.064279914
111	0xbe19374c	-0.149625
112	0xbda371e4	-0.07980707
113	0x3e2fca71	0.17167069
114	0xbe71df25	-0.23620279
115	0x3e649214	0.2232135
116	0xbdf19a74	-0.11797038
117	0xbe4609fa	-0.19339743
118	0xbe792738	-0.24331367
119	0xbeb26dd7	-0.34849426
120	0x3f06c45d	0.52643377
121	0xbee1ac01	-0.4407654
122	0x3d8b2890	0.06794846
123	0x3e97ffaa	0.29687244
124	0x3f256919	0.6461349
125	0x3f2f2930	0.6842222
126	0xbd17bc56	-0.037044846
127	0xbe42d653	-0.1902707
128	0xbe306d7b	-0.17229263
129	0xbeecb461	-0.46231368
130	0xbf25cf90	-0.6476984
131	0x3db4a6e4	0.08820894
132	0xbf0e854a	-0.5567213
133	0x3daac8d1	0.08339084
134	0x3e2f2841	0.171052
135	0xbdd2c10b	-0.10290726
136	0xbf6dd77f	-0.92906946
137	0x3eadc7b6	0.3394143
138	0x3d3b995c	0.04580055
139	0x3e24365e	0.16036364
140	0xbde2b44d	-0.11069546
141	0x3f0ddb66	0.554129
142	0x3df51e3e	0.11968659
143	0xbde488a5	-0.111588754
144	0x3f349fbd	0.7055624
145	0xbe9ae12b	-0.30249915
146	0xbdbc05e4	-0.09180811
147	0x3e18ac74	0.14909536
148	0x3f3880ef	0.7207174
149	0x3f061ff5	0.5239251
150	0x3ec151f5	0.3775784
151	0x3c31f7d5	0.01086231
152	0xbe8c8df9	-0.27452067
153	0xbf29adde	-0.66280925
154	0xbf0ceb9a	-0.55047
155	0x3d259432	0.040424533
156	0xbe11d8e5	-0.14242895
157	0xbe7bc3ac	-0.24586362
158	0xbd64697a	-0.055764653
159	0xbec32325	-0.3811275
160	0xbf50c9f8	-0.8155818
161	0xbe988af4	-0.29793513
162	0x3e8712f4	0.26381648
163	0xbe254b09	-0.16141905
164	0xbeb99e15	-0.3625342
165	0xbde7aecc	-0.11312637
166	0x3e29b9a6	0.16574726
167	0x3eaab551	0.33341458
168	0x3ee5433b	0.44777855
169	0xbe3ee8b8	-0.18643463
170	0xbd5107f6	-0.051032983
171	0x3eb8ec21	0.36117652
172	0x3e6af36c	0.2294442
173	0xbebaf54e	-0.36515278
174	0x3efa4497	0.48880455
175	0xbe88c15d	-0.26710024
176	0x3ed622b0	0.4182334
177	0xbe03e265	-0.12879331
178	0xbed337fa	-0.41253644
179	0xbe3e1181	-0.18561365
180	0x3e0836cc	0.13302153
181	0xbf27c610	-0.65536594
182	0x3e837c89	0.2568095
183	0xbf0226a7	-0.5084023
184	0x3dd3ed4c	0.10347995
185	0x3e2fcd97	0.1716827
186	0x3cb794b3	0.022409773
187	0x3ef15d39	0.47141436
188	0xbe166843	-0.1468821
189	0xbda2c20e	-0.07947169
190	0x3d28ef6f	0.041243967
191	0xbe960f1c	-0.29308403
192	0x3d4bae76	0.049726926
193	0xbc64be84	-0.013961438
194	0x3f406340	0.75151443
195	0xbcda3005	-0.026634226
196	0xbe518d0c	-0.20463961
197	0xbe56c767	-0.20974503
198	0xbe0d4108	-0.13794339
199	0xbe3a6af2	-0.18204859
200	0xbf1ef0a4	-0.6208594
201	0xbefffead	-0.4999899
202	0xbdaa2ab8	-0.08308929
203	0xbe0d97a9	-0.13827385
204	0x3ed0b6b5	0.40764394
205	0xbd023d79	-0.031796906
206	0xbec52a34	-0.3850876
207	0xbf6d2e5c	-0.92648864
208	0x3dbde4ca	0.09272154
209	0x3dee7641	0.11643649
210	0xbcbf3454	-0.023340382
211	0x3cddbf94	0.02706889
212	0x3e4e2153	0.201299
213	0x3e793deb	0.24340026
214	0xbf17b902	-0.59266675
215	0x3e476bdd	0.1947474
216	0x3e905fdc	0.28198135
217	0xbe3ce58d	-0.18446942
218	0x3da7d564	0.08194998
219	0xbd9347ab	-0.07191404
220	0xbdd835dc	-0.10557148
221	0x3e905b10	0.28194475
222	0xbecee4d8	-0.4040897
223	0xbdb10399	-0.08643264
224	0x3cb09d02	0.021559242
225	0xbc7dc62b	-0.015489141
226	0x3dad5bb9	0.0846476
227	0xbe52fecc	-0.2060501
228	0xbe6850b7	-0.2268704
229	0xbe3a2969	-0.18179859
230	0x3ddd1c36	0.107963964
231	0x3e1f23c6	0.1554099
232	0xbe2ae0de	-0.16687343
233	0xbeecc29d	-0.46242228
234	0x3ee7b899	0.45258024
235	0x3e83ca42	0.25740248
236	0x3ec99149	0.39368656
237	0x3f12904d	0.57251436
238	0x3f092e95	0.53586704
239	0x3c38f18c	0.011288058
240	0x3e93fa5d	0.2890195
241	0xbf0ee34c	-0.5581558
242	0xbe283dfe	-0.16429898
243	0xbf573641	-0.8406716
244	0xbe369a82	-0.17832378
245	0x3ec60706	0.38677233
246	0x3ebaafbe	0.36462206
247	0x3ea040c5	0.31299415
248	0x3aadf4cf	0.0013271811
249	0xbefad53f	-0.4899082
250	0xbec56b27	-0.38558313
251	0xbf177e1d	-0.5917681
252	0xbf28edfa	-0.65988123
253	0x3f8303f9	1.0235587
254	0x3e374a81	0.17899515
255	0xbe6ee5d4	-0.2332986

neg_net.linears.0.bias f4 [30]
0	0xbf121d46	-0.5707592
1	0x3e4f17bb	0.20223896
2	0xbdd2c473	-0.10291376
3	0xbed136a4	-0.40862
4	0xbf24466b	-0.6416995
5	0xbe81aaea	-0.2532571
6	0x3e8c4486	0.2739603
7	0x3e32fcae	0.17479202
8	0xbcf013e3	-0.029306358
9	0xbeede29a	-0.46461946
10	0x3e6308cf	0.22171329
11	0x3eb72f91	0.35778478
12	0x3e198dea	0.14995542
13	0x3e819c65	0.25314632
14	0x3e36c7fa	0.17849723
15	0xbeda4782	-0.4263268
16	0xbe9d55a7	-0.3072941
17	0xbf0bf9a1	-0.5467778
18	0xbf0761ad	-0.52883416
19	0xbe0b9693	-0.13631658
20	0xbddcfa01	-0.10789872
21	0x3e8f0f7a	0.27941495
22	0xbf003930	-0.5008726
23	0xbb87d96c	-0.0041457918
24	0x3ea052ae	0.3131308
25	0x3e674500	0.22584915
26	0xbd6d63a3	-0.05795635
27	0xbd97f040	-0.07418871
28	0x3e72e695	0.23720773
29	0xbe83b833	-0.2572647

neg_net.linears.1.weight f4 [30, 30]
0	0x3c402ebe	0.011729894
1	0xbe2e4c5f	-0.17021321
2	0xbd3d132a	-0.046160854
3	0xbe1f36e4	-0.15548283
4	0xbe4639ce	-0.19357988
5	0x3e311dcd	0.17296524
6	0xbed38c88	-0.41318154
7	0xbe4b0aec	-0.19828385
8	0xbe9b9cc2	-0.30393034
9	0xbbc9e78c	-0.0061616357
10	0xbe584d52	-0.21123245
11	0xbec60005	-0.3867189
12	0xbe9c61d8	-0.305434
13	0xbe4ef47c	-0.20210451
14	0xbe99e951	-0.3006082
15	0xbc20a5a3	-0.009805116
16	0x3ceeb866	0.029140662
17	0xbcc7544f	-0.024332194
18	0xbd06106b	-0.0327305
19	0xbea3b5a2	-0.31974512
20	0x3ce58818	0.028018996
21	0xbe938ebe	-0.2881984
22	0x3c7081b1	0.014679358
23	0x3da5e319	0.08099956
24	0x3d3574e9	0.044300947
25	0x3d573176	0.052537404
26	0x3cea2208	0.02858068
27	0xbda37a78	-0.079823434
28	0xbeefdafc	-0.4684676
29	0x3c8baf4e	0.017051365
30	0xbd490f55	-0.049086887
31	0xbe3f7d32	-0.18700102
32	0x3e05926a	0.13044134
33	0xbe3087d6	-0.17239317
34	0xbeab9024	-0.33508408
35	0xbd7e4a62	-0.062082656
36	0xbd0fc976	-0.035104237
37	0x3e348696	0.17629465
38	0xbe84706a	-0.25867015
39	0xbd7b0018	-0.061279386
40	0x3e80f27f	0.2518501
41	0xbe09397c	-0.13400835
42	0x3e3f6049	0.18689074
43	0xbe37d2f1	-0.17951562
44	0xbd8a1562	-0.0674236
45	0xbd7cc2cb	-0.061709207
46	0xbe45e9be	-0.19327447
47	0x3da0baf7	0.07848161
48	0xbe7be1bc	-0.2459783
49	0xbdce4c20	-0.100731134
50	0x3dec4943	0.11537411
51	0x3e02f6a1	0.12789394
52	0xbc589ee0	-0.0132214725
53	0x3e2ec624	0.17067772
54	0x3e638a94	0.22220832
55	0x3e5973b4	0.21235543
56	0x3eab660a	0.33476287
57	0xbdb0659a	-0.08613129
58	0x3e38501c	0.1799931
59	0xbe7d3bd7	-0.24729858
60	0x3c6b6a5e	0.014368622
61	0x3c554942	0.013017954
62	0x3eb7a1df	0.35865685
63	0x3dcb9761	0.099409826
64	0x3cba79f2	0.022763226
65	0x3e68006f	0.22656415
66	0x3ee241ee	0.44190925
67	0x3d41a6e4	0.0472783
68	0xbe8fd029	-0.280885
69	0x3e0f397c	0.13986772
70	0x3ed236e5	0.41057506
71	0xbedafad2	-0.42769486
72	0x3ec73cab	0.38913473
73	0xbedf971d	-0.43669978
74	0x3e396ddc	0.18108314
75	0xbe07eb98	-0.13273466
76	0x3ed73a92	0.42036873
77	0xbefd083b	-0.49420342
78	0xbcd57f9a	-0.026061822
79	0x3de8394c	0.113390535
80	0xbdfc7cb9	-0.123284765
81	0xbea0ec37	-0.31430218
82	0x3dc73b72	0.09728135
83	0x3e814d6d	0.25254384
84	0x3ec18d9e	0.37803358
85	0x3ec64c55	0.38730112
86	0x3ac8844e	0.0015298219
87	0x3e20ef08	0.15716183
88	0x3ed88b2d	0.42293683
89	0xbd779525	-0.06044497
90	0xbf87968d	-1.059282
91	0x3ebff515	0.3749167
92	0x3d27381b	0.04082499
93	0x3dc1d0fa	0.09463687
94	0xbea24915	-0.31696382
95	0x3f25fa68	0.64835215
96	0xbf226d19	-0.6344772
97	0xbf970391	-1.1797963
98	0xbe60f999	-0.21970214
99	0x3c4de6df	0.012567251
100	0xbf527b14	-0.8221905
101	0x3f1c31f4	0.6101372
102	0xbf5fcbb4	-0.874202
103	0xbe9b123a	-0.30287343
104	0xbf1abd5e	-0.604452
105	0xbe433c6b	-0.19066016
106	0x3ea934ef	0.33048198
107	0xbe3b9721	-0.1831937
108	0xbe8e1887	-0.27753088
109	0x3e9e6ea8	0.309438
110	0xbf3d4fb5	-0.7394975
111	0x3f1d1383	0.613579
112	0x3db24cc9	0.08706052
113	0xbf4bba5f	-0.79581255
114	0xbf24b9f9	-0.6434627
115	0xbf5ff60f	-0.8748483
116	0xbee3b0fa	-0.4447096
117	0xbef18c5a	-0.47177392
118	0xbead5606	-0.33854693
119	0x3e6a3e5c	0.2287535
120	0xbee95f28	-0.4558041
121	0xbf131faa	-0.5747019
122	0xbde59e0e	-0.11211787
123	0xbeacaaf7	-0.33724186
124	0xbe4865aa	-0.19570032
125	0xbe4226e4	-0.18960148
126	0xbe4cc760	-0.1999793
127	0xbe7a9340	-0.24470234
128	0xbf26bede	-0.6513499
129	0xbe94d2db	-0.2906712
130	0xbd8ced56	-0.06881206
131	0x3ec6c3d8	0.38821292
132	0xbdf36416	-0.11884324
133	0xbf0082e1	-0.50199705
134	0xbed2af4b	-0.41149363
135	0xbec0ea2e	-0.37678665
136	0xbf213bb2	-0.6298171
137	0x3ead3e5e	0.33836645
138	0xbe5b4c2a	-0.21415773
139	0x3bafee0d	0.005368954
140	0xbe42f830	-0.19039989
141	0x3eb73688	0.35783792
142	0xbeddbd46	-0.43308467
143	0xbee9366e	-0.4554934
144	0x3d01fa2a	0.031732716
145	0x3d61e592	0.055150576
146	0x3e3891ca	0.18024364
147	0x3d798bdc	0.060924396
148	0xbd46bf5e	-0.048522346
149	0x3e303715	0.17208512
150	0x3db47695	0.0881168
151	0x3db8bc7b	0.09020325
152	0xbe990568	-0.29886937
153	0xbe748ef1	-0.23882653
154	0xbd06621a	-0.0328084
155	0x3e137ad5	0.14402325
156	0xbe7b4741	-0.245389
157	0xbe3eb994	-0.1862548
158	0xbec3e9fd	-0.38264456
159	0xbd8e567c	-0.06950089
160	0xbe7b4ea3	-0.24541716
161	0xbe101a1b	-0.14072458
162	0xbeb27a56	-0.3485896
163	0xbee996cc	-0.4562286
164	0xbe31c853	-0.17361574
165	0xbd789773	-0.06069131
166	0xbce17059	-0.027519392
167	0x3dab617f	0.08368205
168	0xbe4acc4e	-0.19804499
169	0xbccf14ec	-0.025278531
170	0x3d7a1da0	0.06106341
171	0x3e314329	0.17310776
172	0x3d40a546	0.047032617
173	0x3d289e47	0.04116657
174	0xbe7398fc	-0.23788828
175	0xbe3444b5	-0.17604335
176	0xbe7f7cc7	-0.24949943
177	0xbe73a6b0	-0.23794055
178	0xbe656c1d	-0.22404523
179	0xbdddcf18	-0.108305156
180	0x3e4a2911	0.19742228
181	0xbea53ed0	-0.32274485
182	0x3e6b2d20	0.22966433
183	0x3d9e4b1e	0.07729171
184	0xbe70e45f	-0.23524617
185	0x3d112264	0.035433188
186	0x3e2f29cc	0.17105788
187	0x3bbd04e8	0.005768407
188	0xbebae41f	-0.36502168
189	0x3e88e3ee	0.26736397
190	0x3ee30a94	0.44344008
191	0xbe8041d0	-0.2505021
192	0x3eac7147	0.33680174
193	0xbd6e3795	-0.058158476
194	0x3c05e530	0.008172318
195	0xbd85f4d1	-0.06540836
196	0x3c8945b5	0.016756872
197	0xbebe6889	-0.3718913
198	0x3dcded74	0.10055056
199	0xbe8ee98b	-0.27912554
200	0x3e6ac71b	0.22927515
201	0xbe884479	-0.2661474
202	0x3c17cbda	0.009264911
203	0x3d0b521c	0.034013852
204	0x3d74cc6c	0.059765264
205	0x3eb172ec	0.3465799
206	0xbda8410b	-0.08215531
207	0x3de880c3	0.11352684
208	0x3e8b1948	0.27167726
209	0xbd07fd61	-0.033200625
210	0x3c03c13c	0.008041676
211	0xbe36d1d0	-0.17853475
212	0x3ca90030	0.020629972
213	0xbd977adf	-0.07396483
214	0xbed73664	-0.42033684
215	0x3dc8f0b7	0.09811538
216	0xbf03b40b	-0.514466
217	0xbe558cb2	-0.20854452
218	0x3eba7151	0.3641458
219	0x3dc29b77	0.09502309
220	0xbec31fea	-0.38110286
221	0x3eae2ebb	0.34020028
222	0xbe5fad03	-0.21843342
223	0xbc0c7ff2	-0.008575426
224	0xbf55449a	-0.833078
225	0xbf21e0aa	-0.63233435
226	0x3e6dc222	0.23218587
227	0xbe110cf1	-0.14165093
228	0xbd6aee89	-0.05735639
229	0x3e1f917c	0.15582842
230	0xbeddc500	-0.43314362
231	0x3eae73d0	0.34072733
232	0xbe18fdf5	-0.14940627
233	0xbea0a80e	-0.31378216
234	0xbf321e35	-0.6957734
235	0xbf00d70d	-0.5032814
236	0xbe50c704	-0.20388418
237	0x3dd0affd	0.10189817
238	0xbf0eee0a	-0.5583197
239	0xbd833bd1	-0.064078934
240	0xbd93e6fc	-0.07221791
241	0xbe8b9d13	-0.27268276
242	0x3e55c66f	0.20876478
243	0xbc4ef437	-0.012631468
244	0xbd6c69fc	-0.057718262
245	0x3d4e5767	0.050376322
246	0x3e882f68	0.26598668
247	0x3e0c605d	0.13708635
248	0xbe5158ae	-0.20443985
249	0x3d8cf9f0	0.06883609
250	0x3e1f7077	0.15570246
251	0xbe03f68a	-0.12887016
252	0x3dcf9cad	0.101373054
253	0x3e2b4de2	0.16728929
254	0xbc9c2f79	-0.019065605
255	0x3c093262	0.008373829

neg_net.linears.1.bias f4 [30]
0	0xbe76b844	-0.2409373
1	0x3dcc1c11	0.09966291
2	0x3e1c9b4b	0.15293615
3	0x3e147705	0.14498527
4	0xbe5fcd33	-0.21855621
5	0xbeaa5693	-0.33269176
6	0x3e1cabee	0.15299961
7	0x3e4c5677	0.19954859
8	0xbe910b70	-0.2832904
9	0xbdda8260	-0.10669398
10	0x3d4ab5f8	0.049489945
11	0x3d6ec9ce	0.058297925
12	0xbcdd3e24	-0.02700717
13	0xbea51f03	-0.32250223
14	0xbd180e6c	-0.03712313
15	0xbe1b6433	-0.15174942
16	0xbeaa35c6	-0.3324415
17	0x3e947641	0.2899647
18	0xbe94dca0	-0.29074574
19	0xbec9a221	-0.39381507
20	0x3ea7cdce	0.32774204
21	0x3e0ea3c6	0.13929662
22	0x3ea00bea	0.3125909
23	0xbc95fdb9	-0.018309461
24	0xbe0893fd	-0.13337703
25	0xbe710fc9	-0.23541178
26	0xbdbe46d8	-0.09290856
27	0xbed0cdd0	-0.40782022
28	0x3e0dc229	0.13843597
29	0x3da0f8ea	0.078599766

neg_net.linears.2.weight f4 [30, 30]
0	0x3bb45c00	0.0055041313
1	0x3c8f1043	0.017463809
2	0xbe11bcdf	-0.14232205
3	0xbb877b77	-0.004134591
4	0xbc9ea99a	-0.019367982
5	0x3cfc42ba	0.030793536
6	0x3ca59af2	0.020215485
7	0xbc1d788b	-0.009611259
8	0xbc013ccc	-0.00788803
9	0xbd8c0210	-0.06836331
10	0xbc4500a9	-0.012024083
11	0xbd0d83d3	-0.034549545
12	0xbd9ddf3e	-0.07708596
13	0x3d548b42	0.05189062
14	0x3d4b98a7	0.049706127
15	0x3d752b03	0.059855472
16	0x3d4a02c0	0.04931903
17	0xbd0f46c0	-0.03497958
18	0xbc147c98	-0.009062909
19	0x3ca770ab	0.020439466
20	0x3b3d926f	0.0028926393
21	0xbac927e0	-0.0015346967
22	0xbca23ae4	-0.019803472
23	0x3be559a2	0.0069992105
24	0xbbec3bca	-0.007209276
25	0x3c04be67	0.008102036
26	0x3c58bc1b	0.013228442
27	0x3bf715c8	0.0075404383
28	0x3d88d8eb	0.06681999
29	0xbd9e114c	-0.07718143
30	0x38916d40	6.934488e-05
31	0x3b3ac8c4	0.0028501013
32	0xbe217367	-0.15766679
33	0xbdeecb74	-0.11659899
34	0x3c90edfa	0.017691601
35	0x3d03713b	0.032090407
36	0x3d410cd5	0.04713138
37	0xbca186e2	-0.019717637
38	0x3cc58bbf	0.024114488
39	0xbe30f452	-0.17280701
40	0xbc61bef4	-0.013778437
41	0xbe388f0a	-0.18023315
42	0xbe319d3b	-0.17345135
43	0x3d4834fa	0.048878647
44	0x3d616d8c	0.055036113
45	0xbe5e1a33	-0.21689682
46	0xbd8a01d5	-0.06738631
47	0xbe2d474d	-0.1692173
48	0xbc954d5c	-0.018225364
49	0x3bcec225	0.006309765
50	0xbc2ae541	-0.010430635
51	0xbe1ae595	-0.15126641
52	0xbcb7e191	-0.022446426
53	0xbd36fcc8	-0.044674665
54	0xbc3c4400	-0.011490822
55	0x3d48eea1	0.0490557
56	0x3ca23e20	0.019805014
57	0xbcd7df77	-0.026351674
58	0x3bf9a786	0.0076188473
59	0xbe872359	-0.26394156
60	0x3e406c9a	0.18791428
61	0xbdc654aa	-0.09684117
62	0x3e45afcf	0.19305347
63	0xbe35fa8f	-0.17771362
64	0xbe1f7758	-0.1557287
65	0xbdf73e23	-0.120723985
66	0xbe145179	-0.14484204
67	0xbe949066	-0.29016417
68	0x3d2d54ec	0.042317316
69	0xbe019bd0	-0.12657094
70	0xbea750dc	-0.32678878
71	0xbd868326	-0.06567983
72	0x3ddebaae	0.1087545
73	0xbc9de517	-0.019274278
74	0xbe39a888	-0.18130696
75	0x3e298aa3	0.16556792
76	0xbe61b330	-0.22041011
77	0xbea2b78c	-0.3178066
78	0xbc2f27b2	-0.010690616
79	0x3cc8d0e5	0.024513671
80	0xbec6d5c2	-0.3883496
81	0xbefb42aa	-0.49074298
82	0x3e4920bc	0.19641393
83	0xbeffbfb0	-0.49950933
84	0xbdcd2c12	-0.10018171
85	0x3d2418ef	0.04006284
86	0x3d795e0a	0.0608807
87	0xbd399b2f	-0.04531401
88	0x3e5e57f2	0.21713236
89	0xbdbec13a	-0.09314199
90	0xbd64e34c	-0.05588083
91	0xbe9963ed	-0.2995905
92	0xbc0619b8	-0.008184843
93	0x3f41eec0	0.7575493
94	0xbe84602a	-0.25854617
95	0x3e42e06c	0.19030923
96	0xbe95e254	-0.29274237
97	0x3e9244ce	0.2856812
98	0xbec36887	-0.38165686
99	0xbde33020	-0.110931635
100	0xbdedc503	-0.11609843
101	0xbf1c2558	-0.6099448
102	0xbe58399b	-0.21115725
103	0xbe4394c7	-0.19099723
104	0xbe543fb7	-0.2072743
105	0x3dbdfe8d	0.09277067
106	0xbd9c6dc1	-0.076381214
107	0x3e2c53f5	0.16828902
108	0xbe18e5cc	-0.1493141
109	0x3ac8b7b8	0.0015313542
110	0x3ec6ea8d	0.38850823
111	0xbd8ea997	-0.069659404
112	0x3e98a235	0.29811254
113	0x3cd89d80	0.02644229
114	0xbdede1c7	-0.11615329
115	0xbea17318	-0.31533122
116	0x3ad8dba0	0.0016544946
117	0xbd787abc	-0.060663924
118	0xbda4578a	-0.08024509
119	0xbf07e0e8	-0.53077555
120	0x3c4ea90d	0.012613547
121	0xbd9d3c11	-0.076774724
122	0xbc506cb2	-0.0127212275
123	0xbd2d4877	-0.042305436
124	0x3d075dc6	0.033048414
125	0x3bee4d5a	0.0072724046
126	0xbdba0be6	-0.09084301
127	0xbb3bc854	-0.002865334
128	0x3c6c42b0	0.014420196
129	0xbdd76fb8	-0.105193555
130	0x3b3cf356	0.0028831563
131	0xbd16fb91	-0.036861006
132	0x3d48ae79	0.048994515
133	0x3c481300	0.012211561
134	0x3cd6a54b	0.026201865
135	0x3c551c2f	0.013007208
136	0x3d0379bd	0.03209852
137	0xbd89c507	-0.06727033
138	0xbc3ded6f	-0.011592253
139	0xbba899a9	-0.005145271
140	0xbd8d1620	-0.06888986
141	0xbdffc6c7	-0.12489086
142	0xbd4c6cec	-0.049908563
143	0xbcecb994	-0.028897084
144	0xbb8e44b8	-0.004341688
145	0x3b39feea	0.00283807
146	0xbd0d083d	-0.034431685
147	0x3d21cba0	0.039500833
148	0xbd49abfb	-0.04923628
149	0xbdc0475d	-0.093886115
150	0xbe1a7ca0	-0.15086603
151	0xbe58d934	-0.21176606
152	0xbe9ff36f	-0.31240413
153	0x39fe1160	0.000484596
154	0xbe5ee8dd	-0.21768518
155	0xbd0ef13d	-0.03489803
156	0xbe7a5817	-0.24447666
157	0x3c4f471a	0.012651229
158	0xbe1523c3	-0.14564423
159	0xbe9a999e	-0.30195326
160	0xba351560	-0.0006907787
161	0xbc44e7d8	-0.0120181665
162	0xbe83f06d	-0.25769368
163	0xbe661aec	-0.22471207
164	0xbe88db53	-0.2672983
165	0xbe53dd4b	-0.20689885
166	0xbe2e2ee8	-0.17010081
167	0xbe612a3b	-0.21988766
168	0x3bc40fac	0.0059833135
169	0xbc1f184c	-0.009710383
170	0x3c98d6f4	0.018657185
171	0xbe5cfd85	-0.21581085
172	0xbe0ab7f8	-0.13546741
173	0xbccf39eb	-0.025296172
174	0xbe5b8e4d	-0.21441002
175	0xbe8cc616	-0.27494878
176	0xbe8c2035	-0.27368322
177	0xbe5d8d3a	-0.21635905
178	0xbe513fab	-0.20434444
179	0xbec21058	-0.37903094
180	0xbac21778	-0.001480802
181	0x3c5a9fa3	0.013343724
182	0xbe676593	-0.22597341
183	0xbd8fe7b2	-0.07026614
184	0xbd860b5b	-0.06545135
185	0xbd98ed56	-0.07467143
186	0x3d10b08d	0.035324622
187	0xbd0a52dd	-0.03377043
188	0x3d11f3f3	0.03563304
189	0xbd17a082	-0.037018307
190	0x3d0a5424	0.03377165
191	0xbe2ac8d6	-0.16678175
192	0xbdd81c10	-0.105522275
193	0x3c06231e	0.0081870835
194	0x3c06366e	0.008191688
195	0xbd426bd1	-0.047466103
196	0x3d6771b0	0.056504905
197	0xbe364f88	-0.17803776
198	0x3d2650fc	0.040604576
199	0x3d24aa0e	0.04020124
200	0xbe1bc22b	-0.15210788
201	0x3cb80f89	0.022468345
202	0xbd36ae24	-0.044599667
203	0x3d847338	0.06467289
204	0x3c9110ce	0.017708208
205	0xbb9c58fd	-0.0047713504
206	0x3ad2a638	0.0016071266
207	0x3c6efc85	0.014586573
208	0xbe082520	-0.13295412
209	0xbe5dafbd	-0.2164907
210	0xbca642ff	-0.020295618
211	0xbe9ef249	-0.31044224
212	0xbed1fc85	-0.4101297
213	0x3e1d8fd6	0.153869
214	0xbe8359fc	-0.2565459
215	0xbec8fe48	-0.392565
216	0xbe51c9f7	-0.204872
217	0x3ec90803	0.39263925
218	0xbe92d433	-0.2867752
219	0xbea71641	-0.32634166
220	0xbf0f1d3f	-0.55904
221	0x3e9968d5	0.29962793
222	0x3ec1b742	0.37835127
223	0xbcadee90	-0.02123192
224	0xbe8727a8	-0.26397443
225	0x3e19ce65	0.1502014
226	0xbe1b5fd6	-0.15173277
227	0x3e67c068	0.22631991
228	0xbe03b898	-0.12863386
229	0xbda63aa7	-0.08116656
230	0x3ef3f91c	0.47650993
231	0x3e0cf92c	0.13766927
232	0x3e5ba0b3	0.2144802
233	0xbd8d6666	-0.069042966
234	0xbe6efc90	-0.23338532
235	0xbf03cf50	-0.5148821
236	0x3e372d4a	0.1788837
237	0xbe77a42f	-0.24183725
238	0xbe911a67	-0.28340456
239	0x3e8ee642	0.27910048
240	0x3de31a19	0.11088962
241	0x3df562b5	0.119817175
242	0x3d8d93a4	0.06912926
243	0xbeaad59d	-0.333661
244	0x3e05df79	0.1307353
245	0x3ea52eb8	0.32262206
246	0x3c7d5bb6	0.01546376
247	0xbd5b764b	-0.05357961
248	0xbd98bb6e	-0.074576244
249	0xb956d6c0	-0.00020488631
250	0x3ecdb23b	0.40175042
251	0xbea46f53	-0.32116184
252	0x3ddf7432	0.10910834
253	0x3e9b41db	0.3032368
254	0xbdc96641	-0.098339565
255	0x3cd263ef	0.025682418
