data/MTMR_28002/sim/random/MLSE4POL/bias_0.004/train/N10/D6_SinCosInput/9/result/model/ReLU_Dual_UDirection_PKD.pt (torch_old, 22776 bytes, 20 tensors)

input_mean f4 [12]
00000000: 7898 04ba 5a7f 833e 6e73 4bbb 30b1 7b3e
00000010: a8dd 7a3e dd1f 6ab9 be9f 6b3f 8dd1 6b3f
00000020: ea4a 713f d4c8 323e 027f 6c3e 27c2 6b3f
-0.000505812 0.256831 -0.0031044143 0.2457931 0.24498618 -0.00022327849 0.9204062 0.92116624
0.94254935 0.17459422 0.23095325 0.9209313

input_std f4 [12]
00000000: f9ef c43e 5d19 8f3e c906 a93e ff18 223f
00000010: 8d46 2a3f d245 c43e 6d62 8f3d e9e2 af3d
00000020: 5a12 513d ef7d 363f 3fa0 2a3f d0d3 8f3d
0.38464335 0.27949038 0.3301299 0.6331939 0.665139 0.3833452 0.07001195 0.085882016
0.051042892 0.7128591 0.66650766 0.07022822

output_mean f4 [6]
00000000: da54 e03c 15f3 ed3e 28f4 473e e1e4 543c
00000010: f6b6 5e3c e8b4 7a3b
0.02738421 0.4647452 0.19526732 0.012994022 0.013593426 0.0038254801

output_std f4 [6]
00000000: 09cf 183d 27e3 213e 8d58 123e 49be 0e3e
00000010: d28f c03d ac2a 933c
0.03730682 0.15809308 0.14291592 0.13939776 0.094024315 0.017964683

pos_net.linears.0.weight f4 [30, 12]
00000000: bf50 8cbe ba70 513d 7e4f 24be de5f 38bf
00000010: 0c9f 9dbc a192 febe fc8f 2dbc 2aaa 3d3d
00000020: fd13 2dbd dc2d b43e 6feb 60bf 7acd 53bd
00000030: 90c5 a7bc 5e4e 94bc 21cd df3c 623b 583e
00000040: cf8e a4be 1fa7 5fbe 7343 5c3d 2939 963b
00000050: 22f6 4e3d ce33 853e 60de a7be af28 0c3e
00000060: dc02 e63d 805b d53e 9ceb 513f 5279 ef3c
00000070: 0779 30bf 5bb8 7ebd b031 b4bd 7322 a7be
00000080: 792c 323d 9b7f 873e 1b2f 27bf 4da1 24be
00000090: 39b5 8c3e 49d5 473e e0c1 f1bd ba1d 2fbf
000000a0: 0e52 8ebe 3254 483e fe1b dabd 1395 a13d
000000b0: 337b 813c b58f 06bf ba3b 213e 704e 7fbd
000000c0: f76b 50be 7b85 c8be 2209 94be ec10 643e
000000d0: 0a5f 1cbf 5951 bfbe 2fa3 c4bd fc0f 7abb
000000e0: 92fa 76bd b53e 253f 1d3d 8a3e d0e4 fdbd
000000f0: ed92 a93e 0aae 4bbf 8456 25be ac52 8f3e
00000100: e94a 293f edb7 a43e 2dfd 83bd fe63 883e
00000110: 47e8 a0bd f3a3 57be 7b28 8fbe 79ab 93be
00000120: b105 73bc 1d05 07bf d160 33be 90f2 abbd
00000130: f755 fabe 202a dbbd 7c13 313e 941e 683e
00000140: ae37 1a3b 25ce 14be ce53 b73d d9af 40be
00000150: 9b5f 233e c4ed 21bf a7b6 cfbe 1ad5 6d3e
00000160: 0045 14bf 6cf4 033f be78 1cbe f53c 7cbc
00000170: 6b30 583d 4afe 073f b0f1 92be b190 ba3d
00000180: e67d 203f fb03 95be 6877 8dbe 5e87 7a3f
00000190: 160b a73d 903e d73b 70bf f53d d859 dfbb
000001a0: 7cf9 9cbd 40bf 3d3e e160 03be 347d 883d
000001b0: 9c47 e2bd 2c2c 66be f44a 29bf 7fda e1be
000001c0: f358 cb3e b2e4 3ebe b193 5a3e d982 39bd
000001d0: 6f8b 4b3d 26bb 5d3e 7af8 2abe 0ff2 2fbb
000001e0: b548 24be a240 933d 6d98 a33e 2fd3 823e
000001f0: aad1 343e 4f29 cabe 77a6 6bbd 904e b1bc
00000200: b9e5 a8bd 4344 e9be b628 03bf 8d0f d9bd
00000210: f5bb 2abe 8ed9 4f3e dc9f d73e ac5f 613f
00000220: 884b 463e 57d5 833e a861 faba 2610 edbd
00000230: 8567 8d3d 92fa 733e 1294 a5bd 4046 bbbd
00000240: 269f 0c3e 12b7 b03e 92ad 7e3e 0a22 853e
00000250: 7a39 ccbe cc5c 8c3d 6953 f7bc 1032 4a3d
00000260: eef7 4d3d 2633 aebe d953 913e 6130 66bd
00000270: db81 7b3e c920 febc 7688 9e3d 21cb b63d
00000280: ffd4 5b3e 53d4 af3e e748 d8bc 784d 8bbe
00000290: 9ebf 9d3d bd8d 91be 33a7 d4be 70f4 d73d
000002a0: e5e1 ecbe 0c9c 613e 536b 8f3d f939 4ebf
000002b0: c03c 20be 8826 1ebf 5e8f 983d fa28 623c
000002c0: 1270 003d 9d62 1d3e e943 8b3e e3db a6bd
000002d0: 2870 18be 782e 9a3e 8980 d93d d269 01bf
000002e0: 311d 2b3f 8658 913e f13c e1bd 152f 78bd
000002f0: 2957 ffbb 7513 8e3f 7bc8 c7bc d5a0 50bd
00000300: 9c5f 2a3e 1793 eebe 8656 97be 5c67 593d
00000310: 8e4c 9b3e c4bc 573c 7085 eb3d 4f71 263e
00000320: fbba 9f3b 9cde 843e 542d 8c3e 392f 503d
00000330: 7630 d2bd 6719 843e ec94 bb3e c8e8 ec3c
00000340: 9fd9 89be d78e 46be ee08 fa3d 8a55 773d
00000350: eec9 3ebd 224f 003f 3718 c13e 43d2 8cbd
00000360: 9803 263f f968 b23e 1ca7 ddbc d305 5dbf
00000370: 861a 843d 951c b7be 2f15 86bc edbe 233e
00000380: 627a bbbc 48d9 dc3e f4fe 683d f581 183e
00000390: 7ddd d5bc c0fc 953d 09cf 8abe 7218 39be
000003a0: f2fd f83e 93c1 1cbf 4f53 b53c db96 593d
000003b0: a63b ec3c 60b2 a0bc 915a b8bd 4aed 25bd
000003c0: ebb0 51be 40b3 413b 7217 f8be 0ce7 c2be
000003d0: 2de9 03bf f06a e93e 31f6 233e 2a41 ce3e
000003e0: a43f 39bd 6c4b bc3c 0824 c5be ead9 ab3d
000003f0: 8eda 4f3e b450 a9be 62df 1dbf 18e6 83be
-0.27405354 0.051132895 -0.16045949 -0.7202128 -0.019240879 -0.49721244 -0.010593411 0.04630486
-0.04225539 0.35191238 -0.87859243 -0.05170963 -0.020479947 -0.018103775 0.027319493 0.21116403
-0.32140204 -0.21841095 0.053775262 0.0045844507 0.0505277 0.26016086 -0.32786846 0.13687395
0.11231014 0.4167137 0.82000136 0.029232655 -0.68934673 -0.062187534 -0.0879854 -0.3264347
0.043499444 0.26464543 -0.6530625 -0.16077156 0.27482012 0.19514956 -0.11804557 -0.68404734
-0.27796978 0.19563368 -0.1064987 0.07889762 0.015805816 -0.5256303 0.1574544 -0.062330663
-0.20353685 -0.39164338 -0.28913218 0.2227208 -0.6108252 -0.3736675 -0.09601437 -0.00381565
-0.060297556 0.6454881 0.2699975 -0.12397158 0.33119908 -0.7956244 -0.16146284 0.2799276
0.6612993 0.32171574 -0.06444774 0.26638788 -0.078568034 -0.21058635 -0.27960572 -0.2884176
-0.0148329 -0.5274218 -0.17517401 -0.083958745 -0.4889371 -0.10701394 0.17292589 0.22667915
0.0023531723 -0.14531763 0.08951531 -0.1881708 0.1595444 -0.63253427 -0.4056904 0.23225823
-0.57917786 0.51544833 -0.15280434 -0.015395393 0.05278055 0.5312239 -0.28700018 0.09109629
0.62692106 -0.291046 -0.27630162 0.97862804 0.08156411 0.0065687373 0.119994044 -0.00681613
-0.07664773 0.18529987 -0.12829925 0.066645056 -0.11048815 -0.22477788 -0.66129994 -0.44112012
0.397163 -0.18641928 0.21345402 -0.0452908 0.04969352 0.21653423 -0.16696349 -0.002684716
-0.1604336 0.07190062 0.3195223 0.25551745 0.17658105 -0.3948464 -0.0575318 -0.021643907
-0.08246941 -0.45559892 -0.51233995 -0.10598669 -0.16673262 0.20297834 0.4211415 0.8803661
0.1936475 0.25748703 -0.001910259 -0.11575346 0.069045104 0.23826054 -0.08084883 -0.091442585
0.13732585 0.34514672 0.248709 0.26002532 -0.398876 0.06853637 -0.03019114 0.04936415
0.050285272 -0.34023398 0.28384283 -0.05619848 0.24561255 -0.031021493 0.077408716 0.089254625
0.2146797 0.34341678 -0.02640195 -0.2720754 0.07702564 -0.2842845 -0.41533813 0.1054467
-0.46266094 0.22032183 0.07002892 -0.8055721 -0.15648174 -0.61777544 0.0744922 0.013803715
0.03135688 0.15369649 0.2720025 -0.08147409 -0.14886534 0.30113578 0.10620219 -0.50552094
0.6684142 0.2838785 -0.10997952 -0.060591776 -0.0077923727 1.1099688 -0.024387589 -0.05093463
0.16638035 -0.46596596 -0.295582 0.053077087 0.30331844 0.013167564 0.115000606 0.16254161
0.0048745847 0.25951087 0.27378333 0.050826285 -0.102631494 0.2580063 0.36637056 0.028919592
-0.26923844 -0.19390427 0.122087345 0.06038431 -0.046579294 0.5012075 0.37713787 -0.06876042
0.64849234 0.34845713 -0.027057223 -0.8633701 0.064503714 -0.35763994 -0.016367523 0.15990801
-0.022885505 0.43134522 0.056883767 0.14893325 -0.02610659 0.07323599 -0.2711108 -0.18075731
0.48631245 -0.6123287 0.022134451 0.053122383 0.028837036 -0.019616306 -0.09001649 -0.0405095
-0.20477645 0.0029556304 -0.48455387 -0.380669 -0.51527673 0.455894 0.16011883 0.4028409
-0.045226708 0.022985183 -0.38504052 0.08391173 0.20298216 -0.33069384 -0.6166898 -0.25761485

pos_net.linears.0.bias f4 [30]
00000000: 3c54 323e 4230 c2be 257d 8e3d cf0f 4f3d
00000010: e9ff b1be 4240 4dbe 7ce6 f7bd 18ee 3ebd
00000020: 0cda 803e 6345 a93c a497 1a3e d2aa 3d3d
00000030: 0b4b e33d 97a9 d6bd 0595 973d 9761 193f
00000040: 7bba 153d f565 3cbe 082c 803e 764c b5bd
00000050: 3194 8a3e b880 62be aa20 b1be 72ce e7be
00000060: f7fe bbbe f047 4fbe a021 343d 1c58 14bd
00000070: bdf3 a8be d88a dabd
0.17414945 -0.37927443 0.06957463 0.050552186 -0.34765556 -0.20044044 -0.12104508 -0.046613783
0.25166357 0.020662969 0.15096909 0.046305485 0.11098298 -0.104815654 0.0740147 0.59914535
0.036554795 -0.18398269 0.25033593 -0.088524744 0.27066186 -0.22119415 -0.34595233 -0.45274693
-0.3671796 -0.20242286 0.04397738 -0.03621684 -0.32998458 -0.106710136

pos_net.linears.1.weight f4 [30, 30]
00000000: d35b 8cbd ae45 a83d d316 ad3d e822 d03e
00000010: 857f e2bd 3e0f 79bf 1874 073e f07e 99bd
00000020: 11b0 34bf 88fb 88bd e11c c5bd 190b 85be
00000030: 08de 873e ba81 c33e b892 0cbf 5925 f5be
00000040: e004 cbbd 7a4a d13b daf3 13bf b8be a0be
00000050: b3a9 0d3f 7baa 0cbd 6ef2 9bbe 1423 bfbe
00000060: 8608 3ebe 2c1b 89bb 0005 d9be 1f06 b13e
00000070: 8056 e13a 310b cbbd 15e9 313e cac3 93bd
00000080: a28a bbbe af20 803e e3bd 6d3e ec53 893e
00000090: d5b4 343d e8b0 153f 28a1 523e 373e 373e
000000a0: 8034 043e b952 b7bd d763 01be 601e 95be
000000b0: 548c edbd 7195 a83c 74f0 cc3d 59c9 46be
000000c0: 0d24 1a3e 0b1b c03e e018 1c3d b8a2 713e
000000d0: 2c35 4bbd e2d5 093e 626f 863d db7d b83d
000000e0: 7de3 953e 064e 773e 3ec4 543e 153f 8cbd
000000f0: 3640 993e 67b8 c33b b67e 5d3e 7a56 b6be
00000100: 704f 23be 2290 fd3c debc 33be 7286 53bd
00000110: 5ad3 aebe 38c6 0cbf 762f 51bd 8786 4c3e
00000120: 1fa3 13be 9182 443e 3b03 55bd 2531 4d3d
00000130: a507 d9bd f4f8 6abe 3c7c 523e bf0e 8fbe
00000140: 54c8 ab3e f0aa 3ebe 0467 e43d 95a6 cf3d
00000150: 68cd 6fbd 9ed7 583e 98fe 4ebe 9bca 8cbe
00000160: 76e0 36be 83fa debd 3f8f de3d 2173 f2bd
00000170: 2a2f dbbe bf6e 723e de9d 29be 182f b43d
00000180: 4a78 eb3d 954c cabd 793a 65be f687 1c3e
00000190: 98c7 dfbe a920 57bd 55f5 62be fb80 2cbe
000001a0: e434 3ebd 9e17 e33e e2db d33d 0174 52be
000001b0: 8ff4 a33e 1692 cf3d 7401 333e f00f 9c3d
000001c0: a123 a7be 7c28 053e db84 5c3e ab6d d73e
000001d0: 8d0b bcbe 1d2c 7c3d 88eb e8bd 0a4c 143d
000001e0: 9245 903b 0f3b 67bd 48c4 f0be 59dc 6bbe
000001f0: e78a 1fbd b996 913e 7842 81be 1219 a9bc
00000200: 7a97 e33d ba9f 123d 3120 24bd ecd8 63be
00000210: c823 98be 010b acbe 0c7f 103e 8edb d0bc
00000220: 6dec 443e 9fec d53d 724a 023e 0e9b 6b3e
00000230: ce1f 54be f6e4 c5be 6c72 67be ea83 e33c
00000240: 52b3 7b3e 8fee 913e 6edb f1bd 5490 9abe
00000250: be48 6fbe ace0 ab3b c0c7 323d 203c 53be
00000260: f393 04bf 9b64 c2bc ebd9 c4bd cdeb 6e3a
00000270: 8792 51be 26e3 3b3b 538f febd 32a3 debd
00000280: f8e3 27be 5f6f 31be 2aed 62be e3cf 99be
00000290: b8e4 75be 3e56 103d d756 05bd 8957 c3bd
000002a0: 801d aebb 80fb 53bc 409c 8cbc 6f1f 4bbe
000002b0: 7d55 7cbd 3925 383b 893a 12be 1b17 523d
000002c0: 6769 35be e569 86be 0fa6 48be bbcc 18bd
000002d0: 4a1c 69be f20c 51bb 6ab2 c0be 8e5f 763e
000002e0: f689 c7be 0352 d63e 478e afbe cb18 7ebd
000002f0: a434 0a3d e1e5 053c b05f 9bbe 3995 b93e
00000300: 8ed8 d3bd a4d7 683e b435 fdbe 7af4 de3e
00000310: 0ac4 0fbc acff c63d 4e53 bb3e fb16 bcbe
00000320: 1fe1 e33d ee36 7bbd 0594 0abe 423b 8ebe
00000330: 9fb9 63be 5aba 96bd 51ab 493d 8f2b afbd
00000340: 8f24 123e 86de 01be 0160 803b de16 8bbc
00000350: 5e66 b1bd d8f5 3eba 0b96 29bd 565b ec3b
00000360: 692d 113b edc1 22bb eff6 a1bd cc31 75bb
00000370: c90c 74bd 8469 ed3b aaa2 e3bc 457c bdbc
00000380: 7817 f138 10bb 68bb d807 b5bb ef4e 90bc
00000390: ba07 51bd d5f0 a1bd 9333 3ebb ea05 17bb
000003a0: f289 923b e661 883b 282f a0ba ed9e 75bd
000003b0: 97b1 4f3a 5460 973a 7c0c cb39 3e02 27bc
000003c0: 1aa7 4bbe 6179 4abd 39a2 35be 5c1f 97bd
000003d0: b2d1 30bc 0107 bdbb 106c 3fbe 74c6 3dba
000003e0: 0505 19bd 504e abbc 3d29 04be 98ec e9bd
000003f0: 2786 f7bd 3377 2fbe 1ee4 e5bd 941a 64be
-0.068534516 0.08216415 0.08451619 0.4065163 -0.11059479 -0.9728888 0.1322788 -0.074949145
-0.70581156 -0.06688601 -0.09624649 -0.2598503 0.26536584 0.3818491 -0.54911375 -0.47880057
-0.09913039 0.006387052 -0.5779396 -0.31395507 0.55337065 -0.03434227 -0.30458397 -0.3733145
-0.18557939 -0.0041841473 -0.42386627 0.34574983 0.0017191917 -0.09914244 0.1737407 -0.07215078
-0.36629206 0.25024936 0.23216967 0.2682184 0.044117767 0.5847306 0.20569289 0.17894827
0.12910652 -0.08951325 -0.12635742 -0.29124737 -0.11599031 0.020579072 0.100068 -0.19412746
0.15052815 0.37520632 0.03810966 0.23597229 -0.049611256 0.13460496 0.06564213 0.0900838
0.29275122 0.24150857 0.20777985 -0.068479694 0.29931802 0.00597291 0.21630368 -0.3561285
-0.15948272 0.030952517 -0.17552516 -0.05164189 -0.34145623 -0.5498996 -0.051070653 0.19973193
-0.14417695 0.19190432 -0.052005034 0.050095696 -0.10597161 -0.2294653 0.20555204 -0.27940938
0.33551276 -0.18619895 0.11152461 0.10139195 -0.0585455 0.21176001 -0.20214307 -0.27498326
-0.17859063 -0.10887625 0.10867166 -0.11838365 -0.4280942 0.23675059 -0.16564128 0.08798045
0.11497553 -0.09877888 -0.22385587 0.1528624 -0.43706965 -0.05252138 -0.22163899 -0.16846077
-0.04643716 0.44353956 0.10344674 -0.20552064 0.3202252 0.101352856 0.17481023 0.07620227
-0.3264437 0.13003725 0.21535055 0.42075858 -0.36727563 0.061565507 -0.11373049 0.03620533
0.0044028247 -0.056452807 -0.4702475 -0.23033275 -0.038950827 0.28435305 -0.25246024 -0.020641837
0.11112876 0.03579686 -0.040069763 -0.22250718 -0.297148 -0.33602145 0.14110965 -0.025495317
0.19230814 0.104455225 0.12723711 0.23008367 -0.20715258 -0.38651246 -0.22602242 0.027772862
0.24580124 0.28502318 -0.11809431 -0.3018824 -0.23367593 0.005245289 0.043647528 -0.20628405
-0.5178825 -0.023729613 -0.09611877 0.00091141165 -0.20466052 0.0028669327 -0.12429681 -0.10870971
-0.16395557 -0.17327641 -0.22160783 -0.30041417 -0.2401303 0.035238497 -0.03255352 -0.095381804
-0.0053135753 -0.01293838 -0.01716435 -0.1983621 -0.061604965 0.0028098358 -0.14280142 0.051291566
-0.17715989 -0.26252666 -0.19594596 -0.03730462 -0.22764698 -0.0031898585 -0.3763612 0.24059889
-0.38972443 0.41859445 -0.34288236 -0.062035363 0.03374161 0.008172483 -0.3034644 0.3624666
-0.10344039 0.2273851 -0.49455035 0.43545896 -0.008774767 0.09716734 0.36586994 -0.36736283
0.11126923 -0.061331682 -0.13533027 -0.27779585 -0.22238778 -0.073597625 0.049235646 -0.0855323
0.14271758 -0.12682542 0.0039176946 -0.016978677 -0.08662103 -0.00072845584 -0.041402858 0.0072130365
0.002215231 -0.0024834827 -0.07908427 -0.0037413714 -0.059582505 0.0072452445 -0.027787525 -0.023130545
0.00011496147 -0.0035511889 -0.0055246167 -0.017615763 -0.05103276 -0.07907263 -0.002902244 -0.0023044297
0.004472011 0.004162061 -0.0012221085 -0.059966017 0.0007922886 0.0011549094 0.0003872848 -0.010193406
-0.19887963 -0.049432162 -0.17737664 -0.07379028 -0.010792183 -0.005768657 -0.18693566 -0.00072393497
-0.037358303 -0.020911366 -0.12906356 -0.1142208 -0.120861344 -0.17135315 -0.112251505 -0.22275764

pos_net.linears.1.bias f4 [30]
00000000: e999 79bd 4e78 253c afa7 74be c1ef a7bd
00000010: 5871 d5bd 8eeb 7abe a29c 843e 2acb b2bd
00000020: 946e 1dbe 055b 8cbd b1af 0ebe e611 453e
00000030: 0522 61bd 9fce 1bbc 008d e6bd 4389 c93e
00000040: 810d 94be 0fc1 36bd c1f2 803e aec5 99bd
00000050: a830 063c c1f4 97be 428e 503e ba67 62bd
00000060: 19b1 453e ea5f babd 2f49 093e cc78 ebbe
00000070: 95ab 83be f5df 8cbd
-0.060937796 0.010099484 -0.23892091 -0.08200026 -0.10422009 -0.2450392 0.2590075 -0.08730157
-0.15374213 -0.06853298 -0.13934208 0.19245109 -0.054964084 -0.0095097115 -0.11257362 0.39362535
-0.28916553 -0.04461771 0.25185207 -0.075084075 0.0081903115 -0.2967892 0.20366767 -0.055274703
0.19305839 -0.091003254 0.13406824 -0.45990598 -0.25716844 -0.06878654

pos_net.linears.2.weight f4 [30, 30]
00000000: 0dcb 40bb bd0f 063a 9ead 5f3a e6c7 be3a
00000010: f5e0 b23b a317 a1b9 f8fd 64b9 762b 63ba
00000020: 1a11 d2ba 6ade 1c39 b2cf 94bd 2b9b 40ba
00000030: 8648 95ba 29cb b8ba c027 a23b 6f3e 2eba
00000040: 661e eab8 1438 d238 6eac d9bc 6bbf 23bd
00000050: 38e6 443a c882 8cba f620 c03a d8ac 32bd
00000060: f739 123a bce3 36ba 06d4 5abd ed30 4fba
00000070: 2449 7a39 e4d1 03ba 82de fe38 3ef8 3bbd
00000080: 6cd4 f239 0bc5 7e3b b93f 3fbd d8c8 863b
00000090: 6115 e839 0933 ffb9 7377 773b bbdc c43a
000000a0: dd95 b6b9 00e0 8732 cb87 a5bc 6716 44bd
000000b0: e816 94b8 e0cd 243a 00ac beb6 f95f f939
000000c0: 42c7 c3bd b4dd 84bb 3539 e8b9 d85e 3d39
000000d0: 3ea2 7fbb d260 e739 2cfc 06ba 56c3 de3b
000000e0: f2e0 a2bd 5f85 d9bd 33f1 8039 3010 84bc
000000f0: e1ae 123b 9d91 2c3b e04e f0b8 bf02 e2bd
00000100: cfed b9bd d662 abbd 1d49 02bd 9c8f cd39
00000110: 7895 e4bc b827 8b39 98fe d9b9 506c 2db9
00000120: 2407 65ba 6f0f c73b b4e4 ebb9 1374 42bb
00000130: 894c 9439 0845 a53b 7e6d 24ba 705d 993b
00000140: 16b1 e738 505d 6f38 0361 b63a 9e63 c0b9
00000150: 48a4 1eb9 8895 07be 4ec5 0cb9 4bf9 13bd
00000160: 4fd1 12bd c4c0 e5b8 0215 723a 0273 4bbb
00000170: 58d6 1039 5fbe d2bc db70 3bbe 16ca b6bc
00000180: bba2 413b e1dc e6b9 dac6 8dbd 0892 5fba
00000190: bede 3a3a ca5e 3cb9 bbdf 9f39 1d2e 83bc
000001a0: c029 2438 adc9 f23a fab4 1839 6289 8fbb
000001b0: 008a 2d3b 6099 d8bd 3cee 16ba 7394 a4b8
000001c0: cf75 9abd e3f4 8839 9e96 3bb9 a94e 96bd
000001d0: 0c19 1abe c587 cfbd c1cc 01bb 9eb9 20ba
000001e0: 1669 9dba 6bb2 32b9 93af efba 6772 1fbd
000001f0: 1cb8 29bd cafa b1bd 46e1 0fbb 48c6 6838
00000200: 6efd 35bc 7473 a03a cd0d bb3a 3b64 2539
00000210: 2c28 adba b59a 93ba ec44 9d39 e52e a03b
00000220: 2901 063a d605 b0b9 47f9 8cb9 4b35 0e3b
00000230: ab4f e9b9 f6af 1cb9 4a87 5dbb b795 2f3a
00000240: c866 07b8 6c70 38bd 0ab4 b73b 6e9d 18bc
00000250: 8bf3 ce3b 0c5b 00ba 2907 28bd 9588 7abc
00000260: 86ac 5d3a f748 ddbd 14b3 ebbd 4451 66bd
00000270: 23fe 563a b7f3 d1ba 96c6 41bc 4b35 0fbd
00000280: f407 d9bd 5c4c 01b9 f228 e4bd 57fa 08be
00000290: 4d46 04be ad03 403a cddf eb3a 0052 1739
000002a0: 2e65 07be e147 a8bd 9481 c638 fc83 923a
000002b0: 17c6 eeba 42b2 e0bc 11d6 973b b932 05bd
000002c0: 01c5 efbd be6a c23a e513 33b9 abd7 a33a
000002d0: 8140 73bf f434 f0bd 7226 ed3e 1980 dcbd
000002e0: 4ae4 1abe dd22 853c e56d 2bbe e2c1 02ba
000002f0: 9d89 c73b f1f8 e4ba c0ef 3d37 efff 4fbd
00000300: 75f8 7d3e 5b55 35be a44b 3e3b a8af 99be
00000310: 4d7a 10bd 088e 313e 34ae 263f 9ccd f5be
00000320: a415 55bd 3046 d4ba 7d52 9e3e 71a5 43ba
00000330: 0c20 5cbd ccd9 2bbe 1387 b0bc 01ba a9bd
00000340: 3e1e 91bc 9235 703b 4ea2 8f3b 0f31 f43b
00000350: 9251 6d3a 52f8 3dbe 744e 1ebd d3ae 77bd
00000360: 9d77 9aba e774 3e3b 181c 0bbe b4d0 eaba
00000370: f8f8 ba3a df9e 52bb 642e db3b f81c 5ebc
00000380: ef3d 0bbb ad6f daba 04e7 a0b8 08b4 7bbb
00000390: ea6d 96bb c752 97bd b03f d2ba bac8 f8b9
000003a0: 7540 23bd 5229 c2ba 4a3d 2dbe 6d4c b9be
000003b0: 3064 50be e2a2 22be 1315 57be 66fe 87b9
000003c0: 466e ddba 492e 063c a6b1 3aba 9ce3 aa3b
000003d0: 069d 6dbd f8cb 95ba a0ac 05ba 52e2 a73a
000003e0: 079e 883b b4cf cc3b f359 05be 8df5 4d39
000003f0: d9e1 b53b cec2 7c3b 86cc 9dbd a9d9 ba39
-0.0029417903 0.00051140395 0.0008532646 0.0014555424 0.005458946 -0.00030725924 -0.00021838385 -0.0008665839
-0.0016026825 0.00014960175 -0.07266177 -0.00073473406 -0.0011389412 -0.0014098632 0.004948586 -0.00066468766
-0.00011163652 0.00010024026 -0.026571479 -0.039977472 0.0007511112 -0.0010720128 0.0014658261 -0.043621868
0.00055780954 -0.0006976684 -0.053424858 -0.0007903714 0.00023869105 -0.00050285296 0.00012153109 -0.04589104
0.00046316104 0.003887477 -0.04669163 0.004113298 0.00044266417 -0.00048675414 0.0037760406 0.0015019396
-0.00034825402 1.5817932e-08 -0.020206353 -0.047872927 -7.0614566e-05 0.0006286781 -5.6824647e-06 0.00047564486
-0.0955949 -0.0040547494 -0.0004429311 0.00018059777 -0.0039006616 0.0004413189 -0.0005149271 0.006798188
-0.07953061 -0.10621142 0.0002459377 -0.016121 0.0022382068 0.002633191 -0.000114587834 -0.1103568
-0.090785615 -0.08368461 -0.031808008 0.00039207644 -0.027903304 0.0002654174 -0.00041579152 -0.00016538915
-0.0008736721 0.006074838 -0.0004499309 -0.0029671236 0.00028285783 0.0050436296 -0.0006272419 0.004680328
0.00011047923 5.7068944e-05 0.001391441 -0.00036695314 -0.00015129254 -0.13240635 -0.00013424942 -0.036126416
-0.035844143 -0.00010955476 0.0009234698 -0.0031043892 0.0001381276 -0.025725542 -0.1830477 -0.022313159
0.0029546458 -0.00044033586 -0.069226936 -0.0008528535 0.0007128528 -0.00017964389 0.00030493535 -0.0160132
3.913953e-05 0.0018523239 0.00014563269 -0.004380391 0.002647996 -0.10576129 -0.00057575456 -7.84778e-05
-0.075420015 0.00026122396 -0.00017889819 -0.07339222 -0.15048617 -0.10133318 -0.001980588 -0.0006131175
-0.0012009467 -0.00017041869 -0.0018286578 -0.038927462 -0.041435346 -0.08690412 -0.0021954342 5.5497774e-05
-0.011107786 0.0012241439 0.0014271081 0.00015772965 -0.0013210825 -0.0011261316 0.00029996724 0.0048884028
0.0005111867 -0.00033573684 -0.00026888607 0.0021699246 -0.0004450058 -0.0001494287 -0.0033802562 0.00066980295
-3.228223e-05 -0.04502909 0.005606179 -0.009314878 0.0063156537 -0.00048963795 -0.041022453 -0.015291353
0.0008456189 -0.108049326 -0.11508766 -0.056229845 0.00082013215 -0.0016018067 -0.011827132 -0.034962934
-0.1059722 -0.00012330845 -0.11140622 -0.13376747 -0.12917443 0.00073247665 0.0017995775 0.0001443103
-0.1322219 -0.08216835 9.4655115e-05 0.001117825 -0.0018216994 -0.02742875 0.004633673 -0.032519076
-0.117074974 0.0014832837 -0.00017078182 0.0012500187 -0.950203 -0.1172885 0.46318394 -0.1076662
-0.15126148 0.016251976 -0.1674114 -0.0004987997 0.006089403 -0.001746921 1.1321099e-05 -0.050781187
0.2480181 -0.17708342 0.0029036785 -0.30016828 -0.035272885 0.17339337 0.6510956 -0.4800843
-0.05202259 -0.0016195234 0.3092231 -0.00074633124 -0.0537415 -0.16782302 -0.021548783 -0.082874306
-0.017714616 0.0036653024 0.004383362 0.0074521373 0.00090529874 -0.18551758 -0.038649037 -0.06046946
-0.0011784915 0.0029061378 -0.13584936 -0.0017914982 0.0014264872 -0.0032138152 0.00668888 -0.013556711
-0.0021246632 -0.0016665362 -7.6724245e-05 -0.0038406868 -0.0045907395 -0.073888354 -0.0016040709 -0.000474518
-0.039856393 -0.001481334 -0.16917911 -0.3619112 -0.20350718 -0.15882447 -0.21004133 -0.00025938748
-0.0016893826 0.008189746 -0.00071218086 0.0052151214 -0.058011077 -0.0011428585 -0.00050992705 0.0012808538
0.004169229 0.006250346 -0.13022594 0.00019641798 0.005550605 0.003856826 -0.077050254 0.00035638854

pos_net.linears.2.bias f4 [30]
00000000: 51d8 3fbe e538 08be b0d9 10be e7ee 68be
00000010: 1836 cabd 4f36 95be c77f a83d f74c 41be
00000020: cd7b 62be 42e8 60be 5a77 41bd dbe2 3abe
00000030: cf66 003f dcd1 973e 7f23 f0bd 3384 6c3e
00000040: 8542 573d 9365 5cbd 1044 dbbd 1eaa 90be
00000050: 2b37 d53e 45db 61be 456e 0cbe 2d06 a83d
00000060: 1141 15be 0fdc fa3c e216 e5bd 5155 66be
00000070: 83ff 0f3e 7cd6 103e
-0.18734862 -0.13302954 -0.14145541 -0.22747384 -0.09873599 -0.29142997 0.082274966 -0.18877016
-0.22117539 -0.219636 -0.047232963 -0.18250601 0.50156873 0.29652297 -0.1172552 0.23097305
0.052553672 -0.053807806 -0.10706341 -0.2825479 0.41643652 -0.22056301 -0.1371394 0.08204303
-0.14575602 0.03062251 -0.11186005 -0.22493483 0.14062314 0.1414432

pos_net.output_layer.weight f4 [6, 30]
00000000: ed07 183e 8a40 49ba 0eda a23b 575d d1bc
00000010: 4d87 13bc 3ba8 143e 57d1 10be 016f adbc
00000020: 18d7 1b3b 84fc 333d 7b06 c1bb 2c89 3a3e
00000030: 32d6 1fbe cf0d ef3d d63e a33e c8b3 cc3e
00000040: aab8 973e 921c e8ba 21c8 733e 9b4f 22bd
00000050: 880f ca3d 795f cabb 9978 c33d c4da 53be
00000060: 8a1e 5eba c755 7b3e 86d3 06bf ebfc 28be
00000070: ae62 083e 6b02 c33d faeb 833a b892 ab3c
00000080: d0b8 20bd b983 dfbc 8ae9 bc3d b80e 263e
00000090: e951 8abd 2904 22bd e7f8 29ba b16d 6a3d
000000a0: e65d adbb 6059 293e 7c44 01bf 2dfa 82be
000000b0: d94c a53d b72a 2a3c da74 d93d fc34 0f3d
000000c0: b03e f6bb 2363 cdbd 0214 033e 1cc7 11bb
000000d0: 0a49 3bbe aec6 bc3e 14db 33bb b3da 11be
000000e0: 6e97 443e e9b0 b73e 4a63 02be 4393 32be
000000f0: 4aa9 10bc c315 06bb 9fb9 783d 6aca 6f3b
00000100: c606 1f3c 7005 26be 1049 b9bd da71 04be
00000110: d0d8 de3a 65dc 90bb 3f93 5ebb e52e afbd
00000120: d66d 1dbe e1a1 93be 6a48 c4be cda1 2abe
00000130: 4657 f63e ce4d 8b3a 2423 eabd 07bd d1bd
00000140: 318e 2abd 8b16 953a 38ab 92bd 4b93 7e3e
00000150: c526 8c3a 2f17 f8bd 40c6 55bc b9ab 663e
00000160: 4833 d7bd 67b5 23be a67f 413d 98e2 98bb
00000170: fa29 08be d876 e3bd e8a3 27bd 75c1 5b3e
00000180: 64c3 783d 26cf 623e f32e 0a3b 3a1c 2a3d
00000190: 3f78 f8b9 c1d1 853e 42b3 42bd 9876 01be
000001a0: cbc6 16be ad47 90bd a3ea c03c 7415 8cbb
000001b0: 1dfe f53d 9d74 f33d a1fc 483f c6e7 69bd
000001c0: 511e 153d 791a b4be c03c 9136 81eb 763e
000001d0: b912 f2bd d5e2 9e3e 1a5e 18bf 6f44 db3e
000001e0: 934a 02bb c2dc c9b9 3478 adbd 6835 ed39
000001f0: be0f 893a 851f 3f3d f809 69bf a565 553e
00000200: 6e39 c13a 3b59 82bd 75a3 cbba 4b22 333c
00000210: 481d cdbc 4922 9e3e 5598 823e 4bf4 8c3d
00000220: e67c 20be e22d dcbb 32ba 91bb 2eba 343d
00000230: 2afb 54be beec aebb ef20 1f3d 128d 223e
00000240: 2e6d fe3a 2b6a 40be c4ba 28be 1cf4 3dbe
00000250: 6e2e 883d 36e8 bc3d fb7d b83b 77d2 ba3b
00000260: 711c 463d 91a1 603d 9b09 0bbc ba51 6dbe
00000270: dc3a af3d 4309 3abe ab85 6e3a ad99 1ebe
00000280: e567 6d3b 6c05 8fbe 8754 10bf 06dd b23d
00000290: 7f69 e03d f122 133e 3299 913d f3d8 5dbb
000002a0: 7c87 46be 9aec 67bd 69da a1bc 7663 9eba
000002b0: 5b0f c53e a6e1 bfbe 5387 a039 3a15 0abf
000002c0: 6187 9c3d 035f 4f3f 2ce2 1b3f 4588 4b3f
0.14846773 -0.00076771586 0.004969842 -0.025557203 -0.009004426 0.145173 -0.14142357 -0.021171095
0.002377933 0.04394199 -0.005890665 0.1821639 -0.15609053 0.11672556 0.31883878 0.39980912
0.29633075 -0.001770871 0.23806812 -0.0396267 0.098662436 -0.006175932 0.095444866 -0.20688921
-0.00084731786 0.2454444 -0.5266651 -0.1650273 0.13318893 0.095219456 0.0010064833 0.020943984
-0.03923875 -0.02728449 0.092242315 0.16216552 -0.06753904 -0.03955475 -0.0006483928 0.057233516
-0.0052907346 0.16538 -0.50495124 -0.25581494 0.08071298 0.010386161 0.10617991 0.03496264
-0.007514797 -0.100286745 0.12800601 -0.0022243923 -0.18289581 0.3687033 -0.0027443813 -0.14243583
0.19198391 0.3587716 -0.12733188 -0.17438988 -0.008829424 -0.0020459748 0.060723897 0.0036589154
0.009706205 -0.16213012 -0.09047139 -0.12934056 0.0017001871 -0.0044208043 -0.0033962277 -0.08553866
-0.1537393 -0.2883444 -0.38336498 -0.16663285 0.4811346 0.0010628046 -0.11432484 -0.10241132
-0.04163951 0.0011374516 -0.07161564 0.24860875 0.0010692707 -0.12113797 -0.013047755 0.22526444
-0.10507828 -0.15987168 0.047240876 -0.004665684 -0.13297263 -0.11106652 -0.040927798 0.21460517
0.060733214 0.22149333 0.0021085113 0.041530825 -0.00047391836 0.26136592 -0.047534235 -0.12642896
-0.14724271 -0.07044921 0.023549384 -0.0042750183 0.12011359 0.118874766 0.7851048 -0.057105802
0.036405865 -0.35176447 4.328409e-06 0.24113275 -0.11819977 0.31032434 -0.5951859 0.42825648
-0.0019880875 -0.00038502185 -0.084701926 0.00045243953 0.0010456962 0.04666092 -0.91030836 0.20839556
0.0014741847 -0.063646756 -0.0015536385 0.010933469 -0.025038376 0.30885532 0.25506845 0.06882533
-0.15672645 -0.006719337 -0.004447245 0.044122867 -0.20798936 -0.0053382805 0.038849767 0.15874127
0.00194112 -0.187905 -0.16477495 -0.18550152 0.06649481 0.09223978 0.0056302524 0.005701359
0.048366968 0.05484158 -0.008486177 -0.23175707 0.085561484 -0.18167596 0.00090988976 -0.1548831
0.0036225256 -0.27933824 -0.5637898 0.08733563 0.10957622 0.14368798 0.07109298 -0.0033851236
-0.1938762 -0.056622125 -0.019757466 -0.0012084085 0.38488278 -0.37476844 0.00030618403 -0.5393864
0.07643009 0.8100435 0.60891986 0.79504806

pos_net.output_layer.bias f4 [6]
00000000: 6a6e 59be a593 e4bd 6460 b6be c67a e23e
00000010: 9b0b 133e 75f5 0b3e
-0.21233526 -0.111609735 -0.35620415 0.44234294 0.14359896 0.13667853

neg_net.linears.0.weight f4 [30, 12]
00000000: 5a0b dabe f8e8 7abe f9ac 1ebe e1a4 10bf
00000010: f310 6f3d 2e09 abbe e9ab e8bc 86a6 a83d
00000020: 1a97 20be f1e9 fb3d 5373 53bb 4766 f1bc
00000030: 59c9 953e 6edc c2bd 48c9 553b 295d bcbe
00000040: 991d 88be 4925 22bd eca4 ecbd d1a0 8f3e
00000050: 3e3f 08bc e4cc 473b 9c30 52bf d44b dc3c
00000060: 9d42 5b3d 2d7c f13e 0091 0d3f c768 4dbf
00000070: 6405 823e 632a a9be 847a e2bd 1936 283e
00000080: 4240 0bba bfb4 a03e 2c60 b03b cabc de3d
00000090: 550a 043f 1742 c03d 0dea ae3e 6bbd 7c3d
000000a0: ccfe 28be baf8 9ebd eddd d3be e379 1abd
000000b0: df62 a43d 0ec5 49be 1d0c c5be f160 dc3c
000000c0: 408a bf3e 721d c7bd f709 c13e 0b34 093e
000000d0: 704e 32bc 2ef6 cabc 85a2 93be 2f69 273c
000000e0: 4d7a 3bbe 17b4 1f3e 7329 823d 4eaa 34bb
000000f0: b31f 2bbe 4281 2a3f dd04 8e3e ec9d 0cbf
00000100: a48a f13e fd7f 96bc 4964 583d 0fe7 d0bd
00000110: f73c 243d 8047 663f 5ba9 54be 39ed 0bbd
00000120: 5013 aa3d 187c 84bf c2ec dfbd a17e e63e
00000130: 8c47 c3bd 0263 513e 53a8 98bd a9b3 8c3c
00000140: 5915 6ebc e86f 313e 0080 563c f9a8 743d
00000150: 400e 03be fc1c e73d c912 063e a8e9 8e3d
00000160: 895b cabe 0e96 c93d 06cc 0e3e 7970 22be
00000170: 81f3 703d a909 0ebe 33ed 94bf 6d00 9b3c
00000180: 3641 94bd 044c bc3d 0de6 86bd f701 1ebf
00000190: 76aa a5be 5e2b b63e 46e1 50be 0f80 12be
000001a0: 81cf b63e 0339 22be 0d8f e83d 0b2c 7b3d
000001b0: 601c 3fbf d02a 60bd 6382 bbbd 19e6 313f
000001c0: 3c54 6a3e 8219 64bd 96d1 64bb 3792 ae3d
000001d0: 3c76 c43c b9d9 95bc 4a84 84bd 685f d0bc
000001e0: 76d7 86bf fc13 733e bb24 943d 437c 83bc
000001f0: b256 38bd ba05 533b 86a4 b1be 7996 21bc
00000200: 6600 a33c 065a 59bd 3c45 5e3e 3ecb 87bd
00000210: c7fe 8cbd d53e f83d 6de7 213f 7410 3f3e
00000220: a3ce b63e f4c4 13be 96f3 88bd e837 73be
00000230: cfca 51bd eb3e 19bf 68dd d8be ffd2 2b3c
00000240: 2817 99bd 6dd0 dc3e 27f6 103f 1e17 47be
00000250: 8cfb 2ebf 65a5 8fbd 2d3e 613d 2217 98bb
00000260: 4165 863d 84f9 2f3f 843a 69be 8263 7dbd
00000270: 34c6 d2bc fc5d e3bd c475 70be cf24 463e
00000280: 6952 5d3f 6324 76bf d4ac a0bb f35a 503d
00000290: 2220 8fbc 63a8 00be 026e 8d3d 1d04 8cbc
000002a0: e847 be3d 247a 6d3e a133 1a3f effd edbe
000002b0: f2f9 a1bc d5b4 6a3d 54bc b4bd 92b1 a3be
000002c0: d611 5b3d 905d c5be 17af b8be 8f07 733d
000002d0: ea95 dfbd ff0b b83d 24ce 6fbe dd0a 06bf
000002e0: c37c 2e3e 0da9 83bd b676 1ebc e86d 5d3e
000002f0: f283 703e 6034 853e cd79 d7be 0966 0bbe
00000300: 44f5 82bb bd66 15bf 0b17 063f 7aab 6fbd
00000310: 45d6 653d 4fd2 d53b e567 ba3c 6f26 6c3d
00000320: 9d44 7bbd c11a 16bd 4524 4abe b8d8 b93c
00000330: d8a1 143d 3cdb 52be 1f6e 87be 97c0 043f
00000340: 60b9 11bf 7a01 c8bd 719b 27be 54ec 9fbd
00000350: 1709 0b3d d7a2 e53e e17c 003f 64f0 a33c
00000360: f3fb f53e 0f43 0dbd 4b03 77be 5f34 19bf
00000370: 432b c03e a9e0 0ebe 99fe 12be bd5d 94bd
00000380: 391d 28bc b454 203f 3c75 08bc 444e 83bc
00000390: b183 523f cae2 c9bd 60e5 35be 0792 bc3e
000003a0: c445 c13d e632 fc3c b773 f3bd 5e60 1f3c
000003b0: 7eac cd3c 2ae6 6e3e 6c98 e9bc 9e48 fe3c
000003c0: 0c2e 02be 6f55 f83d 6a48 6dbe 3bfd 97be
000003d0: d36c babe c46f 1fbe 0207 b13b 9668 d73c
000003e0: 523e 0cbe 16b9 6dbd c898 14bf 641a aa3c
000003f0: 952c 503e f972 7b3d dc68 293e ab89 513f
-0.42586786 -0.24502933 -0.15495671 -0.56501585 0.058365773 -0.3340544 -0.028402286 0.08234887
-0.1568264 0.1230048 -0.0032264784 -0.029467715 0.2925518 -0.095147 0.0032621194 -0.36789826
-0.2658508 -0.03958634 -0.11554894 0.2805238 -0.008315859 0.0030487115 -0.8210542 0.026891626
0.053530324 0.4716505 0.5529938 -0.80238 0.25394738 -0.3304015 -0.11058524 0.16426887
-0.00053120044 0.31387898 0.0053825583 0.108758524 0.51578265 0.09387606 0.34162942 0.06170408
-0.16503447 -0.077622846 -0.41380253 -0.037713896 0.08026671 -0.19704077 -0.38485804 0.026901694
0.37410164 -0.09722413 0.37702915 0.13398759 -0.010882959 -0.02477559 -0.2883493 0.010217949
-0.18308373 0.15596043 0.06355562 -0.002756733 -0.16711311 0.6660348 0.27738085 -0.5492847
0.47176087 -0.018371576 0.052830014 -0.10200321 0.040097203 0.8995285 -0.20767729 -0.03416178
0.08304465 -1.035037 -0.1093383 0.45018485 -0.09535131 0.20447925 -0.0745398 0.017175512
-0.014531457 0.17327845 0.013092041 0.059731457 -0.12798405 0.11284825 0.13093103 0.0697816
-0.3952296 0.09843074 0.13945016 -0.15863217 0.058825973 -0.13870873 -1.1634887 0.018921101
-0.072390005 0.09194186 -0.065868475 -0.6172175 -0.32356614 0.35579962 -0.20398435 -0.14306663
0.35705188 -0.1584206 0.1135541 0.0613213 -0.7465267 -0.05472833 -0.09155729 0.69491726
0.22883695 -0.05568839 -0.0034914962 0.08523982 0.02398216 -0.018292295 -0.06470545 -0.025436118
-1.0534503 0.23738092 0.07233568 -0.016050464 -0.045004554 0.0032199458 -0.34695834 -0.009862536
0.01989765 -0.05306437 0.21706098 -0.06630562 -0.068845324 0.12121359 0.6324375 0.1865862
0.35704526 -0.144306 -0.06687085 -0.23751795 -0.051218804 -0.5986163 -0.4235642 0.010487317
-0.0747512 0.43127766 0.566256 -0.19442412 -0.6835258 -0.070139684 0.054990936 -0.0046414295
0.065622814 0.68740106 -0.22776228 -0.061862476 -0.025729276 -0.111019105 -0.23482424 0.19349979
0.8645387 -0.9614927 -0.004903415 0.050867986 -0.017471377 -0.12564234 0.06905748 -0.017091805
0.09291059 0.23191124 0.6023503 -0.46482798 -0.019772504 0.05730136 -0.08824983 -0.31971413
0.053483807 -0.38547945 -0.36071083 0.05933338 -0.10917266 0.08986663 -0.2341848 -0.52360326
0.1703978 -0.06428728 -0.009671858 0.21623957 0.23487833 0.2601652 -0.42085114 -0.13613142
-0.003996523 -0.5835989 0.5237891 -0.058513142 0.056112546 0.006525315 0.022754619 0.05765384
-0.06134473 -0.03664661 -0.19740398 0.022686347 0.03628716 -0.20591444 -0.26451203 0.5185637
-0.56923485 -0.09765907 -0.1636789 -0.07808748 0.033944216 0.448508 0.5019055 0.020012088
0.48043784 -0.03448778 -0.2412235 -0.59845537 0.37533006 -0.13952889 -0.14354934 -0.07244442
-0.0102608735 0.62629247 -0.008328732 -0.01602853 0.82232195 -0.0985771 -0.17763281 0.3683016
0.09437135 0.030785989 -0.11887305 0.009727566 0.025106665 0.23329988 -0.028515063 0.031040486
-0.12712878 0.1212567 -0.23172155 -0.29685387 -0.3641115 -0.15569979 0.0054024467 0.026294988
-0.13695648 -0.05803784 -0.58045626 0.020764537 0.20329507 0.061388943 0.16543907 0.8185069

neg_net.linears.0.bias f4 [30]
00000000: 471a 393d 7607 083e be34 96bc c288 b7bb
00000010: 3aa5 34be 8a31 fe3e 4892 96be ccf9 2ebf
00000020: 7193 abbe 83f1 723e dfd0 493e ab19 c4bd
00000030: 0cfa 08bd 2faf 84be 8956 05bf ef06 c2bd
00000040: 4069 a0bd 9d90 07be 5e97 dcbd f4ac 7abd
00000050: 98f4 0ebe 455b 1c3e 56fb 01bf d8fe 0cbe
00000060: bb8e 1ebe ae2a a8be 07ab 813e 91ab e7be
00000070: 693f c3bd 1180 a1bd
0.045191076 0.13284096 -0.018335696 -0.0056010196 -0.17641154 0.4964717 -0.2940848 -0.6834991
-0.33510926 0.23724942 0.19708584 -0.09575208 -0.03344159 -0.25914904 -0.5208517 -0.09473979
-0.07832575 -0.1323876 -0.107710585 -0.061200097 -0.13960493 0.15269192 -0.50774133 -0.1376909
-0.15484135 -0.32845062 0.25325796 -0.45248082 -0.09533579 -0.07885755

neg_net.linears.1.weight f4 [30, 30]
00000000: 3bd4 67bd 5777 ccbd f038 fbbb 166c 54be
00000010: 168a 41be 89c1 d1b9 a046 6137 488b d1bd
00000020: 5861 023a 5b5e 8dba cc94 c5b8 22c1 58bc
00000030: 180e 4738 698b 15bb 0277 5cbe eb8d 4cbe
00000040: c42d 8abb 2482 5abe baa6 57bc 484d b9ba
00000050: 6969 cabd 2413 c2bd a6cb 05bc bc19 34be
00000060: b9c4 07bd 502b 93be 04b5 33bd d2af 14be
00000070: ab6f c5ba 20bb 0dbd 7f4c 56bd 135c 5c3c
00000080: f0ff bdbc 9e5d d9bd f407 08bd 860a ebbd
00000090: 32cd 60bb a7ae ebbc d4b0 49be 11be 74bd
000000a0: 9f06 453c 605d 25bc 15c3 bfbc a7f6 8abe
000000b0: 1365 60be a43a 40bd e60d 3cbd cbc3 0cbd
000000c0: 53f0 2fbd bc2c 73bd fbf6 11bd e629 98bd
000000d0: 2fda 98bd 20db 86be 9c86 07be 92c4 9abd
000000e0: 7e52 eebd 40e5 a439 b35a 34bd 11ab 52bd
000000f0: 09bc 96be d64e f9bd 66ff 31be 1416 2bbe
00000100: 4740 c4bd e66d a0bb ae07 af3b 0577 58bd
00000110: 122c 7a39 101d 00be 48cc 593b 0dd9 07be
00000120: 8667 603b 4ab0 8abd 9751 74bd 0de9 ddbd
00000130: 8140 64bd 5ba9 fabd 195b 5abe 2928 34ba
00000140: 44da 37be e726 92bc 7907 5dbe 22d7 40be
00000150: dd73 5abd 8c5e 9bbc ed0a 6dbd 9eef 5cbd
00000160: 1acc 7ebe d1b2 55be 13a0 33be d8ae b7bd
00000170: a649 63bc e1fb 5cbd 9391 11be ab83 933a
00000180: 5779 1ebd 9ca0 c3ba 88d8 d83a 0b52 153a
00000190: edeb 233b ecc4 89bd dd72 a1ba 9e42 05be
000001a0: 10a3 0bbd 2faf d6bc d71b 853d e157 12bd
000001b0: 2e37 4bbe 4861 82bc d26a 873b db24 a0bb
000001c0: 17c0 7ebd 5e3d a1bd f3f7 e5bd e8c4 d0bd
000001d0: 1ec9 c4bb c490 8dbc 2b61 11be 784f 42be
000001e0: 534b 1ebc 90c6 e6bc 52fa 863a 3485 18ba
000001f0: b0d1 6bb9 2eec 1f3b 6a37 833b 36ea 953a
00000200: a815 d2bb 56dd 1fba 1d64 89bc 783b 38bd
00000210: a4ff 90b8 181f f7bb 0e43 42b9 2090 483b
00000220: 52f9 55bc 0b8f 99bc 7cf1 463a 305d 4bbb
00000230: e8ec 40bd 7faf 9bbb f8a3 64bd d44b 83bc
00000240: 36a5 06bb 43f2 9e39 ac13 1a3a 3d7b 58ba
00000250: 3878 12bd c202 2a3b fefd 04be aff7 d6b9
00000260: 0f4e d1b9 b534 b0bb 3838 093c d251 85ba
00000270: 754f 8b3a b059 163b f289 f83a a4ea 03bb
00000280: 25fe 4abb 6650 b9bc 4f34 013b a53f 15bd
00000290: 9950 13bd a288 c7b9 567d 9dbc 2b02 823a
000002a0: 1e48 07ba 8449 7139 ac7c f73b 8c0a e5bd
000002b0: 15d1 a2b9 2e6a 20ba 720c 22ba 5086 b8ba
000002c0: b31c abbd 0155 64bd 66a6 0e3a e0eb 3dba
000002d0: 6e4e a43e d4e7 6c3e 484b bd3c 740c d03c
000002e0: 6d06 2fbe 9055 7fbe cc35 afbd d8e1 8abd
000002f0: bead 643d 7dbe 3abe d494 d9bc 5fb2 f8bd
00000300: 2f17 4a3e 6b24 07bd d11f 90be 2869 f5bd
00000310: ceb7 63be bd6e 373e ab3f a93e 2406 b0bd
00000320: 6718 a33d 8a91 dfbd 1217 82bb 48d1 ab3d
00000330: f9ee 793d 6016 8cb9 90de 95bd 21c0 c9bb
00000340: a179 dd3d 0422 a43d 9e1b 44bd c326 153e
00000350: 4ea6 023f cbfd 1cbd 1fbe d53c 8ce8 043e
00000360: 9b80 9b3d af58 13be 0974 113e 9aaa 283d
00000370: d481 f2bc 7425 f5be 3ea7 88be f2db d43d
00000380: b59d 97be c1ab 5f3d b51e 533e 4288 c7bd
00000390: 45b9 8cbe 9893 b7bc fa97 943e f8e6 a7be
000003a0: 450c c63e cc56 7e3d 222f 573e 9027 22be
000003b0: 7c0f 7abe c8ad 213c 3a79 c33e ecbd 82bd
000003c0: 5f1c f73b 9b5f ea3b d7b3 3d3c 358e ec3b
000003d0: 4d54 683b 6eaa 84bb 419d 943c e703 9c3c
000003e0: 27c8 0e3c aa41 52bd 74be 843c 4fbd 02bd
000003f0: 4c9a 133c 4867 98bd 54cf 113c dde2 ce3c
-0.056598883 -0.099837 -0.0076666996 -0.20744357 -0.18900332 -0.0004000778 1.3427489e-05 -0.10231644
0.0004973612 -0.0010785566 -9.4214076e-05 -0.01322964 4.7458423e-05 -0.002281869 -0.21529773 -0.19976012
-0.0042168815 -0.21338707 -0.013162309 -0.0014137411 -0.09883387 -0.09476307 -0.008166229 -0.17587942
-0.033146594 -0.28743982 -0.0438738 -0.14520195 -0.0015063187 -0.034602284 -0.052319046 0.013449687
-0.02319333 -0.10613559 -0.03321071 -0.114766166 -0.0034301993 -0.028769804 -0.19696361 -0.059751574
0.012025504 -0.010093063 -0.023408452 -0.27141306 -0.21913557 -0.046930924 -0.045911692 -0.03436641
-0.0429538 -0.059368834 -0.03563593 -0.074298665 -0.0746349 -0.26339054 -0.13234943 -0.07557024
-0.11636828 0.00031451322 -0.04403181 -0.051432673 -0.29440334 -0.1217324 -0.17382583 -0.16707641
-0.095825724 -0.0048959134 0.0053414917 -0.05284788 0.00023858275 -0.12511086 0.0033233333 -0.13266392
0.0034241392 -0.06771906 -0.059648123 -0.108354665 -0.05572558 -0.12239333 -0.21323813 -0.00068724394
-0.17954355 -0.017840816 -0.21584882 -0.18832067 -0.053333152 -0.018965982 -0.057871748 -0.053939454
-0.24882546 -0.20868994 -0.17541532 -0.08968896 -0.01387254 -0.053951148 -0.14215688 0.001125445
-0.038689937 -0.0014925185 0.0016544024 0.0005696124 0.002501245 -0.06727013 -0.0012317557 -0.13013694
-0.034091055 -0.02620658 0.06499451 -0.03572834 -0.19845268 -0.015915528 0.004132607 -0.004887206
-0.06219491 -0.07873033 -0.11228933 -0.10193807 -0.0060054203 -0.017280944 -0.14197223 -0.18975627
-0.009661513 -0.028170854 0.001029799 -0.00058181887 -0.00022489461 0.0024402249 0.0040044086 0.0011437598
-0.006411273 -0.000609835 -0.01677137 -0.04497859 -6.914072e-05 -0.0075415485 -0.00018526262 0.0030603483
-0.013059931 -0.018744966 0.00075890846 -0.0031030886 -0.04710093 -0.0047511454 -0.055820435 -0.016027369
-0.002054525 0.00030316607 0.0005877565 -0.000825811 -0.03575918 0.0025941585 -0.12987515 -0.000410018
-0.00039921745 -0.005377377 0.00837522 -0.0010171479 0.0010628538 0.0022941642 0.0018962009 -0.002012887
-0.0030974236 -0.022621345 0.0019715016 -0.03643765 -0.035965536 -0.00038058037 -0.019224804 0.0009918859
-0.00051605876 0.00023010938 0.007552704 -0.11183652 -0.00031054826 -0.00061193376 -0.0006181664 -0.0014078114
-0.08355083 -0.05574513 0.00054416654 -0.0007244926 0.32091087 0.2313531 0.023107186 0.025396563
-0.17092295 -0.24934983 -0.08555183 -0.067813575 0.055829756 -0.18236728 -0.026560225 -0.121433966
0.19735406 -0.032993715 -0.28149274 -0.119829476 -0.22238085 0.17913337 0.33056387 -0.08594921
0.07963639 -0.10916431 -0.0039700354 0.083895266 0.061018918 -0.00026719552 -0.07317841 -0.0061569368
0.108142145 0.080143005 -0.0478779 0.14565568 0.5103501 -0.038327973 0.026091633 0.12979335
0.07592889 -0.14389299 0.1420442 0.041178323 -0.029602922 -0.47880137 -0.26690096 0.10393514
-0.29612508 0.054607157 0.20617183 -0.09742786 -0.274851 -0.022409245 0.290222 -0.32793403
0.38681236 0.062094495 0.21014073 -0.15835404 -0.2441997 0.009868093 0.38178426 -0.06383881
0.007541224 0.0071525103 0.011578522 0.007219101 0.0035450638 -0.004048637 0.01814139 0.01904483
0.008714712 -0.051332153 0.016204096 -0.03191882 0.009008955 -0.07441574 0.0088995285 0.025254661

neg_net.linears.1.bias f4 [30]
00000000: 9235 95be 257e 09be 0c84 3dbe 9625 89be
00000010: 7981 d1ba 1e9b 32be 03f6 fbbd f519 213d
00000020: 97b9 b5bd 5a9d 5a3e 66b5 62be 2c02 2e3e
00000030: e044 11be d712 29be 1bd9 86be 9c61 003e
00000040: 3581 32be 9edd 023e 2186 773b 30ae 9e3d
00000050: d5aa 633e c0fb eabd 189d 06be 11e1 1c3d
00000060: d157 fabc 87bd c0bd 54c3 97bd 2c6d aabe
00000070: e36c 16be 9d1b 4e3e
-0.29142433 -0.13427027 -0.18507403 -0.26786488 -0.001598402 -0.17441985 -0.123027824 0.039331395
-0.08873289 0.21349087 -0.2213951 0.16993016 -0.1418643 -0.16511093 -0.26337513 0.12537235
-0.17432101 0.12779853 0.0037769156 0.077480674 0.22233136 -0.11473799 -0.13145864 0.038300578
-0.030559452 -0.094111495 -0.07410303 -0.33286417 -0.14689974 0.20127721

neg_net.linears.2.weight f4 [30, 30]
00000000: be55 e1b9 19a9 113b 4234 99be 60fe e7b6
00000010: ca33 0d3a 26eb 043c fee4 84be 759e c1bc
00000020: 247e ffb8 ce50 97be 6b76 f2bd bbf1 97be
00000030: 9d1e 163b 910a 833d f41c 1b3a d217 7dbc
00000040: 8aab be3a d099 69be a65b 7ebe 8e0f 0ebe
00000050: 2a11 45be 0285 2e3a 0970 12be 8f56 97be
00000060: d01f ffbc 1e90 4b3b c084 a937 fa50 8a3d
00000070: 5445 8ab9 c2c7 53bb 7c58 a839 1896 b9bd
00000080: 8e28 823a 8dd7 23bb 69b8 b3ba 5623 87b9
00000090: 253b 8ebe 4c0a e2bd c673 d63a 9682 acbe
000000a0: 40c9 c33d 2ae3 0cbe 7cc2 0fb9 d26d 02bf
000000b0: 39df ab3c 02b9 8b3e a5c1 273e dee9 843e
000000c0: addb b1be 5a3f e4be d00e 35be e234 56bd
000000d0: c90e bbb9 0212 93be 0f5e bc3c 986c d839
000000e0: 3a8c 7ab9 ecd7 803d d2a9 8cb9 c474 073f
000000f0: 9711 a9bb c4c6 933d 5d93 babd 0bff 963c
00000100: 1040 ee39 9750 7e3a 216c 833e 0874 6ebe
00000110: 0d70 fdbb 5da0 8f3e 2fd5 433d 1669 5c3e
00000120: 8fed 933a bd7e a6bd 66da 9ebe f1b0 9c3e
00000130: c577 0dbe c5d7 b33d dee2 313e 1449 463d
00000140: a344 1f3e 9999 01bf 0657 97bd 20d7 10be
00000150: a366 07bb 8c2d a1bc 1c34 84bb 1c9e 8dbd
00000160: 4662 7d3a 2d54 313f 4eee 59bc 1aa7 ad3d
00000170: 881d 05be cc09 993b 52f2 453a e876 10ba
00000180: 7215 8e3e 4e5d 97be 5bd0 083c 61c4 5fbe
00000190: 94d2 88bd f66c 4cbe f12f f7b9 26f2 42be
000001a0: bab3 fabd fefe 9ebd 9d37 683e 8d5f adbe
000001b0: 7e03 403e f824 973d 1ff2 f93d 929a 5ebe
000001c0: 5ff4 bc3b 1b77 c0bc d8f6 0dbe 69de e53b
000001d0: db01 e4ba 54bc 56be db67 963c 90dd 1a3e
000001e0: 7d61 e63a 58ba 953d eff0 923d 4eff 3aba
000001f0: a8bb 3ab9 2946 253a b187 a13b 14b7 163b
00000200: 7627 d73c 1bf1 aebe 6b69 d0bd 1cc4 a8bd
00000210: 2bac fc39 501a 0a39 2b9e 3c3e a11a ffbc
00000220: b020 d6bd be57 81be a010 cdbd 811f c0bd
00000230: 731f ba3e d49d 343f cb3a b3bb 599a be3d
00000240: 1026 4e39 f8f4 a43a 7e41 803b 1c25 3bbe
00000250: 78b4 92bb 2e27 063f 0297 b4bc 2515 76bc
00000260: 0cf0 8cbd 2c6c d0bc ed01 433a cd33 95bc
00000270: 24fb 6ebe 4568 de3c 17e1 433c 4883 2d3d
00000280: dc85 61be d173 33be 6224 683a 06b7 2bbe
00000290: baf7 143e e4f4 c43e 3af5 bf3e df76 50be
000002a0: 4c54 90be a39a 043e 3aa1 d23e 86df d33e
000002b0: 4194 55bc 0cc2 89be cfcf 78be fcb6 acb9
000002c0: 0977 cd39 b750 47be 0872 0e39 e200 d6be
000002d0: 5c4b 1d3c 8a1f ddbc 077e c3bd 8fc2 91bb
000002e0: 9ab6 76ba b772 d23c b76c 15be 9d48 1bbd
000002f0: 8079 17bb 6f39 ca3e 70b2 3ebd d4a6 01bf
00000300: 7625 e13a 6180 413f 3c1c 5dbb ca2a bcbc
00000310: 8d16 813d 14fb 5dbe 166b 1cbd d31c 87bc
00000320: 2610 cdbd 5cfe d6be cd24 86bc 0143 a83e
00000330: dfaf a4bd 65c4 a8ba eab1 b739 1a0a a33e
00000340: 286c 37bd b8f9 77bd 8557 163e 687e 963e
00000350: 2ca1 38bd e7ce cabd e879 67bb ea70 a03c
00000360: f314 b13e 5f99 213e 0c68 01bc b498 173e
00000370: e1b4 3c3e b8f3 8ebe e60c bbba 6b3b b2bd
00000380: 2711 8fbe 5eee 39be a891 16bd 4029 7ebc
00000390: b9f6 913e 33ee 1b3e d686 31bd ddca 8bbe
000003a0: de97 8c3d 31d2 123e 21f6 9c3e 6fc8 023c
000003b0: 77b7 613c 8d65 5ebd a91f ebba e45e 333e
000003c0: f615 aeba 2071 203c 3c48 d23a ee83 253a
000003d0: e7c6 ae39 8c59 31b8 7720 a93b b457 49ba
000003e0: 3fbf f139 78e1 8fbc 72ed 10bb 3d71 d53c
000003f0: 933b 9c39 abc2 723c cbb3 713d f220 90bd
-0.00042979227 0.0022226034 -0.29922682 -6.9139496e-06 0.00053864403 0.008112704 -0.25955957 -0.023635129
-0.00012182843 -0.29553837 -0.11838993 -0.29676613 0.002290643 0.063985 0.0005917095 -0.015447574
0.0014546972 -0.22812581 -0.24839649 -0.13873121 -0.19244829 0.0006657393 -0.1430055 -0.29558226
-0.0311431 0.0031061242 2.0208186e-05 0.06753726 -0.00026373065 -0.003231511 0.00032109383 -0.09061831
0.0009930299 -0.0025000304 -0.0013711575 -0.00025775534 -0.277795 -0.1103712 0.0016361407 -0.3369338
0.0955987 -0.13758531 -0.00013709994 -0.5094882 0.020980464 0.27289587 0.16382463 0.25959677
-0.34737912 -0.44579583 -0.17681432 -0.052296527 -0.00035678435 -0.28724676 0.02299407 0.0004127964
-0.00023894096 0.06291184 -0.00026829407 0.52912545 -0.0051595676 0.07215646 -0.091101386 0.01843216
0.00045442628 0.000970134 0.25668433 -0.2328645 -0.0077343048 0.28052035 0.04781073 0.21524462
0.0011286008 -0.08129642 -0.31026 0.30603746 -0.1381522 0.08781389 0.17371699 0.048409536
0.15553527 -0.50624996 -0.07389645 -0.14144564 -0.0020660541 -0.019675039 -0.0040345322 -0.069149226
0.0009665828 0.6926907 -0.013301445 0.08479138 -0.12999547 0.0046703573 0.0007551062 -0.00055108825
0.27750736 -0.29563373 0.008350457 -0.21852256 -0.066807896 -0.1996344 -0.0004714723 -0.19037685
-0.12241311 -0.0776348 0.22677465 -0.33861962 0.18751332 0.07380098 0.12204384 -0.21738651
0.005766436 -0.023494294 -0.13863695 0.0070150387 -0.0017395573 -0.20970279 0.018360069 0.15123582
0.0017576661 0.07310933 0.07174861 -0.000713338 -0.0001780825 0.0006304705 0.0049295058 0.0022997307
0.026263934 -0.34168324 -0.10176357 -0.0824053 0.0004819346 0.00013170508 0.18419711 -0.031140627
-0.104554534 -0.25262254 -0.100129366 -0.09381009 0.3635212 0.70553327 -0.005469655 0.09306783
0.0001965987 0.0012585213 0.0039140573 -0.18275875 -0.00447708 0.52403533 -0.022044662 -0.01501969
-0.06881723 -0.025442205 0.00074389466 -0.018213177 -0.2333799 0.027149329 0.011955521 0.042361528
-0.2202372 -0.17524649 0.0008855519 -0.16769037 0.14547625 0.38468087 0.3749178 -0.20357846
-0.28189313 0.12949614 0.4113863 0.41381472 -0.013035835 -0.2690586 -0.24298023 -0.0003294273
0.00039189335 -0.19464384 0.00013584655 -0.4179755 0.009600487 -0.026992578 -0.09545522 -0.004448242
-0.0009411365 0.025689466 -0.14592253 -0.037911046 -0.002311319 0.39496943 -0.04655689 -0.50645185
0.0017177302 0.75586516 -0.0033738753 -0.022969622 0.06303129 -0.2167781 -0.038188063 -0.016493237
-0.10012846 -0.41990936 -0.01637497 0.3286362 -0.08041357 -0.0012875913 0.00035037036 0.31843644
-0.04478088 -0.060540885 0.14681824 0.29393315 -0.04507558 -0.09902745 -0.0035320465 0.019585092
0.34586295 0.15781163 -0.007898342 0.14804345 0.18428375 -0.27920318 -0.0014270812 -0.08702739
-0.27942774 -0.18157336 -0.036760002 -0.015512764 0.28508547 0.15227585 -0.04334148 -0.2730321
0.06864904 0.14337994 0.3065653 0.007982357 0.013776652 -0.054296065 -0.0017938513 0.17516667
-0.0013281691 0.009792596 0.0016043256 0.00063139095 0.0003333606 -4.2283486e-05 0.005161341 -0.000768061
0.00046109591 -0.017563567 -0.0022114185 0.026054973 0.00029799025 0.01481692 0.059009355 -0.07037534

neg_net.linears.2.bias f4 [30]
00000000: c381 cbbe 7cb9 7fbe 9478 373e 125e 47bd
00000010: 6075 e73c b0d0 74be 64e6 a9be 74d3 a33e
00000020: 5552 afbd 3502 49be 1a73 5fbe 702b 5ebe
00000030: ebe4 30bd 2ab6 eebd 3ea9 fcbd 5613 a0bc
00000040: fae7 10bb 1842 b93e 5f0d b5be 37d9 123e
00000050: 1839 14be e187 92be a8aa 6e3d d19b 94be
00000060: 8a0c 1fbe 427c 0abc 4f53 0abe a4a5 623d
00000070: c57c a23e 44a9 5d3e
-0.39747438 -0.249731 0.1791709 -0.048673697 0.028254211 -0.23907733 -0.33183587 0.31997263
-0.085606255 -0.19629748 -0.21821252 -0.21696258 -0.043187063 -0.11655839 -0.12336968 -0.01954047
-0.0022110925 0.36183238 -0.35361764 0.14340673 -0.14474905 -0.28619292 0.05826822 -0.29025128
-0.15532127 -0.008452477 -0.13508342 0.05533375 0.31735817 0.21646601
