data/Backup/1/train/N100/D6_SinCosInput/3/result/model/ReLU_Dual_UDirection_PKD.pt (torch_old, 22776 bytes, 20 tensors)

input_mean f4 [12]
0	0xb9a2df70	-0.00031065522
1	0x3e81ed9b	0.2537659
2	0xba5d0439	-0.000843111
3	0x3e7646fb	0.24050514
4	0x3e75c021	0.23999073
5	0xba913b17	-0.0011080232
6	0x3f6ba7e4	0.92053056
7	0x3f6c128f	0.9221582
8	0x3f71306f	0.9421453
9	0x3e2f450a	0.1711618
10	0x3e7f093c	0.24905866
11	0x3f6b86ba	0.9200245

input_std f4 [12]
0	0x3ec4c1d0	0.38429117
1	0x3e8edd73	0.27903327
2	0x3ea99e8e	0.3312878
3	0x3f232047	0.63721126
4	0x3f29f9d9	0.6639686
5	0x3ec55dbf	0.38548085
6	0x3d8fff3d	0.07031105
7	0x3dafca18	0.08583468
8	0x3d5140cd	0.05108719
9	0x3f36400d	0.71191484
10	0x3f29b7f1	0.662963
11	0x3d903565	0.07041434

output_mean f4 [6]
0	0x3cddd6b8	0.027079925
1	0x3eef278f	0.46709868
2	0x3e476ceb	0.19475143
3	0xbbc8b3a7	-0.006124932
4	0xba9a4f1a	-0.0011772842
5	0x3b061f00	0.0020465255

output_std f4 [6]
0	0x3d14ca8e	0.036325984
1	0x3e228fcb	0.15875165
2	0x3e12efa5	0.1434923
3	0x3dd4c1cf	0.103885286
4	0x3d14690f	0.036233004
5	0x3c9014a3	0.017587965

pos_net.linears.0.weight f4 [30, 12]
0	0x3eb26505	0.34842697
1	0x3d8dd0fa	0.06924625
2	0xbe66fc2b	-0.22557132
3	0x3e978bab	0.29598746
4	0x3ed57a0d	0.4169468
5	0x3ea4c528	0.32181668
6	0xbd51f526	-0.051259182
7	0x3d6899a8	0.056787163
8	0x3e200765	0.15627821
9	0xbe8e4ed8	-0.27794528
10	0xbe39e7d9	-0.18154849
11	0x3cc79840	0.02436459
12	0xbee43cd4	-0.44577658
13	0xbea71d4a	-0.32639533
14	0xbdda5aee	-0.10661875
15	0xbe68a7f4	-0.22720319
16	0x3e163025	0.14666803
17	0xbe0b2499	-0.1358818
18	0x3d738d9d	0.059461225
19	0x3c1ec357	0.009690127
20	0xbda11112	-0.07864584
21	0x3cdb0c9d	0.026739413
22	0xbdd24a8d	-0.10268126
23	0x3c67080c	0.01410104
24	0xbc7bdbb0	-0.015372202
25	0x3e67a45f	0.22621296
26	0x3e92b8ac	0.28656518
27	0xbe57e159	-0.21082057
28	0x3e8e946c	0.27847612
29	0xbf0658ba	-0.52479136
30	0x3dac8e50	0.084255815
31	0x3ded9cd0	0.11602175
32	0x3e466381	0.19373895
33	0x3d89f030	0.06735265
34	0x3e95b5d0	0.29240274
35	0x3d098d1c	0.033581838
36	0xbd4c1978	-0.049828976
37	0x3e4c968e	0.19979307
38	0x3ea7bb48	0.32760072
39	0xbe9c011f	-0.30469605
40	0xbf16f986	-0.5897449
41	0x3ed6b385	0.41933838
42	0x3d149f84	0.03628494
43	0xbdcffbfb	-0.10155483
44	0xbc5a3443	-0.013318124
45	0xbecbde29	-0.39817932
46	0xbeb57a02	-0.35444647
47	0xbc743ac4	-0.014906589
48	0xbbb42f3a	-0.005498794
49	0x3ea64990	0.32478
50	0x3eb65f77	0.3561971
51	0xbf100a0e	-0.5626534
52	0x3eefebfd	0.46859732
53	0xbef26062	-0.4733916
54	0xbd03bbee	-0.032161646
55	0xbd166865	-0.036720652
56	0xbd98eed9	-0.074674316
57	0xbe414588	-0.1887418
58	0x3ed4cc64	0.41562188
59	0x3e17ec58	0.14836252
60	0xbd926d28	-0.07149726
61	0x3df69ac1	0.12041236
62	0x3cab8ae6	0.020940255
63	0xbeb175de	-0.34660238
64	0xbf0f4a8b	-0.5597312
65	0x3e38290e	0.17984411
66	0xbd4e4f1b	-0.05036841
67	0x3e279bb7	0.16367994
68	0xbd139c4e	-0.036037736
69	0xbf06f799	-0.52721554
70	0x3d6f7d29	0.05846897
71	0x3e0d77a8	0.13815176
72	0x3e333aea	0.17502943
73	0xbf6eca27	-0.9327721
74	0xbcdb3a02	-0.026761059
75	0x3e9da3d3	0.3078905
76	0x3e61c943	0.22049432
77	0xbdc05fa4	-0.09393242
78	0xbd8affb3	-0.06787052
79	0x3dcc8f58	0.09988278
80	0xbdd951f5	-0.10611335
81	0x3e25a7df	0.16177319
82	0xbe18f99b	-0.14938967
83	0x3b851a48	0.004061971
84	0xbdca620f	-0.098819844
85	0x3e25b71e	0.16183135
86	0x3f1607e7	0.5860581
87	0x3f170f18	0.59007406
88	0xbeae6672	-0.34062535
89	0xbbb3ae0a	-0.0054833936
90	0xbcecaed1	-0.028891953
91	0xbc5c8c4e	-0.013461186
92	0x3b928270	0.004471116
93	0xbd8542cd	-0.06506882
94	0xbe8be423	-0.27322492
95	0x3d77903c	0.060440287
96	0xbd7c002f	-0.061523613
97	0xbec70dc1	-0.3887768
98	0xbeb78754	-0.35845435
99	0xbe89b9ec	-0.2689966
100	0x3f10a3c1	0.5649987
101	0x3e6cc74c	0.231229
102	0x3d6357fd	0.055503834
103	0x3e34ea10	0.17667413
104	0xbd8a2018	-0.06744403
105	0x3f0917fb	0.53552216
106	0xbcf94e0a	-0.03043272
107	0xbdb3435c	-0.08753082
108	0xbd2edea9	-0.042692814
109	0x3e0f48f4	0.13992673
110	0xbeb874ae	-0.3602652
111	0xbccf213c	-0.025284402
112	0xbf0175b0	-0.505702
113	0x3f0b616a	0.5444552
114	0x3d12618a	0.03573755
115	0x3e1353b5	0.143874
116	0x3e032d53	0.12810259
117	0xbe5d47b3	-0.21609382
118	0x3ee0388e	0.43793148
119	0x3e29643b	0.16542141
120	0x3cdafc2c	0.026731573
121	0xbe92396e	-0.2855944
122	0xbf013e74	-0.5048592
123	0x3ed320b8	0.412359
124	0x3f4648ce	0.7745484
125	0xbf084c42	-0.5324136
126	0x3cd7d97c	0.026348822
127	0x3d7bd698	0.06148395
128	0xbd10f4d2	-0.03538973
129	0xbef4205d	-0.4768094
130	0xbe510676	-0.20412621
131	0x3cd2b6e3	0.025721973
132	0x3d459722	0.048239835
133	0x3e998c17	0.29989693
134	0x3f285357	0.65752167
135	0xbec9e93b	-0.39435753
136	0xbe3d6543	-0.1849566
137	0xbddac73b	-0.106825314
138	0xbd4604cf	-0.04834443
139	0xbe1ba785	-0.15200622
140	0x3e02f7b8	0.1278981
141	0xbf2f38c0	-0.6844597
142	0xbedce8cd	-0.43146363
143	0x3cbef3b0	0.023309559
144	0x3cb5f490	0.022211343
145	0x3e38bd50	0.18040967
146	0xbec0e2ae	-0.37672943
147	0xbf38d181	-0.7219468
148	0xbe426531	-0.18983914
149	0xbe0d41cd	-0.13794632
150	0xbb94c297	-0.0045397985
151	0x3e2fb421	0.17158557
152	0x3e03a182	0.12854579
153	0xbde89f8d	-0.11358557
154	0x3d57b784	0.05266525
155	0xbd473478	-0.048634022
156	0xbf23b294	-0.63944364
157	0x3e4d45eb	0.20046203
158	0x3da585d2	0.08082165
159	0x3e682861	0.22671653
160	0x3d602881	0.054726128
161	0x3db44e21	0.088039644
162	0x3cafb4c1	0.021448495
163	0xbe81ed54	-0.2537638
164	0x3d65f6aa	0.05614344
165	0x3d92f65d	0.07175896
166	0xbd80b22f	-0.06283986
167	0xbd28b124	-0.04118456
168	0x3d4425ec	0.047887728
169	0x3d0a5e34	0.033781245
170	0x3f11ea40	0.5699806
171	0x3ec57865	0.38568416
172	0x3f26b82e	0.65124786
173	0x3e2015b3	0.15633278
174	0x3d4976e4	0.04918565
175	0xbe8818cc	-0.2658142
176	0xbe23c1ca	-0.15991893
177	0xbe52eea3	-0.20598845
178	0xbe6f92ff	-0.23395918
179	0xbd4a94bd	-0.049458254
180	0x3e855d06	0.26047534
181	0x3f164748	0.58702517
182	0x3ec67d3f	0.3876743
183	0x3d149727	0.036276963
184	0x3ec3d554	0.38248694
185	0x3dff3290	0.12460816
186	0xbd2be87e	-0.04196977
187	0xbd2f0db5	-0.04273768
188	0x3e17aea6	0.14812717
189	0x3f2f5198	0.6848388
190	0x3f317733	0.6932251
191	0xbc51678a	-0.012781033
192	0x3c13af07	0.009013898
193	0x3e1ab217	0.15106998
194	0x3e9b3597	0.30314323
195	0xbe1d2480	-0.15345955
196	0x3ec51c80	0.38498306
197	0xbe92ec4b	-0.28695902
198	0xbd3d1d0e	-0.046170287
199	0xbd96fff2	-0.073730364
200	0xbad30a78	-0.0016101142
201	0x3f68815a	0.90822375
202	0xbe7bbbba	-0.24583331
203	0x3d8b1364	0.06790808
204	0xbe6c20d6	-0.23059401
205	0x3e1af129	0.15131058
206	0x3ee49c97	0.4465072
207	0xbddc5ac5	-0.107595004
208	0xbe8e4c4d	-0.27792588
209	0x3e064ced	0.13115282
210	0x3da33800	0.079696655
211	0xbddac3b1	-0.106818564
212	0xbc9241d8	-0.017853662
213	0x3eceb930	0.40375662
214	0x3f20d281	0.62821203
215	0x3ca9de72	0.020735953
216	0xbcdeb5bd	-0.027186269
217	0xbf00baab	-0.5028483
218	0xbeadb0cc	-0.33923948
219	0x3e966074	0.29370463
220	0xbf1d0985	-0.6134265
221	0xbd82c3e2	-0.06385018
222	0x3b955269	0.004556943
223	0xbd92f7e3	-0.07176187
224	0x3d2f5d1d	0.04281341
225	0x3f4827ee	0.7818593
226	0x3f06113c	0.5237005
227	0x3da9e61e	0.082958445
228	0x3e6abd3f	0.22923754
229	0x3f180929	0.5938898
230	0x3ee2b243	0.44276628
231	0x3ea1ab91	0.31576207
232	0xbf06ac64	-0.526068
233	0xbe80a5c5	-0.25126472
234	0xbc208b7c	-0.009798881
235	0xbc9338c5	-0.017971406
236	0xbbd1fa18	-0.0064079873
237	0xbcd38861	-0.025821866
238	0xbe236f0e	-0.15960333
239	0x3c174ece	0.009235097
240	0x3d2a8dab	0.04163901
241	0xbecdaeb9	-0.40172365
242	0xbf05acdc	-0.5221689
243	0xbef18d71	-0.47178224
244	0x3e81f05f	0.253787
245	0x3e4da00c	0.20080584
246	0xbd129f44	-0.03579642
247	0x3d830f70	0.06399429
248	0xbe27d9dd	-0.16391702
249	0xbf16dfdd	-0.5893534
250	0x3e759e94	0.23986274
251	0xbd336cd3	-0.043804955
252	0x3d6e336d	0.058154512
253	0x3ea3a7e6	0.31964034
254	0x3e9a78ce	0.30170292
255	0x39947590	0.0002831635

pos_net.linears.0.bias f4 [30]
0	0x3e465241	0.19367315
1	0x3db7995e	0.08964799
2	0xbee92f92	-0.45544106
3	0xbef29598	-0.47379756
4	0x3dcf938f	0.101355664
5	0xbea85646	-0.3287832
6	0xbf0b775f	-0.5447902
7	0xbe18622f	-0.14881204
8	0xbec42995	-0.38312975
9	0xbedc252a	-0.42997104
10	0xbea2f241	-0.3182545
11	0xbf1030f0	-0.5632467
12	0x3e395484	0.18098646
13	0x3c0fbec8	0.008773513
14	0xbd1253da	-0.0357245
15	0x3dfec881	0.12440587
16	0x3dda3e80	0.10656452
17	0xbf20c510	-0.62800694
18	0x3e00d60f	0.12581657
19	0x3e6277a9	0.22115959
20	0xbf2b11db	-0.6682412
21	0xbf078896	-0.5294279
22	0xbec0e32b	-0.37673315
23	0xbdbf2315	-0.09332863
24	0x3e5199e0	0.20468855
25	0xbe428080	-0.18994331
26	0xbd3c164b	-0.045919698
27	0x3e511304	0.2041741
28	0xbd42b2f5	-0.047533948
29	0xbe0c767b	-0.13717072

pos_net.linears.1.weight f4 [30, 30]
0	0x3b94872e	0.0045327162
1	0xbe59ea74	-0.21280843
2	0xbdaa9e13	-0.083309315
3	0x3baafaaf	0.005217872
4	0xbd0abfc5	-0.033874292
5	0xbde4cc8d	-0.111718275
6	0x389c81da	7.4628464e-05
7	0xbe24fd7c	-0.16112322
8	0x3b97a40f	0.0046277116
9	0xbdd72541	-0.105051525
10	0xbe076383	-0.13221554
11	0xbe09c3b9	-0.13453569
12	0xbe029e03	-0.12755589
13	0xbe17ba68	-0.14817202
14	0x3d825869	0.06364519
15	0xbe2537e2	-0.16134599
16	0xbdeb600d	-0.114929296
17	0xbe27548f	-0.1634085
18	0xbe8afb43	-0.27144822
19	0xbe05ebc5	-0.1307822
20	0xbd0eabc2	-0.03483177
21	0xb89e2e62	-7.5426666e-05
22	0x3c8d34a5	0.017237017
23	0xbe882113	-0.26587734
24	0xbcbcd2c5	-0.023049721
25	0xbca8e3a0	-0.020616353
26	0xbe34249a	-0.17592087
27	0xbd2b377f	-0.041800972
28	0xbcf306bc	-0.029666297
29	0x3c6b6013	0.014366168
30	0xbe143de5	-0.14476736
31	0xbd4bfd14	-0.0498019
32	0xbd7ba548	-0.06143692
33	0xb7976218	-1.8046281e-05
34	0xbd5e0f89	-0.054214034
35	0xbc5c3025	-0.013439213
36	0x3b852d6a	0.0040642517
37	0xbe18b5c1	-0.14913084
38	0xba92b54e	-0.0011192949
39	0xbd4681e6	-0.048463725
40	0xbd9ee1ef	-0.07757937
41	0x3bae8c6e	0.005326799
42	0xbb25a1ac	-0.0025273366
43	0xbcc521a4	-0.024063893
44	0xbdcef73b	-0.10105749
45	0xbd03de04	-0.032194152
46	0xbdea2c8c	-0.11434278
47	0xbe5717c3	-0.21005158
48	0x3c3a1194	0.01135673
49	0xbdb2eb3f	-0.08736276
50	0xbbd48e3b	-0.0064866818
51	0xbc8ee1f6	-0.017441731
52	0xbe3105cf	-0.17287372
53	0xbc8deb38	-0.017324075
54	0xbcaf934c	-0.021432541
55	0xbdd8f195	-0.10592953
56	0xbe81012d	-0.2519621
57	0xbe2f6ffc	-0.17132562
58	0xbdc7642a	-0.09735902
59	0xbdbb1288	-0.09134394
60	0xbd03c34d	-0.032168675
61	0xbcfbc544	-0.030733712
62	0x3bc268a4	0.0059328843
63	0xb792c3b4	-1.7495688e-05
64	0x3b1baf9a	0.002375579
65	0xbc57bf8b	-0.013168226
66	0xbb582aeb	-0.0032984565
67	0xbdf7b272	-0.120945826
68	0x3bba1842	0.0056791613
69	0xbdeb940a	-0.115028456
70	0xbe17b319	-0.14814414
71	0xbe1b9a6d	-0.15195628
72	0xbe104666	-0.14089355
73	0xbe777bb0	-0.24168277
74	0xbe2c81f2	-0.16846445
75	0xbe5e268c	-0.21694392
76	0xbc62fff9	-0.013854974
77	0xbdc55b80	-0.09636593
78	0xbdf391a3	-0.118930124
79	0xbdd25786	-0.102706
80	0xbc957850	-0.018245846
81	0x3beaf1eb	0.007169952
82	0xbe0df45e	-0.1386275
83	0xbe31b8cc	-0.1735565
84	0xbb041536	-0.0020154244
85	0xbd8ed176	-0.06973545
86	0xbda024c6	-0.07819514
87	0xbe2ddcb0	-0.16978717
88	0xbd940cd6	-0.07229011
89	0xbd219cea	-0.039456286
90	0x3ae441b9	0.0017414606
91	0xbe34384b	-0.17599599
92	0xbdbb6aed	-0.09151254
93	0xbc4183eb	-0.011811237
94	0xbe25e69d	-0.16201253
95	0xbdb803b5	-0.08985082
96	0xba55248f	-0.0008130753
97	0xbd8bcf93	-0.06826701
98	0xbd01afd9	-0.031661842
99	0xbd838cb9	-0.06423325
100	0xbddae3fb	-0.10688015
101	0xbd3ce710	-0.046118796
102	0xbdf13b37	-0.117788725
103	0xbe0a4ce3	-0.13505892
104	0xbd10c378	-0.035342664
105	0xbe3e003f	-0.18554781
106	0xbe26f427	-0.16304074
107	0xbe260f76	-0.16216835
108	0xbe6c8650	-0.23098111
109	0xbd88a5d3	-0.066722535
110	0xbc05783c	-0.008146342
111	0x3b13732a	0.0022499063
112	0xbdc8e7f6	-0.09809868
113	0xbdd3894e	-0.10328923
114	0xbd8ec975	-0.06972019
115	0xbc37a208	-0.011208065
116	0xbe1b8d07	-0.15190516
117	0xbda1a7f1	-0.078933604
118	0xbe13aedf	-0.14422177
119	0xbd92d394	-0.071692616
120	0xbe70ca83	-0.23514752
121	0xbdaae50c	-0.083444685
122	0x3d153ed9	0.03643689
123	0xbe015e15	-0.12633546
124	0xbe37175b	-0.17880003
125	0xbcf69c52	-0.030103836
126	0x3c690a9f	0.014223724
127	0xbe865fc4	-0.26244938
128	0xbd49ad9c	-0.049237832
129	0x3b2125a8	0.0024589095
130	0xbda524c7	-0.08063655
131	0xbe1d9fc6	-0.1539298
132	0xbdc6e362	-0.097113386
133	0xbe3b69fe	-0.18302152
134	0xbe792ce7	-0.24333535
135	0xbe49c6e6	-0.1970478
136	0xbe611a43	-0.21982674
137	0xbe43da37	-0.19126211
138	0xbe1a3af6	-0.15061554
139	0xbe8de8a4	-0.27716553
140	0x3b1afd02	0.002364934
141	0xbdc71585	-0.097209014
142	0xbe10421b	-0.14087717
143	0xbe4f4ff0	-0.20245337
144	0xbd816278	-0.063176095
145	0xbe416b6e	-0.18888637
146	0xbe9ce4f7	-0.30643436
147	0xbdb84a45	-0.08998541
148	0xbe81bfb8	-0.25341582
149	0xbc82d3da	-0.01597016
150	0x3e56e5eb	0.20986144
151	0x3d6480e3	0.05578698
152	0x3e9baf7f	0.3040733
153	0x3e0811e3	0.13288073
154	0xbdd28131	-0.102785476
155	0xbeba8377	-0.36428425
156	0x3e9cb812	0.30609185
157	0x3ec30909	0.3809283
158	0xbc944986	-0.018101465
159	0x3d9821e4	0.07428339
160	0x3e4f6aaf	0.2025554
161	0x3e2a571a	0.16634789
162	0xbe9ab768	-0.30218053
163	0x3cc7a125	0.024368832
164	0x3eaee859	0.34161642
165	0xbe20631d	-0.15662809
166	0xbe81f381	-0.2538109
167	0xbe9d90ec	-0.3077463
168	0x3ed51c42	0.41623122
169	0x3e8b6e6d	0.27232686
170	0x3d6f3a63	0.05840529
171	0x3ecc70e1	0.3992987
172	0x3e099fac	0.13439816
173	0x3bc4dfa2	0.0060081044
174	0x3dd9ce2d	0.10635028
175	0x3e99c929	0.30036286
176	0x3d73fcf8	0.05956742
177	0x3e435411	0.19075038
178	0x3e0e5ca2	0.13902524
179	0xbe0c8507	-0.13722621
180	0x3d5f602b	0.054535072
181	0xbc005fd5	-0.007835348
182	0x3b66d680	0.0035223067
183	0xbca2cf80	-0.019874334
184	0xbe087df0	-0.13329291
185	0x3cd18b2f	0.025579063
186	0x3d482740	0.048865557
187	0xbd32201e	-0.04348766
188	0xbc05f0ba	-0.0081750695
189	0x3a9a6b38	0.0011781221
190	0xbce26e74	-0.027640559
191	0xbd643077	-0.055710282
192	0xbe0f0a56	-0.13968787
193	0xbd4c8a70	-0.04993671
194	0xbd3d7eba	-0.046263434
195	0xbe545b27	-0.20737897
196	0xbe2a8c0e	-0.16654989
197	0xbdbb0ea7	-0.09133654
198	0xbd55ac7e	-0.052166454
199	0xbe07e881	-0.13272287
200	0x3c7e3cf4	0.015517462
201	0x3c96a922	0.018391196
202	0xbd816a08	-0.06319052
203	0xbd2b2b0e	-0.041789107
204	0xbd9d6af8	-0.07686418
205	0xbd2a821a	-0.04162798
206	0xbe201f13	-0.15636854
207	0xbd84f9c4	-0.064929515
208	0xbe4af133	-0.19818573
209	0xbcd6f210	-0.026238471
210	0xbbcdf307	-0.0062850746
211	0xbd90365a	-0.07041617
212	0xbdf27065	-0.11837844
213	0xbbda6578	-0.006664928
214	0xbd834b7d	-0.064108826
215	0xbd23be10	-0.03997618
216	0xba6a9fa9	-0.0008950183
217	0xbde81a55	-0.113331474
218	0x3b0b8739	0.0021290316
219	0xbd9ac637	-0.07557338
220	0xbdf48aca	-0.119405344
221	0xbe3c5e40	-0.18395329
222	0xbe5c054a	-0.21486393
223	0xbe7d906d	-0.24762125
224	0xbd826347	-0.06366592
225	0xbe9b5ccf	-0.30344245
226	0xbdf900b7	-0.121583395
227	0xbe4e219d	-0.2013001
228	0xbe61dc67	-0.22056733
229	0xbddbe2c5	-0.10736612
230	0xb9e52174	-0.00043703208
231	0x3ba52450	0.005039729
232	0xbe62a755	-0.22134145
233	0xbe0edf51	-0.13952376
234	0xbc1afaab	-0.009459178
235	0xbd0740e4	-0.03302087
236	0xbe53a5ca	-0.20668712
237	0xbdfb6493	-0.122750424
238	0xbe16ac80	-0.14714241
239	0xbd8137ea	-0.06309493
240	0xbd7533d2	-0.059863873
241	0x3e84cb7f	0.25936505
242	0x3f14a38f	0.5806207
243	0x3f069f55	0.5258687
244	0x3eeb4e09	0.45957974
245	0x3dbf9c23	0.093559526
246	0xbd59500b	-0.05305485
247	0x3da2bfa9	0.079467125
248	0xbe1df6c0	-0.15426159
249	0x3f2be001	0.6713868
250	0x3f5eeb56	0.87077844
251	0x3df9501e	0.12173484
252	0x3d44465a	0.047918655
253	0x3ecd5b15	0.40108553
254	0xbeb3ef5e	-0.3514356
255	0xbcd0c6f4	-0.025485493

pos_net.linears.1.bias f4 [30]
0	0xbe184b38	-0.14872444
1	0xbc786bb8	-0.015162401
2	0xbea653c3	-0.3248578
3	0xbe9abfee	-0.30224556
4	0xbea98cbc	-0.33115184
5	0x3e19c589	0.1501676
6	0xbe44099c	-0.1914429
7	0xbdf1ab8e	-0.118002996
8	0x3ccb3b76	0.024808627
9	0xbde78ad9	-0.1130578
10	0xbdcb86fc	-0.099378556
11	0x3e85c83e	0.26129335
12	0xbd6a5b17	-0.057215776
13	0xbe13318e	-0.14374372
14	0xbe0a1d20	-0.13487673
15	0x3cd37a0d	0.025815034
16	0x3ece586b	0.40301833
17	0x3cd99d83	0.026564365
18	0xbe52cb46	-0.20585355
19	0x3e207123	0.15668158
20	0xbe104d9f	-0.1409211
21	0xbde61698	-0.11234778
22	0xbecbd654	-0.39811957
23	0xbe346e0c	-0.17620105
24	0x3dafa5a0	0.08576512
25	0x3e015e63	0.12633662
26	0x39de4ce0	0.00042400416
27	0x3d2f0b4c	0.042735383
28	0x3e0de15d	0.138555
29	0xbd9127ca	-0.07087667

pos_net.linears.2.weight f4 [30, 30]
0	0xbbd25fe3	-0.006420122
1	0xb9086c98	-0.00013010425
2	0x3ba45a61	0.005015657
3	0x3b81b5f7	0.0039584595
4	0xbe500722	-0.20315221
5	0x3e274b38	0.16337287
6	0xbdb44faa	-0.08804257
7	0x37e77550	2.7591974e-05
8	0xbf10d874	-0.5658028
9	0xbb51b5db	-0.0031999263
10	0xbd7516aa	-0.059836067
11	0x3e2d708f	0.16937469
12	0x3e8d44ea	0.2759164
13	0x3e1bccdf	0.15214871
14	0xb9bf104e	-0.00036442507
15	0x3c458bea	0.012057284
16	0xbde604e3	-0.11231401
17	0x3e0e80c1	0.13916303
18	0x3b66f074	0.0035238536
19	0x3b34c1fa	0.002758144
20	0xbad464a9	-0.0016204315
21	0x3af3e540	0.001860775
22	0xbe0aa4fb	-0.13539498
23	0x3ce8793f	0.028378127
24	0x3f154c41	0.5831948
25	0x3dc4fe85	0.09618858
26	0x3e56a9e9	0.20963253
27	0xbde3b90f	-0.111192815
28	0x3e3173bf	0.1732931
29	0x3eabf529	0.3358548
30	0xbe612f00	-0.21990585
31	0xbe2f2e39	-0.17107476
32	0xbda8aa82	-0.08235647
33	0xbe5ed292	-0.21760014
34	0x3d6c4177	0.05767962
35	0xbe8a1e98	-0.26976466
36	0x3c71ca3f	0.014757692
37	0xbdcfc79f	-0.101454966
38	0x3e706379	0.23475446
39	0x3ae41288	0.0017400542
40	0xbdd35b8d	-0.10320196
41	0x3db36248	0.0875898
42	0x3db5a6fd	0.08869741
43	0xbd9b379d	-0.07578967
44	0xba98d5d4	-0.0011660405
45	0xbe3fe775	-0.18740638
46	0xbddf52f8	-0.10904497
47	0xbd040635	-0.032232482
48	0xbc820c37	-0.015874965
49	0xbe82b1d3	-0.25526294
50	0x3b074bc3	0.0020644523
51	0x3b7b5658	0.0038351025
52	0xbe14a966	-0.14517745
53	0x3d18fdb4	0.037351325
54	0xbeae91d4	-0.34095633
55	0x3c924a3b	0.017857661
56	0x3e14e54e	0.14540598
57	0x3d385af5	0.04500862
58	0xbe7c9bd1	-0.24668814
59	0xbeb91371	-0.36147645
60	0xbadb086a	-0.0016710882
61	0xbb518058	-0.0031967368
62	0xbb07c518	-0.0020716842
63	0xbb0974a8	-0.0020974074
64	0x3c58abaf	0.013224526
65	0x3d2ea22e	0.042635135
66	0x3da149c3	0.07875397
67	0x3bf4de1e	0.0074727675
68	0xbe03bfad	-0.12866087
69	0x3c1491c9	0.009067961
70	0xbddbf21c	-0.10739538
71	0xbe86cbd1	-0.26327375
72	0x3eaee2a1	0.3415728
73	0xbe137402	-0.14399722
74	0xb84d0448	-4.8879796e-05
75	0x3da0afc7	0.07846027
76	0xbdf1fbef	-0.11815631
77	0xbecc703b	-0.39929375
78	0xbb532c7b	-0.0032222557
79	0x3d347106	0.0440531
80	0x39e13cd8	0.00042960676
81	0xba2e2d77	-0.0006644348
82	0xbefbcc96	-0.49179524
83	0xbe9939b9	-0.2992685
84	0x3d895512	0.06705679
85	0xbe975830	-0.2955947
86	0xbca801a8	-0.020508602
87	0x3f0f8093	0.56055564
88	0x3f1e1a7d	0.6175917
89	0xbeb74c00	-0.3580017
90	0x3b77b9c5	0.0037799936
91	0x3b976beb	0.004621019
92	0x3b1521be	0.0022755708
93	0xbc924ebc	-0.01785981
94	0x3ca0ab98	0.019613072
95	0xbe54654b	-0.20741765
96	0x3cc617cd	0.024181271
97	0x3b95d050	0.004571952
98	0xbebcfdd8	-0.36912417
99	0x39ca9d14	0.00038645475
100	0xbc600c4e	-0.013674809
101	0x3dfdef5b	0.12399169
102	0x3eb8040e	0.35940593
103	0xbe91d724	-0.28484452
104	0xb92ebb0d	-0.00016663615
105	0x3d069d20	0.03286469
106	0x3ea429e4	0.3206321
107	0xbca5900c	-0.020210288
108	0x3abe6a8c	0.0014527603
109	0xbe105399	-0.1409439
110	0x396f0862	0.00022795939
111	0xbacb3629	-0.0015503812
112	0x3d9af813	0.07566848
113	0x3e857de1	0.260726
114	0xbecf5140	-0.40491676
115	0x3b46509d	0.0030260452
116	0x3e83f679	0.2577398
117	0x3c9798ab	0.018505415
118	0xbdd681b5	-0.104739584
119	0xbdffd55b	-0.12491866
120	0xbb16cae0	-0.0023009107
121	0xbb3af201	-0.0028525593
122	0x39b4bc44	0.00034472544
123	0x3aec6368	0.0018034996
124	0xbb68455d	-0.0035441734
125	0xbb83b4bf	-0.0040193493
126	0x3b904cbd	0.004403679
127	0xbbe98f9e	-0.007127716
128	0xbb27428f	-0.002552185
129	0xbcb94e45	-0.02262033
130	0xbb3b18df	-0.002854876
131	0xbb5125b7	-0.003191335
132	0x39aa23e2	0.00032451662
133	0x3aae6b4a	0.0013307121
134	0xbad4abc1	-0.0016225503
135	0xbc6c7f80	-0.014434695
136	0xbcaf4467	-0.021394921
137	0xbd432103	-0.047638904
138	0xbc963d8d	-0.018339897
139	0xbb60d5e6	-0.003430718
140	0xbd6a21a6	-0.057160996
141	0xbc234323	-0.009964737
142	0x3a3c479c	0.00071823015
143	0xbc414e6f	-0.011798485
144	0x3a779f2b	0.000944602
145	0xbded7243	-0.11594059
146	0xbcd9a6c0	-0.02656877
147	0xba1d4b54	-0.00060002995
148	0x39f8bc98	0.0004744276
149	0xbe2a1330	-0.16608882
150	0xbe2c27fc	-0.16812128
151	0xbe1974b5	-0.14985926
152	0xbde3c4b1	-0.111215
153	0xbdf737ac	-0.120711654
154	0x3b28b3d8	0.002574196
155	0xbd9cc038	-0.0765385
156	0xbb04bf78	-0.0020255726
157	0x3cbf65a4	0.023363896
158	0xbe206755	-0.15664418
159	0x3d065dee	0.032804422
160	0xbe8933c0	-0.26797295
161	0xbed39461	-0.41324142
162	0x3b214817	0.002460962
163	0xbd3dcf08	-0.04634002
164	0x39d35db8	0.00040314882
165	0xbdf1d9c7	-0.11809116
166	0xbe26c008	-0.16284192
167	0xbe5f2ac5	-0.21793659
168	0xbd457afb	-0.048212986
169	0xbdac1a28	-0.084034264
170	0x3ced42ac	0.028962456
171	0xbd172a89	-0.0369058
172	0x3a68be79	0.00088784803
173	0xbc7aed02	-0.015315296
174	0xbe0cb076	-0.1373919
175	0xbe9759d4	-0.2956072
176	0xbe3eeecb	-0.1864578
177	0xba5ff7ce	-0.00085437007
178	0xbd8107ae	-0.06300293
179	0x3ce881b2	0.028382156
180	0xbd10a59f	-0.0353142
181	0xbe6c5baa	-0.23081842
182	0xbde9543f	-0.11393022
183	0xbdd8085a	-0.10548468
184	0xbadd1fbb	-0.0016870418
185	0x3cf94328	0.03042753
186	0xbbfdea1d	-0.0077488557
187	0xbd8beef5	-0.06832687
188	0xbef552f0	-0.4791484
189	0x3d91bb3f	0.071157925
190	0xbded984a	-0.116013125
191	0xbe5e5c13	-0.21714811
192	0xbe10f05b	-0.14154188
193	0xbd1cf83c	-0.038322672
194	0x39901922	0.00027484546
195	0xbdc68c66	-0.096947476
196	0xbd7fd752	-0.062461205
197	0xbe6cdf3c	-0.23132032
198	0xbd9487ba	-0.0725245
199	0x3e5983d9	0.21241702
200	0x3d43c31e	0.0477935
201	0xbadd6259	-0.0016890272
202	0xbbb04a17	-0.005379926
203	0xbc1aa572	-0.009438859
204	0x3e009bcf	0.12559436
205	0xbe00eff1	-0.1259153
206	0xbebae9b8	-0.36506438
207	0x3ebd7a22	0.37007242
208	0xbdc2739e	-0.094947085
209	0xbea39f6e	-0.31957573
210	0xbdec0cb4	-0.115258604
211	0xbdb70328	-0.08936149
212	0xbd6e6289	-0.05819944
213	0xbe838ef6	-0.25695008
214	0x38c228c8	9.258237e-05
215	0xbe945b57	-0.28975937
216	0x3b204e91	0.0024460892
217	0xbe2e2e6a	-0.17009893
218	0xbe345901	-0.17612077
219	0xbb0644c9	-0.0020487776
220	0xbe60b63f	-0.21944521
221	0xbdf9bf0b	-0.12194642
222	0x399fe2fd	0.00030495963
223	0xba3289d0	-0.0006810697
224	0xba832cdd	-0.0010007877
225	0xbe6880a8	-0.22705328
226	0xbdc49bc8	-0.096000254
227	0xbe60cacc	-0.21952361
228	0xbd19fed6	-0.037596546
229	0xbe656998	-0.22403562
230	0x3acf778b	0.0015828473
231	0xbafad86e	-0.0019137987
232	0xb979f6e8	-0.0002383847
233	0xb90357de	-0.00012525867
234	0xbd6b9905	-0.057518978
235	0xbe2a4dae	-0.16631195
236	0xbd888ae5	-0.06667117
237	0xba06c144	-0.0005140493
238	0xbe09613f	-0.13416003
239	0xbea1e4c1	-0.31619838
240	0xbc021582	-0.007939698
241	0x3ab9905f	0.0014157406
242	0x3a800aca	0.000976884
243	0xbc14db51	-0.009085492
244	0xbe40a5ac	-0.18813199
245	0x3dc6e934	0.09712449
246	0xbe3b147a	-0.1826953
247	0x3d203fc6	0.03912332
248	0x3dc0d562	0.094156995
249	0xbb1a9b6b	-0.0023591171
250	0x3caf7e14	0.021422423
251	0x3ece8dc4	0.40342534
252	0x3e8403e1	0.2578421
253	0x3eb5889e	0.35455793
254	0x3a41527c	0.0007374657
255	0x3dc98f03	0.098417304

pos_net.linears.2.bias f4 [30]
0	0x3d7bab79	0.061442826
1	0x3e18b2bc	0.14911932
2	0x3dd63a79	0.104603715
3	0x3ee2e31a	0.4431389
4	0xbe95a637	-0.29228374
5	0x3cd6a757	0.02620284
6	0x3d0f9764	0.035056487
7	0xbe4f1495	-0.20222695
8	0x3ebab3c4	0.36465275
9	0xbe2a8246	-0.16651258
10	0x3e035f36	0.12829289
11	0xbe72560e	-0.2366564
12	0xbda094cc	-0.07840881
13	0xbeca5eff	-0.395256
14	0x3eb8d3e7	0.3609917
15	0x3e877d45	0.2646276
16	0x3e73beec	0.238033
17	0x3eed60f6	0.46363038
18	0xbb812b9d	-0.0039419667
19	0x3dc42da7	0.0957902
20	0x3ecc8ae9	0.3994973
21	0x3e4fc8de	0.20291469
22	0xbdf21405	-0.11820225
23	0xbe206e91	-0.15667178
24	0xbe0c2b45	-0.13688381
25	0x3db3651e	0.08759521
26	0x3ed7cf40	0.42150307
27	0xbe59a77d	-0.21255298
28	0x3dc5c32c	0.09656367
29	0x3e95bb04	0.29244244

pos_net.output_layer.weight f4 [6, 30]
0	0x3f345062	0.70435154
1	0xbebcb19e	-0.3685426
2	0xbdc96807	-0.09834295
3	0xbd2e03e0	-0.042484164
4	0x3e58307c	0.21112245
5	0xbea07ed4	-0.31346762
6	0x3dedc84e	0.11610471
7	0xbe91aafe	-0.2845077
8	0xbe7ce123	-0.24695258
9	0xbe4d3cf8	-0.20042789
10	0x3963cb48	0.00021724135
11	0x3e2b040b	0.16700761
12	0x3ad4387d	0.0016191151
13	0x3d35b991	0.044366423
14	0xbb3b3ac8	-0.0028568972
15	0x3cf67edd	0.03008979
16	0xbe4e5986	-0.20151338
17	0xbe1043b2	-0.14088324
18	0xbb6f1f1c	-0.0036487048
19	0xbd5f45dc	-0.054509982
20	0x3e8de2b9	0.27712038
21	0xbe753850	-0.23947263
22	0x3b85cac7	0.004083011
23	0x3dfbf054	0.12301698
24	0x3c5dad86	0.013530141
25	0x3dc7d9ba	0.09758325
26	0xbd8c1cbe	-0.0684142
27	0x3c2cf6e9	0.010556915
28	0x3e466549	0.19374575
29	0xbd92289e	-0.07136653
30	0xbd8778e5	-0.06614856
31	0x3ea59db7	0.3234689
32	0x3da593ec	0.080848545
33	0x3d3b02a7	0.045656826
34	0x3d602f8b	0.05473284
35	0xbe64dd19	-0.22349967
36	0x3c987ef7	0.018615229
37	0xbd8cd323	-0.06876209
38	0x3e26f3e3	0.16303973
39	0xbe686eaa	-0.22698465
40	0xbd82445b	-0.06360694
41	0x3eb84307	0.35988638
42	0xbaa2db8a	-0.0012425047
43	0x3e051ff3	0.13000469
44	0x3e6f0e14	0.23345214
45	0x3da8e0cf	0.08246004
46	0xbcb2285a	-0.021747757
47	0xbed751fd	-0.4205474
48	0x3aad202b	0.0013208439
49	0x3ea906a0	0.33012867
50	0xbe849644	-0.25895894
51	0xbeedefaf	-0.46471927
52	0xbd0a8518	-0.033818334
53	0x3d7d4ca2	0.06184066
54	0x3b126f29	0.0022344089
55	0x3e414ed7	0.18877731
56	0x3d88a746	0.0667253
57	0xbad9141b	-0.0016561778
58	0xbdc9f2c2	-0.098607555
59	0xbec8e214	-0.39234984
60	0x3e6399d9	0.22226657
61	0x3ea9e714	0.3318411
62	0xbd9b8c14	-0.07595077
63	0x3e66d494	0.2254203
64	0x3b0c5bf9	0.0021417125
65	0xbdd774f4	-0.10520354
66	0xbe4354c4	-0.19075304
67	0xbe790fe5	-0.2432247
68	0xbdafdf81	-0.08587552
69	0xbe1f58a0	-0.15561152
70	0xbe7ac400	-0.2448883
71	0x3e373761	0.17892219
72	0x3aa09262	0.0012250657
73	0x3ecc13a5	0.39858738
74	0x3ec4714b	0.38367686
75	0xbf007161	-0.50173
76	0x3cab56b6	0.02091537
77	0xbea56fc6	-0.3231184
78	0xbb9eb8d5	-0.004843811
79	0x3eeb0ed6	0.45909756
80	0xbeb223ae	-0.34792846
81	0xbdba2ba8	-0.09090358
82	0x3d1e5a76	0.03866049
83	0x3e2c32c7	0.16816245
84	0x3bf71c10	0.007541187
85	0xbe6c5f11	-0.2308314
86	0x3e06f07a	0.13177672
87	0xbb2fde9b	-0.0026835564
88	0x3b444a79	0.0029951616
89	0x3d97793a	0.07396169
90	0x3c9ba1ed	0.01899811
91	0xbe9625c7	-0.29325697
92	0xbe394bb5	-0.18095286
93	0xbea3e185	-0.32007995
94	0x3d9f5501	0.07779885
95	0x3bf41c5e	0.0074496707
96	0xbd7c5b9d	-0.061610807
97	0xbdff7d8a	-0.124751166
98	0x3ea559b9	0.32295015
99	0xbe5b2289	-0.21399893
100	0xbeef2107	-0.46704885
101	0x3eb16f6c	0.3465532
102	0x3bb6994a	0.0055724727
103	0xbe6a0f89	-0.22857489
104	0x3e3e19d1	0.18564536
105	0xbed94efe	-0.4244308
106	0x3e7d8399	0.24757232
107	0x3eddf579	0.43351343
108	0x3c53bfce	0.012924148
109	0xbe365da3	-0.17809157
110	0x3e2193e0	0.15779066
111	0xbe1b2cf5	-0.15153868
112	0x3ddbc2e3	0.10730531
113	0x3e0650bc	0.13116735
114	0x3d171d09	0.036892924
115	0xbdae6242	-0.08514835
116	0x3e999870	0.29999113
117	0x3d887ca4	0.06664398
118	0x3e89d6f8	0.2692182
119	0xbee6f09d	-0.45105448
120	0x3e0f354c	0.13985175
121	0x3e17f89e	0.14840934
122	0xbf077b81	-0.52922827
123	0xbe9aa967	-0.3020737
124	0x3db159a6	0.08659677
125	0xbdf0d3f0	-0.11759174
126	0xbe3b5359	-0.18293513
127	0xbdf3ce86	-0.119046256
128	0x3e3e186c	0.18564004
129	0xbe02da26	-0.1277853
130	0x3c7971b9	0.0152248675
131	0x3b8853c3	0.004160376
132	0xb9935d92	-0.0002810774
133	0xbeb00ad1	-0.34383252
134	0xbe3335f0	-0.17501044
135	0x3efd82e2	0.49513918
136	0xbeb4ba82	-0.35298544
137	0x3d859bef	0.065238826
138	0x3af5e801	0.0018761159
139	0x3e108b42	0.14115623
140	0x3d9a01de	0.075198874
141	0xbdd8f9af	-0.10594498
142	0x3dd12605	0.1021233
143	0x3e1fc844	0.15603739
144	0x3cb9cf41	0.022681834
145	0xbedac2b0	-0.4272666
146	0x3f0e8a1f	0.55679506
147	0x3c230979	0.009950989
148	0xbd86f5fe	-0.06589888
149	0xbdaedf28	-0.085386574
150	0x3e3c99dd	0.18418069
151	0xbe3cf612	-0.18453243
152	0x3eb6d904	0.35712445
153	0x3e7d6d79	0.24748792
154	0x3b4a2c7a	0.0030849264
155	0xbe15f1bb	-0.14642994
156	0xbe0a97f5	-0.1353453
157	0xbe6411f5	-0.22272475
158	0x3e9bf75b	0.30462155
159	0xbe54b714	-0.20772964
160	0xbe92d36b	-0.28676924
161	0xbe3be886	-0.1835042
162	0x3b3aa906	0.0028482093
163	0x3e00e35c	0.1258673
164	0x3ee74dea	0.4517663
165	0xbdde23e6	-0.10846691
166	0x3dda79df	0.10667776
167	0xbe6fedeb	-0.23430602
168	0xbbafebd6	-0.00536869
169	0xbf236a59	-0.6383415
170	0x3ec3f8b8	0.38275695
171	0x3e4078d3	0.18796091
172	0x3c0143c7	0.0078896945
173	0x3b080906	0.0020757332
174	0xbb78c624	-0.0037959898
175	0xbd6f30a0	-0.05839598
176	0x3ed9381b	0.42425618
177	0xb9e1bf86	-0.0004305804
178	0xbeb5a8f0	-0.35480452
179	0xbdb9f7ce	-0.09080468

pos_net.output_layer.bias f4 [6]
0	0xbe5c58f5	-0.2151831
1	0x3dd69e13	0.10479369
2	0x3ede79d8	0.43452334
3	0x3e8cdf70	0.2751422
4	0x3e87ff2c	0.26561868
5	0x3e8a40b6	0.27002496

neg_net.linears.0.weight f4 [30, 12]
0	0xbdfb07b5	-0.122573294
1	0x3e8eeeed	0.2791666
2	0xbe59d7fe	-0.212738
3	0xbf662083	-0.8989336
4	0xbebda32b	-0.3703855
5	0x3e16d318	0.14728963
6	0x3ea80046	0.3281271
7	0x3d477538	0.048695773
8	0xbddf0fae	-0.108916625
9	0xbdff954f	-0.1247965
10	0xbd7e623e	-0.06210541
11	0x3daea9f5	0.085285105
12	0x3d47cb81	0.04877806
13	0xbe676aae	-0.22599289
14	0x3ec7682e	0.3894667
15	0x3f05ab6b	0.5221469
16	0x3cfc2116	0.030777495
17	0xbe902c47	-0.2815878
18	0x3da62805	0.08113102
19	0xbea45c2c	-0.32101572
20	0x3d4e6248	0.050386697
21	0x3efaf435	0.4901444
22	0x3f08a5d2	0.5337802
23	0x3d82be1e	0.06383918
24	0xbf2cae20	-0.67453194
25	0xbed3a386	-0.41335696
26	0xbe6b782d	-0.22995062
27	0xbcc146d9	-0.023593353
28	0x3eb4ee7c	0.353382
29	0x3e9ac717	0.30230018
30	0xbdf87b44	-0.12132886
31	0x3b8ac932	0.00423541
32	0x3c5a380c	0.013319027
33	0x3ed9d212	0.42543083
34	0x3e8ac478	0.2710302
35	0xbd31d36e	-0.043414526
36	0xbcc31057	-0.023811502
37	0x3d46d42c	0.048542187
38	0x3e97f17a	0.2967642
39	0xbf08f296	-0.53495157
40	0xbf1f3ec4	-0.6220515
41	0x3eb4bedc	0.35301864
42	0xbd02f470	-0.031971395
43	0x3dbc458c	0.091929525
44	0x3e0c9a30	0.13730693
45	0x3f1acdfc	0.6047056
46	0xbed011b7	-0.40638515
47	0x3d89d4b1	0.06730021
48	0x3f5829b9	0.84438664
49	0xbd21a6d6	-0.039465748
50	0x3e819132	0.25306088
51	0x3f22e171	0.63625246
52	0xbd58850f	-0.05286127
53	0x3d11f5de	0.035634868
54	0xbe8d674a	-0.27617866
55	0xbd4e338a	-0.05034212
56	0xbd3a0cdb	-0.045422416
57	0xbe6b1e6e	-0.22960827
58	0x3e0946b2	0.13405874
59	0xbc57ef7a	-0.013179654
60	0xbd0cfb35	-0.034419257
61	0x3dfa47ca	0.12220724
62	0x3e299672	0.16561297
63	0xbe6a7b6f	-0.22898649
64	0xbf062457	-0.523992
65	0xbf15d584	-0.58528924
66	0x3d7d62ea	0.06186191
67	0xbd77d59c	-0.06050645
68	0x3cb3800d	0.021911645
69	0xbf15adf5	-0.5846856
70	0x3ddfda76	0.1093034
71	0x3e485260	0.19562674
72	0xbf2a114f	-0.6643266
73	0xbeed63de	-0.46365255
74	0xbedfbec7	-0.4370024
75	0x3dc6512a	0.096834496
76	0xbee453bf	-0.44595143
77	0xbe6d3b50	-0.23167157
78	0xbcc9e6fe	-0.024646278
79	0xbc516332	-0.012779998
80	0x3d231e54	0.039823845
81	0xbd9734ec	-0.07383141
82	0x3e044786	0.12917909
83	0x3b9e8342	0.0048374245
84	0x3d518355	0.05115064
85	0xbecdc83d	-0.40191832
86	0x3e5bf4fd	0.21480174
87	0xbe22e423	-0.1590734
88	0xbd6869cb	-0.056741517
89	0x3de6d5ed	0.11271272
90	0xbcfa7a70	-0.03057596
91	0x3daf36b5	0.085553564
92	0x3ed7317e	0.42029947
93	0xbe94576f	-0.28972957
94	0xba834ca0	-0.0010017343
95	0x3e0d1dcb	0.13780896
96	0x3f267bfc	0.65032935
97	0x3db1f9a9	0.08690197
98	0x3e8aa5de	0.27079672
99	0xbede1ba1	-0.43380454
100	0x3e0c7c94	0.13719398
101	0xbe168d60	-0.14702368
102	0xbec5066e	-0.38481468
103	0x3d43fbdd	0.047847617
104	0xbe323135	-0.17401583
105	0x3e1a37d8	0.15060365
106	0x3dc0d38f	0.094153516
107	0x3d559d45	0.052151937
108	0x3ea6a0e4	0.32544625
109	0xbe0e4edf	-0.13897274
110	0x3e06d3f4	0.13166791
111	0xbead7478	-0.3387792
112	0x3e24b841	0.16085912
113	0x3e9bccb1	0.30429605
114	0x3de54291	0.11194337
115	0x3e483fa1	0.19555523
116	0x3cf8f7e7	0.030391647
117	0x3e0447f1	0.12918068
118	0x3eb317c0	0.34979057
119	0xbd207b94	-0.039180353
120	0xbe09719a	-0.13422242
121	0x3e54a2d1	0.20765235
122	0x3e9b98eb	0.30390105
123	0x3f04ffbc	0.5195272
124	0x3ef964a2	0.4870959
125	0xbead3f69	-0.3383744
126	0x3dc3f321	0.095678575
127	0x3ce4bcc3	0.02792204
128	0xbce90078	-0.028442606
129	0xbf61cc00	-0.88201904
130	0xbee885e7	-0.4541466
131	0x3dbb87dc	0.091567725
132	0xbdcbb051	-0.09945739
133	0x3dca4eb3	0.09878292
134	0x3b415621	0.00295008
135	0xbd8a94e9	-0.067666836
136	0x3ef368e6	0.4754097
137	0xbe635c6e	-0.22203228
138	0xbe7fc1e9	-0.24976315
139	0x3ddded18	0.10836238
140	0x3d9a6f17	0.0754072
141	0x3f1ebbc4	0.6200526
142	0x3e94c57e	0.29056925
143	0xbd2d4876	-0.042305432
144	0x3b0f2bb0	0.0021846108
145	0xbd00fa0e	-0.03148847
146	0xbcd4055e	-0.025881466
147	0x3f29450c	0.6612098
148	0xbf148e39	-0.58029515
149	0x3db655f3	0.08903112
150	0x3e3a6507	0.18202601
151	0xbd5913c3	-0.052997362
152	0x3e0a1cb1	0.13487507
153	0x3dfebb1c	0.12438032
154	0xbe29e531	-0.16591336
155	0x3d0da426	0.034580372
156	0xbf20b131	-0.6277037
157	0x3e24f9af	0.16110872
158	0x3f10fd2f	0.5663633
159	0x3edade70	0.4274783
160	0x3e3f2c41	0.18669225
161	0x3e2fb880	0.17160225
162	0xbe86db62	-0.2633925
163	0xbdcbc6bd	-0.09950016
164	0xbd60ad7c	-0.054852948
165	0x3e4ecc81	0.201952
166	0xbee67b6c	-0.45016038
167	0xbc6e17fc	-0.0145320855
168	0x3f0a8fc4	0.5412562
169	0xbf507152	-0.81422913
170	0x3e6175be	0.22017571
171	0x3f25a222	0.6470052
172	0xbe39d1a4	-0.18146378
173	0x3e670f66	0.22564468
174	0xbda9a4bc	-0.08283374
175	0xbeff339d	-0.49844065
176	0xbe1e97af	-0.1548755
177	0xbf47f5f0	-0.78109646
178	0x3ee24112	0.4419027
179	0xbd5e99cb	-0.054345887
180	0x3bb446f7	0.0055016237
181	0x3ed5a8cf	0.41730353
182	0x3f376427	0.71637195
183	0xbea73506	-0.3265764
184	0x3dec43d3	0.11536374
185	0x3d5aaef5	0.05338951
186	0x3c93166c	0.017955028
187	0xbd8818ad	-0.066453315
188	0xbcf84e88	-0.030310884
189	0xbf5b6b7b	-0.8571088
190	0xbebd035c	-0.36916625
191	0xbdc54290	-0.096318364
192	0x3d0c71e6	0.03428831
193	0x3c2392a1	0.0099836895
194	0x3e826462	0.2546721
195	0x3e4ef84e	0.20211908
196	0x3f7094ef	0.93977255
197	0x3f32c534	0.6983216
198	0xbcce63e9	-0.025194125
199	0xbdbea55e	-0.09308885
200	0x3de8eb82	0.113730446
201	0xbe8ff259	-0.28114584
202	0x3e930e5b	0.2872189
203	0x3d728029	0.059204254
204	0x3e027450	0.12739682
205	0xbea6d738	-0.32586074
206	0x3e96c9a9	0.2945073
207	0xbcd455dd	-0.025919849
208	0x3ea665eb	0.32499632
209	0x3c8fb42d	0.01754197
210	0x3da324be	0.079659924
211	0xbe3680b0	-0.17822528
212	0x3d65dd0c	0.05611901
213	0xbf08e10c	-0.53468394
214	0x3e7de5b4	0.24794656
215	0xbdc61cca	-0.0967346
216	0xbe9c97c9	-0.30584553
217	0x3ed52c35	0.4163529
218	0x3f37c92c	0.7179134
219	0xbedd8236	-0.43263406
220	0xbecd9343	-0.40151414
221	0x3e0d4e11	0.13799311
222	0xbe160265	-0.14649351
223	0xbdf1f189	-0.11813647
224	0x3cb8d98e	0.022564676
225	0xbf7a52e1	-0.97782713
226	0x3ed1a2c6	0.409445
227	0xbd0cf339	-0.034411643
228	0xbf43a6dd	-0.7642649
229	0xbc66fbeb	-0.014098148
230	0xbeccd4ad	-0.4000601
231	0xbef8f812	-0.48626763
232	0xbe1d28a1	-0.1534753
233	0xbe206da7	-0.15666829
234	0xbe056bba	-0.13029376
235	0x3e0506cd	0.12990876
236	0xbb8bdbd2	-0.004268148
237	0x3e5f2e2a	0.21794954
238	0xbedbc1cf	-0.42921302
239	0x3e0c29b0	0.13687778
240	0xba4b7bc8	-0.00077622803
241	0x3e8dbbff	0.27682492
242	0x3f14d1f9	0.5813289
243	0xbebd53dd	-0.36978045
244	0x3e602ecc	0.21892852
245	0xbd0a7757	-0.033805218
246	0xbad00572	-0.0015870763
247	0xbd742122	-0.05960191
248	0x3d29b9a7	0.041436817
249	0x3f5352f7	0.8254847
250	0xbe8004f0	-0.25003767
251	0xbcbdf1ec	-0.023186646
252	0xbddb838e	-0.107184514
253	0x3ec8d4c8	0.3922484
254	0x3f337181	0.7009507
255	0x3e94c31b	0.29055104

neg_net.linears.0.bias f4 [30]
0	0xbdac8bf9	-0.08425135
1	0x3dc844d6	0.097787544
2	0x3d9eb6e3	0.077497266
3	0xbef3b148	-0.47596192
4	0xbc9fff27	-0.019530846
5	0xbeb8c382	-0.3608666
6	0x3ddceb29	0.10787041
7	0xbf0191e6	-0.5061325
8	0x3d683c80	0.056698322
9	0x3e85886d	0.26080647
10	0x3dcd70d9	0.100312896
11	0xbee74fdc	-0.45178115
12	0xbeaa055c	-0.33207214
13	0x3dd812ee	0.105504856
14	0xbe853d93	-0.2602354
15	0xbed0038c	-0.40627706
16	0xbda41014	-0.08010879
17	0xbed2d456	-0.41177624
18	0xbe8a5b08	-0.27022576
19	0x3e85e867	0.2615387
20	0x3e9d9749	0.30779484
21	0xbe123416	-0.14277682
22	0x3edff238	0.43739486
23	0xbe32fb05	-0.17478569
24	0xbd59a404	-0.053134933
25	0x3dd54a6a	0.10414584
26	0x3d0b0ae8	0.033945948
27	0x3d81e71b	0.06342908
28	0xbebb30b4	-0.36560595
29	0xbe2b2abd	-0.16715522

neg_net.linears.1.weight f4 [30, 30]
0	0x3e951582	0.29117972
1	0xbdb26d81	-0.087122925
2	0x3e1c78d2	0.15280464
3	0x3eee99ec	0.46601808
4	0xbdde0dda	-0.10842486
5	0xbe218840	-0.15774632
6	0x3d644e48	0.055738717
7	0x3f04428c	0.5166404
8	0x3e2666ed	0.162502
9	0x3dfda326	0.12384634
10	0xbe4bea7a	-0.19913664
11	0xbe7f784e	-0.24948236
12	0xbdd075d9	-0.10178728
13	0x3e8cffe2	0.27538973
14	0xbdb9ba85	-0.09068779
15	0xbe9fc8a0	-0.31207752
16	0xbe4dd670	-0.20101333
17	0x3bb5a486	0.0055432944
18	0xbe504c8d	-0.20341702
19	0xbd805ea9	-0.06268055
20	0x3d61b7a0	0.05510676
21	0xbe73cb55	-0.23808034
22	0xbe453071	-0.1925676
23	0xbe5fac67	-0.2184311
24	0xbe8c61be	-0.2741832
25	0xbd4be032	-0.049774356
26	0xbcdd739c	-0.027032666
27	0xbeacf840	-0.3378315
28	0xbdff2b2e	-0.12459408
29	0x3e6a4cdd	0.22880884
30	0x3caa74b2	0.020807598
31	0x3be632a4	0.00702508
32	0x3ca9af86	0.020713579
33	0x3abbc763	0.001432639
34	0xbc9842d1	-0.018586548
35	0xbc13f9a0	-0.009031683
36	0xbc858ecc	-0.016303442
37	0x3b381c43	0.0028093017
38	0x3d32ede7	0.043683913
39	0xbc9afb7a	-0.018918741
40	0xbe04d11b	-0.12970392
41	0x3a242613	0.0006261777
42	0x3d175f1e	0.036955945
43	0xbd12f89c	-0.035881624
44	0xbe13fb0a	-0.14451233
45	0xbda04d38	-0.07827228
46	0xbdcc876a	-0.09986766
47	0x3d2df2c7	0.04246786
48	0xbd0d90d4	-0.034561947
49	0xb8d91f38	-0.00010353181
50	0xb92f8dc0	-0.00016742107
51	0x3c40d2c2	0.011768999
52	0xbabb0a8e	-0.0014270113
53	0x3b16e497	0.0023024434
54	0xbcb94d3e	-0.02261984
55	0xbb670488	-0.0035250504
56	0x3b9c6850	0.004773177
57	0xbd9278c1	-0.07151938
58	0x3d1b2e29	0.03788582
59	0x3bdd3c98	0.006751608
60	0xbda506b8	-0.08057922
61	0xbeade6b1	-0.33965066
62	0xbdc8077c	-0.097670525
63	0x3e9f3b32	0.3109985
64	0x3efd2988	0.49445748
65	0xbefd8ca2	-0.49521357
66	0xbb16628a	-0.0022946917
67	0x3d93e05a	0.07220526
68	0xbd4b027c	-0.049562916
69	0xbd847f54	-0.064695984
70	0x3e091232	0.13385847
71	0x3dd4dcca	0.10393675
72	0x3e97210b	0.29517397
73	0xbdde230b	-0.10846528
74	0x3ebb977f	0.3663902
75	0x3bfe9abc	0.0077699106
76	0xbeb7f25f	-0.35927102
77	0x3e93d583	0.28873834
78	0x3e7e5a34	0.24839097
79	0xbe7779c4	-0.24167544
80	0xbe5b1b85	-0.21397217
81	0x3de0f6a5	0.10984544
82	0x3e07fbad	0.132796
83	0x3d4c5648	0.04988697
84	0xbf2367a8	-0.6383004
85	0x3f708619	0.93954617
86	0x3bed6081	0.00724417
87	0x3e8a846e	0.2705416
88	0x3f3a88ad	0.728648
89	0xbd18ea54	-0.037332848
90	0xbd75df43	-0.060027372
91	0x3dd076cb	0.10178908
92	0x3e93f187	0.28895208
93	0xbe43cca2	-0.1912103
94	0xbe15c756	-0.14626822
95	0xbe310b09	-0.17289366
96	0x3e790ddd	0.24321695
97	0xbb35ff09	-0.002777042
98	0xbc3128ef	-0.010812982
99	0x3bcfcf6c	0.0063418653
100	0x3ccab066	0.024742316
101	0x3e4cfd7c	0.20018572
102	0xbe44db09	-0.1922418
103	0x3e984151	0.29737332
104	0xbe928206	-0.28614825
105	0xbe97bdb1	-0.2963691
106	0x395b9b30	0.0002094328
107	0xbdf85c65	-0.12126998
108	0x3db1b49d	0.086770274
109	0x3e90f479	0.28311518
110	0x3c2f188a	0.010687003
111	0x39baae68	0.00035606627
112	0xbeb53f30	-0.3539977
113	0xbd07cba6	-0.0331532
114	0x3e768c25	0.24076898
115	0xbd7451f9	-0.059648488
116	0xbe9f5746	-0.31121272
117	0xbe655016	-0.22393832
118	0x3e0d378a	0.13790718
119	0xbe729d06	-0.23692712
120	0xbe8b75f3	-0.27238426
121	0xbe1a134d	-0.15046425
122	0xbe43ce1e	-0.19121596
123	0xbdfbd684	-0.12296775
124	0xbe70867f	-0.23488806
125	0xbcf17f7f	-0.02947974
126	0xbe8f9a8e	-0.28047603
127	0xbcecd112	-0.028908286
128	0xbe8d6fd0	-0.2762437
129	0xbe4cc38e	-0.19996473
130	0xbea3e4ec	-0.3201059
131	0xbd8e8b06	-0.0696011
132	0xbe14ade0	-0.14519453
133	0xbe70ed6f	-0.23528074
134	0xbe32c799	-0.17458953
135	0x3a7c988a	0.0009635767
136	0xbd7e303e	-0.062057726
137	0xbc5ca8d7	-0.013467989
138	0xbd13d580	-0.03609228
139	0xbe28f4ef	-0.16499685
140	0xbdf942ff	-0.121709816
141	0xbe629765	-0.22128065
142	0x3c63a659	0.013894641
143	0xbdc79a3d	-0.097462155
144	0xbcec2e2b	-0.028830608
145	0xbd928d62	-0.07155873
146	0xbda6833d	-0.081305005
147	0xbce92bdb	-0.028463295
148	0x3cb1bc33	0.021696186
149	0xbdee922f	-0.11648976
150	0xbc90893e	-0.017643567
151	0x3acb8620	0.0015527643
152	0xbb4df0a4	-0.003142395
153	0xbceea514	-0.02913145
154	0x3b2ee0c0	0.0026684254
155	0xbc6e480e	-0.014543546
156	0xbcc94d86	-0.024573099
157	0x3a9d8d17	0.0012020197
158	0xbbdcb8f1	-0.006735914
159	0x3bc6a86b	0.0060625575
160	0x3d0e18ff	0.034691807
161	0xbb02bbee	-0.001994844
162	0xbabb2ee2	-0.001428094
163	0x3cac01d1	0.02099696
164	0xba535944	-0.0008062313
165	0x3d1b5b27	0.037928727
166	0xbba5a18a	-0.0050546573
167	0x3b99592e	0.0046798205
168	0xbcfb738a	-0.030694742
169	0xbdd30563	-0.10303762
170	0xbd999848	-0.074997485
171	0xbb28665f	-0.0025695784
172	0xbdd2d7f5	-0.10295097
173	0x3d105b99	0.035243604
174	0xbb9bee34	-0.0047586206
175	0xbcb698dc	-0.022289686
176	0xbbeca266	-0.007221508
177	0xbc0bdfa6	-0.008537209
178	0x3cc8951c	0.024485163
179	0xbc0b2092	-0.008491652
180	0x3dc2bc5b	0.09508582
181	0xbecefec0	-0.40428734
182	0x3e23c72e	0.1599395
183	0xbeb3b7d7	-0.35101196
184	0x3d541d62	0.051785834
185	0x3efa7c87	0.48923132
186	0xbe4c1ac7	-0.1993209
187	0x3f08d5bb	0.53451127
188	0xbdfacc0f	-0.12245952
189	0x3e45c5e6	0.19313774
190	0xbea4e368	-0.32204747
191	0x3d8c8be2	0.06862618
192	0xbe27bad0	-0.16379857
193	0xbdaaafd2	-0.08334316
194	0xbf0fe40e	-0.5620736
195	0xbf1899a4	-0.59609437
196	0x3e9e20de	0.3088445
197	0x3de66194	0.1124908
198	0x3c9d113e	0.01917326
199	0x3ede99c0	0.43476677
200	0x3db76595	0.08954922
201	0xbded5f4d	-0.11590443
202	0x3f43bf37	0.76463646
203	0x3df2a5df	0.11848044
204	0x3e39902f	0.18121408
205	0x3d443484	0.047901645
206	0x3ef663b4	0.48122942
207	0xbec1f867	-0.37884828
208	0xbe80e2b2	-0.25172955
209	0x3c9154c1	0.01774061
210	0xbefae76e	-0.49004692
211	0x3d3a9c8d	0.045559455
212	0xbeebdda5	-0.4606754
213	0x3deded05	0.116174735
214	0x3dd780c5	0.10522608
215	0x3e08d6da	0.1336321
216	0x3df83ee5	0.12121371
217	0xbe95806d	-0.29199544
218	0x3dbd144f	0.09232389
219	0xbdf88cb0	-0.12136209
220	0x3ebee75a	0.37285882
221	0xbe7fd36f	-0.24983
222	0xbdb4665b	-0.08808585
223	0x3f09bcbf	0.5380363
224	0xbe05faca	-0.1308395
225	0x3c25ed8f	0.010127439
226	0x3e62b34b	0.22138707
227	0x3ecde8d0	0.40216684
228	0xbc8e3fd0	-0.017364413
229	0xbddb48a3	-0.10707214
230	0xbe3af989	-0.18259253
231	0xbcfcffa5	-0.03088362
232	0xbf4f5a28	-0.8099694
233	0xbaad395d	-0.0013215948
234	0x3e09ffd9	0.13476504
235	0xbebdc749	-0.37066105
236	0xbe40f805	-0.18844612
237	0xbdca0765	-0.09864692
238	0xbdc21474	-0.094765574
239	0xbe6151f1	-0.22003914
240	0xbae3b0b8	-0.0017371392
241	0xbddb7255	-0.107151665
242	0x3bcad4b4	0.006189907
243	0xbd881c3e	-0.06646012
244	0x3ba20da7	0.004945475
245	0x3bd950e0	0.0066319555
246	0xbd3256bd	-0.04353975
247	0xbd7a4231	-0.06109828
248	0x3b850be7	0.0040602568
249	0xbd43f769	-0.04784337
250	0x3be7df7f	0.0070762034
251	0x3b751645	0.0037397307
252	0xbd2f753e	-0.04283642
253	0xbcbc403c	-0.022979848
254	0xb8b28104	-8.5117324e-05
255	0xbcb9ec33	-0.022695636

neg_net.linears.1.bias f4 [30]
0	0xbe24ff8e	-0.16113111
1	0xbdf85ef6	-0.12127487
2	0xbda544a1	-0.080697306
3	0xbdef09f0	-0.11671817
4	0xbe9d1ae9	-0.30684593
5	0xbde72511	-0.11286367
6	0x3d9654db	0.07340404
7	0xbda873c3	-0.08225205
8	0xbdfeaa09	-0.124347754
9	0xbe911ad3	-0.28340778
10	0x3e8a6f73	0.27038154
11	0x3dc0a13f	0.09405755
12	0xbe2a83f1	-0.16651894
13	0xbed0f81f	-0.408143
14	0x3e1a85f1	0.15090157
15	0x3e8f8569	0.2803147
16	0xbe3f280e	-0.18667623
17	0xbd31cec0	-0.043410063
18	0x3d487a41	0.048944715
19	0x3e620488	0.22072041
20	0x3e3046bd	0.17214485
21	0xbdef1fd7	-0.11675995
22	0xbc71f167	-0.014767027
23	0xbe462ad0	-0.19352269
24	0xbe2bd7af	-0.16781496
25	0xbdbfdcfe	-0.09368323
26	0xbda30694	-0.07960239
27	0xbace2c4d	-0.0015729755
28	0x3e0de11a	0.138554
29	0xbdf425cb	-0.11921271
