data/MTMR_28002/sim/random/Dist_0.02/train/N10/D6_SinCosInput/2/result/model/ReLU_Dual_UDirection_BP.pt (torch_old, 22856 bytes, 20 tensors)

input_mean f4 [12]
00000000: 7044 173e 2092 6e3e 412b cdbd 262f 863d
00000010: 5494 543e 4a0b a63c 7941 6b3f 9450 703f
00000020: c183 723f 634d 15be 780a 183f e3bc 773f
0.147722 0.2329793 -0.10018016 0.065519616 0.20759708 0.020269055 0.9189678 0.9387295
0.9473229 -0.14580302 0.59390974 0.96772593

input_std f4 [12]
00000000: 6f3e b93e e9c9 7d3e cbc9 983e 91aa 2e3f
00000010: a32c f53e 4262 7d3e eb9d 573d 658e 633d
00000020: 1917 723d c4a0 363f 3fbd 1c3f 2e20 313d
0.36180446 0.24784054 0.29841456 0.68229014 0.47885618 0.24744514 0.052640837 0.05555572
0.05910406 0.7133906 0.61226267 0.04324358

output_mean f4 [6]
00000000: b298 afb7 36ef eb3e 5197 8c3e 78a1 033c
00000010: 2762 3cbc 20c1 5c3b
-2.093273e-05 0.4608094 0.27459195 0.008034103 -0.011498011 0.0033684447

output_std f4 [6]
00000000: ea0c 3c39 48b9 493e 6202 233e f00c 063d
00000010: 6f20 043d da77 1b3c
0.00017933888 0.19699585 0.15918878 0.032727182 0.032257494 0.009489024

pos_net.linears.0.weight f4 [30, 12]
00000000: a279 23bc 913f c1be f09c 47be 1fa3 1cbc
00000010: 5bce ae3d 2ede a93e 64fa e0bd 72a8 d93c
00000020: ca53 9bbe c086 783d 39b4 19be 6c4b 59be
00000030: 2121 b73d de75 23be 7367 003e 8d0c 28be
00000040: e041 67be acdb d8bd 2e9e 033d 020c b53e
00000050: 702f 683c b3fb 84be 1996 c53d ac17 a33e
00000060: 1d01 71be 2577 bbbc 8000 8a3d 005f 1dbd
00000070: d066 36be 0eea 4a3e 37b9 7ebe 5e71 3cbe
00000080: 252f afbe c2af 6b3e 67b9 7abe a207 09bc
00000090: 4d7c 243e 2da9 4a3e baee 2f3d 58bb 42be
000000a0: c32f 8a3e 12e3 3c3d 2838 72be 686a 1dbe
000000b0: 2794 6cbe 23c6 52bd c968 abbe 526d 7c3e
000000c0: a0db 253e a658 adbd c907 823e 9862 d13b
000000d0: 9e8d c83e c4c6 753e 8874 513d 584a 453e
000000e0: cddb bdbc babe e93c cc67 97be 2acb 47be
000000f0: b894 a83d 6bdd adbd 461f 51be 6003 da3d
00000100: 8cea dd3e 0e44 37be 1de4 613d b37a b4bd
00000110: 2017 da3a fb9f bbbe 713c 263e 4a42 bcbe
00000120: 7cf9 b2be 2ad3 9dbe 4a63 5b3e 6e42 efbd
00000130: ca0b fbbd 02b3 d63e dfb1 1cbe 2579 1e3e
00000140: c6a4 40be 1e4e e13d 610e 8abe 4c66 e2bc
00000150: dd06 62be f321 ccbc ddf6 b7be 30b9 9f3e
00000160: 0072 65bc 472f 5f3e 4030 f33d c2a1 babc
00000170: 72cb 0c3e 6dbb 2a3d 4043 f53e 56f4 f43d
00000180: 9874 10be 093c a2bd 9fbf 5a3e c87a ca3d
00000190: 66b1 2bbd ccfc 853e bbae 03be c937 f8bd
000001a0: 67f8 b5be 8e38 91bd aed8 e2bd 2e58 dc3d
000001b0: a046 e23b 592b 773e 3cb5 e83c 8e4d aabe
000001c0: eaa6 9bbe 7ec5 623e f6b3 3b3c f763 57be
000001d0: 86ca 843e 2628 08be eae5 bc3d 7944 243d
000001e0: f8bd 7abe c1b4 a9be debd 41bd 4dd0 fdbc
000001f0: 5e46 133e 6291 1a3e 2222 1dbd a198 34be
00000200: c6c2 f3bd 42c0 943c 6daa aabe 5e23 c3bd
00000210: fc54 9b3b 4efb 083d 9eda 0a3d 615a f4bd
00000220: 1278 e03b 418f 66bc 0450 37be 4e46 3dbe
00000230: 5f2c 6ebe 49c6 00bf a01b c73d 72cd 9fbc
00000240: 5de9 113e 7e86 86bc 07c8 d63d ef10 66be
00000250: be22 be3d 0c3e b53d 893c a1be 74ae acbb
00000260: 5bc2 b5be 815b 093e f042 f5be efeb 8e3e
00000270: b550 663e d384 6a3e c4dc 313e 2eee 2d3e
00000280: 3ac4 e63d b29a 67be 054e 9fbe 10ee 12bd
00000290: 35b7 4fbe 9b96 283d 0d0c 563e 7d01 1b3e
000002a0: d444 27be 08fd e03b dcf5 8a3d 4816 2bbe
000002b0: e1c9 203e 5be0 523e 82b5 73be 5a69 62be
000002c0: 40f4 50be 93a5 3b3e 7dfe dc3c b216 25be
000002d0: c89c 9abe 0dc0 d0be 4c72 6e3d c752 b3be
000002e0: c2b7 02be a6ff a73d 9fcc 30be 400a b73e
000002f0: 53b8 043e 346c 19be b86d a43d e5fd c8bd
00000300: 820d 14be fe65 7dbd e147 9dbe 7a32 08be
00000310: c19c 303e 3235 a8bd b028 48be 7a87 53be
00000320: 05ad 95be 0129 533e 1053 01be dd09 313e
00000330: c497 4a3d 9040 273e 8d28 563e 1c3b 5b3e
00000340: bae9 a73d 71da 863e 8e65 543d 1c87 fdbc
00000350: 1c46 cabd 4bd7 cb3c 9800 ac3e c461 b73e
00000360: 4023 553b 900f eb3e cfd7 a03e 64a6 193e
00000370: 6bbe 79be c0c5 e7be 7d73 29be a789 19be
00000380: 469e 3cbd d508 c0be 1b13 313e 5bf3 f7be
00000390: f404 183e 0728 a13d da24 623e 2f12 bb3d
000003a0: 648b 90bd 344f ba3b fcba 38be 767e 0ebe
000003b0: 956d dabe 4266 083d cc34 c9bd 6d90 833e
000003c0: 00b5 3abe 4e1d 953c 6838 54be ae54 3a3e
000003d0: c620 dfbc b08d b3bb 96a5 b3be b5dd 21be
000003e0: 8374 82be c2d1 863e a21f 46be cc82 ebbc
000003f0: d7a6 0a3e 58e1 6c3e 2e2c 84bd bdbe 423e
-0.00997773 -0.3774381 -0.1949346 -0.0095603755 0.08535453 0.33177322 -0.10985258 0.026569579
-0.30337363 0.060675383 -0.15010156 -0.21220177 0.08941866 -0.15962932 0.12539463 -0.16411038
-0.22583723 -0.10588774 0.032133274 0.35360724 0.014171466 -0.2597328 0.096477695 0.31853998
-0.23535581 -0.022883961 0.067383766 -0.038420677 -0.17812657 0.19815847 -0.24875341 -0.18402621
-0.34215656 0.23016265 -0.24484788 -0.008363636 0.16063042 0.19791098 0.042952277 -0.19016778
0.26989564 0.04611499 -0.23654234 -0.15372622 -0.2310339 -0.05145849 -0.33478382 0.24651077
0.16197062 -0.08464174 0.25396565 0.006389927 0.39170545 0.24001604 0.051136523 0.19266641
-0.023176098 0.028533328 -0.29571378 -0.19511095 0.08231491 -0.08489498 -0.20422086 0.10645175
0.43343008 -0.17897055 0.055149186 -0.088124655 0.0016638972 -0.36645493 0.16233994 -0.36769325
-0.34955966 -0.30825168 0.21424595 -0.11682592 -0.12258108 0.41933447 -0.15302227 0.154759
-0.18812856 0.11001228 -0.26964095 -0.02763667 -0.2207293 -0.024918532 -0.3593053 0.31195974
-0.0140042305 0.21795379 0.11874437 -0.02278221 0.13749483 0.04168265 0.4790287 0.11960666
-0.14106977 -0.07921607 0.2136216 0.098867 -0.041917227 0.2616943 -0.12859623 -0.12120015
-0.35541078 -0.07090865 -0.110764846 0.107590064 0.006905392 0.2413763 0.028406732 -0.33262295
-0.30400783 0.2214565 0.01145648 -0.21034227 0.25935763 -0.13296565 0.0922354 0.040104363
-0.2448653 -0.33145717 -0.047300212 -0.030983115 0.14382312 0.15094522 -0.03836263 -0.17636348
-0.119023845 0.018158082 -0.3333315 -0.0952823 0.0047403555 0.033442788 0.033899896 -0.11931301
0.006850251 -0.01407224 -0.17901617 -0.1848385 -0.23259114 -0.5030256 0.09722066 -0.019507144
0.14249177 -0.016421553 0.10487371 -0.22467397 0.0928397 0.08849725 -0.31491497 -0.00526982
-0.35499844 0.13413812 -0.47902632 0.27914378 0.22491725 0.22902231 0.17369372 0.1698539
0.11267896 -0.22617605 -0.31114212 -0.035871565 -0.20284732 0.041159254 0.20903035 0.15137286
-0.1633485 0.006866101 0.06785175 -0.16707718 0.1570201 0.20593397 -0.23799708 -0.22110501
-0.20405674 0.1832488 0.026976818 -0.16121939 -0.3019774 -0.40771523 0.05821447 -0.35024092
-0.1276541 0.08203058 -0.17265557 0.35750008 0.12960939 -0.14982682 0.0802874 -0.098140515
-0.14458278 -0.061864845 -0.30718902 -0.13300505 0.17247297 -0.08213271 -0.19546771 -0.20657149
-0.29233566 0.2062111 -0.12629342 0.17288919 0.04946114 0.16333222 0.20913906 0.21409267
0.08198877 0.26338533 0.051854663 -0.030948214 -0.098766536 0.024882933 0.33594203 0.35816777
0.0032522231 0.4591031 0.3141465 0.15004879 -0.24389045 -0.4526806 -0.16547962 -0.14993916
-0.04604938 -0.37506738 0.17292444 -0.48427853 0.1484564 0.07868963 0.2208437 0.091343276
-0.07057837 0.0056857113 -0.18040079 -0.13915429 -0.4266173 0.033300646 -0.09824523 0.25696126
-0.18233109 0.01820245 -0.20724642 0.18196365 -0.027237307 -0.005479537 -0.3508727 -0.15807231
-0.25479516 0.26331908 -0.19348004 -0.028748892 0.13540207 0.23132837 -0.06453739 0.19018073

pos_net.linears.0.bias f4 [30]
00000000: 5c5e c83b c59f 80be 7936 a83d 682e 313e
00000010: c73e 57be 23f7 1f3e 6a25 cbbe ecf4 8a3d
00000020: db26 3c3e 044e b1be 02cc 973d a066 3e3a
00000030: b93c 2dbd 5127 1bbe dcb1 2e3e c41c fdbd
00000040: 2c3c 90be 4500 7d3e f2fc 933d 9ec4 86be
00000050: d158 6c3e 347a 7d3e 330e 47be 0282 563d
00000060: 2383 053e 2c53 843d d895 0dbd e209 febd
00000070: 9206 f0bd b68e b63c
0.006114764 -0.25121894 0.08213515 0.17302859 -0.21020041 0.15621619 -0.39676982 0.067849964
0.18374197 -0.34629834 0.07411958 0.0007263217 -0.042294238 -0.15151717 0.17060035 -0.12359002
-0.28170907 0.24707134 0.0722598 -0.26321882 0.23080756 0.24753648 -0.1943901 0.05237008
0.13038306 0.06461176 -0.03456673 -0.12404229 -0.11720003 0.022284847

pos_net.linears.1.weight f4 [30, 30]
00000000: 83d1 77be f3df 7bbd ea9b 613c 34bc a6bd
00000010: 040b d2be dc98 a8bc 5fe6 723d 501a 84bd
00000020: 001e 193e 3a34 16be bf5e edbc 251e 1a3e
00000030: 9b35 02be 812e f13d 32b7 8e3d ad65 e2bd
00000040: 7a94 5abe ea18 593d 5119 373d 9fc9 ed3d
00000050: fbd6 c53d 26ea bc3c 6b82 24be 9a4d 073c
00000060: 0c0f f73d b0e4 d5bd 066b 69be 9011 e23c
00000070: d7d5 fd3d 0845 cd3a 5c92 0ebc f2c0 15bd
00000080: 75f7 0b3e b4a6 a03b 5738 07be a4bf 8dbe
00000090: a63b 723e 30f6 70be b0b4 97bd ff97 4abe
000000a0: be55 033e a61b 853d 336e 4f3e 7289 c8bc
000000b0: 2beb c83d e963 813e 9bfb 1d3d 2c90 82be
000000c0: b0e4 4ebb 8abb 4f3e 07a9 b63d dcb2 0b3e
000000d0: b1c7 e9bd 1fd1 173e df1b 213e d454 16be
000000e0: f69e 87be f435 bb3d 9cbb 623e 7f39 b3be
000000f0: cbae 83bd 8430 f83d d48d 79be b484 143e
00000100: f3bd 6abe 9ed5 903e 34ae 83be 1d06 7bbe
00000110: 46cb 15be 81dd 2dbe e77e b53d fadb dc3c
00000120: 1f6c e13c c070 b93c ed8a a1be 8617 81be
00000130: 3fb3 403e ab08 40be 47cd 9f3e 988a e4bc
00000140: 9884 af3b 4ef8 5a3e 023f 453d ddba b4bd
00000150: 4eb1 043c 5e8e 8cbe 1ab7 1bbe 546e 15bd
00000160: 8f86 5b3e d93b 46bd 754b 803e 2c86 713e
00000170: b559 2d3e 3c4a f33d d8d3 a2bd 166f abbc
00000180: fd62 993d 44c3 bf3e b629 8e3c 496b de3e
00000190: c4cf 85bd 2ced 183d 1846 07be 1b78 d5bc
000001a0: 5807 123e 6f13 b93e 3691 d3bd 4d27 b03e
000001b0: 7763 ccbe aec2 f9bd 543b 8fbd 6126 01be
000001c0: a758 123e 0d9d 83bc 29b1 b8bd df41 7a3e
000001d0: 673d 583e 8453 46bc e87f 0cbe 7016 9d3d
000001e0: f182 c13d 98ee 553d eabf b6bc 91d3 d53c
000001f0: 91f5 0d3e f84f 4b3c 4a5c 3d3e 266c a53c
00000200: 4b97 28be d69a 8dbd dab0 003e 0623 2dbe
00000210: a528 193d 1619 15be 102b ec3d ccb4 0b3e
00000220: 0a4d 2cbd 904b b8bc 7c9b 29bc 1c80 1bbd
00000230: 382d a7bd 0330 67be 8837 48bc 2ab9 3bbc
00000240: d69d 91bd 0270 ca3c 3a6a fb3d f467 f1bd
00000250: 2fcb 62be fcb6 cb3d 8477 de3d 9225 e2bd
00000260: c98d 5e3e baa3 be3d bb46 b53d 8631 c23d
00000270: a7a1 99bd 5022 9abd d3a0 3e3e a68a b13d
00000280: 1069 75bc 8745 3fbd db55 b5bd 17d6 583e
00000290: 973f e43d aed9 a2be c6c6 33be 210b ae3d
000002a0: 3e1a f23d 853f 253e 9b06 84bd 631a 31be
000002b0: 4ce4 b4bc c5b7 94bd 2788 12be 6b4e eebd
000002c0: cc71 3ebe 54aa 57be fa0f 98be c3ba 6d3e
000002d0: e024 3c3e 01b6 10be 07ee 60bd 09ef 1ebe
000002e0: 41a4 363e 1067 c23a b7d7 953d eab8 c4be
000002f0: b5d2 4cbe bcf1 86be b2b6 a63e b9dc d8be
00000300: 20b7 173c 287f bfbd 9cad 113d 64dc a8bd
00000310: 6055 67ba d395 07be ac06 a1be 9e1f dbbe
00000320: 752d d4be 7af4 b1bd 388e 4a3d 30e5 b6ba
00000330: 05ba d3bd 18e6 eabd f4a7 16be 53b3 123e
00000340: 88a6 a3bd c654 a13c 9425 103c 8db5 543d
00000350: 7dfa af3d f773 b83d 344b 11be 2f19 fbbd
00000360: dea5 54bd 629d 553d cbc2 cc3d e6b5 c5bd
00000370: 0832 b63c 23dc 8ebc 7f11 0b3e 2b5c 50bd
00000380: 3042 5c3b edea 87bc e505 f23d f4a1 3b3c
00000390: a632 9cbd f268 bd3c 7b81 333e 54c2 2d3e
000003a0: fb6b 25be 1a2b cf3d 7b77 f63d 1bc4 173e
000003b0: 2451 063d 3091 c93d 7844 2b3e 4522 22bc
000003c0: d9f4 e9bc 2ec9 873d 6c9d b9be b2b0 75be
000003d0: 0a61 31be 9a08 65be 58bf 9a3d e8bc 79bd
000003e0: 3277 87be 5491 f5bd 354e 86bd ae71 60bd
000003f0: d1c9 5fbd cb6c 27be 1c33 85be 705c 5f3d
-0.24201016 -0.06149287 0.013770083 -0.08141366 -0.4102403 -0.020580702 0.05930173 -0.06450331
0.1495285 -0.1466836 -0.028975843 0.15050562 -0.12715761 0.11776448 0.069685355 -0.11054549
-0.21345702 0.053002276 0.044701878 0.11610722 0.09660145 0.02306087 -0.16065376 0.008258248
0.12063417 -0.10444009 -0.22794732 0.027596265 0.12394302 0.0015660832 -0.008701887 -0.03656096
0.13668616 0.004902685 -0.13205086 -0.27685273 0.23655567 -0.23531413 -0.0740751 -0.19784544
0.12825677 0.06499414 0.20256881 -0.024479602 0.0981048 0.25271538 0.038570028 -0.2550062
-0.0031569414 0.20286384 0.08918958 0.13642448 -0.11415041 0.14825867 0.15733288 -0.14680797
-0.26488465 0.0914115 0.2214188 -0.35004804 -0.064298235 0.121186286 -0.2437051 0.14503747
-0.22924022 0.28287977 -0.25718844 -0.24514051 -0.14628324 -0.16979028 0.08862095 0.026960362
0.027517376 0.022636771 -0.31551304 -0.2521326 0.18818377 -0.18753307 0.31211302 -0.027898118
0.0053563826 0.21383783 0.048155792 -0.08824704 0.008098913 -0.27452368 -0.15206566 -0.03648217
0.21438049 -0.04839692 0.2505757 0.23586339 0.16928752 0.118793935 -0.07950562 -0.020926993
0.07489584 0.37453663 0.017353874 0.43441227 -0.06533769 0.03733556 -0.13210332 -0.026058247
0.14260614 0.3614764 -0.10330431 0.34404984 -0.39919636 -0.12195335 -0.06993738 -0.12612297
0.1429163 -0.016066099 -0.090181656 0.2443919 0.21117173 -0.012104873 -0.13720667 0.07670295
0.09448803 0.052229494 -0.022308309 0.02610186 0.13863207 0.012409203 0.18492237 0.02019317
-0.16463964 -0.06914298 0.12567464 -0.16907892 0.037392277 -0.14560351 0.11531651 0.13643187
-0.042065658 -0.022496969 -0.010352012 -0.03796397 -0.08162922 -0.22576909 -0.012220271 -0.011457721
-0.07110183 0.024711613 0.122761205 -0.117874056 -0.22147821 0.09947011 0.108626395 -0.11042322
0.21733774 0.09308572 0.088513814 0.09482102 -0.07501536 -0.07526076 0.18616037 0.08669023
-0.014978662 -0.046697166 -0.08854266 0.21175419 0.11144941 -0.318067 -0.17556295 0.084982164
0.118214116 0.16137512 -0.064465724 -0.17295222 -0.022081517 -0.07261614 -0.1430975 -0.11636051
-0.18598098 -0.21061069 -0.2969969 0.23215775 0.18373442 -0.14131929 -0.0549145 -0.15520872
0.17836095 0.001483174 0.07316535 -0.38422328 -0.20002253 -0.26356304 0.3256126 -0.42355898
0.009259969 -0.09350425 0.035565957 -0.08245161 -0.00088246725 -0.13240747 -0.31450403 -0.4279756
-0.4144093 -0.08689208 0.049452037 -0.0013953801 -0.10338215 -0.11469668 -0.14712507 0.1432622
-0.07990748 0.019693743 0.008798022 0.051930953 0.08592699 0.090064935 -0.14188844 -0.12260663
-0.051915996 0.052152045 0.09998091 -0.09653835 0.022240654 -0.017438954 0.13580893 -0.05086915
0.0033608787 -0.016591514 0.118175305 0.011452187 -0.07626848 0.02312133 0.17529862 0.16968662
-0.16154473 0.10115643 0.12034508 0.14820902 0.032792225 0.098421454 0.16725338 -0.009895866
-0.028559135 0.06630169 -0.36252916 -0.23993185 -0.17322174 -0.22366562 0.07556027 -0.06097117
-0.26458126 -0.1199061 -0.065578856 -0.054795913 -0.054635826 -0.16350095 -0.26015556 0.054531515

pos_net.linears.1.bias f4 [30]
00000000: 502a 29be 9b2b 233d 79c1 213e 3db5 883e
00000010: e4fe 0dbe e608 9c3d c8ab b8bd bdab c43d
00000020: d348 90bd eda3 c9bd f721 82be a21d 4dbd
00000030: dee8 473e e5fb 3a3e 0921 91be 6155 dabe
00000040: 9274 373d 8fe1 d8bd da72 99bc 3179 36be
00000050: 6b68 24be 5a49 cfbd eb35 3bbe 563e cbbe
00000060: ed9d b83d ed1e 16be 5c77 44be 0885 69bd
00000070: 3995 57bd 88a2 92be
-0.16520047 0.039836507 0.1579646 0.26700774 -0.13866764 0.07618885 -0.0901714 0.09603069
-0.0704514 -0.098457195 -0.25416538 -0.05007709 0.19522426 0.18260153 -0.28345516 -0.42643264
0.044788904 -0.10589897 -0.018731523 -0.17819668 -0.16055457 -0.101214126 -0.18282287 -0.39695996
0.09014497 -0.14660235 -0.19186157 -0.057011634 -0.052632544 -0.28639627

pos_net.linears.2.weight f4 [30, 30]
00000000: 7386 a3bd 6a62 adbd 1738 953d b12c e8bd
00000010: 2767 40be a922 123e fea2 073c 090a 633d
00000020: 04ea 563e e051 1e3e 4554 883d f59b 963d
00000030: f800 763d 503f a33d eac8 d83c e2c7 033d
00000040: c6ff 9fbc 82ad 1cbe 7e96 993d d8c1 30be
00000050: 14ee b2bc 9c51 fabd de9a 70bd e004 2ebe
00000060: f7c4 e8bc 4a86 ab3d b20d 953e ab9a 5d3e
00000070: cf5c 5fbe b6dc 483e feae 95be 3473 5ebe
00000080: a34c 4abe 02ca 4d3e a610 873d b7ec 3ebe
00000090: 9618 3bbd 968f 923c f4e9 9ebe 8838 93be
000000a0: b058 93be 588a 31be c813 ee3c 443b 80be
000000b0: 18bf 05be 5d4b 45be 40ae 9cbe 6b13 b23d
000000c0: 77a4 80be 4f94 81be d17e b13d 9835 a6bc
000000d0: 6a90 b1bd 2776 99be dc4d 4e3e 5aca 51bd
000000e0: 72e3 95bd cbf7 03bd 0da8 543d fe75 b23d
000000f0: 8540 ba3c bb8a 90be 192c 41be d3f9 8cbd
00000100: 7c76 253e 385c 0dbb 2485 8ebe 1088 84bc
00000110: 0e91 94bd 6925 323e 1b70 803e acad 3cbe
00000120: b807 b0bd 6d8a 2abe 8ad1 c43c c890 0ebd
00000130: 40a2 a0bc 8dc4 dabd d93a 87be 353b ce3c
00000140: 8c16 cc3e 8ef8 12be 3202 6ebd b3ad 733d
00000150: 083f 08be e41a 943d 4b55 0ebe 2cb0 1a3e
00000160: 2bae c8bd 8ecc c5bd c45b 5f3b aada 923d
00000170: a315 263e c82d b1bd 5ff9 04be 6a1d 0ebe
00000180: c3dd 0cbe 2694 ccbd 873c 84bc becd 0dbe
00000190: b607 2bbe 42af 733d 6234 9a3d 0e3d 72bd
000001a0: 0530 b3bd 4628 ed3d b147 8d3c 5b57 debd
000001b0: 6b78 223d 08f0 983d 6c43 34bc 2066 da3c
000001c0: 5b90 be3d 71b7 99bd 4b87 4e3e 742c ddbd
000001d0: 2e18 503d 7670 1a3c d1a0 e9bc 750e 853c
000001e0: c48a 07bc 20fb da3b ac07 87be 4046 a1ba
000001f0: 3bd3 c63d 2449 2f3c 2929 303e 4c0b 17be
00000200: 3d0e a73d b05f 1f3e eace 613e cec9 31be
00000210: d6d8 50be c867 b1bd 9bc8 e03c 3d89 f4bd
00000220: 96a9 4cbe 2b82 4ebd 8355 9abe 3ded 8ebd
00000230: a0c8 353d 303a 8abd ffbe b9bd 2a54 21be
00000240: b1ba 25be 1e81 30be fd56 163e 4caa cf3d
00000250: ad83 15be 98bf 92bb ac27 563e ba4f ce3c
00000260: 06e9 683d a11c ad3d 76b5 143d 3cb1 3c3e
00000270: 9866 7e3d d424 243e 639d 10bc 0ae2 fc3d
00000280: 32c8 7b3d 5f4b 283d 1090 edbd a23b e43d
00000290: 0e02 8a3d 4695 213d 18af 813d dfb2 1a3d
000002a0: 6884 fb3d 29cf cc3c c32f 333d 1e26 75bd
000002b0: e506 78bd 50fa 22bc 76c1 53bd 1bb7 d93d
000002c0: 3041 f3bb 95d0 27bd 9a6f 5f3d 3252 9e3c
000002d0: 1278 d23c 8a0d d7bd fca1 7ebe d202 96bd
000002e0: 554b 43be 8edb bebc 72ad ccbe 3c29 03bc
000002f0: f4dc 70bd cc65 b83c 4c2e 54be 94d0 c5ba
00000300: 8b93 153e d8ed f03d 0d36 d8bc 0a4d 8ebe
00000310: 7f38 bc3d f6ea e1bd 54be 183d f278 29be
00000320: af9e c7bd d6c4 133e 52f4 053d 7172 3fbe
00000330: fcf3 a53e be81 6d3e cca1 c1bd eab9 74bd
00000340: ebdb d0bd 3663 92be 52ce 313d 0ee3 ef3d
00000350: f516 3b3e 8416 67be e7c9 b1bd 06e3 22be
00000360: 0860 adbd 220d ac3d f31d 873d 00e9 83bd
00000370: a66d a3bd 644c 3c3e 0c1a 1dbd 576f 74be
00000380: 865e e1bd 9a0a fe3d d4ae 113e 9ba3 163e
00000390: 7bdb 933d f57a b23d 8433 47be 170c d6bd
000003a0: ff02 e4bd 4d78 25be f0af 793d 0411 113e
000003b0: facd a53d 7f4f d83d dc73 f5bc 23d7 ac3c
000003c0: 86ec 9f3d 9a00 8cbe 5060 dcbd 4ee8 523b
000003d0: dc95 923d 7148 2e3e 79d3 583e 753e 313d
000003e0: 4185 4abe f8cd 7c3e 1b9a a43e 076e 4fbe
000003f0: 1416 24be c1cd 6fbd 121f 9e3d 13c8 b2bb
-0.079846285 -0.084660366 0.07286089 -0.11336649 -0.1878935 0.14271034 0.008278606 0.055429492
0.20987707 0.1546092 0.06656698 0.07353965 0.060059518 0.0797106 0.02646299 0.032173045
-0.019531142 -0.15300563 0.07499407 -0.17261446 -0.02184204 -0.12222597 -0.058741443 -0.16994047
-0.028414233 0.08375223 0.2911201 0.21641032 -0.21812747 0.19615445 -0.2923507 -0.21723634
-0.19755797 0.20096591 0.06594972 -0.18644987 -0.045677744 0.017890733 -0.31037867 -0.28754067
-0.287786 -0.1733793 0.029062167 -0.25045216 -0.13061178 -0.1926703 -0.30601692 0.0869511
-0.25125477 -0.25308463 0.086667664 -0.020289227 -0.08670123 -0.29972956 0.20146888 -0.051218368
-0.073187724 -0.032218736 0.05191808 0.087139115 0.022735843 -0.28230843 -0.18864478 -0.06883588
0.1615848 -0.002156986 -0.27835953 -0.01617816 -0.072542295 0.17397083 0.2508553 -0.18425626
-0.08595222 -0.16654368 0.024025697 -0.034806043 -0.019608617 -0.1068202 -0.26412085 0.025174716
0.39860952 -0.14352629 -0.058107562 0.059491824 -0.13305295 0.072316915 -0.13899724 0.15106267
-0.09798845 -0.09658156 0.0034081796 0.07170613 0.16219191 -0.0865131 -0.12985753 -0.13878408
-0.1375647 -0.099891946 -0.016142143 -0.13848016 -0.1670216 0.05949331 0.075295225 -0.059140258
-0.087493934 0.11579947 0.0172461 -0.108565055 0.03966562 0.07467657 -0.011002403 0.026660025
0.09304877 -0.07505692 0.20168798 -0.107994944 0.05080431 0.009426227 -0.028519066 0.016242245
-0.00827283 0.0066827685 -0.2637304 -0.0012304261 0.09708258 0.01069859 0.17203201 -0.14750403
0.081570126 0.15563846 0.22051588 -0.17362139 -0.20395216 -0.08662373 0.027439406 -0.119402386
-0.19986567 -0.050417107 -0.30143365 -0.06978843 0.044380784 -0.0674938 -0.09069633 -0.15754762
-0.16184498 -0.17236754 0.14681621 0.101399034 -0.14601012 -0.004478406 0.20913571 0.025184501
0.056862853 0.08452726 0.036305867 0.18426985 0.06210956 0.16029674 -0.008826586 0.12347801
0.061470218 0.041087504 -0.11599743 0.111441866 0.06738673 0.039449 0.063322246 0.03776824
0.12281114 0.025001125 0.04374672 -0.059850805 -0.06055345 -0.009947374 -0.05169817 0.10630628
-0.0074235424 -0.040970404 0.05454979 0.019326303 0.02569202 -0.10500629 -0.2486648 -0.07324757
-0.19071706 -0.023298051 -0.39976078 -0.0080054365 -0.058804467 0.022509478 -0.20720786 -0.0015092068
0.14607064 0.11764115 -0.02639296 -0.2779315 0.09190463 -0.11031143 0.037290886 -0.16550043
-0.09747063 0.14430556 0.032703705 -0.18696 0.32412708 0.23194024 -0.094546884 -0.059747614
-0.10198196 -0.28591317 0.043409653 0.11713229 0.18270476 -0.22567183 -0.08681088 -0.15906915
-0.08465582 0.084009424 0.06597509 -0.064409256 -0.07979898 0.18388516 -0.03835492 -0.23870598
-0.11004357 0.12404366 0.14226848 0.14710848 0.07219597 0.087148584 -0.19453245 -0.10451525
-0.11133384 -0.16159172 0.060958803 0.14166647 0.080959275 0.10562038 -0.029962473 0.021098679
0.07808785 -0.2734421 -0.10760558 0.0032181921 0.0715749 0.17019822 0.2117442 0.043272454
-0.19777395 0.24687946 0.32148823 -0.20256816 -0.16024047 -0.05854583 0.0772077 -0.0054559796

pos_net.linears.2.bias f4 [30]
00000000: 25dc d33d 24bc 89bc 0a72 cd3c 212c 9cbd
00000010: 5de3 94be 8c95 063e fa5f 9b3c 5696 dcbd
00000020: bd96 d4bc 88a9 00bb 9a31 dbbd 48b7 bc3e
00000030: a87c 29bd a02f a13d a667 c5bd 0f2a 64be
00000040: 584b 9dbd 5ccd 19be be2f 38be 2bf8 583e
00000050: 25ff f93d dd67 9ebd f84b 70be a405 97bd
00000060: 0d25 06be 6a14 583e 2c75 833d 6ea5 583e
00000070: f427 6e3e e4c3 6bbd
0.103447236 -0.016813345 0.025078792 -0.076256044 -0.29079714 0.13142985 0.018966664 -0.10770862
-0.025950784 -0.0019632298 -0.1070282 0.36858582 -0.041378647 0.07870412 -0.0963891 -0.22281669
-0.07680386 -0.15019745 -0.17986962 0.21188419 0.12206868 -0.07734654 -0.2346648 -0.07374123
-0.13100071 0.21101537 0.06418833 0.21156856 0.23257428 -0.057559863

pos_net.output_layer.weight f4 [6, 30]
00000000: 1c2b 2f3d 092e 7dbe 6671 92be 3250 343e
00000010: 3ad2 aabd d0bc 813d cc69 b9bd 1768 893e
00000020: 32aa 15be 7c5a 773e 0476 0a3e 45ea 4fbe
00000030: 4ad7 78be 8627 4e3e ceb1 23be 814e 00be
00000040: 754d a2be 8c58 c0bd f456 b23d b9be b6be
00000050: e5f9 03bc 5462 863e 10ab 8d3c 197e 5dbe
00000060: 540f ab3e 71b9 0bbe 4ef0 233e 792e b1be
00000070: ff98 92be d095 893a 3777 793d 6b25 d53d
00000080: 265d ebbd faf9 823d 62bb 33be 6474 103e
00000090: cd12 9d3d a752 f93d cf92 223e e826 47bd
000000a0: 2492 36bd 385c 50bd e4b5 4e3d 7632 e53d
000000b0: 353c 233e 7e90 8a3e dbc1 e33d 4332 e1bd
000000c0: 5c9b 073e b617 8c3c c6c2 fd3d ce84 e03d
000000d0: 3673 db3d 12b6 843d 1951 ae3d 3058 1cbc
000000e0: 4d6a a9bd 8b4d d73d b548 953d 1aac 903d
000000f0: 3587 5dbe 0a2c c23d 4b27 c2bd ece2 ea3d
00000100: ec5a b5bc e4e4 e5bd d05e 5cbc f200 1fbe
00000110: 2945 68be b488 45bc fb98 853d 655c 8abd
00000120: 6cb4 4ebe a224 a0be 8a9c 8a3d 7356 1dbe
00000130: a01d 413a 2512 303e fa68 593d a790 fabd
00000140: 7c3e 6fbd 6cb7 8bbe 3ff0 c7bd 2c2d 9ebd
00000150: 7a39 47be 09dc de3b 9977 e9bd 7d51 f43d
00000160: c1f6 13be f09a fbbd 59bc ea3d 7364 c1be
00000170: 8010 28be 44ed 343c cb0a 8dbd 6b03 c8bd
00000180: 0831 82be 2503 ab3e 77df 03be 8695 7dbd
00000190: ecb0 f2bd f0f9 a9bd 4fdf 3e3e 50a4 9d3e
000001a0: d0f7 22be e792 ce3d ba40 a9bd 8922 f4bd
000001b0: 0463 a1bd e42b 5a3e cf06 44be 5108 be3d
000001c0: 6046 883d e1e8 a8be 8e6a f7bd f2d1 a43e
000001d0: 39b6 8b3e 12d0 9cbe 540e acbe 5f22 163e
000001e0: 2249 12bd d615 1ebe bb9b 22be dc7e cc3d
000001f0: 3e8d 4a3d fc54 643d 24cc cfbe be7f 593e
00000200: ce31 863d 4ed1 b13e 508b b7bd 659e a6be
00000210: 668c e3bd 224e ce3d 30c5 a93d 7674 4c3d
00000220: 5cf3 babc b2c7 b4bd 9df7 09be b351 19be
00000230: 5748 babd 41c4 b43d 0e92 3ebe a21e 10be
00000240: 854d 643e 68ae bebe 32a7 d5bd 002c 9dbe
00000250: 65b6 20be 7a50 e73d e504 6b3e 17ef 2dbe
00000260: 2398 cebd 6962 bf3d 81d8 823d 68a6 c8bc
00000270: d967 7a3e 4372 223e 0ef1 c93c 126a 263e
00000280: d33f b1bd 8ad5 aebe 0663 c13d 70a5 8ebb
00000290: 8e4c 0c3e 44a2 6a3e 80dc 2fba bab8 d4bd
000002a0: 9aa9 8b3d 804e 5ebe dd41 ef3c f6ac 103e
000002b0: 3ea6 c73e 2025 553b cf91 8c3e 5e55 343d
000002c0: df82 b33e 99f9 69be cf8d b5bd 1de1 e83d
0.04276572 -0.24724592 -0.2860214 0.17608717 -0.08340879 0.06334841 -0.09053382 0.26837227
-0.14615706 0.24155611 0.13521582 -0.2030421 -0.24300876 0.20132264 -0.15985796 -0.12529947
-0.3169972 -0.09391889 0.08707991 -0.35692385 -0.008055185 0.26246893 0.017293483 -0.21630134
0.33410132 -0.13644959 0.16009638 -0.34605768 -0.28632352 0.0010496918 0.060904708 0.104075275
-0.11492376 0.063953355 -0.1755195 0.141069 0.076696016 0.12173968 0.15876316 -0.04862109
-0.044572964 -0.050869197 0.050466433 0.11191265 0.15940936 0.27063364 0.11120959 -0.10995915
0.13242859 0.01710115 0.12390666 0.109628305 0.10715334 0.0648004 0.08511562 -0.00954251
-0.082722284 0.10512837 0.072892584 0.07064076 -0.21633609 0.09481056 -0.09480151 0.11469063
-0.022138081 -0.11225298 -0.013450339 -0.15527704 -0.22682633 -0.012056518 0.06523319 -0.06755904
-0.20186013 -0.3127795 0.06768139 -0.15365009 0.000736678 0.17194422 0.05307863 -0.122346215
-0.0584092 -0.27288377 -0.0976262 -0.077234596 -0.1945552 0.0068011326 -0.113997646 0.11929605
-0.14449598 -0.12285411 0.11461706 -0.3777195 -0.16412544 0.011042897 -0.06886824 -0.09766277
-0.25428033 0.33400837 -0.12878214 -0.061910175 -0.118501514 -0.08299625 0.18639873 0.30789423
-0.15914845 0.10086613 -0.08264299 -0.119206496 -0.07880214 0.21305805 -0.19143222 0.0927893
0.06654048 -0.32990173 -0.120808706 0.32191426 0.27287462 -0.30627495 -0.33604681 0.14661549
-0.035714276 -0.15438017 -0.15879719 0.09985134 0.049451105 0.05574511 -0.40585434 0.21240136
0.06552468 0.3473 -0.089621186 -0.3254272 -0.11110763 0.100734964 0.08289564 0.049915753
-0.02282112 -0.08827151 -0.13473363 -0.14972572 -0.09095829 0.08826495 -0.18610403 -0.14074185
0.22295196 -0.37242436 -0.104322806 -0.30697632 -0.15694578 0.112946466 0.22951086 -0.16985737
-0.100876115 0.09344942 0.06388951 -0.024493411 0.24453677 0.158639 0.024651077 0.162514
-0.08654752 -0.34147292 0.09442715 -0.004353218 0.13701078 0.22913462 -0.0006708577 -0.10386796
0.06819458 -0.21709633 0.02920621 0.1412848 0.3899402 0.003252335 0.27454993 0.044026725
0.35060784 -0.2284912 -0.088649385 0.11371062

pos_net.output_layer.bias f4 [6]
00000000: 70a9 f0ba 8c9b d63d 6504 20bd 9dfd 4d3e
00000010: 2ee3 05be dd3c d03d
-0.0018361043 0.10478887 -0.03906669 0.20116277 -0.13074943 0.10167859

neg_net.linears.0.weight f4 [30, 12]
00000000: 6118 233d 749f e03d 21b2 2f3e 5964 78be
00000010: 71ea a5be ef9e 093e 84a6 30be 88a8 c6be
00000020: 59ac a93e e35c 8a3d 88c9 863d d69f 4bbd
00000030: c104 5c3e 2d4b adbc ee24 d83d 4567 3abe
00000040: 106f 76be 8b75 173e eb4e 27bd 008f 243d
00000050: fee7 d03e 994f e0bd 3825 adbd 3583 17bd
00000060: 05b6 b2be 30d2 93bd 3cd5 a5bd f4f0 463d
00000070: 9da2 523e 60c7 663d 4b37 8ebd c14a 95bd
00000080: d40f 76bd deeb 713e e7f6 27bd 615f 6cbe
00000090: c9b2 bc3e 9a5d 39be 0d35 a6bd f163 533e
000000a0: c156 063e 08a0 24be 9c75 d63c 0a22 7cbe
000000b0: 70c6 7d3d 4302 10be dedc 9bbe b03c 3c3e
000000c0: 3a25 aebd 0d63 1a3e bb85 a43e c896 553e
000000d0: b03a 0d3e bbde 3f3d 1a9b 9bbe 2ced 22bc
000000e0: 3751 b3be dd6e bcbc c672 943d a824 8bbd
000000f0: 4b64 f3bc 84cf a03d 7a82 f3bd 4e85 463d
00000100: eca7 453e 111b d43d 435b 843e 4f81 8fbd
00000110: 29f7 dfbd a307 e6be 1649 1e3e a0a4 d8bd
00000120: b309 753e 27b7 35be e377 003d b991 12be
00000130: 5bdb 94bb e0b5 553b 6ea8 8a3d 9579 203d
00000140: b7b4 df3e ad0c c43d 2dd2 323e d44d 76be
00000150: dad9 08be 3690 713e b676 d03e 2699 36bc
00000160: 423a 9fbd 0e6d 133e f875 923e 61e4 63be
00000170: f5dc f13e 1869 cfbe a56d 8a3e 1925 80be
00000180: 4971 8abd 9ded 8e3c f769 993e 4c23 503e
00000190: 41fb 3e3d 0270 873d 6cc3 9fbe e5ae 5abe
000001a0: 7613 cabe f05f 3f3e c6a9 373e d797 de3d
000001b0: a845 8ebd 04d0 91be 16e4 1fbd 9b84 c1be
000001c0: 9791 363e 4a57 4ebd 0fc5 d2bd d5ba 82be
000001d0: b096 8fbd fa36 f4bd eaf7 b33d cf3c 34be
000001e0: 39e9 813e 8cb5 bd3e a52f de3d 1901 753c
000001f0: 43af 063e fd4e eabd 6d07 ccbe cf08 71be
00000200: d96b 88be 9254 653d b3b5 10be 31a4 5b3e
00000210: 4fdb e4bd 2a10 7ebd 0841 07be 9310 f3be
00000220: 64ea 10bf 6482 40be 6f15 8e3e 659b 52be
00000230: ead3 96be c2ce 6c3d 3079 a23e 9edd b13e
00000240: 0c13 00bf e09b c63d 8ab8 f73c 7a37 29be
00000250: 8853 03bd 3acb 31be 52b3 953e ce24 ef3b
00000260: 07c4 5abe 40fd 2e3e 53ec 4c3e 0a08 8ebe
00000270: 6c0a 1abe fb24 82be c61e 2abe 8200 44be
00000280: 521c eebd 6d79 3d3e 38b6 22be c9fb e43b
00000290: 5c75 74be 4589 96bb 35ac 3cbe af7b 5abe
000002a0: e965 1abd da5e 17bd 946a 9fbe ece1 bf3e
000002b0: 47f9 163d 911e 1f3d 2ceb 75bd 3ac8 133e
000002c0: a3a6 acbd 2679 a1be 101b 4dbd 9069 b13c
000002d0: 5489 11be 0c1a a3be 28c1 0d3e 6214 80bd
000002e0: d9d5 b63d 0989 2f3e f736 063d f80c 91bb
000002f0: a532 543e 4ac9 ac3c 9c42 ffbe 757b 6dbe
00000300: 40a4 3b3d b673 eb3c 4b50 06be c49a 4fbd
00000310: 750a 8fbd 99c5 85be 705b 94be 0856 b63e
00000320: c822 50be fbd1 503d 5817 463e 94f7 fbbd
00000330: fc83 2c3e 0857 873e 82d2 cebd eac7 763d
00000340: 7154 903d e90c dfbd 14cf e23d 72fa 6b3d
00000350: abb2 133e 6098 52be b4c1 bebb baac 31be
00000360: 0065 1ebe 3090 46bd c4c9 d7bd a205 883d
00000370: 4519 d4bd 13f3 8ebe b723 733e 34b8 d1bd
00000380: 1e13 3ebe b75e 43bd 665e b03e 3801 963d
00000390: 6fce febe 118b bbbe 144c a2bd dbbd 4ebe
000003a0: bae2 c8be 0017 e03d 168b b33e 911b c13e
000003b0: 3670 d0be d62e 683e 22d9 c6bc 069d 89be
000003c0: 6a86 9c3d 3ae0 59bc bd74 5a3e 86f5 09be
000003d0: 9f90 353e 31ea 61be 90e7 973e 55b9 5dbd
000003e0: 6bc1 d8bd ba86 a9be 00de 15bd 0404 d2be
000003f0: 6038 553b 11ca e4bd 6a02 cb3d 253f bfbd
0.03981817 0.10967913 0.17157795 -0.2425703 -0.32405427 0.13439535 -0.1725102 -0.38800454
0.33139303 0.06755998 0.06581408 -0.04971298 0.21486188 -0.02115401 0.10553919 -0.18203457
-0.24065804 0.14790933 -0.040846746 0.040175438 0.40801996 -0.10952682 -0.084543645 -0.036990363
-0.34904495 -0.072178245 -0.08097312 0.048569635 0.20569845 0.056342483 -0.0694414 -0.07289649
-0.06007369 0.23625132 -0.04100695 -0.23083259 0.36855152 -0.18102112 -0.081155874 0.20643593
0.13119031 -0.16076672 0.026179127 -0.2462236 0.061956823 -0.14063363 -0.30441946 0.18382525
-0.08503194 0.15076847 0.32133278 0.208583 0.13791919 0.04684327 -0.3039177 -0.0099442415
-0.350229 -0.023002082 0.07248454 -0.06794101 -0.02971091 0.078520805 -0.11890121 0.048466973
0.19302338 0.10356725 0.25850877 -0.070070855 -0.10935814 -0.449277 0.15457568 -0.10578275
0.23929481 -0.17745648 0.031364333 -0.14313401 -0.004542751 0.0032609627 0.06770407 0.03917845
0.43692562 0.0957273 0.17462988 -0.24053127 -0.13364354 0.23590168 0.4071557 -0.011144912
-0.07774784 0.1439707 0.28605628 -0.22255088 0.4723889 -0.40509868 0.27036777 -0.25028303
-0.06759889 0.017447287 0.29963657 0.20325965 0.046626333 0.06613161 -0.31203783 -0.2135578
-0.39467973 0.18688941 0.17935857 0.10868805 -0.069468796 -0.28479016 -0.03903588 -0.37796482
0.17828976 -0.050376214 -0.10291492 -0.25533167 -0.07011163 -0.119245484 0.0878752 -0.17601322
0.25373247 0.37052572 0.10848931 0.014953875 0.13152795 -0.11440847 -0.39849415 -0.23538516
-0.2664478 0.055988856 -0.14131813 0.21449353 -0.11174642 -0.062027134 -0.13208401 -0.47473583
-0.5660765 -0.1879974 0.27750728 -0.20567091 -0.29458553 0.057814367 0.31733084 0.34739393
-0.50029063 0.096976995 0.030239362 -0.16525069 -0.032062083 -0.17362681 0.29238373 0.0072980886
-0.21363841 0.17088795 0.20012026 -0.27740508 -0.15043038 -0.2541884 -0.16613302 -0.19140819
-0.116264954 0.18503352 -0.15889823 0.006988023 -0.23872894 -0.0045940005 -0.18425067 -0.21336244
-0.037694845 -0.036955692 -0.31136 0.37477052 0.036858823 0.03884751 -0.06003873 0.14431849
-0.08430221 -0.3153774 -0.050074637 0.021656781 -0.14212543 -0.3185581 0.13843215 -0.06253888
0.08927507 0.17142119 0.032767262 -0.004426595 0.20722444 0.021092076 -0.49855506 -0.23191626
0.045810938 0.028741699 -0.13116567 -0.050684705 -0.069844164 -0.26127318 -0.2897601 0.35612512
-0.20325768 0.050981503 0.19344842 -0.12303081 0.16847223 0.26433587 -0.10098745 0.060249247
0.07047356 -0.10891134 0.11074653 0.05761189 0.14423625 -0.20565939 -0.005821431 -0.17351046
-0.15468216 -0.04847735 -0.105365306 0.066416994 -0.10356382 -0.27919826 0.23744093 -0.10240212
-0.1856198 -0.04769775 0.3444702 0.07324451 -0.4976687 -0.36629537 -0.07924667 -0.20189612
-0.3923548 0.10941887 0.35067052 0.37716344 -0.4071061 0.22674116 -0.024273459 -0.26877612
0.07642825 -0.013298089 0.21333595 -0.13472566 0.1773095 -0.22061993 0.29668856 -0.054131825
-0.105837665 -0.331106 -0.03658867 -0.4101869 0.0032534823 -0.111713536 0.0991257 -0.09338216

neg_net.linears.0.bias f4 [30]
00000000: 4952 54bd dec0 1c3e 5dce a3bd 3022 9fbe
00000010: 5a63 d7be db13 e4be 3400 b83d 78fa 1d3c
00000020: 10ef 843a 3eae f6bd 5a6c 90bc f2e6 df3d
00000030: be6d e73d b29e 89be 92f7 d1be 54db 1b3d
00000040: 0edc ffbd cf66 c9be 114d 80bb d057 533e
00000050: a2b2 43be b66e b4be 39ff 57be 348b 0ebe
00000060: 80d5 63be 53b0 973d b831 b73d eb2a a5be
00000070: 5cd1 f4bc 9253 633e
-0.051836286 0.15307948 -0.07998345 -0.3108077 -0.42067987 -0.445464 0.08984414 0.009642236
0.0010142047 -0.12044953 -0.017629791 0.10932721 0.113002285 -0.26878887 -0.41009194 0.038050964
-0.12493144 -0.3933625 -0.003915437 0.20638967 -0.19111112 -0.35240716 -0.21093453 -0.1392029
-0.22249413 0.07406678 0.0894503 -0.32259306 -0.029884987 0.22199848

neg_net.linears.1.weight f4 [30, 30]
00000000: 3cea 253d 7242 02be 57d3 afbe bcec 353e
00000010: 1c29 1cbe 5890 16bd d2ed 8dbd 7819 2f3b
00000020: e712 45be 5f09 05be 9c3f 3bbd acbe 6abe
00000030: cf13 c9be 209d b4be dbb6 2cbe 388c e3bd
00000040: 24c1 373e dae4 26be 9ccd c0be cf45 83be
00000050: 1d98 3cbe f26d 2f3d 490e 85be fff2 85bd
00000060: 9fb4 f7bd 584e adbe c773 13be 1922 81be
00000070: c195 14be 80de 60be 22ed 01be 2ccf e03d
00000080: 34ce 5e3e 8daf 98be db6a 90be b411 c8bd
00000090: f73c 8ebd 51a3 b5be 0b26 d4bd 2c56 243e
000000a0: c3be 90be 718f ce3c f11d 003e 2231 423e
000000b0: f84a b8be 3e89 133e c5fe 0f3d fb8e 21be
000000c0: 1987 84be f313 4c3e 96c0 d1bd 37c0 d43d
000000d0: 2d9d 053e d88b 47bd ac18 533e 607e 23be
000000e0: 334b 1abe 15de 80be a086 37bd 8877 8cbe
000000f0: 2db9 0f3e e186 a03c 963d cabe 3a44 27bd
00000100: 9730 45be 253d abbe ec17 dcbd 5b4d 1c3e
00000110: 4838 9bbe d38b 80be a3ae 97be f96b 88be
00000120: 68ec 62bd 6e59 69be 8a31 6a3d 06f7 82be
00000130: a3f6 533d 1146 1ebe a400 5abd e726 b8be
00000140: 18e5 4dbe 1917 8ebe 5367 aebe 4d83 8bbe
00000150: c3a0 d6bc 8c93 bc3d c4f9 f3bd f8c4 c9bd
00000160: 9075 963d e57d 90be 4ab5 943d 03c1 0e3e
00000170: 8ec7 32bc 4416 60bc b39c f7bd f710 b7bd
00000180: f7d5 afbd 0e9a ea3c bec3 eebd 4ba9 523c
00000190: 8c54 5cbe 27b3 09be bc0a b5bd ce0f 153d
000001a0: 681e f63d aa17 4a3e 4e34 2dbe 1ce0 57bd
000001b0: 7773 6abe 36a5 9fbd de4f 263e 5a3a d53d
000001c0: d6b4 713d 446e 9a3e 3fe2 763e 20c9 86be
000001d0: fe61 f3bd ca93 80be faa5 53be 76e0 90bd
000001e0: 7b10 10be 3e4a 4ebd 89d2 a8bd 17b7 583d
000001f0: 6951 03be 8671 90be aa10 b7be 2d27 7fbe
00000200: 560c 74bd 6ff1 6ebe adda 49be 8ae1 a2bd
00000210: d394 70be b931 2abe ae18 60bd 39dc c5bd
00000220: 4c28 e7bd 0725 d6bd ac63 70bd 5d52 aabe
00000230: 4758 d2bc 0cd8 15be 524c f1bd 3c6a 45be
00000240: faa7 edbc 32de a63d 25d1 adbd dec7 f1bd
00000250: b967 fcbd 40c5 87be b792 26be 08d5 8fbe
00000260: c88a 9dbe f96c a9be c731 173e 62e9 6ebe
00000270: 4d91 95be af29 87be 1efd 9c3e 69fd cd3c
00000280: 3abd a63d b05c 6cbe 79be 43be 66d9 1f3e
00000290: b621 66be d697 ccbd 5a48 f1bb c139 3f3d
000002a0: 507c e3be ab12 3abe f68a 19be 6720 b6bc
000002b0: a4f1 c8bd 6bc1 aebe dc02 b7be cd46 2d3e
000002c0: 1816 4c3c 1c66 543c 5560 653d ead7 133e
000002d0: 3dde a0bd ac57 debd ddde 273e 0699 d4bc
000002e0: f5bd 6d3e 623e 4f3e ae88 a9bd 2a95 9fbe
000002f0: 9699 b03c 0c5b 003c 0611 b0bd e26f ec3e
00000300: e039 9b3e 40a3 9339 d8b4 d63c 0766 8bbe
00000310: a634 f23e d7c9 02be 360c b93e 6e82 5c3e
00000320: 7f17 bb3d b6e7 8a3d 7336 353d ec3f 75be
00000330: 94ad c33b caf5 57be 7d2b 2bbe 5fed a3be
00000340: ce3c b1bd 668d 7f3e 7682 723e 08f5 6f3e
00000350: db30 b4be a892 d0bd 6a1b bebd c258 1abe
00000360: 223a 5dbc 77d2 b23e 514f 36be 7410 65be
00000370: 4a48 4abe 06b1 083e 1ced ae3d 6bc7 2cbe
00000380: a797 dc3d affc 6cbd 8a9a b3bd 0a8a 4cbe
00000390: b291 31be 7488 6dbe b66c c3be b658 683e
000003a0: 20be 8bbc 01ad 0dbe 2658 07be 8298 1abe
000003b0: bd16 6abd 3e12 3d3e 605a f33d 2283 32bd
000003c0: 0adf 36be 2007 32bb f119 873e c884 f8bd
000003d0: e7bb ecbd 5aa9 3e3e 49de 81be 6308 48be
000003e0: f2cf 903d 0ca5 9d3e 86aa e6bd de23 d73e
000003f0: f1c7 9c3e ca49 0d3e ee23 323d 8a62 aa3d
0.040506586 -0.1272066 -0.34340927 0.17766088 -0.15250057 -0.03675875 -0.06930126 0.0026718061
-0.19245492 -0.12991856 -0.04571496 -0.22924298 -0.39272925 -0.35276127 -0.16866629 -0.11110729
0.17944771 -0.16298237 -0.37656868 -0.25639197 -0.18417402 0.04282946 -0.2598746 -0.065404885
-0.120949976 -0.33848834 -0.14399634 -0.25221327 -0.14510252 -0.21959877 -0.12688115 0.10977015
0.21758348 -0.29821435 -0.28206524 -0.097690016 -0.06945222 -0.35476163 -0.103588186 0.16048497
-0.2827054 0.025214883 0.12511422 0.18964055 -0.35994697 0.14407822 0.035155077 -0.15777199
-0.2588432 0.19929485 -0.10241811 0.103882246 0.13048239 -0.04871735 0.2061488 -0.15966177
-0.15067749 -0.25169435 -0.044806123 -0.27434945 0.14035483 0.019595565 -0.3950011 -0.04083655
-0.19256817 -0.33445087 -0.1074675 0.15263884 -0.30316377 -0.25106677 -0.29625425 -0.26644877
-0.055401236 -0.22788021 0.05717615 -0.2557909 0.051748883 -0.15456416 -0.053223267 -0.3596718
-0.20106924 -0.27751997 -0.34063205 -0.27248612 -0.026199704 0.0920783 -0.119128734 -0.09852022
0.07346642 -0.2822105 0.07261141 0.13940816 -0.010911835 -0.013677184 -0.12090435 -0.08938783
-0.085857324 0.028637912 -0.116584286 0.012857745 -0.21516627 -0.13447247 -0.08839938 0.036392026
0.12017518 0.1973559 -0.16914484 -0.05270396 -0.22895609 -0.07795183 0.16241404 0.1041152
0.05901035 0.3016225 0.24109744 -0.2632532 -0.11883925 -0.25112754 -0.20668784 -0.070740625
-0.14068787 -0.05036377 -0.082432814 0.052908983 -0.12824024 -0.28211612 -0.357549 -0.24917288
-0.059582077 -0.23334287 -0.19712324 -0.079531744 -0.23494272 -0.1662053 -0.054711036 -0.09661145
-0.11286983 -0.10456281 -0.058688805 -0.33265963 -0.02567686 -0.14633197 -0.11782135 -0.19278806
-0.029010762 0.08147849 -0.08487157 -0.118057 -0.12324471 -0.26517677 -0.16266905 -0.28092217
-0.30769944 -0.33090952 0.14765082 -0.23331216 -0.29212418 -0.2639899 0.30661863 0.02514525
0.08141561 -0.23082232 -0.19115628 0.15610275 -0.22473797 -0.09989898 -0.0073633613 0.046685938
-0.4443078 -0.18171184 -0.14994416 -0.022232248 -0.09811714 -0.3413194 -0.3574437 0.1692154
0.012456439 0.012963798 0.056000073 0.14437833 -0.078548886 -0.10856566 0.1639361 -0.025951874
0.23216994 0.20238641 -0.08278023 -0.3116849 0.02155761 0.007834207 -0.08596997 0.4617911
0.30317593 0.00028159656 0.02620928 -0.27226278 0.47305793 -0.12772308 0.3614213 0.2153413
0.09135341 0.067824766 0.04424138 -0.23950166 0.00597162 -0.21089855 -0.16715808 -0.32017037
-0.08654176 0.24956283 0.2368258 0.23433316 -0.35193524 -0.101842225 -0.092825726 -0.15072921
-0.0135026295 0.34926197 -0.17803694 -0.22369558 -0.19754139 0.13348779 0.08541319 -0.16872947
0.10771113 -0.057858165 -0.0876971 -0.19974533 -0.17340735 -0.23196584 -0.38168877 0.2269009
-0.017058432 -0.13835527 -0.1321722 -0.1509724 -0.05715059 0.1846399 0.11882472 -0.04358209
-0.1785852 -0.0027164891 0.2638698 -0.12134701 -0.11559277 0.1861929 -0.25364903 -0.1953445
0.070709124 0.30789983 -0.112629935 0.42019552 0.30621293 0.1379768 0.043491296 0.08319576

neg_net.linears.1.bias f4 [30]
00000000: 99d7 58be cf4a a73c cb43 06be 6ff0 193e
00000010: 2744 56be 5232 d7bd 1e59 44be b337 953d
00000020: 77a2 e2bc f852 e7bd b732 5ebd dfc8 4e3d
00000030: 163f f13c 379e c13c 83ef 723e b561 363e
00000040: 84c8 e5bd f9d5 97bd 98a7 043d b444 95bd
00000050: 2b06 74bd 62b2 6d3c 68ff a43c 89f2 c0bd
00000060: f296 56bd 7d31 81bd 42cc 32be 0cd3 5e3d
00000070: 10e8 463d 5210 a3be
-0.21175994 0.020421414 -0.13111798 0.15033124 -0.20924436 -0.10507645 -0.1917462 0.072860144
-0.02766536 -0.11295122 -0.054247584 0.050484534 0.029449027 0.023635013 0.23724179 0.1781071
-0.11219886 -0.07413859 0.032386392 -0.07288495 -0.059576195 0.014507862 0.020141318 -0.0942126
-0.052390046 -0.06308267 -0.1746073 0.05440049 0.048561156 -0.3184839

neg_net.linears.2.weight f4 [30, 30]
00000000: ba41 fe3d bbdd 953e 79ca e9bd cab2 ae3e
00000010: c738 323e 5edd e8bd 98c5 71be 9497 2bbe
00000020: b5bd 8dbd 618a 07bd da60 983d b6e6 23be
00000030: 1222 b7bd 0f8a 1fbe 228c 25bd 0eb7 5dbe
00000040: a8a6 0dbe fa75 b3bd 43c2 84be c7f9 f9bd
00000050: 0088 84bc f748 8f3e a61c e1bd 68ad e8bd
00000060: dfe4 13bd 0165 ecbd afb7 c33d 2c55 833e
00000070: 6f76 66be 5ce4 2cbd 7f8a 803e 761f e43c
00000080: 7e6f a13d f5f1 603e 6690 533d e2ee 9fbd
00000090: 09be 23be 6707 8b3d ec16 16be 467e 133e
000000a0: ecbc 363d a291 18be 35c3 263e d325 89bd
000000b0: bd79 c4bd 8bdb b13d 2ebc d7bd 3ce0 393d
000000c0: 7961 303d 7b0e 573e 1017 85bb c09f 08bd
000000d0: 3bdf a33d 8480 8e3d cc31 d3bd e61f c8bd
000000e0: fee8 863e 7ac9 ac3d 4ac9 a73c 819f a83e
000000f0: 7044 19be fb80 24be 6b72 a6be a705 e7bc
00000100: 69a7 85be 6143 8cbe 0f9f ae3d c3e3 36be
00000110: 2b4d a33d 3923 9dbd 2ea3 04be b53f af3d
00000120: b875 6fbe 705a 61bc 999f 62bd 38f7 b7bd
00000130: 2f87 0fbe b73d 033d 8884 c93d c808 1c3e
00000140: a27d b2bd 2f67 67be 36ed d53c fdef 5e3d
00000150: 38e3 dabd bde5 0cbd 23c1 9fbe b814 adbe
00000160: fe43 89be 9e9f abbe face 69bd 3535 f0bd
00000170: ad96 843d 4c8d a3bd f0db 623d 122e 2fbe
00000180: 246b ef3c 0a6e 113c 56cf a0bd 40c6 6f3c
00000190: 1a64 cfbc f129 a73d 5fbe dabd aa91 1cbe
000001a0: 9a8e ad3d d3fa edbd 9f85 b0bd 9241 16be
000001b0: 6679 5d3d 7c1d 0bbd 786f a03d babd 5abe
000001c0: 3249 653d b470 a23d 74b3 dbbd 33fa b7bd
000001d0: 9d9b b53d 7637 58be b4a4 93bd 0883 54be
000001e0: 5937 c63d 4ea1 633c 0aa3 aa3b c90d 04be
000001f0: bc78 f13d c5b6 4e3e 1de3 ae3d a869 283e
00000200: dd71 c1be b944 b2bd cab5 8d3e c46c 193e
00000210: f5f2 8d3e d7aa 443e 87e8 2b3e da73 4c3d
00000220: 0c6f 0fbe e8c9 1fbd 9c50 c6bd 6c0a 5bbd
00000230: a32f 8cbc f14f 37be 52ac b1bc a1b9 473c
00000240: 30af fcbb 47d2 89be d047 3b3e 65d1 d4bd
00000250: a1cd 423e 588e fa3d 9d60 153d 2f38 2fbe
00000260: afda 50be da61 b1bd 8e6c 2abe 2e0e 223e
00000270: 14fa aebd 29c8 8a3c 0043 87bd e094 c43c
00000280: 7148 d53d 862a 29bd a42c 053c 66ef d4bd
00000290: 5564 0dbe d29a 14be b52e af3d 2c50 cabc
000002a0: 101f cd3a 88de c93d 2032 ecbb bc70 d63d
000002b0: dc0c 91bd a057 a53d 2e51 d63d 08a3 603d
000002c0: adf9 713e 092c 9fbe 4815 123e 490b 4ebe
000002d0: 9bbf acbd 87b1 05be cb7d b2bd 14a7 10be
000002e0: dcd6 423d 065b 00be e0c6 3d3e 18c3 a83d
000002f0: 95ba 2d3e f574 b23d c3b3 a93d b7d6 eb3d
00000300: ba8f c6bc bf79 9bbc 02dd 44bc d218 00bd
00000310: a605 95bd 866b 04be 96bd 4fbc 8be0 ad3d
00000320: b168 3f3d d861 a5bd 9896 78bd bef2 a9bd
00000330: a91c 00be 9ffb 2fbd bcd7 f0bb df64 83bd
00000340: 209c 113b 2647 7fbc b4b4 d7bc c9f8 34be
00000350: d094 1abe 3898 51be ab1a 01be 63b5 92be
00000360: 1418 a43d 5fcf 943d 6e7f a33c f96c c53c
00000370: c685 15be c203 97be c758 9c3d ee0b 49be
00000380: afb0 abbe 1af6 7bbe 0162 db3c 6e7d be3c
00000390: 008d a33d d1c4 05bc 3809 4e3d 1413 48be
000003a0: cf4e bebc ac96 8ebe 29a4 03bd 5ea4 b0bd
000003b0: 3c6b 9cbd 8e2f 07bd c838 b2bd 080e 33be
000003c0: 52e0 00be ce61 60be 72f2 a3be ad33 50be
000003d0: 6b90 2c3e d127 13be 9c9d a4bc d408 58be
000003e0: bb9c c7bd 68f4 8ebc dbce 493e 7a45 35be
000003f0: 0bfa f7bd 8cbe 223e 3452 2a3e 428c ef3d
0.1241488 0.2927073 -0.11415572 0.3412078 0.17404471 -0.113703474 -0.23610532 -0.16757041
-0.06920949 -0.033090953 0.07440348 -0.16005978 -0.08942045 -0.15580009 -0.040416844 -0.21651861
-0.13833106 -0.087627366 -0.2592946 -0.12205844 -0.016178131 0.27985355 -0.109917924 -0.113611996
-0.03610694 -0.115427025 0.09556519 0.25650918 -0.22506116 -0.042209968 0.25105664 0.027847033
0.078825936 0.219673 0.05165138 -0.07809235 -0.15990461 0.06788521 -0.14657182 0.14403638
0.044613764 -0.14899305 0.16285403 -0.066966675 -0.09593532 0.086844526 -0.10533939 0.045379862
0.043061707 0.21001618 -0.004061587 -0.033355474 0.08001562 0.06958106 -0.103122324 -0.09771709
0.26349634 0.08436866 0.020481724 0.32934192 -0.14967513 -0.16064827 -0.3250917 -0.028200937
-0.26104286 -0.27395156 0.08526432 -0.17860322 0.07973703 -0.07672734 -0.12952873 0.08557073
-0.2338475 -0.013754472 -0.055327985 -0.089827 -0.14016412 0.032041278 0.098397315 0.15237725
-0.08715369 -0.22597955 0.026114088 0.05442809 -0.1068787 -0.034398783 -0.3120204 -0.3380487
-0.26809686 -0.33520216 -0.057082154 -0.117288984 0.064740516 -0.079859346 0.05538553 -0.17107418
0.029225893 0.008876333 -0.07852046 0.014634669 -0.025316287 0.081622966 -0.10680842 -0.15289941
0.08474465 -0.116201065 -0.08619236 -0.1467345 0.054070853 -0.033963665 0.07833761 -0.21361437
0.055978008 0.07931653 -0.10727587 -0.089832686 0.088675715 -0.21114907 -0.07209149 -0.2075311
0.096785255 0.0138934385 0.005207424 -0.12895884 0.117906064 0.20186909 0.08539412 0.16446555
-0.37782183 -0.08704514 0.27677757 0.14982897 0.27724424 0.19205795 0.16787921 0.049915172
-0.14007205 -0.039010912 -0.09683344 -0.053476736 -0.017112559 -0.17901589 -0.021688614 0.0121902535
-0.0077113137 -0.2691824 0.18289113 -0.10391501 0.19023754 0.12234181 0.03646909 -0.17111276
-0.20395921 -0.08661242 -0.16642973 0.15825722 -0.08543792 0.016941147 -0.06604576 0.02399677
0.10414208 -0.04130032 0.008128319 -0.10397224 -0.13807805 -0.14512184 0.085538305 -0.024696432
0.0015649516 0.098568976 -0.007208124 0.10470721 -0.07082531 0.08073354 0.104647025 0.05484298
0.236304 -0.31088284 0.1426593 -0.20121492 -0.08434983 -0.13056003 -0.08715399 -0.14126235
0.047568187 -0.12534723 0.18532896 0.08240336 0.16965707 0.08713714 0.0828624 0.11515563
-0.024238456 -0.018978951 -0.012015583 -0.03127367 -0.07276468 -0.12931642 -0.012679478 0.08490094
0.0467307 -0.08075303 -0.060690492 -0.082982525 -0.12510933 -0.042964574 -0.0073499363 -0.06415724
0.0022218302 -0.015580928 -0.026331283 -0.17673029 -0.1509583 -0.20468223 -0.1260783 -0.28654012
0.08012405 0.072661154 0.019958224 0.024099814 -0.14601812 -0.29495054 0.076341204 -0.19633457
-0.33533236 -0.24605599 0.02678013 0.023253169 0.07985878 -0.0081646005 0.05030176 -0.19538528
-0.023230938 -0.2784933 -0.032138977 -0.086251006 -0.07637641 -0.033004336 -0.087022364 -0.17485821
-0.12585571 -0.2191231 -0.3202091 -0.20332213 0.16851966 -0.14370658 -0.020094685 -0.21097118
-0.09746691 -0.017450526 0.19707815 -0.17702284 -0.12108239 0.15893 0.1663292 0.11696674

neg_net.linears.2.bias f4 [30]
00000000: a3be f0bc 0095 543e 82ac c5bd 2f7c 3bbe
00000010: 86d0 173e 1b87 42be c313 87bd a041 48be
00000020: 9502 b53d 9834 a2bd 0eca 8ebd 1d59 f3bd
00000030: 1d0d 323e 4218 b2be 685c 7ebe 2ca7 02be
00000040: 9865 183e 608a 9abd 94e9 87bc 2b74 71be
00000050: 04fa e63d 27a6 3cbe d4f8 013d f560 c4bd
00000060: 596a 5e3e 424a a23d 36f7 bcbc 6c60 17be
00000070: 26be 24be fe1f 87bd
-0.029387778 0.20759964 -0.09652044 -0.18309091 0.14825639 -0.18996851 -0.06595566 -0.19556284
0.08838383 -0.07920188 -0.069721326 -0.118822314 0.17387815 -0.34784132 -0.24839938 -0.12759084
0.14882505 -0.07545924 -0.01659087 -0.23579471 0.112781554 -0.18422757 0.03173144 -0.095888056
0.21720256 0.0792432 -0.023067098 -0.14782876 -0.16088161 -0.06597899
