data/MTMR_28002/sim/random/NN_Dist_0.02/train/N500/D6_SinCosInput/8/result/model/ReLU_Dual_UDirection_PKD.pt (torch_old, 22776 bytes, 20 tensors)

input_mean f4 [12]
00000000: deac 42bb 0092 843e 72ac 1bba d034 7a3e
00000010: 64b0 783e a1e9 573b 89f0 6b3f d8ac 6b3f
00000020: 003c 713f 0fa4 2d3e 2e61 763e 1db1 6b3f
-0.0029705088 0.2589264 -0.0005938477 0.24434209 0.24286038 0.003294565 0.921639 0.92060614
0.9423218 0.16957115 0.24060509 0.9206713

input_std f4 [12]
00000000: 8d6c c33e 3cf8 8e3e f75b a93e 050b 233f
00000010: 9cab 293f 6899 c43e 9e2c 8f3d 0ffb b03d
00000020: a56b 513d 5f16 363f d08d 2a3f 0184 8f3d
0.38168755 0.27923763 0.33077976 0.6368869 0.6627748 0.3839829 0.06990932 0.086416356
0.05112805 0.71127886 0.6662264 0.070075996

output_mean f4 [6]
00000000: c866 dfb3 8bd2 b73e 8028 483e d104 f1bb
00000010: c85e 4b3b c636 ac3a
-1.04029425e-07 0.3590282 0.195467 -0.0073553105 0.0031031836 0.0013138882

output_std f4 [6]
00000000: f160 ef37 1bec 563e 954b 223e 3657 7f3d
00000010: a883 223d 23d9 1b3c
2.8536162e-05 0.20988505 0.15849145 0.06233903 0.03967634 0.009512219

pos_net.linears.0.weight f4 [30, 12]
00000000: 4ed4 80be f345 40be 6819 9abe 1fab 03bf
00000010: 5c71 dbbe fdc3 70be e8fe 803d 5017 27be
00000020: 43a3 a73e deb8 093d 0376 443f b18b 05be
00000030: d4a9 483f f2ef e5bd 1591 1dbf a8f4 ddbe
00000040: 8a5b f0be ed52 81be 1c4a 04bd 0f77 1b3e
00000050: 7171 eabd d3f3 f0bd 906c be3e 0907 1fbe
00000060: 2a59 023f 6bb8 743d 7d1e 133e 9091 c23e
00000070: 59c5 a63e f784 a73e 4b31 1ebe c3a9 95be
00000080: 97f5 e53d 8baf 9e3e 6f19 1c3e bbb6 da3e
00000090: a7b8 5e3e 1a69 763e b776 e23e 568c 583e
000000a0: c3e6 35bd 3d10 d03d b567 11bd 2555 2abe
000000b0: a4ce 093e 417d 92bf 49a4 1c3d e7a3 04bd
000000c0: 6384 1dbe ec7f 5b3e 91a1 88be 4a67 0fbf
000000d0: d947 26be 638e 963e 6233 7ebe 0dee 5b3d
000000e0: 5ce3 bf3a 47ca b53e c362 7fbd 90c7 503c
000000f0: 1a59 a2be 756f 38be 4ea5 443d b6d1 043f
00000100: 499d e03d ad20 273e 4ba4 163e a00d adbe
00000110: b25f 893e 8d4b acbe 460c 133d 8b35 20bd
00000120: 82e8 e73c 70ba 9e3e 2ec4 833e 5e08 2dbe
00000130: 5171 d13e 709e 3f3f 2839 f53d 85ca 5d3d
00000140: 78fc 83bd 5918 aabd 5484 acbd 870a 10bd
00000150: d223 053e af8a 973d 9cf7 85be e8bb 59be
00000160: 1ae1 43bf 5e2c 07be df6e 00bd e591 f73d
00000170: cd70 2f3e e197 143f 29e3 24bf a8e7 76be
00000180: 641b 91bd f338 e3be d5e0 863e 7e3a 15bf
00000190: 021a 563d 1caf 953e c95c 78bd fae9 44be
000001a0: 5609 f03d 8e3d 75bd 4db3 cebe 7c81 963e
000001b0: ce88 c63e 38a1 0abe 0a0b 7d3e 7af4 6cbe
000001c0: b161 0e3f 8d2e fcbd d33b 203e bdb1 c73e
000001d0: 07be bb3e 720f bb3e b022 c93d 03e4 173d
000001e0: b38f a53e 49b4 8a3e 1d00 2dbe efcf 82bd
000001f0: 2a13 70bd 327f 5c3e f62d 053e 0816 39bd
00000200: 4d04 6cbe 55cf f8bd 976f 36bf 18e9 773d
00000210: cfb6 453f 39dd 1b3c 7d41 8f3e a975 403e
00000220: cd67 15bf 0990 92bd 6d5f 76bc 2927 81be
00000230: e331 3bbe f5bf fabc fcfa bd3e b1c3 f73d
00000240: 85f4 553d 37a5 3d3e 99de 28bf 4de5 50be
00000250: 76f3 df3e 0a53 e6be 931c 9fbd 8c30 cabd
00000260: e3a0 423d f9c4 cabd ce3a 203e 8c7a 8ebe
00000270: cc5c 9a3e 74a7 a73d 2c83 35be f991 41be
00000280: a2f3 67bf 47dd e33e ec8c a43b 3a3f 3c3d
00000290: efd1 473d 7243 5fbf 8323 80be 66df 073e
000002a0: f894 3ebf 391a 68bd fd20 b6be da66 21be
000002b0: 8d0d cb3e 77bf 5cbd 344d a73d cb4b 8e3e
000002c0: 3030 43bd 1502 b23e 115e 0dbf c67d fcbd
000002d0: 83d7 cc3d 4d4e 723d e6fa f63c 6830 8fbd
000002e0: d332 7bbf b756 8cbe 16de 20be 213f fd3d
000002f0: 708b 4cbc 11fa d93e ffc1 8a3e ec45 bdbc
00000300: a491 d9be 572c fc3e c5be 173f 70d1 ff3e
00000310: 6683 c53e cb71 0d3d a834 e0bd 23d3 493e
00000320: f742 ddbc a3a3 8c3e 168d 19bf 7384 4c3d
00000330: 9153 0abe 069f 91bd b9a7 82be 124b 903e
00000340: 0963 983e 047d 853d 45c0 a9bd 5b95 99bb
00000350: 2637 743e 0e16 bd3c e3ef 52bf 5295 043e
00000360: ba2d 983d 22c3 c2bd 02f6 ac3d 5fae 94bb
00000370: fe61 aebe 08f1 bcbb 975b 71bd b3c7 12bd
00000380: f86d bbbd 2a99 6fbd c842 80bf 8fd0 4f3d
00000390: 3530 4ebc 78d1 0d3e 8869 9ebd 267d 39bf
000003a0: 7822 9ebc 44f2 d7be a632 813e 5df9 89bd
000003b0: 383d 00bd 94bf 803e df48 723e 9edc 5b3e
000003c0: 086a 5c3c 77a8 383f 634b 5c3f 145b a5be
000003d0: 9a76 3e3e b0f6 82be 6769 4c3e f1c4 003d
000003e0: d42a 003d 4804 133f 4ea7 dbbb 1c20 8c3d
000003f0: 4e57 9bbe 05fd 4a3e 1a91 b43e b646 873d
-0.25161976 -0.18776684 -0.30097508 -0.51432985 -0.42859924 -0.23512264 0.062986195 -0.16317487
0.32741746 0.03362357 0.7674257 -0.1304157 0.7838414 -0.112274066 -0.615495 -0.4335072
-0.4694484 -0.2525858 -0.03229724 0.15182136 -0.114474185 -0.11765256 0.37192202 -0.15530027
0.50917304 0.059746187 0.14367099 0.3800168 0.3257244 0.32718632 -0.15448491 -0.2923108
0.11228483 0.30993304 0.15244077 0.42717537 0.21750127 0.2406353 0.44231197 0.21147284
-0.044409525 0.10159347 -0.035499293 -0.16634043 0.13457733 -1.1444474 0.038242612 -0.032382872
-0.15382533 0.21435517 -0.26685765 -0.5601698 -0.16238345 0.29405507 -0.24824288 0.05369382
0.0014639902 0.35505888 -0.062350046 0.012742892 -0.31708604 -0.18011267 0.04800921 0.51882493
0.109675 0.16321059 0.1471111 -0.33799458 0.26830822 -0.3365139 0.035900377 -0.039113563
0.02830911 0.31001616 0.2573561 -0.16897723 0.40906766 0.7485113 0.11973792 0.054148216
-0.06444639 -0.08305425 -0.08423677 -0.03516629 0.13001946 0.07399499 -0.26165473 -0.21263087
-0.7651535 -0.13200518 -0.031355735 0.12088374 0.17132874 0.5804425 -0.6440912 -0.24111807
-0.070853025 -0.44379386 0.26343408 -0.58292377 0.052270897 0.2923516 -0.06063536 -0.1922988
0.11720531 -0.059873156 -0.4037117 0.29395664 0.3877625 -0.13538063 0.24711242 -0.23140135
0.55617815 -0.12313566 0.15647821 0.3900279 0.36668417 0.3653522 0.09821069 0.037082683
0.32336196 0.27090672 -0.16894574 -0.063873164 -0.058612026 0.21532896 0.13005814 -0.045187026
-0.23048516 -0.121489204 -0.7126402 0.06052503 0.7723207 0.009513193 0.2797965 0.18794884
-0.5836151 -0.07156379 -0.0150374 -0.2522519 -0.18280749 -0.03060911 0.37105548 0.12097872
0.052235145 0.18520056 -0.6596466 -0.20399971 0.43740433 -0.4498523 -0.07769122 -0.09872541
0.047516715 -0.09900851 0.15647432 -0.2782787 0.30148923 0.08186236 -0.1772582 -0.1890334
-0.9060613 0.4450476 0.005021682 0.045958735 0.048784193 -0.8721229 -0.25027093 0.13268813
-0.7444606 -0.056665633 -0.35572043 -0.15761891 0.39658776 -0.053893533 0.08169022 0.277922
-0.047653377 0.34767213 -0.5522166 -0.12328677 0.10002043 0.059156705 0.030148935 -0.06991655
-0.98124427 -0.27409908 -0.15709719 0.123655565 -0.012484416 0.42573598 0.27101132 -0.02310463
-0.42493927 0.4925258 0.59275466 0.49964476 0.38576812 0.03453235 -0.109475434 0.19709449
-0.02700947 0.27468595 -0.59980905 0.049931 -0.1350844 -0.071104094 -0.25518587 0.28182274
0.29763058 0.065179855 -0.08288626 -0.004686994 0.23849162 0.023081806 -0.8239729 0.12947586
0.07430597 -0.09509875 0.0844536 -0.004537388 -0.34059137 -0.005766038 -0.058925238 -0.03583498
-0.09151834 -0.058495678 -1.002038 0.050736006 -0.012584736 0.13849437 -0.07734972 -0.72456586
-0.019303545 -0.42177022 0.25233954 -0.067370154 -0.031308383 0.25146163 0.2366061 0.21470878
0.013453014 0.72132057 0.8605253 -0.3229605 0.1859993 -0.25578833 0.19962083 0.031437818
0.031290844 0.5742841 -0.006703294 0.06842062 -0.30340046 0.19823082 0.35266954 0.06605284

pos_net.linears.0.bias f4 [30]
00000000: 2756 61be f86c 943e 598e 56be 989c 4abd
00000010: 63f8 c63d c4f4 bfbe de18 afbe 6c1c abbe
00000020: 7152 ff3d 7cdb 4dbe 90ab d1be 34e8 583e
00000030: 5fdc 9abe 2ad7 22bd 3d31 adbd a56c e9bd
00000040: ee2d 153d 37c9 853d da5d 55bf 7220 dbbd
00000050: 09fe c03c 42c3 1fbe 9e59 96be f76e 01bf
00000060: faec 49bf 7e92 e0be 4e9f e63d e93d 813e
00000070: 7a6c bfbe 76db 8f3e
-0.22005521 0.28989387 -0.20952739 -0.049465746 0.09715345 -0.3749143 -0.3419866 -0.33420122
0.12466896 -0.20103258 -0.40951204 0.21182328 -0.30246255 -0.039755978 -0.08456657 -0.113976754
0.036420755 0.06532519 -0.8334633 -0.10699548 0.023558633 -0.15601829 -0.29365247 -0.50559944
-0.7887722 -0.43861765 0.11260854 0.25242546 -0.3738745 0.28097123

pos_net.linears.1.weight f4 [30, 30]
00000000: 5e03 56be 54ab 863e 7aa7 32bc 9a27 b33e
00000010: f84a 89be 19ba 09bf dac0 afbd e52c 92be
00000020: b0d0 473e 3b12 8d3e 0229 393c 5375 5fbe
00000030: e48e c5bd d61f 18bf f62b c7bc 9f1a c2be
00000040: 3beb 25be 2688 783e 77a1 203e 537c 72be
00000050: e924 38be ff0a 91be a98d 983c 6191 41bd
00000060: c8c9 aebd ab78 65bd 2baf a5be 2439 b43d
00000070: 2d2a acbe bd68 033e 03b7 26bd 9f8e 4cbd
00000080: 77c8 bfbb ee38 acbb 60c2 41be 73bb 6f3d
00000090: e407 99bc 4094 5cbd a496 51be c84b da3c
000000a0: 2938 92bc 20a3 d63c 17bc 693d 1859 29bd
000000b0: 206e 9fbe 939c df3b e9a0 8abe a7aa 82be
000000c0: 1ed0 9bbc b112 12be d715 58be f392 51be
000000d0: facb 72be ed7f d73b 6065 383c 3fcc 533c
000000e0: c69d 8cbe c3dc 9dbe ea24 fc3c d6ba abbd
000000f0: d80a 30bb c266 79be 943b b4bd f0c1 8dbd
00000100: 6e42 30bd 3b11 f63d 2cd8 f73d 2259 8b3e
00000110: 7c71 60be 290e 8cbe 59d8 773d 11b7 47be
00000120: 0963 a6bd 23bd c7bd cd88 973d 6046 a0be
00000130: be09 613e 6590 c23e 9229 663f a8eb cb3d
00000140: bcdf 98bd 01f0 553e 8577 a63e 2663 a2be
00000150: 4d2c bfbd 1a4f 07be dc50 6c3e 5607 c83e
00000160: 6c7b 8abc 808c ca3c 8c63 d2be ad66 fd3e
00000170: ae9f e73e 0265 db3e 6232 3cbd 6fe0 22be
00000180: f9ef 043d ae29 d03d cba6 97be 3996 263e
00000190: f712 9bbc 437e ba3e 92ad fd3e 0d1b 0e3e
000001a0: 5eef 7dbe 5f43 b2bd 5cf1 2bbe dd93 3dbd
000001b0: eba2 37bf c865 1dbe 18ab 33bc fd36 78bd
000001c0: 0055 89be a698 363e 9815 183e 9aab 2c3e
000001d0: 7e82 00bf 13eb 2bbe 328e c13d 6493 823d
000001e0: 4871 9abd 544e 19be 78a2 bcbc fe5f 48be
000001f0: f8e5 95be b10e acbc 87b7 20be 742d edbd
00000200: 7478 83be 0c3e fcbd 0ab8 10be c434 45bd
00000210: d8f3 babd 14ee 97bd 888a 98be 1ac6 06bc
00000220: 9858 66be 4024 8dbe 9f9a 0bbe 628b 97be
00000230: 99c6 95be 309c 7dbe 2eae 82be e119 a3bc
00000240: 02c6 82bd 0852 463d c5f8 9bbe c035 9bbe
00000250: b347 b4bd 4c21 47be c9fa 503e f6e3 c1be
00000260: 9da9 843e 69c2 95be 5027 5a3d b83e 7a3c
00000270: 7a0a 103f 4eec a4be 0358 5cbe 7772 06be
00000280: 1c9a 49be d53d 3d3e a246 c3be f251 90be
00000290: 0a8d e3bc 3f4d d6bd 7f29 b93d 0e34 83be
000002a0: 1c15 a6bc 372b 23be 65cc 1ebe ac6c e9bd
000002b0: ac7e 4cbd 5a5e 08be 883d 5b3e 0e94 f9bd
000002c0: 72fa 1cbd 750d 45be 91b4 cb3e 7819 1b3e
000002d0: 079b eaba 93a2 a2bc e6ac 2eba 1c0d 0ebb
000002e0: eab5 48b9 aafa fbb8 8f03 a5ba 43a3 13ba
000002f0: 3888 4339 a134 caba f407 bbba da5b d2bb
00000300: 7420 72bb a4e4 44bc 00f3 10bc d079 8b3a
00000310: 110f 24bc 74df bebb 70bd 45bb 0b16 98ba
00000320: f1a0 dcbb 9a13 46bb b1f0 bdbb 4523 c93a
00000330: c7fe 06ba cab7 4c3b 92d4 82bb 1c2d b5bb
00000340: c144 26bb 06f9 b33a ed32 7bbe 426c ac3d
00000350: 3fc9 febd 4c62 2d3d 75ce ee3d 50b6 b13e
00000360: 617c b53e 220b f93e 88b0 873d 51d6 debe
00000370: ed08 39be 07cc 95be 9a70 0bbe fed5 953d
00000380: c017 793e e84c c4bd f1e1 43bd 55ad b4be
00000390: 1ab5 c7be 4e42 623e 6465 e7be d367 18bd
000003a0: b137 8fbe 948f c5bd ee66 223e 4f82 b73e
000003b0: 39d3 14bd 04ad af3e 48f6 88be 4203 05be
000003c0: 0ecc 9fbb a8d6 b93c f072 b8ba 822e d6bb
000003d0: 5ac9 d23b 07f7 a8bb 4928 0c3c 0b82 48bc
000003e0: 0168 aebc 0c96 1ebb fac2 79bb b860 e53a
000003f0: b2ac 0dbc 5c9f b0bb 8580 c7bd 92e2 97bc
-0.20899722 0.26302588 -0.010904187 0.3499115 -0.2681501 -0.5379959 -0.085817054 -0.28549877
0.19513202 0.2755297 0.011301281 -0.218221 -0.09646395 -0.5942358 -0.024312954 -0.37910935
-0.16203015 0.24270687 0.15686594 -0.23680238 -0.1798283 -0.28328702 0.018622236 -0.047257785
-0.085345805 -0.05602328 -0.32360205 0.08799961 -0.33625928 0.12832923 -0.040701877 -0.0499407
-0.0058527547 -0.00525581 -0.18921804 0.058528375 -0.01868052 -0.05385232 -0.20467621 0.026647463
-0.017849045 0.026200831 0.057064142 -0.041344732 -0.31138706 0.006824085 -0.2707589 -0.25520822
-0.019020136 -0.14264943 -0.21102081 -0.20466213 -0.23710623 0.0065765292 0.011254638 0.012927114
-0.27464122 -0.3083249 0.03077932 -0.083852455 -0.0026861932 -0.24355605 -0.08800426 -0.06921756
-0.043032102 0.12015005 0.121017784 0.2721644 -0.21918291 -0.27354553 0.06050906 -0.19503428
-0.08124358 -0.09752872 0.073991396 -0.31303692 0.21976373 0.3800079 0.8990718 0.09957057
-0.07464549 0.20892335 0.3251306 -0.3171627 -0.093346216 -0.13213769 0.2307772 0.39068097
-0.016904555 0.024725199 -0.41091573 0.49492398 0.45239013 0.428505 -0.045946486 -0.15905927
0.03245542 0.101642 -0.2961944 0.16268243 -0.018929942 0.36424455 0.49546486 0.13877507
-0.24798343 -0.08704256 -0.1679129 -0.04628359 -0.7173297 -0.15370858 -0.010966085 -0.060599316
-0.26822662 0.17831668 0.14851987 0.16862336 -0.50199115 -0.16788892 0.0945095 0.06375769
-0.07541138 -0.14971286 -0.02302669 -0.19567868 -0.29277015 -0.0210031 -0.1569501 -0.11580935
-0.25677836 -0.12316522 -0.14132705 -0.048146024 -0.09128541 -0.07418457 -0.2979319 -0.008225942
-0.22494733 -0.2756672 -0.13633202 -0.29598528 -0.2925308 -0.24766612 -0.25523514 -0.019909801
-0.06385423 0.048418075 -0.30463234 -0.30314445 -0.08802738 -0.19446295 0.20408167 -0.37869233
0.25910655 -0.29249886 0.053260148 0.015273742 0.56265986 -0.32211536 -0.21517949 -0.13129602
-0.19687694 0.18480618 -0.38139826 -0.2818752 -0.027777214 -0.10463952 0.09041118 -0.25625652
-0.020273738 -0.15934454 -0.15507658 -0.11397681 -0.04992549 -0.13317242 0.21410191 -0.12186442
-0.03832478 -0.19243415 0.397862 0.15146434 -0.0017898985 -0.019852912 -0.0006663337 -0.0021675294
-0.00019141255 -0.000120153025 -0.0012589562 -0.0005631933 0.00018647395 -0.0015427062 -0.0014269338 -0.006419641
-0.0036945613 -0.012017403 -0.008846998 0.0010641161 -0.010013358 -0.0058249775 -0.0030172728 -0.0011603249
-0.006733053 -0.0030224086 -0.005796515 0.0015345594 -0.0005149659 0.0031237477 -0.0039926255 -0.005529059
-0.002537057 0.0013730831 -0.24531145 0.08419086 -0.124407284 0.04233007 0.11660472 0.34709406
0.35446456 0.48641306 0.066254675 -0.43522885 -0.18069811 -0.29257223 -0.13617173 0.073162064
0.24325466 -0.09584981 -0.047822896 -0.35288492 -0.39005357 0.22095606 -0.45194542 -0.03720839
-0.27972177 -0.09646526 0.15859577 0.35841605 -0.03633425 0.34311688 -0.26750398 -0.12989524
-0.00487662 0.022685364 -0.001407234 -0.006536306 0.0064326944 -0.005156401 0.008554527 -0.012238036
-0.021289827 -0.0024198322 -0.00381106 0.0017500138 -0.008647131 -0.005390091 -0.0974131 -0.018540654

pos_net.linears.1.bias f4 [30]
00000000: 3a33 9d3e a63f 87be c408 c63d d10b 3f3e
00000010: b6c5 a4be 394a 30be 3849 873a fc57 47be
00000020: bda1 99bd 3a88 1c3e 6c46 923e bf43 563d
00000030: 6c37 2e3e 257d a6be aa02 93bc e512 9f3d
00000040: 324c d13e ed38 82be 568c 6dbd 5bc0 193c
00000050: 8b69 633d 67e3 513e 6360 813e 9cc0 413e
00000060: 583b 76be d072 87bd b1bd 52bd fed4 543e
00000070: ff2d f13c 4a60 a0be
0.30703145 -0.26415747 0.09669641 0.18656851 -0.3218209 -0.17215814 0.0010321504 -0.19467157
-0.07501552 0.15286341 0.28569353 0.0523107 0.1701333 -0.32517353 -0.017945606 0.07767276
0.40878445 -0.25434056 -0.057995163 0.00938424 0.055520575 0.20496903 0.2526885 0.18921131
-0.24046075 -0.066136956 -0.051450435 0.20784375 0.029440878 -0.31323463

pos_net.linears.2.weight f4 [30, 30]
00000000: e472 c63e a693 41bc 5840 4e3c a7c6 493e
00000010: 5c51 833a afc0 febe ebe0 bd3a 819b de3e
00000020: 3cac 35bb ba11 9cbe f2e3 40bd 4dd0 fc3d
00000030: c704 41be 8cc9 6339 a038 de3a 04b0 8ebe
00000040: 1971 f23d 75da 37bd 746a 4e3b 8afd 24bd
00000050: 228b 42be 00da 18be eccf 87be cebf 893c
00000060: 8224 df3a 856d d33e 0e00 653e 3cdb cb3e
00000070: a52b e4be beda dbb9 d7a6 5fbe f46e acbd
00000080: 3206 bfbe 1dea a33e d59a 303e 485e 653d
00000090: ca08 58b9 823f 743d 2010 9cbb bca2 f03e
000000a0: 0849 0c3f 73e8 853e 046b 6d3e 0a5c eb3d
000000b0: 29f5 9cbb 90a1 8cbe 2c48 cabd 7c05 4c3e
000000c0: 1810 a9bd aa8b a43d 05ea 1dbe 78c1 833b
000000d0: 3021 e1be b7df 4b3e 2aa3 6a3e c69b 44be
000000e0: 81ed 79be 7039 0fbf 6b80 85bd 128a 42ba
000000f0: 722a fdbd 9b83 513e 4683 c3bd 3d90 10be
00000100: a9dc 80be e4ed b9bc 9c00 72ba 3ecc c73e
00000110: 16fd 5abc 4954 223d 2660 603e d614 44be
00000120: f8ed 0a3f c5c8 4ebd 3e97 ddba 1ac7 43bf
00000130: 6d6b 50bf 5add ad3d af3c 08bc 9d72 c3bc
00000140: 5573 9f3d 025a bf3e b1c6 723e 3344 ecbe
00000150: ecc1 a03b 3d62 11bb 1047 05be daca 1bbb
00000160: e6cd 7f3d 6eb5 c4bb 8a74 20b8 d246 20bc
00000170: cb04 beba 3123 8bba 00ac cd39 2c12 dbb9
00000180: 3cf0 2939 b305 8a3a 413f 5f3a 51a4 78bc
00000190: 0364 7ebc c3a6 21bb aa22 7139 5c16 0f39
000001a0: f943 a3b9 a0f7 413b 8831 b0b8 2a86 9539
000001b0: 27ee 3639 8673 81ba fd25 8939 e5a5 c6ba
000001c0: 9885 6738 9311 6a3b 19ef 013a 4684 c539
000001d0: 1fcc 4d3b 07e2 22ba c8f5 6739 c417 5db8
000001e0: a894 bcbe 9d68 8b3e 3d48 673e 4ab8 9bbe
000001f0: 4217 9cbe c9c6 4dbe 524e 4bbb 40db 17bf
00000200: 6ffa b33a 9fe0 47be 099d 48be 9d85 25bd
00000210: e129 8bbe 7d9a 3abd 789d e8ba d04b e73e
00000220: b713 4f3f 3228 9dbb 48f3 a8bb e844 d63e
00000230: 9a63 d13e 80a4 6c3e 65ef 303e 8148 513f
00000240: 0e34 b1ba d90b 3ebe f7b1 09be c2b7 d43d
00000250: decb 0f3e d00a d338 d630 ba3e 66b5 7ebc
00000260: 12a6 33be 4f14 443e 0465 02bd e5bd 1abe
00000270: 3eb6 ecb7 c066 083f fe62 a1bc 3cba fd3d
00000280: 1514 20bd 2702 a8bd 424f 813e a44a ba38
00000290: e0a0 3839 489c ff3c e923 873e 4a71 f7bc
000002a0: bfe9 873c 0514 43bc b251 d93e da02 113e
000002b0: 9d69 0bbe 17de ce3e 9006 23b9 4e9a 5e3d
000002c0: 5251 d13c 9851 a3bd ef0f e1be 6e22 7b39
000002d0: ea7e d138 ee15 29b8 02bf 32bc 5d06 9bb8
000002e0: fc00 9039 22dc 2239 face 10b8 2f40 2738
000002f0: b5d6 8238 5f6d d338 daee 0ebd 2a86 b2ba
00000300: 7bde aa3a 90ce 9a39 e6ed b7b9 44b6 153a
00000310: c06c 1f39 a8cd 1839 e39f 68b9 b97d 82bd
00000320: ecf0 39ba 3555 bcbb db10 a7bc d42a 2f3b
00000330: 18e3 0bba 1a75 d939 4e84 d0b9 de2e 06bd
00000340: b6ed daba 0b37 7c39 35a3 01bd 53b7 34bd
00000350: a999 b33b e5a3 443e f7e8 f4bd ba07 6b3c
00000360: 6f2d e3b9 5117 843e ba57 043c ee61 56be
00000370: e5f3 a5be 9fcd cdbe c5a4 503e ff95 f8bd
00000380: 6089 19b7 de0e 3ebe e8ad 82bd b82a 963b
00000390: 05b6 053b 02ed 34bd 9c6f 9cbe 127f ddbd
000003a0: 47f3 46bd c73a cf3d 8cc3 85ba b087 843e
000003b0: 42f3 28be f679 c23e 58d3 c23e 8004 bbb8
000003c0: ae18 1ebe 37d0 c3bb 9471 80be 43d7 403e
000003d0: 353c 813d 2251 86be 5494 4eba 2569 7cbd
000003e0: c0f9 613b 812b 103e 1343 f83d c6ef a43e
000003f0: 35f2 e83d 7529 3dbe 46da daba fcb5 453e
0.3875953 -0.011814987 0.012588583 0.19704686 0.0010018754 -0.4975638 0.0014486586 0.43478015
-0.0027721068 -0.30482274 -0.047092386 0.12344418 -0.18849479 0.00021723489 0.0016954131 -0.27868664
0.11837978 -0.04488607 0.0031496556 -0.040280856 -0.18998387 -0.1492691 -0.2652582 0.016815092
0.001702443 0.41294494 0.22363302 0.398157 -0.44564548 -0.0004193391 -0.21840988 -0.084196
-0.37309414 0.32014552 0.17246564 0.055998117 -0.0002060264 0.05963088 -0.0047626644 0.46999156
0.54798937 0.26153907 0.23185354 0.114921644 -0.0047899676 -0.27467012 -0.09877047 0.19923967
-0.08255023 0.08034451 -0.15421303 0.004020866 -0.43970633 0.19909559 0.22913805 -0.19200048
-0.24407007 -0.5594702 -0.065186344 -0.0007421087 -0.123616114 0.2046036 -0.09546523 -0.14117523
-0.2516835 -0.022696443 -0.0009231658 0.39023012 -0.013366004 0.03963116 0.21911678 -0.19148573
0.5426936 -0.050484437 -0.0016906036 -0.7647568 -0.8141392 0.08489485 -0.008315249 -0.023858363
0.0778567 0.37373358 0.23708607 -0.46145782 0.00490593 -0.0022183799 -0.1301539 -0.0023772032
0.06245222 -0.0060030734 -3.8255508e-05 -0.00978251 -0.0014497278 -0.0010615346 0.00039228797 -0.00041784474
0.0001620659 0.0010530263 0.00085162005 -0.015175895 -0.015526774 -0.0024666048 0.00022996464 0.00013645872
-0.00031140426 0.002959706 -8.40156e-05 0.00028519455 0.00017445591 -0.0009876348 0.0002615898 -0.0015155642
5.519911e-05 0.0035716041 0.0004956588 0.0003767332 0.0031402183 -0.000621349 0.00022121437 -5.271264e-05
-0.36832166 0.2722825 0.2258615 -0.3041404 -0.30486494 -0.20095362 -0.0031022024 -0.59318924
0.0013731251 -0.1951928 -0.19591154 -0.040410627 -0.2718039 -0.045557488 -0.0017747125 0.45175028
0.8088946 -0.0047960514 -0.0051559545 0.41849446 0.40896302 0.23109627 0.17278822 0.8175126
-0.0013519542 -0.18559207 -0.13446794 0.103866115 0.14042613 0.00010063278 0.36365384 -0.015546178
-0.1754382 0.19148372 -0.031834617 -0.15111502 -2.8218255e-05 0.53281784 -0.019700523 0.12389037
-0.03908165 -0.082035355 0.2525578 8.883074e-05 0.00017607538 0.03120245 0.26394585 -0.030205388
0.016590951 -0.0119066285 0.4244514 0.14161244 -0.13614507 0.40403816 -0.00015547336 0.054346375
0.025551472 -0.07974547 -0.4395747 0.00023950051 9.989536e-05 -4.0313163e-05 -0.010909798 -7.392161e-05
0.00027466554 0.0001553153 -3.4525037e-05 3.987568e-05 6.238875e-05 0.00010081636 -0.034895755 -0.0013620306
0.0013036275 0.0002952707 -0.00035081728 0.00057110586 0.00015203934 0.00014572463 -0.00022184807 -0.06371636
-0.000709309 -0.005747462 -0.02039378 0.0026728408 -0.0005336269 0.00041476713 -0.00039771426 -0.03275954
-0.0016702923 0.00024053098 -0.031649787 -0.044120144 0.005480964 0.19203146 -0.11958497 0.014345104
-0.00043330665 0.2579904 0.008077556 -0.20935795 -0.3241264 -0.4019594 0.20375355 -0.121379845
-9.151496e-06 -0.18560359 -0.06380826 0.004582729 0.0020402682 -0.04417134 -0.305539 -0.10815252
-0.04857185 0.10118633 -0.0010205372 0.2588477 -0.16499045 0.37983674 0.38051867 -8.917693e-05
-0.15439102 -0.005975749 -0.25086653 0.18832116 0.06310312 -0.26233774 -0.0007880379 -0.06162371
0.0034481138 0.14079095 0.121221684 0.32214183 0.11374322 -0.18472846 -0.0016697131 0.19307703

pos_net.linears.2.bias f4 [30]
00000000: 55d5 9abe 021c 0a3f 5f43 2bbc ce77 b4bd
00000010: 3fd7 893c 0baf d1be 1fb8 a0bc 1f42 b7be
00000020: 68ee e33d 97c3 6c3e 367f abbd b322 223e
00000030: ac6a c7bd d2a9 7d3e 41f9 523f 28eb 26bd
00000040: 3eb7 13be 452b 8cbd 1b56 9a3b e551 0cbe
00000050: 3b69 6a3e 33c0 72be 2e46 383e 518d 42be
00000060: eb18 5dbd 2f58 77be 7e45 b83d 5013 9fbd
00000070: e1e2 85bd 9a9e 13be
-0.30240884 0.53948987 -0.010453074 -0.088119134 0.01682627 -0.4095386 -0.019619046 -0.35792634
0.11129457 0.23121487 -0.08373873 0.15833549 -0.09737143 0.24771813 0.8241158 -0.040751606
-0.1442537 -0.068441905 0.0047099716 -0.13703115 0.22891705 -0.2370613 0.17995521 -0.1899922
-0.05397884 -0.24154733 0.089976296 -0.077673554 -0.06537414 -0.1441597

pos_net.output_layer.weight f4 [6, 30]
00000000: 653d efbd df2a 3ebf a132 a23e 20bc 8d3a
00000010: d236 d03e e554 14bd da0d e83b b7d7 523e
00000020: 0a46 2ebf 15a2 013f a4a4 fa3e 7b8d ea3e
00000030: 7985 083f 25b2 93bd 78ec 183d c4ae 4e3e
00000040: 477f 8ebe aedc 793e c4cc 3abf d257 27ba
00000050: bec9 34bf 4044 c13e 7d6d bfbe 084f 3cbe
00000060: dbe6 5cbb f72c d83e 0348 17bf 156a 9a3e
00000070: 7c05 973e 6d2d 21bf 9909 c4bb ea98 a43e
00000080: 93a7 5c3d b67b ab3d b8d2 64be ec86 92bd
00000090: f02c 85ba 0c57 67be 8655 60bc 5eca 35bc
000000a0: 6f3a 7cbd 9ba5 debd c1f0 893e fe60 483e
000000b0: 73fa dfbd 6249 9a3c f636 d1bb 26eb bf39
000000c0: 241f 2c3d a6f4 48bb 520c 80be 1461 0fbe
000000d0: 6891 bebe 369a c23c e7c6 01bb c4af 78be
000000e0: a551 73be b05f 99bc 01e8 923e 53d6 b5bb
000000f0: fd92 8cbd a715 783e d40d 693e cb97 72bb
00000100: ce39 d1bd d01f efbc 70e3 5a38 3bd7 043d
00000110: 430d e73d 14bf 24bd 3834 b5bd 6987 81be
00000120: 9e6a 473e f1fa 953e 8499 4bbd 0268 f238
00000130: 711c f6bb 4149 9d3e 6b60 183e f9ef c53a
00000140: 8b07 88be aedd b23c 74ba 02be 2945 0ebd
00000150: dc33 e83a fab6 01be ec60 77be 313e ccbc
00000160: ce90 fa3d 61d1 a7bd 60ff e73e aae1 56be
00000170: 67ab 403e 524e 2e39 122c e0be 2f52 4a3e
00000180: 2062 833a daa0 c53e ce7c 54be 0cbf 43be
00000190: 1213 3abc abfe 62bd 4dc4 623e 2c27 103e
000001a0: 0dd3 023f e6e8 113b a8ec e8ba 07b5 3ebe
000001b0: 1162 933e c402 39b9 da21 673e cfb9 90be
000001c0: 7a9c 8a3c 08e3 b6bc aff1 d039 8f3e 953e
000001d0: 4344 fe3e 809a 3b3d 4eed bcbc 77c4 febe
000001e0: a272 983e 4841 e2bd 1c0e 753e c2e3 d73a
000001f0: 1c97 febd e2b3 1c3f 47ac 63bc 3cc1 b1be
00000200: 47bf 88bd 5a0a a53e 108e 16be 43ea 223e
00000210: 9f07 4fbd 6af4 6f3e 6773 16bf 9f75 9b3c
00000220: a041 d737 f991 aebe 8d57 f5bd dee5 c9b9
00000230: ab4c 33bc 80de 56be 0581 92bd 1321 773c
00000240: db4f b839 1c7a 673d d21a ebbd 3bed e03b
00000250: 2ebd 17be 3144 2fbd 05f9 c5be 4400 333e
00000260: 06ae e63e 330b 0bbc b5a5 9ebe 6a34 9bbd
00000270: ece6 a93a 2fb9 cc3d f69d c9be aba2 dcbb
00000280: 0887 833e 4053 a53e 523e 31be ed34 c6be
00000290: 5d55 2cbe cff0 563c bab7 c6b9 7700 9e3e
000002a0: fda5 9c3e a274 a2ba d56b bbbe bfed b03e
000002b0: e5b6 5a3f 0422 f1bb 7210 9bb8 cddb f5bd
000002c0: 17a5 a93e 520e 843c 6435 053d 40ad ce3d
-0.11681632 -0.74284166 0.31679252 0.0010813512 0.40666825 -0.036213774 0.0070817294 0.20590101
-0.6807562 0.5063794 0.48953736 0.45811066 0.53328663 -0.07211713 0.03733489 0.20183855
-0.2783148 0.24400589 -0.729687 -0.00063836307 -0.70620334 0.37747383 -0.3738822 -0.18389523
-0.0033706937 0.42221805 -0.59094256 0.3015906 0.29496372 -0.6295994 -0.0059825894 0.32147914
0.05387075 0.08373205 -0.22346008 -0.071546406 -0.0010160487 -0.225918 -0.013692265 -0.011095611
-0.061579164 -0.108714305 0.26941493 0.1956825 -0.10936441 0.01883382 -0.0063847257 0.00036605558
0.042021886 -0.00306634 -0.250094 -0.14001876 -0.3722031 0.023755174 -0.0019802393 -0.242858
-0.23761614 -0.018722385 0.2869263 -0.005549231 -0.06863973 0.2422701 0.22759181 -0.0037016745
-0.102161035 -0.029189974 5.2187068e-05 0.032431822 0.11281826 -0.04022129 -0.088478506 -0.25298622
0.19474265 0.29293016 -0.04970695 0.00011558832 -0.0075107147 0.3071995 0.1488053 0.0015101425
-0.26568255 0.02183422 -0.12766439 -0.034733925 0.0017715651 -0.12667456 -0.24158067 -0.024931999
0.122346506 -0.08194233 0.45312023 -0.20984522 0.18815385 0.0001662311 -0.43783623 0.19757913
0.001002375 0.38599283 -0.20750734 -0.19115847 -0.011357086 -0.05541865 0.22145195 0.14077443
0.5110329 0.0022264062 -0.0017770724 -0.18623744 0.28785756 -0.00017644005 0.22571507 -0.2826676
0.016920317 -0.022325054 0.0003985292 0.2914929 0.49661455 0.04580164 -0.023062374 -0.49759266
0.29774958 -0.11047608 0.23931164 0.0016471075 -0.124311656 0.6121198 -0.013896055 -0.3471774
-0.06677108 0.3223446 -0.1470263 0.15909676 -0.050544377 0.2343308 -0.5876984 0.018976985
2.5660556e-05 -0.34095743 -0.119795896 -0.00038508972 -0.010943572 -0.20983315 -0.07153515 0.015083569
0.00035154712 0.056512937 -0.11479725 0.0068642176 -0.1481826 -0.04278964 -0.3866655 0.1748057
0.45054644 -0.008486557 -0.309858 -0.075783566 0.0012962497 0.099962585 -0.39378327 -0.0067332587
0.25688958 0.32290077 -0.1730893 -0.38712254 -0.16829439 0.013118937 -0.0003790239 0.3085973
0.3059539 -0.0012394378 -0.36605707 0.34556386 0.85435325 -0.0073587913 -7.394039e-05 -0.12004814
0.33133766 0.01612011 0.03252162 0.100916386

pos_net.output_layer.bias f4 [6]
00000000: fa78 85be e2c2 743d 8f07 67be 6c9f 99be
00000010: 7ce2 22bd 9851 403f
-0.2606886 0.059756167 -0.22561477 -0.30004442 -0.039766774 0.751245

neg_net.linears.0.weight f4 [30, 12]
00000000: 330b 93be bf4a 1cbe eef9 c9be df50 3abf
00000010: 53b1 2bbf 7c92 0f3e 1b12 1dbc 1d47 7a3d
00000020: ada2 a1bd 064c 3f3e f566 223e 1fdb 753d
00000030: 8458 613e 16f6 2c3e 158c 2e3e 86fa 9dbd
00000040: 7550 2abd 8ae2 c1bd 0150 10be 08e9 04bd
00000050: c6db c2be 5d25 6b3e e783 99bf c9a0 8d3d
00000060: 13ec 8c3d e713 9a3e 14c2 5d3f 8c88 ed3e
00000070: bb57 803e 4efd 20be 82cc 69be e607 2ebe
00000080: 3621 a6bd ae7d 873d 5e69 aebd d481 e43c
00000090: 0c4f 253f 3cfd 9abe 71d5 8b3e 2be9 143f
000000a0: d6b1 883d fae9 063f 5eab 2bbe 5c92 12be
000000b0: e279 8cbe da19 c9be 1e2f 143b 9d86 613c
000000c0: a934 683e f1f9 8fbe 8a2f 4f3d 09b0 82bc
000000d0: 48d0 a33e 47a7 a93d 4d88 753e 7cfc d73c
000000e0: 84a9 173d 6713 ff3e 4d9f 11bf d7bf 09bf
000000f0: 18de c43e 51c0 f03d 9cba 273e 41e5 d6bc
00000100: 8ef1 cb3e 7712 47be 6341 aebe 56cc 38bd
00000110: 58ef 48be edbd d2be 68fe 10bf 3e80 bb3e
00000120: f6aa 343e 3902 013e 4025 a53e d7bc d9be
00000130: 16a2 1ebd be13 07bf bb59 073d 4f4a e5bd
00000140: f84a 423e c8a2 013f 14ec e3bc 4207 b2be
00000150: b7d5 c7be ed3e 823e f664 ac3d f50f 383d
00000160: 28e2 3abf 2f9a abbe 12a0 c3bc 5098 d53d
00000170: a0a3 4e3e d63c fd3d d29e 9e3e e099 45be
00000180: dd30 5c3e eb01 28bf 95d8 d6be b5e7 333e
00000190: 44bd 06bd dbe3 80bc 14f7 953e 59f5 ee3d
000001a0: 1e11 bb3d de46 52bf 26e1 903e ed5e fbbd
000001b0: e7f2 843d 0066 52be 9b80 d9be 3227 31bf
000001c0: 10eb 0f3e 6e13 ad3d e7ec b03d 62bd 573d
000001d0: 2702 eabc ab3e 03bf 4ed6 b23d 259a b6be
000001e0: 6815 363f 0ac4 6e3b 9679 d13e 2cc7 d23e
000001f0: d44a 15be e71a 563e f71d 29be 6d36 7f3e
00000200: b655 7b3d 3ea7 b43e 74e7 103f 9009 8e3d
00000210: 1ee2 babe 9004 223e e011 1abe 236a ebbd
00000220: fbf3 8cbd 7742 083e c3a1 4dbe fd4d 613e
00000230: b468 223e 5de3 08bf 165d febe 86c2 773e
00000240: 2859 123e 8a15 4bbd 46fe bf3e 59b0 bd3e
00000250: 9621 e43e fdd7 9f3e 851e 773c 6d88 11be
00000260: 5dff 893e 9ed0 68be 7237 82bf beea 1bbb
00000270: 0279 a53d 078f d3bd 5ad3 2fbd dc81 263f
00000280: 7be3 3dbf 39c4 02bf a492 8dbe 95e9 4dbe
00000290: 6e2a 2bbe c622 cb3d 99d6 97bd 00ac b5bc
000002a0: 7132 d03d 1345 9abe 7282 cebe 4412 d3be
000002b0: 0ecd 02bf 1756 67bd 919d ed3c 356b 1b3e
000002c0: a844 4fbc 4520 c93e 1ce2 843d 9975 3dbe
000002d0: ac13 75be ef64 133f 5678 513f 1c5e b13d
000002e0: 69bb 423d 6594 60bd addd 7abc 5db3 b8be
000002f0: 220d 713d bad8 363f adb4 0b3e c353 853d
00000300: c8d2 a43e b4dc 6a3e 8bcc 0e3f 7cb6 b33d
00000310: 2cb8 e93e a3ef 233e 7d85 ca3e 985a a33d
00000320: 233f 8c3e 2526 55be a63f 383e 5c01 babe
00000330: b3aa 60bd 8974 8c3e 42c0 2a3f cb93 26bd
00000340: b4c0 f5be d846 37be 7e2c dfbb 73fc 0fbe
00000350: 868f 1cbd 3398 973e 1232 02bf b6b8 6d3e
00000360: 0647 f13c 5e28 5e3e 3e8f ee3e 0f23 e9bd
00000370: 9ccc 283e 4df7 843d 620e babd 33e0 aebd
00000380: b180 11be 894b 96bf 5c9b a8be f289 af3d
00000390: 02d7 2dbe c9dc 133e 6b62 13bd 9719 e3bd
000003a0: dd1e 04bf 40f0 00bf e0b7 413e d5ec bfbd
000003b0: b25b c43c c306 62be 0606 a43e 507a 7e3e
000003c0: 8266 9c3e f2a8 73be aa93 34be 8810 30bf
000003d0: d389 0fbe 51f8 db3d fa06 6bbd 06b4 92bb
000003e0: 8b4f a8bc fc94 d4be ad99 403d b047 403e
000003f0: e5c3 6ebd 5ce6 1abf 2839 aabe a5dc 463c
-0.28719482 -0.15262888 -0.39448494 -0.7277965 -0.6706745 0.14020723 -0.009586836 0.061102975
-0.07892356 0.18681344 0.15859587 0.060023423 0.22006422 0.1689075 0.17045625 -0.07713799
-0.041580636 -0.09467037 -0.14093019 -0.0324488 -0.380583 0.22963472 -1.1993378 0.06915433
0.06880965 0.3009331 0.86624265 0.4639324 0.25066933 -0.15721628 -0.2283192 -0.169952
-0.08111803 0.066157684 -0.08516191 0.027893938 0.6457374 -0.30271327 0.2731128 0.58168286
0.066745445 0.5270077 -0.1676459 -0.14313644 -0.2743674 -0.39277536 0.0022611092 0.013765004
0.22676338 -0.28120378 0.050582446 -0.01595308 0.31994843 0.08283859 0.23977776 0.026365511
0.037026897 0.4981949 -0.568837 -0.5380835 0.38450694 0.117554314 0.1637978 -0.026232364
0.3983273 -0.19440638 -0.3403426 -0.045116745 -0.19622552 -0.41160527 -0.56638193 0.3662128
0.17643341 0.12598504 0.32254982 -0.42526886 -0.038728796 -0.527645 0.033044558 -0.11195814
0.18973911 0.5063901 -0.027822532 -0.34771162 -0.3903024 0.25438634 0.08417694 0.044937093
-0.7300134 -0.3351607 -0.023880038 0.10429442 0.20179605 0.12365119 0.30980545 -0.1929698
0.21503015 -0.65627927 -0.41962114 0.17568858 -0.03289534 -0.01573365 0.29290068 0.1166789
0.09134124 -0.82139385 0.28296775 -0.12273965 0.064916424 -0.20546722 -0.4248093 -0.6920043
0.14054513 0.084509715 0.086389355 0.052670844 -0.02856548 -0.512675 0.087322816 -0.35664478
0.71126413 0.0036432766 0.40913075 0.4116758 -0.14579326 0.209087 -0.16515337 0.24923106
0.061361037 0.35283846 0.5660317 0.06935418 -0.3650064 0.15822053 -0.15045881 -0.11494853
-0.06882473 0.13306604 -0.20081238 0.22002406 0.15860254 -0.5347193 -0.49680394 0.24195299
0.14291823 -0.049581088 0.37498683 0.37048605 0.44556874 0.31219473 0.01508296 -0.14212199
0.2695264 -0.22735831 -1.017317 -0.002379104 0.08079721 -0.10330015 -0.04292617 0.650419
-0.7417523 -0.5108066 -0.2765094 -0.20108636 -0.16715404 0.09918742 -0.07413978 -0.022176743
0.10165871 -0.30130824 -0.40333897 -0.41224873 -0.5109414 -0.056478586 0.029005798 0.15177615
-0.012650646 0.39282432 0.064884394 -0.18501891 -0.23933285 0.5757589 0.81824243 0.08660528
0.04754201 -0.05482902 -0.015311641 -0.36074343 0.058850415 0.7142445 0.13643141 0.06510117
0.32192063 0.22935754 0.5578086 0.087750405 0.45648324 0.16009383 0.39554968 0.07976264
0.2739192 -0.20815332 0.1799303 -0.36329162 -0.05485029 0.2743266 0.6669961 -0.04066829
-0.47998583 -0.17898118 -0.006810724 -0.14061145 -0.038222812 0.29608306 -0.5085765 0.23214993
0.029452812 0.21695086 0.4659366 -0.1138364 0.16484302 0.064924814 -0.090847746 -0.08538856
-0.14209248 -1.1741802 -0.3293103 0.08571233 -0.1697655 0.14439692 -0.03598253 -0.11088865
-0.51609594 -0.5036659 0.18917799 -0.09371344 0.023969505 -0.22072892 0.32035846 0.24851346
0.30546957 -0.23794916 -0.17634454 -0.68775225 -0.1401742 0.10740722 -0.0573797 -0.004477027
-0.020545742 -0.41519916 0.047021557 0.18777347 -0.05829229 -0.6050775 -0.33246732 0.012137567

neg_net.linears.0.bias f4 [30]
00000000: c1c9 6c3e 151e f7be 48be 81be d132 46bd
00000010: e71f 64be 1f03 a7be 10a1 debd 8566 893e
00000020: 8cfa 92be 2c8c 2b3d 7d01 f6be b84c fbbe
00000030: 17fb 853e d1d0 0cbf a4be c8bd 6831 c6bd
00000040: 6a51 aebd 8c01 42be 1bc5 53bd 28b3 4bbe
00000050: 1030 7abe 260b c4bd 8f77 973e f46d 6ebe
00000060: 5e43 6b3d eb1a c93c f804 74be 3146 c03e
00000070: bf72 d8be f61f 933e
0.23123838 -0.48265138 -0.25340486 -0.048388306 -0.22277795 -0.3261957 -0.10870564 0.2683603
-0.28706777 0.041881725 -0.4804801 -0.4908197 0.2616813 -0.5500613 -0.09801987 -0.09677392
-0.08511622 -0.18945903 -0.051701646 -0.19892561 -0.24432397 -0.09572439 0.29583403 -0.23284131
0.057437293 0.024548968 -0.2383002 0.37553552 -0.42275044 0.28735322

neg_net.linears.1.weight f4 [30, 30]
00000000: 78c9 b43e 6416 383e 6b88 07be a8a8 aa3e
00000010: 39aa f03d dcd1 373e 58be 14bf 94b2 ecbe
00000020: 84be d03e b385 003f 2601 253f 473b 4e3e
00000030: b1b0 7c3e 2b0c f6be bfc0 a13d 9dc1 56be
00000040: 2f6e 0a3d b9f4 85be 037e ca3e 474a c53d
00000050: 9943 e63e 7e33 9d3c c384 193e c46b 8a3e
00000060: 7104 f4be 5298 e8be 090f e7be 797e 00bf
00000070: 7d7a c8bd 1ed4 9dbe 2051 26bb 1f6a 92bb
00000080: f45a 4dba 1250 02bc f8d9 a0bb 7fe8 7fbb
00000090: 2736 213c df1b 2a3b 2826 163c 9abd 803b
000000a0: 72c2 013c c096 b7bb 9800 23bc 6e31 4abc
000000b0: 90ee 2abb b0f5 e23a 3383 9b3b f0ed b939
000000c0: d8c3 6c3b 4c3a bb3b 58c2 023c 1269 a13b
000000d0: 2b0d 01bc 618d cfbb 6504 d3bb 0d5d ed3a
000000e0: 56e1 9d39 da93 b2bb d0f2 d8ba decd 983a
000000f0: 3413 ce3e cf11 29bf 65d0 9abe b724 33bf
00000100: f389 7bbe 289c f1be d803 6c3e 304b c23e
00000110: 1082 92be 2736 8d3e 0b08 0cbf be3f 6ebe
00000120: 621c 15bf 78d6 4d3e cb17 a33e a87c 97bd
00000130: 4ad2 8ebd a4b9 303e b8eb abbe 202c 8d3e
00000140: 3da6 a93e 02c5 973d c71c 8ebe d8f9 48be
00000150: 191e a13e 19ef 7a3e 8e08 1e3e edb3 873e
00000160: 491a 9e3e 1226 453e aca2 86bd 6bd3 31bd
00000170: b4e1 df3d 0f64 f6be e431 0c3c 9276 31be
00000180: 5637 383c 485f ad3e 5620 18bf e854 d6be
00000190: 5329 26bf ee8b 23bf df7b 25be e8a6 343f
000001a0: 41a4 9dbc 1da3 c43e bfde 29be 3f5c eb3e
000001b0: a784 02be 6c6f 153e ba76 c83d de4e 2bbb
000001c0: db08 babe bb2b 8fbe fc73 a43e fab3 913e
000001d0: 4992 773e 232f 3fbd 1204 de3e 3323 01be
000001e0: e2a4 b03e 0cc6 03bf 5cf7 e1be a6b5 8e3d
000001f0: 7241 753e 6a02 c3be f533 063e 052c 98bd
00000200: f0b8 bebe a8df a33e 73e5 cfbe 39a3 26be
00000210: a6f6 a9be e2d2 e33d 1f4d 423e 44d7 7cbe
00000220: b1b4 2dbe 3f6d cebd 5988 78be f056 b5bd
00000230: f419 dc3e e0fd a0bb a915 2a3e b878 393e
00000240: 954a 8e3e 420c c93d 3c4a 44be ef08 e43e
00000250: aa46 2cbb f82f ef3e d296 123e 4626 aabe
00000260: d6e3 dbbc 1ae5 05bf e610 9dbe 991b 84be
00000270: 8a2f 073e fe12 a23d 4b59 8ebe 4124 963e
00000280: 440b 183f e0b2 aabe 2167 fbbe 8a8c 87be
00000290: 2598 10be 8d89 dc3e e541 713e adf4 7f3e
000002a0: 231f 0abf d68c a5be 8724 713d 0801 32be
000002b0: b9b4 80be 87d0 49be 9cf1 12be 9e25 813d
000002c0: a0a2 d03c cda4 f23d d901 053e d50b 6b3e
000002d0: 9c5b 30bc 66da 47bc 9836 afba a26f 11bc
000002e0: fe3d 18bc 3842 e23c bdda 92bb a390 3b3b
000002f0: f33b 083b 68d4 98b9 5b85 e33b 2f1b 32bb
00000300: 90a8 ccbc 50c4 25bb 6cd0 1a3b fac0 a2bb
00000310: 771e cbbb bcb2 4dbb 81ef 0dbc 6d11 bbba
00000320: 8812 2ebb 0cc4 c5ba 25ea d9bc b89d 3aba
00000330: 28db e0ba 7cf5 2cbb 8d99 90ba f5a6 ddbb
00000340: 271c 9fbb fe7a 11bc b989 17be b281 e63e
00000350: 6cab 46be 4c61 babd f433 f13b 5b16 623e
00000360: 5da8 c4bd 63d4 cabd 9072 6e3e 2948 8a3e
00000370: cd67 8ebe 1e45 bdbb 0a3a 473e ef9b 2ebd
00000380: 74bd 6bbe 2f05 cabe ca60 56be 77da 97bd
00000390: ae7e d43e d84e f93e c4d2 053e 6737 c13e
000003a0: 64d2 213e d4a8 92be c605 eabe 08e9 05be
000003b0: 3086 e43d 3f6a 07be e52c 3bbe add9 69be
000003c0: f534 80be 8d95 013e 5cac 35be 4261 b1bd
000003d0: 83e8 3ebe b0ea b93e 29a4 6cbe 7fe3 8fbc
000003e0: 5344 a03e 7354 783c 9fde 403e 7edf 9a3d
000003f0: cb54 5bbe a70f 7f3e 793f 49be 8fc6 79be
0.35309958 0.17977291 -0.13235633 0.333318 0.117512174 0.17951149 -0.5810294 -0.46229994
0.40770352 0.5020401 0.6445488 0.201398 0.24676777 -0.48056158 0.078980915 -0.20972295
0.033796486 -0.2616327 0.39549264 0.09633308 0.44973448 0.019189592 0.14992051 0.27035344
-0.4765964 -0.4542871 -0.45128658 -0.5019298 -0.09788988 -0.30825895 -0.0025377944 -0.004468217
-0.00078336825 -0.007953661 -0.0049087964 -0.003904849 0.009839571 0.0025956554 0.009164371 0.0039288523
0.0079198945 -0.0056026876 -0.009948872 -0.0123408865 -0.0026082136 0.0017315652 0.004745865 0.00035463227
0.0036127474 0.0057137366 0.0079809055 0.0049258554 -0.007876675 -0.0063339924 -0.006439733 0.0018109396
0.00030113262 -0.005449754 -0.0016551856 0.0011658033 0.40249026 -0.660428 -0.30237117 -0.699779
-0.24564342 -0.4718945 0.23048341 0.3794799 -0.28614855 0.27580377 -0.5469977 -0.23266503
-0.58246434 0.20101345 0.3185409 -0.07396823 -0.06973703 0.17258316 -0.33578277 0.27572727
0.33134642 0.07410623 -0.2775633 -0.19626558 0.31468275 0.24505271 0.15432951 0.2650446
0.3087943 0.19252804 -0.06573996 -0.043414515 0.10931721 -0.48123214 0.008556817 -0.17330387
0.011243662 0.33861756 -0.5942434 -0.41861653 -0.64906806 -0.6388539 -0.16160534 0.7056718
-0.019243361 0.38405696 -0.16588877 0.45968816 -0.12745915 0.14593285 0.0978827 -0.0026139538
-0.3633488 -0.2796305 0.3211974 0.28457624 0.24176897 -0.046675812 0.4336248 -0.12611084
0.34500796 -0.5147407 -0.44134033 0.069682404 0.23950747 -0.3808778 0.13105758 -0.07430271
-0.3725047 0.32006574 -0.40604743 -0.16273202 -0.3319599 0.11124207 0.18974732 -0.24691492
-0.1696346 -0.10079431 -0.24270763 -0.08854473 0.4298855 -0.0049130768 0.16609825 0.18112457
0.27791277 0.09816791 -0.19168943 0.44538066 -0.0026287236 0.46716285 0.14315346 -0.33232325
-0.02684204 -0.52302706 -0.30676955 -0.25802305 0.13201728 0.07913779 -0.278025 0.29324535
0.5939219 -0.33339596 -0.4910212 -0.2647441 -0.14120539 0.43073693 0.23560293 0.2499568
-0.5395376 -0.32334012 0.058872726 -0.17383206 -0.2513788 -0.19708453 -0.14349979 0.06306003
0.02546817 0.118478395 0.12988986 0.22953732 -0.010764029 -0.012198066 -0.0013367711 -0.008876713
-0.009292124 0.027619466 -0.004481642 0.0028620146 0.0020787686 -0.00029149954 0.0069433874 -0.0027176847
-0.02498272 -0.0025294013 0.0023622764 -0.0049668523 -0.0061987 -0.0031387052 -0.008663059 -0.0014272161
-0.0026561338 -0.0015088334 -0.026600907 -0.0007118839 -0.0017155157 -0.0026391437 -0.001103209 -0.0067642876
-0.004855651 -0.008879421 -0.14798631 0.45020825 -0.1940133 -0.09100589 0.0073609296 0.2207884
-0.09602425 -0.09903791 0.2328589 0.2700818 -0.2781357 -0.0057760617 0.19455734 -0.04262918
-0.2302149 -0.3945708 -0.2093536 -0.07414716 0.415029 0.48692966 0.13068682 0.3773758
0.15802914 -0.2864443 -0.4570753 -0.13077176 0.11158407 -0.13224123 -0.18278845 -0.22836943
-0.25040403 0.12654705 -0.17741531 -0.086611286 -0.18643384 0.36311865 -0.23109497 -0.017564533
0.31302127 0.015156853 0.18834923 0.07562159 -0.21419065 0.24908315 -0.19653119 -0.2439215

neg_net.linears.1.bias f4 [30]
00000000: 8c99 4dbd eafd 07bc 049e b53d 08fb 14bd
00000010: 98a4 233e 95ec 05be 0233 a4bc eb7c 26be
00000020: a424 abbd 83c9 573e 8a88 aebe 8848 af3e
00000030: 607c 24bd a3a9 413e f5c3 2bbd 035e bfbd
00000040: 0f2f 19be 16a9 4a3e 13e7 63bd 4c55 b8be
00000050: 17f5 e3be b696 18be d150 61be 4237 2bbe
00000060: f845 69bd f786 a8be d671 b53e e126 323a
00000070: 7333 6c3e 890c 6bbe
-0.05019526 -0.008300284 0.0886803 -0.036372215 0.15980756 -0.1307853 -0.020043854 -0.1625859
-0.08356598 0.21072964 -0.34088546 0.34235024 -0.040157676 0.18912368 -0.041934926 -0.09344103
-0.14959358 0.19791064 -0.05564029 -0.36002576 -0.44522926 -0.14901242 -0.22003485 -0.16720298
-0.056951493 -0.3291547 0.35438412 0.00067959545 0.23066501 -0.22954

neg_net.linears.2.weight f4 [30, 30]
00000000: 34e0 71be 73e4 3f39 82f5 46bb 51ea 4cbc
00000010: dc51 84bc e1d4 34bb c628 3b3a b177 e8bd
00000020: ccb9 283d 702e ab3a c8b0 df38 aa9f 92be
00000030: 2d9b 0a3b 4994 90be dd7d 21b8 cb43 40bd
00000040: 71d5 6a3a 7003 513d 2284 123a 1e2b a73a
00000050: 2494 7739 8265 b33d 853d 98bd a44f ee3c
00000060: 9166 b1ba 6f35 b339 f195 68be c4b8 0a3c
00000070: f632 cebd 4097 3b3d a041 ff3e 7625 b2ba
00000080: 7f21 8e3b fb2a afbe d945 99be e3ba 54be
00000090: 3fc8 a1bc 5b2e 233e 15c3 7e3c a0f7 9bbe
000000a0: 4990 1a3d 31a4 c73b e597 dc3e ab96 853e
000000b0: 2620 0bbd c5e3 e13e 8e1f 7fba 7b10 22bf
000000c0: ad9a 293d 86f0 d13c c235 393b 213d 66be
000000d0: bae4 e53c 4fdb 99bd 1841 ee3d 3b67 613d
000000e0: 9250 d4bc 0b73 133e 68f7 723d b42e efbd
000000f0: 18aa d2be e2e2 bf3a a7fa 113e a5c6 22bd
00000100: 0767 123d d5ab b23e ffaa 90ba 8a6b 9dbd
00000110: b2ea 033a 90a5 eb3e dc43 cd3d c2e0 9fbe
00000120: f8ac 90be f508 93be e095 48ba 9d53 ddbc
00000130: 056b 1bbc 390c 32be 7bf2 583a 306a 7d3d
00000140: 1ac1 493e 91cb 41be 1f9f 39be d636 49be
00000150: a587 3fbd eb5e 023c 2d38 2ebe b4b3 27bc
00000160: 9662 a1bc e39d 7b3e 9b4d dc3d 4225 2a3c
00000170: 7980 acbe 9f04 07be 4035 bebd 041b 60be
00000180: dc0f 3f3c 752b 80be f428 48be e1d1 6ebe
00000190: 3b1f 9d3c 7378 86bd a7ca 1ebc 2318 8a3e
000001a0: 1242 05bc fe13 0d3e c7aa ccba fd31 003f
000001b0: 42e5 853b 4e1e 2fbe 6a2e 88bb 5534 34bd
000001c0: 070e b33e 8718 4f3e e091 6b3a 32ae 54bd
000001d0: 6982 e6be 47ec b2bc 67b8 a9be 2fa8 b0be
000001e0: e482 0cbd 3a48 073b 9c15 fb3e 0da9 573e
000001f0: 2700 ca3e fe7e 2fbc 713e 18bc ac4e 84be
00000200: dbbe 713c 97fa 463e 4c07 423e 9ae2 38be
00000210: b0c3 2f3f 07c4 01ba fec4 09bd 2910 14bd
00000220: 28bf 39bd f74a b13e ed30 5fb9 afd7 3abf
00000230: aa27 893e 9f7f dd3d 57c2 5e3e 6a20 01be
00000240: 3248 e0bc 0dc1 3d3d 98cd 203d b7d8 dbbd
00000250: baed aebd f2c7 efbe 86df 9e3e b8fa c73b
00000260: 0f48 f0be b6fe 1cbf 89dc 81be b7f8 9cbe
00000270: a0ed a8bc d346 383e 0bf6 d23e a570 1bbf
00000280: 3046 21bc 905a ae3e adc8 b03e a0bb b03e
00000290: c4ee a6bb dabb 073f 6eda 97ba e8d7 51be
000002a0: cc3f 503d de79 d7bd 2b4d 10bb e007 16bf
000002b0: b41d 803e 3c2b 853e 9aaf f13d f1a3 313e
000002c0: eb2f a83e 51e8 c1bd ec53 b93e c51a 00bf
000002d0: 41d1 d13d d2c9 91bc 1c3a 4f3e 5aa9 1bbe
000002e0: 7a14 9e3e 8a03 8dbe 3ffb 163c d59a 2abf
000002f0: 3fab 883c 552b 9bbd e353 f23d 54a2 5b3d
00000300: c943 babd b9ac 7bbd 8b2e c73c b484 073f
00000310: 00bd 003d 56c4 6cbd e0b2 e2bb 52dc e5bb
00000320: ed32 163e f160 34be d90d 95be f43a 133f
00000330: 2eb8 e13b 38d1 af3c 9672 833c 06d4 3b3e
00000340: e6d5 92be 60e6 82bd b77d 0cbe baa5 32bb
00000350: 72b1 3a3e 934b 9bbe a5ec a53e 40a0 60be
00000360: d048 d738 4f84 7dbd 0839 c13e 3e40 5fbd
00000370: c84a 613d b0c1 67be 7c90 7c3e bd84 7cbe
00000380: a3e9 6abc 2070 50be b85f f23c 88a2 a93d
00000390: cc43 003a 5865 eebe a074 833d d6af abbd
000003a0: f37b da3d 24fc 58bd 1269 053d 9e4e b739
000003b0: b467 4dbe b171 dc3a a4ad 6e3b bfd9 633c
000003c0: 9821 9abd 8ccd bf3c db6a 1f3e b31a bbbd
000003d0: 75b6 613e 3ce4 a5bc 78ff ae3a fcd6 e63d
000003e0: 797a df3b b1a4 a23e ba09 d43d ccfb 623e
000003f0: 3764 6b3e 8c39 18be 57a3 dcbb 8aed debd
-0.23620683 0.00018300283 -0.0030358736 -0.012507037 -0.016152315 -0.0027592706 0.00071395596 -0.11350954
0.041192815 0.0013060104 0.00010666397 -0.2863744 0.002114962 -0.28238133 -3.850261e-05 -0.046939652
0.0008958197 0.05102867 0.00055891473 0.0012753939 0.00023610942 0.087595955 -0.07433609 0.02909071
-0.0013534595 0.00034181352 -0.22713448 0.008466903 -0.10068314 0.04579854 0.49854755 -0.0013591486
0.004337489 -0.3421248 -0.29936102 -0.20774417 -0.019748805 0.15935652 0.015549441 -0.3046236
0.037735257 0.006092571 0.43084636 0.26091513 -0.033966206 0.44119087 -0.000973218 -0.633064
0.041407276 0.025627386 0.0028260802 -0.22484256 0.028063167 -0.07512533 0.116335094 0.05503009
-0.025917325 0.14399354 0.059317976 -0.1167883 -0.41145396 0.001463976 0.14255773 -0.039740223
0.035742786 0.34896722 -0.0011037289 -0.07686527 0.0005032226 0.46024752 0.10022709 -0.31226164
-0.28256965 -0.2871777 -0.00076517276 -0.027017409 -0.009485965 -0.17387475 0.00082758785 0.061868846
0.19702569 -0.1892531 -0.18127106 -0.19649825 -0.04676022 0.0079572005 -0.17013617 -0.010235716
-0.01970033 0.24571948 0.107569896 0.0103848595 -0.33691767 -0.13185357 -0.092875004 -0.21885306
0.011661496 -0.25033155 -0.19546872 -0.2332225 0.01917993 -0.065659426 -0.009691871 0.2697154
-0.008133428 0.13777158 -0.001561486 0.50076276 0.0040861676 -0.17101404 -0.0041559236 -0.04399522
0.3497164 0.202242 0.00089862756 -0.051923938 -0.4502137 -0.021841181 -0.331485 -0.34503314
-0.034304515 0.0020642416 0.49039924 0.21060582 0.3945324 -0.01071143 -0.009292231 -0.25841272
0.014754976 0.1943153 0.18948096 -0.18055192 0.6865797 -0.000495017 -0.033635132 -0.036148224
-0.045348316 0.34627506 -0.00021285164 -0.7298536 0.26788074 0.108153574 0.21753822 -0.12610021
-0.027378175 0.046326686 0.03925857 -0.107346945 -0.085414365 -0.46832234 0.3102991 0.006102886
-0.46929976 -0.6132616 -0.25363567 -0.30658504 -0.02062112 0.17995767 0.4120334 -0.60718757
-0.009843394 0.3405347 0.34528103 0.34518147 -0.005094381 0.53021014 -0.0011585483 -0.20492518
0.05084209 -0.10521291 -0.0022018652 -0.58605766 0.25022662 0.26009548 0.118010715 0.17347695
0.32849059 -0.09468139 0.3619684 -0.5004085 0.1024499 -0.01779643 0.2023701 -0.15201321
0.30874997 -0.27541763 0.009215175 -0.66642505 0.016683219 -0.07576624 0.11832406 0.053621605
-0.0909496 -0.061444018 0.024314186 0.52936864 0.031430244 -0.057804428 -0.006918296 -0.0070147896
0.14667864 -0.17615105 -0.29112127 0.5751183 0.006888411 0.021462068 0.01604585 0.183426
-0.28678817 -0.06391597 -0.13719831 -0.0027259425 0.18231753 -0.30331096 0.32407108 -0.2193613
0.00010265561 -0.061893757 0.37738824 -0.054504625 0.055002958 -0.2263248 0.24664491 -0.2466001
-0.01433793 -0.20355272 0.029586658 0.082829535 0.0004892915 -0.46561694 0.06418729 -0.083831474
0.10668173 -0.052974835 0.032570906 0.00034963054 -0.20059091 0.0016818551 0.0036419416 0.013906895
-0.07525939 0.023413442 0.15568106 -0.09135952 0.22042258 -0.020250432 0.0013351282 0.11271474
0.00682002 0.31766275 0.10353418 0.22166365 0.22987448 -0.14865702 -0.006733339 -0.10885151

neg_net.linears.2.bias f4 [30]
00000000: d0cd bebd 6641 0dbe 3da8 3f3d 96c9 d13d
00000010: 206c 873e 3e31 993e c9f1 413e d7c4 e9bd
00000020: 7f71 d73e 17fc 593e 37ed 8bbd f902 bd3d
00000030: 232f 513e 16cb ed3e ed24 4abe 6c39 c0be
00000040: 0a59 4ebd 980b 2a39 05e6 343e 2539 bdbe
00000050: 2f9d 673e 8599 093f ed92 773e 3800 213e
00000060: 523f 523d afee a73e 5fb6 6f3e 3968 2d3e
00000070: c8a1 02be 0049 a63e
-0.09316599 -0.13794479 0.046791304 0.102435276 0.2644968 0.2992038 0.1893989 -0.11414497
0.42078778 0.21287571 -0.068323545 0.092290826 0.20428137 0.46444005 -0.19740649 -0.3754381
-0.050377883 0.00016216782 0.1766587 -0.3695766 0.22618555 0.5374988 0.24177141 0.1572274
0.05132992 0.3279929 0.23409413 0.16934289 -0.12757027 0.3247757
