data/MTMR_28002/sim/random/MLSE4POL/bias_0.001/train/N1000/D6_SinCosInput/6/result/model/ReLU_Dual_UDirection_BP.pt (torch_old, 22776 bytes, 20 tensors)

input_mean f4 [12]
00000000: c436 dd3b 4bf5 8a3e 7f5e 5b3a 9ad1 5f3e
00000010: b755 6b3e 5a62 863c 86ac 6b3f 96cd 6a3f
00000020: b598 713f 61bd 183e b33c 893e 2514 6c3f
0.0067509133 0.2714027 0.0008368268 0.218573 0.22981916 0.01640432 0.92060125 0.9171995
0.9437364 0.14915992 0.26804122 0.9221824

input_std f4 [12]
00000000: 058e c43e f166 8e3e 415a a73e 13cb 253f
00000010: d666 2b3f ca8e c23e 07d7 913d 5010 b43d
00000020: 91c4 4d3d 6aeb 363f 7e4b 273f 8392 8f3d
0.38389602 0.27812913 0.32686046 0.6476299 0.6695379 0.37999564 0.07121091 0.08792174
0.05023629 0.71452963 0.65349567 0.07010367

output_mean f4 [6]
00000000: cc72 de3c cdac f23e a532 4a3e 6962 1ebc
00000010: b0c1 93ba 16e0 343b
0.027154349 0.47397462 0.19745882 -0.0096670175 -0.0011272933 0.0027599386

output_std f4 [6]
00000000: c533 183d 0605 243e 6d8d 153e 12cd db3d
00000010: 140c 073d 3825 953c
0.037158746 0.16017541 0.14604731 0.107324734 0.032970503 0.018206224

pos_net.linears.0.weight f4 [30, 12]
00000000: c5d2 483e 0ed0 cabd 12ff 643d 981d 3ebf
00000010: 484d c4be 9b11 863d 1c4e 943d 47ad 9b3d
00000020: a489 a13c 3e26 dfbe 7241 ed3d dfbe 403e
00000030: b8a1 6cbe c379 873d b9dc b6be 57c3 0e3f
00000040: bb1c 343f be85 4f3c 65da f43b f69c 833b
00000050: bb53 513d b712 2dbe 2494 65bd 0650 47bd
00000060: 0557 c13b 2d5c c93a cb50 c1be b93f e2be
00000070: acf7 a23e e6a4 a63e 28f8 1a3e 4645 533e
00000080: 4667 cdbc 32ef 9fbe 0984 923e f8b9 ed3d
00000090: 7074 03be 33d7 bb3e f41f 223f 2a73 eb3e
000000a0: d660 13bf 2e9b 41be 7964 3abd 824c 22be
000000b0: 409c 40bd ecce e2bc 32b3 6dbe 9f05 843c
000000c0: 7227 bf3d c1a6 99be be2a 1c3f f582 9c3e
000000d0: 3012 72bc 64be f83c f45f 1e3d 949e 9cbb
000000e0: 295b 243d f391 76be 5c45 20bb 3c12 6d3d
000000f0: a0cf f23d 227e d93d 640f 483e 490c 06be
00000100: 2779 35bf f1dc a23e 5026 96bd 6dcc 59be
00000110: 70e5 863c 830f 573e f6cf a9be 2374 863d
00000120: def4 913d bef6 fa3d 35e6 463e d4de 0ebf
00000130: a48c c63e f40f 94be 0acf db3c 6734 65be
00000140: 4a25 2a3d 65df ff3e 5ef7 d9be 25f6 7dbb
00000150: 2951 503f 3537 953d 3e3f 803b 4865 863d
00000160: 4aeb 053e adcf 2f3d d949 d1bd c28e 883d
00000170: a50a 2abd ce23 e33d ef69 803d db38 1b3d
00000180: dd7b 69bc 5441 903e d709 ff3e fdf9 82be
00000190: f35f 1cbe a8c8 8bbb 9235 f03d 8700 68bd
000001a0: 40fc 6a3b 917d f2bd deee 39bf 171a c7bd
000001b0: 0f8c 46bf 5e91 723e b053 0dbe c9e3 19be
000001c0: bd8a a5be dd8b a53d 0676 11be b477 41bd
000001d0: 4fd2 843c 0d67 f7bd d9a3 9ebc 844e debc
000001e0: 51ac 91be ad1c fbbe b49a 2bbe 1712 d1bd
000001f0: 5cf0 863e 0f74 1e3e 8d15 3dbe 279b 153d
00000200: 08f2 5bbc a588 2f3e 20c5 ea3e d167 88bd
00000210: e595 343e d302 e7be 3012 afbe 03d9 eebd
00000220: f12c ba3e 24ee dd3e 9915 c0bd 2908 d9bd
00000230: b4b8 3cbc e299 b8be ff73 18be 8589 f93d
00000240: a9c2 cfbd d424 513e 6230 253f ac09 25be
00000250: caf8 1b3f 6dd6 ff3d ac38 b3bd cf4e 8fbe
00000260: 94e0 273d e1d0 93be 87f6 d9be 78d7 8cbd
00000270: b8f9 d5bd 6094 e53d ba5e 8e3e c826 5b3e
00000280: 0f04 463f 3880 2a3f f40b 97bc 24b5 0bbe
00000290: a31f d73c 7b06 843e 3f33 2cbe 18e7 33be
000002a0: 6873 19be 53c7 93be 8b9e b9be 19ef 14bf
000002b0: b3a0 f73d 32a7 4e3d 8e0f 09bd c506 213e
000002c0: 2a10 2dbd 27ed 0b3f e4a1 c2be 7014 b03b
000002d0: 71a6 5a3d 375b b3be 35d6 52be 7cea 533e
000002e0: 6813 ac3e d650 fcbd d8fe 89bd 64c8 9abd
000002f0: ecd6 093e 6306 e8be c063 48bf 0a76 d3bd
00000300: b747 243e bd5e 0bbe c202 72be c41e c3bd
00000310: 1dd5 13bf c7b8 30bf 08bb 593d 95ac 153d
00000320: b4d9 dd3d 6cce 71be 00bf f93d 666c 393c
00000330: be98 023d 0c3d 8fbd cf6c 953d 2afe 1c3e
00000340: 6119 af3e 25a2 ce3e 5d98 0a3e 17e6 34be
00000350: ed6d cc3d 6b8e a03e 72f4 f63e 5fb8 083d
00000360: 6e1c 0b3e 30c7 863d e1f5 36be b614 fcbd
00000370: 5bde e7be dca9 203e 964f d43a 0cd3 3ebc
00000380: 32a3 0d3c a41d 40bf a9a8 a93d df9a 2cbe
00000390: aeef 45be cea9 93bd aec0 28bd 14e0 f6be
000003a0: fa0d 133f 8613 cebe a037 c13d 378d 8a3e
000003b0: fa56 413d 992a debd 3154 563e 973b bbbc
000003c0: ef97 58bd 5fa6 a83e e586 f03e 3135 583d
000003d0: 91ae c93d b5f3 5cbe b7ba 9abb f7a7 013e
000003e0: db01 b83c 8069 2c3f 557b 74be 59b1 eb3c
000003f0: bbd2 203e a304 8f3d 8c16 703e bc59 ca3d
0.19611652 -0.099029645 0.055907317 -0.74263906 -0.3834021 0.06546327 0.07241461 0.076014094
0.019718952 -0.43583864 0.11584748 0.18822812 -0.23108566 0.06615021 -0.35715273 0.55766815
0.7035634 0.012666164 0.0074723237 0.004016514 0.051105242 -0.1690167 -0.05604948 -0.0486603
0.005900266 0.0015362554 -0.37756953 -0.44189242 0.31829584 0.32547683 0.15133727 0.20631894
-0.025073659 -0.3123718 0.2861636 0.11607736 -0.12837386 0.3668762 0.63330007 0.459863
-0.57569635 -0.18906853 -0.045505974 -0.15849498 -0.04702401 -0.027686559 -0.23212889 0.016115962
0.093336955 -0.30010036 0.6100272 0.30568662 -0.014774844 0.030364223 0.038665727 -0.004779646
0.040126 -0.24079113 -0.0024455404 0.057878718 0.118560076 0.10619761 0.19537121 -0.13090624
-0.7088799 0.3180919 -0.07331526 -0.21269388 0.016466826 0.21002011 -0.33166474 0.0656512
0.07126783 0.122540936 0.19423755 -0.5580876 0.38779175 -0.2891842 0.026832122 -0.22383271
0.041539468 0.49975124 -0.4257154 -0.003875145 0.8137384 0.072859205 0.003913789 0.065622866
0.13078037 0.042922664 -0.102191634 0.06667854 -0.041514058 0.110908136 0.06270205 0.03789602
-0.014250723 0.2817484 0.49812195 -0.2558135 -0.15270977 -0.0042658634 0.11728968 -0.056641128
0.003585592 -0.11840356 -0.7263011 -0.09721773 -0.7755746 0.23688266 -0.13801455 -0.150283
-0.3233241 0.080833174 -0.14205179 -0.0472333 0.016213564 -0.12080202 -0.019365238 -0.027137049
-0.2845178 -0.49045315 -0.16758233 -0.102085285 0.26355255 0.1547396 -0.18465252 0.036524918
-0.013424404 0.1714197 0.4585352 -0.066604264 0.17635305 -0.45119342 -0.34193563 -0.116624855
0.36362413 0.4334575 -0.093791194 -0.105972596 -0.011518646 -0.36054903 -0.14887999 0.12184433
-0.1014455 0.20424205 0.6452695 -0.16116971 0.60926497 0.1249207 -0.08751044 -0.27989814
0.04098566 -0.288703 -0.42570898 -0.06877035 -0.10448021 0.11209941 0.27806646 0.21401513
0.7734994 0.66601896 -0.018438317 -0.13643318 0.026260203 0.25786194 -0.16816424 -0.17568624
-0.1498543 -0.2886301 -0.3625377 -0.58177334 0.12091198 0.05045242 -0.0334621 0.15725239
-0.042251743 0.5465874 -0.38014138 0.00537353 0.053381387 -0.3503053 -0.20589526 0.20694917
0.33608556 -0.12320106 -0.06738061 -0.07557753 0.13460892 -0.45317373 -0.78277206 -0.103252485
0.16042982 -0.13610359 -0.23633865 -0.095273525 -0.5774706 -0.6903195 0.053156883 0.03654154
0.10832539 -0.236139 0.121946335 0.011317348 0.031883948 -0.06994066 0.07296144 0.15331331
0.3419905 0.4035808 0.13534684 -0.17665897 0.09981904 0.31358656 0.48233372 0.033378955
0.13585064 0.06580961 -0.17867233 -0.12308638 -0.4528683 0.15689796 0.0016198035 -0.011646997
0.008644866 -0.7504523 0.082841225 -0.16855954 -0.19329712 -0.07210122 -0.04119938 -0.48217833
0.574432 -0.4024927 0.09434438 0.27060863 0.047202088 -0.108479686 0.20930554 -0.022855563
-0.05287927 0.3293943 0.46977916 0.052785102 0.09847749 -0.21577342 -0.004721965 0.1266173
0.022461822 0.6734848 -0.23875172 0.02877109 0.15705387 0.06983306 0.23446101 0.09880397

pos_net.linears.0.bias f4 [30]
00000000: 5e11 cfbd 4966 ecbc a555 1abf b92f 4e3e
00000010: de74 413e a679 adbe afa3 e13e e952 4b3e
00000020: cb0f ebbe 1c03 ac3c a3d0 13be 364d adbe
00000030: 039e 17bf 0946 b5be 0551 473e eaf8 b9be
00000040: 1dc6 32bf ad96 8ebe af7b 9ebe 530b 71be
00000050: 2363 5c3d 7528 ffbe 69a7 49be 6aa5 35be
00000060: 7882 d5bd e042 72bd 35e5 44be d391 1dbf
00000070: 7a69 d7be 676f 20be
-0.101107344 -0.028857367 -0.60286933 0.20135392 0.18892238 -0.33881873 0.44070193 0.19855846
-0.45910487 0.020997576 -0.14435057 -0.3384797 -0.5922548 -0.35404995 0.194645 -0.3632272
-0.69833547 -0.27849331 -0.30953738 -0.23539476 0.05380548 -0.49835554 -0.19692768 -0.17738882
-0.104252756 -0.05914581 -0.1922806 -0.61550635 -0.4207266 -0.15667497

pos_net.linears.1.weight f4 [30, 30]
00000000: 7f5b 8e3e dfb3 36be a14c 943e 7241 b7bd
00000010: 824b aabe c2a0 483d 209e d03e af37 6a3e
00000020: 6550 67be 9b3c b43d 8b09 803c 5ebf 84be
00000030: b688 18be 4273 b53e 85b8 083e a158 acbe
00000040: b935 133e 41a1 3c3e 1c15 973e 04c9 ddbd
00000050: 7ae9 abbe 8796 36bd eae8 91be 25c8 a9be
00000060: 8526 60be ade0 64be ac08 aebe 2311 603e
00000070: 9d44 b13e abfa d3bd f094 f2ba 80e3 97bc
00000080: bb62 b23c 4b2f 98bc 6d7e b0bc e289 2abb
00000090: 9023 e9bc 4f7c f33c e7a7 013c 32ec 883b
000000a0: 9b01 943c 4328 b23b 0feb 5dbc 51cc bc3b
000000b0: 807d 16bc 9dab 373d fa10 8e3c e27e cdbb
000000c0: 53b1 833c da1a df3c 076d 05bc 90b8 9e3a
000000d0: a9eb 0c3c 8e69 f83b a16f b53c f72a 393c
000000e0: 61f2 77bb 997a 2f3b b7fc e5bb 27d7 43bc
000000f0: c700 1d3e 9549 e1bc b176 283d bba3 3e3e
00000100: dc4e 693c ae99 803d c74d 603d 10e1 b5bd
00000110: 0ced 9f3d dba3 6a3e 9759 82bd c2c4 2cbf
00000120: f54e 073f d0a1 65be 26c1 0b3e 6e61 33bf
00000130: 6931 81be b3f4 b03d 6ef5 ddbb ec85 d0bc
00000140: a224 f23c c62a 3b3f 8d66 57be db6a 8b3d
00000150: f31d 07bf e7d8 febd 2973 753e 6098 713e
00000160: f292 b0bd 7bed cabc cbda 3ebe 50c3 553d
00000170: 5edf 7ebe 0063 9b3d 831d b4bd 5de2 5a3c
00000180: 2959 65be 6935 06bd 9cef 8ebe 6e16 84be
00000190: 82cb 8b3e 61a9 013e 93e5 00bd 26e7 22be
000001a0: 3463 983e 9080 65ba b785 ec3c 7deb 453d
000001b0: 7f39 65be 8086 8d3e 709d acbe ac38 c4be
000001c0: 887c 973d 22f5 983d 17e2 8a3d e715 123f
000001d0: 9744 bd3d b071 043b 3023 193e 3fad b3be
000001e0: 28f1 913e a663 c3be e975 eabc 9ddb fcbd
000001f0: 93dc d63e 1e90 c93c 86ec 7dbe fcf1 84bd
00000200: 47c2 7e3e fcef c5bd cb25 db3d cb49 8d3e
00000210: 599a 313e 4604 db3d 037d a1bd 043e 5dbd
00000220: 9843 243e e5d1 47bd 9ce9 b1bd 51cb 12be
00000230: 6513 273e e05d 9c3b d203 a23d 0deb 4d3e
00000240: 771d d6bd a75e 323e 08c1 feba d9e7 f73c
00000250: b5df c3bc 662c 863e a7cb 0bbf 7987 723e
00000260: 2628 17bd 7140 fcbd 2d2a 323c c14b 16bd
00000270: cef6 933d c674 84bd 5f6b 35be 3414 6ebe
00000280: 587c d73e f271 92be 2e2e 31bd d4be 93be
00000290: bc62 803d 389c 37be e69d 3cbd ec2e 473e
000002a0: 4d91 febd 7b54 f03e 664a 58be 6931 60be
000002b0: fd82 adbe 35bc 65be d110 b23d b1ab 163e
000002c0: a807 b2bd 7582 82be 7e49 303b 2c75 013e
000002d0: 7364 54be 4996 3fbd 19d1 83bd b663 703d
000002e0: c189 7d3d 8b0f d6bd aeec 15be 6505 ad3d
000002f0: 6ca0 16bf d762 4f3d 7ce8 d83d 427a 223e
00000300: 4d76 d1be f858 993e 284c afbe 5f70 3dbe
00000310: 38ad 553e f1f0 83bd c772 97bd 8052 47be
00000320: 27ad cb3e 0ab5 69be 9473 1b3f a8cc 26be
00000330: 51f6 6b3e d05b 063e c1da b7be 2b32 9bbe
00000340: e095 a23e 355b ff3d bfa0 86bc c985 86bc
00000350: d765 233c a44a 29bb 0182 4bbd 6d16 a2bb
00000360: 6814 55bd 1dd0 6ebd d519 f83b 2149 25bc
00000370: c699 42bb 5c7c 44bc 6c22 d4bd c06e 2ebb
00000380: 23e2 e6bc 0023 43bd 3543 16bb e519 583c
00000390: b4a7 ebbc ab02 d6bc aa2e 2c3c 7c39 33bc
000003a0: 96bc 36ba 53c7 d2bb 5c99 723c b819 f33b
000003b0: 5a60 3cbd adea fabb b786 16ba 0171 ca3b
000003c0: c382 8cbe cfb6 973d d314 f0be 7ca5 92be
000003d0: 8bb1 d6be 86bb 3c3e 0f72 cb3e 5529 a4bd
000003e0: 65e6 b1be 8594 7b3e b0f9 71be 78e4 96be
000003f0: 519d c2bd 872b d5be 0624 423e 5175 ae3e
0.2780418 -0.17842053 0.28964713 -0.089480296 -0.33260733 0.048981436 0.4074564 0.22872804
-0.22589262 0.08800622 0.01562955 -0.25927252 -0.14895901 0.35439497 0.13351639 -0.33661368
0.14375962 0.18420888 0.29508293 -0.10829356 -0.33576566 -0.044577148 -0.28498012 -0.3316051
-0.21889694 -0.22351332 -0.3399099 0.21881537 0.3462266 -0.103505455 -0.0018507522 -0.018541098
0.021775594 -0.018577239 -0.02154466 -0.0026022126 -0.02845934 0.02972236 0.007913566 0.0041785473
0.018067172 0.0054369285 -0.013544812 0.005761661 -0.009185195 0.044841398 0.01734208 -0.006271229
0.016075766 0.027234484 -0.00814367 0.0012109447 0.008601108 0.0075809425 0.022147955 0.0113017475
-0.0037833678 0.0026775955 -0.0070186513 -0.011953152 0.15332328 -0.027500907 0.041128818 0.18617146
0.014239993 0.06279312 0.054761674 -0.08880818 0.07808885 0.22914068 -0.06364744 -0.6748773
0.52854854 -0.22425008 0.13647899 -0.7007054 -0.2523301 0.08640423 -0.0067736423 -0.025454484
0.029558484 0.7311214 -0.21035214 0.068074904 -0.52780074 -0.124437146 0.23969711 0.23593283
-0.086217776 -0.024771443 -0.1863815 0.052188218 -0.24889895 0.07587242 -0.087946914 0.013359633
-0.22397293 -0.03276578 -0.27917182 -0.25798362 0.27303702 0.12662269 -0.03146894 -0.15908489
0.29763186 -0.0008754814 0.028872354 0.048320282 -0.22385214 0.27641678 -0.33713865 -0.38324487
0.07396799 0.074686304 0.067814045 0.5706467 0.09241598 0.0020209365 0.14954829 -0.35093114
0.285043 -0.38161963 -0.028620677 -0.123465754 0.4196516 0.024604853 -0.24797258 -0.06491467
0.24878798 -0.09664914 0.10700568 0.27595362 0.17344035 0.106941745 -0.07885172 -0.05401422
0.1604141 -0.048784155 -0.086871356 -0.14335372 0.16315992 0.004771933 0.07910885 0.20109196
-0.10454839 0.1741892 -0.001943619 0.03026192 -0.023910383 0.26205748 -0.54607624 0.23684491
-0.036903523 -0.12316979 0.010874313 -0.03669334 0.07224809 -0.06467585 -0.1771674 -0.23249894
0.42087054 -0.28602558 -0.04325693 -0.28856528 0.06268832 -0.17930686 -0.04604902 0.19451493
-0.12430058 0.46939453 -0.21122131 -0.21893848 -0.33889 -0.22435077 0.08694614 0.14713933
-0.086928666 -0.25490156 0.0026899274 0.12642354 -0.20741443 -0.046774182 -0.064363666 0.05868884
0.06189895 -0.10452183 -0.14641067 0.084482946 -0.58838534 0.05063137 0.10591218 0.1586695
-0.4091057 0.2995069 -0.3423779 -0.18499897 0.20866859 -0.0644244 -0.07394939 -0.19465065
0.39780542 -0.22822967 0.60723233 -0.16289008 0.23043181 0.13120961 -0.35909083 -0.30311713
0.3175497 0.12468568 -0.016434072 -0.016421216 0.009973011 -0.0025831843 -0.04968453 -0.004946521
-0.052021414 -0.05830394 0.007571439 -0.010088236 -0.0029693707 -0.01199254 -0.10358128 -0.0026616305
-0.028184002 -0.0476408 -0.0022928242 0.0131897675 -0.02876649 -0.026124319 0.010509172 -0.010938998
-0.00069708505 -0.0064324527 0.014807072 0.0074188374 -0.045990326 -0.00765737 -0.000574212 0.006178022
-0.27443513 0.07407915 -0.46890888 -0.2864188 -0.4193233 0.1843091 0.39735457 -0.08015696
-0.3474609 0.24568374 -0.23630404 -0.29471183 -0.09502662 -0.4163477 0.18959054 0.3407388

pos_net.linears.1.bias f4 [30]
00000000: 278a e23d c138 70bd ef37 ff3d af47 b3be
00000010: 7847 27be 7d32 31be 90da 38be c4ce 7ebe
00000020: 2baf e9bc e652 21be 1dad 2b3e 3577 94bd
00000030: e08b 5c3c 2a62 35be c4c6 23be 2f68 133e
00000040: 03d9 0f3d 3dfc b0bd 27c3 2bbe d7cf 16be
00000050: 505f cfbd abcf 04be 4427 3a3e 9af2 cc3d
00000060: 565a 9ebd 1a9f d53d 2f7e 61be f0dc 4d3c
00000070: 80d1 a23c 89b5 13be
0.11061507 -0.058647875 0.1246184 -0.35015628 -0.16335857 -0.17304416 -0.18052125 -0.24883562
-0.02852591 -0.1575428 0.16765256 -0.072492994 0.013461083 -0.17713228 -0.15993792 0.14395212
0.035119068 -0.08641861 -0.16773663 -0.14727722 -0.10125601 -0.12969844 0.18179041 0.1000721
-0.07732074 0.10430737 -0.22020791 0.012564883 0.019875288 -0.14424719

pos_net.linears.2.weight f4 [30, 30]
00000000: 0b25 92bd 718a a53a 7f9d 263c e0dc 0ebc
00000010: 12a7 05ba dfd4 bdba 19ef 34bb 4240 62bc
00000020: 9e09 b13c a54e e23a b8cc 2c3c f21e b83a
00000030: f7c8 cebb 4aa0 36ba 2d04 ce3a da44 edb9
00000040: 09b8 c63b ea23 c1bd f668 1bbc f947 6b3b
00000050: b060 00bc 8651 6fbd fbd6 b2bd 4887 4dbd
00000060: fdbc f739 8568 abbd 19cf 023c bd93 e7bd
00000070: 794c 8b3b 3ee3 60bd fb30 353e 6c6c c43c
00000080: ce51 533e a3cb f53d b473 7f3e cbde a83d
00000090: 0473 f83e 366b 79bd b06f 8cbe c3f9 b63e
000000a0: 1e36 70bd 425b be3b b6c1 923d 979c 6bbd
000000b0: 872e 753c caee 85bd a5bc 73bd bb1a 253d
000000c0: 2cfb c8bb f76d 153c 5965 d9bb 7597 cdbc
000000d0: c1aa 793e 7808 fa3e f050 873c 78cf bdbe
000000e0: 4d9d 01bd 8b67 95be 7d36 12be 3ea1 99bc
000000f0: 6bdb a93c f851 14bb f8d6 51bc 2cb6 53bd
00000100: 5058 f0ba 2aa5 8439 82ec 8bbc b405 b1bb
00000110: 980a 133c a520 2d3c de1e 9e39 ca5c a3ba
00000120: 04a5 b3bd c01e 39ba 33e0 b23a 4577 e1bc
00000130: bc05 3bbb 089c 923b 2b09 553a 3c62 0439
00000140: ea5b 81bb 4731 8d3c 9c63 0ebd 58e9 d5bd
00000150: 4cd9 883c e0b3 e8bc 880b dc3a 5366 3fbc
00000160: 02a6 36be 7679 ad39 7751 8c3c d6bd 4fba
00000170: ab73 483c f039 00bd a2f7 033a a432 8e3c
00000180: 5313 823d 8081 d6b7 ff1a c43c 2479 553c
00000190: 19c4 343c eac6 93ba 3266 9bbc 8332 2fba
000001a0: 8cc2 02ba 9639 a7b9 0562 153c 828e d43c
000001b0: 9865 3e39 14c5 9bb9 294c 5b3c 00b6 c3bc
000001c0: 85e6 9cbd 6e0d b6bb ca65 713c 5829 04be
000001d0: c456 adb9 de6b 363d c79f 0cbd 9a2a 9e3a
000001e0: 3427 c1b9 fadb 893a 5058 1eb8 4f07 c0ba
000001f0: 4eca c43a 3884 3b3b 9d2d 91bb cc39 3abc
00000200: 9383 cbba 1ebf bb3a 02d7 c2bd 2c97 223c
00000210: dde7 dc3b 60fc 153a 78a2 39ba be97 6b3a
00000220: 0cbc 00be c88e dfbc 6c51 3dbb 8a0b 43bd
00000230: 5239 21bd 9403 1f38 05f3 443c cd77 6dbd
00000240: b8c6 d5bc ebc3 1c3a 5327 c3bd e43d dbbd
00000250: aa19 a63a 4042 77ba 130a 2fbe 30cf 69bb
00000260: 3614 dbbe 7fe1 63be d468 8e3d 78f9 04bf
00000270: a18b 153f 3b4b b8bb 1148 bcbd fc53 603c
00000280: 9d79 e03e 508f 8339 63ec a23e e03b 8a3d
00000290: 6e60 5b3d 5115 c7bc c593 0dbe cd85 4c3d
000002a0: 9fd6 9c3c 3246 053d cff0 6c3e d167 eabe
000002b0: 6315 7f3e 5e16 9a3e 32e1 e63e 5a21 fe3b
000002c0: fd41 05bc 7350 d33e f3c9 143e 3512 de3c
000002d0: 0873 dcbc 1893 493b ed3f 863e 7bbd 01bd
000002e0: d837 713d 5345 013e b527 273e 2cd0 003d
000002f0: 4105 6a3c 173c 1abe 3bd5 c3be d0b2 6939
00000300: 1be4 95be 6f8c 063e c449 f6bc bb79 9e3d
00000310: a309 d2be ccb7 c1bc 7199 9d3d d216 28be
00000320: 339d 54be 779b 043e 6745 cc3e 60be 76be
00000330: b87f 93be 9323 b93d ebc3 18be 56d0 50bd
00000340: 9f64 3e3e 3b4a 533c 102c 6d3e 4c39 3f3b
00000350: 2d01 263e 9f60 0b3e 5525 b23d d2ea 573d
00000360: 78a7 95be ef44 1c3e 4a55 6f3b a78d 833e
00000370: 2873 a0bd 190a cb3b fe00 18be c2b3 5a3d
00000380: 8488 b33d 051d 1bbd 5832 8e3d 868e 393e
00000390: 08c2 c73b 737a 39ba aab5 27be 08f8 e23d
000003a0: 641e 9f3e 0eca d6be d2d7 943e 4cbe 06bf
000003b0: 5960 99bb 3b07 153b 6043 993d 64a2 0cbe
000003c0: c89d 1d3d 1b30 e63b 744d d539 8540 99bd
000003d0: f275 be3d 4dd7 96be c406 e33c be68 243e
000003e0: f17a 063f 3e28 07bc 2fb3 0fbe cf5c 17bc
000003f0: 4acb 13be 6f16 2f3d 3dfb 233b 0a96 a03d
-0.07135972 0.001262976 0.010169386 -0.008719653 -0.0005098443 -0.0014482996 -0.0027608334 -0.013809266
0.021611031 0.001726587 0.010546856 0.0014047308 -0.006310578 -0.0006966634 0.0015717797 -0.0004525546
0.006064419 -0.09430678 -0.009485474 0.0035901053 -0.007835552 -0.058427356 -0.087324105 -0.050177842
0.00047252318 -0.08369545 0.007983946 -0.11307476 0.0042510596 -0.054904215 0.17694466 0.02397748
0.20636675 0.12001731 0.24946481 0.082456194 0.4852525 -0.06089326 -0.2742896 0.35737428
-0.05864536 0.0058092186 0.07165854 -0.057522383 0.014964706 -0.06539686 -0.059506077 0.040308695
-0.0061334576 0.009120456 -0.006634396 -0.025096634 0.24381544 0.48834586 0.016518086 -0.3707235
-0.031644154 -0.2918056 -0.14278598 -0.018753644 0.02073451 -0.0022631865 -0.0128076 -0.051687405
-0.0018336866 0.0002530006 -0.01708055 -0.005402291 0.008974694 0.010566865 0.00030159106 -0.0012463566
-0.087717086 -0.0007061772 0.0013647139 -0.027522692 -0.0028537354 0.004474167 0.00081266713 0.00012625096
-0.0039477246 0.017235411 -0.034762964 -0.104448974 0.016705178 -0.028406084 0.0016788105 -0.011682111
-0.17836764 0.00033087627 0.01712869 -0.0007924711 0.012234609 -0.031305254 0.00050341536 0.017358132
0.06351342 -2.5571091e-05 0.023938654 0.01302937 0.011033081 -0.0011274491 -0.018969629 -0.0006683247
-0.0004988096 -0.00031895627 0.009117608 0.02594686 0.00018157659 -0.00029710738 0.013384857 -0.023890495
-0.076611556 -0.0055558 0.014733741 -0.12906396 -0.00033061777 0.044536464 -0.034332063 0.001206714
-0.00036841037 0.0010517829 -3.7752383e-05 -0.0014650616 0.0015013905 0.0028612744 -0.0044304864 -0.011366319
-0.0015526883 0.0014323925 -0.09513666 0.0099237375 0.0067415074 0.0005721506 -0.00070813997 0.000898715
-0.12571734 -0.027289763 -0.0028887643 -0.047618426 -0.039361306 3.7911886e-05 0.012020831 -0.05797558
-0.026095733 0.0005980122 -0.09528985 -0.10705164 0.0012672443 -0.0009432174 -0.17093687 -0.0035676472
-0.42788857 -0.22253989 0.06953588 -0.5194316 0.5841618 -0.0056242025 -0.09193433 0.013691898
0.43842784 0.00025093043 0.31820974 0.067497015 0.05355876 -0.024302157 -0.13825901 0.04993229
0.019145308 0.032537647 0.23138736 -0.4578233 0.24910502 0.3009519 0.45093685 0.0077554407
-0.008133409 0.41272315 0.14530163 0.027108291 -0.02691032 0.003075784 0.26220647 -0.031674843
0.058891147 0.12624101 0.16323741 0.03144853 0.014283479 -0.15061985 -0.3824862 0.00022287224
-0.29275593 0.13139509 -0.030064471 0.07738062 -0.41022977 -0.023647211 0.07695282 -0.16414955
-0.20763092 0.1294993 0.398967 -0.2409606 -0.2880838 0.09039988 -0.14918487 -0.050979935
0.18593071 0.012896116 0.2316134 0.0029178439 0.16211386 0.13611077 0.08698527 0.052714176
-0.2922933 0.15260671 0.0036519342 0.2569401 -0.07834464 0.006196272 -0.14844128 0.053394087
0.08766273 -0.037869472 0.06943196 0.18120775 0.0060961284 -0.00070754363 -0.16377893 0.110824645
0.31077874 -0.4195103 0.29070908 -0.5263412 -0.004680675 0.0022739905 0.07483554 -0.13733822
0.03848055 0.0070247776 0.00040684233 -0.07483009 0.0929984 -0.29461136 0.027713187 0.16055581
0.52531344 -0.008249341 -0.14033197 -0.009238436 -0.14433017 0.042746004 0.0025021576 0.07841118

pos_net.linears.2.bias f4 [30]
00000000: c8ec 0ebe ee0d 42be b37f a9bd e545 86bd
00000010: ee0b 2ebe 60cf a23e 636f 1e3e 1c88 a83e
00000020: 9e96 11be 8385 f53e 7a11 43be 98e7 bf3d
00000030: 269d 473e 70f4 83be 86c1 30be e44c 90bd
00000040: ba87 193e b82b 3abe dc7e a8bd 508b 3d3e
00000050: 8093 2b3e a6a6 fd3d 39ef 8a3e 3374 c5bd
00000060: b28f bdbd d309 1abd 8f38 a93d cb4f 9d3e
00000070: 7fb3 933e 1111 4f3d
-0.13957512 -0.18950626 -0.0827631 -0.065563 -0.16996738 0.3179884 0.15472178 0.32916343
-0.14217612 0.47953424 -0.19049636 0.09370345 0.19493541 -0.2577243 -0.17261323 -0.07045916
0.14993182 -0.1818074 -0.082273215 0.18510175 0.16755486 0.12385301 0.27135637 -0.09641304
-0.09255923 -0.037607025 0.08262741 0.3072494 0.28847882 0.050553385

pos_net.output_layer.weight f4 [6, 30]
00000000: 698e 583d 08c6 8c3d c24f 0fbd 43d6 90bd
00000010: d852 2fbd e8a1 623e 2a71 383d f175 733d
00000020: 7235 f0bd d033 ebbe 3fe0 043e b073 2a3e
00000030: 29b2 1abc 2f29 c33d 4466 8539 939f 87bc
00000040: ede5 ffbd 6e68 c0bc 84e4 bdbc cadb 0e3e
00000050: caeb 86bd ebfc 62be 3185 cfbe f21c 0ebc
00000060: 6a60 93bc 79ed b7bd f393 09be 6e8c b63d
00000070: 4dc7 8d3e 00ec ae3e b05a 6bbc b774 9cbd
00000080: b254 fa3d 01f0 50bd 198a 1abe 4384 88bd
00000090: 4ab6 773e fd99 cb3e 04a6 863d e2d2 60be
000000a0: fa14 9ebe 46b4 073d 1a94 213e 4906 3bbe
000000b0: 2808 2abb 87cf 463d fad7 0abe 347e e3bc
000000c0: 6ffb 223c 0e1a e73e 61f6 b33e 4322 77be
000000d0: a075 1d3e c11f 2e3c 2861 9e3d a6ca 883d
000000e0: 5f21 333e 67a1 9ebe 14eb c1bd f74c 10be
000000f0: 92a8 893d 6f5e bb3c 58db 003c 0d1d 8bbc
00000100: a990 1bbd 67a2 02bd e65b da3e 0984 fd3e
00000110: 0c40 8a3e d8da 5b3e 8b3f 18be f459 b8bd
00000120: d845 26be 8b17 22be aa40 c339 c528 793d
00000130: 1ee2 ccbd aed8 b9be d86c cabd ec30 babc
00000140: cc86 67bc 937d 7dbe dfc4 ebbd 1e6e 1f3c
00000150: 8279 bbbc 7a87 123e d464 6d3e 6f82 13be
00000160: 55dd 8dbe b4cf 9f3e f740 9d3d 29a1 2dbe
00000170: 18b7 0abd 2120 363d a8ca 3e39 0867 233e
00000180: 5d96 eabe ba66 35bd 2ebd 05bd a386 933e
00000190: 269a 13bf 00a8 783e 22ba 2f3e 9a95 01be
000001a0: 6d6d 1bbb 70b4 f4bd faf9 5c3e 60a9 783e
000001b0: 9da7 863c 692a 423e 9300 d5bd 5283 a9be
000001c0: 1ddc d2be ba91 eb3b 4e62 9c3c 1c3f fd3e
000001d0: 8a79 4cbe d0df 433e 863d 103e f0a6 d3bd
000001e0: 4f1c d9bd c3cb c7be a9e4 533d dec4 6fbc
000001f0: 6c9e 49bd 5bb3 013f 7e09 403c d6f7 0b3c
00000200: 8620 d23e c29b 20bb 4266 4e3d c16e a03e
00000210: 29bf f83d 9d1f e7be 7f00 07bb 50b9 1dbe
00000220: a229 27bf 7ab7 df3e f2f9 673b 1e47 82bc
00000230: 5827 90be 4437 d13d 80d3 ae3e 9902 09bb
00000240: 88ed 2c3e bb4c 503d 6bd9 163e 1dab 373e
00000250: 18fa dfbe 5756 1f3d 8c9b 493d 98cd 953e
00000260: f7e6 22bd 7b63 2abd 139c fe3b 44a6 2c3f
00000270: d5c2 023c 49f2 413e 26d8 a03d 0608 e03c
00000280: e340 9bbd 08c5 2c3b 0c51 f5be 9808 a6bd
00000290: 7bc7 9aba ad3b 6a3d 42eb 683c fc6e 17be
000002a0: 1f1e 98ba 2bc8 d3be 4395 a83e 9e37 a83e
000002b0: 2af0 3dbe 5887 9939 1171 1d3d 6501 103e
000002c0: 62af 8fbe ad7a 30bf 0e37 153e a53c 57be
0.052870188 0.06873709 -0.034988172 -0.07072117 -0.042803615 0.22132075 0.045029797 0.05943865
-0.11728944 -0.45937967 0.12976168 0.16645694 -0.009441891 0.095293395 0.0002544393 -0.016555583
-0.12495027 -0.023487296 -0.023180254 0.1395103 -0.06587942 -0.22166793 -0.40531304 -0.008673893
-0.01799031 -0.08980841 -0.13435344 0.089135036 0.27691117 0.3416443 -0.014364883 -0.07639449
0.122231856 -0.051010136 -0.15091743 -0.06665852 0.24190632 0.3976592 0.06574634 -0.21955445
-0.3087538 0.033130907 0.15779153 -0.18264116 -0.0025944803 0.048537757 -0.13558951 -0.02777014
0.009947642 0.45137066 0.3514891 -0.24134164 0.15376902 0.010627688 0.07733375 0.06679277
0.17493199 -0.30982515 -0.09468666 -0.1409186 0.06721605 0.022872178 0.007864796 -0.016981626
-0.037979756 -0.03189316 0.42648238 0.49514797 0.2700199 0.21470201 -0.1486799 -0.09001532
-0.16237581 -0.15829293 0.00037241477 0.060829896 -0.10004066 -0.36298126 -0.098840415 -0.022728406
-0.014131259 -0.24754934 -0.115121596 0.009730844 -0.022885088 0.14309493 0.23182994 -0.14405225
-0.27707925 0.31213152 0.07678407 -0.16956009 -0.033866018 0.044464234 0.00018195307 0.15957272
-0.45817843 -0.04428742 -0.03265112 0.28813657 -0.57657087 0.24282837 0.17160848 -0.12654725
-0.0023716346 -0.11948478 0.21579733 0.24283361 0.016437346 0.1896149 -0.104005 -0.33108002
-0.41183558 0.007189003 0.019089844 0.4946221 -0.19968238 0.19128346 0.1408597 -0.10334575
-0.106011026 -0.39022645 0.05173174 -0.014634339 -0.04922335 0.506643 0.011721013 0.008542975
0.41040438 -0.0024506901 0.05039049 0.313345 0.12145836 -0.45141307 -0.002059966 -0.15402722
-0.652979 0.4369467 0.0035396782 -0.015903052 -0.28155017 0.10215619 0.34145737 -0.002090609
0.16887486 0.050854426 0.14731376 0.17936368 -0.43745494 0.0389007 0.049220607 0.29258418
-0.039771046 -0.04159878 0.0077700703 0.674412 0.007981022 0.1894008 0.07853727 0.027347576
-0.075807355 0.0026362557 -0.47913396 -0.08107108 -0.0011808717 0.057185818 0.014216246 -0.14788431
-0.0011605656 -0.41363654 0.32926378 0.32854933 -0.18548647 0.00029283273 0.038437907 0.14063032
-0.28063494 -0.6893719 0.14571783 -0.21019228

pos_net.output_layer.bias f4 [6]
00000000: 327c 613e 3ca1 ac3e 1b36 1b3d 35d6 0b3f
00000010: c89e 173e e7e9 503c
0.22020033 0.33716762 0.037893396 0.5462373 0.14806664 0.012751079

neg_net.linears.0.weight f4 [30, 12]
00000000: 10ff ee3c 8fca 413e ed4b 813e fadb 103f
00000010: d7ee d93e 42f1 1a3f 1828 b8bd 045f 90bd
00000020: 82fe 8fbc 6844 e33b 12d5 bb3e 2ed9 6e3d
00000030: cc15 fdbd 7b6c 42bf bac0 1bbf d30e 183f
00000040: b2dc ef3e 61aa 34be 7708 e2bc 679f 15bc
00000050: 677b e2bc 1b7c 93be 419f 313f e924 103e
00000060: 529d 9e3d 88cf 53be 8594 87bd fdc8 ae3d
00000070: 8ed7 393f dd89 073f 927a e33d 001e 8cbb
00000080: 96f6 1b3e 0e67 1dbf 79bf 063d b58c d0bd
00000090: bf23 6c3e 767d cb3e 01b5 243f 730d e13e
000000a0: f596 c33e fdb2 8fbd c33e acbd c0d0 08be
000000b0: af76 683d dad3 263f 4d0d 6f3f 9cc6 2c3c
000000c0: 3614 ca3d 9182 023f 6b91 2e3f 5180 91be
000000d0: fe1f d23e 26b7 be3c 119e 19bd 1964 84bd
000000e0: 0e49 76bb 04b3 1dbf 1a9e cebe 06ad 043d
000000f0: 6266 22be ea9a d33e 5585 8f3e 8328 273f
00000100: 45b6 a9be b607 f9be 2bc9 28bc d986 343e
00000110: 7c65 4c3d b36c 9cbe 46d4 4ebc 917c a43d
00000120: 0a3a b53e 13a4 913e c04a dc3e 963d dc3e
00000130: ec3a 8dbd 57f8 d8bc 0cf4 283e 985e a8bd
00000140: e9a7 2e3e bf39 1fbc 71cd f0be 2bc2 afbc
00000150: e457 fabe 941d a43d 9517 af3e 7e74 e23e
00000160: 37df 56be 3804 333a 3358 06bd 1644 46bd
00000170: dc41 94bd 4fba cb3d dd3f f2be 29f2 113d
00000180: cf85 fabd 1cfa dd3e 1891 71bd fafb 0dbf
00000190: 9490 a43e 972f a6bd 5f0a e13d 9706 1f3e
000001a0: 99ea b93d f982 e73e 394c 09be ba68 46bd
000001b0: 2e92 023d 2f00 d23e d8c2 f23e 6c17 1a3e
000001c0: f5fb 04be 31da 5d3d 9cd3 bf3a 7984 fa3c
000001d0: 8c4b 923d 8506 64bf efaa 013f e5af e03d
000001e0: ed47 c2bd a094 c43e bf6c 063f e88d 0bbf
000001f0: 8724 aabe 662e 613e 7372 82bb f027 34be
00000200: a22b f9bc 7b55 313e 046d 943e 33ff ec3c
00000210: d425 033f 7fea 323d eee6 183d 9669 41bf
00000220: 1044 d1bd 7141 f33c e96c 41be d4c7 2ebe
00000230: 363d 86bd 1249 edbe 7af3 083d df54 a4bd
00000240: 68c4 5f3e 65c8 8abe ac07 873e 40d4 003f
00000250: d941 c1be a9e1 643d 341c 1bbe e45a 14be
00000260: 4271 06bd 17b9 b3be 0a5d 9abe 4560 013d
00000270: 8721 2d3e ebb8 49bf 2d50 873e 3ec7 8b3e
00000280: befc cebd c0b2 1d3e f32e 053d b575 8cbe
00000290: a7aa 20be 9948 733d 2ee5 8dbe f4fc aabc
000002a0: b9eb 16bf ddb0 a1bd 7369 1cbe 53fa 063e
000002b0: fb67 10bf a58d 1a3f 1062 64be 5683 7c3e
000002c0: 78d1 483d 4f35 1abe cc15 563d 6858 c6bc
000002d0: 6126 113f 8dc6 263e 352c b73d 9e87 0c3f
000002e0: 929c 413e 8ef1 43be 8dab 71be ba8f 873d
000002f0: 128d 2ebd 6cfe 9dbe 98e8 c2bd f208 6c3c
00000300: 5dc2 2bbe 68cc de3e 27ec 10bf 1bee b43e
00000310: a0fe 25be 0676 883e 131d f23d 604a 94be
00000320: d49e 7e3d 0b61 ecbd db49 4c3e 4405 d1bb
00000330: c6ab 27bf 1e3f e8bc 1be5 2cbe 30eb 173f
00000340: f3da 863e 1561 66be f4c9 123e 897a 733d
00000350: 7886 323e 9b0b 873c 6e60 fcbd e251 0c3d
00000360: 143d 1bbf 84f8 553e 49ce 613e 1d2b 9bbd
00000370: 7dee 6cbd e4cd 033e aa64 8ebe 7aaa 043c
00000380: ccbe 9c3d e54a 213e a817 143e e14c d0bc
00000390: 6f94 213e 6262 bc3c 4945 9dbe 64c4 993c
000003a0: 7fc3 ac3e ce03 00bf d890 9b3e 40a5 843e
000003b0: 2c84 df3c 3cc5 28be 4c20 8abe da94 b6bc
000003c0: 4dc8 95bd f0ea 233c 61a4 533e 622b a2bd
000003d0: 7662 503f 3348 19bf f9fb d7bd 6bad 513d
000003e0: 1576 bf3c c8cf 88bc 2e6e 7c3d 6cc7 37be
000003f0: 00be d1bd 5b8d 8f3d e166 9f3e d23a ab3e
0.029174358 0.18924926 0.2525324 0.5658566 0.42565033 0.6052438 -0.08992022 -0.07049373
-0.017577413 0.006935645 0.36685997 0.058312587 -0.12357673 -0.7594678 -0.6084095 0.5939762
0.46848065 -0.1764312 -0.027591927 -0.009132243 -0.027646733 -0.28805622 0.6938363 0.1407658
0.0774485 -0.20684636 -0.06620125 0.08534429 0.72594535 0.5294474 0.11107363 -0.004276037
0.15230784 -0.61485374 0.032897446 -0.10183088 0.23060511 0.39744157 0.6433869 0.43955573
0.3820111 -0.07016561 -0.08410408 -0.13360882 0.05675381 0.6516701 0.9337967 0.010545399
0.09867136 0.5098048 0.6819064 -0.2841821 0.41040033 0.023280691 -0.03750426 -0.064644046
-0.0037580165 -0.6160128 -0.40354997 0.03239157 -0.15859368 0.41329128 0.28031412 0.6529619
-0.33146873 -0.48638695 -0.010301868 0.17629565 0.04990147 -0.3055168 -0.012623852 0.08031572
0.35395843 0.2844549 0.4302578 0.43015736 -0.06896004 -0.026485605 0.16499346 -0.08221167
0.1705624 -0.009718358 -0.4703174 -0.021454891 -0.4889518 0.08013454 0.3419768 0.442295
-0.20983587 0.0006828937 -0.032798957 -0.048404776 -0.07239124 0.09947645 -0.4731435 0.035631333
-0.12232553 0.4335488 -0.058976263 -0.5546261 0.32141554 -0.08114546 0.10988306 0.15529858
0.09077949 0.45217112 -0.13407983 -0.04843972 0.03187769 0.41015765 0.4741428 0.15047997
-0.12986739 0.05416316 0.0014635208 0.030580746 0.07143316 -0.8907245 0.5065145 0.10971049
-0.09486375 0.38394642 0.52509683 -0.54513407 -0.33230993 0.21990356 -0.0039809286 -0.1759336
-0.030416314 0.17317764 0.28989422 0.028930282 0.51229596 0.043680664 0.037329607 -0.75551736
-0.1021806 0.02969429 -0.18889202 -0.17068416 -0.06554644 -0.4634481 0.033435322 -0.080240004
0.21852267 -0.27106014 0.2637304 0.5032387 -0.3774555 0.05587927 -0.15147477 -0.14487797
-0.032822855 -0.3510215 -0.30149108 0.03158595 0.16907321 -0.7879779 0.26428357 0.27300447
-0.101068005 0.15400219 0.032515477 -0.27433553 -0.15690099 0.059395406 -0.27713913 -0.02087257
-0.58953434 -0.07895062 -0.152746 0.13181429 -0.5640866 0.6037238 -0.22303033 0.24659476
0.04902789 -0.15059398 0.05226688 -0.024212077 0.56699187 0.16286679 0.08943979 0.54894435
0.18907383 -0.19135115 -0.23600598 0.066192105 -0.042615004 -0.3085817 -0.0951702 0.01440643
-0.16773362 0.43515325 -0.5661034 0.3533791 -0.16210413 0.26652545 0.11821952 -0.28962994
0.06216319 -0.11541947 0.19950049 -0.0063788015 -0.6549648 -0.02835041 -0.16884272 0.5934324
0.2633892 -0.22497971 0.14334852 0.05944303 0.17434108 0.016485026 -0.1232308 0.034257777
-0.6064007 0.20895582 0.22051348 -0.075765826 -0.057844628 0.1287151 -0.27811176 0.008097285
0.07653579 0.15751226 0.14462149 -0.025427284 0.15779279 0.022996131 -0.30716923 0.018770404
0.33742902 -0.50005805 0.30383945 0.25907326 0.027284704 -0.16481489 -0.26977766 -0.022287775
-0.07313595 0.010004744 0.20668174 -0.07918431 0.8140024 -0.5987579 -0.10546107 0.051190775
0.023371736 -0.01670064 0.061628513 -0.17947167 -0.10241318 0.07009383 0.31133178 0.33443314

neg_net.linears.0.bias f4 [30]
00000000: fb2f 553e ccd2 823c ff35 58be 857a 5bbe
00000010: c658 d3be 6b1e a5be ec0d 3e3e f7df 2ebe
00000020: a17d 883e de9b e7be c554 a3be 0cdc 02bd
00000030: 9fda 14bf eb95 1bbe 9504 ca3d 8e6d fbbd
00000040: 667d 94be 5a1a 5b3e 69ed 633d d2e2 2dbf
00000050: 2ef7 99be 46df b4bd 3dd5 c5bd bf91 9fbe
00000060: c8d7 25bf 7fbf d33d 5ce4 6dbe 9e2e 0cbf
00000070: a45d f1be 105c 97be
0.20819084 0.015969656 -0.21114348 -0.21433456 -0.41278666 -0.3224977 0.18559998 -0.17077623
0.26658347 -0.45236105 -0.31900612 -0.031948134 -0.5814609 -0.15193908 0.09864155 -0.12276755
-0.2900192 0.21396771 0.055646334 -0.67924225 -0.30071396 -0.088316485 -0.096598126 -0.31165883
-0.6478238 0.10339259 -0.23231643 -0.5475863 -0.47141755 -0.29562426

neg_net.linears.1.weight f4 [30, 30]
00000000: 409b 3ebd 30c9 3c3b 5ad1 013b 1fbd fabc
00000010: c303 403b 59bd 1b3c 23f3 d73b 5d07 033c
00000020: ab12 bcbd 82a5 033c 017d abbd b741 ebba
00000030: e2d4 ea3b 4078 04bb 3a2a 97bb ed8c 363b
00000040: b4bb 94bb 3fe6 493b c0ca 8cbd 17b0 153c
00000050: fd9d d0ba 0bfc c9bc d176 03bd 843e 223c
00000060: 7096 0e3c 85e4 69bd 30b2 1dbd 5945 193c
00000070: c84a 963b 1a41 0e3b 9938 083e dff8 6abd
00000080: 64b0 073e 2cdf 493d a638 943e b101 df3d
00000090: 5054 603b 394d 02be 2b18 b6be 1710 ad3e
000000a0: 3a89 0a3d 2b62 c33e 986a 15bc f448 44bd
000000b0: 4c52 26bf 519a b23e adda d3be baff b3be
000000c0: 4a53 cfbd 11c8 c4be 46be f1bc 4830 d33c
000000d0: 9a32 d03d d8fe 703e 5c92 bcbd 6c1f 32be
000000e0: 1ec7 af3e d92b fdbd 791f d5bd 4528 243f
000000f0: a169 b7be bd03 b9bd 05d7 62be 4aa0 013e
00000100: 5651 e5bd dc61 153e eba1 a33d f235 ddbb
00000110: 5b82 a43e 5476 1abf 2386 b13e fc03 bc3e
00000120: 384f 9dbe ef64 e43c a4b5 833d d98f 64be
00000130: 717d 4bbe 71a7 50bd b273 9ebb dc35 a13c
00000140: 35cf 7d3d f3c8 3c3e b260 74bd 6e26 eabc
00000150: 48db e8bd 5d31 b63e 0a59 a1be 3621 23bd
00000160: 9d29 47be d9a8 0d3e cdbb ddbe 525b adbe
00000170: 1b26 49be 1cd8 87be 2906 243d 0ea3 80bd
00000180: 8757 06bd cb0b 55be a68e 57bc 4368 17be
00000190: 63da a0be 5102 a43e eccf 7bbd 1ce1 583e
000001a0: 56ee 3e3d f84d c4be 0218 b8bd 2618 04be
000001b0: 64d9 25be 5182 9bbd 4ee9 bbbd ef52 033c
000001c0: 2e74 83be 316f 6c3e 9560 213e 9e93 2cbe
000001d0: 75b6 063e 18b2 61bd e60e 8b3e 8c6d 6c3e
000001e0: 51f1 08be 1c69 adbd 5423 08be 1ac1 29be
000001f0: ceed 98bd 799e 13be 2cc8 51be 66b8 abbd
00000200: 6f3f 3dbe 6faa 8739 b76d 54be 1700 63be
00000210: ce21 bebc 5476 553c 0148 b1bd b7f2 6fbe
00000220: e911 05be f374 dcbd 2a08 96bd 708e 56bd
00000230: 72a8 33be a5d4 4cbe 04d2 36bd 3c83 37bc
00000240: d903 90bd 1a32 29be 5657 cebd e05a aa3a
00000250: fabe a03c 472b 9cbe c581 0cbe c01f d4be
00000260: b36d a7be 002c ccbe 8210 213e 3816 d83e
00000270: 72d4 293d 1964 973e 92c7 b2be c706 e23e
00000280: db20 443c fa51 86bc 0498 be3e 0cbc 8fbd
00000290: 57f9 133e 96f1 21be ad4c ab3d 6a8e 9fbe
000002a0: a007 1b3d 9b65 f83c 95ac b0be c1ee 0ebd
000002b0: bf5f 5bbe cbe6 15be cd40 22be 1aa1 c43b
000002c0: dddd aebe de6b f4be 29c7 41be 03a1 d4be
000002d0: 675a d4be 503f e43e 3bd8 693e 3089 a9be
000002e0: 78e4 be3d 63ad 753e b13e 3ebd e227 6d3d
000002f0: cdd5 bbbe 47f1 bebc 4c34 4b3e 314d ea3e
00000300: 449c bb3e 2bb9 f5be 61bb ca3d f01e 9a3d
00000310: 8043 813d bd52 64be 8d22 56be ae9d 1fbe
00000320: 85bb 64be 4c3d 83be 5d97 2c3e 1cba a0be
00000330: 5970 dbbe 99ca d1bd 846d ffbd c99a d3be
00000340: 099d 4cbd 4023 8abc 1e16 b9bd a51b 3cbd
00000350: 27c2 4bbe 2ad3 edbd 2372 07be be40 aebd
00000360: c465 3dbe a68f 97bd 5918 f1bd 897c 15be
00000370: d8fc 3fbe 39f0 5cbe 03ab d4bc 0434 b53b
00000380: 0e1e a5bd b50f 3cbe b873 9dbd 8272 f8bd
00000390: b127 34be 0895 10be e2ff 65bb f06d 6ebd
000003a0: d63c 29be afa2 82bd 59e2 12bd ec83 15be
000003b0: ff30 50be 422b 85bd cce5 b4bd 709a 1ebd
000003c0: e1cc 45bd c02d a2bd e8e8 5cbd bae5 e5bd
000003d0: bea1 08be addb 09bc 498c 57bc b0f1 9c3b
000003e0: af99 04be 5871 69bd ea92 67be 0331 e6bd
000003f0: a3a9 89bd acc0 e73b ca44 edbc da95 89bd
-0.046534777 0.002880644 0.001980862 -0.030607758 0.0029299117 0.009505593 0.0065902635 0.007997361
-0.09183248 0.008035066 -0.08373452 -0.0017948662 0.007166491 -0.0020213276 -0.004613188 0.0027854994
-0.0045389775 0.0030807403 -0.06874609 0.009136221 -0.0015916225 -0.024656316 -0.032095734 0.0099026
0.008702859 -0.0571027 -0.03850001 0.009354913 0.0045865513 0.0021706284 0.1330284 -0.05736625
0.13250881 0.0492851 0.2894947 0.108889945 0.0034229942 -0.1272477 -0.35565314 0.33801338
0.033822276 0.38160834 -0.009119652 -0.047921136 -0.64969325 0.3488336 -0.41377774 -0.3515604
-0.10123308 -0.3843389 -0.029509675 0.025779858 0.101659015 0.23534715 -0.09207603 -0.17394799
0.34331602 -0.12361879 -0.104063936 0.64123946 -0.35822776 -0.09033916 -0.22152336 0.12658802
-0.11197154 0.14588112 0.07989868 -0.0067508155 0.32130703 -0.60336804 0.3467265 0.3672179
-0.30724502 0.02788016 0.064311296 -0.22320499 -0.19872071 -0.050940935 -0.0048355693 0.019679002
0.061965186 0.18436031 -0.05966253 -0.028582778 -0.113699496 0.35584536 -0.31513244 -0.039826594
-0.19449468 0.13833942 -0.43307343 -0.33858734 -0.19643442 -0.26532066 0.040044937 -0.062811
-0.032798316 -0.2080528 -0.013156569 -0.14785866 -0.31416616 0.32033017 -0.061477587 0.21179622
0.046614014 -0.38340735 -0.08988954 -0.12899837 -0.16196209 -0.07593215 -0.09175359 0.008015378
-0.25674576 0.23089291 0.157595 -0.16853186 0.1315554 -0.055101484 0.27159804 0.23088664
-0.13373305 -0.08467314 -0.13294727 -0.16577569 -0.07467233 -0.14415921 -0.20486516 -0.083847806
-0.18481229 0.0002587619 -0.20744978 -0.22168003 -0.023209479 0.0130287 -0.08656312 -0.23432432
-0.12995113 -0.10764494 -0.07325776 -0.052381933 -0.17544726 -0.20002992 -0.04463388 -0.011200722
-0.07031984 -0.16523018 -0.10075252 0.0012997054 0.019622315 -0.30501768 -0.13721378 -0.41430473
-0.3270088 -0.3987732 0.15728953 0.42204452 0.04146237 0.29568556 -0.34917885 0.44145796
0.011970724 -0.016396511 0.37225354 -0.07018289 0.14450584 -0.15814814 0.08364234 -0.3116334
0.03784907 0.030321887 -0.3450667 -0.034895662 -0.21423243 -0.14638822 -0.15845032 0.00600065
-0.34153643 -0.47738546 -0.1892363 -0.41529092 -0.41475222 0.44579554 0.22836392 -0.33112478
0.09320921 0.23991923 -0.046446506 0.057899363 -0.36686555 -0.02330841 0.19844168 0.45762017
0.3664266 -0.47992834 0.09899021 0.07525432 0.06311703 -0.22297187 -0.20911618 -0.15587494
-0.22337158 -0.25632703 0.16854616 -0.3139199 -0.42859152 -0.102437206 -0.1247206 -0.4132903
-0.049954448 -0.016862512 -0.09037422 -0.0459248 -0.19898282 -0.11612542 -0.13227133 -0.08508442
-0.18495852 -0.07400446 -0.11772222 -0.14598288 -0.18748796 -0.21576013 -0.025960451 0.0055298824
-0.08062373 -0.18365367 -0.07688087 -0.12131216 -0.17593266 -0.14119351 -0.0035095145 -0.058210313
-0.16527113 -0.06378686 -0.035860393 -0.14601105 -0.2033119 -0.065023914 -0.08832893 -0.0387215
-0.04829109 -0.07918882 -0.053933054 -0.112254575 -0.1334295 -0.008414191 -0.013156005 0.0047895536
-0.1294925 -0.05699286 -0.22614637 -0.11239817 -0.06721809 0.007072529 -0.028963465 -0.06718035

neg_net.linears.1.bias f4 [30]
00000000: 05fb eabd ccf9 6a3d 9f91 bf3d f7f2 74be
00000010: 1c4a 96be 1c5a 36be ef1c dabd 22bc 06be
00000020: ae02 36be 0c19 37be 393c 2bbe 4f91 513e
00000030: 0ea9 e7bd 0bef 8ebe d925 90bc f137 53be
00000040: e215 873e aa96 1bbd 8c41 3ebe 356e 643e
00000050: c8e4 9ebe d80c 2f3e e5a8 00be e2fe 02bd
00000060: 5cf0 d13e 3fa7 23be de34 75be af22 3bbd
00000070: 85cc d4ba fc4c d93d
-0.114736594 0.05736713 0.09353947 -0.23920809 -0.29353416 -0.17807811 -0.1065005 -0.13157704
-0.1777446 -0.17880648 -0.16722192 0.20465587 -0.113115415 -0.2791675 -0.017596172 -0.20626809
0.26383883 -0.03798548 -0.18579692 0.22307666 -0.3103392 0.17094743 -0.12564428 -0.031981356
0.41003692 -0.15981768 -0.23945948 -0.045687374 -0.0016235268 0.10610387

neg_net.linears.2.weight f4 [30, 30]
00000000: 17c8 84be 6f6e 5dbe 0e1a e5bd 7945 19be
00000010: 7fce 3e3d 6149 7b3d 7b27 063e 76ec aebd
00000020: 32b7 8dbd c82f d6bb b795 00be 68b9 eb3d
00000030: a76e cbbd 8c0c c03c 4e77 cbbd ee7c 023c
00000040: 3ef4 7f3d 720f 60bd 0735 32bd 3fb4 113e
00000050: 189d cdbb 2d53 5bbe 0099 8938 2e04 21be
00000060: d4b7 f8bd 72f2 3cbe ca5d 9d3c e37f 89bd
00000070: b4a1 943d 209d 2fbe 9991 19ba 822d 053b
00000080: c77a 00bb 2b47 af3b a2a4 85bb a423 b03b
00000090: 882e c538 69d2 313c 2913 c2ba cbdc ae3b
000000a0: 2f8e 96bb 71ac 1c3c 5af8 8cbb 62fa 3bba
000000b0: 82df 303c 7ab3 a53a 3bfb 14bb 84e1 e9ba
000000c0: 1094 663a d0fe 39b9 4e23 673a 6578 fe3b
000000d0: 1205 ac3a ff95 89bc 7d95 60ba 252f 3339
000000e0: 9180 5c3b cebf f1b9 ba03 55ba 970e ccbb
000000f0: a6f0 d0ba 2d3c 083e 5680 143f 9bbd 6dbd
00000100: 4db5 e4bd f47e ddbe 14d9 babc 70da 963b
00000110: 06a9 f0ba 8e4a 9ab9 5cc2 923a 44d0 a8be
00000120: 307d b2bc 10b5 4c3c d204 3cba 1ddc 13bd
00000130: 74db f8bd 38ae 3839 fcb6 203a ab8f 0cbf
00000140: 0ad5 f43c dc61 073d 7db2 853d de68 df3e
00000150: 0aaa ca3e 9c74 393a 78f3 973d e040 c83e
00000160: 6593 783e c485 61be 8c9d 8635 2eab 8bbb
00000170: 2c55 1e3c b7c7 e23b ca8a acb9 1cbc eeb9
00000180: 3b89 98b9 963b af3a cf9b 9b3a 9ef3 493a
00000190: aaf5 71ba 9731 23be ddb9 95ba 64a1 f7b9
000001a0: 9496 173a 480c 64b9 204b 5ebd 6669 dcb8
000001b0: 7818 4eb9 1414 b73c b4a9 7abb 2caf bbbc
000001c0: 4e9a 853a 203f 3cbb 2eb6 3dbb d804 26ba
000001d0: 6c59 8eba 1002 933b fce6 43bc 80d2 7ab8
000001e0: f6ef 1a3b 55dd bf3d db2a 6c3e 1f94 873e
000001f0: 32af a2bc b078 513e c475 243e 5c82 cdbd
00000200: f00e 3abd f796 99bb 4dd9 58bb 09a6 88bd
00000210: 866c bd3a c3f7 92bb ae64 0fbe b2e8 943d
00000220: 2e8e d0be da1a 21bb 3888 deb9 00ad febd
00000230: 12e3 e6bb 5708 e4bc de3a 733b b2a1 21be
00000240: 28a2 16bf dbd3 8b3b de24 babd 396c 303e
00000250: 0f59 ca3b e7fe d9bd 1a83 81be 706d 9fbe
00000260: 25ad 1b3d def7 59bd d8ea 11bb a136 5a3e
00000270: 3212 5f3d fd45 07be 1456 f6bd 7624 9e3b
00000280: c8b7 dfbd b3bf 1a3e d1ba 45bc d94e f6bd
00000290: 087f 72be 418a c9bd ba20 d7bb e322 fdbc
000002a0: c2b4 9bbc c624 a13e 9542 103d 90b6 353d
000002b0: 550c 373b dcd7 09be 7d22 b7be 8bec f3bd
000002c0: 8191 22be d2fe b33d 4477 3fbe d98a 8cbe
000002d0: 34e9 55ba 56b3 39be 3123 d33e d6e0 043d
000002e0: 8d3f 43be a0e8 a1be 8648 dc3e 5846 c03b
000002f0: 943e 283b edea cb3c 2df4 c33b 11cd f73c
00000300: 001e 35ba 6fa0 0a3e ebc9 283e 8c2d bbbd
00000310: c32c d83e 46b3 d3bb 0ace 4ebb bec6 ca3d
00000320: 297a 36be c3c5 9c3e fcea b03d dddf 973e
00000330: c38e 793d b29d 593b e0e0 12be 4b58 333e
00000340: ba41 d73d 7b51 debd 26d6 0cbe 7f78 86be
00000350: a7e4 aabe cf60 26be 6369 3f3e 1620 6a3e
00000360: f275 2dbd d926 21be 44cc e2bd 88c4 773c
00000370: f2e1 3dbe a3a6 22be 7e26 46bd 0acf 32bd
00000380: 8b4f acbb df15 e43d d611 5f3d f5bb 33bd
00000390: 5ffe 4abd ac7f c3bd a8be 983a 755e 67be
000003a0: 69b3 813c 36a1 473d 4c0d c83e 9ba9 09be
000003b0: bafc 30be a1b5 fc3d c572 d0bd 35ab 33be
000003c0: 843e 1dbd f2fc 143f 0fe2 713d f87b b7be
000003d0: 3a26 9f3e 5d3f 87be ca9b e7bd 5846 36be
000003e0: 7396 03be c8bc ac3c b306 c8bd 7ff3 2f3b
000003f0: 12e6 1d3c 2a7e 5ebd 67b2 75be 5cdb a63e
-0.25933906 -0.21624158 -0.1118661 -0.14967908 0.04658365 0.061349276 0.13100998 -0.08541195
-0.06919707 -0.0065364577 -0.12557112 0.11509973 -0.09933215 0.023443483 -0.09934865 0.007964356
0.062488787 -0.05470223 -0.043507602 0.14228915 -0.0062748305 -0.21418448 6.5611675e-05 -0.1572425
-0.121444374 -0.1845186 0.019209761 -0.067138456 0.07257405 -0.17149782 -0.00058581826 0.0020321314
-0.001960443 0.00534906 -0.0040784637 0.0053753424 9.402359e-05 0.010853388 -0.0014806736 0.005336379
-0.0045945863 0.009562598 -0.0043020668 -0.0007170794 0.010795476 0.0012641989 -0.0022732753 -0.0017843698
0.0008795867 -0.000177379 0.00088172115 0.007765817 0.001312407 -0.016795157 -0.00085671974 0.00017088333
0.0033645967 -0.00046110008 -0.00081258605 -0.006227325 -0.001594086 0.13304205 0.58008325 -0.05804215
-0.11167393 -0.4326092 -0.022808589 0.0046036765 -0.001836092 -0.00029428717 0.001119684 -0.32971394
-0.02178821 0.012494341 -0.0007172349 -0.03609859 -0.12151232 0.00017612509 0.00061307824 -0.5490672
0.029886741 0.03305231 0.065281846 0.43634695 0.39582855 0.0007074566 0.07419485 0.39111996
0.24274977 -0.22023684 1.002963e-06 -0.0042623496 0.009663861 0.0069207805 -0.00032909802 -0.0004553505
-0.00029093944 0.0013369198 0.0011871996 0.00077038433 -0.0009230027 -0.15936886 -0.001142319 -0.00047231757
0.0005782631 -0.0002174835 -0.054270864 -0.000105100495 -0.00019654806 0.022348441 -0.0038248124 -0.022910677
0.0010193081 -0.002872415 -0.00289477 -0.0006333119 -0.001086039 0.00448633 -0.011956926 -5.9800688e-05
0.0023641563 0.093683876 0.23063223 0.26480195 -0.01985893 0.20456195 0.16060549 -0.1003463
-0.0454244 -0.004687186 -0.0033088506 -0.06672294 0.0014451898 -0.004485102 -0.1400325 0.072709456
-0.40733474 -0.0024582655 -0.0004244463 -0.12435341 -0.007046112 -0.027836008 0.0037113945 -0.15784338
-0.5884118 0.0042671985 -0.09089063 0.17228784 0.0061751674 -0.10644322 -0.25295335 -0.31138182
0.03800692 -0.0532149 -0.0022265222 0.21309902 0.05446071 -0.13210292 -0.12028137 0.004826124
-0.10923725 0.1511219 -0.012068466 -0.12026758 -0.23681271 -0.09840823 -0.0065651806 -0.030900424
-0.01900709 0.31473368 0.035219748 0.04436356 0.0027930934 -0.1346125 -0.357685 -0.11910351
-0.15875818 0.087888375 -0.1869784 -0.27449682 -0.0008160055 -0.18134817 0.41237786 0.032440983
-0.19067211 -0.3162279 0.4302408 0.0058677606 0.0025672065 0.024892295 0.0059800358 0.03024915
-0.00069090724 0.13537763 0.16483276 -0.09139547 0.4222165 -0.00646058 -0.0031555914 0.09901188
-0.17820038 0.3061963 0.0863857 0.29662982 0.060927164 0.0033205566 -0.14343596 0.1751415
0.10510583 -0.10855385 -0.13753566 -0.26263806 -0.33377573 -0.16247867 0.18692546 0.22863802
-0.04234881 -0.15737475 -0.11074117 0.01512254 -0.18543223 -0.1588388 -0.048376553 -0.04365448
-0.0052585057 0.11136984 0.05446037 -0.04388042 -0.049558993 -0.09545836 0.00116535 -0.22594626
0.01583262 0.048737727 0.39072645 -0.13443606 -0.17283908 0.123393305 -0.101781406 -0.17545779
-0.038389698 0.58198464 0.059053477 -0.35836768 0.31083852 -0.2641553 -0.11309011 -0.17800272
-0.1285036 0.021086112 -0.09766903 0.0026848016 0.009637373 -0.05431954 -0.23993836 0.32589233

neg_net.linears.2.bias f4 [30]
00000000: f9ab 213d bf5e b7bd 732f ef3d b71f 9bbc
00000010: 8619 123f 5ce0 073f b1e3 b83d cafe e63d
00000020: e162 383f ba74 973e cc0c fc3e a7db c1be
00000030: a2d2 e13c b9ac 5fbe 2354 2f3e aa00 393e
00000040: cfd9 89be 6d33 75be c3c1 103e de1d 00be
00000050: b252 8cbe 3d6d 92bd abd7 67be 4c78 ac3d
00000060: 37e8 063e 4f2e 113e dfc5 75be 91d4 df3d
00000070: 1913 79be ef6b cbbd
0.039470647 -0.08953618 0.11678972 -0.018936021 0.57070196 0.5307672 0.09027804 0.11279066
0.7202588 0.29581243 0.49228513 -0.37862894 0.027566258 -0.21843232 0.1712194 0.1806666
-0.26923987 -0.23945399 0.14136414 -0.12511393 -0.27406842 -0.07149742 -0.22640865 0.08421382
0.1317452 0.14177822 -0.24001263 0.10929216 -0.24323691 -0.09932696
