data/MTMR_28002/real/uniform/N4/D6_SinCosInput/dual/result/model/ReLU_Dual_UDirection.pt (torch_old, 22856 bytes, 20 tensors)

input_mean f4 [12]
00000000: 0df0 09bb d89c 803e 8782 1abb eda5 393e
00000010: caf2 403e 15f3 71ba 805a 6d3f 9cb7 6b3f
00000020: acf2 713f 73b6 033e b8a2 403e 3427 6a3f
-0.0021047622 0.25119662 -0.0023576336 0.18129702 0.18842617 -0.00092296425 0.9271622 0.9207704
0.9451091 0.12862568 0.18812072 0.9146607

input_std f4 [12]
00000000: b6f1 bc3e 8736 923e a94f a53e e438 293f
00000010: 5a62 2e3f ea8a cb3e e86e 843d 2cb9 b13d
00000020: d773 4d3d 7f78 373f dc95 2e3f 3dd9 953d
0.3690316 0.28557226 0.32287338 0.66102433 0.6811882 0.3975442 0.06466466 0.08677897
0.0501593 0.7166824 0.6819742 0.073168255

output_mean f4 [6]
00000000: 93ec ac3c 99d0 f13e c21c 563e 47cd c2bb
00000010: afab d6ba 8ade f23a
0.021108901 0.4722946 0.20909408 -0.005944881 -0.001637807 0.0018529457

output_std f4 [6]
00000000: 8e35 0d3d 1c14 233e d8eb 133e 4fff cc3d
00000010: bce4 f53c a654 953c
0.0344749 0.1592564 0.14445436 0.10009634 0.030016296 0.01822884

pos_net.linears.0.weight f4 [30, 12]
00000000: 8234 943c e5bd 473f 59a7 7d3f 62ed efbe
00000010: f0d3 673f 0ad5 c53b 8a27 fcbc 3c9b 77bd
00000020: 57c2 63bd f28f 1cbf 9130 12bf e5ec 83bc
00000030: dc22 573d 9f0b c13e 8631 163f ddd5 413e
00000040: 2e58 35be e8f9 b33e f3fc f5bd 6149 46be
00000050: 2b61 afbd 8bb9 07bf 4469 343f 466c 69bd
00000060: 217c be3b 8382 093e 69ea cf3d 2b56 b23d
00000070: d0e0 3f3f b08b 56be 3cdf ad3d 482e 033e
00000080: a05b 9f3e a5c7 f93e 8c35 9d3d 97cf 1c3e
00000090: 1bd2 783d 1799 b83e dabe 1b3f 8d08 de3e
000000a0: f5c1 47bf 7357 13bf 52f6 493d 6cff 0ebd
000000b0: 6288 6abc 597e 223f 50c6 143e 1ff0 a73d
000000c0: 7cb5 5bbc 3c13 cb3e 202a d63e 43b7 88bf
000000d0: 6f80 d1be 24f0 52bd a88a 10ba c06e 0d3c
000000e0: 1fdf 4ebc 48a1 87bf ce18 3a3d b0e8 f13b
000000f0: 7657 773d ff1a dabd e1ff 3ebe 44ea aa3d
00000100: 0a26 22bf 5a94 d03d f42d 8f3c 0a60 04bd
00000110: e6ab a8bc 8990 8e3f 4db5 a3bf 5d2d 6abc
00000120: 9d3b bc3f 161f b33d 432b b5bd 9822 85bc
00000130: 775a 1bbd 121b 2b3d 9967 f53d 119f 193d
00000140: bf63 df3c c427 82bc 6809 f43a 40df 263a
00000150: cf19 45bf e9e9 f9bd ede9 f03d 03ed 063c
00000160: 3ad2 7f3b a052 efb9 38ba c2bd 0992 2ebd
00000170: f44f f93c b227 d33c 5e5b 88bc 1ebd 243c
00000180: 47ff 173b ae22 e1b9 0a7c 6739 6e5c 73b7
00000190: 7718 84b9 b4f7 c839 22cf 853a 2080 6f3a
000001a0: 899f 183a a034 9a3a 1f1a 9038 bca2 4739
000001b0: c80d 5bbd fdd8 3c3f 5052 563f cb12 303e
000001c0: a864 58bf 44c7 143e 3c34 1ebd ab5a 3abe
000001d0: 586d 95bd bb44 0ebe 63c2 5fbf 82e3 2fbd
000001e0: 4894 093d 376b ab3e 100d f13e 34c5 dbbe
000001f0: 518a 1c3f 3750 0ebf a272 2cbd 7c41 10be
00000200: ee8c 7dbc 2d86 2dbf 0271 523f ad58 74bc
00000210: 1e67 3abd b3c3 a8be 124a dfbe 1b3a 753e
00000220: bfa8 9abf 2ff0 2b3f 6c18 973b 37b7 5a3d
00000230: bf9b a7bc 9f6a 0bbf 5ed6 4f3e 9cb1 c93d
00000240: 5292 ccbb 5d84 a53e 2427 173f 7923 8e3f
00000250: a9b5 ce3e 52d7 fabb 0857 0ebc 8589 7dbd
00000260: c285 863d 8f57 6ebf 92b5 f2bd 760b 4b3d
00000270: 886b db3a 2638 903e 712b fa3d 0320 0e3e
00000280: 3214 8abd 1f1c febe 8e7f 023d 7f35 80bd
00000290: 7401 f8bd 28e8 47be 9a02 c23e 2fd1 263e
000002a0: 70c5 563d 539f 563e 612f f63d 8789 0d3f
000002b0: a5d8 9bbe 306b b5be eec0 d43b 6492 c53b
000002c0: 40e6 1e3e a52a a6bd 0691 6cbe a368 4a3e
000002d0: 1e64 863c c8ba 06bf 457d 43bf 3ff0 a4bf
000002e0: 255b fb3e c4fa 8cbd 65c0 18bd fa60 f53d
000002f0: a07b 52bd c57d 623f 2d46 87be 21c1 42bc
00000300: 4181 29ba 8cbe 5bbf 81ba 5fbf a6a9 0a3f
00000310: 74e3 acbe d287 d9bd cd6f 9cbd e4e8 82bd
00000320: 31f4 51bd f383 943f b4c9 e33e 073e 2e3d
00000330: a538 06bd 9ca0 dbbe 2848 11bf 03fc 0b3f
00000340: 655d 773f a25e 56bf 03c2 55bd 2a71 1d3e
00000350: e165 183d 102a a6be ef6e 8abe dfd6 63bc
00000360: dc4c debe ca78 22bd 5e46 c2bd a9f0 13be
00000370: c0e8 9c3d 7cbb 2cbd 4765 d7be 5e4a 8dbd
00000380: 0e26 debc d2a2 5e3d b66c 723d b874 6f3c
00000390: c260 2c3c 35c1 7ebf 64b9 d03e d2c9 833d
000003a0: c03f 46bb 1434 003d bb15 5f3c e6b6 adbe
000003b0: d4a9 8fbd 48a8 92bc 26f2 52bc 8280 9d3d
000003c0: edd5 993d 14ff 233e 2e76 4d3e aae6 2fbe
000003d0: cc40 88be 7a3c d13e f245 5dbb 760c ecbd
000003e0: d4a1 363d 44ed 543e 40f9 dcbe d4d8 dd3d
000003f0: 500f 60bc e617 ce3e 19ca 033f e496 323f
0.018091444 0.7802413 0.9908348 -0.46860796 0.90557766 0.006037359 -0.030780572 -0.060450777
-0.05560526 -0.61157143 -0.57105356 -0.016104171 0.05252348 0.3770418 0.58669317 0.18929239
-0.17709419 0.351516 -0.12011137 -0.1936393 -0.08563455 -0.5301749 0.7047312 -0.056988023
0.005813137 0.13428693 0.10152132 0.087078415 0.7495241 -0.20951724 0.08489844 0.12810624
0.31124592 0.4878513 0.07676229 0.15313564 0.060747247 0.36054298 0.6083809 0.433659
-0.7803033 -0.5755531 0.049307175 -0.034911558 -0.014314743 0.6347404 0.14528775 0.08200096
-0.013409968 0.39663112 0.41829014 -1.0680927 -0.409183 -0.051498547 -0.00055138255 0.008632362
-0.012626438 -1.0596094 0.04543381 0.007382475 0.060386144 -0.1064968 -0.18652298 0.08345464
-0.63339293 0.10184546 0.017477967 -0.032318152 -0.02058978 1.1137859 -1.2789704 -0.014293042
1.4705693 0.087461635 -0.08846142 -0.016251847 -0.03792807 0.041773863 0.1198265 0.037505213
0.027269242 -0.015888102 0.0018618526 0.00063656643 -0.76992506 -0.12202818 0.11763368 0.008235219
0.0039035217 -0.00045647193 -0.09508175 -0.04261974 0.030433632 0.025775764 -0.01664513 0.010054855
0.0023192929 -0.00042941183 0.00022076085 -1.4505449e-05 -0.0002519523 0.00038331526 0.0010208825 0.00091362186
0.00058221124 0.0011764951 6.8713205e-05 0.00019038742 -0.05347994 0.737686 0.8371935 0.17194669
-0.8452859 0.14529139 -0.038624033 -0.1819865 -0.07296246 -0.13893406 -0.87405986 -0.042941578
0.033588678 0.33480236 0.47080278 -0.42923892 0.61148554 -0.5559115 -0.04210151 -0.1408748
-0.015475495 -0.6778286 0.82203686 -0.01491372 -0.045508496 -0.32961807 -0.436112 0.23947947
-1.2082747 0.67163366 0.0046110656 0.053397384 -0.020460008 -0.54459566 0.20296618 0.098483294
-0.0062430287 0.32327548 0.590441 1.1104575 0.4037297 -0.0076550627 -0.008687742 -0.061898727
0.06568481 -0.93102354 -0.11851038 0.049571477 0.0016740421 0.28167838 0.12215317 0.13879399
-0.06742133 -0.4963083 0.031859927 -0.062602036 -0.12109652 -0.19522154 0.3789261 0.16290735
0.052434385 0.20959215 0.120207556 0.55287975 -0.30438724 -0.3543334 0.0064927256 0.006029414
0.15517521 -0.081136025 -0.23102197 0.19766478 0.016405161 -0.52628756 -0.7636302 -1.2885817
0.49092975 -0.06883767 -0.037292857 0.119813874 -0.05138743 0.8847316 -0.26420727 -0.011886866
-0.0006466099 -0.85837626 -0.8739396 0.5416511 -0.33767283 -0.10621609 -0.07638512 -0.063920766
-0.05125827 1.1602768 0.44489825 0.042539623 -0.032768864 -0.42895973 -0.56750727 0.54681414
0.96626884 -0.8373815 -0.052186977 0.153752 0.037206534 -0.32453966 -0.2703776 -0.01390621
-0.43418014 -0.039665975 -0.09486078 -0.14447273 0.07661581 -0.042170987 -0.42069456 -0.0689895
-0.027117755 0.054354496 0.059185706 0.01461523 0.010521116 -0.9951356 0.40766442 0.064349785
-0.00302504 0.031299666 0.013616021 -0.33928603 -0.07014814 -0.017902508 -0.0128751155 0.076905265
0.07511506 0.16015273 0.20064613 -0.17177835 -0.26611936 0.40866452 -0.0033763614 -0.11525814
0.044587925 0.20793635 -0.43158913 0.10832372 -0.013675526 0.40252608 0.5148025 0.6976149

pos_net.linears.0.bias f4 [30]
00000000: b87c bcbf 60cc 65bf 8e7f f3be d5bb 5a3d
00000010: bcc5 a13d d3ae 2abf 3091 6b3e eadc 50be
00000020: e9e6 d9bc c78b 03bf b9ee 63be 392c 2bbf
00000030: 8d6c 07bf 1fde 2ebf 0d00 38bf cc2a 04be
00000040: ee0c dcbe 8e30 05bf 38e5 29bf b079 7d3f
00000050: ec41 50bf bd4c 9abf 2fda abbf 1c84 0cb8
00000060: 1e04 93bf 1c0b 903e df3a 75be d39e 9fbf
00000070: d7a3 c5be 4d41 9cbe
-1.4725561 -0.89764977 -0.47558254 0.053401787 0.07899043 -0.6667301 0.23004603 -0.20396772
-0.026599364 -0.5138516 -0.22259034 -0.66864353 -0.5290001 -0.6830768 -0.7187508 -0.1290695
-0.42978615 -0.52027214 -0.66365385 0.99013805 -0.8135059 -1.2054669 -1.3425959 -3.3501638e-05
-1.1485631 0.28133476 -0.23948239 -1.2470344 -0.38601562 -0.3051857

pos_net.linears.1.weight f4 [30, 30]
00000000: 328c 9bbe df51 bb3e 3536 d3bd be77 c23e
00000010: 94c5 2b3f 398c d6be ecae 7fbb 4265 b0bc
00000020: 44e3 3536 469a 443f 57ca 4bbe 6796 b1be
00000030: 2a49 9ebe 1c6e 003e a6bb 33be 3e46 fdbe
00000040: 5469 58be 2fa8 e83d d2e4 25bd 1169 a1be
00000050: 3bf0 703d 616e c7be f4db 38bd 1ff3 04a3
00000060: e4d3 c8be dd3d a13d 0a27 1bbe b426 a73e
00000070: b26e 2fbd 6950 9cbe 85b2 a515 ee03 6d11
00000080: 7387 1e17 7209 eda2 c67a 979e f013 d525
00000090: 5ff8 e0a2 e8c9 b88f 1c4d ba94 1495 f1a3
000000a0: 28b7 d911 02ff 1c8f 861b 720f 15ac 8d0f
000000b0: b450 c712 8bb4 c7b3 aff1 8f8e 1dcf 111a
000000c0: bc8d 800f 04d9 3291 aff2 580e 07f8 a893
000000d0: 0a45 be8f 08dc 6293 d953 458f c0ed 61b7
000000e0: 3e8f 8599 a05c bfae d651 7992 c829 7397
000000f0: e624 611b b910 38b0 4a03 e01a 7ad4 24b9
00000100: d567 f20f 6e17 1192 11ac 110f 3f8c 681a
00000110: 6902 bd16 550a 18b0 54a6 56ab 0736 0e17
00000120: cf7b bf24 c14e d9a2 7d30 0cb1 a5fe 161a
00000130: ac3e 5c1d ef82 8e99 3aa6 9ca3 94f9 8a20
00000140: cc03 5218 9204 051d d3aa 6a0f 0c65 cb17
00000150: e680 ef9a ac62 e2af a6a7 e1aa 0242 2c97
00000160: 1750 0c95 988e 2bb3 d95e 20b6 0ea1 82bd
00000170: 5b1c 38bd 881c b3be 4be6 9cbe fcb2 66bf
00000180: c2b9 a9bc f1d9 febd 3a07 d4b9 2371 b4b8
00000190: 2782 0b3e ff4e 71bf 69a9 20be f5f6 eabd
000001a0: a479 ad3c e4ac ad3e 5c4e 703f 59a0 2f3d
000001b0: d8cd 223c 60f1 9bbd 55f9 b2bb 3fba 3cbe
000001c0: c58e 45bd 9f6a 9719 ad4c 04bf d3bc 54be
000001d0: aa11 4ebe 2208 9dbe 40b0 b03e 9b7b d8be
000001e0: 0cb6 b512 e0ff 1693 fe16 cab0 3d79 8599
000001f0: dce5 cd1d 36d9 569b 004a 88ab 2e49 0c17
00000200: 92b6 3396 db56 8912 1909 fc21 8b2a b213
00000210: 6052 119c b682 f911 0a36 8f92 9b81 5cb5
00000220: 3035 a1a2 1662 e31a 066a b796 c669 4eb0
00000230: 539a 8911 8e3d dc92 00d8 1815 c0a4 9192
00000240: 9989 9f95 8b41 e0af 2a63 4f16 c822 4e9b
00000250: 0adf 4699 3aa2 da93 24ae 9ca0 db82 6aa1
00000260: 5cfa 3ca2 41a0 3f2b 22b1 20b7 6760 81a8
00000270: fe65 f824 476d 8024 eb8c ee1f 12b0 9eb8
00000280: cf78 cca2 af8e 1226 2536 8ba2 181e a19e
00000290: ef63 ec25 1117 00b8 62ba 6722 25e7 edac
000002a0: 1e60 dfa3 4525 f5b4 6260 28a3 0537 9521
000002b0: 0b5b 2b24 2f79 1c96 859a 72a3 b413 95b7
000002c0: a6c8 01ba 00ae 1da2 5e8b af22 f08d f3b6
000002d0: 7e37 bfae ca86 46ae 90da baaf 7074 64b0
000002e0: 4108 9fb5 d488 b82e 968f 05b2 2c1a 242e
000002f0: 9ce5 811e b259 4caf 8e08 772f 9585 dd2f
00000300: 3d7d ebae 6bfa 822d 9cf6 e82d 036c 1eb8
00000310: c191 0c30 80e7 c02d d0c9 ab2e f29b 94b9
00000320: 4bcb 61ae 908e 0dae c7b6 d82e be75 6f97
00000330: b593 812e f36c e5b9 6aea 45b6 053e 072d
00000340: 4126 202e 4fa0 79af 9760 a7bd 94cf f23a
00000350: bce4 bfbc a495 49bd 6561 33bd 4a03 05bd
00000360: 7d63 ecbd 9dca f2bb 880e fa22 e34b 65bd
00000370: c900 27bd c0ac f1bc 6638 5bbe 9641 38ba
00000380: 332e e8bc dd6b 41bb 303d 3fbd ac3c 89be
00000390: c3b4 523a a81b 1abe f282 54bb 89eb cbbd
000003a0: 7b9e 0b3c 2503 9a10 594b 83bc fae8 89bb
000003b0: 4fbd 34bd ac0e 62bb b045 ac39 7519 37bd
000003c0: 182f 43bf 683f 8dbe 064a 76be 9f81 90bc
000003d0: 10d0 2f3f faca 87be 5b5f e3bc d0c1 31bb
000003e0: bb55 833a 5643 c2be 942d d7bd ee2f 593e
000003f0: 7429 dcbe 9581 5cbd 74cd 6f3c 909c 0d3f
-0.30380398 0.365859 -0.103130735 0.3798198 0.67098355 -0.41903856 -0.0039014174 -0.021532658
2.7103388e-06 0.767979 -0.19901405 -0.3468506 -0.30915195 0.12542003 -0.17552051 -0.49467653
-0.2113393 0.113602035 -0.040501423 -0.31525472 0.05882285 -0.389514 -0.04513164 -7.207217e-18
-0.3922416 0.078731276 -0.15151611 0.32646716 -0.042830177 -0.30530098 6.6924623e-26 1.8697214e-28
5.1223514e-25 -6.424898e-18 -1.6038525e-20 3.696312e-16 -6.0978295e-18 -1.8221572e-29 -1.8811615e-26 -2.619241e-17
3.4349442e-28 -7.7405065e-30 1.1936822e-29 1.3969957e-29 1.257856e-27 -9.2995e-08 -3.5484955e-30 3.0152602e-23
1.2676369e-29 -1.4108597e-28 2.6740903e-30 -4.2653736e-27 -1.876204e-29 -2.8633694e-27 -9.728998e-30 -1.3466401e-05
-1.3809733e-23 -8.702128e-11 -7.8671417e-28 -7.857027e-25 1.8623486e-22 -6.6962574e-10 9.264954e-23 -0.00015719412
2.3903037e-29 -4.578281e-28 7.182191e-30 4.8089765e-23 3.0536118e-25 -5.531196e-10 -7.62589e-13 4.5950867e-25
8.3042786e-17 -5.890135e-18 -2.0400244e-09 3.1224973e-23 2.9149158e-21 -1.473534e-23 -1.6983954e-17 2.3543266e-19
2.714378e-24 1.7604766e-21 1.156999e-29 1.3144075e-24 -9.905633e-23 -4.117927e-10 -4.0084358e-13 -5.565951e-25
-2.8335955e-26 -3.994373e-08 -2.3897067e-06 -0.06378375 -0.044948917 -0.34982705 -0.3064445 -0.9011686
-0.020718459 -0.12443913 -0.00040441175 -8.604142e-05 0.13623868 -0.94261163 -0.15689625 -0.114728846
0.021176167 0.33920968 0.93869567 0.04287753 0.009936772 -0.07614398 -0.0054618516 -0.18430422
-0.04823186 1.5656098e-23 -0.516795 -0.20775156 -0.20123926 -0.30670267 0.34509468 -0.42281803
1.1467584e-27 -1.9058818e-27 -1.4703969e-09 -1.3800845e-23 5.4500717e-21 -1.777185e-22 -9.68392e-13 4.5328806e-25
-1.4517114e-25 8.667327e-28 1.7078592e-18 4.4975468e-27 -4.8082943e-22 3.936583e-28 -9.03789e-28 -8.214499e-07
-4.369545e-18 9.4043466e-23 -2.9632155e-25 -7.5092677e-10 2.1709898e-28 -1.3899126e-27 3.086655e-26 -9.1914005e-28
-6.443668e-26 -4.0791934e-10 1.6752617e-25 -1.7051159e-22 -1.02814025e-23 -5.5190904e-27 -2.6542665e-19 -7.945547e-19
-2.561129e-18 6.807923e-13 -9.577985e-06 -1.4363685e-14 1.0772564e-16 5.5696274e-17 1.0103005e-19 -7.566823e-05
-5.542222e-18 5.08473e-16 -3.7733353e-18 -1.7058985e-20 4.1007192e-16 -3.053906e-05 3.1405008e-18 -6.7616073e-12
-2.4218416e-17 -4.5661923e-07 -9.127708e-18 1.0111196e-18 3.715683e-17 -1.2639818e-25 -1.3151567e-17 -1.777136e-05
-0.00049508584 -2.1369582e-18 4.7581406e-18 -7.258488e-06 -8.695532e-11 -4.5139704e-11 -3.39885e-10 -8.3111384e-10
-1.1848825e-06 8.391657e-11 -7.774267e-09 3.7312528e-11 1.375337e-20 -1.8585558e-10 2.2467558e-10 4.0294582e-10
-1.07088095e-10 1.4890497e-11 2.6484863e-11 -3.777073e-05 5.113883e-10 2.193068e-11 7.812029e-11 -0.00028344948
-5.1339637e-11 -3.218631e-11 9.8550106e-11 -7.7373677e-25 5.892479e-11 -0.00043759457 -2.9491734e-06 7.687633e-12
3.6413764e-11 -2.2703371e-10 -0.0817272 0.0018524998 -0.023424499 -0.049214974 -0.043794055 -0.03247384
-0.115424134 -0.0074094073 6.777802e-18 -0.055980574 -0.040772233 -0.029501319 -0.21408233 -0.0007028816
-0.028342342 -0.0029513754 -0.046689212 -0.268041 0.00080378 -0.15049613 -0.0032426682 -0.09957034
0.008521671 6.0747135e-29 -0.01602714 -0.004208681 -0.04412585 -0.0034493608 0.00032858318 -0.044702012
-0.76243734 -0.27587438 -0.24051675 -0.017639933 0.68676853 -0.26522046 -0.02775543 -0.0027123578
0.0010020057 -0.37941998 -0.1050674 0.2120969 -0.43000376 -0.053834517 0.014636386 0.5531702

pos_net.linears.1.bias f4 [30]
00000000: 3ff8 59bf ab72 66af f7f6 4fb6 d1a9 19bf
00000010: 4015 24b0 e502 37b7 c572 1eb8 8994 81bd
00000020: 36df e13e 3107 2dbb 5261 95bc d050 0cbc
00000030: f7f5 0fbf a143 193f f66b 25be 7798 853e
00000040: f08f 85bd ba5b 1cbe e1bd fdbe 800b 1a3f
00000050: 743d 86bb eeb5 43b9 179b 21bd 00f8 e3bc
00000060: e46e 53be 82b5 0e3f 066f 88ba 1320 8ebc
00000070: 0897 23be 1347 0ebe
-0.8514442 -2.0959116e-10 -3.0989156e-06 -0.60024744 -5.969305e-10 -1.0908324e-05 -3.7777023e-05 -0.06327159
0.4411561 -0.0026401991 -0.018234883 -0.008564189 -0.5623469 0.5986882 -0.16154465 0.26092884
-0.065215945 -0.15269366 -0.4955893 0.601738 -0.0040966813 -0.00018664423 -0.039454546 -0.027828217
-0.2064777 0.5574571 -0.0010409064 -0.017349279 -0.15975583 -0.138943

pos_net.linears.2.weight f4 [30, 30]
00000000: 102d 73bb 27b2 9a21 3e4f 039e 174b a4bc
00000010: 544c 8fb7 41e6 0db2 fc0a 27bc 5622 9cbd
00000020: 3c55 abbc 9965 ccbd f583 c23e 1eed 2735
00000030: 7cfe d03c 8107 453f 9634 d53c acea 753d
00000040: d26c af3c 8492 1bbd e645 c4bc d810 9b3d
00000050: 43ef 8339 7dc0 aeb9 089b 18bc 2b64 e0be
00000060: ada0 dbbe e5f2 02bd a943 59b8 d041 a43c
00000070: 6bde 9b3d 26fa e1bc bc09 94a5 18b5 7d8b
00000080: a766 e40c f558 a124 347f ae8c c358 0c8d
00000090: 107b b789 2bda 5d0c 0493 feb3 9e2f 9f14
000000a0: 272c 78b6 44ae 910c 473b b9b2 46a5 14b7
000000b0: 6364 b1b6 a024 a9b4 4c7f 560c 74ee 24b4
000000c0: abbe 4fb7 772a a5b5 3bbe 891c 0aeb 7d8c
000000d0: 6904 bf33 6281 ab10 56e5 abae 9968 27b9
000000e0: 4b51 9d8b b247 f034 15e7 2bb6 3e39 ba25
000000f0: 3316 1c3e bc4d 9b10 d02f 8999 4114 a23e
00000100: 8143 9115 1ed1 0823 caec b8af 51db 75bd
00000110: 656a 58bf 1d47 16ac 9eb6 aa3d e0c4 0128
00000120: 3084 c63e 9a1c e53c 605f 973d a43a 3ebf
00000130: b6f3 9c36 d3eb 0a3d 03cd 7fbe e7df c8be
00000140: 682b 3aa5 d45e 4bb9 2e29 34be b3d4 ddbc
00000150: b9a3 9dbc 3da5 b13e e070 5039 e6d1 053f
00000160: 12b0 5a3d 9e55 003c 8d53 7f9a c848 c40b
00000170: 650c ca8b 460c c51b 486b 3d0c 268d a58c
00000180: 7cae 880b b81b 7c8c ce33 5f9c 116a 338d
00000190: fb0e bfb8 a8b7 5e8c 0cca b797 da3e d6ba
000001a0: 2dd7 59a6 585d 821e 079d f493 4b0e 821d
000001b0: c859 e41a f78b 259e 2821 3a8c 6c12 f98b
000001c0: 75d8 e19d 095f a50b 83a4 0e1f 86dd c6b7
000001d0: fe0b bd8b 5ca6 a025 ca60 ca9a a9cb 2a9c
000001e0: 9e82 ca2e f23a a58b 74fe 780b b0c9 fcaf
000001f0: 32e9 078c e8db 3708 546c a10b 5883 2f8d
00000200: 1980 ebb4 8f4c 498d 68c5 2db9 4b5b 3a0d
00000210: cc74 202c 6d91 61ba 10eb 1fba 737a 53bb
00000220: 78ff 2a0b 2bd5 dcaf 9d5c 02b6 a152 de2f
00000230: fe1f 3a8b 1a7b d00b 1969 c9b5 aacd b095
00000240: 5ba4 26af 3866 38bb 7170 3b1e 2fe0 4a30
00000250: 95d3 4ab9 8ab7 8d2f f9e5 17bd 9324 2fb5
00000260: bf48 6020 3346 7d3e 166a 8b36 8859 0d2b
00000270: bf8e e831 2b08 72bb a0e3 ba3e 1b14 fbb5
00000280: 8c48 0dbd 8bc6 fd37 dea6 b5bd 7abd 09be
00000290: 8feb 2b3f e777 8ebe bc66 b6bc b063 fd3b
000002a0: ffa0 e6bb 7603 0fbf ae14 6824 7d2c e338
000002b0: 3174 e1bd b8a6 35bd 9665 19bd 4052 c9be
000002c0: 4e51 5ab8 07cd bdbe 78dc 40be c2bd 83be
000002d0: 24ce 2291 b5fd 440d 1ede 280c f4f2 3f94
000002e0: 646a 060b b4ab 8b11 c254 858a 5091 660a
000002f0: 9c4a 8921 bcce f80a 6f32 e2b8 98f2 7e0b
00000300: 9c14 1312 8639 0e24 e713 11a4 30ad 8214
00000310: f018 ee89 3aa8 ec11 9c4f 25a9 e812 8bb7
00000320: 35b8 4b8c e295 870b 7432 5fad 03f7 de0c
00000330: c620 fdb7 c04d 4233 10b7 e78b 92e4 919b
00000340: 8a9b 6c91 b134 a598 4615 4c9a 05f1 0c0f
00000350: ee0c 1219 a5a5 418e bc59 218c d0a5 630c
00000360: 4c91 f68a 2270 260c ecc6 8e97 ce0d 258c
00000370: 1b36 8d11 1602 bb0c 6fea 1b12 e25b 5c24
00000380: 3d1e 9624 8c66 04a2 fb0e 8d8b 423d 12a6
00000390: d299 5f95 14bd 56b4 84d7 168b a22c 8e8c
000003a0: 1270 b9b0 86d1 028e 95a7 17b0 dae1 05b7
000003b0: c0fd 480c 809f a81e d769 89a9 d8c5 7a13
000003c0: 115f 36be 88c1 8890 80c0 e39a ec7e 5e3e
000003d0: 5540 eea4 28c7 0d2d 8a8d d1b5 a3ad 3bbd
000003e0: 068e 9f3e 3e62 e038 6d7a f13e 14b3 96b7
000003f0: 3e71 74bc 8f95 06be 30ed 02bf 2f22 a5be
-0.0037105717 1.0482602e-18 -6.951469e-21 -0.020055337 -1.7082471e-05 -8.259634e-09 -0.01019549 -0.076237366
-0.020914666 -0.09980316 0.379913 6.25574e-07 0.025511973 0.76964575 0.026026051 0.060038254
0.021414194 -0.037981525 -0.023959111 0.07571572 0.0002516453 -0.0003333128 -0.009314306 -0.43826422
-0.42896023 -0.031969924 -5.1799845e-05 0.020050913 0.07610782 -0.0275851 -2.5680504e-16 -4.8862267e-32
3.5190744e-31 6.997332e-17 -2.6885502e-31 -4.3247674e-31 -4.4171375e-33 1.7090873e-31 -1.1854539e-07 1.6073679e-26
-3.698058e-06 2.244567e-31 -2.156379e-08 -8.859968e-06 -5.2866976e-06 -3.150535e-07 1.6524267e-31 -1.5360439e-07
-1.2382555e-05 -1.2305817e-06 9.115073e-22 -1.956114e-31 8.894933e-08 6.7646953e-29 -7.816918e-11 -0.00015965327
-6.0596516e-32 4.475565e-07 -2.5615493e-06 3.2304645e-16 0.15242843 6.125649e-29 -1.418478e-23 0.31656078
5.8671536e-26 7.416857e-18 -3.3637654e-10 -0.06002361 -0.84537345 -2.1355758e-12 0.08335613 7.203629e-15
0.38772726 0.02796774 0.07391238 -0.7430823 4.677534e-06 0.033916306 -0.2498055 -0.39233324
-1.6147635e-16 -0.00019394915 -0.17593834 -0.027078962 -0.019243108 0.3469638 0.00019878475 0.52273405
0.05339057 0.007832913 -5.2800256e-23 7.560596e-32 -7.782622e-32 3.2598848e-22 1.4592314e-31 -2.5507226e-31
5.264783e-32 -1.9421715e-31 -7.3851467e-22 -5.5286306e-31 -9.11038e-05 -1.7157525e-31 -1.1877102e-24 -0.0016345636
-7.5578616e-16 1.3802891e-20 -6.17491e-27 3.4425492e-21 9.444364e-23 -8.763971e-21 -1.4338896e-31 -9.593903e-32
-5.9780815e-21 6.369868e-32 3.020575e-20 -2.3706594e-05 -7.2818196e-32 2.7868305e-16 -8.370161e-23 -5.6511506e-22
9.209099e-11 -6.364438e-32 4.7954492e-32 -4.598184e-10 -1.0470196e-31 5.532806e-34 6.217794e-32 -5.408414e-31
-4.3865364e-07 -6.203006e-31 -0.00016572105 5.7425565e-31 2.2802203e-12 -0.0008604739 -0.00061003957 -0.003226903
3.2933002e-32 -4.0169232e-10 -1.9425418e-06 4.0440276e-10 -3.5846365e-32 8.030391e-32 -1.5006254e-06 -7.1410315e-26
-1.5156003e-10 -0.00281371 9.92295e-21 7.3805756e-10 -0.00019343042 2.5778163e-10 -0.037084553 -6.52458e-07
1.8997608e-19 0.2473381 4.154873e-06 5.021751e-13 6.768317e-09 -0.0036931138 0.3650179 -1.8706809e-06
-0.034493014 3.0252404e-05 -0.08869718 -0.13451186 0.6715631 -0.27825853 -0.022265784 0.007732831
-0.007038235 -0.55864656 5.0324497e-17 0.0001083249 -0.1100849 -0.04434845 -0.037450396 -0.39320564
-5.205097e-05 -0.37070486 -0.18834102 -0.2573071 -1.2843069e-28 6.070255e-31 1.300909e-31 -9.69095e-27
2.58875e-32 2.2036153e-28 -1.2839316e-32 1.11014274e-32 9.30323e-19 2.3959296e-32 -0.00010785914 4.9101128e-32
4.6410424e-28 3.0840066e-17 -3.145872e-17 1.3194956e-26 -5.7319867e-33 3.7337912e-28 -3.670641e-14 -1.6578895e-05
-1.5693984e-31 5.222563e-32 -1.2687285e-11 3.435318e-31 -3.0175212e-05 4.5239858e-08 -8.9253405e-32 -2.4135948e-22
-1.8665047e-28 -4.2704705e-24 -4.2203396e-23 6.9489516e-30 7.550634e-24 -2.3868842e-30 -1.2429992e-31 1.7537341e-31
-2.3743593e-32 1.2821919e-31 -9.22675e-25 -1.2715292e-31 2.2279223e-28 2.8813167e-31 4.919834e-28 4.7782723e-17
6.5103356e-17 -1.7943624e-18 -5.4333765e-32 -5.0736945e-16 -4.5155834e-26 -1.999909e-07 -2.9051085e-32 -2.1905427e-31
-1.3492374e-09 -1.6124619e-30 -5.517163e-10 -7.980003e-06 1.54838e-31 1.785366e-20 -6.1023825e-14 3.165198e-27
-0.17809702 -5.3940724e-29 -9.4196e-23 0.21728104 -1.0332503e-16 8.059144e-12 -1.5612907e-06 -0.04581989
0.31163043 0.000106994514 0.47163716 -1.7964783e-05 -0.014919577 -0.1314299 -0.5114317 -0.32252643

pos_net.linears.2.bias f4 [30]
00000000: 4a04 5ebc a26b 44b6 abf9 263e 10eb 11b6
00000010: 58f2 afb9 ce0f 94be d0d5 0db6 327f 9bb1
00000020: f6c4 c6bd daff c6bc c464 06ba fbd8 90ad
00000030: ad41 013f ff3d d8ba c8a4 88be 8937 a8bd
00000040: 17d4 00be 9900 a53d 522b 30be 8eb2 ac3d
00000050: de05 27bf 0213 6fb6 715c 56bb b986 16ba
00000060: d138 30bd 0088 1d3f 9954 c9be 0292 41bc
00000070: 1d04 beb9 6894 7ab2
-0.013550827 -2.9268926e-06 0.16306178 -2.1743508e-06 -0.0003355916 -0.28918308 -2.1135093e-06 -4.525554e-09
-0.09705536 -0.024291921 -0.00051267096 -1.6467263e-11 0.5049084 -0.0016497968 -0.26688218 -0.082137175
-0.12580906 0.080567546 -0.17204025 0.08432494 -0.6524333 -3.562484e-06 -0.0032708908 -0.0005742121
-0.043022934 0.61535645 -0.39322355 -0.011814596 -0.0003624269 -1.4585659e-08

pos_net.output_layer.weight f4 [6, 30]
00000000: fe95 293f d84d fd32 6fb3 4e3c 2659 02a8
00000010: 6886 aab9 ee6d 23bd 7fd7 23bb 98e4 72a7
00000020: 965d 63bd dc3b b63b da99 e13b 7cbe 3ca0
00000030: 4ce2 143d b148 89b0 c7ce c23d 3d68 11bd
00000040: 7942 5bbb 3985 90bc d990 25bb 9730 2e3d
00000050: 24c3 a4bc aa3a 103c f46b 063b bdcd cbbb
00000060: 5ab1 b5bb 7927 bdbe aaec 28bc e880 abbc
00000070: 2ccd 45b9 ba2f 4cae 7d56 04be 3666 ae31
00000080: 3ac7 abbe af98 8a33 cc4f b0b9 ed8d 0f3e
00000090: d2fe f7b7 9106 d0b2 6178 13be 9cf8 793c
000000a0: 2b85 b03b 963a 499e d9ef aebd 4d5c c8b9
000000b0: 40c5 5abd 285c 0ebd eda0 e4bd 8334 e13c
000000c0: d09c afbd a84f 773e 3e07 dc3d 1d1e e8a7
000000d0: abc3 a8b9 00e8 eebb 6ba0 5cbd c962 bdbe
000000e0: 8e85 8f3d d5b8 e63e aa47 6cb7 0116 0e32
000000f0: 3a39 033e caa7 4733 78ff e6be 0923 52ba
00000100: 07c8 4e37 c03c 4d3e 1d52 4737 0569 df30
00000110: 8794 ccbc 7b87 a63b 466b 003c 8d0d 70a1
00000120: 6d57 51be 4c25 2e39 fc1e c63c 5717 2b3d
00000130: c541 15be 2fda 483d ef0c 21be c6a8 6c3d
00000140: 5515 fcbe 1efa 8db3 6357 66ba ba3b 80b4
00000150: 4c61 a0bd dc6d 6a3e c0d3 5ebe 194d 023f
00000160: 8308 d22d fe53 7633 3a9a 7bbb a61c b9b2
00000170: 0ab1 c5bb 7100 4022 42b5 9232 68e7 34be
00000180: 75df c1b7 669e eda3 4479 87be cd31 79bd
00000190: b2d2 26bc f56d 7ca2 352f 743e 50bb 51b8
000001a0: 4416 213c 444a ef3d bf12 ecbc 6ced aa3e
000001b0: 48f4 7cbd 1996 923e 5e58 bebd 5f13 3fb1
000001c0: 67ea 5b3a 8f81 4dbb 604d b5be 49ef 3b3e
000001d0: fc42 a2be a7d6 23be 71f3 3138 c4ce c122
000001e0: a8ff 893c 0906 5532 e277 b3bb 1724 0dba
000001f0: e635 ea37 13fa 45be 90ff fea6 51b1 3129
00000200: 504b efbd 180d 3ebd 8182 913a 1a93 87b3
00000210: a8fa a83e f87f f2b9 9971 183e d85c e13d
00000220: 23fa 853d be55 fdbe 2cef eabe 9ad4 1d3e
00000230: 6d7e 043f bd0b 0c37 101d 55bb 6d37 7f37
00000240: 70aa f93e 75a2 dd3d aaad af3e 4a5c c63d
00000250: 9b34 c637 786e 80b8 28b3 9cbd 9085 18b7
00000260: ca3d 7dbe e4d9 c4b9 f0d0 42bc 9b13 f9be
00000270: fa37 6ab8 b76d 052d 972e a63e 6056 cb3c
00000280: c511 ecbb f87b 0934 ff16 013f 1532 13ba
00000290: 3b51 66bd efd6 cb3d f455 adbd d95d 0b3e
000002a0: ad0a 163d 9d30 bcbe 8bcf 3d3e bf9f 9e35
000002b0: a497 353a 7682 d3b9 8464 9fbd c2cb 1dbe
000002c0: caae 7cbe aa05 a03e 764f 7c35 c3cf 1039
0.66244495 2.9488476e-08 0.0126160225 -7.235781e-15 -0.00032525067 -0.03989976 -0.0025000272 -3.3708167e-15
-0.055509172 0.005561335 0.0068847956 -1.5987245e-19 0.036348626 -9.988722e-10 0.09512096 -0.0354998
-0.003345637 -0.01764165 -0.0025263338 0.042526808 -0.020112582 0.008803049 0.0020511122 -0.0062195943
-0.0055448236 -0.36944178 -0.010310331 -0.02093549 -0.00018863817 -4.642662e-11 -0.12923618 5.0756865e-09
-0.33550435 6.453899e-08 -0.0003362879 0.14018984 -2.9563354e-05 -2.4217373e-08 -0.1440139 0.015257027
0.0053869686 -1.0652967e-20 -0.08541841 -0.00038215742 -0.05341077 -0.034755856 -0.11163507 0.02749086
-0.085748315 0.2415148 0.10743569 -6.4425584e-15 -0.0003218924 -0.00729084 -0.053863924 -0.3698943
0.070078954 0.4506289 -1.4083382e-05 8.270491e-09 0.12814799 4.64859e-08 -0.45116782 -0.0008016085
1.2325129e-05 0.20042706 1.1880443e-05 1.6255234e-09 -0.024973167 0.0050820685 0.007838076 -8.1333097e-19
-0.20443507 0.00016607827 0.024184696 0.041770305 -0.1457587 0.0490362 -0.1572759 0.057778142
-0.49235025 -6.61132e-08 -0.00087868253 -2.3885315e-07 -0.07831058 0.2289347 -0.21760464 0.5089889
2.3878016e-11 5.735273e-08 -0.0038391487 -2.1549862e-08 -0.0060330676 2.6021086e-18 1.7079063e-08 -0.176664
-2.3111448e-05 -2.5762676e-17 -0.26459706 -0.06083851 -0.01018207 -3.421058e-18 0.23846133 -5.000393e-05
0.009831969 0.11684087 -0.028817533 0.33384264 -0.061756402 0.2863014 -0.092941985 -2.780517e-09
0.00083891157 -0.003135774 -0.35410595 0.18352999 -0.3169173 -0.15999852 4.242681e-05 5.2531676e-18
0.01684554 1.2399604e-08 -0.0054769376 -0.0005384101 2.7920072e-05 -0.19333677 -1.7694061e-15 3.9455693e-14
-0.116842866 -0.046399206 0.0011101515 -6.313185e-08 0.33003736 -0.0004625318 0.14887084 0.11004037
0.065418504 -0.4947948 -0.458856 0.15413132 0.5175541 8.347383e-06 -0.0032518543 1.5212089e-05
0.48762846 0.10822002 0.34312183 0.096855715 2.3627936e-05 -6.124092e-05 -0.07651359 -9.091003e-06
-0.24730602 -0.00037546374 -0.011890635 -0.4864777 -5.584208e-05 7.584536e-12 0.3245742 0.02482146
-0.0072042667 1.2804219e-07 0.50425714 -0.0005615068 -0.05622981 0.09953105 -0.0846366 0.13610019
0.036631275 -0.3675584 0.18536203 1.181841e-06 0.0006927198 -0.00040342257 -0.07782844 -0.15409759
-0.24676052 0.3125432 9.3992946e-07 0.00013810307

pos_net.output_layer.bias f4 [6]
00000000: fb12 03be aef6 103f 358f 2cbf 2409 ebbd
00000010: c03c 233e 24c8 c5bb
-0.12800209 0.56626403 -0.67406017 -0.11476353 0.15941143 -0.0060358215

neg_net.linears.0.weight f4 [30, 12]
00000000: bca0 77bc 29fe 01bf 9e78 f5be eb6c 023f
00000010: 8987 d5be 4edc e23e ca04 56bc 2c38 173d
00000020: bd89 b13d 35bb 033f 5d0a 9bbe b729 523d
00000030: a7af af3d 6873 d8bd b05a 22be 7e70 0ebe
00000040: 67de b4bf e9c0 233d 1405 8a3b 78a6 0bbe
00000050: da75 21be bbd2 93bf d95a 2bbf 6c1f 253d
00000060: 0614 83bd 19dc 6dbf 1d0f c83e 3396 863b
00000070: 3f86 8dbc c52d 96bc 7df3 4a3c 809e 55be
00000080: c3fd 96bc 35de 133d 2a88 31bd 53d0 163c
00000090: 0a03 a4bf d625 eb3d c32d d9bd 4625 31bc
000000a0: 6a1c a1bd a852 893c 3b38 13bf 2eb9 833d
000000b0: 442c 7abd ec00 8fbd f929 fb3c 7dea 2f3c
000000c0: be70 143d 3fb5 f03e d244 143f e46e a93e
000000d0: 72ee 85bf c3e2 16bf 45ec 333d 36f7 15be
000000e0: bede 55bc e789 843d 9da4 e63e 788a acbc
000000f0: 6123 8c3d 1a4a 35bc bc6f d6bd a331 bebe
00000100: 22dc 0fbe e3a7 46bf d5f7 fc3b b6e7 113e
00000110: 48f4 c3bd 2025 293f 5799 74bd 5cca 333e
00000120: 48e7 a2bd 30c5 c83e 0341 cb3e 3bc6 a2bf
00000130: 44e1 90be 6d54 54be d49d bd3c d031 29bd
00000140: de32 203d 5707 25bf ec5a 783e ece9 20bb
00000150: b221 87ba ac97 4a3f ec46 733f 4a2d 3fbf
00000160: 4bd8 4e3e a0a6 95bd 983e 6939 b1bf 42bd
00000170: b8b5 8abc 2cfc 9bbf cb0f 51be ba31 da3b
00000180: ccb5 8d3d 5170 603f c9f6 823f d289 83bd
00000190: 80b9 7ebf 9ad4 fe3d f7ba 42bd c555 c2bd
000001a0: a574 87bd 3d34 183f 3c35 74bf 6a1d aebd
000001b0: ad76 9a3f 7aa7 b7bd b484 a43d 0820 52bd
000001c0: 604c fbb9 61a2 ba3b c0b1 a9be 539c c1bc
000001d0: 66ff 12bd ab27 313d a04c 43bc 3570 4ebc
000001e0: de8e 8fbc b624 ecbe d200 1abf 21b9 3cbe
000001f0: d173 3d3f 0a31 dbbc d2e4 16bd d49b 353e
00000200: 89c6 96bc 21ea 093f 05a6 4b3e 5fdf c03c
00000210: da4d 54bf b575 613e 76e2 28be 9900 e93c
00000220: e2be bf3d e373 383c 3566 9abe 529f b03d
00000230: 8eba 013e 1b4c 6c3d 2474 38bb 5a68 973d
00000240: 3c5a 693c 1d04 e83e b3a8 e23e a06e 76bf
00000250: c31a b33e ae88 963b d05d 7dbd 868f d23c
00000260: 042f 61bc 47aa 953f 3291 e1bd d489 27bd
00000270: 388a 573d 6be5 023e 8156 e23e abf7 78be
00000280: 951b ac3e c211 3bbe 2803 9b3c 67ac 50be
00000290: a70f adbd 91dc a93e 8e8a 073d fd37 4b3c
000002a0: a6d6 09bd 655f 00be c8da 85be 9848 2fbd
000002b0: f16b 7c3f 7521 5cbf aaa1 6f3c d8fb 783e
000002c0: 7221 d43c adf4 913e 4f18 9a3e 3b83 55be
000002d0: 5098 7e3d 90c8 54bf 5dfd 5dbf a04b 653e
000002e0: 74de 37bf 0e53 ea3c 11cc 853d 28da b33c
000002f0: 120e 1abd 039c 243e 0384 653f 73e6 5d3d
00000300: 9768 e5bc 076e c7bc 6171 bf3d 5af8 1bbc
00000310: 5a61 80bf 40a8 6f3f e70e b73b df66 d1bd
00000320: da17 89bd 06c5 97be b018 ca3e 816d e9bd
00000330: 5467 0bbd 4cf4 bdbe d777 edbe c154 d6bd
00000340: f05e 2fbf 74df 03bd 4f2f 06bd 30ce 053e
00000350: 2be2 62bd 4d87 013f 3a7a 55bf fbb8 8a3e
00000360: d67b 8c3d f4e9 bcbc bda7 abbd 7928 aa3d
00000370: 5fcb 563e df45 813e 8069 3939 7212 e93c
00000380: 7a28 a33d 7cb1 5bbf d1ec 9bbf 9994 e63d
00000390: 5862 d53c cd0b 1e3f a7d0 553f be06 233e
000003a0: 74e7 49bd 3d56 3f3d 9b67 3a3d 174d d0bc
000003b0: 9889 a93b 3212 973f 850a ac3f 9891 353b
000003c0: b43c afbd 0d16 a8be 3d85 cbbe 044d 52be
000003d0: 2508 5abf 9b92 36bf 660d f2bc 6ab2 9e3d
000003e0: 9ed5 933d 7ded afbd 8a8d 863c 792e 64bd
000003f0: 83e9 803c 8cbe 433d fb4c 323e b587 7a3e
-0.015114006 -0.5077844 -0.47943586 0.50947446 -0.41704968 0.44308704 -0.013062665 0.036918804
0.086688496 0.5145753 -0.30281344 0.051309314 0.08578425 -0.10568887 -0.15854907 -0.139101
-1.4130372 0.039978895 0.004212031 -0.13637722 -0.15767613 -1.1548685 -0.669355 0.04031317
-0.064003035 -0.9291397 0.3907403 0.0041072606 -0.017275928 -0.018332371 0.012387154 -0.20861244
-0.01843155 0.036100585 -0.043342747 0.009204942 -1.2813427 0.11481826 -0.106044315 -0.010812109
-0.07866748 0.016763046 -0.57507676 0.064318046 -0.06107737 -0.06982598 0.030659663 0.010737059
0.03624033 0.4701328 0.5791751 0.33092415 -1.0463393 -0.5893976 0.043926496 -0.14645085
-0.013053594 0.06471615 0.45047465 -0.02106212 0.068426855 -0.0110650305 -0.104705304 -0.37147245
-0.14048818 -0.77599925 0.0077199736 0.14248547 -0.09568077 0.66072273 -0.05971655 0.17557663
-0.0795427 0.39212942 0.39698038 -1.2716745 -0.28296864 -0.20735331 0.023146547 -0.04130727
0.03911101 -0.64464325 0.24253434 -0.002455349 -0.0010309725 0.7913768 0.95030093 -0.7467848
0.20199697 -0.07307172 0.0002224393 -0.047546092 -0.016932353 -1.2186332 -0.20416181 0.00665876
0.069194406 0.8767138 1.0231563 -0.064227715 -0.995018 0.12442894 -0.047541585 -0.094890155
-0.06614045 0.5945471 -0.9539373 -0.08501704 1.2067467 -0.089674905 0.080331236 -0.05130008
-0.00047931354 0.0056956266 -0.33143425 -0.023634112 -0.0358881 0.04325072 -0.011920124 -0.012599994
-0.01752418 -0.46121758 -0.601575 -0.18429996 0.74004847 -0.026756782 -0.036839314 0.17735225
-0.018405216 0.5387288 0.1988755 0.023544012 -0.8293129 0.22017558 -0.16492638 0.028442668
0.0936258 0.011258098 -0.30156103 0.08624138 0.12668821 0.057689767 -0.0028145397 0.0739295
0.014242705 0.45315638 0.44269332 -0.9626255 0.34981355 0.00459393 -0.061857045 0.025703203
-0.01374412 1.169259 -0.11014022 -0.040902928 0.05262205 0.12782829 0.44206622 -0.24313228
0.33614793 -0.18268493 0.018922403 -0.20378266 -0.08450251 0.3317609 0.03309112 0.012403485
-0.03365197 -0.1253639 -0.2614348 -0.04279384 0.98602206 -0.8598855 0.014625946 0.24314821
0.025894854 0.28506985 0.3009667 -0.20850842 0.062156975 -0.83118534 -0.86714727 0.2239213
-0.7182381 0.028604057 0.06533063 0.021954611 -0.037611075 0.16075139 0.8965456 0.05417485
-0.028003974 -0.024344457 0.09347797 -0.009519661 -1.0029709 0.93616104 0.0055864933 -0.10224699
-0.066940024 -0.29642504 0.3947196 -0.11397839 -0.03403409 -0.37100446 -0.46380493 -0.10465384
-0.6850424 -0.032195523 -0.03275996 0.13066936 -0.05539147 0.5059708 -0.8338963 0.27094254
0.06859557 -0.023060776 -0.08381603 0.08308501 0.20976017 0.2524862 0.00017682277 0.028451178
0.07966705 -0.85817695 -1.2181646 0.112588115 0.02604787 0.61736757 0.83521503 0.1592054
-0.049292997 0.046713103 0.045508962 -0.025427384 0.005173873 1.1802428 1.344071 0.002770519
-0.085565 -0.32829323 -0.3975009 -0.20537192 -0.8516868 -0.7131745 -0.029547404 0.077488735
0.072184786 -0.08590219 0.016424913 -0.055708382 0.015736347 0.04778914 0.17412178 0.2446583

neg_net.linears.0.bias f4 [30]
00000000: c61e 86bf e722 4cbf 45a1 713f 877d a7be
00000010: b608 82bf 033d 93be 7296 363d c4e3 81be
00000020: 2562 ecbe 148a 853f 34d7 c7bf 10b4 6cbe
00000030: f2d8 073f 0650 31bf ce56 46bf 5068 55bd
00000040: 312f 8abf 54fe a7bf 016c 8dbf 2f61 afbf
00000050: d830 9ebf 30b6 26bf bdf2 b4bf 36cf 2b3d
00000060: 2672 15bc 1424 163e 1e72 8abf 47d1 f7bc
00000070: d896 99bf 203c 36bf
-1.0478141 -0.79740757 0.943867 -0.32712957 -1.0158908 -0.28757486 0.04457707 -0.25369084
-0.46168628 1.0432763 -1.561255 -0.23115563 0.5306541 -0.6926273 -0.77476203 -0.052101433
-1.0795652 -1.312449 -1.1048585 -1.3701533 -1.2358656 -0.65121746 -1.4136578 0.04194566
-0.009121453 0.146622 -1.0816076 -0.030251158 -1.1999159 -0.71185493

neg_net.linears.1.weight f4 [30, 30]
00000000: 6ac8 babe 6a53 163e 307e c73c 95ed 633d
00000010: 2b38 433f bbb0 00bf b0c7 853e 2a6f 323f
00000020: b154 223e eef8 c03c 7c17 c0bd 0af4 90bd
00000030: e2d3 96bf e24d b0bd ccd1 1cbd a436 93be
00000040: 443d 993c 52eb 0dbe 841b 913e e3ce 3abd
00000050: 75dd 9dbe 28a0 ccbd 6692 413e a33e 563e
00000060: 24d9 cbb7 2adf d6bc c566 a8bd 3039 f3be
00000070: 3504 463d 6e32 b1be 19d5 a73e fac7 cbbe
00000080: e608 01bd 61ee bb3b d21c 27be e240 59bf
00000090: 1fc5 0dbe 08d5 d3bd ea0b e0be 62f5 ad3c
000000a0: 35bc 9b3d c3fb 5f3d 9583 39bd b0e0 8bbe
000000b0: 96ca 07bf 99fd 5bbf 4f66 b13e 35c3 b23e
000000c0: 814d e6bd 7db6 843f b8fa 32bd ad57 cb3e
000000d0: a92c 9cbd 56ce 303c a533 673c 5318 99bc
000000e0: 324e 023e 64b0 013f 714b eebe 1a12 21be
000000f0: ae4a 223d 61e0 bebe 38a8 b43b 9889 53be
00000100: 6e80 8d3e 1e3e a5bb 6d47 00bf e88f 0a3e
00000110: 3b45 1b3f ef03 043f d281 ecbb e59b 3bbd
00000120: 4313 10bf 1d9e 123e 0f7b 80bd d920 823e
00000130: 615b 6bbe c6df 0dbe 96ba a63e 6776 6a3e
00000140: 8ce3 b33d f671 173e 37d7 983e 3def 1cbf
00000150: adf3 c838 0e6c eb3e 5fd8 5b3e b95d 36bf
00000160: 723f babe a60f ba3e c3dc 80be d9d8 3e3e
00000170: 5d42 363d 001b d0bc 8b90 5e3e a748 343d
00000180: 52b1 0c3f 533d e0bd 297f 8cbd 007d 873b
00000190: 215c 7cbe 506e 13bd 2f2d 3a3f 1654 633e
000001a0: 083b 1b3e e8c8 1bbf 9a37 553e 161d bc3d
000001b0: 87f7 023f 5f52 1a3f 2f7b c3be 9e05 89be
000001c0: ce1d e03e e9fc 96bd fae4 be3b 0b32 eb3d
000001d0: f427 0b3d b25a 5fbe 08ce 27bf 0dac 73bd
000001e0: 793d 74aa 6c52 ac2a f62c f2b8 c4c6 632d
000001f0: 790e 8e29 3a74 5e28 a558 072c 13c7 abb4
00000200: e02b b52b 1b44 0eb3 7c0e eb2a 7b5d a6ab
00000210: 20b7 90b0 aee5 66a9 b853 55a9 0604 952a
00000220: 448f b52b ed65 21ab 995c a52c 473b 45ac
00000230: 3678 e8aa 167b c8b9 8899 0e28 6d73 402c
00000240: 66b1 910c ae7f 9bb7 9b2d 3ba9 fb49 e92b
00000250: 5cd5 16b3 fc91 bfa9 b5ae a7ba d914 9a3d
00000260: a3f4 9e3f 34e0 193d 8cdc 473d d615 9c3d
00000270: eefd 763d 737d a2bc b328 02bd 9f2a 413d
00000280: da04 143e 4b6c f0bc e41f bcba af99 6b3c
00000290: 9bd9 263c 9fb5 5a3d 0886 a83c bafa 363c
000002a0: c9e5 f93d 05e0 1abd 8e8b cc3d 352a e5bc
000002b0: 5bb1 ca3d 3842 1c3b 8eb3 8714 0048 02bd
000002c0: 59c1 44be 7982 813d 204a 4abd 9224 2f3d
000002d0: 96d0 943d 4acb a2be d7a6 683d 5f14 dc3d
000002e0: 0f9c edbe 531a a3be b281 aebe 37eb 343e
000002f0: b7fc 30be 99f7 8f3c d75b d5bd a7a7 aebd
00000300: 6387 0fbf 6924 41bc 596a 033c 7806 1a3f
00000310: fef8 c83d 944f cbbe 5f89 e6be a0ac ecbd
00000320: 4db3 16bd 3297 993e b079 0a3f cdf5 323f
00000330: 189b 0a9c 16c3 88be 36d1 db3b 8a2b 90bf
00000340: 04fa d8bb 7af6 e63e ac59 cabc 7b03 5e3e
00000350: 3ffa 62be 436d f8be 0713 40be 6815 903c
00000360: e741 813e 3e81 25be 5271 9bbe b002 843f
00000370: 7f5b d93c 42f5 a5be 77d1 5a3e bf53 13bd
00000380: 0209 2e3c 45f9 20be e32b 683d 40ae d93c
00000390: ffb4 83be 0f0a 04be dff4 81bd 12b1 47be
000003a0: 30fa 43be f882 803e 13bc b335 e5e6 94be
000003b0: bddd 223f fea5 943e 5759 b93d eb6e 49be
000003c0: 8ad1 2a3f 753d ca3d 0cb5 483e 03fc bf3b
000003d0: 221e d3be 239c b4be 22f9 613e ff68 1a3f
000003e0: 40f6 8e3e ddb9 fd3c 0ee5 acbd 11ac 383d
000003f0: b27c cbbd 734d f2bd 8a9d 273f 194b 113f
-0.3648103 0.14680257 0.024352163 0.055646498 0.7625758 -0.5026967 0.26128912 0.6970087
0.1585262 0.023556199 -0.09379479 -0.07077797 -1.1783412 -0.08608605 -0.038286015 -0.28752625
0.018705972 -0.13859299 0.28341305 -0.04560746 -0.3083302 -0.09991485 0.18903503 0.20922332
-2.43006e-05 -0.02622946 -0.08222727 -0.47504568 0.048343856 -0.34608787 0.32779768 -0.39801008
-0.031502627 0.005735204 -0.16319588 -0.8486463 -0.13844727 -0.10343367 -0.4375909 0.021235172
0.07604257 0.054683458 -0.045291502 -0.2731986 -0.53043497 -0.85933834 0.34648368 0.34914556
-0.112452514 1.0368191 -0.043696135 0.3971533 -0.07625706 0.010791382 0.014111434 -0.018688357
0.12725142 0.50659776 -0.46541932 -0.15729561 0.039622 -0.37280563 0.0055132173 -0.20657957
0.27637047 -0.0050428053 -0.5010899 0.13531458 0.6065251 0.515685 -0.007217624 -0.04580297
-0.5627939 0.14318128 -0.062734716 0.25415686 -0.22984077 -0.13854894 0.3256423 0.2289673
0.087836355 0.14789566 0.29851696 -0.6130255 9.582131e-05 0.45980877 0.21469258 -0.7123676
-0.3637653 0.36340064 -0.25168428 0.18637408 0.044496883 -0.0254035 0.21734826 0.0440146
0.5495807 -0.10949197 -0.068601914 0.004134774 -0.2464452 -0.035993874 0.72725195 0.22200045
0.15159237 -0.60853434 0.20821992 0.09185235 0.51158947 0.6028194 -0.3817992 -0.26762098
0.4377274 -0.073724575 0.005825636 0.11484154 0.03397365 -0.21811941 -0.65548754 -0.059490252
-2.1692881e-13 3.061053e-13 -0.00011547834 1.2947591e-11 6.3085774e-14 1.2348678e-14 1.9233861e-12 -3.1996078e-07
1.2873001e-12 -3.3123893e-08 4.1754436e-13 -1.1820955e-12 -1.0529426e-09 -5.1269475e-14 -4.7368115e-14 2.647051e-13
1.2900588e-12 -5.734014e-13 4.6998625e-12 -2.802829e-12 -4.1294892e-13 -0.0003823868 7.915875e-15 2.7348915e-12
2.2447555e-31 -1.8536895e-05 -4.1561898e-14 1.6576179e-12 -3.5118646e-08 -8.507428e-14 -0.0012793156 0.075235076
1.2418407 0.037567332 0.048794314 0.076213524 0.06030076 -0.01983521 -0.031777095 0.047159787
0.14454976 -0.029348513 -0.0014352766 0.014379903 0.010183717 0.053395864 0.020571724 0.011168176
0.12202031 -0.037811298 0.099875554 -0.027974227 0.09897109 0.002384318 1.3702338e-26 -0.031806946
-0.19214381 0.06323714 -0.049387097 0.042759486 0.07266347 -0.31795722 0.056799736 0.10746073
-0.46408126 -0.3185602 -0.34083325 0.17667852 -0.17283903 0.017574118 -0.10417908 -0.08528071
-0.5606596 -0.011788466 0.008020961 0.6016612 0.098131165 -0.3970915 -0.4502668 -0.11556363
-0.03679209 0.29998165 0.5409193 0.6990631 -4.5860824e-22 -0.2671134 0.0067082895 -1.1263287
-0.006621601 0.45109922 -0.024700962 0.21681015 -0.22165774 -0.4852086 -0.18757258 0.017588332
0.25245592 -0.16162583 -0.30359894 1.031332 0.026532887 -0.3241368 0.21368967 -0.03596854
0.010622265 -0.15720089 0.05668248 0.026572347 -0.25724027 -0.12894462 -0.063455336 -0.1950114
-0.19138408 0.2509992 1.3391276e-06 -0.2908241 0.63619596 0.29032892 0.09050243 -0.19671218
0.6672598 0.09875003 0.19600314 0.0058588996 -0.41233927 -0.35275373 0.22067693 0.6031646
0.2792225 0.030972416 -0.08442126 0.04508597 -0.09935893 -0.118311785 0.6547476 0.56755215

neg_net.linears.1.bias f4 [30]
00000000: 7a94 f53d 0bb7 843e f6d4 f8be f0bb b63e
00000010: 4a4e 26b5 1612 86bd 6508 6abf bba1 1ebf
00000020: ca90 173f 02a0 94bd be84 6ab2 bec1 f2be
00000030: abfc 23b1 87b9 ccbb a9e9 37b5 bd0d adab
00000040: 7d91 7abd 077d 97be 30c8 82b8 d8c9 81af
00000050: 04a8 88bb 0c53 f5b9 8caf 9ebf 3225 203f
00000060: 6ad0 393f bd7b caab 92dd ceb9 2a28 0e3f
00000070: 6593 1dbf e52c d3b5
0.1199121 0.259209 -0.48599976 0.3569026 -6.1953745e-07 -0.06546418 -0.9141906 -0.6196553
0.59205306 -0.072570816 -1.3650775e-08 -0.4741344 -2.3863247e-09 -0.0062477025 -6.851283e-07 -1.2296202e-12
-0.061173905 -0.29587576 -6.236171e-05 -2.3608382e-10 -0.0041704196 -0.00046791916 -1.2397323 0.62556756
0.7258364 -1.4387308e-12 -0.00039456465 0.55530035 -0.6155303 -1.5733791e-06

neg_net.linears.2.weight f4 [30, 30]
00000000: 74c2 0dbe b88f 30bb 7dc5 69bd a30b 98bc
00000010: 005e ac2a 40f9 1ebe 318a 5f3b afcb 8b3a
00000020: c4fc 29be 84c2 cf8a 42aa aa10 aefe 4f3a
00000030: 16e6 c78a 4cef 1f0b 7070 390b 064d f08a
00000040: 0870 628b a0b0 72bc 7ceb 838b 9808 ea89
00000050: 062f 838f 4494 f88a a4e6 9cb8 6ddd 3cbe
00000060: ca95 3fbe 66b4 278b 9a00 d00b 1635 a239
00000070: 4cb3 cd3b 60fe 5889 f983 f0a5 bb35 1127
00000080: 926f 57a2 8f5a 5cb5 f098 7c8c be2d eea6
00000090: 66b7 a122 8357 35a9 6e61 6fa8 60c9 e58a
000000a0: 9a44 b58c ed32 49a1 d0a2 4f0d e38c e10b
000000b0: 422e 068b 59ba 2d0d 89c1 860b 468d 14ae
000000c0: c1b3 058c 523b 570d a4e7 5920 b265 808b
000000d0: b9d4 2a0b dbcd 0bbb 9caa 4927 dcc9 8c8b
000000e0: 9c0b a80b 346f 91b1 af84 8822 e158 720b
000000f0: 9181 493f 3713 573e ee66 d33e 8cb4 e33e
00000100: 9a73 46ac 5d06 14be 04c4 2bbe 09cb 29be
00000110: 0e3d a53d ade9 babd 0fd3 d8aa ae0b 01bf
00000120: 7b05 bb1c 88cb ccba 6828 cea2 f462 f80b
00000130: 7503 a139 0386 03be 92f5 93b3 0b98 25a5
00000140: edb1 6336 8c58 1eba 05fc 753f 7929 f1be
00000150: 5fb9 493e 57be cf29 f924 3a9a 0a3c c3be
00000160: 65d5 99be 60e9 89a0 b0f7 a23e ff1c 9abe
00000170: ea63 bebe 9ed7 11be 724d d9ad 5408 043e
00000180: c0fc 55bd c0e5 7c3e 5ca6 123d 44d2 8d3c
00000190: ffdb b429 3999 29be d0dc e3ae 699b 69bc
000001a0: a915 aeae 98f6 1e96 ce3e a23e e8d7 6fbc
000001b0: 4909 d832 865a a1a6 a274 e23a 0346 163b
000001c0: 4cc3 43bf 7313 133f 8d4d 5fbe 6140 502b
000001d0: db44 3d39 6f93 ee3d 3cac f43d b824 9821
000001e0: bf99 cbb4 e1ee 77b9 4889 8eb8 2d08 0cba
000001f0: 83a8 378b 1d66 e0b8 304d 641e 1f5a 87b8
00000200: 2188 72b4 23ae d80d a07b 7e98 da1a 82b0
00000210: b13b 9e1a efe8 638d a0b5 110d b6ff f89a
00000220: 625f 5f0c a919 dfb5 f829 c00a 95e0 960b
00000230: cd66 400c 23b0 368d e874 848c 934e 6bb8
00000240: 0f9f dbb6 0335 8f8b cf2c 168b 94ef dbb8
00000250: 6049 4db7 08e1 e497 bf13 0a3d 750e 10bd
00000260: 8914 64bd d7f1 89be 6839 feac b790 26bd
00000270: 3e59 c5b1 ac87 6abc 41d8 65bd 503d c4b5
00000280: 39aa ad30 614f 70bd aac7 bd99 5399 809b
00000290: 0fd9 f399 3535 018e 806c 1fb4 c2b1 b5bc
000002a0: 2d36 518e 5aeb 79a6 92f0 4dae 24fc 8395
000002b0: 6c8f 1710 f7cf eebd 3dd2 26be 09a9 891b
000002c0: fb14 399d 126d 25bb e936 55bd ea9a f91e
000002d0: d08d 393d 2c2d 0a3e ee1a cbbd c478 933e
000002e0: bf01 ac2d b923 c83c 73a7 563f efc6 713d
000002f0: a2d2 e13d 76f0 8abd 3d6e 4836 c7a2 cbbe
00000300: d37c a130 8dc3 c2af 129f ce2d f8e7 f297
00000310: 68cc 0eb6 4b54 22bf dae3 4d38 35bc 8726
00000320: 748c d4ba 1066 35b5 886e 74bf 4ddf 023e
00000330: b837 94bd f9fc 53ac 7e95 09b7 e3dd 423f
00000340: 92ce d2be edf2 6abc 28f6 fbb5 2b8b fab6
00000350: c610 9036 9cfd ccbb 86c5 0b8b 1dbc 80b5
00000360: 6f46 640c 0cd9 10b7 5df8 f3b7 d9a4 178e
00000370: 2451 d10d c105 8136 f431 0d0b 78e3 e28b
00000380: 9465 380b 9054 658b 48b7 5f31 81e1 f7ba
00000390: d001 0a0c a03c 158b 209d 520b c6a2 5d16
000003a0: 6fb6 8c0b 1e54 82bc b5bd d2b6 dacf 480a
000003b0: 78b9 ba8b 22ee 3038 71b6 bd32 a55d 708b
000003c0: 81f9 c43e ac16 75be 72df 6fbe 6138 61be
000003d0: ecde 032c ac6b 8abe bdbb a2be ee5a 973c
000003e0: cea6 703e 6ecf 6fba 9c2c 21b7 388b 8dbe
000003f0: 9363 8ca5 bcfc efa2 a997 601b 3022 b99a
-0.13843709 -0.0026941132 -0.057073105 -0.018560236 3.0618563e-13 -0.15524769 0.0034109468 0.0010665561
-0.16600329 -2.0006544e-32 6.73155e-29 0.00079343736 -1.9249552e-32 3.0802313e-32 3.5714293e-32 -2.3140132e-32
-4.36103e-32 -0.0148126185 -5.081368e-32 -5.6341532e-33 -1.293571e-29 -2.3937303e-32 -7.48162e-05 -0.18443842
-0.18709484 -3.2298747e-32 8.011959e-32 0.000309386 0.0062774774 -2.611966e-33 -4.1722792e-16 2.015192e-15
-2.9196998e-18 -8.2088167e-07 -1.9459397e-31 -1.6526966e-15 4.383332e-18 -4.0265978e-14 -1.3288292e-14 -2.2127647e-32
-2.7928754e-31 -6.816885e-19 6.398278e-31 8.687883e-32 -2.5842262e-32 5.353405e-31 5.190612e-32 -3.377678e-11
-1.030004e-31 6.6323394e-31 1.8457258e-19 -4.945682e-32 3.2900844e-32 -0.0021332416 2.798684e-15 -5.422976e-32
6.4728714e-32 -4.2326977e-09 3.700336e-18 4.667437e-32 0.7871333 0.21003424 0.41289467 0.44473684
-2.8201664e-12 -0.14455552 -0.16773993 -0.16581358 0.08068286 -0.09126601 -3.851576e-13 -0.50408447
1.2376039e-21 -0.0015624622 -5.5879194e-18 9.5675013e-32 0.0003071089 -0.1284409 -6.88989e-08 -1.4362983e-16
3.3929202e-06 -0.0006040416 0.96087676 -0.47101954 0.1969962 9.2256653e-14 -3.8493765e-23 -0.38131744
-0.3004562 -2.3363137e-19 0.31829596 -0.30100247 -0.37185603 -0.14242408 -2.4704436e-11 0.12893802
-0.052242994 0.24697018 0.035803184 0.017312177 8.031769e-14 -0.16562356 -1.0361989e-10 -0.014258244
-7.9164515e-11 -1.284095e-25 0.3168854 -0.014638878 2.5149932e-08 -1.1196156e-15 0.0017277191 0.0022929914
-0.76469874 0.5745155 -0.21806927 7.398579e-13 0.00018050095 0.116492145 0.119469136 1.030964e-18
-3.7923562e-07 -0.00023644745 -6.796658e-05 -0.00053417945 -3.5371292e-32 -0.000107001724 1.20861815e-20 -6.454088e-05
-2.258753e-07 1.335395e-30 -3.2891145e-24 -9.466377e-10 6.5443705e-23 -7.023016e-31 4.49002e-31 -1.0298352e-22
1.7207998e-31 -1.6622263e-06 1.8504714e-32 5.811581e-32 1.4822077e-31 -5.6295097e-31 -2.040818e-31 -5.6101544e-05
-6.5452255e-06 -5.516136e-32 -2.892266e-32 -0.00010487359 -1.2236036e-05 -1.4790961e-24 0.033710238 -0.035170037
-0.055683646 -0.26942322 -7.2254876e-12 -0.040665355 -5.7436003e-09 -0.014314573 -0.05611444 -1.4620982e-06
1.2635787e-09 -0.05866945 -1.9622786e-23 -2.1274907e-22 -2.521328e-23 -1.5926096e-30 -1.4847501e-07 -0.022179488
-2.5787324e-30 -8.670819e-16 -4.6825273e-11 -5.3308286e-26 2.9889987e-29 -0.1166076 -0.16291137 2.2773985e-22
-2.4495393e-21 -0.0025242013 -0.05205432 2.6427971e-20 0.04530126 0.13493794 -0.09917246 0.28803074
1.9554912e-11 0.024431096 0.8384926 0.05902761 0.11026503 -0.067841455 2.986649e-06 -0.39772627
1.1749769e-09 -3.5427342e-10 2.349013e-11 -1.5697441e-24 -2.127863e-06 -0.6340987 4.9088012e-05 9.41852e-16
-0.0016216175 -6.7576275e-07 -0.9548116 0.12780495 -0.0723719 -3.0125331e-12 -8.200643e-06 0.7611982
-0.41173226 -0.014340145 -1.8772598e-06 -7.466782e-06 4.293487e-06 -0.0062558185 -2.6919026e-32 -9.591491e-07
1.7585676e-31 -8.633604e-06 -2.908351e-05 -1.8691558e-30 1.2900153e-30 3.8451694e-06 2.7193193e-32 -8.739429e-32
3.551353e-32 -4.4167413e-32 3.2554954e-09 -0.001891181 1.0631679e-31 -2.8741965e-32 4.0562737e-32 1.79036e-25
5.4200534e-32 -0.01590925 -6.2805725e-06 9.668742e-33 -7.1923656e-32 4.218345e-05 2.208546e-08 -4.629277e-32
0.38471606 -0.2393443 -0.23425081 -0.21994163 1.8739966e-12 -0.27035272 -0.31783858 0.018475976
0.23501131 -0.0009148036 -9.606734e-06 -0.27645278 -2.4353603e-16 -6.5048673e-18 1.857785e-22 -7.656944e-23

neg_net.linears.2.bias f4 [30]
00000000: 6ee0 d8bd 5adf fbae 32e5 eabe dc57 6c3e
00000010: 28c0 7ab8 4408 00be cb7d 86be 33a0 1db8
00000020: 882c 0cbf 78a7 f3be 9f54 09bc e073 68bf
00000030: 482e e5a9 4958 b0b4 c080 50b5 8958 23b7
00000040: 8e22 8dbe 550e 763e eec3 e9b9 c344 edbc
00000050: 6f32 a1bb 8d23 003f 64f6 823e 0c7e 57bc
00000060: ff1c d13e c65d 03ab 5cf4 223f adfc 133f
00000070: ed68 39b9 a8e4 b6aa
-0.105896816 -1.1453834e-10 -0.45877987 0.2308039 -5.9783604e-05 -0.12503153 -0.26267847 -3.7580914e-05
-0.5475545 -0.47588706 -0.008381992 -0.9080181 -1.01776714e-13 -3.284679e-07 -7.7673394e-07 -9.736171e-06
-0.27565426 0.24028905 -0.00044587202 -0.028963452 -0.004919342 0.50054246 0.25578606 -0.0131526105
0.40842435 -4.6670686e-13 0.6365411 0.5780743 -0.00017682063 -3.2488357e-13
