data/MTMR_28002/sim/random/NN_Dist_1/train/N5000/D6_SinCosInput/3/result/model/ReLU_Dual_UDirection_BP.pt (torch_old, 22776 bytes, 20 tensors)

input_mean f4 [12]
00000000: fbb9 553a d90e 843e 02b3 8b3b 220c 7d3e
00000010: 3ead 633e 5160 243a cbaf 6b3f 3ef6 6b3f
00000020: f178 713f 0a33 3f3e af31 7e3e 4c48 6b3f
0.00081530184 0.25792578 0.0042632828 0.2471166 0.22234055 0.0006270456 0.92065114 0.9217261
0.94325167 0.18671814 0.2482364 0.9190719

input_std f4 [12]
00000000: 4c9a c43e d8a2 8d3e 0df8 a73e c8a5 223f
00000010: 1033 2b3f 2383 c63e af21 903d 36d0 af3d
00000020: ff22 523d f417 353f 8824 2a3f cb86 903d
0.3839897 0.27663302 0.32806435 0.6353421 0.6687479 0.38771924 0.07037675 0.08584635
0.051302906 0.70739675 0.6646199 0.0705696

output_mean f4 [6]
00000000: 5b05 4839 d03b c53e fc57 4e3e d998 24bc
00000010: 40c9 ff3a cf16 c83a
0.00019075481 0.38522196 0.20150751 -0.010046207 0.0019514933 0.0015265587

output_std f4 [6]
00000000: c9d3 503b 1f4c e03e a00c 5c3e fc58 7d3d
00000010: 67e5 2b3d e8c9 1b3c
0.0031864515 0.43808076 0.21489191 0.06185244 0.041966822 0.009508587

pos_net.linears.0.weight f4 [30, 12]
00000000: 0111 e8bd 771b 5bbe fcac 7abd d0f2 3ebf
00000010: 5423 143d c851 b03a f73d 933d cf6e f63c
00000020: 84f1 20bd 6133 b93e 6006 6f3c 444d 6cbd
00000030: b21c c43c 5eea ecbe 682d 18bf f7c7 ee3e
00000040: 384e bb3e bd4e 08bf 00ab 6dba 65fb d6bc
00000050: 194f 973b 1083 c0be 62c0 e3bd 1857 873c
00000060: 088b a6bb af89 cebb 3444 1d3d f842 143e
00000070: 536b 80be 02b5 8bbb 33fe 88bc 1085 e4bd
00000080: ad43 74bd 35c5 04bf 732f b73d 4548 563d
00000090: 0e4f 713c 21b8 023f da9f e43e e0f3 e83e
000000a0: dbe9 5f3e a7dd 01be 4a61 083d c76c 4fbd
000000b0: 0777 7cbc 5093 14bf 05df d1be 9c60 4d3c
000000c0: cb6e 3f3d 51d8 ec3d 5fcb 01bd 7e91 3c3a
000000d0: 55ee 8f3d ae3c 1fbe 02f0 f33b 58bd 0a3e
000000e0: 5843 ebbc 8775 53bf 6fd0 653e 1b12 0fbd
000000f0: 3552 da3d 2588 8cbe 9d6b babe ce15 02be
00000100: f55e 8a3d 3b88 313e 729b 3d3c ec46 d4bd
00000110: 6aec 34bd 9591 60bf 0d4a 8bbe 370d c83c
00000120: df43 d33d b65f d63d eb26 b6bc 2cf6 17be
00000130: c07e 16bf 6810 fc3d b046 ce3d 2b81 49bc
00000140: 34d9 e43d 2465 e9bd 5d8d db3d ab43 be3d
00000150: b457 72bd 02ec 16be 76f1 41bd fef2 0c3e
00000160: 91c0 1cbf a6df 4a3d 4b78 11bd 51e4 53bd
00000170: b7d5 77bc 3fea fbbd ca36 cbbc a1e7 9fbd
00000180: e587 b0bb 56bd 9dbe 5566 9bbe 0794 09bf
00000190: ce8b e83e 3672 1dbf 5374 f8bc cab0 3dbc
000001a0: 07c3 08bd cc29 5f3e 4037 21be 3ab8 453c
000001b0: f452 743d bfa2 a6be 5310 9cbe bcc1 f2be
000001c0: 1579 c6be 3659 b7bd a459 e0bb 846a ec3c
000001d0: 60a6 50bd a88f c63d 9c7e 653b 083a a9be
000001e0: 6181 4b3d 8534 193e 46a5 593e 8d51 24bf
000001f0: 7c31 f63d ab39 02be 4423 ecbc 3454 d03b
00000200: 6031 11bd d286 cb3e 5fc1 fb3b 69ff f33d
00000210: 1ee2 d93d 81dd bb3e d3a3 3b3f b980 303c
00000220: f1b1 dbbc 8939 313e 0e12 ac3b ff8d 06be
00000230: b371 06bd 01e1 423f f38a 7bbe 3c04 023e
00000240: 13f2 1fbc 53f5 ad3e 0bf8 e63e 3f10 42bf
00000250: b4b3 203e e05e d7bc 4f8c 353d 168f 06be
00000260: a8cb b73b ec33 13bf 441c 99bd 411d 3cbc
00000270: e8fe f83c fc24 55be 0200 0abe a184 6a3d
00000280: 07db 1ebf 3d7c c1be 9264 403a 7df0 18bb
00000290: 4def 24bd bce5 8e3c a79f 023e e3d0 0e3d
000002a0: 2128 20be 1fc2 ba3e 2f8d 9d3e 6ac4 0dbe
000002b0: 353a f33d 1a1f bc3d da28 5ebb 0f28 dcbb
000002c0: 6acd 48bd eb39 043f 1391 5ebe 1e81 a6bd
000002d0: 5cb2 8c3c 8f2f c7bd 2433 02bd 8a86 13bf
000002e0: c76f b5be 6f7d 5fbe 1cf8 babb ba4c 813d
000002f0: 84d6 303d 54ad 713e 6b6f 9c3e 4cd8 813e
00000300: 0bb9 2d3d 739a d7be 49f4 f9be 3c96 3fbd
00000310: 080c 30be 76b6 873e 1724 91bc 79f4 613d
00000320: cc6e a5bd e0f6 eb3e 75df 993d c985 b23d
00000330: bc2f 693a 8eb5 53be c6d6 a4be 241b abbd
00000340: 9090 0bbe ced9 fb3d f800 b43c 7e8f 41bc
00000350: 4208 a93d d5ba bc3d 1caf 1abf 13b8 4f3b
00000360: 4d30 fb3d 1c7b 573e 5432 923e cbe6 f63e
00000370: 1343 94bb e633 1bbf 3c9f 82bc 3f74 aebd
00000380: 9954 b6bc 0aee 4ebe 5131 dd3c c77f 7cbc
00000390: 1f84 f3bd 51b2 d6bd fc68 c5bd 0424 3fbf
000003a0: bcfd aebe 3129 283f 218f 0bbd 453e 9d3d
000003b0: ee69 ce3c acdc 173c eece 1c3d 4eb4 1d3c
000003c0: bc86 1dbd 2110 163e 23bc 013e b085 d63a
000003d0: 9011 3a3d 9a97 a23d 8a36 f6bd 4a05 a8bc
000003e0: af5f 4abc f751 f33d 2706 b1bc 81ab 6fbc
000003f0: e196 edbd 4166 b23e 9db0 a13e 1953 a0be
-0.11331368 -0.21397196 -0.061200127 -0.7458925 0.036166504 0.0013452107 0.07189553 0.030082135
-0.039292827 0.36172011 0.014588922 -0.057690874 0.023939464 -0.46272558 -0.59444284 0.46636936
0.36583114 -0.53245145 -0.00090663135 -0.026242921 0.0046175835 -0.37599993 -0.111206785 0.016521022
-0.005082492 -0.0063030343 0.03839512 0.14478672 -0.25081882 -0.004263521 -0.016722774 -0.11158192
-0.059634853 -0.51863414 0.08944597 0.052315015 0.014728321 0.5106221 0.44653207 0.45498562
0.21866553 -0.1268221 0.033295907 -0.050640848 -0.015409238 -0.5803728 -0.40990463 0.0125352405
0.04673652 0.115646966 -0.03168809 0.0007193311 0.0702788 -0.15550491 0.0074443826 0.13548791
-0.028718635 -0.8260121 0.22442792 -0.034929376 0.10660211 -0.2744762 -0.36410227 -0.1270363
0.06756393 0.17337124 0.011572706 -0.1036509 -0.044170775 -0.8772214 -0.27204934 0.024420364
0.1031568 0.10467474 -0.022235354 -0.14840001 -0.58787155 0.12307817 0.10072076 -0.012298862
0.11174241 -0.11396244 0.10720322 0.092902504 -0.05916567 -0.14738467 -0.047349416 0.13764569
-0.61231333 0.049529694 -0.03551511 -0.05173141 -0.015126637 -0.12300538 -0.024806399 -0.078078516
-0.0053872936 -0.30808514 -0.3035151 -0.53741497 0.45419163 -0.615024 -0.030328905 -0.011577794
-0.033389118 0.21793288 -0.15743732 0.012067849 0.059649423 -0.3254604 -0.30481204 -0.47413433
-0.38764253 -0.089525625 -0.0068466235 0.028859384 -0.050939918 0.09695369 0.0035018092 -0.33052087
0.049683932 0.14961441 0.21254453 -0.64186937 0.12021157 -0.12717311 -0.02882541 0.006357694
-0.03544748 0.39751297 0.0076829637 0.1191395 0.106388316 0.36692432 0.7329685 0.010772877
-0.026818248 0.17307104 0.0052511757 -0.13140105 -0.032823276 0.7612458 -0.24564724 0.12696928
-0.009762305 0.3397623 0.45111117 -0.7580604 0.15693551 -0.026290357 0.04432326 -0.1314052
0.0056089945 -0.575011 -0.07476094 -0.011481584 0.030394986 -0.2081489 -0.13476565 0.05725539
-0.6205296 -0.377901 0.0007339205 -0.0023336702 -0.040267278 0.01744353 0.12756215 0.03486718
-0.15640308 0.36476228 0.30771777 -0.13844457 0.118763365 0.0918562 -0.003389886 -0.0067186425
-0.049024023 0.51650876 -0.21735029 -0.08130096 0.017174892 -0.09725868 -0.031787053 -0.57627165
-0.35436842 -0.21825193 -0.0057058465 0.063134626 0.043173328 0.23601276 0.30553755 0.25360334
0.0424128 -0.42110023 -0.48819187 -0.046774134 -0.1719209 0.26506394 -0.017717404 0.055164788
-0.080777735 0.46086788 0.07513324 0.08716924 0.00088953576 -0.20674726 -0.3219511 -0.08354786
-0.13629365 0.12297402 0.021973118 -0.011813996 0.08253528 0.09215323 -0.60423446 0.003169541
0.12265072 0.21043056 0.28554022 0.48222956 -0.0045245974 -0.60626066 -0.01594507 -0.08518266
-0.022257136 -0.20207992 0.027001055 -0.015411324 -0.118904345 -0.1048323 -0.09639165 -0.7466433
-0.3417796 0.65687853 -0.034072045 0.076778926 0.025196996 0.009268921 0.03828328 0.0096255075
-0.03845857 0.1465459 0.12669425 0.0016366746 0.045426905 0.07939072 -0.12022121 -0.020510335
-0.012351914 0.11880868 -0.021609379 -0.014628292 -0.116010435 0.3484364 0.31580058 -0.31313398

pos_net.linears.0.bias f4 [30]
00000000: 7c57 86bb c22b 0abe 70d1 d4bd f5ba d93e
00000010: 7dee e8bd f3b3 7cbe 7113 28bc 3c4f 33be
00000020: 113b 073e 28d4 013b 189e edbd e0c6 03be
00000030: bf62 bbbe 23e5 063e 85ee 8fbe d063 343c
00000040: 309e 0dbe c2cb e3be ccd7 ef3d 9d9d 393e
00000050: 2298 cebe ebee 913e a102 e6bd 6c15 a9be
00000060: 4ef1 923d 55f2 e7be 9b08 02bf eb3a 823d
00000070: 6549 89be b3f3 efbe
-0.0040997844 -0.13493255 -0.103915095 0.4252545 -0.11373613 -0.2467802 -0.010258541 -0.17510694
0.13206126 0.0019810293 -0.116024196 -0.12868834 -0.36598775 0.13173346 -0.28111663 0.011010125
-0.13829875 -0.44491392 0.11711082 0.18126531 -0.40350443 0.28502592 -0.1123097 -0.33024156
0.071749315 -0.45302072 -0.5079438 0.06358894 -0.26813808 -0.46865615

pos_net.linears.1.weight f4 [30, 30]
00000000: e0e5 673d ef73 c43d 7058 d7bd 9215 7a3e
00000010: 43e3 1cbe 4bf7 333e 7e07 d4be 67e6 55be
00000020: 60c1 e23d 6a56 02be 7b7d 5e3d 623d 413e
00000030: dfc9 8a3c d4d3 94be 3b2b 3a3e 89ce 5bbe
00000040: a9a1 fdbd dd36 943e 4b79 49bb 306c ea3d
00000050: 3ea4 bf3d e392 eebd a51b a43c 1926 8e3e
00000060: 98c0 d33e 89aa 293e 6897 0c3d c471 febd
00000070: fa58 1c3e bd98 9abe 9b58 00be 77e1 3cbe
00000080: 9608 58be 944f 993e f2fb 78bd f3cf 133c
00000090: c6c4 39be 6c77 f3bd d096 1cbe 2900 1dbe
000000a0: 66c3 5dba 46e1 00bd 8026 fabc ac2c 3dbe
000000b0: 5f18 8fbd c80c 173b 3c10 aabd edd6 2ebd
000000c0: 7419 ebbd 4373 40be fa39 9dbd 928b 31be
000000d0: 82f0 523e 526f 28ba 10fa d73c 092c 073d
000000e0: a2fc 6a3d 961b 98be 81bb 59be f696 70be
000000f0: c5a3 a03e 37bd 6cbe 3f6b 2dbe 5763 1fbe
00000100: 1f6b a3be d6f8 86bd f2e0 10bd f8d2 4a3e
00000110: 601d be3e 34a2 a33e 36c6 993d 780b 2abe
00000120: a8d1 ec3d 4307 893e 0c29 9abb cfe4 8f3e
00000130: 9cb8 873c 2424 2cbd 237e 2dbe 9a9e 84bc
00000140: 7d96 6bbd f976 b1bd 3d65 45be 7847 20be
00000150: 4b59 81be 34db 9abd da6f e53c 0d2c 5fbe
00000160: 1ec6 ad3c b1a5 4f3d 88ba 89ba 71ad 04be
00000170: 87dc 7cbd 016f 61bd eed9 1f3e 26cb f3be
00000180: e3fc 783e e440 53bd 075e 82bd 9911 e7bd
00000190: 0a7a 093e e49b 483e 5aa2 213f 8401 55be
000001a0: 4580 35bd 43c0 f43c 3a6e 61bd 05d5 493e
000001b0: 5f4c 94be 86c1 133e de82 e23b a839 3cbd
000001c0: 1e8f e43e 4960 c63e d282 0b3e ec01 093e
000001d0: 4c84 1c3d a6ac 8bbe c60e a6be 3ece 4e3c
000001e0: bc5a 29be e713 f8bd c6dc fcbd 5d84 04be
000001f0: 4e2b 04bd 32ab 743c 195d cabd 1f80 15be
00000200: 2138 19be c7b3 6abe 1d1e 4abe cf35 0dbe
00000210: ae61 abbd a88d 78be 3fca 27be fed8 81be
00000220: 26e3 b1bd e832 af3c c1b4 c7bd 69fb 50be
00000230: 6b4f 31bc 4b2c a3bc ff7c 60bc 8bb5 7cbb
00000240: a3f7 a1bd 2b5a 72bc 71c5 09bd f4e9 13be
00000250: 26e7 9dbd 89d8 0abe a8f5 39be 059f 6bbd
00000260: 37cf 06bd 3abe a23c b6ad 753a f0f8 61ba
00000270: 4e85 77bd 27d7 99bd 5abe 25be 7b78 3dbe
00000280: 8559 c0bd b47c c73c f736 343c 7e3e 53be
00000290: aaa4 7bbd c342 fabd c700 0fbe 4edf 743c
000002a0: 0b4f c43c dd16 1ebe 7432 303c 30c0 6c3a
000002b0: 7804 913b 98a3 ddbb 8276 c7bb c6e3 813c
000002c0: 6f2e 8b3b c0b3 1bbd dfbd e53c 5e42 85bd
000002d0: 57da 743e d6d1 6bbe e00e e6bd bfa5 aebe
000002e0: 16a3 c6be 7bb1 c7bd 7936 993e f6c9 9d3c
000002f0: a377 1d3c d4ff 023d 5cea 943e 18ad 7c3e
00000300: c7df 793e 4a46 b63c 8c95 c43d d3f2 a63e
00000310: 53e5 51be 5099 6abe e8b8 6c3d 66a5 db3e
00000320: 4cb1 4bbc 6bfd af3e 17c6 003d 15d7 83be
00000330: 72ca d2bc 8516 0ebe 7952 cbbb 03a0 50be
00000340: 3807 373d f39d b33c b696 6abe 7dc4 963e
00000350: c9d8 77bd 8eeb f93c 5649 473e 74f3 ffbc
00000360: f206 223e 14de 6dbc f13c 94bd f0d6 22be
00000370: d3f9 cebd 72b4 0bbd 1c0f 3d3e 187f 193e
00000380: 9252 04be 9c34 543d 148d 503c 03c3 94be
00000390: 7685 803e 8815 c83a 8e72 44bc f8e7 e43d
000003a0: 840f 6f3e 2a5f 81be de86 55be 1dc7 79bd
000003b0: 669b 1f3d 08c3 49be 02ac 38bd a736 80ba
000003c0: deb6 67bc b1a3 0fbe 2a69 eabd bae0 a5be
000003d0: 00f0 e1bd 3d6c d8bd 4125 9a3d 3a91 90be
000003e0: f0b1 b43e 823a 89be c52e f93e a7de 14be
000003f0: a656 5bbd fbc1 0abe cd7e f3bd 4116 5a3d
0.05661571 0.09592425 -0.10514915 0.24422291 -0.15321068 0.17574804 -0.41411966 -0.20888673
0.110720396 -0.12728277 0.054318886 0.18871072 0.016941963 -0.29067862 0.18180554 -0.21465506
-0.1238435 0.28948107 -0.0030742462 0.114464164 0.093574986 -0.1164911 0.020032713 0.2776344
0.41357875 0.1656896 0.03432408 -0.12424043 0.15268317 -0.30194655 -0.125338 -0.18445383
-0.21097025 0.29943526 -0.06078715 0.009021747 -0.1814147 -0.11888012 -0.15291905 -0.15332092
-0.00084595976 -0.031464837 -0.030535936 -0.18474072 -0.0698707 0.002304839 -0.08303878 -0.042685438
-0.11479464 -0.18793969 -0.07677074 -0.17338398 0.20599559 -0.00064252794 0.026364356 0.03300098
0.057369836 -0.29708546 -0.21262933 -0.23495087 0.31374946 -0.23119055 -0.16935442 -0.15565239
-0.31917664 -0.065904304 -0.035370775 0.1980704 0.37131786 0.3195969 0.07508509 -0.16605937
0.11563426 0.26763353 -0.0047046 0.28104255 0.01656752 -0.042026654 -0.16942649 -0.016188908
-0.057516564 -0.0866527 -0.192769 -0.15652263 -0.25263438 -0.07561341 0.028007437 -0.21794148
0.021212634 0.050695125 -0.0010507861 -0.12956788 -0.06173375 -0.055037502 0.15610477 -0.47615927
0.24315219 -0.051575556 -0.063655905 -0.11282653 0.1342546 0.19590718 0.63138354 -0.2080136
-0.04431178 0.029876834 -0.05503676 0.19710167 -0.28964517 0.14429292 0.0069125732 -0.045953423
0.4464044 0.38745335 0.13624123 0.1337964 0.038212106 -0.27280158 -0.32433146 0.012622414
-0.16538519 -0.12113171 -0.12346797 -0.12941118 -0.03226786 0.014933394 -0.09881038 -0.14599656
-0.14962818 -0.22920142 -0.1973805 -0.13790058 -0.0836824 -0.24272788 -0.16385745 -0.25360864
-0.08685903 0.021386579 -0.09751273 -0.20408405 -0.010822157 -0.019918581 -0.013701676 -0.0038560356
-0.07908561 -0.0147920055 -0.03363556 -0.14444715 -0.07710104 -0.13559164 -0.18160117 -0.0575247
-0.03291246 0.019866098 0.0009371893 -0.00086201634 -0.060429864 -0.0751174 -0.16185895 -0.18502991
-0.093920745 0.024351455 0.010999433 -0.20629308 -0.061436333 -0.12219765 -0.1396514 0.014945818
0.023963472 -0.15438409 0.010754216 0.0009031324 0.0044255815 -0.0067638867 -0.0060871253 0.015855681
0.0042474787 -0.03801322 0.02804464 -0.06506799 0.23911415 -0.23029265 -0.11233306 -0.3411083
-0.387963 -0.097506486 0.29924372 0.019261342 0.009611043 0.031982258 0.29085052 0.24675405
0.2440177 0.022250313 0.09598836 0.32607135 -0.20497636 -0.22910047 0.057793528 0.42899626
-0.012432408 0.3437303 0.031438913 -0.25750032 -0.0257313 -0.13875778 -0.0062049 -0.2037354
0.04468462 0.021925902 -0.22909054 0.29446784 -0.060509477 0.030507829 0.19461569 -0.031244017
0.15822962 -0.01451828 -0.07238186 -0.15902305 -0.10106244 -0.034107633 0.18462795 0.14989889
-0.12922123 0.051807985 0.012728948 -0.29055032 0.25101823 0.0015265206 -0.011990203 0.11177057
0.23345762 -0.25267917 -0.20852229 -0.060980905 0.03896656 -0.19703305 -0.045085914 -0.0009781913
-0.01414272 -0.14027287 -0.1144584 -0.32398015 -0.110321045 -0.1056752 0.07526637 -0.282358
0.35292006 -0.2680245 0.48668495 -0.1453806 -0.05354943 -0.1355056 -0.1188942 0.05324388

pos_net.linears.1.bias f4 [30]
00000000: d1d2 573e 8cb0 adbd f2b3 5ebe 5b3e ccbe
00000010: 32c1 35be e958 acbe 8a71 4d3b 7b3a 28be
00000020: d23f b9bd 26db e2bd 2e66 73be 5669 b53c
00000030: 8834 bcbd d7a9 ba3c 75ae 163d 207e 92bb
00000040: 62be 893c b968 cdbd 8385 f93d 1dc0 ab3c
00000050: c00d 84be 2e42 303e 197f b03d 06c6 ddbd
00000060: 6b3f 4dbe ec98 cfbc 5d3c 613e e8f5 3cbe
00000070: 2aca 543e d604 983d
0.21076514 -0.08480939 -0.21748331 -0.39891323 -0.1774948 -0.33661583 0.0031348192 -0.16428559
-0.09045376 -0.110769555 -0.23769447 0.022144955 -0.09189707 0.022786064 0.03678747 -0.0044706017
0.016814414 -0.1002974 0.121836685 0.02096563 -0.2579174 0.17212746 0.08617992 -0.108287856
-0.20043723 -0.025341474 0.21995683 -0.18453181 0.20780244 0.074227974

pos_net.linears.2.weight f4 [30, 30]
00000000: f20d e6bc 45c9 923c 5fe4 29be 362c 2abb
00000010: 881f 5dba 1015 2bb9 7860 2dbe 8c86 1f3a
00000020: 0baa c53b f141 923a f9f4 303c b8f8 f0ba
00000030: 8c0b 81be 732e 2dbb 1028 89bd 0b5a 6fbd
00000040: b100 c4bd e726 c6bc bd75 a83b 8f60 d5bd
00000050: 6118 013d 12af c0ba 70cc d0bd 9644 5ebc
00000060: f67a 8fbd e5ef 013b 4aef dbbd 3507 2ebb
00000070: aa70 31bc 0066 edbd a2ac e1be f321 123c
00000080: cd95 563e 88c9 bebe 457f c73d af72 663d
00000090: 19d3 a83e 0d4b 39be e207 febe ed64 77bd
000000a0: ef02 8dbd 9c20 3e3e f946 383e d1ef cebb
000000b0: f817 9dbe afeb 4cbe 7c7d 80be c828 41be
000000c0: d3ad febd 619d b83d b5ba d0bd cfce 1a3f
000000d0: a7f7 40bd f713 96be dbe2 033e 71db 4c3b
000000e0: 6c7f 79be 21c0 97bb 6a78 8a3e 16da 30bc
000000f0: 83d8 903d 7e12 32bd 6af7 a6be 897c 303e
00000100: 194a f2bd 9a8e 9abd e586 a1be 84d0 e83d
00000110: 1456 9fbe 0155 b4bd df25 033e 35c9 9fbe
00000120: 6a84 66be ef37 e73e 8785 153e 5901 a3bd
00000130: 9e2f 86be e41a a83e 9087 19bb 6b28 08be
00000140: e3c7 773d a3e4 ad3d 16d9 4fbd f70c 713e
00000150: 6dae 33be 36f8 e9bc 2a48 923e fa12 cebc
00000160: a375 81be 340f 873e 240f b2bc 85ad 35bc
00000170: 45a6 c5bd e8f5 58bc 7eae 04bc a32c 89bb
00000180: d8be a5bd 2f20 52bd 3af8 dfbc 9926 f53c
00000190: da97 a6ba 4f97 31bd 7ad3 383d e13b b1bd
000001a0: 7239 32bc f857 c2ba 8477 a03d e1d1 ccbc
000001b0: 7ccd 78bc 240a b23d 41c6 a33b 2f39 2abd
000001c0: ccc5 9abd 6236 41bd 18d3 a8ba 00a2 e4ba
000001d0: e941 bdbb f497 193b 065d 2abc 061e c3bc
000001e0: d012 dbbe 5592 98bd e7e5 333d 3eed 18bd
000001f0: cbba 1c3e d896 8e3b 43ad 863d 6773 5bbe
00000200: 713a 1d3e 6519 c1bd cca8 0fbe ca78 a03c
00000210: d078 32bd eb3b f03d 1aa3 36be f9ee 803e
00000220: 4d11 ea3d 1367 1e3d 5e32 f63d f03a 3d3e
00000230: f6a2 053e 636f 47be 44d5 8dbc 1416 7dbe
00000240: 0771 c53c 07d5 803d 4e13 13be 0096 13bc
00000250: e323 fc3d ce58 b83d 4a85 e43d 0c3a a23c
00000260: c92c cb3e 1a0c 4abd 5edd 163c 7362 c1bb
00000270: c9c9 48bc e8fa e8bb 52a1 3d3e d566 a33c
00000280: 5035 b138 ca46 06bc f348 67be 3c2a 4e3e
00000290: 331c b4bc 3ee7 c3bd d967 cb3d 7365 1ebe
000002a0: 0912 49be 863e 353e 1124 0dbc 88e9 f4bc
000002b0: 6fa4 8c3e 313f 8abe e3e4 33bc f688 243b
000002c0: 2e3e babe 090e 9b3b 5e42 1fbe 548f 33be
000002d0: 86ab 4fbe c9b9 ecbd 1a54 85be 176b 7e3e
000002e0: aa11 ebbb db50 22bc 441c 783d 3520 3bbe
000002f0: 92ed fbbd b11e 39be 228f 723e e26d 89be
00000300: 03b1 f33e 8be6 8b3d a25e 1fbe b4d5 9dbd
00000310: 6fec d0bd f994 b43d 26ec bdbc d503 153f
00000320: ee91 a83e 109c b2be bc29 9e3d a882 8abd
00000330: 3c44 133d 1d56 40bd 62f0 0fbd 0342 353b
00000340: 62a4 0d3c 2abd e13c 65a6 0bbe 1726 bfbd
00000350: 4e46 d73c 5427 cb3a c3d4 ae3c 1329 45bb
00000360: b414 823b f779 c8ba 553c 97bb 38cc e9bc
00000370: 0d47 15bb 1094 f639 1b42 dd3c 5f06 863a
00000380: 257d 2ebe 99fd fd3b 937c 723c bef1 98bd
00000390: 3ecf 43bd 7f34 38bc d9e6 9d3c 7b3b 6d3b
000003a0: 7707 bcbb f50c d1bd 30bd 99bb 69a9 bdbd
000003b0: 9616 5bbe d0f7 71bb 2e3c 43bd 12d9 ebbd
000003c0: df58 383e 33d0 313e c456 703c 5e18 e83e
000003d0: 6415 0c3c 0a95 ceba 8639 7e3e c98d eebd
000003e0: 0858 afbd 35a4 e7be 18f1 7539 4ae5 9bbd
000003f0: 3a1c e2bd 9817 123e 1b9d a83e 2fea ea3d
-0.028082822 0.017918238 -0.16591023 -0.0025966293 -0.00084351795 -0.00016315677 -0.16931331 0.00060854177
0.0060322336 0.0011158568 0.0108005935 -0.0018384671 -0.25204122 -0.002642539 -0.066970944 -0.05843548
-0.095704444 -0.024188472 0.0051409886 -0.10418808 0.03151739 -0.0014700613 -0.10195243 -0.013566157
-0.07005875 0.0019826826 -0.10739 -0.0026554589 -0.010830084 -0.115917206 -0.4407702 0.008919227
0.20955582 -0.3726313 0.097410716 0.056261715 0.32973555 -0.18095036 -0.4961539 -0.060398985
-0.06885325 0.18567127 0.17995824 -0.0063152094 -0.3068235 -0.20011781 -0.25095737 -0.18863213
-0.12435498 0.09014393 -0.101918615 0.60471815 -0.04711118 -0.29312107 0.12879507 0.0031258727
-0.24365014 -0.004631058 0.27044994 -0.010794183 0.07072546 -0.043474667 -0.32610637 0.17235006
-0.11830539 -0.0754673 -0.3154823 0.11367896 -0.3112036 -0.08805276 0.12807415 -0.31208196
-0.2251145 0.4515986 0.14601718 -0.079592414 -0.26208204 0.32833016 -0.0023426749 -0.13296668
0.06049336 0.084908746 -0.05074414 0.23540102 -0.17547007 -0.028560739 0.28570682 -0.025155533
-0.25285062 0.26378787 -0.021735735 -0.011088734 -0.09650854 -0.013242222 -0.008098243 -0.0041862293
-0.08093041 -0.051300224 -0.027340043 0.029925631 -0.001271005 -0.04335719 0.045123555 -0.08653999
-0.010877954 -0.0014827242 0.07835296 -0.025002422 -0.01518571 0.086933404 0.004997999 -0.04155844
-0.07557258 -0.047171004 -0.0012880294 -0.0017443299 -0.0057756794 0.0023436518 -0.010398155 -0.023818027
-0.4278779 -0.074497856 0.043920424 -0.037335627 0.15305631 0.004351478 0.06576016 -0.21430741
0.15354325 -0.09428672 -0.14029235 0.019588847 -0.043572247 0.117301784 -0.17835656 0.25182322
0.11429081 0.038672518 0.120213255 0.18479514 0.13050446 -0.19476084 -0.017313607 -0.24715453
0.024101747 0.06290632 -0.14362833 -0.009007931 0.12311532 0.09001313 0.11158235 0.01980307
0.39682606 -0.049327947 0.0092080515 -0.0059016286 -0.012255141 -0.0071099885 0.1851857 0.019946495
8.449948e-05 -0.008195588 -0.22586422 0.20133299 -0.021986103 -0.0956559 0.09931917 -0.15468387
-0.19635786 0.17699632 -0.008614556 -0.029896513 0.27469203 -0.27001336 -0.010979864 0.002510605
-0.36375564 0.0047318977 -0.15552661 -0.17535144 -0.20280275 -0.11558873 -0.26040727 0.24845539
-0.0071737366 -0.009906973 0.06057383 -0.18274005 -0.12301172 -0.18078114 0.23687413 -0.26841646
0.47595987 0.06831082 -0.15563443 -0.07706776 -0.10201346 0.08817477 -0.023183893 0.5820897
0.32923836 -0.3488469 0.07722804 -0.06763202 0.035953745 -0.046957124 -0.035141356 0.0027657754
0.008645149 0.02755602 -0.13637693 -0.09333437 0.026278641 0.0015499392 0.021341687 -0.0030084297
0.003969753 -0.0015295137 -0.0046153464 -0.028539762 -0.0022777945 0.00047031092 0.02700906 0.0010225287
-0.17039926 0.0077511785 0.014800209 -0.07467984 -0.047805063 -0.011242985 0.019275116 0.0036198783
-0.0057381946 -0.102075495 -0.0046917424 -0.09260828 -0.21395335 -0.003692139 -0.047664814 -0.11516012
0.18002652 0.17364578 0.014669124 0.4533109 0.008550022 -0.001576097 0.24826631 -0.11648137
-0.085617125 -0.45242468 0.00023454835 -0.07612093 -0.1104054 0.14266813 0.32932362 0.11470448

pos_net.linears.2.bias f4 [30]
00000000: e93a 43be 27d8 b13e bef3 463e 8e0e 95bd
00000010: 8f4f 7d3e 001e 83be adae 6b3d 4d60 5bbe
00000020: 6967 a7be 0d8c 40be 5d3b 37be 8519 063e
00000030: 8b1e 9b3d c06f c03e 02fe 9e3e 9178 a5be
00000040: c27b f23d 8775 893e fc50 ffbd e9d3 30be
00000050: 2958 d5be f5be 4a3f 5468 72be 3fbd 26be
00000060: 6666 7cbe 5d4a 0bbe 70b9 93be 30a5 833d
00000070: d91c 193d 4aac 413d
-0.19065441 0.34735224 0.19428918 -0.07278167 0.2473738 -0.25608826 0.05753963 -0.21423455
-0.32696083 -0.18803425 -0.17893739 0.13095672 0.07574185 0.37585258 0.31053168 -0.32318547
0.11840011 0.2684748 -0.124666184 -0.17268337 -0.41668823 0.7919763 -0.2367261 -0.16283129
-0.24648437 -0.13602586 -0.28852415 0.064279914 0.037381027 0.04728345

pos_net.output_layer.weight f4 [6, 30]
00000000: 374a b6be 9f1b 7b3e fc4e 6ebe faa6 0d3b
00000010: c1b8 50be ef65 c23d 0f98 a03b 566f 5c3c
00000020: 7b67 113e 4826 173d 3ad8 93be ea68 643e
00000030: d019 ecbe 003c f5be f84c 2dbe dba4 3dbe
00000040: ae11 b6bd 684c 8a3e 3a20 b43d f873 d73d
00000050: bd2b 85be 841d 9c3d 6015 673e 56ed c6bd
00000060: 4073 483d 8127 723e 1180 94bd 72db 113e
00000070: 68d6 9abd fbfc e63d 5d07 aebc 3f7f da3d
00000080: 5c97 93be 8069 1bbd d772 3d3d d339 0c3e
00000090: 1f69 8e3e 31dc 00ba 5ea9 48bd bddd 743e
000000a0: 217c 46be 3486 d93d 7f49 14bd 8b9d b53d
000000b0: 123d ddbd bd64 3c3e 639d d4bd 86c8 a63e
000000c0: 46b4 e13c 64c5 463c 8198 0c3d 8204 db3e
000000d0: 5e8b 283e f293 69be 5c0e 273e dc50 c93e
000000e0: 1943 323e 29b6 9fbc 2e15 5bbe 566e 43be
000000f0: 0bb7 b4bd 6b46 543e 6de7 49bc 2ae5 5ebc
00000100: ca34 083e 4c2a 4a3e 9eaf a43e f972 5e3d
00000110: ee63 d9be 9fb9 8b3e c053 f63e e220 c03d
00000120: 5e21 e93b 95ca c93d 5c33 853e 7e7a 913e
00000130: e5b4 bfbe a24d a83e 7e60 f63c 79fc 96bc
00000140: 200a 973d f8c4 b33d ed2a dc3d 0889 cabd
00000150: 372b 2dbd 89ff ab3e d5ad e53e 4a05 0f3e
00000160: fa2f 66be 32ea b9bd b5f4 bf3e 93ef 1ebe
00000170: 2a63 963e b4d0 223d 54ac 9b3e a66a 983e
00000180: f7df 023e 10e6 42bb a850 313e 9f22 c7bd
00000190: e41d 12bf 4124 b13d 735e 6e3e 06af 06bd
000001a0: bc02 9b3e 4715 1b3e 59a0 ff3d f9fc 1d3d
000001b0: 556a 01bf bdc1 203f 3329 e43c 16c1 2d3e
000001c0: c386 92be a234 723d 05ad 0dbe 1ecc 33be
000001d0: 946b 643d 0dbf 053f 1ac6 b3be d708 51bd
000001e0: 6c39 5abd d2d2 0abf 3b28 123e c76b 07bd
000001f0: 05e6 e9be 401b a53e 0cc9 adbe bcdd 87bd
00000200: 13fb b5bd afb4 17be f00a f03d 8478 353d
00000210: e26a db3e 4e38 a3be 0826 bbbe cfc7 c9be
00000220: 8046 c83d 024b 79bd e61d 733e 13f8 c3bd
00000230: 0e41 4b3d 6c37 053f a8e9 19be 01c3 3d3d
00000240: ad39 403e ebe0 7abe c91a fabd 8a39 59bd
00000250: 626c 2ebd babe 9bbd 2101 c2bc abca 993e
00000260: ff1c 86be e8c0 2ebd 9362 23be 2070 163e
00000270: 6a89 8dbf f949 153c 159a ecbc 905e 043e
00000280: 800e 36bd cfae 54be b0c3 213d 7e75 b9be
00000290: 98f2 e8bd 345e 0d3c 1fd3 db3c de26 fdbc
000002a0: 3cef 0fbf 71f9 f03e 33f9 553e dee0 f13e
000002b0: b629 a63c a009 523f 6aaf a33b fca4 ebbe
000002c0: 207e 24bd cf3e 0c3e dad6 093f a1da 1bbf
-0.35603496 0.24522255 -0.23272318 0.0021614418 -0.20382978 0.094920985 0.0049009393 0.013454279
0.14199631 0.036901742 -0.28875905 0.22305647 -0.46113443 -0.4789734 -0.16923892 -0.18519919
-0.08890091 0.27011418 0.08795209 0.10520166 -0.26009932 0.07622817 0.22566748 -0.09713237
0.048938036 0.23647882 -0.07250989 0.14243868 -0.07560426 0.11278721 -0.021243745 0.106688015
-0.28826416 -0.03794241 0.046252098 0.13693933 0.27814576 -0.00049156236 -0.048989646 0.23912711
-0.19383289 0.106213 -0.036202904 0.088679396 -0.10802664 0.18397804 -0.10381582 0.32574862
0.027551781 0.0121320225 0.034325127 0.42776877 0.16459414 -0.22810343 0.16314071 0.39319503
0.17408408 -0.01949604 -0.21394798 -0.19085059 -0.08823975 0.20729987 -0.012323243 -0.013604442
0.13301387 0.19742697 0.32165235 0.054308865 -0.42459053 0.27290055 0.4811077 0.09381272
0.0071145734 0.098530926 0.26015747 0.28413767 -0.374427 0.3287173 0.030075308 -0.018430935
0.07374978 0.08777803 0.10750375 -0.09889418 -0.04227754 0.33593395 0.44859186 0.13966861
-0.22479239 -0.09077872 0.37491384 -0.15521078 0.2937253 0.039749816 0.30404913 0.29768866
0.12780748 -0.0029739179 0.17315924 -0.097234 -0.5707686 0.08649493 0.23278217 -0.03288176
0.30275524 0.15144835 0.12481756 0.03857133 -0.50552875 0.6279562 0.027851677 0.16968188
-0.2861844 0.059132226 -0.13835533 -0.17558333 0.055766657 0.52244645 -0.35112077 -0.05103382
-0.053277418 -0.54227936 0.14273159 -0.03306177 -0.45683303 0.32247353 -0.3394245 -0.06634089
-0.08885779 -0.14815019 0.11720836 0.044304386 0.42854983 -0.31878895 -0.36552453 -0.39410254
0.09779072 -0.06086255 0.23741874 -0.09568801 0.049622588 0.5203769 -0.15030539 0.04632855
0.18772002 -0.24499862 -0.1221214 -0.05303339 -0.04258383 -0.076047376 -0.023682179 0.30037436
-0.26193997 -0.04266444 -0.15955572 0.1469121 -1.105756 0.009111875 -0.028882066 0.12926698
-0.044447422 -0.20769809 0.039493263 -0.36222452 -0.11374396 0.008628417 0.026834069 -0.030902322
-0.5622442 0.4706531 0.20895843 0.47241873 0.020283561 0.82045937 0.004995276 -0.4602431
-0.040159345 0.13695835 0.5384346 -0.60880476

pos_net.output_layer.bias f4 [6]
00000000: 4d7f 12bc 86ec 7c3e 81c1 4c3d 414d c9be
00000010: 9cdb 783e d03b 933e
-0.008941484 0.24699602 0.049989227 -0.39316753 0.24302524 0.2875657

neg_net.linears.0.weight f4 [30, 12]
00000000: 1e6a 5e3c 637f 973e e801 753e 062c 3fbe
00000010: 123b d93d c426 b83e 5900 863c a70f f73c
00000020: 999d 9abc 30d3 053f 4eaa cebe 0492 5cbd
00000030: dc33 743e b989 053e 1b2b 4dbe 1a87 fbbd
00000040: 0649 7bbe 7c41 833e 23bd 3e3d 95fb 10bc
00000050: f2ae ab3b 3465 b8be 8804 323e 32e0 e8bd
00000060: a064 0b3d 86bf 8f3e b000 d43e 534a 2cbf
00000070: 2d8b 493e 049b d43c a1fa 023c 485c 41bd
00000080: 250d 74bc 4b7e eabe 20f2 b4bd ae3f 7a3c
00000090: 380e 13bb b744 753d 9aab 8e3e 9c77 0cbe
000000a0: e329 95bc 7401 063d ecfb 9cbc ab5b 65bd
000000b0: 89e8 a03c 2366 a2bf 0773 953c 2c5b 17bc
000000c0: 8231 bdbc a5f0 10be 03e8 29be c471 59be
000000d0: 4883 c039 f78f 903e d28c 93bc 2d8e e2bc
000000e0: 6e47 1a3c 1560 4ebe ac79 1fbf 16d0 7dba
000000f0: 505e 293f 1d04 3e3e 44eb c43e 73bb c93d
00000100: 1438 1a3e 1fc6 ea3c fa7f 8b3b d892 92bd
00000110: 7e81 2e3d 23de 073f 645c 06bb 1a30 4e3d
00000120: e87a 3fbc e1d0 e9bd fc79 93bd 3a36 62bf
00000130: d095 7abd 7a69 073d 4ee9 983b c54f bcbc
00000140: 5569 913b f50d acbd ca69 283d 0ad6 bc3d
00000150: 09d5 a33d 7e55 2c3e 3829 f4bd 921f 8e3e
00000160: 9c7f 173e 30d2 79be 3f9a b53c 1ce1 743d
00000170: ad72 903d 15a7 f63c 7a72 17bf 1435 ac3d
00000180: 6983 f83e 1cc4 b9bd 86ef 07bf 2b61 1b3e
00000190: 3c35 c73e 824f 103e c895 dcbc f345 14be
000001a0: f290 403c 32c0 c13d 38c3 8fbd a28c 07bc
000001b0: f639 a73b c5d7 e5be 1a79 c7be 984a 37bf
000001c0: 4225 803e 99b8 3b3e 1fcc 8fba 6d1a a63d
000001d0: 17c5 11bc ff96 bc3e faad 7c3d d8cc c03b
000001e0: fb14 b73d a1ab 023f 98c5 113f a103 fc3e
000001f0: 97b0 8abe 1142 4bbe ea10 a53c 5382 31be
00000200: d03d 8f39 a036 aebe bb0c 1fbe af35 8f3d
00000210: aa06 433e f790 b3bd 02a6 a6be 40a6 2cbe
00000220: b2fa c3be 6656 a9be cfb2 843c 5dca 88be
00000230: 5227 4a3d 9e32 743e 7258 f63d a1f0 85bc
00000240: 5b00 aebe 1f68 06bf 6b8d ccbe e738 91bd
00000250: 5d55 c63e 5170 aabe f859 14bd 8bb2 863c
00000260: 23e4 7d3d 3904 69be 5eb1 46be 410f 83bd
00000270: 6b0b a6bd a107 843e 7013 0d3f a922 b1be
00000280: 63e8 aa3d 899d a33d a96d b43c 3083 c1bd
00000290: 2e2a 013d 6212 1c3f eae9 643e fc6c 853d
000002a0: 5e4f 353e 7096 8b3e cb5e b13e 3fd8 febd
000002b0: f2db 9b3e fc13 96be 121e 523b 36ad 3dbe
000002c0: d29d 32bd b648 b23e 0bfe 8d3d b28f a9bd
000002d0: c7b9 b03d 8260 913e 96ac 803e de50 5d3e
000002e0: cc11 073f 7c2b 453f 36ce 793b 64d4 94bc
000002f0: 25bf 0a3d 8aaf 1abe 5be9 173f d8ff 033d
00000300: 5094 053c bf27 9d3e 9e5b de3e de50 bfbe
00000310: aefe c2be 7f92 0a3f c246 18bc 0b09 d1bd
00000320: 190b f8bc 6029 8ebc 38ce 98be a6cc c33d
00000330: 7a78 adbe c829 ce3e 0543 0a3f e5c4 af3e
00000340: 3b2b bebd b3a7 213d 5d73 78bd 1e9e 4fbb
00000350: 8c1e eebc 4869 673e e3c2 4ebe 02a9 2cbc
00000360: ed9a 4b3e d7b3 b63b 69a2 3fbe 4c83 953c
00000370: 190d 10bf 8928 113f 7862 5bba d253 54bd
00000380: 2069 253d 37e5 783c 5748 243e bc63 7c3d
00000390: 7bea 83be 6f6f a6be dc10 093f 220f 013e
000003a0: 3d52 403e 2d79 f4bd a60b 37bd b41e 953e
000003b0: 7989 b03c 3ee3 9b3d dd9a d7bc 4621 8dbc
000003c0: 0459 263e eb23 1cbe 3205 23bd 022c 943c
000003d0: fde6 3fbf c928 3bbd 2ccb 843c 9ae5 003e
000003e0: c8e9 b4bc 0d80 02be be89 893d 25b8 a73d
000003f0: 60a3 8fbe dcd4 813e 4ada 803e d262 babe
0.013575105 0.29589376 0.23926508 -0.18669137 0.1060697 0.35967076 0.016357588 0.03015883
-0.018873977 0.5227537 -0.40364307 -0.05385019 0.23847908 0.13040818 -0.20035975 -0.12281628
-0.24539575 0.25635898 0.046567094 -0.008849044 0.005239361 -0.36014712 0.17384541 -0.11370887
0.03403151 0.28075808 0.41406775 -0.6730091 0.19681998 0.025952823 0.007994325 -0.047207147
-0.014895712 -0.4579948 -0.08835244 0.0152739715 -0.0022438895 0.059879985 0.27865297 -0.13717502
-0.01820845 0.03271623 -0.019163094 -0.055995625 0.019642131 -1.268742 0.018243326 -0.009238046
-0.023094896 -0.14154299 -0.16592412 -0.21234804 0.00036718906 0.28234836 -0.018011484 -0.027655685
0.009416444 -0.2015384 -0.6229503 -0.00096821913 0.66159534 0.18556257 0.38460743 0.09850206
0.15060455 0.028658925 0.0042571994 -0.071569145 0.042603962 0.5307333 -0.0020501846 0.050338842
-0.011687018 -0.114167936 -0.07201001 -0.88363993 -0.06117803 0.033059575 0.004666484 -0.022987256
0.0044376054 -0.084010996 0.041116513 0.09220512 0.079996176 0.16829488 -0.11921924 0.2775846
0.14794773 -0.24396586 0.022168277 0.059784994 0.07053123 0.030108968 -0.5915905 0.08408561
0.48537758 -0.09070608 -0.5309986 0.15173785 0.38907802 0.1409283 -0.02692689 -0.14479809
0.011753308 0.094604865 -0.07019657 -0.008273276 0.005103345 -0.44891182 -0.3895958 -0.71598196
0.25028425 0.18332137 -0.0010970867 0.08110509 -0.008897088 0.3683395 0.061689354 0.0058837943
0.089395486 0.51043135 0.5694213 0.4922152 -0.27087852 -0.19849421 0.020149667 -0.17334871
0.0002732114 -0.3402605 -0.155322 0.06992661 0.19045511 -0.08767884 -0.3254853 -0.16860294
-0.38277203 -0.3307373 0.016198544 -0.2671689 0.049353905 0.23847434 0.12028588 -0.016350092
-0.33984646 -0.52502626 -0.39951643 -0.070909314 0.38737002 -0.33288816 -0.036218613 0.016442558
0.061985146 -0.22755517 -0.19403598 -0.06399394 -0.081076466 0.2578707 0.55107784 -0.34596756
0.083451055 0.07989032 0.022024946 -0.0944885 0.031534366 0.6096555 0.22354856 0.06514928
0.17706057 0.27263212 0.34642634 -0.124435894 0.30441242 -0.29312122 0.003206138 -0.18523106
-0.04360754 0.348211 0.069332205 -0.08279361 0.08629184 0.28393942 0.25131673 0.2161288
0.5276153 0.77019477 0.0038117296 -0.018167682 0.033873696 -0.15106025 0.5934045 0.032226413
0.008153036 0.30694386 0.43429273 -0.37366384 -0.3808493 0.54129785 -0.009294214 -0.10206803
-0.03027873 -0.017353714 -0.29844832 0.09560518 -0.3388098 0.40266252 0.54008514 0.34329906
-0.09285589 0.03946657 -0.060656894 -0.0031679939 -0.0290673 0.22598755 -0.20191531 -0.0105383415
0.19883318 0.005575638 -0.18714298 0.018251084 -0.56269985 0.56702477 -0.000836886 -0.05183775
0.04038346 0.015191368 0.1604322 0.06161855 -0.25764832 -0.32506892 0.5354135 0.12603429
0.18781371 -0.11937175 -0.044688843 0.29124987 0.021549927 0.076117024 -0.026318962 -0.01722778
0.16244894 -0.15248077 -0.039799877 0.01808739 -0.74961835 -0.045693193 0.016210161 0.12587586
-0.022084132 -0.1274416 0.06715725 0.0818942 -0.28054333 0.2535771 0.2516654 -0.3640352

neg_net.linears.0.bias f4 [30]
00000000: eaca 383e b8f7 aebe ae7f 03bf 2022 85be
00000010: 3a48 0b3e e089 05be 5e2b 3dbf d572 a63d
00000020: 5a52 dbbd 7c66 973e eb08 9b3d c83f 0cbf
00000030: d015 b03d 6232 ebbd 34a2 c0bd a9bb a83d
00000040: 0f7b 02bf 9499 983d 9195 67be a85b d0bd
00000050: 4caa 21be 8d0a a93e c305 62be b629 7abe
00000060: 8023 9a3e 3410 71be a03b d7bd 9594 923e
00000070: e602 24bd dd19 eb3d
0.18046156 -0.3417337 -0.513667 -0.26002598 0.13601771 -0.13040876 -0.738943 0.08127371
-0.10709067 0.29570377 0.0757006 -0.5478482 0.085979104 -0.11484219 -0.09405938 0.08238918
-0.5096902 0.07451168 -0.22615649 -0.10173732 -0.1578762 0.33015862 -0.2207251 -0.24429974
0.3010521 -0.23541337 -0.105094194 0.28628984 -0.040041827 0.114795424

neg_net.linears.1.weight f4 [30, 30]
00000000: a4f1 53bd 7ed9 7ebc 8601 af3a 2f64 13bc
00000010: d0eb 9d38 adc7 bcba a4e4 be3b 4583 6ebd
00000020: 6e40 0a3c d266 cb3c 5229 eebc 40e8 a4bc
00000030: 4002 f03c 4059 c1bd 0922 283c 5fa3 e6bd
00000040: 66a5 acbb f87c 423c 9166 45bd 2971 c43b
00000050: 2e5a 68bc 3500 5bbd f0a2 cd3b 63bd e3ba
00000060: 9487 b53b be71 4d3c 3b7f 90bd 52db a73c
00000070: 6258 b4ba fa8f 19bc a9b4 d63d 5154 b33e
00000080: 265f 6b3d 6ad3 a4be 477b 953d 36c9 b1bd
00000090: 3aa9 1d3d 6054 1fbe 71d9 493d 3e2e 7abe
000000a0: 2a63 88bd bb31 15be 5ae5 9abe 0d52 8c3e
000000b0: 9883 49be ef7c cdbe 0776 c83d cf94 57be
000000c0: 1234 df3e fd7a 7a3d 3420 093e 7116 e43c
000000d0: b7d8 49bd ebc9 8dbd efae 933e 0180 f83d
000000e0: 5bc6 97bc 17e2 1a3e 5160 b4bb d8a1 80be
000000f0: 6095 223e 908e cf3d ed9b 49bd 4c9e 95bd
00000100: 776a 613e f49a 09be 42e6 0dbe 2273 1e3c
00000110: 0687 013d f7af b93d dcef ff3d 8fea 3b3e
00000120: 9413 ccbd d4cd cabd 207b 13be bbcb d13e
00000130: a482 8a3d 9041 273c baa0 163e b412 08be
00000140: 9b9d 603e 6da9 b5be a080 79be 6737 a73d
00000150: b6ec ecbd 22df db3d a355 1dbe 50eb 8dbc
00000160: 09e3 9a3b e344 183e b1c3 573c c9b5 873c
00000170: 299b 993c 8894 c0bc 5a78 1cbc 125d c53b
00000180: 7aa5 0abc 5204 863c 7e4e 74bb 6327 ca3c
00000190: dcb5 00be a5c6 583c 58c5 27b9 8301 5a3c
000001a0: 8076 fb3b 7015 29bd 7bb4 843b 470b 69bd
000001b0: 3db1 063c 3ed7 f63a 416e aebc 130f ac3c
000001c0: c6d4 363c a1c8 05bb 5557 7d3c c212 2d3c
000001d0: 3683 87bd 2bb6 44bd cc63 83ba bab3 fbbc
000001e0: 7b6d bbbe 18d1 593d aa1b 663e 8b33 b83e
000001f0: fe7a f6bc 1390 88bd 2917 1abf 7254 eabd
00000200: 3748 eb3d 3a19 90bd f872 aebe c86b 19be
00000210: 3641 e33e 03c0 27be f0f9 fcbd b7c8 3bbe
00000220: 24e8 9f3d e667 37bc 5021 7ebd 639d a1bd
00000230: e7bd 263e 1296 f3bc 5da1 533e ea0b 983e
00000240: 8d1c 5c3e 918b a4bd df2e ef3d 0792 28be
00000250: 76fb 243b feb9 c13e b08a 4e3e 9b24 103e
00000260: 1bca ad3c 1551 c7be e74d 12bd 9ae0 913e
00000270: efc4 d63e dac4 1fba 5ca6 a13d ae48 dfbd
00000280: 9676 073e d1e6 243e 2876 333c a56d b83e
00000290: 3978 a33e b355 86be 6440 dc3e 5a72 863e
000002a0: 7ad0 b93d 68d2 4fbe 5e9b 1cbe e9a7 d23e
000002b0: 6c91 96be 1cc4 adbd 3c8f b7bb 5b6a e1bd
000002c0: f58e d7bb 1e62 b93e e08c 723b b4f5 70bb
000002d0: 8d66 993e 7981 89bd f593 cebd 644d 0ebd
000002e0: 15b6 5fbe 5bc7 43be 71ca 5fbe 26d9 863e
000002f0: 0816 0abe 4a00 063b ae86 ddbd 0ffa 353c
00000300: 6a4d 043d c652 2d3e 3d3a 5fbd fba4 713e
00000310: 4640 15bf 8852 9d3e 5ab8 3bbe 7e42 a73e
00000320: fe9a 11be f9b7 3a3e 2c5e 94bd 352e 763d
00000330: 7c93 b1bd 9663 78bb 8a3c 85be ee06 d1bd
00000340: a4cf 8f3c df41 96be 9013 2cbb 0a90 57bd
00000350: 0ffe 0fbd 81fa 00be 8da1 a23c b1ba 8c3c
00000360: 8ae0 463c 15dd 3fbc 0ca9 233c ea07 40bd
00000370: 898b 72be 1692 74bb 37ac edbc 64e3 debb
00000380: 1a5e 91bc a04d ddbd 15ef c2bb 762c 62bd
00000390: 4a14 83bd 3bdb 1abc 6081 d7bc 786f 963b
000003a0: d0f1 e9bb d63a d4bc 7cd6 c2bb cbe4 67bd
000003b0: 6586 febd 0387 aebc 05d7 c9ba 863f 59be
000003c0: f26b b1bd 9849 f1bd 0d12 a4bd 79cc 983d
000003d0: 08ab c6bc cfac 0fbc 27c4 27bd e05e e6bc
000003e0: 3def 01be f08f 82be 48dd 07be da31 9cbc
000003f0: b7a6 14be f24d 1cbd d98c 24be 82a0 9ebd
-0.05174412 -0.015554784 0.0013351894 -0.008996054 7.530267e-05 -0.001440277 0.005825596 -0.058230657
0.008438213 0.024829302 -0.029072437 -0.020130277 0.029297948 -0.09440851 0.010262021 -0.11261629
-0.0052687405 0.011870615 -0.048193518 0.005994935 -0.014181657 -0.053466994 0.006275527 -0.0017375167
0.005539844 0.012539325 -0.07055517 0.020490322 -0.001375925 -0.009372706 0.10483677 0.35025266
0.057463787 -0.32192546 0.07298904 -0.08680956 0.038491465 -0.1555953 0.049279634 -0.24431702
-0.06659539 -0.14569752 -0.30253106 0.2740635 -0.19679105 -0.4013438 0.09788137 -0.2105286
0.43594414 0.061152447 0.13391191 0.027842732 -0.04927894 -0.069232784 0.288444 0.1213379
-0.0185272 0.15125309 -0.005504646 -0.25123477 0.15877295 0.101346135 -0.049220968 -0.07305583
0.2201327 -0.13438016 -0.13857368 0.0096710045 0.03162291 0.09066766 0.124969214 0.18351196
-0.09964672 -0.0990254 -0.14402437 0.40975747 0.06763199 0.010208502 0.1470975 -0.13288385
0.21935122 -0.35480824 -0.24365473 0.08164864 -0.115685865 0.107359186 -0.15364699 -0.01732412
0.0047267717 0.14870028 0.013169215 0.016566174 0.018750744 -0.023508325 -0.009550178 0.0060230577
-0.008462304 0.016359482 -0.003727823 0.024676984 -0.12569374 0.013230954 -0.00015999877 0.0133060245
0.0076740384 -0.04128021 0.0040498353 -0.05689552 0.008220968 0.0018832458 -0.021292808 0.021003282
0.011159128 -0.0020413774 0.015462716 0.010563554 -0.066168234 -0.04802529 -0.0010024249 -0.030725349
-0.36606964 0.053177923 0.2247149 0.35976824 -0.030087944 -0.06668105 -0.6019159 -0.11441888
0.11488383 -0.070360616 -0.3407209 -0.14982522 0.4438569 -0.1638184 -0.12352359 -0.18338285
0.07807949 -0.011194205 -0.062043488 -0.07891347 0.1628338 -0.029734645 0.20667024 0.2969659
0.21495266 -0.08034433 0.11678862 -0.16461955 0.0025174296 0.37837213 0.20170093 0.14076464
0.021214535 -0.38929048 -0.035718825 0.2849167 0.41947123 -0.0006094702 0.07893059 -0.109025344
0.1322883 0.16103674 0.010953464 0.36021152 0.3192766 -0.26237258 0.43017876 0.26259118
0.09072967 -0.20295107 -0.15293643 0.4114373 -0.29407823 -0.084846705 -0.0056017917 -0.11006614
-0.006578321 0.3620767 0.0037010238 -0.0036767544 0.29961053 -0.06714148 -0.10086814 -0.034741774
-0.21846803 -0.19119017 -0.21854569 0.26337546 -0.13484967 0.002044695 -0.10816704 0.011106982
0.03230039 0.16926107 -0.0544989 0.23598091 -0.583012 0.3072703 -0.18332043 0.32667917
-0.14219281 0.18234242 -0.07244524 0.06010266 -0.086707085 -0.0037901155 -0.2602275 -0.102064
0.017555065 -0.2934713 -0.0026256777 -0.0526276 -0.0351544 -0.1259556 0.019852424 0.017178865
0.012138495 -0.011710425 0.009989034 -0.046882547 -0.23686041 -0.003731852 -0.029012782 -0.0068020094
-0.017745066 -0.108058214 -0.005948911 -0.055218183 -0.06400354 -0.009451683 -0.026306808 0.004590925
-0.007139422 -0.025906961 -0.0059459787 -0.05661468 -0.124279775 -0.021304613 -0.0015399164 -0.21215639
-0.08663167 -0.11781615 -0.080112554 0.07460875 -0.024251476 -0.008769228 -0.04095855 -0.028121412
-0.12688918 -0.2550044 -0.13268006 -0.01906674 -0.14516722 -0.038160272 -0.16069354 -0.07745458

neg_net.linears.1.bias f4 [30]
00000000: e0c1 5cbe 6114 cf3c 0823 5d3e cc68 42be
00000010: ddf0 2d3e ef64 973e f115 403e efc5 8bbe
00000020: fb31 b6bd c4b8 0d3c 5f21 073e 90ea 37bd
00000030: a367 9fbd 971d e7bd 86af 7abd 14a8 c23c
00000040: 7274 ddbd 948f 443e 6479 c8bd 8f40 2cbe
00000050: 9c47 9f3d 276a d83a e45c 8f3d 6c41 8b3b
00000060: 2a4d a3bd 26a8 7abe 0990 9b3e e8b8 4f3d
00000070: 86be adbd 5613 efbc
-0.21558332 0.025278272 0.21595395 -0.1898529 0.16986413 0.29569194 0.1875837 -0.2729945
-0.08896252 0.008650009 0.13196324 -0.04490143 -0.07783439 -0.11284941 -0.06120255 0.023761787
-0.10813226 0.19195396 -0.097887784 -0.16821502 0.0777733 0.0016511128 0.07000139 0.0042497423
-0.07973702 -0.24478206 0.30383328 0.05071345 -0.08483605 -0.029184025

neg_net.linears.2.weight f4 [30, 30]
00000000: 565b 903c cdcb 44be 0d09 9abe 3365 45bc
00000010: 438c 883e ff7d 2bbe 3646 e2bd c45b 94bd
00000020: 888f 87ba 3920 52bd 67e7 8dbe 7e72 81be
00000030: b343 d4be b5b6 423e 3ba2 2e3c 80a4 b4bd
00000040: 55a0 dc3a e18d 89bd 3285 cbbd d8bb 113c
00000050: 726e 6c3e e751 d2be a360 37be fd1f 523d
00000060: a337 893b ab92 06bc 4644 b63e 2f96 033e
00000070: 883e 57bc 6b5e 66bd 5ce2 9dbc ea12 03bc
00000080: 1fd8 5e3e 35c9 703c 9200 07be 29d8 b53e
00000090: 4ef7 bf3d 87c3 62bc 2349 97bc 3576 02be
000000a0: 493b c23e d186 1ebe 1491 91be 65c2 ad3d
000000b0: a34f 8e3b 0361 a1be a058 b3bb fb38 e83e
000000c0: 520f 41ba d4a7 223e 692a 8c3d 8440 a43d
000000d0: bdc8 e0bd 5ff7 8f3e 142e c7ba 5b9e 993b
000000e0: ba87 55bd 9914 983e e9f7 19bd af1d 9e3d
000000f0: b17b 013b adb3 41be 6a3d 3a3b f1fd 5cbb
00000100: 7492 0cbe 7cee b5be 59b9 d53e b826 e3bb
00000110: 8809 9cbb b36e 973d 60b8 3c3e 1876 c7bd
00000120: af24 113e f0f2 39ba 94b5 17bb 1cc7 d03c
00000130: 1ab6 d2bb 64f9 8abc 2394 af3e a304 723d
00000140: 6765 4ebe c92e 17be fa74 cdbd a62a 3fbe
00000150: d88c 303b 4504 b23a 78cc 6a3e 21ae 11be
00000160: 18ae 4439 224b e03d 9aac 0d3a 4a10 5bbe
00000170: 8445 51bc 16f0 aaba bf9f 623e 5621 17be
00000180: 03e3 643d d672 57ba aab8 dc39 5a6b 11bd
00000190: 7b56 ac3c e756 e8bd d03b be3e b009 9cbd
000001a0: 2ca5 9dbc f3fb c7bd cba5 23bc 00eb 653d
000001b0: b4f2 0a3e 1216 43bb 74f3 1bbe 099e bebd
000001c0: 9c8a c4bd 63e1 d9bd 2610 f8ba d091 f9ba
000001d0: a6c8 86be 31fc 7c3d be28 323d a2ca adbb
000001e0: 503d 98bb d6a1 07be 98f0 163b b48e 8cbb
000001f0: d843 b0bd 1bc7 923b 4325 72bd 2f13 09bd
00000200: f2f0 afbd 3da4 2ebd b41d 92bd 7a33 59be
00000210: 0eec 86ba 381f 32bc 616b 32bc c36d f7bb
00000220: 683c 82bb c27a 22be fc5b 1ebc 4e46 23bb
00000230: 43b4 2fbe 312b 1ebe f728 d9bd 72b6 4ebd
00000240: 631a d23b 67ca 2c3c 38ed 46be 17ba 24be
00000250: 80f5 a0ba 25f2 3abd 8d85 c7bb 7763 70be
00000260: 7fe0 b4bd e899 04bb 5b16 a43d 6969 ab3d
00000270: f8ad ae3d 616a f83a 95d1 073b 3098 22be
00000280: 4789 3bbe 8064 c33e f55a 523e 0c5e 763e
00000290: 80c0 06bc d653 c83e e100 9cbc c320 153f
000002a0: 4ee1 d7bb 6a7d a3bb a102 d1be f57e 9f3e
000002b0: 05b6 1dbf 7719 4a3e bf2d b5ba c8f3 153b
000002c0: faac 17be cede 0b3e 3ed0 82bc d2e4 b5bc
000002d0: 11c3 743c 34a8 1bbc aeee 9abe 903d c83b
000002e0: 7ecc 2c3e 63b8 ecba e10e 323e 8073 eab7
000002f0: cc04 de39 537c b83e 1f7c d23d 067a 3b3e
00000300: 104b a9bd 6f4c 963e 5eab 863d 088d 3dbe
00000310: 1cf0 05bc 4d43 493d 6d54 9a3e 3020 3c3e
00000320: 8ce2 fb3e d224 63be 433d 753e 758e ad3e
00000330: 2453 79bc 8ad9 45ba 4711 043f fcf0 693e
00000340: 2693 a33c 5c1d 063e 5567 20bc 5b2b 62be
00000350: 64d3 d53e 0d22 c43b a65e dabd a439 f13d
00000360: 3722 aebc 60d0 75bd 10dd 50bc 2399 6dbd
00000370: 6476 b03e 88ce 05be d436 8e3e 78ed 323e
00000380: 9cb4 acba d213 af3e 6ad1 9f3b 1513 a53d
00000390: c462 cabd faed 0e3e d00c dcbe e646 f1bd
000003a0: 5287 4bbe f7ff 87be 9a80 ebbb 8701 2f3b
000003b0: a3e9 e53e b825 aebb 0485 daba a30f 703d
000003c0: d1e5 25bd 422f 8b3d cb4b 883d 612e efbc
000003d0: 428e 55be ba8f 023f 9186 97be aa72 bbbc
000003e0: 5304 59bd 70b1 18be 8cf5 b43d 280a f53d
000003f0: 2f9b 9f3e f99e 78bd 05fc d9bb 7652 10be
0.017621677 -0.19218369 -0.3008503 -0.012048054 0.2666951 -0.16747282 -0.11048548 -0.072440654
-0.0010342458 -0.05130026 -0.27715608 -0.25282663 -0.414579 0.1901501 0.010658796 -0.088204384
0.0016832451 -0.067165144 -0.09937514 0.008894883 0.23089007 -0.41078112 -0.17907958 0.051300038
0.0041875406 -0.008213679 0.35598963 0.12850259 -0.013137467 -0.056242388 -0.019272976 -0.008000115
0.21762131 0.014696409 -0.13183811 0.3551648 0.093733415 -0.013840563 -0.018467491 -0.12740405
0.37935856 -0.15481116 -0.28430998 0.084843434 0.0043429895 -0.31519327 -0.0054732114 0.45355973
-0.00073646486 0.15884334 0.068440266 0.08020118 -0.10975788 0.28118417 -0.0015196227 0.004688067
-0.052131392 0.29703215 -0.03758994 0.077205054 0.0019757564 -0.18916197 0.0028417953 -0.0033720697
-0.13727742 -0.35533512 0.41742972 -0.006932106 -0.0047618784 0.07394161 0.18429708 -0.097393215
0.1417415 -0.00070933904 -0.0023149 0.025485568 -0.0064303996 -0.016964622 0.34292707 0.059086453
-0.2015587 -0.14763941 -0.10032077 -0.18668613 0.0026939418 0.0013581595 0.22929561 -0.14226581
0.00018756872 0.109518304 0.0005404443 -0.21392933 -0.0127729215 -0.0013041522 0.22131251 -0.1475881
0.055880558 -0.0008218711 0.00042099255 -0.03550277 0.02103733 -0.113447 0.37155008 -0.07619035
-0.0192438 -0.097648524 -0.009988259 0.056132317 0.13569146 -0.0029767794 -0.15229589 -0.093074866
-0.0959675 -0.10638692 -0.0018925711 -0.0019040648 -0.26324958 0.061763946 0.043495886 -0.0053036967
-0.004645981 -0.1324533 0.0023031589 -0.0042894725 -0.0860669 0.0044793016 -0.059117567 -0.03346556
-0.085908785 -0.0426371 -0.07134572 -0.21211043 -0.0010293738 -0.010871701 -0.010889859 -0.0075509264
-0.003974486 -0.15867141 -0.0096654855 -0.002491373 -0.17158608 -0.15446164 -0.106035165 -0.050466962
0.006411837 0.010546303 -0.1942643 -0.16086613 -0.0012280196 -0.045641083 -0.0060889185 -0.23475443
-0.08831882 -0.0020233337 0.080120765 0.08369715 0.08529276 0.0018952602 0.0020724286 -0.15878367
-0.18314086 0.38162613 0.2054251 0.24059314 -0.0082246065 0.39126462 -0.019043388 0.58253115
-0.0065881377 -0.0049893158 -0.40822318 0.31151548 -0.61605865 0.19736277 -0.0013822837 0.00228809
-0.14812079 0.13659212 -0.015968438 -0.022203837 0.014939086 -0.009500552 -0.30260223 0.0061108544
0.16874883 -0.0018060323 0.17388488 -2.7948758e-05 0.00042346714 0.36032352 0.102775805 0.18308267
-0.0826627 0.2935519 0.065756544 -0.1851083 -0.008174922 0.04913645 0.30142537 0.18371654
0.4919628 -0.22182015 0.2394915 0.3389775 -0.015217576 -0.00075473695 0.51588863 0.22845834
0.019967627 0.13097137 -0.009790261 -0.22086851 0.4176284 0.0059855045 -0.10662584 0.11778572
-0.02125655 -0.060013175 -0.012748018 -0.05800737 0.34465325 -0.13067067 0.27776206 0.174734
-0.0013176384 0.3419481 0.004877259 0.0806028 -0.09882119 0.13957968 -0.42978525 -0.11781101
-0.1987584 -0.26562473 -0.0071869614 0.0026703791 0.44904813 -0.005314555 -0.0016671722 0.058608662
-0.040502373 0.06796123 0.06655081 -0.02919692 -0.20855048 0.5100056 -0.29594854 -0.022881825
-0.05298264 -0.14911437 0.08835897 0.11964828 0.31173083 -0.060698483 -0.0066523575 -0.14093956

neg_net.linears.2.bias f4 [30]
00000000: 645d ff3e 2189 2a3e 2005 de3d 4c41 68be
00000010: c9a8 84be e13f 58be 5725 373e 83c9 f5bc
00000020: 6b34 57be a7be 283e d046 5ebe 0dd6 c0bd
00000030: a0f5 53bd 8342 19be 2a1d cdbd 762f ac3e
00000040: 4893 08bd 1119 8f3e bf26 82bc 3023 9fbd
00000050: 3c9d 2f3e c749 1f3e 7d85 7dbe 638d e33d
00000060: 2c6d a0bd b3d0 bb3d 79f5 6f3d 7fc8 ed3c
00000070: 8b0c ea3d 2d22 3dbe
0.4987594 0.16653873 0.10840821 -0.22681159 -0.25910023 -0.21118118 0.17885338 -0.030003315
-0.2101609 0.16478978 -0.217067 -0.09415827 -0.051747918 -0.14966778 -0.10015328 0.3362996
-0.033343583 0.27948812 -0.015887616 -0.07770383 0.17149824 0.15555488 -0.24757953 0.11110952
-0.07833323 0.091706656 0.05858371 0.029026268 0.11428174 -0.18470068
