data/MTMR_28002/sim/random/NN_Dist_0.02/train/N100/D6_SinCosInput/4/result/model/ReLU_Dual_UDirection_PKD.pt (torch_old, 22776 bytes, 20 tensors)

input_mean f4 [12]
0.001827438 0.25548935 0.0017626297 0.23887485 0.23787674 0.0009766421 0.92062044 0.921777
0.9422013 0.17003608 0.23539151 0.9209829
00000000: a586 ef3a 80cf 823e 0a08 e73a 9c9b 743e
00000010: f695 733e ac02 803a c8ad 6b3f 94f9 6b3f
00000020: 1b34 713f f01d 2e3e 790a 713e 89c5 6b3f

input_std f4 [12]
0.38410482 0.2787392 0.33107564 0.63804877 0.66694224 0.3832193 0.07012962 0.08577181
0.05140566 0.7119834 0.66572785 0.07023188
00000000: 63a9 c43e e8b6 8e3e bf82 a93e 2a57 233f
00000010: babc 2a3f 5235 c43e 1ea0 8f3d 21a9 af3d
00000020: be8e 523d 8b44 363f 246d 2a3f bbd5 8f3d

output_mean f4 [6]
3.456397e-08 0.36059123 0.19686747 -0.0071148057 0.002988093 0.0013554371
00000000: 7d73 1433 6a9f b83e a097 493e 5123 e9bb
00000010: e2d3 433b eca8 b13a

output_std f4 [6]
1.3837506e-05 0.20953542 0.15927114 0.06205335 0.039905995 0.009516387
00000000: a327 6837 7490 563e f917 233e a72b 7e3d
00000010: 7874 233d 9fea 1b3c

pos_net.linears.0.weight f4 [30, 12]
-0.38643816 -0.047832064 0.06569189 0.50524074 -0.04508327 -0.61394 0.037696265 0.35414386
0.007756315 0.060962327 -0.6088567 -0.40885285 -0.2279677 -0.5996323 0.36099502 -0.18743019
-0.6822067 -0.1373409 0.4680435 0.3205125 -0.32655045 0.2657962 -0.13911769 0.45707065
-0.519208 0.29729366 -0.4615113 -0.8069946 0.22645524 0.045201205 -0.26394832 -0.24197572
0.5780477 0.08286416 -0.698711 -0.5715799 0.15973473 0.23216507 0.5244465 -0.10405425
-0.1279707 -0.15136796 0.46847692 0.058892965 -0.4353401 -0.42066804 0.043924205 -0.15042047
-0.5825751 0.23947681 0.26418826 0.4174984 -0.85462755 0.05443454 -0.08092743 0.103448145
-0.0658213 0.06645025 -1.0020931 0.023849968 0.49689943 0.3547997 0.19103453 0.08523634
-1.0059204 -0.034680318 -0.07088225 -0.33216593 0.018910872 0.06820436 -0.037797183 -0.38897514
-0.3944129 0.2967461 -0.6091379 -0.5699815 0.017085573 0.0351527 -0.13879956 -0.045617774
0.06136447 0.09039581 -0.28987604 0.092376724 0.072472535 0.13089819 0.4478959 0.40736008
-0.014470921 -0.15084022 -0.19335125 0.48645204 -0.2176972 0.30509293 0.1287243 -0.04230044
-0.68311465 -0.48575163 -0.19702807 -0.41688907 -0.04246761 -0.04774173 0.02446998 0.18448213
0.046922974 0.5297325 -0.9281062 0.028672494 -0.82541174 0.26565796 0.5685454 -0.21235147
0.0020173413 0.14075652 -0.23112321 0.045400333 -0.10155961 0.64362186 -0.8712142 -0.20121202
-0.37049714 0.26029158 0.40468165 0.4555811 0.33486027 0.084027365 0.3032535 -0.52883756
0.11612812 0.030626656 -0.413345 0.02255011 -0.31580314 0.1863222 -0.057987086 -0.31548762
0.5020841 0.5205992 0.26368046 -0.08577794 -0.33736935 0.20843844 -0.89837825 0.2921522
-0.8723894 -0.21015717 0.130279 0.03155904 0.23719096 -0.32566988 -0.10711877 0.044311397
-0.10536268 0.21846387 -0.70876503 -0.23265004 0.5163061 0.013150318 -0.6272347 0.14112803
-0.9649135 0.043200236 -0.49145076 0.3079078 0.011970293 0.7074219 -0.11079367 0.44262525
0.3596653 0.25141385 0.20626625 0.13972756 0.4151478 0.00748613 0.16686961 0.38253203
0.40270326 0.7199282 -0.120612174 0.0028622607 -0.7253546 0.168841 -0.02949532 0.16079639
0.71626365 -0.10574333 -0.09450071 -0.10268114 0.14841634 -0.06712379 -1.158023 0.07793197
0.68207127 0.13024135 0.18208393 0.21490361 -0.39899173 -0.54757315 -0.4313525 -0.30412966
0.34327087 -0.73712945 0.19192092 -0.053320885 -0.16217162 -0.05007553 0.18331046 0.22414443
0.32015938 -0.1523786 0.14600125 -0.022792079 0.16168228 0.16657498 -1.0081134 -0.18861297
-0.9239416 -0.5019974 -0.23416695 0.01219168 0.35907456 0.100289 -0.29223457 0.5593441
-0.41705868 0.15565026 -0.75327235 0.34428793 -0.06323002 -0.07128218 -0.3846315 -0.23725504
-0.6476055 -0.041807536 0.7680232 0.094571635 0.1775936 0.25649807 -0.4836481 0.18545777
-0.7051866 -0.1145485 -0.3075266 -0.3477497 -0.038368024 0.89565563 -0.04218024 -0.35002595
0.39339247 0.20831457 -0.7042045 0.71429336 0.28826627 0.003171159 -0.02371041 0.07296821
00000000: 39db c5be 8eeb 43bd 7889 863d 7557 013f
00000010: 3ca9 38bd 2c2b 1dbf 6667 1a3d 5852 b53e
00000020: b028 fe3b a2b3 793d 08de 1bbf 2955 d1be
00000030: 5d70 69be 8181 19bf 57d4 b83e b3ed 3fbe
00000040: 19a5 2ebf 18a3 0cbe 66a3 ef3e 371a a43e
00000050: 9f31 a7be 7116 883e de74 0ebe 2a05 ea3e
00000060: d1ea 04bf e036 983e 364b ecbe 3397 4ebf
00000070: e2e3 673e e624 393d 3c24 87be 7cc8 77be
00000080: effa 133f afb4 a93d b9de 32bf 0f53 12bf
00000090: 8091 233e aebc 6d3e 2042 063f 651a d5bd
000000a0: c00a 03be 3400 1bbe 35dc ef3e c039 713d
000000b0: e6e4 debe cd61 d7be dee9 333d d307 1abe
000000c0: a423 15bf 6939 753e af43 873e 5ac2 d53e
000000d0: dfc8 5abf c1f6 5e3d 48bd a5bd 9fdc d33d
000000e0: 51cd 86bd 1217 883d 9644 80bf 0261 c33c
000000f0: 9a69 fe3e 4ea8 b53e 8e9e 433e 6490 ae3d
00000100: 00c2 80bf f30c 0ebd b72a 91bd a711 aabe
00000110: f9ea 9a3c baae 8b3d 38d1 1abd c027 c7be
00000120: 7df0 c9be 1bef 973e 76f0 1bbf 4fea 11bf
00000130: 0bf7 8b3c 47fc 0f3d 7921 0ebe b4d9 3abd
00000140: 4f59 7b3d 7021 b93d a26a 94be 0230 bd3d
00000150: 7b6c 943d 2d0a 063e 9d52 e53e 8091 d03e
00000160: 7117 6dbc dc75 1abe dffd 45be 3e10 f93e
00000170: 04ec 5ebe 2435 9c3e 4ed0 033e 3a43 2dbd
00000180: 9ae0 2ebf 70b4 f8be bac1 49be 7c72 d5be
00000190: 84f2 2dbd d58c 43bd 4475 c83c e2e8 3c3e
000001a0: 4e32 403d 8d9c 073f 5e98 6dbf 94e2 ea3c
000001b0: 2f4e 53bf 5204 883e 318c 113f aa72 59be
000001c0: 5f35 043b 7a22 103e 90ab 6cbe b3f5 393d
000001d0: 7cfe cfbd 67c4 243f e507 5fbf 860a 4ebe
000001e0: cdb1 bdbe f044 853e 6f32 cf3e ed41 e93e
000001f0: ce72 ab3e 8a16 ac3d 0b44 9b3e e661 07bf
00000200: 94d4 ed3d c1e4 fa3c f5a1 d3be 02bb b83c
00000210: f3b0 a1be 3fcb 3e3e de83 6dbd 9887 a1be
00000220: 9588 003f fd45 053f 2001 873e 58ac afbd
00000230: adbb acbe e370 553e 1efc 65bf f994 953e
00000240: e954 5fbf 7133 57be dc67 053e 0d44 013d
00000250: 30e2 723e 34be a6be 1661 dbbd de7f 353d
00000260: 64c8 d7bd feb4 5f3e a071 35bf d03b 6ebe
00000270: a32c 043f 6e74 573c 7492 20bf de83 103e
00000280: 9204 77bf bbf2 303d 6f9f fbbe 17a6 9d3e
00000290: 0c1f 443c 9a19 353f cbe7 e2bd c79f e23e
000002a0: 0d26 b83e 51b9 803e 7637 533e be14 0f3e
000002b0: 418e d43e 364e f53b dedf 2a3e 3ddb c33e
000002c0: 1f2f ce3e 374d 383f 8403 f7bd c494 3b3b
000002d0: d7b0 39bf a8e4 2c3e 2ba0 f1bc cfa7 243e
000002e0: 0e5d 373f f68f d8bd 9789 c1bd 7d4a d2bd
000002f0: 74fa 173e 3378 89bd 193a 94bf cc9a 9f3d
00000300: 399c 2e3f fd5d 053e 3674 3a3e b10f 5c3e
00000310: a548 ccbe c12d 0cbf 3cda dcbe e2b6 9bbe
00000320: 33c1 af3e 84b4 3cbf eb86 443e 0067 5abd
00000330: 5110 26be 001c 4dbd bdb5 3b3e 1e86 653e
00000340: eeeb a33e 2309 1cbe 5a81 153e 74b6 babc
00000350: 0a90 253e a292 2a3e dc09 81bf c223 41be
00000360: 7087 6cbf e782 00bf 76c9 6fbe 9dbf 473c
00000370: 9fd8 b73e 5264 cd3d c59f 95be 2d31 0f3f
00000380: b788 d5be c862 1f3e 75d6 40bf 8246 b03e
00000390: be7e 81bd 64fc 91bd 6cee c4be fcf2 72be
000003a0: 79c9 25bf 613e 2bbd 2b9d 443f c6ae c13d
000003b0: 19db 353e b753 833e b9a0 f7be a4e8 3d3e
000003c0: 1c87 34bf 6798 eabd 2074 9dbe 400c b2be
000003d0: ca27 1dbd b049 653f 30c5 2cbd 9a36 b3be
000003e0: bd6a c93e 6a50 553e bf46 34bf eedb 363f
000003f0: a397 933e 38d3 4f3b 553c c2bc 5b70 953d

pos_net.linears.0.bias f4 [30]
-0.2662829 -0.54780143 -0.0089928135 -0.24529484 -0.14783064 0.5119678 -0.71158123 -0.19939655
-0.1338671 0.325336 -0.13417724 -0.073708326 0.31553948 -0.036767755 -0.4473059 0.5968252
-0.15504475 -0.68169314 0.24077879 -0.16706705 -0.22358546 -0.14733881 -1.0037698 -0.30663294
0.21186046 0.4806434 -0.5708238 0.17772688 -0.044214796 0.39242595
00000000: 3b56 88be b73c 0cbf 9856 13bc 922e 7bbe
00000010: ea60 17be 5210 033f 302a 36bf 9c2e 4cbe
00000020: 7514 09be 7192 a63e c265 09be 64f4 96bd
00000030: 648e a13e c999 16bd 4705 e5be 89c9 183f
00000040: 0dc4 1ebe 7183 2ebf b78e 763e a013 2bbe
00000050: 96f3 64be fcdf 16be 877b 80bf fefe 9cbe
00000060: f3f1 583e e416 f63e 8221 12bf 09fe 353e
00000070: 931a 35bd 0eec c83e

pos_net.linears.1.weight f4 [30, 30]
-0.44031155 0.18921115 -0.4682544 0.21338134 0.1875162 0.31516743 -0.5310162 -0.01630897
-0.20446014 -0.5265847 0.35714567 -0.05068416 -0.33486378 -0.34026 -0.3596884 -0.0042202165
0.36528698 0.35943535 -0.5514473 -0.010153694 -0.25112203 -0.35820362 -0.14264855 0.13464852
0.14752547 0.19202429 -0.36888945 -0.10122026 -0.048949853 0.18869467 0.07593083 -0.013431825
-0.7701161 0.2918469 0.34144086 0.33549798 -0.68223083 0.21798956 0.1473056 -0.117525086
-0.08305958 -0.9397566 -0.003126428 0.2783159 -0.29379368 -0.4473645 0.39583987 0.0059243427
-0.3921492 0.019343982 -0.11063235 -0.06990391 0.34174922 -0.0223516 0.27520934 0.014226824
-0.61361545 0.25283486 0.21231665 0.3450781 0.00595729 -0.0034732204 0.435663 -0.3982792
0.3171135 -0.79923195 0.14923838 0.030805403 0.49329847 0.18410318 -0.28389797 0.07401547
0.006385332 -0.17897154 -0.07955431 0.26552022 -0.7571466 0.12538823 0.4061718 0.35135892
0.61527145 -0.32290646 -0.14524628 -0.04212693 -0.32805994 -0.32492137 0.17886741 -0.1098855
-0.44687468 -0.62010634 -0.29327634 0.17103699 -0.18436694 0.07770042 0.2925953 0.13698049
-0.21934704 -0.012627485 0.2934718 -0.17782494 -0.096760586 -0.21824786 -0.3605867 0.33190784
-0.2664522 -0.49864042 0.033992562 -0.028881978 -0.16508335 0.7156762 0.30551347 -0.18038766
-0.00027230417 -0.17268875 0.30941117 0.23633076 -0.17068328 0.16544126 -0.39708537 0.35292363
-0.24328685 -0.21258484 -0.31345627 -0.12607569 -0.21233515 -0.1470395 -0.30430183 -0.33702073
-0.42742994 -0.30950582 0.08104487 -0.15155444 -0.25726005 -0.30905715 -0.06641048 -0.32868397
-0.1757448 0.013340438 -0.26295215 -0.10674775 -0.27891532 -0.2784217 -0.31710455 -0.24750358
0.06044931 -0.36303446 -0.26770514 0.091501795 -0.3322303 -0.1593018 0.041278534 0.61858267
0.09561073 0.36356834 0.36478665 0.44181326 -0.41428918 0.0691179 -0.41750136 0.61072606
0.644394 0.2744194 0.036828667 -0.17295691 -0.019938625 0.404018 0.20996317 0.6694649
-0.11750036 -0.25194776 -0.20162705 0.3071135 -0.31446773 0.05920226 0.45233527 -0.3893134
-0.547612 0.18851611 -0.30722308 -0.20784491 0.27465025 0.026493944 0.5573782 -0.374254
0.07049234 0.23502612 0.06135398 -0.09871379 0.29598853 0.49402815 -0.015357831 0.44731346
0.50940764 -0.38021988 0.05710607 0.34617823 -0.3477776 0.042603776 0.44267315 0.26497218
0.23412783 0.02681166 0.054295022 0.24195963 0.036105365 -0.62840575 0.09777248 -0.63940233
-0.055953354 -0.6466358 0.009492353 -0.019711979 -0.025131233 0.05805355 -0.15256815 0.04915078
0.014438188 -0.016794847 0.014430728 0.058849834 0.079252146 0.032635532 -0.013144445 -0.028973011
0.015175803 0.14056283 0.048065443 -0.04374634 0.053637765 -0.018269096 0.015374051 0.015347252
-0.025123307 0.09192528 0.07863261 0.05076894 0.009960888 0.069243595 0.086002514 0.0987228
-0.31970882 0.14929104 -0.21807916 0.20505083 0.34636033 0.22500663 0.17351009 0.06576125
0.025269179 -0.40358642 -0.33094773 -0.4838727 -0.4905562 0.5930177 0.3459753 -0.97452444
00000000: 8470 e1be 91c0 413e 0abf efbe a380 5a3e
00000010: 3f04 403e a05d a13e adf0 07bf 649a 85bc
00000020: 005e 51be 41ce 06bf ccdb b63e 329a 4fbd
00000030: 4473 abbe 8f36 aebe 1429 b8be be49 8abb
00000040: e506 bb3e e907 b83e a62b 0dbf ae5b 26bc
00000050: 1193 80be 7766 b7be 7612 12be 4de1 093e
00000060: eb10 173e 04a2 443e 14df bcbe 914c cfbd
00000070: a47f 48bd 2d39 413e 9f81 9b3d 2811 5cbc
00000080: 5426 45bf f56c 953e 56d1 ae3e 64c6 ab3e
00000090: aea6 2ebf a838 5f3e 47d7 163e feb0 f0bd
000000a0: 241b aabd e393 70bf c2e4 4cbb 6c7f 8e3e
000000b0: 206c 96be f60c e5be 86ab ca3e fd20 c23b
000000c0: c8c7 c8be 4577 9e3c 3793 e2bd c829 8fbd
000000d0: c1f9 ae3e b41a b7bc 3de8 8c3e a017 693c
000000e0: e715 1dbf 9273 813e 8969 593e 14ae b03e
000000f0: 5f35 c33b f89e 63bb 390f df3e 40eb cbbe
00000100: b35c a23e 779a 4cbf f2d1 183e 9d5b fc3c
00000110: 9e91 fc3e 8b85 3c3e 135b 91be 6c95 973d
00000120: 0c3c d13b 5144 37be 5fed a2bd 44f2 873e
00000130: 5cd4 41bf c665 003e c0f5 cf3e 51e5 b33e
00000140: 6e82 1d3f ff53 a5be 71bb 14be 4a8d 2cbd
00000150: 79f7 a7be 185c a6be 0529 373e a60b e1bd
00000160: c2cc e4be 4abf 1ebf 5128 96be 5224 2f3e
00000170: b0ca 3cbe 6621 9f3d 0dcf 953e 9d44 0c3e
00000180: 839c 60be 83e3 4ebc f041 963e be17 36be
00000190: 6a2a c6bd 5e7c 5fbe d29e b8be d3ef a93e
000001a0: 6c6c 88be cc4d ffbe c93b 0b3d e699 ecbc
000001b0: 9c0b 29be 8e36 373f 436c 9c3e 8bb7 38be
000001c0: 0cc4 8eb9 52d5 30be 246b 9e3e b100 723e
000001d0: 99c7 2ebe 6f69 293e c64e cbbe 68b2 b43e
000001e0: 3020 79be d7af 59be 577d a0be fc19 01be
000001f0: 636e 59be 8691 16be 73cd 9bbe fb8d acbe
00000200: 19d8 dabe 8c77 9ebe dafa a53d 1631 1bbe
00000210: 97b7 83be bd3c 9ebe 3802 88bd 4449 a8be
00000220: 72f6 33be da91 5a3c aaa1 86be 909e dabd
00000230: fdcd 8ebe 4a8d 8ebe 875b a2be 9471 7dbe
00000240: b299 773d a7df b9be a610 89be 4b65 bb3d
00000250: 171a aabe 0320 23be ae13 293d 6f5b 1e3f
00000260: 8fcf c33d a125 ba3e 51c5 ba3e 5935 e23e
00000270: b61d d4be b08d 8d3d bdc2 d5be 8b58 1c3f
00000280: 01f7 243f b380 8c3e a8d9 163d 9e1b 31be
00000290: 5456 a3bc 73db ce3e 9600 573e 0d62 2b3f
000002a0: 07a4 f0bd 4cff 80be 5277 4ebe fb3d 9d3e
000002b0: ea01 a1be 127e 723d 7d98 e73e 1654 c7be
000002c0: 4d30 0cbf 5e0a 413e 584c 9dbe 4cd5 54be
000002d0: f59e 8c3e d409 d93c 56b0 0e3f 389e bfbe
000002e0: 4a5e 903d b0aa 703e 504e 7b3d 752a cabd
000002f0: cf8b 973e 42f1 fc3e 699f 7bbc 4506 e53e
00000300: 8a68 023f 2eac c2be 0ee8 693d 463e b13e
00000310: e80f b2be 4c81 2e3d 0ea6 e23e 6faa 873e
00000320: 35bf 6f3e 20a4 db3c 7564 5e3d 44c4 773e
00000330: 38e3 133d 33df 20bf f03c c83d dfaf 23bf
00000340: 582f 65bd ec89 25bf d085 1b3c 047b a1bc
00000350: 04e0 cdbc 8fc9 6d3d d33a 1cbe 5452 493d
00000360: 268e 6c3c 5995 89bc dc6e 6c3c 860c 713d
00000370: f34e a23d d6ac 053d cc5b 57bc cf58 edbc
00000380: eea3 783c b4ef 0f3e 45e0 443d 5d2f 33bd
00000390: 46b3 5b3d 12a9 95bc 72e3 7b3c 0a73 7b3c
000003a0: 65cf cdbc 5243 bc3d 220a a13d 18f3 4f3d
000003b0: fe32 233c 96cf 8d3d 1622 b03d 2e2f ca3d
000003c0: e0b0 a3be c0df 183e 2550 5fbe d8f8 513e
000003d0: 2456 b13e 2368 663e a1ac 313e d6ad 863d
000003e0: 4f01 cf3c e1a2 cebe fb71 a9be 2abe f7be
000003f0: 2f2a fbbe 02d0 173f ad23 b13e 6f7a 79bf

pos_net.linears.1.bias f4 [30]
-0.07380418 0.14701788 0.11148724 0.18324688 -0.49149212 -0.03906963 0.16186662 -0.0015024841
0.15584764 0.10241641 -0.043329477 0.049374312 0.057108965 -0.32164901 0.3670586 0.31428108
-0.40155923 0.05794758 -0.17201532 -0.5314753 0.32149532 -0.42344275 -0.3583207 0.23833041
-0.2600142 -0.27676702 0.28193212 0.09060479 -0.30900052 -0.018607497
00000000: a526 97bd db8b 163e 6c53 e43d 12a5 3b3e
00000010: dba4 fbbe 7a07 20bd 5dc0 253e 00ef c4ba
00000020: 8696 1f3e b2bf d13d 407a 31bd b83c 4a3d
00000030: 17eb 693d 2eaf a4be 1bef bb3e 73e9 a03e
00000040: 2c99 cdbe 715a 6d3d c924 30be c40e 08bf
00000050: 099b a43e 7dcd d8be d075 b7be e30c 743e
00000060: 9520 85be 68b4 8dbe 6859 903e 018f b93d
00000070: 5135 9ebe c06e 98bc

pos_net.linears.2.weight f4 [30, 30]
0.038259238 0.13423483 0.053639874 0.061511803 0.004983138 0.14949462 0.12516984 -0.019577947
0.13027883 0.132914 0.17411982 0.18584372 0.020065175 -0.5233539 0.12571518 0.017614242
0.042251986 0.1584882 0.2873324 0.0020524878 -0.05902728 0.1366535 -0.03159239 0.22497487
-0.0053751078 -0.0025624582 0.08014263 0.03389937 -0.024527922 0.09120608 -0.13481921 -0.21534634
0.2886402 0.35817653 0.20269716 -0.16153716 0.1598291 0.037568726 0.36528513 0.12900263
-0.0039513195 0.23663571 0.1255254 0.109665215 0.13050088 0.38168696 0.068375856 0.011526963
0.12427512 0.1655011 0.21785778 -0.115138166 -0.26963094 0.48131618 -0.0058526765 0.29091793
0.32946044 0.2726605 0.11336296 -0.07249759 -0.18985441 0.056791622 -0.4195905 0.04317469
0.01626117 -0.5025551 -0.27944863 -0.033553503 0.034329634 -0.5937742 -0.63103944 -0.051962856
0.032543622 -0.38991424 -0.6483426 0.016162077 0.06635744 -0.440768 -0.26234967 0.05789358
0.07089069 -0.0367345 0.060095258 -0.706454 0.0033579343 0.17492278 0.14520961 0.1823583
-0.08333921 0.030452374 0.3829031 0.49486706 0.0066041425 0.4176607 0.2545573 0.11315971
-0.33376536 -0.049543153 0.5479154 -0.25389096 0.23147903 0.47130778 -0.035879303 0.08368312
-0.45975807 0.43562195 0.39916974 -0.22955261 0.12271255 0.22055407 0.400023 0.28156573
0.28028336 -0.0628867 0.0075712414 0.19484235 0.47635832 0.38257936 0.32177576 0.41448784
-0.23898013 -0.49104503 0.23513617 -0.04056818 -0.34270123 -0.14431107 0.34196228 -0.07649223
-0.32751223 0.12113179 -0.0908046 0.37332445 -0.19180964 0.24741028 0.035300527 0.5556435
-0.2763152 0.110301375 0.5824108 -0.06849176 -0.3081072 0.0010039045 -0.37201273 -0.11936448
0.03700072 -0.032169055 -0.42761248 0.09523762 -0.1979441 -0.56332135 0.04011423 -0.020600718
-0.2793248 0.0085014785 -0.003913784 -0.2653067 -0.21366276 -0.008040746 0.019994799 -0.2424292
0.05297508 -0.2027306 -0.03240496 -0.0085550705 -0.32489437 -0.08318502 0.0022141677 -0.21829198
-0.23983568 0.012355594 0.002671769 -0.016984262 0.04230556 -0.16030662 -0.008238604 -0.012028236
0.025495268 -0.015925327 -0.009876876 0.005135531 0.17547287 0.32717705 0.26518798 0.26637825
0.20994775 -0.17779218 -0.17371386 0.06221845 0.37414995 0.03048574 0.22492903 0.20243
-0.06773822 0.6802145 -0.31614998 0.3715648 0.48018417 -0.34972614 0.6299272 0.52763253
0.35960215 0.28770387 0.43849355 -0.43370655 -0.0024701399 0.11079415 0.15133221 0.28030708
0.18503988 0.31789276 -0.4912109 -0.33847004 -0.28405738 -0.27778736 0.046413623 -0.21004544
-0.0941876 0.026356312 -0.13163802 -0.3175629 -0.14002545 -0.50722384 -0.32360706 -0.009763937
-0.50392145 -0.38920966 -0.1960903 -0.2724116 0.026956346 -0.05342455 -0.3701664 -0.16386518
-0.10058665 -0.085906565 -0.14787115 -0.20216577 -0.24033546 -0.42371213 -0.030976554 -0.23586084
-0.049453206 -0.06841574 -0.009481573 -0.23367526 0.007839199 -0.20317999 -0.23031023 0.00734328
-0.015529073 -0.28868282 -0.22688495 -0.25361443 0.06729345 -0.010742802 -0.09560302 -0.039482996
00000000: b8b5 1c3d db74 093e 7cb5 5b3d cdf3 7b3d
00000010: 9749 a33b 1e15 193e 862c 003e ee61 a0bc
00000020: d067 053e 9c1a 083e 774c 323e d14d 3e3e
00000030: b95f a43c 85fa 05bf 7bbb 003e be4b 903c
00000040: 6b10 2d3d bb4a 223e 3b1d 933e 0883 063b
00000050: 97c6 71bd e5ee 0b3e 0667 01bd d05f 663e
00000060: ac21 b0bb eaee 27bb d221 a43d 11da 0a3d
00000070: c8ee c8bc 41ca ba3d 0c0e 0abe c083 5cbe
00000080: a6c8 933e ea62 b73e d88f 4f3e ff69 25be
00000090: 3daa 233e aae1 193d a706 bb3e 4419 043e
000000a0: 127a 81bb a250 723e bb89 003e 2898 e03d
000000b0: 06a2 053e 796c c33e a408 8c3d 96db 3c3c
000000c0: f483 fe3d 1f79 293e 1c16 5f3e 8fcd ebbd
000000d0: 110d 8abe 136f f63e cfc7 bfbb 32f3 943e
000000e0: 0aaf a83e 289a 8b3e d72a e83d 9e79 94bd
000000f0: 3269 42be 559e 683d 91d4 d6be f2d7 303d
00000100: 2536 853c 73a7 00bf e413 8fbe 666f 09bd
00000110: 3b9d 0c3d 9601 18bf cd8b 21bf 01d7 54bd
00000120: 764c 053d d7a2 c7be c8f9 25bf 5566 843c
00000130: 69e6 873d 58ac e1be b252 86be d221 6d3d
00000140: 232f 913d ea76 16bd 7226 763d 2bda 34bf
00000150: ca10 5c3b f51e 333e d4b1 143e 22bc 3a3e
00000160: bfad aabd 4277 f93c e00b c43e 375f fd3e
00000170: 9067 d83b a0d7 d53e 5655 823e 47c0 e73d
00000180: 4be3 aabe c3ed 4abd 2f44 0c3f fffd 81be
00000190: d708 6d3e 414f f13e 2df6 12bd 0e62 ab3d
000001a0: 6965 ebbe d709 df3e fa5f cc3e d70f 6bbe
000001b0: b850 fb3d edd8 613e d1cf cc3e 6229 903e
000001c0: 4d81 8f3e beca 80bd 2d18 f83b c184 473e
000001d0: 3de5 f33e 71e1 c33e cbbf a43e c037 d43e
000001e0: 35b7 74be 416a fbbe 89c7 703e d22a 26bd
000001f0: 8976 afbe 48c6 13be ae15 af3e f5a7 9cbd
00000200: afaf a7be f213 f83d c3f7 b9bd 6224 bf3e
00000210: bf69 44be 1f59 7d3e 4997 103d a73e 0e3f
00000220: 3079 8dbe b0e5 e13d e018 153f 6845 8cbd
00000230: 3ac0 9dbe 7295 833a 7478 bebe 5d75 f4bd
00000240: 118e 173d b3c3 03bd 06f0 dabe f10b c33d
00000250: dcb1 4abe d435 10bf d24e 243d d6c2 a8bc
00000260: a903 8fbe c949 0b3c 333f 80bb 48d6 87be
00000270: 69ca 5abe 55bd 03bc 22cc a33c 5c3f 78be
00000280: 66fc 583d 9c98 4fbe 10bb 04bd 912a 0cbc
00000290: 8e58 a6be e85c aabd 921b 113b ef87 5fbe
000002a0: 7c97 75be 1e6f 4a3c d818 2f3b 9422 8bbc
000002b0: 9848 2d3d 6b27 24be 36fb 06bc 1412 45bc
000002c0: 74db d03c d575 82bc 9fd2 21bc f547 a83b
000002d0: 29af 333e c083 a73e b8c6 873e bb62 883e
000002e0: 8bfc 563e 270f 36be 0ce2 31be c6d8 7e3d
000002f0: 9590 bf3e 3bbd f93c cc53 663e cf49 4f3e
00000300: 56ba 8abd 8a22 2e3f 69de a1be be3d be3e
00000310: b3da f53e 4e0f b3be e942 213f ed12 073f
00000320: c61d b83e ec4d 933e 3a82 e03e c90e debe
00000330: 12e2 21bb 0be8 e23d d5f6 1a3e 6984 8f3e
00000340: 187b 3d3e d7c2 a23e ff7f fbbe f24b adbe
00000350: f86f 91be 253a 8ebe 361c 3e3d 2716 57be
00000360: 6ee5 c0bd 31e9 d73c 1ecc 06be 9b97 a2be
00000370: d562 0fbe 6cd9 01bf d3af a5be ecf8 1fbc
00000380: ff00 01bf 7d46 c7be e5cb 48be 8979 8bbe
00000390: 8ed3 dc3c b3d3 5abd 7386 bdbe 46cc 27be
000003a0: 6000 cebd c8ef afbd 896b 17be 8b04 4fbe
000003b0: 801a 76be ccf0 d8be 8bc2 fdbc 8185 71be
000003c0: 728f 4abd 8d1d 8cbd 9958 1bbc 9148 6fbe
000003d0: fc6f 003c 6a0e 50be 72d6 6bbe e69f f03b
000003e0: a76d 7ebc 3cce 93be 8754 68be c0d9 81be
000003f0: 26d1 893d 9402 30bc 84cb c3bd ecb8 21bd

pos_net.linears.2.bias f4 [30]
-0.035287414 0.12637307 -0.121790096 -0.0056030573 0.2674844 -0.42947713 0.037294827 -0.43413135
-0.2554061 -0.2259177 -0.08626098 -0.12691052 -0.19999649 0.51097524 0.19631909 0.17659722
0.5381054 -0.2948685 -0.26763403 0.07915032 -0.2549954 -0.23298745 -0.2657555 -0.37354413
-0.21406327 0.25530276 -0.020584758 0.08519584 -0.37728253 0.031454943
00000000: 8989 10bd f167 013e 166d f9bd da99 b7bb
00000010: b7f3 883e 6de4 dbbe 76c2 183d 7746 debe
00000020: 97c4 82be f856 67be 99a9 b0bd d5f4 01be
00000030: e1cb 4cbe 46cf 023f df07 493e e7d5 343e
00000040: 47c1 093f 01f9 96be 5407 89be 9019 a23d
00000050: c28e 82be 4394 6ebe 1b11 88be 2d41 bfbe
00000060: 6733 5bbe 0bb7 823e 5ea1 a8bc 287b ae3d
00000070: 2d2b c1be e6d6 003d

pos_net.output_layer.weight f4 [6, 30]
0.15265375 -0.373302 -0.36243778 -0.68428683 0.46141738 0.03478712 -0.47478172 0.48984402
0.03898179 -0.21280947 0.29641375 -0.43070906 0.15133926 0.64328885 0.50109434 -0.40597787
0.5604759 -0.30555695 0.00074754376 -0.30410087 0.020830572 -0.2378636 -0.0076556765 -0.19154447
0.05237468 0.345981 0.3338719 -0.36811736 -0.4556888 -0.46287608 -0.03654562 0.25872025
0.20444381 -0.1483394 0.1494297 0.15493649 0.123185985 -0.031779334 -0.13741791 -0.18528065
-0.036199965 0.30201456 -0.026645575 -0.14695717 -0.0747455 0.15530153 0.097458 -0.05345179
-0.07685212 -0.04383275 0.2991046 0.04748124 -0.062283684 0.07003639 -0.039922535 -0.14650956
-0.059473157 -0.3154397 0.39420775 0.0073313657 0.02914282 0.21045238 -0.0070073474 -0.04506379
0.30442092 -0.07023684 0.093235984 -0.16125607 -0.3248562 -0.096849725 -0.026844654 0.23471737
-0.018589573 -0.18445015 -0.1699784 -0.07112446 0.07665611 -0.183025 0.10329442 -0.121062465
-0.0076308795 -0.1426747 0.0012118239 0.25761896 -0.1702924 0.03456717 -0.05832738 -0.30766815
0.18240876 -0.02990689 -0.20678447 -0.09816306 -0.49295565 0.17909695 0.14318153 0.13713585
0.120825306 0.03259906 -0.051444992 0.09447649 0.10128113 -0.124349624 -0.02059722 0.020435713
-0.058808394 -0.3871394 0.13209124 0.06807475 0.18841098 0.2323822 0.19426033 0.89369935
-0.008996124 -0.23522684 0.04965671 -0.22152051 0.04333222 -0.21412374 -0.118888 0.3220991
0.17463721 -0.11703275 0.09146157 -0.07884499 -0.032962702 -0.07037586 -0.070356674 0.26104525
0.22395483 -0.11201106 -0.00988494 0.029858032 0.0138760265 -0.091855764 0.17807452 -0.0013678861
0.09238141 -0.18798734 0.06439993 0.19870529 0.21214326 -0.08347649 -0.0022323495 0.32314852
0.009658668 0.051935952 0.0030615586 0.0909364 0.22674641 0.021409988 0.035263218 -0.20948829
0.04988901 0.050073262 0.21827017 0.13429487 0.09490996 0.12635595 0.17259112 0.15726191
0.12505496 0.11030871 0.0939485 0.26529452 0.05993969 -0.17300773 -0.4339137 -0.008031141
-0.13425358 0.116779484 0.23341632 -0.28854555 0.046405725 -0.34740353 -0.06222272 -0.35646346
-0.04106049 -0.04170774 -0.291247 0.019739307
00000000: 4451 1c3e 7121 bfbe 7291 b9be 6c2d 2fbf
00000010: e63e ec3e f07c 0e3d 9716 f3be d6cc fa3e
00000020: 5fab 1f3d baea 59be 8bc3 973e e685 dcbe
00000030: aef8 1a3e 94ae 243f b847 003f 55dc cfbe
00000040: 597b 0f3f f671 9cbe d0f6 433a 1cb3 9bbe
00000050: e0a4 aa3c 8492 73be 78dc fabb 3c24 44be
00000060: d586 563d 6c24 b13e 42f1 aa3e e179 bcbe
00000070: 0b50 e9be 18fe ecbe dcb0 15bd fb76 843e
00000080: b859 513e 49e6 17be 1904 193e aca7 1e3e
00000090: ef48 fc3d 0c2b 02bd 48b7 0cbe 36ba 3dbe
000000a0: 6a46 14bd a7a1 9a3e d247 dabc f17b 16be
000000b0: 2b14 99bd 5d07 1f3e 0f98 c73d 44f0 5abd
000000c0: a564 9dbd f889 33bd 3d24 993e b07b 423d
000000d0: 2d1d 7fbd 3d6f 8f3d d085 23bd 9a06 16be
000000e0: 209a 73bd 5081 a1be 99d5 c93e f43b f03b
000000f0: ecbc ee3c d480 573e e49d e5bb cf94 38bd
00000100: 0fdd 9b3e 55d8 8fbd 82f2 be3d 5020 25be
00000110: 8d53 a6be 2659 c6bd 52e9 dbbc c059 703e
00000120: 2949 98bc 80e0 3cbe d10e 2ebe b3a9 91bd
00000130: e1fd 9c3d e86a 3bbe 068c d33d 99ef f7bd
00000140: 750c fabb 5119 12be 10d6 9e3a a2e6 833e
00000150: 2261 2ebe 4e96 0d3d b1e8 6ebd ae86 9dbe
00000160: 5dc9 3a3e 4bff f4bc 4fbf 53be b709 c9bd
00000170: af64 fcbe 3165 373e 2e9e 123e 576d 0c3e
00000180: 4273 f73d 9886 053d fcb7 52bd e47c c13d
00000190: 7b6c cf3d 04ab febd 80bb a8bc cc68 a73c
000001a0: 12e1 70bd 2337 c6be ed42 073e c66a 8b3d
000001b0: cfee 403e 99f5 6d3e 2eec 463e 7bc9 643f
000001c0: 7b64 13bc 4edf 70be d664 4b3d 46d6 62be
000001d0: 207d 313d 4143 5bbe 8d7b f3bd 2cea a43e
000001e0: 19d4 323e deae efbd 3450 bb3d 7b79 a1bd
000001f0: e603 07bd 3821 90bd 2917 90bd b9a7 853e
00000200: 6a54 653e 0e66 e5bd 72f4 21bc d598 f43c
00000210: 4658 633c e01e bcbd 2b59 363e a44a b3ba
00000220: 7732 bd3d c17f 40be 1ce4 833d 6679 4b3e
00000230: 153c 593e b9f5 aabd 9c4c 12bb b973 a53e
00000240: 643f 1e3c cbba 543d 6ea4 483b dd3c ba3d
00000250: 3630 683e 0064 af3c 2a70 103d 1984 56be
00000260: 6b58 4c3d 9f19 4d3d 3782 5f3e 9884 093e
00000270: 2760 c23d 7463 013e babb 303e 4409 213e
00000280: 680e 003e 88e9 e13d 1268 c03d afd4 873e
00000290: 5283 753d f028 31be f029 debe 0c95 03bc
000002a0: c579 09be 152a ef3d b004 6f3e 3ebc 93be
000002b0: ee13 3e3d e0de b1be 40dd 7ebd 6182 b6be
000002c0: 0b2f 28bd bcd5 2abd 541e 95be 54b4 a13c

pos_net.output_layer.bias f4 [6]
0.39560568 0.10271941 0.32042477 -0.2406669 0.28041098 -0.37891942
00000000: d48c ca3e 8e5e d23d b70e a43e 6271 76be
00000010: 0792 8f3e ba01 c2be

neg_net.linears.0.weight f4 [30, 12]
0.05695356 0.27143416 0.19855197 0.08530376 -0.7576074 0.447759 0.025342047 0.23786332
0.026068931 -0.0139970835 -0.50301695 -0.15963648 0.43971628 -0.08003759 -0.54363185 0.48071587
0.18879439 -0.06471408 0.19931641 0.418187 0.15499558 0.49676976 -0.40831667 0.32420316
-0.28518566 -0.031605504 -0.5330765 -0.6672882 -0.72211146 0.311257 -0.09890586 0.16078134
0.22031541 0.004110833 0.21653646 -0.21206185 0.06842103 -0.023183532 -0.49729556 -0.114364214
0.03311185 -0.11313638 0.23180862 0.34237605 0.10073906 -1.0849141 -0.16095527 -0.4743301
0.24397852 -0.17081699 -0.28255174 -0.0075258035 0.25416794 0.03962977 0.3097373 -0.08749626
0.06480385 -0.75038147 0.29085147 -0.07214666 -0.15179981 -0.1317682 -0.074287355 -0.71507275
0.28933892 0.13871661 0.2720399 -0.18704809 0.015810981 0.096396714 -0.06518573 -0.054573618
-0.58920723 0.46074355 0.17455035 -0.45901138 -0.7733966 -0.18099794 -0.32390764 -0.05259499
-0.045130804 0.20342341 0.5028875 -0.19596659 0.28472373 -0.22646898 -0.0477643 -0.23916613
-0.301379 -0.1391181 -0.21653183 -0.49929145 -0.19268997 -0.87333137 -0.41400155 0.024990285
0.6796635 -0.40770853 0.12515976 -0.24801613 0.07304252 0.2523992 0.1428212 0.4800559
0.32615286 -0.6876846 -0.78354734 -0.4025604 -0.27675948 0.13713294 -0.37372297 -0.53299505
-0.53347474 -0.7551298 0.17508443 -0.063637204 -0.28615457 0.29454374 0.48218158 0.21760538
0.46216378 -0.43088064 0.005389504 -0.018937005 0.067788206 0.21646568 0.1333178 0.34373236
-0.17824572 -0.42690882 -0.5589486 0.20195849 -0.4805807 -0.0027307682 -0.5632562 -0.628744
-0.9068075 -0.104908556 -0.44479457 0.0786733 0.25029972 -0.15481892 0.37634832 -0.37109897
0.73337096 -0.42595682 -0.27015972 0.04022003 0.04756976 -0.05654861 -0.5092428 0.2032429
-0.18039884 -0.44286093 0.21267493 0.26257852 0.41937843 0.25712588 0.4128043 0.06294799
-0.12399995 0.09945051 -0.43915513 -0.29413456 -0.24879588 -0.9767059 -0.18886183 0.11271792
0.53299844 -0.12147395 -0.21371876 -0.0996233 0.22946198 -0.50318277 -0.45053798 0.19486089
-0.2790387 -0.69503707 0.16289115 -0.24671717 0.66787827 -0.42456582 0.27464595 0.016771985
-0.18104255 -0.12777284 0.1682666 0.04243723 0.1200604 -0.009743812 -1.0608242 -0.43332857
0.13521115 0.12918356 -0.6661059 0.5366139 -0.2100956 -0.18147029 0.35808507 -0.035685636
-0.08391719 0.2196447 0.09718812 -0.06988463 0.10751079 0.047718138 0.483562 0.4053798
0.20813581 0.32938763 0.25495282 -0.058497544 -0.15093347 -0.19768378 -0.90941507 -0.21183255
0.83218014 0.14204462 0.4732385 -0.107284606 -0.32143432 0.03264798 -0.10352254 -0.21051686
-0.009729078 0.0019558491 -0.5630032 0.1958457 0.20223133 -0.4028754 -0.10865672 0.40004715
0.17080393 -0.46394503 -0.055890102 0.18900183 0.5942432 -0.4007248 -0.73496914 -0.042391364
0.4692005 -0.012649781 -0.013199143 -0.23582497 0.20685084 -0.018210595 -0.15094602 0.18677725
-0.11383871 -0.31787628 -0.34747434 0.23493868 0.27690876 -0.40328974 0.46330127 0.76969963
00000000: 2348 693d 6bf9 8a3e 3551 4b3e bdb3 ae3d
00000010: 8ff2 41bf ab40 e53e 209a cf3c 7192 733e
00000020: 838e d53c 0654 65bc b8c5 00bf bf77 23be
00000030: 7e22 e13e bfea a3bd 752b 0bbf 6420 f63e
00000040: 5153 413e d188 84bd 9a19 4c3e 9b1c d63e
00000050: 29b7 1e3e 9b58 fe3e e20e d1be f5fd a53e
00000060: db03 92be c674 01bd b477 08bf 66d3 2abf
00000070: 4cdc 38bf 145d 9f3e 288f cabd dda3 243e
00000080: 5d9a 613e 2bb4 863b bcbb 5d3e be26 59be
00000090: 5320 8c3d 64eb bdbc 869d febe c937 eabd
000000a0: 4ba0 073d 0cb4 e7bd 3d5f 6d3e ea4b af3e
000000b0: 4850 ce3d 77de 8abf 75d1 24be 65db f2be
000000c0: 81d5 793e a6ea 2ebe 9faa 90be 049b f6bb
000000d0: 4d22 823e d352 223d e395 9e3e 3d31 b3bd
000000e0: e2b7 843d 0019 40bf 7cea 943e a1c1 93bd
000000f0: 6971 1bbe 3eee 06be f823 98bd 020f 37bf
00000100: 3b24 943e ba0b 0e3e d048 8b3e 8989 3fbe
00000110: 0886 813c a46b c53d 1980 85bd 9688 5fbd
00000120: 49d6 16bf 94e6 eb3e 54bd 323e 8a03 ebbe
00000130: 52fd 45bf 8657 39be 39d7 a5be d86d 57bd
00000140: 14db 38bd 3a4e 503e 3cbd 003f 77ab 48be
00000150: 4fc7 913e 7ce7 67be 80a4 43bd f7e7 74be
00000160: 594e 9abe fa74 0ebe 85ba 5dbe 21a3 ffbe
00000170: 8550 45be a592 5fbf 03f8 d3be 6db8 cc3c
00000180: 6dfe 2d3f 2cbf d0be e129 003e f1f7 7dbe
00000190: 5197 953d 783a 813e b83f 123e e3c9 f53e
000001a0: 82fd a63e 190c 30bf 8f96 48bf 661c cebe
000001b0: 6bb3 8dbe 946c 0c3e 9e58 bfbe 5d72 08bf
000001c0: cd91 08bf 3050 41bf 5549 333e 3954 82bd
000001d0: da82 92be 70ce 963e 81e0 f63e f2d3 5e3e
000001e0: bba0 ec3e 639c dcbe 709a b03b c721 9bbc
000001f0: 8bd4 8a3d 2ea9 5d3e 7684 083e b0fd af3e
00000200: 0c86 36be cb93 dabe 4117 0fbf 35ce 4e3e
00000210: ac0e f6be b0f6 32bb 8f31 10bf 5ef5 20bf
00000220: 8924 68bf 4cda d6bd 1dbc e3be 781f a13d
00000230: 4927 803e da88 1ebe bab0 c03e af00 bebe
00000240: 33be 3b3f 0317 dabe 6052 8abe c2bd 243d
00000250: 82d8 423d 849f 67bd bc5d 02bf e81e 503e
00000260: 79ba 38be abbe e2be 75c7 593e b170 863e
00000270: c5b8 d63e 01a6 833e 165b d33e e0ea 803d
00000280: b0f3 fdbd b6ac cb3d f1d8 e0be ce98 96be
00000290: 59c4 7ebe 6609 7abf ff64 41be a7d8 e63d
000002a0: 9672 083f 56c7 f8bd 17d9 5abe 4d07 ccbd
000002b0: 15f8 6a3e 96d0 00bf eaac e6be 9d89 473e
000002c0: 29de 8ebe f3ed 31bf f0cc 263e 6da3 7cbe
000002d0: 12fa 2a3f b160 d9be 659e 8c3e 6765 893c
000002e0: 3863 39be e2d6 02be 144e 2c3e a9d2 2d3d
000002f0: 3ae2 f53d 82a4 1fbc 16c9 87bf 3edd ddbe
00000300: cb74 0a3e b248 043e eb85 2abf 875f 093f
00000310: 4d23 57be 59d3 39be ed56 b73e 1a2b 12bd
00000320: c7dc abbd 8aea 603e 910a c73d ac1f 8fbd
00000330: 9e2e dc3d 1874 433d 7095 f73e f18d cf3e
00000340: 8e21 553e 7fa5 a83e 2d89 823e 1f9b 6fbd
00000350: 4e8e 1abe 9e6d 4abe 6dcf 68bf a2ea 58be
00000360: c209 553f 2574 113e 514c f23e 08b8 dbbd
00000370: 0a93 a4be e3b9 053d a003 d4bd bb91 57be
00000380: b666 1fbc b42d 003b fa20 10bf c68b 483e
00000390: bb15 4f3e af45 cebe 6a87 debd fbd2 cc3e
000003a0: 3ae7 2e3e 348a edbe 05ed 64bd b289 413e
000003b0: 5320 183f cd2b cdbe f026 3cbf 91a2 2dbd
000003c0: 0c3b f03e 0741 4fbc 3841 58bc 1a7c 71be
000003d0: b5d0 533e 632e 95bc 9891 1abe 8942 3f3e
000003e0: 4524 e9bd aec0 a2be 28e8 b1be c493 703e
000003f0: fcc6 8d3e fe7b cebe d335 ed3e 090b 453f

neg_net.linears.0.bias f4 [30]
-0.5777014 -0.14922325 0.07721739 -0.27598247 -0.6532195 -0.47681493 0.49584886 -0.0068793083
0.003985459 0.18448316 -0.2465477 0.15301347 -0.20511374 -0.21564752 -0.52371323 -0.39968497
-0.31146857 -0.037542798 -0.69907874 -0.049227644 -0.50016576 0.3165124 -0.40840632 -0.38621074
-0.3435809 -0.2109818 -0.31212005 0.19285214 -0.44641417 -0.074531496
00000000: 3de4 13bf fbcd 18be 2724 9e3d 934d 8dbe
00000010: 6539 27bf 1621 f4be e7df fd3e d26b e1bb
00000020: 7498 823b 27e9 3c3e 0077 7cbe 90af 1c3e
00000030: 5609 52be b4d2 5cbe 1212 06bf 82a3 ccbe
00000040: cf78 9fbe 7ac6 19bd d3f6 32bf eda2 49bd
00000050: dd0a 00bf ea0d a23e a21a d1be 6abd c5be
00000060: d6e9 afbe 9d0b 58be 33ce 9fbe 087b 453e
00000070: 6690 e4be f8a3 98bd

neg_net.linears.1.weight f4 [30, 30]
0.26913935 -0.14913808 -0.54825324 0.14986809 0.28563327 -0.047440313 -0.5539341 -0.41139987
0.11092403 -0.59565705 0.036472887 -0.8861494 -0.11654981 0.0618637 -0.17231493 -0.2215865
-0.50917 0.50877476 -0.022784334 -0.34849703 -0.16957147 0.40372565 0.108154945 0.021602081
0.238918 -0.28944373 0.026077572 -0.1253702 0.063430995 0.35264882 -0.08629619 -0.17456792
-0.15593953 -0.34730673 0.021015354 -0.20961836 -0.17092973 0.052956987 -0.19386281 -0.27262655
-0.029588215 -0.26271912 -0.017983662 -0.084096245 0.020691456 -0.060232878 -0.046728015 -0.24852833
-0.22372603 -0.18225753 0.018346027 0.0488519 -0.022116194 -0.3529381 -0.13142377 -0.05345961
-0.28869927 -0.3405816 -0.19585958 -0.121487424 0.061974503 0.13987514 -0.3119634 0.5888858
0.047400765 -0.35895738 0.0157536 0.28219706 -0.0058843754 -0.18292229 0.39731032 -0.2745864
0.38500762 0.66975194 0.32164288 0.12817602 -0.24979886 -0.10005253 0.12944794 0.015872858
-0.09281185 0.48386267 -0.42335293 0.112385675 0.16971745 -0.12247542 0.5405194 -0.021130992
-0.32067877 0.27774557 -0.095434524 -0.082055256 -0.25762177 -0.16550034 -0.08455205 -0.14379404
-0.20243591 -0.16350038 -0.21462686 -0.18539652 -0.059259333 -0.20239288 -0.058650106 -0.08628547
-0.053762704 -0.20145732 -0.1083631 -0.098727666 -0.12841357 -0.2047171 -0.11792891 -0.14310765
-0.05266206 -0.114222385 -0.034243852 -0.09228286 -0.15418752 -0.14275458 -0.0959389 -0.06860617
0.09419822 0.25320315 -0.38070378 0.3034758 0.08722434 -0.27642643 -0.76853263 -0.0015747589
0.48693633 -0.5983666 0.27392548 -0.86672026 0.24482213 0.091388136 0.26916465 0.37516057
-0.03567817 0.3673448 0.2664386 0.31919438 0.30953214 0.1703041 0.09893413 -0.32717398
0.4336375 -0.17714167 -0.3063748 -0.11815468 0.23855172 0.26809743 -0.017885175 -0.061809473
-0.11142999 -0.11242749 -0.10906662 -0.09103338 -0.23714395 -0.20861277 -0.22052309 -0.21059972
-0.12818241 -0.068130806 -0.018585628 -0.1612152 -0.20423146 -0.3484023 0.033247113 -0.2958053
-0.24905312 -0.15407549 -0.16978894 -0.07273964 -0.06693683 -0.17702903 -0.056296453 -0.10310431
-0.27035695 -0.20710398 -0.17132267 0.009014328 0.071902335 -0.23546049 -0.5826223 0.12547156
0.44411334 -0.326826 -0.481079 -0.17486009 0.25216085 -0.5071921 0.05190755 -0.55305755
0.059634484 -0.029142773 -0.18519357 0.14098279 -0.67590225 0.08268356 0.1254644 -0.0148595385
-0.18927915 0.26578355 0.1464194 0.1962558 0.0648955 0.11880833 -0.047438454 -0.19204105
0.14184502 0.1213568 0.08925966 -0.10270871 -0.6039938 0.096996024 0.4929543 -0.046773106
-0.05225484 0.18495801 0.09841995 0.06532618 -0.032336578 -0.36521775 0.08678928 0.6753141
0.087732285 -0.07885933 -0.6851719 0.2609947 -0.033522293 -0.28063795 -0.044739623 0.43481967
-0.17882498 0.28030264 0.22522807 -0.18008915 0.3814266 -0.2486828 -0.16154629 0.23242886
0.3143471 0.3110869 0.25178087 -0.18792245 0.23253828 -0.32742485 0.3854926 0.2077156
-0.25671196 0.017558832 0.08305926 0.46162236 0.19316633 0.1361889 0.22537875 -0.42373973
00000000: a2cc 893e a7b7 18be 535a 0cbf 0577 193e
00000010: 863e 923e c650 42bd a0ce 0dbf 01a3 d2be
00000020: 232c e33d fb7c 18bf 9864 153d b0da 62bf
00000030: abb1 eebd cb64 7d3d 5373 30be 92e7 62be
00000040: f758 02bf 103f 023f 36a6 babc 346e b2be
00000050: 25a4 2dbe 21b5 ce3e 5780 dd3d d9f6 b03c
00000060: eca6 743e f831 94be a2a0 d53c 0c61 00be
00000070: 1ce8 813d 638e b43e 0fbc b0bd efc1 32be
00000080: 9dae 1fbe 30d2 b1be 6428 ac3c 32a6 56be
00000090: 3408 2fbe 6de9 583d f983 46be b595 8bbe
000000a0: fc62 f2bc 1f83 86be 7952 93bc a73a acbd
000000b0: 2181 a93c c0b6 76bd e065 3fbd 367e 7ebe
000000c0: 7018 65be b8a1 3abe 684a 963c ee18 483d
000000d0: 052d b5bc 4db4 b4be f493 06be 77f8 5abd
000000e0: 64d0 93be b660 aebe 6a8f 48be 66ce f8bd
000000f0: fad8 7d3d 6e3b 0f3e abb9 9fbe 38c1 163f
00000100: 4e27 423d 43c9 b7be b20d 813c 227c 903e
00000110: b8d1 c0bb fb4f 3bbe 426c cb3e 9796 8cbe
00000120: b81f c53e dd74 2b3f 60ae a43e 9340 033e
00000130: 46cb 7fbe 57e8 ccbd 008e 043e cc07 823c
00000140: 2414 bebd d9bc f73e b7c1 d8be 762a e63d
00000150: 69ca 2d3e 65d4 fabd 7b5f 0a3f e71a adbc
00000160: 0230 a4be ab34 8e3e 2d73 c3bd 960c a8bd
00000170: 00e7 83be ec78 29be a029 adbd bf3e 13be
00000180: 5c4b 4fbe a56c 27be 25c7 5bbe 96d8 3dbe
00000190: eab9 72bd 1440 4fbe 183b 70bd 70b6 b0bd
000001a0: 4836 5cbd d44a 4ebe 79ed ddbd bb31 cabd
000001b0: d97e 03be 5ca1 51be b684 f1bd d08a 12be
000001c0: 2cb4 57bd 6ded e9bd 4843 0cbd ccfe bcbd
000001d0: 55e3 1dbe 422e 12be 9d7b c4bd 6481 8cbd
000001e0: ffea c03d d8a3 813e 9beb c2be 2e61 9b3e
000001f0: ada2 b23d c487 8dbe 8ebe 44bf 2468 ceba
00000200: b84f f93e 8e2e 19bf f63f 8c3e 61e1 5dbf
00000210: a7b2 7a3e b429 bb3d f3cf 893e 0c15 c03e
00000220: 4623 12bd 9e14 bc3e a46a 883e 726d a33e
00000230: ff7a 9e3e 3364 2e3e fa9d ca3d 5983 a7be
00000240: bc05 de3e a064 35be 28dd 9cbe 15fb f1bd
00000250: e746 743e 1144 893e ee83 92bc ee2b 7dbd
00000260: 6835 e4bd 6240 e6bd 525e dfbd b56f babd
00000270: ddd5 72be 969e 55be ced0 61be 74a7 57be
00000280: 4042 03be 2a88 8bbd e340 98bc 9915 25be
00000290: 0d22 51be c961 b2be 202e 083d cb73 97be
000002a0: c807 7fbe f7c5 1dbe 27dd 2dbe 85f8 94bd
000002b0: 2d16 89bd 1947 35be 1c97 66bd 5a28 d3bd
000002c0: 3a6c 8abe 1113 54be 366f 2fbe d5b0 133c
000002d0: 8841 933d 8e1c 71be bc26 15bf 9e7b 003e
000002e0: d362 e33e bd55 a7be fd4f f6be 860e 33be
000002f0: 3a1b 813e 57d7 01bf 039d 543d 2e95 0dbf
00000300: 4a43 743d d3bc eebc 62a3 3dbe cb5d 103e
00000310: ee07 2dbf 0056 a93d bd79 003e 6c75 73bc
00000320: 65d2 41be c814 883e f8ee 153e 48f7 483e
00000330: efe7 843d c851 f33d d34e 42bd 69a6 44be
00000340: d23f 113e ea89 f83d c5cd b63d f258 d2bd
00000350: 569f 1abf daa5 c63d 8264 fc3e 2895 3fbd
00000360: 2c09 56bd a265 3d3e 6690 c93d bbc9 853d
00000370: 5c73 04bd d2fd babe 94be b13d 63e1 2c3f
00000380: fcac b33d 0081 a1bd 6d67 2fbf 19a1 853e
00000390: ac4e 09bd c7af 8fbe e540 37bd afa0 de3e
000003a0: e51d 37be d483 8f3e 30a2 663e 4a69 38be
000003b0: 594a c33e b4a6 7ebe 646c 25be d501 6e3e
000003c0: 1af2 a03e c846 9f3e 6ce9 803e be6e 40be
000003d0: 841e 6e3e 3ba4 a7be 495f c53e 66b3 543e
000003e0: c06f 83be 8ad7 8f3c f91a aa3d c459 ec3e
000003f0: 65cd 453e 1a75 0b3e b0c9 663e 6af4 d8be

neg_net.linears.1.bias f4 [30]
0.12610249 -0.42170724 -0.052763686 -0.21692336 0.26712462 -0.35008433 -0.12764345 0.0036950666
0.015591268 -0.02041335 0.21689431 0.03447497 0.086590074 -0.08546207 -0.19288051 0.04927627
-0.13755858 0.22526143 0.2816334 0.116323054 -0.14847347 -0.3240479 0.27036873 0.26424298
-0.19446939 0.03174018 0.20044033 0.03387216 -0.10805766 0.22793941
00000000: 0321 013e 03ea d7be bc1e 58bd 2821 5ebe
00000010: 8fc4 883e 413e b3be f7b4 02be ee28 723b
00000020: 8572 7f3c e639 a7bc 8b19 5e3e a035 0d3d
00000030: 2356 b13d bd06 afbd 7882 45be ead5 493d
00000040: 28dc 0cbe efaa 663e 4132 903e c83a ee3d
00000050: 6e09 18be 9be9 a5be c56d 8a3e db4a 873e
00000060: fc22 47be fe01 023d 3b40 4d3e 89bd 0a3d
00000070: 564d ddbd f368 693e

neg_net.linears.2.weight f4 [30, 30]
-0.18614009 0.021167753 -0.28309673 0.016742164 -0.2260638 0.010108783 -0.0875556 -0.20820776
-0.086657494 0.024316281 -0.011385617 -0.011857419 -0.1037099 -0.14556001 0.0043630376 -0.08153888
0.03327256 -0.1148942 -0.13167742 -0.18778585 -0.12877402 0.017757628 -0.19142783 -0.118523255
-0.03874369 -0.18005478 -0.06733251 -0.19722208 -0.16310479 0.018493779 0.21175237 0.12909612
0.17069983 0.07491013 0.41556334 -0.09122407 0.12126402 0.22546147 -0.38377643 0.14742304
-0.10324518 0.052562557 -0.1375272 0.075521715 -0.020082392 0.0736225 0.25126535 -0.57595414
-0.11638737 0.17434406 0.008563591 0.018449813 0.36830208 -0.46445668 0.2772959 -0.4659603
-0.48933133 0.21934862 0.03667368 -0.053664703 -0.08861042 -0.12860116 -0.018097937 0.0014679176
-0.1725946 -0.010667906 -0.045741107 -0.019119006 -0.08766438 0.0069645345 0.008601131 -0.12365347
0.03193219 -0.04139965 -0.062078804 -0.023946581 0.013841379 -0.067913905 0.006009979 0.032248955
0.041444942 0.010659644 -0.24941798 0.015992936 -0.0001374865 0.050401244 -0.12129646 -0.022295848
-0.06644507 -0.13053459 0.33052197 -0.09201957 -0.48281935 0.121576354 0.27690694 0.06639981
0.03836713 -0.27921912 -0.21359682 0.3804812 0.4936935 0.17822367 -0.47624052 -0.52549726
0.030018466 -0.28214183 -0.10417354 0.040904034 0.003287104 -0.405782 -0.31975967 -0.62972385
0.26969033 0.06472055 -0.16635658 -0.06763624 0.30514884 -0.23606724 -0.3727695 0.112897515
0.5132042 -0.06343592 -0.16831057 0.10586265 0.051446628 -0.18323566 0.26201984 0.25407252
-0.6052479 -0.2557771 -0.040771306 -0.35250598 -0.15334494 -0.33071592 -0.032473862 -0.44963893
0.5311036 -0.4225415 -0.37375063 -0.20697151 -0.26250425 -0.2624769 0.11170141 -0.5290185
-0.25430414 -0.45939687 -0.5799391 0.036862776 0.046372462 -0.5578933 -0.20446697 0.2736832
0.0123397065 -0.0133741535 -0.45261106 0.0044901185 -0.2970156 0.22868748 0.09274145 0.11440562
0.15566082 0.081821635 -0.009368868 -0.22860716 -0.066257976 -0.041777555 -0.16562021 0.35720065
0.16409153 0.045463577 0.099107735 0.2606626 -0.49061984 0.23608656 0.11122652 0.29013675
0.39863282 -0.3886029 0.014765948 0.095458396 0.011690837 -0.031126412 -0.6792004 -0.029403813
-0.40819174 -0.015645608 -0.32960427 -0.5821565 0.28170282 -0.18864031 0.3558949 0.25817373
-0.052662678 -0.12671022 -0.019632708 -0.06720397 0.03354714 0.17857637 0.03226668 -0.2683645
-0.07630199 0.08836694 0.08058299 0.21330406 0.1903561 0.11701346 0.42121962 -0.42688087
-0.37772757 0.23905331 -0.48497483 0.18339536 0.055660672 0.021338213 -0.7159768 -0.0034769662
-0.17037518 0.03811602 0.17705406 -0.08632908 0.10663044 0.39063996 0.07187398 -0.27446607
0.021865323 0.004836904 -0.15257083 0.44229424 0.22797446 -0.11106005 -0.039206356 0.28614658
-0.11176181 0.29156235 0.17049727 0.32547837 0.2335782 -0.55659145 0.31009996 0.2771653
0.043166474 -0.05311773 -0.43735343 -0.020860966 -0.19565745 -0.0012601162 -0.4243711 -0.034327615
-0.2621702 -0.1642549 -0.34821412 -0.10915542 -0.2752174 -0.34996644 -0.021827502 -0.3432523
00000000: 829b 3ebe ff67 ad3c 0ef2 90be dd26 893c
00000010: 457d 67be 4f9f 253c 5a50 b3bd 6a34 55be
00000020: 7c79 b1bd f032 c73c bd8a 3abc 9f45 42bc
00000030: db65 d4bd af0d 15be d0f7 8e3b dbfd a6bd
00000040: cf48 083d a64d ebbd 72d6 06be ef4a 40be
00000050: 56dd 03be 7278 913c a805 44be 52bc f2bd
00000060: b4b1 1ebd 4860 38be a1e5 89bd 96f4 49be
00000070: f104 27be 4480 973c 9dd5 583e c631 043e
00000080: f0cb 2e3e 7b6a 993d b8c4 d43e afd3 babd
00000090: 4559 f83d 5fdf 663e 587e c4be 11f6 163e
000000a0: 3572 d3bd d64b 573d eed3 0cbe 21ab 9a3d
000000b0: d483 a4bc 65c7 963d daa5 803e bb71 13bf
000000c0: 805c eebd 4087 323e 4e4e 0c3c 1024 973c
000000d0: 1792 bc3e 44cd edbe baf9 8d3e 5992 eebe
000000e0: a389 fabe ed9c 603e 2437 163d 85cf 5bbd
000000f0: 6179 b5bd 06b0 03be 2042 94bc 2467 c03a
00000100: a4bc 30be 71c8 2ebc 075b 3bbd 769f 9cbc
00000110: 6289 b3bd c036 e43b c2eb 0c3c 083e fdbd
00000120: 54cb 023d ae92 29bd 5846 7ebd 9f2b c4bc
00000130: f4c6 623c 7216 8bbd 5cef c43b 7b17 043d
00000140: 2cc2 293d caa5 2e3c 6d67 7fbe 9e03 833c
00000150: 402a 10b9 8971 4e3d 476a f8bd c8a5 b6bc
00000160: 5a14 88bd dcaa 05be 2d3a a93e c274 bcbd
00000170: 1934 f7be 06fd f83d bfc6 8d3e a0fc 873d
00000180: da26 1d3d cff5 8ebe 20b9 5abe 6fce c23e
00000190: 65c5 fc3e 4480 363e ccd5 f3be fd86 06bf
000001a0: 49e9 f53c e574 90be f058 d5bd fd8a 273d
000001b0: 746c 573b a9c2 cfbe 8ab7 a3be 9535 21bf
000001c0: da14 8a3e 358c 843d 6159 2abe de84 8abd
000001d0: 783c 9c3e 9cbb 71be a5db bebe d036 e73d
000001e0: 5a61 033f b1ea 81bd 9b59 2cbe 84ce d83d
000001f0: b3b9 523d 21a2 3bbe 7727 863e cb15 823e
00000200: 87f1 1abf 37f5 82be d0ff 26bd aa7b b4be
00000210: 7506 1dbe 9953 a9be 5003 05bd 1337 e6be
00000220: 68f6 073f 5c57 d8be 3e5c bfbe 57f0 53be
00000230: f566 86be 5f63 86be b5c3 e43d c26d 07bf
00000240: 2734 82be 1136 ebbe e476 14bf 6cfd 163d
00000250: 0df1 3d3d 18d2 0ebf ca5f 51be 3420 8c3e
00000260: 7b2c 4a3c 441f 5bbc a3bc e7be d821 933b
00000270: 6e12 98be 0d2d 6a3e 3bef bd3d 7e4d ea3d
00000280: 8d65 1f3e 1a92 a73d e17f 19bc ff17 6abe
00000290: 43b2 87bd f11e 2bbd 5898 29be 01e3 b63e
000002a0: 9c07 283e 0438 3a3d fff8 ca3d 9175 853e
000002b0: 8632 fbbe adc0 713e bbca e33d ce8c 943e
000002c0: 9a19 cc3e f6f6 c6be e0ec 713c b17f c33d
000002d0: ed8a 3f3c d1fc febc 14e0 2dbf 44e0 f0bc
000002e0: 82fe d0be 382b 80bc e4c1 a8be 3508 15bf
000002f0: 5a3b 903e ed2a 41be db37 b63e 592f 843e
00000300: d2b4 57bd 53c0 01be c6d4 a0bc 3ca2 89bd
00000310: ba68 093d b9dc 363e 112a 043d 1267 89be
00000320: 3844 9cbd baf9 b43d b208 a53d 616c 5a3e
00000330: b6ec 423e c1a4 ef3d 19aa d73e 2190 dabe
00000340: 8265 c1be 64ca 743e 9f4e f8be fecb 3b3e
00000350: 72fc 633d 7acd ae3c 414a 37bf d0dd 63bb
00000360: d576 2ebe 8b1f 1c3d a94d 353e 4dcd b0bd
00000370: 0f61 da3d f601 c83e aa32 933d d186 8cbe
00000380: e81e b33c e47e 9e3b 873b 1cbe 6474 e23e
00000390: 2372 693e 7473 e3bd d896 20bd ce81 923e
000003a0: 60e3 e4bd a947 953e d696 2e3e 1aa5 a63e
000003b0: 202f 6f3e c77c 0ebf 6cc5 9e3e 9ce8 8d3e
000003c0: 54cf 303d fa91 59bd caec dfbe 9ee4 aabc
000003d0: 6d5a 48be 7c2a a5ba 2b47 d9be 1d9b 0cbd
000003e0: 2c3b 86be 7032 28be 1f49 b2be e08c dfbd
000003f0: 4ce9 8cbe cd2e b3be 97cf b2bc c4be afbe

neg_net.linears.2.bias f4 [30]
-0.25409865 0.37729838 -0.29428953 0.29104605 -0.06410039 0.2483496 0.18703108 0.1551783
-0.3256282 0.38742605 0.3789431 0.3578435 -0.41832757 -0.56551975 -0.3993441 0.1921731
0.16443838 -0.029079722 -0.033382062 -0.2558448 -0.19081603 0.5448819 -0.236745 -0.25064608
0.18569514 -0.32982624 0.463352 -0.11022067 -0.18870024 -0.29610196
00000000: 3819 82be 412d c13e 1ead 96be fd03 953e
00000010: 1147 83bd 5c4f 7e3e 1385 3f3e 0fe7 1e3e
00000020: bdb8 a6be b55c c63e d404 c23e 4337 b73e
00000030: 082f d6be e7c5 10bf d476 ccbe 06c9 443e
00000040: 8962 283e 9938 eebc a1bb 08bd 17fe 82be
00000050: 4765 43be 617d 0b3f 486d 72be af54 80be
00000060: de26 3e3e fcde a8be 793c ed3e 60bb e1bd
00000070: a33a 41be ad9a 97be
