data/MTMR_28002/sim/random/NN_Dist_0.02/train/N1000/D6_SinCosInput/5/result/model/ReLU_Dual_UDirection_PKD.pt (torch_old, 22776 bytes, 20 tensors)

input_mean f4 [12]
-0.0016985276 0.25551012 0.0022336033 0.24650745 0.24387878 -0.0042819665 0.9210404 0.9221532
0.9424475 0.17451203 0.23490278 0.92002594
00000000: 21a1 deba 39d2 823e a561 123b 736c 7c3e
00000010: 5cbb 793e bd4f 8cbb 4ec9 6b3f 3b12 6c3f
00000020: 3d44 713f 48b3 323e 5b8a 703e d286 6b3f

input_std f4 [12]
0.3831217 0.27749324 0.33038577 0.63683474 0.6635804 0.38547206 0.06999554 0.08570651
0.051312692 0.7093808 0.66708684 0.070322365
00000000: 8728 c43e 9813 8e3e 5328 a93e 9a07 233f
00000010: 68e0 293f 985c c53e d259 8f3d e586 af3d
00000020: 422d 523d fb99 353f 34c6 2a3f 2c05 903d

output_mean f4 [6]
1.13513366e-07 0.35955462 0.19552822 -0.007957253 0.0033475005 0.0013026852
00000000: a2c4 f333 8b17 b83e 8d38 483e 235f 02bc
00000010: bd61 5b3b ddbe aa3a

output_std f4 [6]
3.915519e-05 0.20893577 0.15824018 0.06195806 0.039803486 0.009512652
00000000: 913a 2438 42f3 553e b709 223e bcc7 7d3d
00000010: fb08 233d f4da 1b3c

pos_net.linears.0.weight f4 [30, 12]
-0.27655515 -0.083447196 0.050781902 0.66079193 0.018513339 0.17060047 -0.21790563 0.23799585
-0.021614367 0.14173888 -0.47895452 0.070178 0.625517 0.2623426 0.22393605 0.65955293
-0.3744189 0.3839434 0.09521835 0.01837723 0.105624385 -0.29419708 0.39146277 0.0038853432
-0.44724756 0.19866766 0.27231553 0.2820251 0.04207439 -0.11511546 -0.12350001 0.0043737595
0.0417823 -0.29205453 0.5627962 -0.12767524 0.29093274 -0.14655346 -0.45816183 -0.26709342
0.27448064 -0.09574016 -0.035691727 -0.15276073 -0.04841168 0.395433 -0.112908065 0.0024757774
0.5305412 0.25150338 -0.38746938 0.019712567 -0.6109848 0.15192775 -0.031314705 0.005159652
-0.1562713 -0.34696406 0.23766547 -0.04082411 -0.27122858 0.16119152 0.079882294 0.051470324
0.22923444 -0.04361135 0.0424557 0.043982856 -0.081775695 -0.08305091 -1.2267858 -0.11809181
-0.7523345 0.11843097 -0.04806893 0.14199235 0.39330855 -0.23714097 0.12393512 0.101515494
-0.09437714 0.053984612 -0.25839537 0.059527013 -0.033008628 -0.50304294 -0.33966413 0.08708727
-0.48691452 0.06816841 -0.07830884 0.010339782 -0.061634816 0.70919603 0.0770084 0.092899166
0.35766342 0.14370243 0.31323496 0.069936775 -0.6936912 -0.09929315 -0.008805103 -0.12883902
-0.033106416 -0.43659356 -0.11278586 0.10197643 -0.39063773 0.45114905 0.65560853 0.47964364
0.37703726 0.30874208 -0.0117494 -0.1874115 -0.14283222 0.013848063 -0.20153081 -0.03504731
-0.2970214 0.39396444 0.52448744 -0.37425214 -0.30850226 0.15032856 0.12438897 -0.009210894
0.05717876 -0.7499428 0.0004779321 0.08040587 0.5415598 -0.17266683 -0.25868395 -0.41680393
-0.40960214 -0.19596432 -0.0051102675 0.14051032 0.25044045 0.11838506 0.25495723 0.01858185
0.34334055 0.16054514 0.3623694 0.32444257 -0.5145099 0.12783296 -0.14916962 -0.0004763098
-0.03822473 0.9774995 -0.12735766 0.09592949 -0.031696886 0.03355931 -0.07008427 -0.08378105
-0.73928607 -0.25498423 -0.035167444 0.012359427 0.13426173 -0.0141834365 0.12420361 0.056389417
-0.36293155 0.37181097 0.34515348 -0.13401327 -0.029715069 -0.0103676915 0.099886574 -0.12381593
0.0713925 0.58756894 0.021288618 0.09094298 -0.41706136 0.13071026 0.2020612 0.019143045
0.44972715 0.5332958 -0.006022441 0.061590854 0.1130127 0.2453887 -0.7025252 0.07356704
-0.6334632 -0.031097045 0.11662888 0.33450374 -0.35813573 -0.32513377 -0.07953658 0.122859865
0.1361573 -0.031435616 -0.42111745 -0.11084128 -0.5558802 -0.16078584 0.008047545 -0.5709105
0.30814785 -0.35204485 -0.10715767 0.04776535 0.07083787 0.30715534 -0.36808926 -0.096185565
-0.17752051 -0.21985947 -0.26840457 -0.25036573 -0.48021895 0.35337117 0.00813595 0.28745762
0.104537256 -0.41509324 0.04477772 0.1491168 -0.022696745 -0.09488597 -0.038052864 0.20547605
-0.39059108 0.40314016 -0.09116056 -0.18345347 0.12751977 -0.0054286197 -0.584861 -0.11704899
0.5979718 -0.28418237 -0.09364931 0.058102418 -0.53807336 -0.3687538 0.094117805 0.13064575
-0.01797951 -0.4091712 0.19793022 0.00853018 0.03402979 -0.09772816 0.010273461 -0.0008722779
00000000: a398 8dbe 5de6 aabd af00 503d a929 293f
00000010: 49a9 973c e4b1 2e3e a722 5fbe 2fb5 733e
00000020: 9d10 b1bc ff23 113e 8739 f5be 7cb9 8f3d
00000030: e221 203f c551 863e 7e4f 653e 76d8 283f
00000040: d6b3 bfbe 3b94 c43e d701 c33d d88b 963c
00000050: 9951 d83d 00a1 96be cf6d c83e 3ea1 7e3b
00000060: a2fd e4be 896f 4b3e f16c 8b3e 9865 903e
00000070: 3256 2c3d a7c1 ebbd 93ed fcbd c151 8f3b
00000080: eb23 2b3d 2c88 95be 6913 103f 4cbd 02be
00000090: 23f5 943e 1c12 16be 3094 eabe 78c0 88be
000000a0: ba88 8c3e 6b13 c4bd 7d31 12bd 4f6d 1cbe
000000b0: 534b 46bd 3276 ca3e 583c e7bd a740 223b
000000c0: 8cd1 073f 0dc5 803e 6362 c6be 407c a13c
000000d0: 8069 1cbf f392 1b3e d943 00bd 4c12 a93b
000000e0: 9505 20be 46a5 b1be 945e 733e 2f37 27bd
000000f0: 79de 8abe 640f 253e 5499 a33d 8cd2 523d
00000100: 6fbc 6a3e d1a1 32bd 07e6 2d3d 5e27 343d
00000110: 047a a7bd 9816 aabd 5107 9dbf 1eda f1bd
00000120: fe98 40bf f08b f23d ede3 44bd 7166 113e
00000130: bd5f c93e 15d5 72be b2d1 fd3d 5be7 cf3d
00000140: cd48 c1bd f81e 5d3d 664c 84be 99d2 733d
00000150: 0e34 07bd 6cc7 00bf 75e8 adbe d05a b23d
00000160: dc4c f9be e19b 8b3d 6360 a0bd 3068 293c
00000170: ca74 7cbd df8d 353f 94b6 9d3d eb41 be3d
00000180: a91f b73e bb26 133e 5560 a03e 033b 8f3d
00000190: bf95 31bf 355a cbbd 4743 10bc 60ee 03be
000001a0: 989a 07bd 3189 dfbe 46fc e6bd 05d9 d03d
000001b0: ab01 c8be 02fd e63e f6d5 273f da93 f53e
000001c0: 070b c13e 7113 9e3e 8e80 40bc cde8 3fbe
000001d0: 9c42 12be fce2 623c 185e 4ebe c58d 0fbd
000001e0: 3013 98be b5b5 c93e cf44 063f fa9d bfbe
000001f0: 02f4 9dbe bbef 193e a5bf fe3d 4ae9 16bc
00000200: 4734 6a3d 40fc 3fbf f692 fa39 d5ab a43d
00000210: aaa3 0a3f 93cf 30be 3972 84be 5367 d5be
00000220: 5fb7 d1be dfaa 48be 0874 a7bb f0e1 0f3e
00000230: bb39 803e de73 f23d c189 823e f738 983c
00000240: 55ca af3e f265 243e 7b88 b93e 561d a63e
00000250: ecb6 03bf a5e6 023e ecbf 18be 38b9 f9b9
00000260: 8991 1cbd 683d 7a3f 0c6a 02be ae76 c43d
00000270: 98d4 01bd 7d75 093d 5788 8fbd 6695 abbd
00000280: da41 3dbf 4b8d 82be bd0b 10bd 327f 4a3c
00000290: e87b 093e a561 68bc 765e fe3d 97f8 663d
000002a0: 2ad2 b9be 025e be3e f5b7 b03e c63a 09be
000002b0: 046d f3bc 40dd 29bc 5591 cc3d 3593 fdbd
000002c0: 3b36 923d eb6a 163f 7865 ae3c 5040 ba3d
000002d0: 1189 d5be e9d8 053e 22e9 4e3e e0d1 9c3c
000002e0: a342 e63e 1386 083f e657 c5bb b146 7c3d
000002f0: 3473 e73d 2d47 7b3e b1d8 33bf 51aa 963d
00000300: a52a 22bf 3bbf febc 1fdb ee3d 1344 ab3e
00000310: 915d b7be ef77 a6be 13e4 a2bd f49d fb3d
00000320: d26c 0b3e a2c2 00bd b59c d7be c100 e3bd
00000330: 2a4e 0ebf 0ba5 24be dad9 033c 3127 12bf
00000340: 8ec5 9d3e 393f b4be 7b75 dbbd 9aa5 433d
00000350: 7213 913d 7743 9d3e 3276 bcbe f0fc c4bd
00000360: f0c7 35be d722 61be 536c 89be f02f 80be
00000370: 42df f5be 11ed b43e a64c 053c a52d 933e
00000380: a117 d63d 1a87 d4be d868 373d 13b2 183e
00000390: 86ee b9bc 9353 c2bd 52dd 1bbd 5068 523e
000003a0: 8efb c7be 6368 ce3e 63b2 babd 3adb 3bbe
000003b0: 8b94 023e 90e2 b1bb 73b9 15bf 62b7 efbd
000003c0: ae14 193f 5a80 91be 36cb bfbd cdfc 6d3d
000003d0: 2dbf 09bf 4ccd bcbe d6c0 c03d 00c8 053e
000003e0: c449 93bc e37e d1be 38ae 4a3e 2bc2 0b3c
000003f0: d262 0b3d b425 c8bd 0552 283c 94a9 64ba

pos_net.linears.0.bias f4 [30]
-0.2999311 0.4632601 -0.25598028 0.07147377 0.2418366 -0.093120866 0.030598551 -0.18977515
-0.3344977 -0.07761551 -0.14388351 0.049301222 0.05639653 -0.17316188 0.027108315 0.083536305
-0.39411965 -0.13471335 0.015906278 -0.74742573 -0.01572516 -0.57985663 0.29885182 -0.3179239
-0.6330035 -0.040611606 0.25787488 0.1049301 0.032081395 0.049214352
00000000: 9290 99be 6e30 ed3e d90f 83be d760 923d
00000010: 03a4 773e 27b6 bebd d0a9 fa3c 6b54 42be
00000020: 4843 abbe e1f4 9ebd 3356 13be 14f0 493d
00000030: 0c00 673d 5951 31be 4212 de3c 1515 ab3d
00000040: 0dca c9be 4cf2 09be e24d 823c 4b57 3fbf
00000050: 0dd2 80bc 7c71 14bf 1b03 993e ecc6 a2be
00000060: 840c 22bf 5b58 26bd 2d08 843e 98e5 d63d
00000070: c867 033d fd94 493d

pos_net.linears.1.weight f4 [30, 30]
-0.0008023774 0.00021732706 0.00063222693 0.001832859 -0.00030175567 0.00070417643 -0.0065915696 0.0007606749
0.0017170685 -0.0003458653 -0.0003653717 -0.00022432179 0.0008292088 0.0012668219 0.0004039999 -0.000553708
6.3917876e-05 -0.0006597516 -0.0013250371 0.00010849401 -0.00041502426 -0.0007037266 -8.354981e-05 0.00029398868
0.00061475456 -0.00048292294 -0.0020860669 0.000248826 -0.007826512 0.00061572366 0.07739412 -0.2168093
-0.16035528 -0.21451479 0.13113184 -0.18330659 0.25246397 -0.3311348 -0.08858599 -0.22026813
-0.27788535 0.1358399 0.4771422 -0.32024002 0.38176143 0.2255578 -0.15904443 0.19164322
0.40614164 -0.006945783 0.24093568 0.096195206 0.47401363 -0.10408323 -0.12948906 -0.10276772
-0.04255948 -0.5762142 0.07043107 0.2887237 -0.20706317 -0.33038175 0.13193533 0.09866618
0.16597275 0.060638096 -0.14138168 -0.12704131 -0.13260694 -0.26242572 -0.18992138 0.31073725
-0.46164957 0.18918207 -0.15003845 -0.037065845 0.0686272 0.3987787 0.42721856 0.10987983
0.13424629 0.099012196 -0.22986266 -0.16793591 0.0031328022 0.16071965 0.16582121 -0.15785566
-0.1402703 0.39381778 -0.06172468 0.3545195 -0.023253823 -0.072769254 0.43778387 -0.36253914
-0.32858548 -0.10030357 0.26458895 0.036385674 0.13855977 0.14218605 0.026944058 -0.17661242
-0.10210127 -0.030401649 -0.16205275 -0.36231634 -0.023293268 -0.028956247 0.27864084 -0.003068505
-0.06586033 0.04294555 0.2851782 0.18300338 -0.1034811 0.04853968 -0.4048326 -0.12943201
0.08189114 -0.1727969 -0.12990329 0.02478574 0.02308849 0.19333677 0.13363291 -0.26677793
0.100324534 -0.1511019 -0.23257528 -0.057397835 0.17525358 -0.13422738 0.0045267493 0.050536565
0.11008272 0.07354428 0.09358854 0.37005457 -0.08478703 0.751604 0.0722225 -0.15793501
-0.051823046 -0.1658856 0.2851307 0.04299301 0.05854454 -0.038925905 0.025583342 0.31289604
0.1229487 -0.048085686 0.2149317 -1.0568852 -0.32848036 0.2458802 0.4040618 -0.14327767
0.043912306 -0.006844163 0.217688 0.36174774 0.28177798 -0.34962904 0.5885837 -0.2763169
-0.025295623 0.00023840232 0.31938913 0.5799253 0.085273966 0.099778384 0.11615569 0.044581186
0.01923868 0.24730018 -0.30752838 0.05625841 0.066922516 -0.34686184 -0.108800575 0.003259153
-0.39362085 0.08452974 0.20523903 0.42852983 0.0100081405 -0.22027436 -0.037196722 -0.2490957
-0.06130803 -0.15751232 -0.36631215 0.17114474 0.043898497 0.15604204 -0.09894576 0.13545138
-0.22606404 0.501819 -0.2396439 -0.1543996 -0.12573422 -0.10981667 0.15122211 -0.091550894
0.22489125 -0.06846751 -0.0012681045 -0.05148616 -0.0020109199 -0.004040382 -0.020469269 -0.01764998
-0.009555079 0.0012936968 0.0021624756 0.00088415685 -0.008304858 -0.0012402013 -0.013626685 -0.0025058694
-0.011514074 -0.01739349 0.0010542348 -0.019177629 -0.0024779164 0.00025452097 -0.004131023 -0.00095101475
-0.0038038483 0.0012430382 -0.0016102977 0.00179057 -0.024338095 -0.014198767 -0.00567876 -0.024504703
-0.0002767915 -0.25353092 -0.0782591 -0.030760795 -0.053831182 -0.0008327876 0.0023745813 -0.08126204
-0.065957345 0.0030266992 -0.07219533 -0.048590723 -0.034683213 -0.06426106 0.00059183233 -0.0013759059
00000000: a356 52ba 4ae2 6339 08bc 253a 8b3c f03a
00000010: f634 9eb9 7b98 383a 18fe d7bb 0768 473a
00000020: 420f e13a 4155 b5b9 5c8f bfb9 ec37 6bb9
00000030: 435f 593a 7d0b a63a f3cf d339 b726 11ba
00000040: a60b 8638 2ef3 2cba deac adba 4787 e338
00000050: 9d97 d9b9 4b7a 38ba 7637 afb8 7e22 9a39
00000060: 7b27 213a d230 fdb9 65b6 08bb dc74 8239
00000070: c53a 00bc 8468 213a cf80 9e3d 4203 5ebe
00000080: 2d34 24be c4a9 5bbe 6d47 063e b9b4 3bbe
00000090: f542 813e 808a a9be 926c b5bd f88d 61be
000000a0: fd46 8ebe 9d19 0b3e fc4b f43e 80f6 a3be
000000b0: 3c76 c33e a0f8 663e 8bdc 22be 1f3e 443e
000000c0: ccf1 cf3e 7399 e3bb d8b7 763e fe01 c53d
000000d0: eab1 f23e 9729 d5bd c898 04be e277 d2bd
000000e0: d952 2ebd c682 13bf 2a3e 903d 98d3 933e
000000f0: 5e08 54be cc27 a9be 0e1a 073e 7f11 ca3d
00000100: c3f4 293e a75f 783d 5cc6 10be 1e17 02be
00000110: 1dca 07be aa5c 86be c07a 42be f418 9f3e
00000120: 555d ecbe f2b8 413e aea3 19be 5bd2 17bd
00000130: 6b8c 8c3d b92c cc3e 64bc da3e ad08 e13d
00000140: dc77 093e e8c6 ca3d 1e61 6bbe 64f7 2bbe
00000150: b34f 4d3b b193 243e 09cd 293e eaa4 21be
00000160: 04a3 0fbe 7ca2 c93e 05d3 7cbd 9483 b53e
00000170: cd7e bebc 0c08 95bd 3525 e03e bb9e b9be
00000180: 5b3c a8be f56b cdbd 3478 873e 2509 153d
00000190: 9de2 0d3e 3899 113e c9b9 dc3c e3d9 34be
000001a0: 781a d1bd e10c f9bc 28f1 25be 8781 b9be
000001b0: 86d1 bebc a735 edbc 03aa 8e3e f918 49bb
000001c0: c8e1 86bd ace7 2f3d e102 923e 3d65 3b3e
000001d0: e6ed d3bd 8bd1 463d 3846 cfbe d389 04be
000001e0: 8bb6 a73d acf1 30be 5e05 05be 770b cb3c
000001f0: 1324 bd3c 13fa 453e 11d7 083e 1e97 88be
00000200: f376 cd3d 75ba 1abe 3728 6ebe fe19 6bbd
00000210: ad75 333e e772 09be 2055 943b 6eff 4e3d
00000220: 0d73 e13d 629e 963d 59ab bf3d cb77 bd3e
00000230: d3a4 adbd 1f69 403f 64e9 933d b7b9 21be
00000240: 6744 54bd eadd 29be a7fc 913e 7019 303d
00000250: 66cc 6f3d c570 1fbd 2894 d13c e933 a03e
00000260: 87cc fb3d 7ff5 44bd 0e17 5c3e 0448 87bf
00000270: 942e a8be 05c8 7b3e 30e1 ce3e 62b7 12be
00000280: 64dd 333d 0045 e0bb 9ae9 5e3e 0037 b93e
00000290: 3445 903e 9402 b3be 6cad 163f 6979 8dbe
000002a0: c438 cfbc a3fb 7939 f986 a33e fc75 143f
000002b0: 1ea4 ae3d 9c58 cc3d 09e3 ed3d c39a 363d
000002c0: 709a 9d3c 423c 7d3e 5c74 9dbe 386f 663d
000002d0: ac0e 893d e097 b1be d6d2 debd 8497 553b
000002e0: ac88 c9be ee1d ad3d 2e2a 523e 4368 db3e
000002f0: 2ff9 233c 9a8f 61be 975b 18bd f112 7fbe
00000300: 211e 7bbd e94a 21be 448d bbbe 9140 2f3e
00000310: e9ce 333d 7cc9 1f3e 13a4 cabd c4b3 0a3e
00000320: 557d 67be 3677 003f 3665 75be ee1a 1ebe
00000330: 79c0 00be 90e7 e0bd f8d9 1a3e 097f bbbd
00000340: e449 663e b238 8cbd 8736 a6ba 27e3 52bd
00000350: a3c9 03bb 2e65 84bb 2baf a7bc b196 90bc
00000360: e88c 1cbc 4391 a93a 52b8 0d3b c3c6 673a
00000370: 1911 08bc 408e a2ba 7642 5fbc 8339 24bb
00000380: 87a5 3cbc cb7c 8ebc 402e 8a3a 671a 9dbc
00000390: 8a64 22bb 3a71 8539 885d 87bb 854d 79ba
000003a0: fc49 79bb 71ed a23a a010 d3ba 8fb1 ea3a
000003b0: af60 c7bc f2a1 68bc e414 babb 16be c8bc
000003c0: 541e 91b9 cece 81be 4f46 a0bd 10fe fbbc
000003d0: 167e 5cbd 6e4f 5aba dd9e 1b3b b66c a6bd
000003e0: a514 87bd 965b 463b 25db 93bd 1107 47bd
000003f0: fc0f 0ebd 4d9b 83bd 3225 1b3a be57 b4ba

pos_net.linears.1.bias f4 [30]
-0.030567968 0.033578724 0.10749289 0.07934026 -0.13659863 -0.12429174 -0.13862963 -0.011291694
-0.31000414 0.06473078 -0.13496898 0.1043329 0.15611227 0.019943362 -0.013579987 -0.0050668735
0.018713659 0.2139961 -0.026535556 0.519869 -0.097503185 -0.028142476 0.0050125793 0.023808809
0.15476212 -0.05614831 0.2551406 -0.40536898 -0.13084531 -0.003703646
00000000: ad69 fabc d889 093d 3b25 dc3d 257d a23d
00000010: 83e0 0bbe ab8c febd edf4 0dbe cc00 39bc
00000020: ddb8 9ebe 9291 843d 4f35 0abe 7dac d53d
00000030: e5db 1f3e 4360 a33c 987e 5ebc 0408 a6bb
00000040: 634d 993c cb21 5b3e 1861 d9bc 2316 053f
00000050: c0af c7bd 0d8b e6bc 9040 a43b b10a c33c
00000060: f679 1e3e c5fb 65bd caa1 823e 868c cfbe
00000070: 50fc 05be deb8 72bb

pos_net.linears.2.weight f4 [30, 30]
-7.253051e-05 -0.18758525 0.1981614 0.09393404 -0.2793573 0.29873756 -0.11628237 -0.0028929948
0.00013794797 0.20464331 -0.3155389 0.15458335 -0.0366089 0.413086 0.017416615 0.007412619
-0.4996499 -0.17602241 -0.0018322257 -0.0072546713 -4.286527e-05 -0.000115513394 0.044932626 0.19696358
-0.13410415 0.00089185545 -0.44458237 -0.29236096 0.05261391 0.1940512 -7.084684e-05 -0.044469196
-0.13639662 -0.19420597 -0.07703293 -0.20824885 -0.009310586 0.00012548942 -0.00075243047 0.0024304693
-0.17820123 0.00260498 -0.20846951 -0.00022420113 -5.5299995e-05 7.184122e-05 -0.16125455 3.9351282e-05
-0.00016765142 -4.4027525e-05 0.0007317011 -8.411388e-05 -0.23457684 -0.1346668 -0.0018895938 0.00020307288
-0.18835442 -3.9443457e-05 0.00010019859 -0.09270933 -0.00017254893 0.2791804 0.21012707 0.02350005
0.44095492 -0.07945434 -0.21896158 -0.0014570656 0.00018361646 0.13634278 -0.03437352 -0.5421947
0.12963153 0.250937 0.006119352 0.0009025349 -0.14157645 0.19893175 0.0050686817 0.032386728
-5.5970107e-05 4.534914e-05 0.0053117587 0.09286007 0.22632407 -0.005908858 0.094563946 -0.29307854
-0.044338234 0.16865283 -9.927692e-05 0.0236673 0.35373214 -0.38457265 -0.06872477 0.19972877
0.46175 0.0041746027 -4.8319052e-05 0.098140985 -0.092715174 0.20118761 0.00328923 0.1449224
-0.012271443 0.006060952 0.08440586 0.5140063 0.004199505 -0.08289014 -0.00018134988 4.357384e-05
0.25656092 -0.45942634 -0.41061577 -9.136193e-06 -0.041323256 0.19477797 0.016442291 -0.03472263
0.000115235234 -0.2929676 -0.019468477 -0.00021117435 -0.15509465 -0.0025709819 -0.1425101 -1.167351e-05
2.1063897e-07 -0.22770426 0.0018143153 -0.13111275 -0.24506074 -0.0005897097 0.00010157934 -1.96361e-06
-0.013434872 -7.244662e-05 4.5617053e-06 2.6945694e-05 0.0003597462 -0.00016768234 0.001657507 0.0012998632
-0.0050388835 -0.00048160122 -0.33206102 -0.0001493972 1.4101774e-05 -0.33583522 0.00023749421 -0.0008195139
0.00016514969 0.0013302243 -0.00031691144 -0.00090037007 8.953178e-05 -0.00014442384 -0.0041679246 0.00036325702
-0.0007729605 -0.001527548 0.0002000506 -5.952565e-05 0.0013419014 0.0003567623 -0.0013224805 -6.0765153e-05
0.0018590172 0.000115097515 -0.0019274756 0.00041479786 -0.06998451 0.0006275027 0.0002823887 -0.00026555426
-0.00067543576 -0.00019541432 0.00012417772 0.0003350568 -0.00034433993 -0.002567591 0.006210111 -0.015976619
-0.0037375537 -0.05699586 -0.0028898001 2.2682434e-06 -0.00085120375 -0.010743629 0.0030692322 0.0014860721
-0.0022006545 -0.0016770286 -0.00023185113 0.0005033665 0.020832332 -0.0006912403 -0.0005644476 0.0024104845
-0.0010182383 0.00010054839 -0.033432417 0.008688992 0.005107483 4.3791464e-05 -0.014925424 0.00024131277
0.000373429 -0.013679352 -8.673465e-06 0.0028374833 -0.06684093 0.0032819908 -0.0010588581 0.031618703
-0.00064564066 0.00012059153 0.00017892933 0.00032476042 -0.086459726 -0.0009807976 0.0017834979 6.244198e-05
0.00022008576 0.00015517195 -0.08406331 0.00015573946 -0.0007890742 -0.00015741013 -0.027700791 -8.5996544e-05
-0.018240226 -0.0096157985 -0.0006262021 -0.0002513936 -0.012055815 -0.0002336272 0.00011340853 -0.00010013078
-8.22406e-06 -0.11784071 -0.27304277 0.12043665 0.030358529 0.3134381 -0.04377236 -0.0008615671
-0.0005209127 0.29704225 0.23094872 -0.028006649 -0.086837895 0.46382087 -0.003542147 0.0077635646
00000000: 851b 98b8 5916 40be d2ea 4a3e 7d60 c03d
00000010: ec07 8fbe 21f4 983e 7425 eebd 6698 3dbb
00000020: 20a6 1039 048e 513e 518e a1be 194b 1e3e
00000030: 37f3 15bd 0280 d33e 4aad 8e3c 8ee5 f23b
00000040: 1dd2 ffbe 383f 34be 4b27 f0ba 98b8 edbb
00000050: 3cca 33b8 c83f f2b8 460b 383d d2b0 493e
00000060: 9952 09be 68cb 693a 4da0 e3be 56b0 95be
00000070: af81 573d 5cb5 463e 9c93 94b8 5525 36bd
00000080: 8eab 0bbe eedd 46be 71c3 9dbd 303f 55be
00000090: 6e8b 18bc cf95 0339 c13e 45ba 8248 1f3b
000000a0: 627a 36be 50b8 2a3b 0879 55be 8817 6bb9
000000b0: ebf1 67b8 76a9 9638 ea1f 25be 1e0d 2538
000000c0: 96cb 2fb9 32aa 38b8 a1cf 3f3a 4c66 b0b8
000000d0: e934 70be 18e6 09be 3fac f7ba f6ef 5439
000000e0: fbdf 40be 1770 25b8 b521 d238 64de bdbd
000000f0: 40ee 34b9 bcf0 8e3e 8d2b 573e 2d83 c03c
00000100: d8c4 e13e f5b8 a2bd 7737 60be 02fb beba
00000110: 2b89 4039 719d 0b3e 40cb 0cbd 46cd 0abf
00000120: 21be 043e d17a 803e d884 c83b 1898 6c3a
00000130: 6bf9 10be c4b4 4b3e 2f17 a63b f2a7 043d
00000140: 72c1 6ab8 4535 3e38 430e ae3b 6c2d be3d
00000150: 7fc1 673e 189f c1bb beaa c13d 640e 96be
00000160: 029c 35bd 54b3 2c3e e432 d0b8 ede1 c13c
00000170: 611c b53e b5e6 c4be 92bf 8cbd b385 4c3e
00000180: 7f6a ec3e 1bcb 883b 30aa 4ab8 24fe c83d
00000190: 74e1 bdbd 2004 4e3e 1f90 573b 8a66 143e
000001a0: 2a0e 49bc f39a c63b fbdc ac3d eb95 033f
000001b0: 009c 893b 4ec2 a9bd bd28 3eb9 0ec3 3638
000001c0: f45b 833e ee39 ebbe 3b3c d2be a647 19b7
000001d0: 9342 29bd e073 473e fcb1 863c 5139 0ebd
000001e0: 72aa f138 d9ff 95be 5b7c 9fbc af6e 5db9
000001f0: 22d1 1ebe eb7d 28bb 2bee 11be 58d9 43b7
00000200: 002c 6234 4e2b 69be 52ce ed3a 6c42 06be
00000210: 34f1 7abe c096 1aba fe06 d538 90c6 03b6
00000220: f01d 5cbc 7cee 97b8 c010 9936 7009 e237
00000230: 519c bc39 e3d3 2fb9 b540 d93a 2c60 aa3a
00000240: 381d a5bb 6c7f fcb9 e703 aabe 81a7 1cb9
00000250: a896 6c37 98f2 abbe de07 7939 a6d4 56ba
00000260: 082c 2d39 ec5a ae3a 2227 a6b9 d006 6cba
00000270: 02c3 bb38 7b70 17b9 1693 88bb 8873 be39
00000280: 80a0 4aba 0138 c8ba adc4 5139 2eab 79b8
00000290: bde2 af3a d30b bb39 1557 adba 16de 7eb8
000002a0: 44aa f33a 8260 f138 59a3 fcba 3a79 d939
000002b0: 0a54 8fbd fe7e 243a 920d 9439 173a 8bb9
000002c0: ba0f 31ba 22e8 4cb9 b435 0239 90aa af39
000002d0: 8688 b4b9 0745 28bb 307e cb3b 66e1 82bc
000002e0: bff1 74bb 7e74 69bd cd62 3dbb 2038 1836
000002f0: 5123 5fba 0c06 30bc 2c25 493b 4ec8 c23a
00000300: db38 10bb becf dbba 101d 73b9 5bf4 033a
00000310: 91a8 aa3c 5a34 35ba 70f7 13ba 38f9 1d3b
00000320: 6876 85ba 81dd d238 6ef0 08bd 465c 0e3c
00000330: ac5c a73b baac 3738 c489 74bc e708 7d39
00000340: cbc8 c339 5c1f 60bc 4084 11b7 12f5 393b
00000350: e6e3 88bd ab16 573b 62c9 8aba 9d82 013d
00000360: 3640 29ba 16e6 fc38 fa9e 3b39 9b44 aa39
00000370: cc11 b1bd 1b8e 80ba 42c4 e93a 48f3 8238
00000380: d2c6 6639 a7b5 2239 6229 acbd fe4d 2339
00000390: e0d9 4eba 760e 25b9 c5ec e2bc 0b59 b4b8
000003a0: 876c 95bc 958b 1dbc b627 24ba 7acd 83b9
000003b0: c185 45bc d3f9 74b9 bed5 ed38 4efd d1b8
000003c0: 12fa 09b7 7856 f1bd 43cc 8bbe 7ea7 f63d
000003d0: 73b2 f83c f57a a03e a54a 33bd cada 61ba
000003e0: dc8d 08ba ec15 983e d27d 6c3e 336e e5bc
000003f0: 11d8 b1bd ee79 ed3e 5e23 68bb 8065 fe3b

pos_net.linears.2.bias f4 [30]
0.4530382 -0.21141592 -0.41388103 -0.7589742 -0.14690632 -0.13429524 -0.032096557 -0.18207063
-0.2645193 -0.06478761 -0.11702307 -0.20804176 0.082976356 0.52064085 -0.35987636 0.15696079
-0.39530456 -0.02406941 0.041007787 0.1119337 0.07403627 -0.02775295 0.17019111 0.07361505
0.3586603 0.08658868 0.16243562 -0.21285684 0.2898562 0.22240508
00000000: 9ff4 e73e 6a7d 58be 37e8 d3be 224c 42bf
00000010: 9c6e 16be b184 09be ae77 03bd b970 3abe
00000020: 136f 87be 5eaf 84bd cba9 efbd e608 55be
00000030: 82ef a93d b848 053f b741 b8be 54ba 203e
00000040: 5c65 cabe 362d c5bc c8f7 273d 7f3d e53d
00000050: 54a0 973d 285a e3bc 9446 2e3e 7dc3 963d
00000060: 53a2 b73e 6855 b13d 8655 263e 25f7 59be
00000070: 0868 943e 28be 633e

pos_net.output_layer.weight f4 [6, 30]
0.04989149 -0.08152956 0.07507125 0.07117392 0.0043792846 3.213559e-05 -0.014247426 -0.115084104
-0.22152855 -0.08681552 -0.2467338 -0.27693218 -0.046302956 0.32811365 -0.38621247 -0.4286191
0.096878394 0.31469002 0.47999522 -0.44521528 -0.39862528 0.11439288 -0.5239512 -0.44296917
-8.199527e-05 -0.063008204 0.55947095 0.32182226 0.6405412 -0.4607857 -0.06654528 0.0007255454
-0.09109883 -0.22128034 -0.023319669 0.017417477 -0.0020331098 -0.086107545 -0.117764965 0.10896458
-0.1902109 0.07855123 -0.3136017 0.38705808 -0.18283617 0.30813333 -0.009374438 -0.17927992
-0.012793204 0.09819895 -0.2582519 0.0098145455 0.2203705 -0.19897807 -0.14697383 -0.2917958
-0.0016134568 -0.25472146 0.10602779 0.14082198 -0.012740169 -0.12366002 0.014906944 -0.030904017
-0.06611169 0.007644609 0.0017734786 -0.04291774 -0.16240948 0.15741956 0.10769941 -0.10278899
-0.20377797 0.33732614 -0.051607586 0.36718524 -0.06442823 -0.22600427 -0.017352805 -0.020444117
-0.22980577 0.08784145 0.2060836 -0.16724229 -0.059138954 -0.14818363 0.188929 -0.36175522
0.080827266 0.13595703 -0.14277396 0.031630334 -0.096035086 0.3388882 0.055404752 0.001628471
-0.00033000443 0.0024549535 -0.027744314 0.20379716 -0.0019905749 0.18031803 -0.5231091 0.13065994
-0.022777222 -0.11055513 0.38150722 -0.29173803 -0.1701477 0.050023884 -0.33731952 -0.0039257295
-0.10933335 0.39948753 0.025097162 0.6667619 0.23416167 0.3262306 -0.06131055 -0.13520674
-0.6618279 -0.047110345 -0.5833256 -0.1778541 0.26462048 -0.0002436923 -1.7727776e-05 0.04068758
0.004426196 -0.15413009 0.22928838 0.14562492 0.0110282255 0.3415789 0.012673644 0.010220157
0.10224181 0.012164208 0.17190088 -0.34308448 0.105259195 0.007841967 -0.036587067 -0.11046757
0.35913968 -0.005570561 -0.107378386 0.07846886 0.053286456 -0.14834328 0.11932425 -0.04530981
-0.039154254 0.89444613 -0.28031525 -0.00046632392 -0.013061416 0.012785697 0.77313775 -0.07739375
-0.17253174 0.20805939 0.41283405 0.1285042 -0.40748215 -0.040772345 0.47612396 -0.06575707
0.3593839 0.26443443 -0.33742738 -0.034688782 0.11666881 -0.29974654 -0.6297144 0.40568128
-0.22521281 0.23142 -0.25170264 -0.11723731
00000000: 055b 4c3d f8f8 a6bd f5be 993d a2c3 913d
00000010: 1a80 8f3b 54c9 0638 096e 69bc 37b1 ebbd
00000020: 61d8 62be 56cc b1bd c9a7 7cbe 0eca 8dbe
00000030: 2ba8 3dbd 83fe a73e a4bd c5be f673 dbbe
00000040: 2e68 c63d 0d1f a13e efc1 f53e 42f3 e3be
00000050: 9d18 ccbe d046 ea3d aa21 06bf dbcc e2be
00000060: e0f4 abb8 720a 81bd 7d39 0f3f e3c5 a43e
00000070: 82fa 233f 1aec ebbe e448 88bd 8732 3e3a
00000080: 0692 babd 5097 62be e408 bfbc 19af 8e3c
00000090: ec3d 05bb 2759 b0bd c22e f1bd d228 df3d
000000a0: a5c6 42be 78df a03d 6790 a0be 7a2c c63e
000000b0: 6839 3bbe a7c3 9d3e 3e97 19bc 2895 37be
000000c0: 969a 51bc 881c c93d 9839 84be 30cd 203c
000000d0: cea8 613e e8c0 4bbe 4f80 16be 4266 95be
000000e0: a07a d3ba da6a 82be 1925 d93d a333 103e
000000f0: 24bc 50bc 7741 fdbd 413c 743c 6c2a fdbc
00000100: 9165 87bd a17f fa3b 1174 e83a 83ca 2fbd
00000110: ac4e 26be 9832 213e 8291 dc3d 0983 d2bd
00000120: 2cab 50be 03b6 ac3e 7a62 53bd b4ff bb3e
00000130: f3f2 83bd aa6d 67be 7827 8ebc 6c7a a7bc
00000140: 3452 6bbe 38e6 b33d 9407 533e 9041 2bbe
00000150: b03b 72bd 73bd 17be 9b76 413e fb37 b9be
00000160: c488 a53d 5238 0b3e 5633 12be cf8e 013d
00000170: 0bae c4bd c182 ad3e 18f0 623d 6b72 d53a
00000180: 7204 adb9 49e3 203b 0b48 e3bc 34b0 503e
00000190: 4e74 02bb 4aa5 383e 7aea 05bf b8cb 053e
000001a0: 4c97 babc ba6a e2bd ea54 c33e b05e 95be
000001b0: 333b 2ebe d8e5 4c3d 25b5 acbe 68a3 80bb
000001c0: 2aea dfbd a189 cc3e 9098 cd3c e8b0 2a3f
000001d0: 14c8 6f3e b207 a73e c520 7bbd a373 0abe
000001e0: 8e6d 29bf c7f6 40bd d454 15bf 631f 36be
000001f0: 567c 873e a787 7fb9 1cb6 94b7 05a8 263d
00000200: a009 913b 47d4 1dbe 93ca 6a3e b31e 153e
00000210: bbaf 343c 6ee3 ae3e 1ea5 4f3c 7272 273c
00000220: 2764 d13d 634c 473c c906 303e c5a8 afbe
00000230: 2292 d73d 987b 003c 52dc 15bd d23c e2bd
00000240: 28e1 b73e 4189 b6bb 33e9 dbbd 48b4 a03d
00000250: e642 5a3d 4de7 17be 4660 f43d c896 39bd
00000260: 3660 20bd 6cfa 643f 7b85 8fbe f07c f4b9
00000270: 8dff 55bc 1a7b 513c 5bec 453f 9d80 9ebd
00000280: 29ac 30be 850d 553e fc5e d33e 9b96 033e
00000290: 80a1 d0be e700 27bd 85c6 f33e a5ab 86bd
000002a0: 2b01 b83e f363 873e 48c3 acbe d315 0ebd
000002b0: 0ff0 ee3d 6178 99be f734 21bf 75b5 cf3e
000002c0: 309e 66be 5df9 6c3e 2bdf 80be 1d1a f0bd

pos_net.output_layer.bias f4 [6]
0.12766975 0.30367604 -0.16047241 -0.3824676 0.45159486 0.00085300184
00000000: dcbb 023e 6d7b 9b3e e152 24be cbd2 c3be
00000010: 7137 e73e fc9b 5f3a

neg_net.linears.0.weight f4 [30, 12]
-0.44860658 -0.084985584 -0.4014377 -0.54948413 -0.42771655 -0.026246168 -0.024195917 0.026825413
0.06289557 0.21822433 0.2616362 -0.071841955 -0.12920253 -0.21387957 -0.28869376 -0.5258552
0.5540044 -0.25720906 -0.07201361 0.09670891 -0.054785304 0.7121219 -0.3308575 0.007318231
-0.28434852 -0.0054879664 -0.3112013 -0.7733625 0.29491037 0.12426573 0.0019135129 -0.038801774
0.02620216 0.31905904 0.4176898 0.081856884 0.10302461 0.47314492 0.6474194 0.48997724
0.1936367 -0.10964498 -0.0028227444 0.13242146 -0.070724666 0.38430402 0.087221995 0.10257439
-0.09208248 -0.037168603 -0.37856653 -0.306499 -0.5820189 -0.43407902 0.002639441 0.1815603
0.083214484 0.15590554 -0.47494325 -0.11749122 -0.44767246 0.32217404 0.27162245 -0.23988445
-0.1597779 -0.31645513 0.061353795 -0.2568746 -0.050427224 0.66683847 0.11188904 -0.013111108
-0.26475674 0.57731396 0.59864414 -0.05141208 -0.01014502 -0.1107994 -0.09926841 -0.036873158
-0.023689179 -0.16721794 -0.6294515 0.09537458 -0.52329016 0.17433234 -0.1845669 -0.75731
-0.7201871 -0.18487163 0.04852376 -0.13950276 -0.042898845 0.28731883 -0.091730654 0.23518327
0.39359736 -0.19161582 -0.1005512 0.050634686 -0.22983767 0.109254204 -0.08023721 0.015980711
-0.037088685 -0.5921346 0.042015035 0.038277898 -0.111076586 -0.06326394 -0.04245305 0.11959907
-0.82832384 0.2538365 -0.109968476 -0.089964844 -0.03313703 0.024260353 -0.31008053 -0.043865107
0.0048083784 0.22417101 0.67354035 -0.057405613 -0.44314238 0.025737053 0.13618681 -0.21467125
-0.07070656 -0.056369532 -0.29587317 -0.16340777 0.09980076 -0.10123561 -0.063673705 -1.0752113
0.04999295 -0.061081167 0.059562758 0.021523034 -0.045932528 -0.5265515 -0.326186 -0.02957403
-0.07611895 0.17718619 0.22768104 -0.9150331 0.09838279 0.02350567 -0.028249353 0.037759446
0.15927663 0.33206233 0.1920588 0.026768059 0.5514636 -0.29525137 0.15924448 0.104534686
-0.10150383 0.50159866 0.07955367 -0.041189432 -0.07181626 0.20509486 -0.4804331 0.029863155
-0.010004249 0.08714698 0.25349435 0.4513823 -0.8131702 -0.6031779 -0.032812085 -0.14209361
-0.0150974095 0.09343554 -0.1233581 0.09590911 -0.5000824 0.5174608 0.23597337 0.60632515
0.08579179 0.12156009 -0.075824976 0.007450255 0.11990196 0.43841606 0.454899 0.09187974
0.40933394 -0.5771131 -0.38849074 -0.18664654 0.3596789 -0.16877125 0.040877555 0.044981394
-0.013565313 -0.16742072 -0.65613675 0.12550063 0.19280067 -0.70024925 -0.6080596 -0.046821367
-0.08101397 0.18301167 -0.010904566 0.06363043 -0.02138063 0.107795924 0.25564164 -0.022218633
0.5145541 -0.32447985 0.03279282 0.41535833 0.49832752 0.3969829 -0.08461626 0.23402484
0.0703001 -0.46253335 -0.056994017 0.02268593 0.043764845 0.35044217 0.5146907 0.16926907
-0.09638341 0.2015666 0.035079036 -0.03346471 0.07601588 -0.63795894 0.15487303 -0.026391797
-0.6665986 0.049101453 -0.3849311 -0.19074188 0.7321889 -0.7537115 -0.10283634 0.07503347
-0.012596159 0.0148425875 0.40998387 -0.07753093 0.008136284 -0.17837326 -0.23444931 -0.4841333
00000000: c3af e5be ec0c aebd 3e89 cdbe feaa 0cbf
00000010: aafd dabe 3402 d7bc 8436 c6bc f8c0 db3c
00000020: 65cf 803d 3376 5f3e 2ef5 853e e021 93bd
00000030: ab4d 04be 3f03 5bbe abcf 93be 729e 06bf
00000040: 3bd3 0d3f e8b0 83be df7b 93bd 520f c63d
00000050: 8e66 60bd 9f4d 363f 2766 a9be c5cd ef3b
00000060: 2196 91be 66d4 b3bb c755 9fbe 16fb 45bf
00000070: 7efe 963e 087f fe3d d7ce fa3a 9cee 1ebd
00000080: eaa5 d63c b55b a33e 70db d53e 95a4 a73d
00000090: 91fe d23d 0d40 f23e 47bd 253f 4cde fa3e
000000a0: b348 463e 8c8d e0bd cbfd 38bb 7e99 073e
000000b0: 18d8 90bd 7fc3 c43e 72a1 b23d 8612 d23d
000000c0: bd95 bcbd 1b3e 18bd 79d3 c1be 70ed 9cbe
000000d0: 31ff 14bf 9b3f debe 79fa 2c3b f1ea 393e
000000e0: 5b6c aa3d b4a5 1f3e c32b f3be 3d9f f0bd
000000f0: 5335 e5be fff3 a43e 1912 8b3e 45a4 75be
00000100: d19c 23be 6806 a2be 1e4e 7b3d 1185 83be
00000110: c78c 4ebd edb5 2a3f 1526 e53d f9cf 56bc
00000120: 328e 87be d9ca 133f be40 193f 7995 52bd
00000130: 4c37 26bc ccea e2bd 3c4d cbbd 4f08 17bd
00000140: cf0f c2bc 2e3b 2bbe bc23 21bf bf53 c33d
00000150: 58f6 05bf 2d84 323e 1bff 3cbe 11df 41bf
00000160: 2f5e 38bf fd4e 3dbe dac0 463d d0d9 0ebe
00000170: b3b6 2fbd 741b 933e 48dd bbbd e2d3 703e
00000180: 9885 c93e f036 44be caed cdbd 5166 4f3d
00000190: 915a 6bbe abc0 df3d 6853 a4bd fbe9 823c
000001a0: 4eea 17bd 2296 17bf f517 2c3d 49c9 1c3d
000001b0: 1f7c e3bd 8690 81bd 40e3 2dbd 5bf0 f43d
000001c0: 080d 54bf dcf6 813e 2737 e1bd 7d3f b8bd
000001d0: b2ba 07bd a6bd c63c e0c2 9ebe e6ab 33bd
000001e0: 9a8f 9d3b 168d 653e 246d 2c3f 2622 6bbd
000001f0: 8fe3 e2be 83d6 d23c 8e74 0b3e c8d2 5bbe
00000200: 9ace 90bd bde3 66bd b07c 97be 5e54 27be
00000210: 5764 cc3d 9e54 cfbd 5c67 82bd 86a0 89bf
00000220: 68c5 4c3d 3f30 7abd 14f8 733d 1351 b03c
00000230: bf23 3cbd 14cc 06bf da01 a7be 3c45 f2bc
00000240: 41e4 9bbd 4c70 353e 3825 693e 9c3f 6abf
00000250: eb7c c93d f68e c03c 306b e7bc a6a9 1a3d
00000260: 6a19 233e 1304 aa3e 10ab 443e b048 db3c
00000270: b82c 0d3f 302b 97be fc10 233e 4816 d63d
00000280: 3de1 cfbd c568 003f 09ed a23d 40b6 28bd
00000290: 6714 93bd 6304 523e 54fb f5be 93a3 f43c
000002a0: dde8 23bc 1e7a b23d 03ca 813e 951b e73e
000002b0: ec2b 50bf de69 1abf f765 06bd fd80 11be
000002c0: 205b 77bc 225b bf3d 2ca3 fcbd ff6b c43d
000002d0: 6605 00bf 5078 043f 01a3 713e 2038 1b3f
000002e0: 9bb3 af3d 7ff4 f83d 204a 9bbd 4521 f43b
000002f0: 298f f53d 1278 e03e 86e8 e83e 722b bc3d
00000300: 3894 d13e afbd 13bf 42e8 c6be 4520 3fbe
00000310: d527 b83e 5fd2 2cbe 396f 273d 693e 383d
00000320: 0c41 5ebc 5670 2bbe 94f8 27bf 3d83 003e
00000330: 8a6d 453e 8943 33bf cba9 1bbf c3c7 3fbd
00000340: a7ea a5bd 6967 3b3e 11a9 32bc ac50 823d
00000350: 6e26 afbc 1cc4 dc3d 76e3 823e da03 b6bc
00000360: d1b9 033f 3922 a6be c451 063d d9a9 d43e
00000370: c924 ff3e 5841 cb3e 4a4b adbd 35a4 6f3e
00000380: 80f9 8f3d 2cd1 ecbe 8f72 69bd d8d7 b93c
00000390: c442 333d 286d b33e c5c2 033f df54 2d3e
000003a0: aa64 c5bd 7a67 4e3e 09af 0f3d 4b12 09bd
000003b0: 37ae 9b3d 4751 23bf 0997 1e3e 9c33 d8bc
000003c0: 35a6 2abf 9b1e 493d b015 c5be d751 43be
000003d0: bb70 3b3f 3df3 40bf dc9b d2bd 26ab 993d
000003e0: 1f60 4ebc 532e 733c 68e9 d13e 89c8 9ebd
000003f0: 0c4e 053c 7ba7 36be 7b13 70be 52e0 f7be

neg_net.linears.0.bias f4 [30]
0.029033368 0.091766775 -0.28132957 0.00089895725 -0.33423305 0.14095241 -0.11192148 -0.029461358
-0.00081712916 -0.78246623 -0.23105131 -0.3780547 -0.25290906 0.07501407 -0.27477172 -0.041832443
-0.12511054 0.07812133 0.16753113 -0.049028713 -0.02639639 -0.20499437 0.43793333 -0.2657649
-0.5645043 -0.27303985 -0.40662068 -0.073699586 -0.094071165 0.078591555
00000000: 63d7 ed3c 38f0 bb3d 6e0a 90be 00a8 6b3a
00000010: 9820 abbe d455 103e 1737 e5bd f258 f1bc
00000020: 9c34 56ba b54f 48bf b798 6cbe 6390 c1be
00000030: 4c7d 81be faa0 993d e1ae 8cbe 7f58 2bbd
00000040: fa1c 00be 13fe 9f3d 488d 2b3e 55d2 48bd
00000050: 3e3d d8bc 0bea 51be cc38 e03e 5612 88be
00000060: 5b83 10bf e1cb 8bbe 9630 d0be cfef 96bd
00000070: 62a8 c0bd 9cf4 a03d

neg_net.linears.1.weight f4 [30, 30]
-0.15363237 -0.2030201 -0.25672054 0.18584955 -0.14367905 -0.069764234 0.27323088 -0.22806963
0.009573959 -0.17471372 -0.32432303 0.04976441 -0.48683932 0.035839982 0.268491 0.06401655
-0.10061462 -0.27131596 0.20675361 0.11129352 -0.2202152 0.1401696 0.33744276 0.036631145
0.035923373 0.028138684 -0.041418057 0.16591842 -0.35945064 -0.26856923 0.19171926 0.10015633
0.059240334 -0.13177136 0.057409808 0.38319418 0.20677584 0.35108978 -0.3277927 0.40265128
0.09094394 0.2382793 0.28524846 -0.18531558 0.19995861 0.35817963 -0.15902114 -0.17666914
-0.23742957 -0.11465036 0.47367606 0.05793308 -0.32339984 -0.18347667 -0.61213505 -0.5025974
0.05554947 0.007823814 0.22764118 0.23614417 -0.31000516 -0.27472767 -0.33095226 0.2244019
0.03584865 -0.2737316 0.114121825 -0.20528452 0.22539128 -0.35264632 0.10039017 0.21692173
-0.15193179 -0.006525751 0.114944935 -0.059023075 0.025495378 0.069822595 0.34242108 0.37561935
-0.13590784 0.094811924 0.29710612 0.06293723 -0.0050206548 -0.10074981 0.07118088 -0.18777895
0.15216799 -0.39186782 -0.048731424 -0.15698227 0.15932448 0.16226965 -0.22631378 0.02199855
0.10193285 -0.0573076 0.04126054 0.0038854734 0.1875652 -0.06468001 -0.16459201 -0.0773029
0.10431664 0.44774538 -0.2923505 -0.23502389 -0.2329402 0.37014973 -0.13185509 -0.04433713
-0.31799632 -0.13478704 -0.3219067 0.12708806 0.21341413 0.06471224 0.18457249 0.26259652
0.17606127 -0.21832745 -0.29521403 -0.10320728 0.08447258 -0.17940094 -0.09910065 -0.1120775
0.11412341 -0.34934205 -0.11543171 0.640343 -1.0544963 -0.030846516 0.17469545 -0.309055
0.18573424 0.19053595 0.3514147 0.12016512 -0.12267448 0.28996933 0.13175261 0.030826855
0.12517759 0.38588592 -0.0313326 -0.09780328 -0.017528078 -0.24672084 0.040309403 -0.067137375
-0.12192714 -0.21525584 0.18524398 -0.150224 -0.1563443 -0.08628624 -0.028762022 0.1140782
-0.030546539 -0.28133634 -0.33332726 -0.019586101 0.62115663 -0.15528841 -0.012534158 -0.22540165
-0.05529055 -0.09091509 -0.0922883 -0.21598145 -0.11263631 0.3028763 0.002158554 0.16685544
-0.103835285 0.11554488 -0.08591118 0.2740891 -0.35358125 0.12638962 -0.044515263 0.5803559
0.04236554 0.2933443 0.030940741 -0.025469892 -0.08151087 -0.10069767 0.057705108 -0.0075878687
0.55832046 -0.20559306 -0.10343814 0.11963933 0.043206003 -0.51007116 -0.05337434 -0.030151008
0.011127279 0.0037943881 0.19440702 -0.16291957 0.06896668 -0.24303977 -0.42371187 0.26060352
-0.0713088 -0.3391554 0.19022982 0.001985487 0.27059063 -0.15747154 0.36580807 -0.07580826
-0.1249535 0.14510383 -0.13508199 0.18253691 0.10756107 0.4469185 -0.07869984 -0.06640518
-0.0073701693 -0.2698706 -0.01928725 0.051087722 -0.01940356 -0.19886544 -0.117177054 0.15686026
-0.19354354 -0.15054934 -0.29050583 -0.20274344 -0.15939236 0.026416391 -0.09317297 0.15897614
0.27384326 0.08666349 -0.0077418974 -0.3599067 0.34688544 -0.07041274 -0.04440284 0.24779025
-0.22886091 0.14935319 0.09284604 -0.071830414 -0.33728853 0.19541714 0.17165343 -0.15043473
00000000: ce51 1dbe 80e4 4fbe e070 83be 584f 3e3e
00000010: 9a20 13be 8de0 8ebd ebe4 8b3e 168b 69be
00000020: 18dc 1c3c 27e8 32be ab0d a6be c4d5 4b3d
00000030: 0143 f9be f2cc 123d a777 893e 1c1b 833d
00000040: 0a0f cebd ede9 8abe 38b7 533e dbed e33d
00000050: 1880 61be 9f88 0f3e 4cc5 ac3e 8a0a 163d
00000060: 6324 133d 1983 e63c fba5 29bd 85e6 293e
00000070: ea09 b8be e881 89be 0e52 443e c31e cd3d
00000080: fea5 723d 12ef 06be 8c26 6b3d 0732 c43e
00000090: 0cbd 533e 0ac2 b33e 72d4 a7be 4f28 ce3e
000000a0: d140 ba3d 7dff 733e 160c 923e 5ec3 3dbe
000000b0: f3c1 4c3e 5263 b73e 70d6 22be c1e8 34be
000000c0: bd20 73be cfcd eabd ab85 f23e 3d4b 6d3d
000000d0: aa94 a5be 4fe1 3bbe e2b4 1cbf 39aa 00bf
000000e0: d787 633d 742f 003c c51a 693e c7cf 713e
000000f0: ffb8 9ebe 1ba9 8cbe 9372 a9be 9dc9 653e
00000100: 09d6 123d 8c26 8cbe b4b8 e93d 1b36 52be
00000110: f9cc 663e 0f8e b4be 5d99 cd3d bb20 5e3e
00000120: 0294 1bbe f8d5 d5bb 4068 eb3d 2ec2 71bd
00000130: afdb d03c 26ff 8e3d d151 af3e 2e51 c03e
00000140: 6d2b 0bbe c12c c23d 4b1e 983e 3ce5 803d
00000150: 4e84 a4bb eb55 cebd 48c7 913d 2049 40be
00000160: edd1 1b3e e6a2 c8be 9a9a 47bd f6bf 20be
00000170: f525 233e 042a 263e cdbe 67be 4e36 b43c
00000180: 2cc2 d03d 60bb 6abd d000 293d 6da3 7e3b
00000190: 1711 403e f476 84bd cf8a 28be fc50 9ebd
000001a0: f6a3 d53d e23e e53e f7ae 95be 1aaa 70be
000001b0: e087 6ebe 4484 bd3e 0505 07be da9a 35bd
000001c0: 6ad0 a2be 9d05 0abe f4d0 a4be 5f23 023e
000001d0: 3c89 5a3e da87 843d 9200 3d3e 0d73 863e
000001e0: 6849 343e 3b91 5fbe 4b26 97be 575e d3bd
000001f0: f6ff ac3d e1b4 37be 48f5 cabd e388 e5bd
00000200: 89b9 e93d f6dc b2be 7667 ecbd 85ed 233f
00000210: bcf9 86bf d5b1 fcbc 5de3 323e 753c 9ebe
00000220: 1e31 3e3e db1b 433e a1ec b33e 2119 f63d
00000230: c23c fbbd dc76 943e 28ea 063e 9a88 fc3c
00000240: 8e2e 003e d792 c53e 9d56 00bd 164d c8bd
00000250: 0b97 8fbc 63a4 7cbe 791b 253d 527f 89bd
00000260: f0b4 f9bd 076c 5cbe 99b0 3d3e 52d4 19be
00000270: b818 20be d7b6 b0bd 559e ebbc d5a1 e93d
00000280: bc3c fabc 510b 90be dfa9 aabe 0873 a0bc
00000290: 1f04 1f3f ed03 1fbe 125c 4dbc b1cf 66be
000002a0: 5878 62bd b131 babd a601 bdbd 3e2a 5dbe
000002b0: dead e6bd 9a12 9b3e 8776 0d3b 27dc 2a3e
000002c0: 98a7 d4bd cba2 ec3d 33f2 afbd 6855 8c3e
000002d0: 9a08 b5be 486c 013e a355 36bd 3492 143f
000002e0: 7d87 2d3d 3931 963e 7077 fd3c 3ca6 d0bc
000002f0: 2cef a6bd 943a cebd 315c 6c3d a8a3 f8bb
00000300: 17ee 0e3f fd86 52be 60d7 d3bd 7705 f53d
00000310: c7f8 303d 0694 02bf 0d9f 5abd 3fff f6bc
00000320: 314f 363c 45ab 783b a212 473e 63d4 26be
00000330: 673e 8d3d 6bdf 78be c3f0 d8be d36d 853e
00000340: 590a 92bd c7a5 adbe 9bcb 423e f21e 023b
00000350: db8a 8a3e 3840 21be 324b bb3e 5c41 9bbd
00000360: 9fe7 ffbd 1996 143e ef52 0abe f5ea 3a3e
00000370: fa48 dc3d 80d2 e43e 622d a1bd 70ff 87bd
00000380: 7681 f1bb 7b2c 8abe 4b00 9ebc 5c41 513d
00000390: 37f4 9ebc 62a3 4bbe 86fa efbd fa9f 203e
000003a0: 4730 46be 9b29 1abe 2ebd 94be fa9b 4fbe
000003b0: c037 23be 3067 d83c 78d1 bebd a4ca 223e
000003c0: 2f35 8c3e a17c b13d beaf fdbb b145 b8be
000003d0: f89a b13e 8e34 90bd c1df 35bd babc 7d3e
000003e0: 845a 6abe 0bf0 183e 1126 be3d d31b 93bd
000003f0: 15b1 acbe 6e1b 483e ebc5 2f3e 900b 1abe

neg_net.linears.1.bias f4 [30]
0.049124975 -0.17787744 0.005302138 0.10114658 -0.06531012 -0.26766106 0.29769203 -0.09064724
0.009889595 -0.22439738 -0.1113497 -0.1574375 -0.12966087 0.22059909 0.26716882 0.22972237
-0.17286605 -0.17335618 -0.2219619 0.04928985 0.1201851 0.07596159 -0.12484367 0.09797699
-0.26800755 0.018030005 0.05730066 -0.2637104 0.033158705 -0.35599905
00000000: 4537 493d 8125 36be 8fbd ad3b f025 cf3d
00000010: 50c1 85bd df0a 89be 176b 983e 43a5 b9bd
00000020: f807 223c 6dc8 65be 500b e4bd 4c37 21be
00000030: d2c5 04be bae4 613e 5aca 883e 573c 6b3e
00000040: cc03 31be 4884 31be fb49 63be 27e4 493d
00000050: 9b23 f63d c091 9b3d 0aae ffbd 29a8 c83d
00000060: 4938 89be a9b3 933c 19b4 6a3d 0d05 87be
00000070: 6cd1 073d 8245 b6be

neg_net.linears.2.weight f4 [30, 30]
0.22407207 -0.30453965 0.35818315 0.017956285 0.2028843 0.2795842 -0.20589998 -0.056410305
0.14819416 0.048823226 -0.03789357 0.09877007 0.074230365 0.086855024 -0.18073454 0.35865125
0.31488422 -0.031088492 -0.071297206 0.2637375 0.1730094 -0.16296902 0.0045103263 0.3359577
-0.027683409 -0.058373794 -0.29386216 -0.0010342152 0.28896332 0.0401448 -0.08249248 -0.16953325
-0.0037577166 -0.44003963 0.124442786 -0.06999959 -0.28103626 -0.061607126 -0.11839869 -0.056932226
-0.11799515 -0.048387326 -0.06300895 -0.58361447 0.11338169 0.06850954 -0.2942177 0.0031211756
-0.3076716 0.1204678 0.3261008 0.45430332 0.32166773 0.24860935 0.0004912536 0.013757028
-0.118028656 -0.0006520161 0.13352591 3.709268e-05 -0.29109645 -0.12637594 0.2571915 0.33037904
-0.08570229 -0.24088898 -0.114779264 -0.21493448 -0.06322645 -0.30739996 -0.06567371 -0.054142524
-0.09391819 -0.40224817 -0.32620746 -0.047075406 0.27457204 -0.15069364 0.34655252 -0.028442366
0.04255411 -0.22909692 0.33327565 -0.012233917 -0.1473495 -0.039678723 -0.18890634 -0.17375718
-0.0883791 -0.08618823 3.699672e-05 -0.07326146 0.0001325933 -0.0006658237 -0.0008720286 -0.021802738
-0.0012867373 0.0054208743 -0.01937226 -0.015169385 -0.0005224984 5.019815e-05 -0.00024272918 0.002495424
-0.016704401 -0.00013227692 0.00031070138 0.00086465135 0.00038902886 -0.0003785887 -0.00033423383 -0.047685955
-0.00012521897 0.0007428268 -0.0015043207 -0.0005175818 -0.015101418 -0.0010017597 -0.00036631784 0.0014445691
-0.07483544 -0.008418187 -0.077723265 -0.0005859746 -0.08228295 -4.9235045e-05 -0.0038385221 0.0019407828
-0.0014795827 -0.00023409471 -0.0004266054 0.0008662185 0.0001520914 0.00045477515 -0.03098083 -0.0753115
9.234579e-05 0.00026750288 -6.040843e-05 -0.086184934 -0.11498549 -0.02767044 -0.067372546 -0.07886997
-0.00018909432 9.545032e-05 -0.0006937954 9.242382e-05 -0.080011696 -0.00026312118 0.12714906 0.24358487
0.30810833 0.4129332 -0.14024614 0.11549084 0.32958955 0.0931412 0.16086362 0.13037118
0.2376576 0.16274957 -0.029886918 0.18593995 -0.4138365 0.5065185 -0.034632675 -0.041470233
-0.11669057 0.07489446 0.4224333 -0.28630957 0.10643184 0.013708193 0.0773266 0.017231746
-0.2855271 0.11666878 0.1905654 0.0024087403 0.049275707 0.018881984 -0.1572711 -0.3332668
-0.21009913 -0.14571612 -0.09539549 0.23435356 0.2644459 0.05579439 -0.05851614 -0.09780341
-0.039538316 -0.13945347 0.6239161 0.05178781 -0.018827626 -0.12942015 0.1212672 -0.26347375
-0.22355537 0.09855105 -0.17691386 -0.268671 -0.10718615 -0.037699416 -0.14166097 -0.053831436
0.029473558 -0.030791866 0.13823293 -0.2676137 0.1522762 -0.18244077 0.13516444 -0.21810865
0.57487005 -0.10580731 -0.14182393 0.18848199 0.06662515 -0.06240004 -0.03503386 -0.037774812
0.49653158 0.24153386 -0.1706407 -0.0246507 -0.068744384 0.14866778 0.3354987 0.20442362
-0.043227214 0.23027684 0.0024774761 0.07572234 0.10103656 -0.0012038602 0.12471245 -0.0031716467
-0.046692505 0.039083205 -0.017552083 0.13693361 -0.15618601 -0.08796447 -0.06987046 -0.12440823
-0.16692238 -0.0523708 -0.28347865 0.09163193 -0.00017283003 0.48344097 -0.3353425 0.18550369
00000000: 2673 653e 9fec 9bbe c863 b73e 0f19 933c
00000010: e7c0 4f3e a925 8f3e 72d7 52be 7e0e 67bd
00000020: 36c0 173e ddfa 473d 4a36 1bbd f647 ca3d
00000030: 1706 983d 0ce1 b13d 7a12 39be 23a1 b73e
00000040: 8138 a13e 4bad febc 4504 92bd 9a08 873e
00000050: 6029 313e 5ae1 26be 5ccb 933b a602 ac3e
00000060: 51c8 e2bc 5c19 6fbd 1a75 96be 818e 87ba
00000070: 00f3 933e e06e 243d d1f1 a8bd 209a 2dbe
00000080: 0644 76bb e04c e1be dcdb fe3d f25b 8fbd
00000090: fce3 8fbe c157 7cbd 037b f2bd c431 69bd
000000a0: 71a7 f1bd ca31 46bd d60a 81bd c267 15bf
000000b0: a934 e83d bb4e 8c3d b4a3 96be a38c 4c3b
000000c0: 2287 9dbe d2b7 f63d aff6 a63e 729a e83e
000000d0: a2b1 a43e 7393 7e3e 79c7 003a 2865 613c
000000e0: 02b9 f1bd 0fec 2aba 04bb 083e f693 1b38
000000f0: 980a 95be b268 01be 9bae 833e 7127 a93e
00000100: af84 afbd 9aab 76be 6411 ebbd c917 5cbe
00000110: de7c 81bd 8763 9dbe f07f 86bd 8dc4 5dbd
00000120: 2e58 c0bd 79f3 cdbe aa04 a7be 24d2 40bd
00000130: b594 8c3e 6f4f 1abe 556f b13e f7ff e8bc
00000140: 384d 2e3d 6298 6abe 1ba3 aa3e c470 48bc
00000150: cae2 16be 2886 22bd aa70 41be 67ed 31be
00000160: 1a00 b5bd 7483 b0bd ed2c 1b38 1b0a 96bd
00000170: be08 0b39 ac8a 2eba d998 64ba a89b b2bc
00000180: bda7 a8ba 97a1 b13b 93b2 9ebc 0389 78bc
00000190: 46f8 08ba da8b 5238 1e85 7eb9 448a 233b
000001a0: abd7 88bc d1b3 0ab9 a2e5 a239 c5a9 623a
000001b0: 92f6 cb39 517d c6b9 1b3c afb9 5952 43bd
000001c0: 364d 03b9 43ba 423a a02c c5ba 54ae 07ba
000001d0: f06b 77bc 7a4d 83ba 590e c0b9 b257 bd3a
000001e0: 5343 99bd 6fec 09bc 602d 9fbd 179c 19ba
000001f0: f783 a8bd ba81 4eb8 b78f 7bbb dd61 fe3a
00000200: 8fee c1ba 5277 75b9 02aa dfb9 f112 633a
00000210: b97a 1f39 e36e ee39 82cb fdbc ea3c 9abd
00000220: c5a9 c138 a13f 8c39 0f5f 7db8 ba81 b0bd
00000230: 837d ebbd 1ead e2bc 9efa 89bd 9486 a1bd
00000240: 9f47 46b9 802c c838 d2df 35ba a9d3 c138
00000250: 2cdd a3bd 87f3 89b9 5d33 023e 506e 793e
00000260: 60c0 9d3e fb6b d33e af9c 0fbe 7686 ec3d
00000270: f6bf a83e d0c0 be3d 6fb9 243e 0680 053e
00000280: 845c 733e d3a7 263e 69d5 f4bc 0b67 3e3e
00000290: 61e2 d3be 32ab 013f feda 0dbd b1dc 29bd
000002a0: 77fb eebd 4462 993d 2d49 d83e 2b97 92be
000002b0: f0f8 d93d 5498 603c 695d 9e3d 9729 8d3c
000002c0: 9c30 92be 0bf0 ee3d 9423 433e f5db 1d3b
000002d0: 53d5 493d 64ae 9a3c ad0b 21be f2a1 aabe
000002e0: 3a24 57be 9b36 15be b65e c3bd 61fa 6f3e
000002f0: 7465 873e a988 643d 9fae 6fbd 274d c8bd
00000300: eef2 21bd e4cc 0ebe f7b8 1f3f 741f 543d
00000310: 653c 9abc b786 04be f05a f83d 08e6 86be
00000320: b3eb 64be 22d5 c93d e828 35be 3f8f 89be
00000330: 6a84 dbbd b46a 1abd 930f 11be 5a7e 5cbd
00000340: 8872 f13c 393f fcbc ef8c 0d3e aa04 89be
00000350: 4bee 1b3e c1d1 3abe 8c68 0a3e e057 5fbe
00000360: af2a 133f 81b1 d8bd 4b3a 11be 6c01 413e
00000370: c472 883d 2f97 7fbd aa7f 0fbd c3b9 1abd
00000380: 6339 fe3e a754 773e 70bc 2ebe 44f0 c9bc
00000390: dbc9 8cbd 5e3c 183e 7cc6 ab3e 6d54 513e
000003a0: 050f 31bd b1cd 6b3e 275d 223b 5014 9b3d
000003b0: 42ec ce3d d8ca 9dba 3e69 ff3d 67db 4fbb
000003c0: a440 3fbd b615 203d 63c9 8fbc 5338 0c3e
000003d0: 3aef 1fbe b726 b4bd 3e18 8fbd bec9 febd
000003e0: b3ed 2abe c482 56bd 1d24 91be 85a9 bb3d
000003f0: b539 35b9 9385 f73e 03b2 abbe aef4 3d3e

neg_net.linears.2.bias f4 [30]
0.09216915 0.44822252 -0.2475939 -0.07341029 -0.095550604 0.11771438 -0.04676196 0.14158659
-0.015738094 -0.09999808 -0.21019599 0.06294304 -0.16421086 -0.17510061 0.17928226 0.25363547
0.08645293 -0.015523141 0.17587009 0.15845047 -0.2189392 0.30558786 0.07575051 0.35113767
0.2746526 -0.11990678 -0.06627036 0.047340315 -0.24300303 -0.010893753
00000000: 2ec3 bc3d 6c7d e53e 4189 7dbe 2258 96bd
00000010: 09b0 c3bd 3d14 f13d 7889 3fbd 13fc 103e
00000020: 2ded 80bc cbcb ccbd 9e3d 57be 48e8 803d
00000030: e426 28be 934d 33be c595 373e 82dc 813e
00000040: 3c0e b13d c654 7ebc 4a17 343e d740 223e
00000050: 9931 60be 0376 9c3e 1523 9b3d 51c8 b33e
00000060: 449f 8c3e b091 f5bd c1b8 87bd ebe7 413d
00000070: c9d5 78be b67b 32bc
