data/MTMR_28002/sim/random/NN_Dist_1/train/N100/D6_SinCosInput/5/result/model/ReLU_Dual_UDirection_PKD.pt (torch_old, 22776 bytes, 20 tensors)

input_mean f4 [12]
000000 47 d0 06 bb 43 a6 83 3e eb 53 25 3a ad fe 7e 3e
       -0.002057092 0.25712785 0.0006306755 0.24901839
000010 fe b7 6e 3e 70 19 b0 b9 c5 8c 6b 3f e2 d5 6b 3f
       0.23312375 -0.00033588288 0.9201167 0.92123234
000020 b3 53 71 3f 52 4f 30 3e 7d a3 76 3e 94 b4 6b 3f
       0.9426834 0.17217758 0.24085803 0.92072415

input_std f4 [12]
000000 46 3d c5 3e 57 d6 8e 3e 04 d5 a8 3e d2 96 22 3f
       0.3852331 0.27897903 0.32975018 0.63511384
000010 cd e9 2a 3f 59 88 c4 3e 4a 79 90 3d 52 05 b0 3d
       0.66763 0.38385275 0.07054384 0.08594765
000020 e3 5a 51 3d ef ea 35 3f f6 2d 2a 3f d2 b5 8f 3d
       0.051112067 0.71061605 0.6647638 0.07017101

output_mean f4 [6]
000000 f3 d2 5a 33 2c 0b b8 3e 4b eb 47 3e fb bc 06 bc
       5.0948938e-08 0.35946023 0.19523351 -0.008223767
000010 bb 3b 39 3b 17 91 ba 3a
       0.0028264362 0.0014233914

output_std f4 [6]
000000 16 84 3e 39 f5 ce 56 3e db 26 22 3e b9 c7 7d 3d
       0.00018169018 0.20977385 0.15835135 0.06195805
000010 33 62 23 3d db 10 1c 3c
       0.039888572 0.009525503

pos_net.linears.0.weight f4 [30, 12]
000000 0b c5 ee bc 03 66 e6 bd 7d 7b d0 be 89 7d 8f bd
       -0.029146692 -0.11249926 -0.40719214 -0.07006366
000010 ec 94 43 3c 7a 2c 11 3f 6f e8 a2 3d 79 62 6d be
       0.011937361 0.5670849 0.079544894 -0.23182096
000020 48 32 67 3e fa 5c 5d bf 91 3e 63 3e 4d 07 a1 3e
       0.22577775 -0.86469996 0.22191836 0.31450883
000030 12 e6 78 3e 49 89 81 3e 00 6f d7 3e e7 94 47 be
       0.24306515 0.25300053 0.42076874 -0.19490395
000040 15 61 da 3e 11 55 3e 3d 27 bd 4e 3e 08 0a db bd
       0.42652193 0.046467844 0.20189343 -0.10695273
000050 77 b2 08 bd 03 7d a4 3e 2e d7 7b 3c d5 3b d2 be
       -0.033373322 0.32126626 0.015371127 -0.41061273
000060 6f 30 71 3d 99 e7 b1 3e 6e 15 16 bf 3e fe 31 3e
       0.05888408 0.34747007 -0.5862645 0.17382142
000070 82 21 5d 3e b4 32 3b be 9b 89 9a 3d 67 c6 43 be
       0.21594813 -0.1828106 0.075457774 -0.19118653
000080 85 dc e3 be f1 82 86 3e f1 60 54 be 03 19 ff be
       -0.4450418 0.26271775 -0.20740105 -0.4982377
000090 49 95 cc be bd e4 8f 3e e3 15 e1 be 5a a4 63 be
       -0.39957646 0.281042 -0.4396201 -0.22230664
0000a0 7a b4 94 be 78 12 8f 3e 97 e1 09 be 5a 30 06 bb
       -0.29043943 0.27943778 -0.13464962 -0.0020475597
0000b0 30 69 b4 be a2 99 0a 3d 2f 2e 52 3d e4 40 08 be
       -0.35236502 0.033837922 0.051313575 -0.13306004
0000c0 0c fa 3a bd 7a c4 58 bd 44 34 0c bf bd 54 fb bc
       -0.04564862 -0.05292175 -0.5476725 -0.030680055
0000d0 f4 6c 32 3e 62 89 95 3e d9 75 d4 be 2b a5 39 be
       0.17424375 0.29206377 -0.4149616 -0.18129413
0000e0 65 53 8a 3e 59 49 21 bf 7d e4 0a bf 23 ab 91 be
       0.2701675 -0.63002545 -0.54254895 -0.2845088
0000f0 42 3e da 3e 60 4f 85 3f a7 8a 97 3e d5 01 95 3e
       0.42625624 1.0414848 0.2959797 0.2910296
000100 ee 8c 91 3e a8 0e e1 be d2 0d 68 be 67 0b 1c bf
       0.28427833 -0.43956494 -0.22661522 -0.609549
000110 e0 01 87 3e b9 47 98 be 85 6c a3 bd 50 67 b7 3d
       0.26368618 -0.2974222 -0.07979683 0.08955252
000120 67 74 cf be 9c 95 e8 bd 89 40 bf be da 60 93 3d
       -0.40518495 -0.11356661 -0.37353924 0.07196207
000130 2e b3 b4 3e 8d 81 cf 3e e4 3e f9 3d e3 1a a7 be
       0.35292953 0.40528527 0.121701986 -0.326377
000140 61 db f1 3e 3f 38 25 bf 90 93 06 3e e4 a7 f0 3d
       0.47237685 -0.6453895 0.13142228 0.117507726
000150 5c 2c e5 be 56 82 99 be b6 9e 8a 3e 02 bb 39 be
       -0.44760406 -0.2998225 0.27074212 -0.18137744
000160 30 4a d2 be 18 6d 9a 3e 11 82 4a be 6a 9f eb bc
       -0.41072226 0.30161357 -0.19776179 -0.028762538
000170 9c 36 5e 3b 85 fb 15 3f 53 37 33 3e 29 23 85 be
       0.0033907061 0.58586913 0.17501573 -0.26003388
000180 5b 44 a1 be 1c 9e 9d 3e 29 b6 a3 be 83 75 ef bd
       -0.31497464 0.3078469 -0.31974915 -0.116923355
000190 28 5b a1 3e c3 11 4f be fc 9b a9 be e4 ea 16 3e
       0.3151486 -0.2022162 -0.3312682 0.14738041
0001a0 6a 4d a5 bd 7d d9 ed be 7e 18 3c bf 36 3b 93 be
       -0.08071406 -0.46454993 -0.7347487 -0.28756112
0001b0 01 c1 4b 3e 18 89 86 3e 5f 33 fa 3d 5f 7f 8a bf
       0.19897844 0.2627647 0.122168295 -1.082012
0001c0 5c ad 93 be 38 05 a8 bd 10 4c d9 be 39 eb 14 bf
       -0.288432 -0.082041204 -0.42440844 -0.5817142
0001d0 4f 1b 32 be af 53 a5 3e 88 10 57 be b7 e7 25 3f
       -0.1739323 0.32290408 -0.210024 0.64806694
0001e0 e4 3c cf 3e e4 dc 9c 3e ab 1f 91 be 19 20 1b bf
       0.40476143 0.30637276 -0.28344473 -0.6059585
0001f0 3b 03 b5 bd e0 90 8c 3e 98 48 80 3d ea de 02 bf
       -0.08838507 0.2745428 0.06263846 -0.5112139
000200 54 95 a2 be a3 8a 06 bd 1a 8c 37 be 18 d8 d3 3e
       -0.31754553 -0.032847058 -0.17924538 0.41375804
000210 2e 1b b6 3c c2 45 87 be dc 48 93 bd 34 01 d6 be
       0.022229757 -0.26420408 -0.07191631 -0.41797793
000220 d2 6d 38 bf a4 6a a5 be d4 c4 bb be 7f d7 1c bf
       -0.7204257 -0.32307923 -0.36673605 -0.6126632
000230 9c fd b0 be 6f 77 00 3f aa e2 b3 be d1 74 17 3e
       -0.3456849 0.5018224 -0.35133868 0.14790656
000240 98 e3 f6 bc ce a8 68 3e 59 ad 79 be 6a da 9a 3d
       -0.030137822 0.22720644 -0.24382533 0.075611904
000250 cb 10 10 3f 6d 2c 5e 3e 12 ca 44 be 76 42 af be
       0.56275624 0.21696635 -0.19217709 -0.34230393
000260 81 c0 fe 3e b4 35 2e bf 79 8b b2 be 76 d9 87 be
       0.49756244 -0.68050694 -0.34872034 -0.26533097
000270 48 42 fd 3d 51 b5 19 3d dc ab 34 be f1 e9 1c 3e
       0.12366158 0.037526432 -0.17643684 0.15323617
000280 71 e1 2e be 6d 4f 7a 3e ad 06 b9 be 3f 06 c9 3d
       -0.17078187 0.24444361 -0.36137906 0.098156445
000290 10 b9 43 be 7c a6 9e be a4 75 75 3e 36 22 83 3e
       -0.19113564 -0.30986392 0.23970658 0.25612038
0002a0 fe e4 4a 3d ce ab 1f 3e 40 2b af 3d 1a 97 2a 3d
       0.04953479 0.15592882 0.08553171 0.041648008
0002b0 9b f6 15 bf dd 18 fc 3e 32 7f 05 3e 5a 45 d3 bc
       -0.58579415 0.4923772 0.13036802 -0.025789905
0002c0 fe 6e 2c be b0 72 74 3e 75 4e 1e be 5f a9 12 bd
       -0.16839215 0.23871875 -0.15459616 -0.035806056
0002d0 a4 1d 4e 3e 33 28 d1 3d d3 83 81 3e 1e b7 3c be
       0.20128495 0.102127455 0.25295886 -0.18429229
0002e0 a9 d8 d3 3d b3 99 3a be 38 bf e3 3d b7 a8 3a 3e
       0.10344059 -0.18222694 0.111204565 0.18228422
0002f0 11 5a 95 be a9 8f f2 be 70 fa 54 bf de ed e4 bd
       -0.29170278 -0.4737523 -0.8319464 -0.11178182
000300 08 ea 5f bc 5c e8 0c bd 99 82 10 3f fd 65 37 bf
       -0.013666637 -0.034401283 0.56449276 -0.71639997
000310 f6 b0 a7 be 9d 46 e1 bd df c0 67 3c 5a d4 d3 be
       -0.32752198 -0.109997965 0.014145105 -0.4137295
000320 32 e3 0b bd 24 7a 4f 3f 9f 89 8d 3e d4 f5 41 be
       -0.034152217 0.81045747 0.2764406 -0.18941432
000330 ac a2 3c 3d aa e8 f6 be 3e 16 00 bf 94 d0 22 bf
       0.046053573 -0.48224384 -0.5003394 -0.63599515
000340 a7 ff c5 be d8 a1 56 3d d2 78 c7 3b c3 89 de 3d
       -0.3867161 0.05240044 0.006087401 0.1086612
000350 02 b0 1a 3f 9d 01 23 3f 7f 14 92 3e a5 8b db be
       0.60424817 0.63674337 0.28531262 -0.42879978
000360 ec e2 b1 be dc 10 a2 be f9 25 d2 be 6b a2 f0 be
       -0.3474344 -0.31653488 -0.41044596 -0.46998915
000370 d7 fb fe be 9f 2a b5 be 36 0d 67 3e ef 24 ee 3e
       -0.49801514 -0.3538408 0.22563633 0.46512553
000380 22 ef ba 3e 7c 34 f4 3e b2 8e 91 3e c4 01 d7 bc
       0.3651057 0.47696292 0.2842918 -0.02624596
000390 07 60 24 bc f9 5a a2 3d 86 06 e9 3e 5a 1d bf be
       -0.01003266 0.07927508 0.4551279 -0.3732708
0003a0 38 18 a4 3e e6 56 fa 3d ba 6b 7f 3e f2 58 45 3e
       0.32049727 0.12223606 0.24943438 0.19272211
0003b0 b2 16 08 be 90 86 66 bf 91 48 54 be 30 10 8e 3c
       -0.13289908 -0.90049076 -0.20730807 0.017341703
0003c0 ef 5b e3 3d f4 db 69 bd d9 17 8d 3e fd 6e 4f bd
       0.11101519 -0.05709453 0.27557257 -0.050642956
0003d0 28 9e d3 3e 37 69 fd bb 85 02 9e 3e e7 93 6d 3d
       0.413316 -0.00773349 0.30861297 0.05800238
0003e0 11 2f 01 be 02 17 13 bf fb 3d 22 bf cf 9d 5f 3a
       -0.1261561 -0.5745698 -0.63375825 0.000853029
0003f0 9f c5 33 3d 5e b4 83 3d 65 52 f1 3d 7d d4 97 bf
       0.043889638 0.06430887 0.11783294 -1.1861721

pos_net.linears.0.bias f4 [30]
000000 43 b3 bc 3d fc 0b 66 be 61 0e 4d bf 3e 99 cf be
       0.09213879 -0.22465509 -0.80100065 -0.40546602
000010 bd cd 16 be 3d 1e 65 3d 34 00 62 3e e7 76 10 be
       -0.1472692 0.05593704 0.2207039 -0.14107858
000020 14 41 a0 be 99 fa 92 be 59 89 82 be f4 70 b7 be
       -0.3129965 -0.28706816 -0.25495413 -0.35828364
000030 50 cc 19 3d 58 74 9e be 1c bb ad be 37 85 55 bd
       0.037548363 -0.30948138 -0.33931816 -0.052128997
000040 19 21 a0 3d d0 2d 25 3b 97 35 f6 bd 95 89 6a 3e
       0.07818813 0.0025204308 -0.1202194 0.22904046
000050 63 fe 2b bd 02 ac 7a 3d 62 23 d7 3d dd f8 80 be
       -0.04199065 0.061199196 0.105047956 -0.25189868
000060 ab ff ea bd 34 0d 3e 3e e1 1a ec be 33 ff 19 3e
       -0.11474546 0.18559724 -0.46114257 0.15038757
000070 df ff fe 3d e9 03 2c be
       0.12451147 -0.16798367

pos_net.linears.1.weight f4 [30, 30]
000000 83 81 73 3e e1 34 64 be 12 9d 9b 3e 55 11 5a 3e
       0.23779874 -0.22285797 0.30393273 0.21295674
000010 05 57 c8 3e 0b cf a0 3d 35 bc bf 3e 9d a3 fa bd
       0.3912889 0.0785199 0.37448278 -0.12238238
000020 9b 90 53 3e 8d c1 80 bd 44 c9 8f 3d d6 43 da be
       0.20660631 -0.06286917 0.0702081 -0.4262988
000030 0e 93 04 3f 00 a1 82 3e 17 5f 37 3e 1b 3f f6 3d
       0.5178689 0.25513458 0.17907368 0.12023755
000040 8d 4b 24 bf 95 c1 aa 3d d3 86 cd be a5 41 04 3f
       -0.6417778 0.08337704 -0.40141925 0.51662666
000050 e0 43 18 3e 40 34 17 bf a4 0b a5 3e f6 91 60 bd
       0.14869642 -0.590641 0.32235444 -0.0548267
000060 ca 04 70 3e f0 73 e4 be e0 3c ad be 08 eb 8b 3e
       0.23439327 -0.44619703 -0.33835506 0.27327752
000070 89 d7 3f 3e de 9b b0 3e 6e 7d ff bd f9 1f 64 be
       0.18734564 0.34493917 -0.12475096 -0.22277822
000080 52 80 47 be 7a 56 c7 3d 83 3b 8a be 67 9d 99 be
       -0.19482544 0.09733291 -0.2699853 -0.300029
000090 e7 12 92 bd 5d 7f e2 3e de a5 27 bf 38 ef 16 3b
       -0.071325116 0.44237795 -0.6548747 0.002303077
0000a0 a3 d8 ce bd 7b 07 0b bd 5b 89 16 bf 76 e4 88 3e
       -0.10099914 -0.03394268 -0.5880334 0.26736802
0000b0 2f 58 4c 3e 15 42 a7 bd f4 13 76 be 4b ad b6 3e
       0.19955514 -0.08166901 -0.24031049 0.35679087
0000c0 cc 31 e0 3a cc 0e ea bd 0e ab 02 be 78 92 06 bc
       0.0017104684 -0.114286035 -0.12760565 -0.008213632
0000d0 a4 c1 13 3e 91 99 93 3e 9f 6b ff 3e 21 92 f0 bc
       0.14429337 0.288281 0.49886796 -0.029366555
0000e0 24 9f ad be fc e2 df 3d 8a 5c ab 3d 09 ee e6 bc
       -0.33910477 0.10931966 0.0836726 -0.028189676
0000f0 83 8f 64 3e 0b 95 e9 be 2f 75 90 3e e7 57 15 3e
       0.2232037 -0.45621523 0.28214404 0.14584313
000100 34 48 a3 be 5a 40 fc be fb 44 84 3e 3d 6a ab 3e
       -0.31891024 -0.49267846 0.25833878 0.3347949
000110 d4 22 e4 be e5 bd 89 bd 3a 59 a1 bd be 62 2e bc
       -0.44557822 -0.06725673 -0.07878347 -0.010643659
000120 f8 d9 3d be 58 bf 2e 3e b1 e6 68 3e 3b e0 93 be
       -0.1854018 0.1706518 0.22744252 -0.28882012
000130 a6 98 41 be 8d 90 6f 3e f0 3d 07 3e 32 52 06 3e
       -0.18905887 0.23394985 0.13207221 0.13117293
000140 51 31 0e be 25 b6 b1 3d 85 e9 91 3e f5 7e 19 3e
       -0.13886 0.086773194 0.28498474 0.14989837
000150 22 f4 24 3c 4f d0 bd be 22 f7 fe be 76 e1 bc 3c
       0.010067971 -0.3707299 -0.49797922 0.023056727
000160 e3 f5 3c 3e 58 52 a9 bd 6c 31 07 bd 1e 85 a2 be
       0.18453173 -0.08267659 -0.033006117 -0.31742185
000170 af 22 a5 be 2a 1b 5a bd 22 74 d4 be 91 de 28 bf
       -0.32253024 -0.053248562 -0.41494852 -0.6596461
000180 5d 2e 94 bd e5 f6 22 3c bc 9e c7 be 22 96 1c 3f
       -0.072354056 0.00994656 -0.38988292 0.61166584
000190 4e fb 46 3e bf 6e e0 3d a8 b8 d7 be f4 0d 0d be
       0.19431803 0.10958623 -0.4213307 -0.13774854
0001a0 12 d3 1c 3d b6 d2 0a bf 90 f6 a2 3d bf 2d 22 3f
       0.03828723 -0.5422777 0.07957184 0.63351053
0001b0 a7 4a 03 3f f2 93 6b be 51 e0 de bd 93 fa ff 3e
       0.51285785 -0.23005655 -0.10882629 0.4999586
0001c0 40 5f 53 ba ae 69 f5 bc 88 11 e8 3d d0 01 bb 3e
       -0.00080632046 -0.029957619 0.11331469 0.3652482
0001d0 b5 18 e3 bd b0 64 83 bd ee b9 a3 3e e2 a7 55 be
       -0.11088697 -0.06415689 0.3197779 -0.20864823
0001e0 55 6d aa 3e 1e d4 a3 3d 51 7c ec be e3 ab 68 3c
       0.3328654 0.079994425 -0.46188596 0.014201137
0001f0 9c 0f d9 be 3c 80 4f 3e 36 05 8d 3e a4 30 14 3e
       -0.42394722 0.20263761 0.27543038 0.1447168
000200 7d 30 4d bf f0 f1 b3 ba c3 8d 65 3e c1 ef 01 3e
       -0.8015211 -0.0013728719 0.22417359 0.12689115
000210 ea bb 4e bb 8e af cd 3d 16 86 9f be 81 cb 9d be
       -0.003154511 0.1004325 -0.31156987 -0.30819324
000220 81 cb 63 bd 07 26 e0 3e 7a c3 46 3c 76 5f 0f 3e
       -0.055614 0.43779013 0.012131566 0.14001259
000230 86 53 ed be 23 b0 ad be a1 51 85 3e 66 1c a3 3d
       -0.46352786 -0.33923444 0.2603884 0.07964401
000240 61 ce 68 3e 8e 2e f4 bd 28 81 e9 be 86 b9 85 be
       0.22734977 -0.11922942 -0.4560635 -0.26118106
000250 af f3 00 3f f6 7a b5 3d 87 07 a5 3d f1 95 f7 be
       0.5037183 0.088613436 0.08058076 -0.48356584
000260 31 14 11 be 29 d2 26 be 90 e6 a7 be d1 ad 85 be
       -0.14167859 -0.16291107 -0.32793093 -0.26109174
000270 10 e4 61 3d d1 c7 5d be 18 d0 ad be bd bf cb bd
       0.055149138 -0.21658255 -0.33947825 -0.099486805
000280 de ad ed be 62 8d 0f bd 05 7c 29 bb 04 06 cd bd
       -0.46421713 -0.035046943 -0.0025861275 -0.10010913
000290 70 1e 6b be 92 7d e3 be 7c 8d bc be 98 00 80 bd
       -0.2296083 -0.4443174 -0.36826694 -0.06250113
0002a0 58 e2 64 be a8 fa 8e be 40 67 b1 be 01 df b1 be
       -0.22351968 -0.2792561 -0.34649086 -0.3474045
0002b0 b4 2c b4 be 53 8a 8e be 25 21 66 be 19 68 d1 be
       -0.35190356 -0.27839908 -0.22473581 -0.40899733
0002c0 ee ce a4 be 40 c2 02 bf 51 40 81 be a8 ea 5c bd
       -0.32189125 -0.5107765 -0.25244382 -0.053934723
0002d0 3c 90 68 3e 9f 1d 12 3e 04 2d 55 3a cf 1e bf bc
       0.22711271 0.14269112 0.0008132013 -0.02333012
0002e0 a6 bd 4c 3d a4 82 08 3f 87 05 7f 3e 39 c5 65 be
       0.04998555 0.5332434 0.24904452 -0.22438516
0002f0 e5 cc 03 be f4 6a a5 be 5a ae 73 3c 9c 21 ea be
       -0.1287113 -0.3230816 0.014873112 -0.45728767
000300 74 1b d7 3e b4 3e 8d 3b b4 00 c5 be 7f 3f 67 3e
       0.42013133 0.0043104533 -0.384771 0.22582816
000310 6c dd 4e be ae d1 2d be 6d eb 58 be 29 79 de 3e
       -0.20201653 -0.16974518 -0.21183558 0.43451813
000320 f1 cf 6d 3e 45 e9 ee be 02 1f ee 3e 59 2c 9b be
       0.23223855 -0.46662346 0.46508032 -0.30307272
000330 f7 86 68 3e 47 83 82 be 18 0d 30 be 0f 5a 5b 3e
       0.22707735 -0.25490782 -0.17192495 0.21421073
000340 05 40 40 bc 56 3c d7 3d 0d b9 d9 3e 5a cc 39 bf
       -0.011734013 0.10509555 0.42523995 -0.7257744
000350 90 95 32 3e d7 db 10 3e fb 8b d9 3d 0b 51 aa be
       0.17439866 0.14146362 0.10622402 -0.33264956
000360 64 ad 91 3e 8f 55 8a 3b fb 60 86 3d 19 7b 11 be
       0.284526 0.004221625 0.06561466 -0.14207114
000370 ee 55 8c bd 8e 5c 65 bd df 49 89 3e ce 91 e9 3d
       -0.06852327 -0.05599647 0.26814172 0.11404763
000380 1f 23 ef 3c 26 7c 5e bf b8 fd f9 be 90 41 5f 3e
       0.029191552 -0.86908185 -0.48826385 0.21802354
000390 3c d8 93 bd 97 31 0f be 0c ce 8e bd e5 7a 23 bf
       -0.07218978 -0.13983761 -0.06972894 -0.638594
0003a0 46 63 49 bd fb 2a 8c bd 97 26 9c 3d d5 4e 55 be
       -0.04916694 -0.068441354 0.07624548 -0.20830853
0003b0 ff 6f 56 be 86 b8 08 bf 3a d8 88 be 8a 5c ec 3d
       -0.2094116 -0.5340656 -0.26727468 0.11541088
0003c0 bf 3f cd be c6 7b 23 3e 87 8f fe 3d 07 1c 8c bc
       -0.40087697 0.15965185 0.124297194 -0.017103208
0003d0 1f e0 dc be 5b 1e e9 be ae a3 8d be fb a9 b1 3e
       -0.4313974 -0.45530972 -0.2766394 0.34699997
0003e0 a1 c4 46 be 2e 18 c4 3e 2d 05 d3 3c 4c ce ba 3e
       -0.19410945 0.38299698 0.025759304 0.36485517
0003f0 e6 8f d1 be 54 6c 8d be 92 56 b2 3d 0e 68 a7 be
       -0.40930098 -0.2762171 0.08707918 -0.32696575

pos_net.linears.1.bias f4 [30]
000000 f1 ef 50 3e 56 2c 28 bc a4 cc 92 bd 25 3a 98 3e
       0.2040403 -0.010264477 -0.07167938 0.2973186
000010 91 36 a9 3e a4 1c 94 be e0 c4 b7 ba 00 d1 25 3e
       0.33049443 -0.289281 -0.0014020465 0.16193008
000020 ba b8 7c 3d 46 46 02 3e 87 41 2b 3e 26 2f 67 be
       0.061699606 0.1272212 0.16724215 -0.2257658
000030 49 cd 81 bc 61 a8 75 be 09 ce 0f 3e f6 39 b5 bd
       -0.015844958 -0.23990013 0.1404344 -0.08848946
000040 25 26 3c be d5 ad 40 be e4 4d 52 be 4a cf 75 3e
       -0.18373926 -0.18816312 -0.20537525 0.24004856
000050 e3 fd e5 3c f1 19 16 3d c3 75 84 bd 2a 1b 21 3e
       0.028075164 0.036645833 -0.06467774 0.15733019
000060 a1 dd 39 be bf 27 ea bd 28 bd 82 3d f0 b5 91 be
       -0.18150951 -0.11433362 0.06383735 -0.2845912
000070 ec 3e e7 3c 67 d7 00 be
       0.028228246 -0.1258217

pos_net.linears.2.weight f4 [30, 30]
000000 67 13 fb 3e dd 9b 19 bc 2e 6a d6 3e c2 6a b8 be
       0.4903824 -0.00937554 0.41877884 -0.3601895
000010 8f 4b bf 3e 1e ba 26 3e b9 eb c9 3d 42 19 b5 3e
       0.37362334 0.16281936 0.09859414 0.35370833
000020 f2 31 16 3d 98 05 13 3d 36 41 e4 be e4 4c 08 3d
       0.036668725 0.035894006 -0.44581002 0.033276454
000030 60 1b b7 3d 9c 26 2e bc e5 4c 01 3e 02 8b c6 be
       0.08940768 -0.010629322 0.12626989 -0.3877793
000040 3a 26 17 3e b9 79 10 bd 7f f5 c6 3d f9 81 b4 3e
       0.14760676 -0.035272334 0.097147934 0.3525541
000050 7b 8c e5 be 48 14 15 3e 96 ae 81 3e 1f 90 88 3e
       -0.4483374 0.14558518 0.2532851 0.26672456
000060 23 ee 1a 3d b0 57 ab 3e a5 09 0d 3e 34 e2 8c be
       0.03782476 0.33465338 0.1377321 -0.2751633
000070 8f e4 3a 3e 5d 79 c2 3e af 8f 91 be be de 5f 3e
       0.1825125 0.37983218 -0.28429934 0.21862313
000080 db 93 fa 3d 10 10 c1 3e 11 98 1a be 4d b4 0a 3e
       0.122352324 0.37707567 -0.15097071 0.13545342
000090 00 e7 9f be 92 52 7e 3e 98 22 7a 3e 81 2c c2 3e
       -0.31230927 0.24836186 0.24427259 0.3792458
0000a0 d7 ed 57 3d ec b9 d2 3b 49 1c 99 3c f2 f6 ac 3b
       0.052717056 0.006430855 0.018690245 0.0052784616
0000b0 e2 c7 a5 be e6 26 a3 3e ff 14 64 3e 90 1c c7 be
       -0.3237906 0.31865615 0.22273634 -0.3888898
0000c0 a1 cd bf be 90 52 a6 be 7c d3 a2 3e 19 2a 84 3e
       -0.3746157 -0.32484865 0.31801975 0.25813368
0000d0 0a dc 8c be 4f a8 fc be 70 e7 ce b9 c1 54 f5 bd
       -0.27511626 -0.4934716 -0.00039463816 -0.11979056
0000e0 53 5e e8 be bc 78 87 bd a4 56 9e bd 0b b3 0d 3e
       -0.45384464 -0.06614825 -0.07731369 0.1383783
0000f0 c5 52 a2 3d 3f b7 be 3d 00 7f 8a 3d 91 2d e2 3e
       0.07925943 0.09312295 0.067625046 0.4417539
000100 e8 d8 9f ba 14 2e 31 3e e7 4a 09 bf 55 be ab 3d
       -0.001219538 0.17302734 -0.53629917 0.08385912
000110 82 09 bd 3d 97 3a 13 3e 53 9d 19 be a4 96 34 3e
       0.09230329 0.14377819 -0.1500142 0.1763559
000120 cb 7f e0 3c 14 0f f7 3b 7e 02 87 be eb 6d 97 3e
       0.027404686 0.0075396392 -0.2636909 0.29576048
000130 06 39 ec be 3d 85 f7 be 8e a6 16 bf 2d 75 79 bd
       -0.46137255 -0.4834384 -0.5884789 -0.060902763
000140 69 67 35 3e ad 59 80 3e 07 f0 4c 3e ed 6e cc be
       0.17715229 0.25068417 0.20013438 -0.3992838
000150 30 fe a7 3c ba c9 dd 3d 64 0e 8f be 34 00 89 3e
       0.020506948 0.10829492 -0.27940667 0.26757967
000160 64 69 d9 bd f2 37 ab be b2 9f 20 bf 8b 54 eb be
       -0.10615805 -0.3344112 -0.62743676 -0.4596294
000170 7b e0 1f bf 74 fe 59 3e 22 ff f7 be e9 d7 00 3c
       -0.62451905 0.21288472 -0.48436838 0.007863977
000180 45 55 4a bd 81 12 56 be 55 e8 65 bc a0 48 06 3c
       -0.049397726 -0.20905496 -0.014032443 0.008196026
000190 c9 47 43 3d 2a 21 01 3c 3a 46 a8 3d ef d0 fa bd
       0.04767588 0.007881442 0.0821652 -0.12246882
0001a0 5e 6a 03 bf 2b 08 bb be 0d aa ee 3e a1 01 8d bd
       -0.5133418 -0.3652967 0.46614113 -0.06885076
0001b0 47 3e 1e 3e 83 e7 1c bf a5 28 67 3e 07 44 db 3e
       0.15453444 -0.6129076 0.22574098 0.42825338
0001c0 38 99 01 bf 8b 76 ef 3c a9 29 21 3d f0 a4 8b bb
       -0.5062442 0.02923133 0.03934637 -0.0042616054
0001d0 80 c5 20 ba af 84 ef be 07 54 e8 be 24 63 43 3e
       -0.00061329454 -0.46780917 -0.45376608 0.19080788
0001e0 b6 93 92 be 99 a7 45 be e4 7e 98 be 7a bf bb be
       -0.2862832 -0.19302215 -0.2978431 -0.36669523
0001f0 95 22 d6 be b8 48 51 be b1 7d 9c be 97 85 18 bd
       -0.4182326 -0.20437896 -0.30564645 -0.037236776
000200 5e 67 d9 be 51 a2 bb be 88 48 d1 be c3 47 13 3e
       -0.42461675 -0.36647275 -0.4087565 0.14382844
000210 55 ec 07 be 9d de 7f bd f9 37 c5 be 35 04 9c be
       -0.13273747 -0.06246816 -0.38519266 -0.3047196
000220 49 a1 35 be 03 33 5f be 5e 54 10 be 50 2d 0c be
       -0.17737307 -0.21796803 -0.14094684 -0.1368916
000230 c1 22 9c be 97 5f 9b 3d 5a 72 a7 bd d2 2b 96 be
       -0.30495265 0.07586592 -0.08176108 -0.29330307
000240 65 bc bd bd 79 38 0e 3e 89 92 87 be 3b 24 7e 3d
       -0.09264449 0.1388873 -0.26478985 0.06204627
000250 3f 6d bc be 9c ba 2b be 7d 60 62 3e a0 48 3f be
       -0.36802098 -0.16770405 0.2210712 -0.18680048
000260 5a 5f 43 bc 39 02 be be af 85 c8 bd 86 be 80 bc
       -0.011924589 -0.3711107 -0.09791123 -0.015715849
000270 f1 98 74 be a6 a9 c0 3d 8c e3 86 be d2 d2 00 bf
       -0.23886468 0.09407358 -0.2634548 -0.50321686
000280 1f ad c4 be da ad 2e bc 7d 9d 11 3e 23 d9 cd 3c
       -0.3841333 -0.010661567 0.14220233 0.025127953
000290 78 09 73 bd 5e ef 1f be 46 2a 52 bd da 78 5d 3d
       -0.059335202 -0.15618655 -0.051309846 0.05407033
0002a0 dc f1 65 be 55 38 5f bd 5b 32 c0 be 64 e5 2c 3e
       -0.22455543 -0.05449708 -0.37538418 0.1688438
0002b0 fb 7c 23 3e 17 48 47 be f4 b5 12 bb 82 95 e0 3d
       0.15965645 -0.19461094 -0.0022386285 0.10966016
0002c0 22 2e 63 bd 8c 4c 0b be 0c 20 86 bc 32 3a c0 3d
       -0.055463918 -0.13603419 -0.016372703 0.093861
0002d0 3e 30 b6 3e 06 fb 66 3e 56 be 96 3e 7a 71 35 be
       0.3558368 0.22556695 0.2944209 -0.17719069
0002e0 1c 64 82 3e 76 80 28 3d cf 7b 00 3d a9 ee b2 3e
       0.25467002 0.041138135 0.031368073 0.34947708
0002f0 a0 e7 35 be e7 af ad bd 79 ed 32 be 97 aa 48 be
       -0.17764139 -0.08480816 -0.17473401 -0.19596325
000300 a7 16 ba 3d e9 20 24 bd f3 af 69 3e 9a 31 9c 3d
       0.09086352 -0.040070448 0.22821026 0.07626648
000310 ea c7 98 bd 36 ae 3d 3c 1a c5 59 be 9d 36 ba 3e
       -0.074600056 0.01157718 -0.21266595 0.36369792
000320 ec da b0 be f7 87 3b be 8c 79 90 3e 59 d5 01 be
       -0.34542024 -0.18313585 0.28217733 -0.12679042
000330 3a 6b f5 3d 97 d2 92 be 88 6b 09 bc 76 12 99 bd
       0.119833425 -0.28676292 -0.008387454 -0.07474224
000340 cc 25 51 3e 37 4a 2e 3f 46 c1 05 be 16 5a d3 3d
       0.20424575 0.6808199 -0.13062009 0.10319917
000350 6d 96 f3 3e 8c 90 d6 bd 8d 84 b1 3d a3 c6 17 3c
       0.47575703 -0.10476789 0.0866786 0.009263667
000360 a3 2c 93 be 36 00 09 3f fa 24 6a 3e 42 37 0b 3e
       -0.28744993 0.53515947 0.22865668 0.13595298
000370 3f ec 57 3e b0 54 bd 3a 58 d3 98 3d b9 3f a9 3c
       0.21086214 0.0014444795 0.074621856 0.020660268
000380 4e 1a ab be be 1b aa bd b4 43 57 3e 05 a2 87 be
       -0.33418506 -0.08306073 0.2102192 -0.264908
000390 d7 81 b1 3d 1a dc 01 3d 73 1d 52 3e 72 8c 3b 3d
       0.08667343 0.031704046 0.20519046 0.045788236
0003a0 e9 6b 43 be bc d0 c8 bd 39 f9 c5 bc b0 a8 6e bd
       -0.19084133 -0.09805438 -0.02416669 -0.05826634
0003b0 1a bb c2 be 88 9f ed 3d 18 e9 fd 3b 3f 5d 64 3e
       -0.38033372 0.11602694 0.007748734 0.22301196
0003c0 00 c9 ad be f9 a2 54 3e fe 00 b9 3d 1f 46 57 3e
       -0.33942413 0.20765294 0.09033392 0.21022843
0003d0 13 47 c3 be cc 10 a1 3b ef 49 c4 bd 7a 7a 6c bd
       -0.38140163 0.0049153324 -0.09584414 -0.05773399
0003e0 8e 1e 13 3e b7 bf 53 3e 1d bd c0 bd b1 41 40 3c
       0.14367124 0.20678602 -0.094110705 0.011734412
0003f0 48 d0 56 be bb c5 e7 3b 19 05 91 bd 22 dc 47 3e
       -0.2097789 0.007073132 -0.070810504 0.19517568

pos_net.linears.2.bias f4 [30]
000000 ad f9 5e 3e 68 cb 4e 3e 46 bf 81 3e b7 a5 63 3e
       0.21774931 0.20194781 0.25341243 0.22231184
000010 54 2b c3 be e0 de ce 3d 36 ee 61 bd c4 4f 2f be
       -0.38118994 0.10101104 -0.055158816 -0.17120272
000020 6a 97 0f be 97 70 cc bc 24 2f a8 bc 04 06 c3 bd
       -0.14022604 -0.02495603 -0.02053029 -0.09522632
000030 83 5a 6e bc 62 1c 60 be f9 f7 5e 3e 2a a3 09 3e
       -0.014547947 -0.21885827 0.21774282 0.13441148
000040 8e 99 99 be 24 6e 04 bf ca 61 a3 be 1c cf 80 be
       -0.29999965 -0.5173056 -0.31910545 -0.25158012
000050 b5 9a 00 bf 95 a2 79 3e 04 d0 f8 bc 46 83 3d 3d
       -0.50236064 0.24378426 -0.030372627 0.04626777
000060 da ce d1 3e 57 67 28 3e 27 66 ea bd 3d b6 cd 3c
       0.40978128 0.16445671 -0.11445265 0.025111312
000070 3a 08 8c bc 98 7d 9d be
       -0.017093766 -0.30759883

pos_net.output_layer.weight f4 [6, 30]
000000 7f f0 0b bf 91 59 1c 3f 78 16 0c 3f 38 67 81 3e
       -0.5466384 0.6107417 0.54721785 0.25274062
000010 76 6f c0 3e 5d d3 e1 bd bb 2d ff be dd 8a ab 3d
       0.37585038 -0.110266425 -0.49839577 0.083760954
000020 53 f7 e7 3d ad 79 0e bf 56 88 8a bb 27 ec 80 bc
       0.1132647 -0.5565441 -0.0042276783 -0.015737606
000030 78 ac c9 be c6 15 60 3d 2b 0d f8 3e 3f 35 74 be
       -0.39389396 0.054708265 0.48447546 -0.23848437
000040 ef 4a 80 be 19 8c 50 3d dc ad d0 3d 46 bc 07 be
       -0.2505717 0.050914858 0.10189411 -0.13255414
000050 94 51 23 3e f7 d4 12 bf d3 db 08 3f 63 d8 06 bf
       0.15949088 -0.5735621 0.53460425 -0.5267393
000060 8a 2d 56 3f 84 3d 93 bd 57 6a 5b be e6 87 11 3f
       0.8366324 -0.071894675 -0.21427284 0.5684799
000070 46 64 6a be 57 16 56 be 15 b5 d5 3d fb 66 62 3d
       -0.22889814 -0.2090696 0.10434929 0.05527399
000080 3b 82 5b 3e ce e1 d6 be ae 8a 0c 3e d4 82 0b 3e
       0.21436398 -0.4196915 0.13724777 0.13624126
000090 3d 10 a3 3e 9d 7b 6e be 94 90 96 3d 78 2e 28 be
       0.31848326 -0.23289342 0.07351795 -0.16423976
0000a0 d4 8d ec bc b2 0e 64 3b 6d 38 09 3e 56 57 e4 3c
       -0.028876223 0.0034798798 0.13400431 0.027873676
0000b0 e0 7e 07 bd ea 66 81 be cf 12 ef 3d 31 e2 8d 3e
       -0.03307998 -0.2527383 0.11673509 0.27711633
0000c0 66 54 2d 3e bf 26 ef bd a5 5d 28 be 36 16 aa bd
       0.16926727 -0.11677312 -0.16441973 -0.08305018
0000d0 70 86 9d be 79 e9 48 be 00 34 47 3e c2 3d 50 be
       -0.3076663 -0.19620313 0.1945343 -0.20336059
0000e0 ae 5d aa bd 2c cd 17 3e 15 0b 90 3d 54 8d 6a bd
       -0.08318649 0.1482436 0.07033364 -0.057263687
0000f0 5c bd 99 3d 2d 6a 24 3e 59 48 93 3e f7 b0 83 3c
       0.075068206 0.16056128 0.28766134 0.016075594
000100 ca 31 28 be f5 16 2b 3e d2 83 44 3e 6f ab ea 3d
       -0.16425243 0.16707976 0.1919091 0.114584796
000110 44 12 fc bd 2b b7 cd 3c 47 0b 0e 3e 18 38 cd 3a
       -0.123081714 0.025111755 0.1387149 0.0015656976
000120 fa aa d0 3d 77 21 1b bd cb 3e 70 be 34 ca 8e be
       0.10188861 -0.03787371 -0.23461454 -0.27888644
000130 f5 c5 95 3e c3 14 51 3e b6 3d 89 3d b5 0f 3c 3d
       0.29252592 0.20418076 0.067012236 0.045913417
000140 9b 10 ce bd f0 a8 5a bd 4f 27 b2 3e 81 96 10 be
       -0.10061761 -0.053383768 0.34795615 -0.14119913
000150 6b ed ac bd 98 f1 ba be 01 38 e0 3c b5 9d ba 3e
       -0.084437214 -0.36512446 0.027370455 0.36448446
000160 e4 b1 6f 3e db d9 13 3e b4 62 07 be 33 22 0d 3e
       0.23407704 0.14438574 -0.13221246 0.13782577
000170 19 08 3b 3e ae b5 d4 3d a3 e5 cd 3d 8f e6 05 3c
       0.18264808 0.10386215 0.10053565 0.008172645
000180 2d 8f 96 3c 9d 74 da bd 4a 5b cc 3c a1 0f bf 3d
       0.018378818 -0.106667735 0.024945874 0.09329153
000190 de ae 42 bd 03 6d 14 3d 2c 8e 80 bd d6 ff ec bc
       -0.047530048 0.036236774 -0.06277117 -0.028930586
0001a0 85 50 3e be e0 23 f8 3d 44 70 09 3d b0 2e ec 3b
       -0.18585403 0.121162176 0.03355433 0.007207714
0001b0 33 84 b5 bd c7 c3 0d bd f2 2f f6 3d 87 e1 17 3e
       -0.088631056 -0.034610536 0.120208636 0.14832126
0001c0 a8 29 4c 3e f5 cd 88 3d aa f7 19 be fd 0d 0d be
       0.19937766 0.06679908 -0.15035883 -0.13774867
0001d0 df 80 95 be 1b c6 6f 3e 14 8e 57 3d 0b e0 0c bd
       -0.29199883 0.23415415 0.05262573 -0.03439335
0001e0 ca bb fb bb f3 76 db 3c dc e4 ac 3c 04 8f f9 3e
       -0.0076822983 0.026790118 0.021105222 0.48741925
0001f0 4c 16 01 3e bb d7 c3 3c bd 37 22 be cd 7b 77 be
       0.12606162 0.02390658 -0.15841575 -0.2416832
000200 52 b4 bb bd c0 a7 9a 3d 5e 83 bb 3d 0f 1d c6 bc
       -0.09165253 0.07551527 0.09155916 -0.024183778
000210 49 41 f6 bd 78 c0 bc 3b e2 a7 99 ba 60 cc 16 bc
       -0.12024171 0.0057602488 -0.0011723007 -0.009204
000220 77 ce ac bd 84 1b 4b bf 8a 88 02 bc 6a a6 93 3d
       -0.084378175 -0.7933886 -0.007967124 0.07209475
000230 6f e8 44 3e 7e 27 01 3d 80 ac 90 be 71 fe ee 3c
       0.19229291 0.031531803 -0.28256607 0.029174061
000240 7a 84 b4 3c d5 88 81 3e e6 ba ae bd 3b b7 82 be
       0.022035826 0.25299707 -0.08531742 -0.2553042
000250 9f 46 a7 be 38 6a 06 3d 84 cc c9 bd 6d 97 6f bd
       -0.32671067 0.03281614 -0.098534614 -0.05849402
000260 0a 02 b9 bb 72 a8 ca be cf 9d 87 be ce ef 4e be
       -0.005645995 -0.3958164 -0.26487586 -0.20208666
000270 fe 58 c6 bd d9 28 ad be c6 0d de 3c a5 22 ac 3d
       -0.09684943 -0.33820227 0.027106177 0.084050454
000280 c8 98 4b bd 8a 22 d2 3c 83 ec 46 3e 75 be d0 3d
       -0.04970625 0.025651235 0.1942616 0.10192577
000290 f5 58 e2 3e c5 a1 bc 3d dc 8e 9e bd b4 8e a5 be
       0.44208494 0.092105426 -0.07742092 -0.32335436
0002a0 40 d5 99 bd de 03 d8 3c 5e 8e 8c be 6e 1c e7 bc
       -0.07511377 0.026369032 -0.27452368 -0.028211799
0002b0 27 6a 12 bc ec 3a e9 3d d9 88 b5 bd 21 31 00 bf
       -0.0089364415 0.113881916 -0.08863992 -0.50074965
0002c0 0d 97 d5 3c 60 61 28 3d d2 dd 04 bf 77 69 eb 3c
       0.026073003 0.04110849 -0.5190097 0.028736813

pos_net.output_layer.bias f4 [6]
000000 fc 2d 59 3d 8d 87 9a be c5 6e 04 be 3d e3 c8 be
       0.05302237 -0.30181542 -0.1293288 -0.3923587
000010 0e 46 a4 3e 5e f8 4b 3e
       0.32084697 0.19918963

neg_net.linears.0.weight f4 [30, 12]
000000 08 26 fb 3e 0e 9c a9 3e c8 cb a8 3e 76 66 de 3e
       0.49052453 0.33126873 0.32967973 0.43437546
000010 0c 0e eb 3e 3b 5c 8d 3e 8e 26 90 3e 07 fe b6 bd
       0.45909154 0.2760943 0.28154415 -0.089351706
000020 11 eb aa 3e 2f 59 6d 3e aa ab 57 be 60 60 02 3f
       0.33382466 0.23178552 -0.21061578 0.50928307
000030 ec 92 ad be 1e cd cd bc 34 61 5d bd f9 7f 6c bf
       -0.33901155 -0.025122222 -0.05404778 -0.9238277
000040 95 39 29 be b3 35 38 be 0c 49 3b 3e ac 67 ef bd
       -0.16525872 -0.17989235 0.18289584 -0.11689696
000050 74 8c ee bb 80 d1 f3 3d e2 75 c9 be 66 12 12 3e
       -0.007279927 0.11905193 -0.3934775 0.14264831
000060 55 86 26 bf cf 4a 68 3e 6d 0e 19 3f 59 ae 4d bf
       -0.65048724 0.22684787 0.59787637 -0.8034416
000070 b8 57 12 3e 15 57 e4 be 8b 0b 23 be 40 01 0a be
       0.14291275 -0.44597688 -0.15922372 -0.1347704
000080 84 62 22 3e 24 41 6c 3e 20 ed 97 3e c1 47 3e be
       0.15857893 0.23071724 0.296731 -0.1858206
000090 c2 f9 71 3e a4 4e 88 be 2e 67 27 3d ee dd d1 be
       0.23630431 -0.26622498 0.040869884 -0.4098963
0000a0 6f 72 58 3e af 3c fa bb f9 51 fb be 72 a4 22 be
       0.21137403 -0.0076366286 -0.49085978 -0.15883043
0000b0 7a 04 53 bc 1e e4 b1 3d 9a 86 71 3c f4 82 df bd
       -0.012879485 0.08686088 0.014741564 -0.10913649
0000c0 5e cc 79 be c4 24 30 bf d6 8e fc bd d5 d2 13 be
       -0.24394366 -0.688061 -0.12331931 -0.14435895
0000d0 f8 03 c4 3c db eb 37 3e fd 76 be 3d 16 22 7e be
       0.023927674 0.17961065 0.09300039 -0.2481769
0000e0 1a f9 4b 3e de c5 09 3e 1f bf 07 bc 6e cd ca 3d
       0.19919243 0.13454387 -0.008285313 0.09902464
0000f0 13 d6 34 bf ae 9a 00 bf 30 3c 21 3e a2 43 67 bd
       -0.7063915 -0.5023602 0.15745616 -0.056460984
000100 f1 b3 df 3e 2b 5b 12 3e 56 e9 14 bd 41 6f c5 3e
       0.43691972 0.1429259 -0.03635534 0.38561442
000110 7f ce aa 3e df 61 dc 3e c1 eb 2e bf 26 9f a0 bd
       0.3336067 0.4304342 -0.6832848 -0.07842855
000120 76 92 c8 be 77 c3 45 be 77 2e 50 3e 45 9b 45 be
       -0.3917424 -0.19312845 0.20330225 -0.19297512
000130 a1 60 ff be 57 02 33 3e 69 42 90 3e f2 83 2e 3e
       -0.4987841 0.17481361 0.28175667 0.1704252
000140 3f a0 d9 be 7b b1 08 3e a7 a5 63 3e 5b f8 90 be
       -0.4250507 0.13348953 0.2223116 -0.2831448
000150 ef 63 02 bf c7 ed 9c 3e 7a 1e eb 3d 26 5b 2b bf
       -0.50933737 0.3065016 0.11480422 -0.66935956
000160 4f ef 84 3e 9d d0 a2 be 94 9b a0 3b 94 c5 78 bd
       0.25963828 -0.31799784 0.004901359 -0.0607353
000170 57 75 d1 be 88 82 7c 3e 40 98 b9 be 7b 59 43 3e
       -0.40909836 0.24659169 -0.3624897 0.19077103
000180 a3 11 13 bf 2b 2d cf be 30 74 c8 3e a8 9b 15 bf
       -0.57448786 -0.40464148 0.39151144 -0.5844064
000190 ab 9b f5 be d9 84 c2 be a2 f5 39 be 45 60 1f 3e
       -0.47970328 -0.3799198 -0.18160108 0.15564068
0001a0 89 31 ab 3e 38 ad 01 3e ad 91 86 3e 94 9f 98 3d
       0.3343623 0.12663734 0.26283017 0.07452312
0001b0 e7 e1 2d be 06 4e 91 be 32 cd 48 be 87 48 04 be
       -0.16980706 -0.2837984 -0.19609526 -0.12918292
0001c0 13 68 e7 3e 91 58 4e bc f8 5f 96 be 28 73 8d be
       0.4519659 -0.012594358 -0.29370093 -0.2762692
0001d0 b3 66 f7 be 80 9d cf 3e ea 87 9b be db 7e 8b 3c
       -0.4832054 0.4054985 -0.30377132 0.017028263
0001e0 22 c1 56 3f c3 e8 b9 be 56 a9 93 be 56 8d ca 3e
       0.8388845 -0.36310396 -0.2884013 0.39560956
0001f0 a8 a7 f7 be 16 ce 5e 3d 64 ec 10 3e 52 98 f7 3e
       -0.483701 0.054395758 0.14152676 0.483584
000200 88 81 3c be 3b 27 07 bf 43 30 52 3e 62 74 91 3e
       -0.18408787 -0.52794236 0.20526223 0.28409106
000210 67 b3 0a bf 0f b8 4e 3e b8 b4 18 3e c7 73 38 bf
       -0.54179996 0.201874 0.14912689 -0.7205166
000220 8e 39 5e bd 4c a4 19 be bf ea 9f be 65 02 05 3d
       -0.054254107 -0.1500408 -0.31233785 0.032472987
000230 f6 68 da 3e 6b 19 49 3d 3b 0a 2c be 31 65 00 3e
       0.42658204 0.049096506 -0.16800778 0.12538601
000240 cb 1b 22 bf 22 23 e7 3d 0c 8b 51 3e be 26 f9 be
       -0.6332366 0.11285998 0.20463198 -0.4866237
000250 81 d8 02 3e f8 b1 87 be a5 74 d2 be 89 38 04 bd
       0.12777902 -0.26502967 -0.41104618 -0.03228048
000260 64 52 d2 be 5a fd 02 3e 22 f6 90 3e 22 32 de 3d
       -0.41078484 0.12791958 0.28312784 0.10849406
000270 cd b7 ba 3d 36 f7 35 3e e7 47 af 3c cb 74 47 be
       0.091170885 0.17770085 0.02139659 -0.19478147
000280 f6 13 24 be 44 4e e8 3d 9e a2 b9 3d b9 3a 51 3e
       -0.1602324 0.11343053 0.0906422 0.20432557
000290 13 a1 3d be 86 a7 33 be f8 84 7e 3e 4f 02 2f 3d
       -0.18518476 -0.17544374 0.24855411 0.04272681
0002a0 18 9b f1 3c bb 64 17 3e e2 a1 1b 3d 47 7c b8 3d
       0.0294929 0.1478452 0.03799618 0.09008079
0002b0 9d f5 27 bf e9 54 3d be 32 3c 3e be 94 2f b9 3c
       -0.6560915 -0.18489422 -0.1857765 0.022605695
0002c0 53 b2 3c 3e 1f 42 5e bd e2 8c b4 bc d2 c2 85 be
       0.184274 -0.054262277 -0.022039834 -0.261252
0002d0 15 52 df 3b 0c 03 ce 3d c4 15 00 3f 23 e3 0e bf
       0.006815205 0.10059175 0.5003321 -0.55815333
0002e0 4a 86 be 3d b3 28 81 be 3d be be 3e c6 2a ec bc
       0.09302957 -0.25226364 0.37254515 -0.02882899
0002f0 b1 2b 15 be fe c9 1e 3c 77 b8 b8 be 97 3f c6 be
       -0.14567448 0.009691713 -0.36078236 -0.3872039
000300 a2 4b 17 3e 20 62 8c 3e 6c 04 ab bd 27 98 11 3e
       0.14774945 0.27418613 -0.08350453 0.14218198
000310 63 39 1d bf 83 47 fc be 23 ca 50 3f 06 ff f1 bc
       -0.6141569 -0.4927331 0.81558436 -0.02954055
000320 bb 06 b1 be 50 2f 2a bf 6f 15 07 3e d3 91 05 3f
       -0.34575447 -0.66478443 0.1319177 0.52175635
000330 bf e6 84 3e 59 78 e1 3d 9a 9c 18 bf 4b 36 d6 3e
       0.25957295 0.110092826 -0.59613955 0.41838297
000340 e2 ad 00 bf f7 03 4f 3e 31 f6 c4 be 21 d5 0a be
       -0.50265324 0.20216356 -0.3846908 -0.13557865
000350 2e af ae be f7 03 51 bf 16 0d 7e 3e e1 4d 4b bd
       -0.34118026 -0.81646675 0.2480968 -0.049634818
000360 b9 8d 8e bd df ea 49 3e 1c c4 1d 3e 1d 41 40 be
       -0.06960625 0.19718502 0.15406841 -0.18774839
000370 c4 bf 49 3d 90 9c 7a be c4 1b 8f 3d 78 11 d5 3c
       0.049255148 -0.24473786 0.06987718 0.026009306
000380 b5 45 f2 bd b2 03 a1 3d 43 c4 d4 be 7a ef 8d be
       -0.11829702 0.07862033 -0.41555986 -0.2772177
000390 5e 9d c5 be a9 9a d7 be d7 2f 8a 3e 4e e2 12 bf
       -0.38596624 -0.42110184 0.26989624 -0.57376564
0003a0 aa c4 41 3c 3f 87 a3 be ab 46 00 3e 99 ae 98 3e
       0.0118266735 -0.31939122 0.12526958 0.29820707
0003b0 52 7f 81 3d ff 4b 22 3e 9c ae 82 be fe cb 58 be
       0.063231125 0.15849303 -0.2552384 -0.21171567
0003c0 17 d1 09 3f e3 56 33 3d 91 2a bc be 38 40 92 be
       0.5383467 0.043784034 -0.36751226 -0.2856462
0003d0 4c 16 fa 3e f7 7e 27 3f 5b e2 50 3f d1 a9 85 bd
       0.48845136 0.6542811 0.8159539 -0.065265305
0003e0 b5 21 6b bd 72 b9 86 bf 98 14 c4 3d d3 04 5e be
       -0.057405192 -1.0525343 0.095742404 -0.21681528
0003f0 16 67 c7 3e 78 11 de bc 4a 8e 66 3e 41 3e c5 3e
       0.38945836 -0.02710794 0.22515216 0.38524058

neg_net.linears.0.bias f4 [30]
000000 7d 5b 11 be 76 6f 3f bc 7a 4c ad 3e e4 c2 fe be
       -0.14195056 -0.011684289 0.3384741 -0.49758065
000010 99 a0 50 bf d7 f1 c8 3c a7 2d 12 bd 81 fa 61 3e
       -0.8149505 0.02452938 -0.03568807 0.22068216
000020 a4 5b fb 3d 1e da c6 be 77 05 f9 3d 57 88 88 be
       0.122733384 -0.38838285 0.121592455 -0.2666652
000030 70 75 5c 3d c5 2b 78 bf 8f d8 7f be 91 2a 53 be
       0.053822935 -0.96941787 -0.24984954 -0.20621707
000040 fd b2 8a 3e 3c 34 26 3e 73 ea f4 be dd ee 2b be
       0.27089682 0.16230863 -0.4783512 -0.16790338
000050 90 92 9c 3d 3b fa 0e be c2 3b dc 3e 49 c1 01 be
       0.07645142 -0.13962643 0.43014342 -0.12671389
000060 50 30 11 be a3 6f 3c 3e 52 b1 04 3e 03 f7 cc 3e
       -0.14178586 0.18401961 0.12958267 0.40032205
000070 5c c6 ef bd 65 a3 6f 3e
       -0.11707756 0.23402174

neg_net.linears.1.weight f4 [30, 30]
000000 5c ea 58 3e 32 e5 41 3c b6 13 aa 3e ef cc 64 be
       0.21183151 0.01183443 0.33218163 -0.22343801
000010 99 5e 91 3d d5 87 8c 3e 85 82 f0 3d 41 fa 80 3d
       0.07098121 0.27447382 0.117436446 0.06297732
000020 bf 60 49 3d ad e2 b8 bd b5 27 20 bf a7 06 96 3e
       0.04916453 -0.0902761 -0.6256059 0.2930195
000030 27 d6 c2 3e db 23 8b 3c 4a d0 c2 3d 3c 4a a1 3d
       0.3805401 0.01698487 0.09512384 0.07875487
000040 40 84 f7 bd b5 42 16 bf 3d f3 8c 3d aa 62 c0 3d
       -0.120857716 -0.58695537 0.068823315 0.09393819
000050 f5 7c 04 bf 13 66 3a 3e 56 26 e2 3e 52 af 49 3d
       -0.5175317 0.18203 0.44169873 0.049239464
000060 6d bb b4 3e 6c 92 87 3d 7b 3a 3c be 17 b8 96 be
       0.35299245 0.06619725 -0.18381684 -0.29437324
000070 15 c9 47 bd c3 b2 e0 3e ea a5 2b be 82 cd 9f be
       -0.04877575 0.43886384 -0.1676251 -0.31211478
000080 cf ab d7 bd 7c 82 69 be ca 40 9f bc 7f 10 9e be
       -0.10530817 -0.22803682 -0.019440074 -0.3087196
000090 68 73 80 be e4 01 33 be 58 79 fa be 64 e4 9b 3e
       -0.25088048 -0.1748119 -0.48920703 0.30447686
0000a0 9b e0 53 bd ec ba e2 be 08 58 24 be 2c d7 40 bd
       -0.051727872 -0.44283235 -0.16049206 -0.047080204
0000b0 70 a2 9a be 72 a0 d4 3d 69 35 9d be 96 16 a0 bd
       -0.30202055 0.10382165 -0.3070481 -0.07816808
0000c0 90 0f 1d be 05 74 cd bd 89 43 60 3d 5b b3 40 be
       -0.15337968 -0.100318946 0.054751907 -0.18818419
0000d0 a8 3d 93 3d 20 c3 1d 3d 52 81 0b bd 98 69 28 be
       0.07189494 0.038516164 -0.034058876 -0.16446531
0000e0 37 5b 00 bf a9 4f f5 bd 00 52 07 3e b5 2b 21 3d
       -0.5013918 -0.119780846 0.13214874 0.039348323
0000f0 56 6d e7 be 36 40 25 bf b1 4b 8f be 97 c7 5f 3e
       -0.45200604 -0.64551103 -0.27987435 0.21853481
000100 04 01 c5 3e dd ed 9e be 30 15 e6 be ef 42 1c bf
       0.38477337 -0.3104085 -0.4493804 -0.6103963
000110 59 bb 71 bd 72 53 da be 79 37 28 3e 8e ac 19 bf
       -0.05901656 -0.4264179 0.16427411 -0.6002892
000120 55 ac 36 bf 6b a1 01 bd 7e 60 1a be 7e 84 b5 bc
       -0.7135671 -0.03164808 -0.15075871 -0.022157904
000130 bf 42 f9 bd 20 02 a9 3b ab 64 0d be 62 1f 2d bf
       -0.12170934 0.005157724 -0.13807933 -0.6762601
000140 5e f7 e4 3e dc 30 9f bd 7b ff 40 bf 5d 93 d3 bd
       0.44719976 -0.07772991 -0.7538983 -0.10330842
000150 5f 7c 6d bf 42 94 c9 bd 02 e5 38 bd 2c 4e 17 3e
       -0.927679 -0.09842731 -0.045140274 0.14775914
000160 20 e4 b6 3d 8c 1f 8b bf 4c 8f 3c 3c 32 a6 96 bd
       0.0893023 -1.0869002 0.011508774 -0.07355918
000170 b6 26 ff 3e 4f 47 88 be 10 79 15 be f2 b3 60 be
       0.49834222 -0.26616904 -0.14596963 -0.21943644
000180 fc 25 49 3e 04 0c 11 3e 37 b6 59 3e 3f 9b c8 3d
       0.19643396 0.1416474 0.21260916 0.09795236
000190 4a a2 91 be 0c 01 01 3e 8c a3 8c 3e 8e ec 27 be
       -0.2844413 0.12598056 0.27468526 -0.16398832
0001a0 c4 55 3a be 38 94 90 3e a5 0d 0d 3e 75 88 a4 3e
       -0.1819678 0.28238082 0.13774736 0.32135358
0001b0 b8 08 8b 3e 54 ee 8e 3e bc f0 65 bf 4f 4a 87 3e
       0.2715509 0.27916205 -0.89820457 0.2642388
0001c0 99 00 9d 3e 42 48 66 3d c0 cc 5f 3d a7 00 a4 3d
       0.30664518 0.056221254 0.054638624 0.08007937
0001d0 cd 98 9d be 4c 1e ef be 51 c9 ea bd fe 0b b4 3e
       -0.3078064 -0.46702802 -0.11464179 0.351654
0001e0 80 1d ae bc 53 91 16 bf 13 00 cd be 20 dc a6 bd
       -0.021254301 -0.588155 -0.4003912 -0.08147454
0001f0 45 87 4c bf 5b 82 14 be 6a 59 70 bf b3 58 a3 be
       -0.79893905 -0.14502852 -0.93886435 -0.3190361
000200 0f 4b 02 3f 12 ff 31 3e 97 4e 74 3e bc 11 87 bc
       0.5089578 0.17382458 0.23858105 -0.016487949
000210 14 70 26 3e d5 d6 9d 3e 33 54 87 3d 18 dc df be
       0.16253692 0.30827966 0.066078566 -0.43722606
000220 82 04 82 3e 1b 11 57 3e d1 77 24 be 62 41 c1 bd
       0.25394064 0.21002619 -0.16061331 -0.09436299
000230 73 fa 68 3e 0c 1c b3 bd 15 fb e1 be d5 31 a6 be
       0.22751789 -0.08745584 -0.44136873 -0.32459894
000240 48 7c 29 be 12 8b d8 be 3f 89 bf 3d 76 d5 2f be
       -0.16551316 -0.42293602 0.093523495 -0.17171273
000250 22 13 ef be f3 54 cb 3d 15 f5 60 be 3e a4 7e 3e
       -0.46694285 0.09928312 -0.21968491 0.24867341
000260 b1 af 7b be 60 5d ad 3e 40 5c 45 3e 92 40 69 3d
       -0.2457874 0.33860302 0.19273472 0.056946345
000270 c9 fc 4a be b8 bc a5 3e 32 68 0c be ea f1 31 3e
       -0.19822992 0.32370543 -0.13711622 0.17377439
000280 94 5e 4b 3e f0 08 29 ba 16 a9 bf 3e 74 c4 cc 3d
       0.19860297 -0.000644817 0.3743369 0.09998408
000290 2e fc d0 be 70 c2 d0 3d 3a 7b 57 bf a0 38 ff be
       -0.40817398 0.10193336 -0.84172404 -0.4984789
0002a0 60 6f 4d 3e fa e4 c2 3e 14 5f 46 3d 40 f5 f1 be
       0.20062017 0.3806532 0.048430517 -0.47257423
0002b0 c7 c1 ad 3d 69 0f e4 3d 38 67 dd 3e 56 06 ef 3e
       0.08484226 0.11135752 0.43242812 0.4668452
0002c0 00 43 0f bf 8a 52 10 bf d2 61 93 3e 3e 4e cf 3c
       -0.5596161 -0.56375945 0.28785568 0.025305863
0002d0 c2 80 40 bc a4 21 5d 3e 79 09 35 3e 6d c5 fe bd
       -0.011749448 0.21594864 0.17679395 -0.1244
0002e0 36 8b f5 be 06 65 08 bd bf 9e 02 3e ce 49 37 3e
       -0.47957772 -0.03329947 0.1275587 0.17899248
0002f0 f3 38 9e be bd 09 59 bd 51 71 c5 be cc 6c 9d be
       -0.30902824 -0.052987803 -0.38563016 -0.30747068
000300 6a 89 de bd dd e4 89 be b7 c7 00 bf b8 28 ce 3e
       -0.108660534 -0.2693242 -0.5030474 0.4026544
000310 5c b4 52 bf a4 14 89 be bd e2 96 3d 67 62 9b bc
       -0.82306457 -0.2677356 0.07367466 -0.01896782
000320 2e e6 93 be 8e 6a f4 bd 50 15 90 3e ad 65 4e 3e
       -0.2888655 -0.11934386 0.2814126 0.20155974
000330 98 15 2c 3e 7c 1c 89 3d db 27 a7 be 71 f5 20 be
       0.16805112 0.06694886 -0.32647595 -0.15718628
000340 c6 99 3a be 19 84 43 3d 76 ba bc 3c 94 cb 72 3d
       -0.18222722 0.0477334 0.02303813 0.05927618
000350 af c6 a9 bb 40 b4 31 be ae 3b 28 3d 64 a5 1e bc
       -0.0051811556 -0.17353916 0.04107254 -0.009682987
000360 49 44 73 bc f6 2d 7b 3b ba b8 e2 bd 0e 17 d7 bd
       -0.014847823 0.0038326955 -0.1107039 -0.10502444
000370 c6 de 9b bd 27 6c 8b 3c dc ed 7d 3c 6b 53 ab bd
       -0.0761085 0.017019344 0.015498605 -0.0836552
000380 15 db c5 bd 35 d2 1b be 17 b7 10 3d ab e3 26 be
       -0.09660927 -0.15216906 0.035330858 -0.16297786
000390 e8 5a 99 bc 38 80 0f 3c bc e6 73 be 1a 5f 41 3c
       -0.018720105 0.008758597 -0.23818487 0.011802459
0003a0 e3 07 79 bd bc 45 3e be d6 e3 a0 bb c8 4c 38 bd
       -0.060798537 -0.18581289 -0.0049099727 -0.0449951
0003b0 78 b2 31 be 7c d0 30 be d2 26 32 be 88 8f a9 bd
       -0.17353237 -0.1726703 -0.17397621 -0.082793295
0003c0 38 9a f8 3e f2 81 4b 3e 93 15 cb bd a6 f1 02 3f
       0.4855516 0.19873789 -0.09916224 0.51149976
0003d0 a6 11 a2 3e 68 fd c4 3e bd b2 f9 be be d9 f1 3d
       0.3165409 0.38474584 -0.4876918 0.11809109
0003e0 48 8a 1b bf 07 fe 2c 3e 6b 57 44 be e5 32 a2 3d
       -0.60757875 0.16893779 -0.19173972 0.079198636
0003f0 20 88 24 be 02 83 19 3e fc 04 d0 be 23 51 7e 3d
       -0.16067553 0.14991382 -0.40628803 0.062089097

neg_net.linears.1.bias f4 [30]
000000 a6 4b dd 3d ac d2 bd be ab e7 66 be e0 4b ae 3a
       0.108054444 -0.37074792 -0.22549312 0.0013297759
000010 9b b7 cf bd e6 0a 54 3d 04 13 4a be 23 9e 73 be
       -0.10142442 0.051768206 -0.19733816 -0.23790793
000020 75 5e d9 3c 15 af 7c bd 30 3d b1 bc 46 f2 97 bd
       0.026534298 -0.06169041 -0.021635622 -0.07419257
000030 d4 88 16 3e 47 60 13 be d4 dd c0 3d 68 05 29 3e
       0.14700633 -0.14392196 0.0941731 0.16505969
000040 ff c1 33 3e 4a 26 00 bf 9d 26 92 bc 3f 9e 4b be
       0.17554472 -0.50058424 -0.017840678 -0.19884585
000050 36 0f 81 be f2 a0 0a be 93 5f 65 bb 62 44 63 3e
       -0.25206918 -0.13537958 -0.0034999594 0.22194055
000060 92 6a 93 bd ce b5 a0 bd ac 63 3c bd 09 83 48 3e
       -0.07198061 -0.078471765 -0.045993492 0.19581236
000070 56 80 32 3d 31 5e 85 3d
       0.043579422 0.06512106
