data/Backup/2/train/N500/D6_SinCosInput/4/result/model/ReLU_Dual_UDirection_PKD.pt (torch_old, 22776 bytes, 20 tensors)

input_mean f4 [12]
00000000: fd3b 12bb da96 823e f8d2 8fbb 670a 7b3e
00000010: 1f7b 713e e561 ebb8 c888 6b3f 47e5 6b3f
00000020: 7352 713f c6db 333e 1b8f 763e aeb9 6b3f
-0.0022313588 0.25505716 -0.004389163 0.24515687 0.23582123 -0.000112239075 0.92005587 0.92146724
0.9426643 0.17564306 0.24078028 0.920802

input_std f4 [12]
00000000: fa57 c53e 5058 8f3e 5fd9 a83e c5c9 223f
00000010: 2ffd 2a3f 206b c43e bace 8f3d d5e4 b03d
00000020: 7729 513d c7dd 353f e8dd 293f f81d 903d
0.38543683 0.27997065 0.3297834 0.63589126 0.6679258 0.3836298 0.07021852 0.08637396
0.051064935 0.7104153 0.6635423 0.07036966

output_mean f4 [6]
00000000: 0d2c c93c bc2a ee3e 3681 423e f2f5 b53d
00000010: b798 5a3d ca21 d837
0.024557138 0.4651698 0.18994603 0.08884801 0.053368296 2.576494e-05

output_std f4 [6]
00000000: 1d75 193d 91e9 243e 5253 133e c5d9 5b3e
00000010: 6dcb bc3d b164 8d3c
0.037465204 0.16104724 0.14387253 0.21469791 0.09218488 0.017259927

pos_net.linears.0.weight f4 [30, 12]
00000000: 353e 87bc dc5b 32bf 5165 25bf 4a74 153f
00000010: 3ed8 e13c fa68 02be e82a 5cbd 3ed7 59bd
00000020: a327 a73d 0509 d03e 8b2d 023f af40 6d3d
00000030: 7eca 083c 1257 9d3d fe83 a4be a655 22bf
00000040: e230 e7be 21b1 fbbe d374 d0bd 9fac c53e
00000050: 030e 953e 96a5 1ebf 0291 903e 4757 563d
00000060: 82a0 03be ad7e 4b3e 12a5 153e 7427 cb3d
00000070: 9420 353d 5a5f f93b f7bf b43d 0045 04be
00000080: f4a2 b43e 6104 373e ca67 413e 884e 75be
00000090: 203a 0f3f f81c de3e 5275 56bf dc2d babd
000000a0: db87 f73d cafb de3e 6bde 273d 9ebc c53d
000000b0: 0b76 27bd 7332 343e f923 8d3e 05ab 10bd
000000c0: 8eb7 483e 62d5 123e 8f8a 003f f529 bc3c
000000d0: 68cf 993e 7b13 16be a593 8e3e 78d0 373d
000000e0: e3c9 163e 3314 23bf 2a56 f5be 5b0f 3ebd
000000f0: 7df1 ce3e 1279 e93e 3a34 e9bd 3017 20bf
00000100: bfa6 2c3c 319e 98be b248 8d3d da9c 023e
00000110: b8bd aabd d588 0abe d7c9 ef3d e6aa afbc
00000120: 5acc c43e 1252 87be 1ba6 8b3c 1c71 4abf
00000130: b3eb 0bbd 32fb 0abe 4b85 2a3d 78b0 6c3e
00000140: 0cac eabd be80 7dbe 21b2 563e 8f9e 2b3e
00000150: ee2e 6f3e 562b e23e 61db d33e 6582 613f
00000160: 0eb1 9c3e 63b0 303e 6ef0 9fbd 26c6 6f3b
00000170: 564d 6e3d 1826 233f eeb6 c43d b24e 193e
00000180: 9aab 4b3f 6750 c0be 19b8 9dbd fe1e c03e
00000190: b78e fe3d 0cc4 7ebc cc05 0cbb 808f 0a3e
000001a0: b47f c1bb d94a be3d 374b 6b3e 7de3 2dbe
000001b0: 151c 093f 3bae a83e db81 6d3e 49ff 93be
000001c0: 0d6c c9be 131c 1dbd 63d1 a73d ff17 9f3d
000001d0: cd82 163e 2aa7 1b3f a925 133d 2313 713e
000001e0: 8b7a a23d 269e 483e f6a2 9c3e c228 cd3e
000001f0: 06fb 2b3e 27ed 76bc d051 7aba 8dd4 8bbd
00000200: b469 49bb 7c55 cfbe 8497 043f 963d f2bc
00000210: 5538 bdbd 755a a0be eded ccbd 20fd 333f
00000220: e6e6 0e3f e1c8 45be ce3e a5bd b230 c2bb
00000230: ec34 393e b96f 4bbf c3e0 fbbe 500f f3bd
00000240: b2f7 003f 3831 cd3e 090d 053f d974 993e
00000250: 0003 09be 9e63 d33d 740b a83d 90e5 8cbd
00000260: b0da 223d cf2e 02bf af33 a7be fc97 0a3e
00000270: 78c4 88be dc58 583e 630b 62bf b725 e5be
00000280: dd27 053d 37f8 933e 751d 9cbd da3f 63bd
00000290: 5234 fc3c 3ffb 913e ad85 9a3e e2d7 abbd
000002a0: c943 2ebe 78ba 803e d4fe ea3e 967d 7b3e
000002b0: b555 903e 088d 0e3e 5680 39be 023c 38bc
000002c0: 0a9c f13d 7f2d b03d dbaa 1ebf 0a0c 98bd
000002d0: 1d4b 83bd 09e6 ee3e 69cd 1e3f 0c5b b93e
000002e0: f990 cc3e c4a6 ae3d f7e4 d03d 1988 3d3e
000002f0: 4584 213e bca7 623f 4c17 403e cee7 e4bd
00000300: c0f1 d2bd 396f 2b3e 49d9 8c3e 6d4c c03e
00000310: fd7e 16bf d1dc 1fbf 6874 59bd 0e14 26be
00000320: 5eee 293b b3cd b1bd 0032 a6bd 2dd7 bc3d
00000330: da46 433d b428 07be 7760 1bbf fcf6 07bf
00000340: c08f e83e 4be7 293e 7902 9b3d 7cf4 e93e
00000350: 26f4 ac3d 7a41 103f 74bb 17bf e7b6 9e3d
00000360: 8457 0bbf 5089 513e 8df4 89bd 22c7 dbbe
00000370: f83a eb3d c223 cabe 2a6c 97bd 56ef d73d
00000380: 897e 0ebd f48f 443e c1d8 febe 8b62 1ebe
00000390: cfed 033e cf8c 07bf 92aa 863e adfa d7be
000003a0: 53ff db3d 96ad fb3d 20bd 1bbc 338c 2a3f
000003b0: 8136 053e 92e3 113f 78ad b8bb 7bad cabd
000003c0: af92 b63d c397 503e 6af0 ab3d 9078 afbd
000003d0: fad4 25bf 471a f7be 78af c83d 2b87 443d
000003e0: be95 9b3d ca6e c33e e810 1fbc 1f78 32be
000003f0: ac2e ae3d d592 f13e a6c6 233d bacc 00bf
-0.016509155 -0.69671416 -0.6460772 0.5838057 0.027568933 -0.12735358 -0.053751856 -0.053183787
0.08161857 0.4063188 0.50850743 0.057923015 0.008349059 0.07682623 -0.32131952 -0.6341194
-0.45154482 -0.49158576 -0.101785325 0.38608262 0.29112253 -0.61971414 0.28235632 0.052329328
-0.12854198 0.19872542 0.1461375 0.099196345 0.044220522 0.0076102437 0.08825677 -0.12916946
0.35280573 0.17872764 0.18887249 -0.23955739 0.55948067 0.43381476 -0.83772767 -0.09090778
0.12086459 0.43551475 0.0409836 0.096551165 -0.04088406 0.1759737 0.27566507 -0.035319347
0.1960127 0.14339212 0.50211424 0.022969225 0.3004105 -0.14655869 0.2784702 0.044876546
0.14725451 -0.63702697 -0.479173 -0.046401363 0.40418616 0.45600182 -0.113869146 -0.6253538
0.010537802 -0.2980819 0.06898631 0.12755147 -0.08336967 -0.1352876 0.1170842 -0.021443795
0.38437158 -0.26429802 0.017046979 -0.7907884 -0.034160327 -0.13572386 0.041631024 0.23114192
-0.114585966 -0.24756142 0.20966388 0.16759704 0.23357746 0.44173688 0.4137831 0.8808959
0.30603832 0.17254786 -0.0780953 0.0036586612 0.058179222 0.6373 0.096052036 0.14971426
0.7955872 -0.37561342 -0.077011295 0.37523645 0.124295644 -0.015549671 -0.002136576 0.13531303
-0.005905116 0.0929162 0.22977911 -0.16981311 0.53558475 0.32945427 0.23194067 -0.28905705
-0.3934025 -0.03835685 0.08194234 0.07768249 0.14698334 0.6080195 0.035924587 0.23542456
0.079335295 0.19591579 0.3059308 0.40070158 0.16794977 -0.01507119 -0.0009548934 -0.0682765
-0.003073317 -0.40494907 0.51793694 -0.029570382 -0.0923926 -0.31319013 -0.10006318 0.70308113
0.55821073 -0.1931491 -0.0806862 -0.005926215 0.18086594 -0.7946735 -0.49194917 -0.11868155
0.50377953 0.40076613 0.51973015 0.2997196 -0.1338005 0.10321735 0.082053095 -0.06879723
0.039759338 -0.50852674 -0.3265662 0.1353454 -0.26712394 0.21127647 -0.88298625 -0.44755337
0.03250872 0.2890031 -0.07622806 -0.055480815 0.030786667 0.28511998 0.30180112 -0.08390786
-0.17018045 0.25142264 0.45897543 0.24559626 0.2819039 0.13920987 -0.18115363 -0.011244776
0.1179734 0.08602428 -0.61979455 -0.07424171 -0.06410811 0.46659878 0.6203218 0.36202276
0.39954355 0.08527902 0.101999216 0.18508948 0.15773113 0.8853719 0.18758887 -0.11177026
-0.103000164 0.16741647 0.27509525 0.37558308 -0.5878752 -0.62446314 -0.05308953 -0.16218588
0.0025929431 -0.08681812 -0.081150055 0.09220729 0.04767499 -0.13199121 -0.6069407 -0.53111243
0.45422173 0.16592138 0.07568831 0.4569434 0.08445005 0.5634991 -0.59270406 0.077497296
-0.54430413 0.20462537 -0.067360975 -0.42925364 0.11485857 -0.39480406 -0.073936775 0.105436966
-0.034788642 0.19195539 -0.49774745 -0.15467279 0.12883686 -0.5294923 0.2630201 -0.42183438
0.107420586 0.12288968 -0.00950554 0.6662018 0.13009073 0.5698787 -0.0056359135 -0.0989637
0.089146964 0.20370393 0.08395465 -0.08567917 -0.647781 -0.48262236 0.09799093 0.04798047
0.075969204 0.38170463 -0.009708621 -0.17428635 0.08504996 0.47182336 0.039984368 -0.5031239

pos_net.linears.0.bias f4 [30]
00000000: 4445 d73c a028 143d ac08 4abf d84e 4a3e
00000010: c3e4 86be 10bc 17bd ec6a b1be 9fcb 9dbd
00000020: 2756 a43d 58af 323d 2481 9c3c 3151 00bf
00000030: 8fc5 f73c cf79 9cbe 0e11 24be e03c d8bd
00000040: 20cf 66be 0ce7 9fbc 7e08 7dbe 4343 08bf
00000050: 9a38 c0be aa8f 1d3d a9cf c4be 92ec 9d3e
00000060: bb61 cabd 0e09 72bd b6fc 343d c863 10bd
00000070: e99c eebe 2ac7 ddbd
0.026278146 0.036171556 -0.7891948 0.19756639 -0.26346406 -0.037044585 -0.34651887 -0.07704853
0.08024245 0.043624252 0.019104548 -0.5012389 0.03024557 -0.30561683 -0.16022131 -0.10558486
-0.2253995 -0.019519351 -0.24710271 -0.53227633 -0.37543184 0.038467087 -0.38439682 0.3084455
-0.09881922 -0.059090666 0.044186316 -0.03525141 -0.46604088 -0.10829003

pos_net.linears.1.weight f4 [30, 30]
00000000: 12b1 5e3e 1208 47be f5d4 88be 78f7 63bb
00000010: 0d01 183e 0f10 dabd d8ef 16be a88d 42be
00000020: b013 803e 244c d73b aa3d 01be 287f d63e
00000030: b132 e6bd 5e43 09be 12f9 a1bc 059d a7be
00000040: c71c 7abc f79c e4be f456 75be 4af1 06be
00000050: 4eed c6bd a7ee 55be 1d1b 28bd addd 61bd
00000060: 5951 a0bd 962d b7be 33d3 59be 37e3 aabe
00000070: c1d3 27be 26d7 47be e38e 7bbd 6de9 013e
00000080: 52e5 41bc d523 32bc c6c9 b93c 4700 81bd
00000090: 3695 72bd 9b7a af3c 367e 713c e199 5c3d
000000a0: aaf4 95bd ffb0 9cbc 9466 edbc 4773 0a3c
000000b0: af7f 853d 723c 2b3d 4029 343e c20a dfbd
000000c0: 064a 733d 66b5 60bd d4ea f43d dac7 c1bd
000000d0: 8525 95bc 31a0 853d 21f3 15bc 0ed5 8dbc
000000e0: 68c2 f63c 48be cc3d 0a9a 97bd 0674 6c3d
000000f0: 5e5f 96be 1d09 d03d 6e84 9ebd e6e5 81bc
00000100: a6a2 5abe 78bd 793e c373 cc3d b289 6ebc
00000110: e7a1 6abe 4bdd 09be a667 c63c 7302 49be
00000120: ceda 38bd c73d 1fbe ddc4 5ebe 3236 d6be
00000130: 4151 9fbd 10a6 97be 21c7 e5bd 020b 94be
00000140: 300f 56be 111c b13e b213 e0bd b9ea 10be
00000150: 7cdb cb3e f2ec 1f3e 0c73 2cbe e8e3 d4be
00000160: 35d9 273f 1af3 13be ad52 26bf 3a2b cf3e
00000170: 4d31 833d ea5e 803d d91d 6f3e d437 efbd
00000180: 0b10 15bf 6596 a0bd fff1 433e aa5c 39be
00000190: cfb1 8e3e 12b5 81bc f3b9 843e 2974 393e
000001a0: 105e 8cbd 9bbe 84be 5450 993e 5c69 f2bd
000001b0: 9af0 6ebe 9e41 5fbe 37c7 e7bd c8a1 713e
000001c0: a2f5 49be 5679 99bd d1ec 7f3e 6c82 b2be
000001d0: eabe a4be a721 7d3c 7013 913e ec8f 813c
000001e0: 8783 52be a0c8 c0bc 2487 363c 73f4 30bc
000001f0: 78f2 eebd eb6c d3bd b7d0 a1bd 9356 f93c
00000200: d23d b3bd 68cf 95bd 2347 f2bc c940 4fbe
00000210: cfc9 0bbc 84a4 083d aa5f dbbd 5ff3 cd3b
00000220: 5579 2ebe e01b 01be 2c99 18bc d194 543c
00000230: e2e9 21be 4b44 e23c 145d 6fbd 3e14 bcbd
00000240: 2a46 08be 4175 cbbd 20dc 96bd 17c4 04bd
00000250: cbaf 3bbd 4c4e 64bc 8a8c 1ebe 9d38 99be
00000260: 468b c3bd bfe2 6dbe 6cdb f1bd eaa3 28be
00000270: 4050 01be f6b4 c5bd 7597 efbd 7750 7cbd
00000280: b839 9abd 7640 75be f769 84bd 8ebc 80be
00000290: 73e9 1bbe 8dd4 a4be 7944 37be 8ebe c0be
000002a0: 0862 45be d3c8 93be 675d b0be a914 f7bd
000002b0: 63af 73be 6af2 96be 3043 3abe d688 99be
000002c0: cb01 31be 3569 c7be 3243 35bd fb4d a1be
000002d0: a909 94bd 3e8e 09be 02c1 7ebd 7e78 69be
000002e0: 9af7 1bbd b90e 21be 2343 08be 09e5 1cbe
000002f0: b68e 4a3b c221 43be aee4 efbd b235 203d
00000300: 8a47 a0bd e931 1e3d dd46 f5bd 83b7 23be
00000310: e04f 14bd 4196 39be 9d28 9bbd 639f 47be
00000320: 22a9 31be 0955 cebd 60de 1d3d a960 24be
00000330: 353e 31bd 8f1a 87bd 7702 d73c b68e 5bbe
00000340: 72b3 393d 94df 7abd 4168 9f3e e3ea 90be
00000350: e6d0 e3bc a6a3 36be 03f5 863e 7e8e a0bd
00000360: a7a4 14bf 5c3b c7be 4adb 6bbe a598 d6be
00000370: 4144 f4be 5d67 c73e 0813 453e 5cc6 54be
00000380: 9b29 c03e 4359 fcbe a992 e33c 1c0b 51be
00000390: ac06 b43e c279 9cbe 4e96 3cbf dee3 a6be
000003a0: 2e2d 00be ccb7 9c3d 84d7 9ebd a0ed 893d
000003b0: ed4a 0a3f 5fb4 e63d c41d aebe 41ee 4abe
000003c0: 8a1c b73d 351b 563e 309c 04be 6a4b 313c
000003d0: 3555 91bd b5a3 0f3e 4128 c43d a8b6 26be
000003e0: 8046 3f3e de5a 70be ceef 84bd 164a 14bd
000003f0: 9a2a 84be 5e0c 333c 302e e7bd 8e98 20be
0.21747234 -0.19436672 -0.26724973 -0.0034784954 0.14844151 -0.10647594 -0.1473993 -0.1899935
0.2501502 0.006570356 -0.12621179 0.41893888 -0.11240137 -0.13404605 -0.019772086 -0.32736984
-0.01526565 -0.44651005 -0.23958951 -0.13177982 -0.09713231 -0.2089182 -0.041041482 -0.055143047
-0.07828016 -0.35776967 -0.21271972 -0.33376476 -0.16389371 -0.19515666 -0.061415564 0.12686701
-0.011834459 -0.010872801 0.02267922 -0.06298881 -0.05922433 0.021420768 0.014739564 0.053857688
-0.073220566 -0.019127367 -0.028979577 0.008450336 0.06518494 0.041805692 0.1759386 -0.10890724
0.059396766 -0.054860495 0.119588524 -0.09461947 -0.018206367 0.06524695 -0.009152205 -0.017313506
0.030121997 0.09997231 -0.074024275 0.057727836 -0.29369634 0.10157988 -0.07740103 -0.015856694
-0.21351108 0.24388683 0.09983017 -0.014559196 -0.22913323 -0.13463323 0.024219345 -0.1962984
-0.045130543 -0.1555091 -0.21754785 -0.41838223 -0.0777917 -0.29618883 -0.112196214 -0.28914648
-0.20904231 0.34591725 -0.109412566 -0.1415204 0.3981589 0.15617731 -0.16840762 -0.4158013
0.65565807 -0.14448205 -0.64969903 0.40462667 0.06405888 0.062681034 0.2335123 -0.1168057
-0.58227605 -0.078411855 0.19135283 -0.18101755 0.27870032 -0.015833411 0.25923118 0.18110718
-0.068538785 -0.2592667 0.29944098 -0.11836502 -0.2333397 -0.21802375 -0.11317294 0.23596871
-0.19722608 -0.07493846 0.24992682 -0.3486513 -0.32176906 0.015449918 0.28335142 0.015815698
-0.20557986 -0.023533165 0.0111406185 -0.010800469 -0.11667341 -0.10323509 -0.07901137 0.03043679
-0.08752026 -0.0731495 -0.029574936 -0.20239557 -0.008532002 0.03336002 -0.10711606 0.0062851156
-0.17038472 -0.1260829 -0.009313863 0.012974934 -0.15811875 0.027620455 -0.058438376 -0.091835484
-0.13308015 -0.09934474 -0.07366204 -0.03241357 -0.045821946 -0.013934683 -0.15483299 -0.29926005
-0.09548049 -0.23231028 -0.118094295 -0.16468778 -0.12628269 -0.09653656 -0.1169881 -0.061600175
-0.0753054 -0.23950371 -0.06465524 -0.25143856 -0.15225773 -0.32193413 -0.17897214 -0.37645382
-0.19275677 -0.28864154 -0.3444626 -0.120644875 -0.23797373 -0.29481822 -0.18189692 -0.2998721
-0.1728584 -0.38947454 -0.044253536 -0.31504807 -0.07228405 -0.13433167 -0.062195785 -0.2279987
-0.038077928 -0.15728272 -0.1330686 -0.15321745 0.0030907816 -0.19055846 -0.11713539 0.039113708
-0.07826145 0.038621817 -0.11976407 -0.15987973 -0.036208987 -0.18123724 -0.07576106 -0.19494395
-0.17349675 -0.10074813 0.03854215 -0.16052498 -0.043272216 -0.065968625 0.026246293 -0.21441159
0.045337148 -0.061248377 0.31134227 -0.28304204 -0.027809571 -0.17835864 0.26358804 -0.07839678
-0.5806374 -0.38912475 -0.23032871 -0.41913334 -0.47708324 0.38946047 0.19245541 -0.20778793
0.37531742 -0.4928685 0.027779894 -0.20414394 0.3516134 -0.30561644 -0.73666847 -0.32595724
-0.12517235 0.07652244 -0.0775595 0.067347765 0.5402058 0.11264872 -0.34007084 -0.19817449
0.0894099 0.20908816 -0.12950206 0.010821203 -0.0709633 0.14027293 0.0957799 -0.16280615
0.18679237 -0.23472163 -0.064910516 -0.036203466 -0.25813752 0.010928242 -0.112881064 -0.15683195

pos_net.linears.1.bias f4 [30]
00000000: a134 3dbd 2cc4 54be fcae 2dbd 4594 bd3d
00000010: c107 6abe 78eb b4be c5e3 8abe 746c f73d
00000020: 7c85 52be 3af1 473e c607 7e3c 567e 263e
00000030: cffc fdbb dc6e 4cbe ca8d 3d3e 8137 41be
00000040: ee1b 94be 51f3 363e 90a7 a23d e8f4 8dbe
00000050: 7945 7b3d 929f 863b 290d 56be 0b4f a2be
00000060: e841 b4bd e66f 8e3e 966e 6fbe 3a57 d43d
00000070: e94c 1e3e 3bfc bcbc
-0.04619277 -0.20777959 -0.042403206 0.09256796 -0.2285452 -0.35335898 -0.271269 0.12081233
-0.20558733 0.19525614 0.015504783 0.16259131 -0.0077510844 -0.19964164 0.1851112 -0.1886883
-0.2892756 0.17866255 0.07942116 -0.2772591 0.06134555 0.0041083777 -0.20903458 -0.3170093
-0.08801633 0.27819747 -0.23382029 0.103682 0.15459026 -0.023069492

pos_net.linears.2.weight f4 [30, 30]
00000000: d4ca 753d 32cc d33c 1c10 333e d5ad d63e
00000010: 7910 273e 8304 1a3d b35f 07bc 7ea9 9e3d
00000020: 3ca5 6c3e 42f0 863c 6d18 a73e c42f 343d
00000030: 4349 f53d 6147 983d a889 f9be 9d31 643c
00000040: 0e6a 593c 55d7 a63e 1c99 03be fdb5 953c
00000050: 1251 1fbe 686f f53e d0bb de3c 20ef 39bd
00000060: d862 b3bc cfdd 85be 3261 cebc 5e12 96be
00000070: 3b65 58be 592a 0c3e 389e 45bd c69f 653d
00000080: 13b5 92bd fa73 113d d26d 923c 7e34 86bc
00000090: 03a4 e03b be99 5d3d 9114 643d db29 77be
000000a0: df00 ef3c d17b 31be 995c 0a3d 0583 26be
000000b0: be18 da3c 5b13 073d 8467 45bd d479 713d
000000c0: 7b8c 86bd af2c 49bc 3b90 c43d d1e3 89bd
000000d0: 47d1 98bc 8341 09bd 1445 c5ba 9835 d13d
000000e0: 349c a3bd f5b8 aa3d a4fe 7abd 7068 bdbd
000000f0: 93bd 21be dc35 d6bb cb8f 9cbc eb3c 12be
00000100: 9ae6 0d3c e42a 503c b9a1 2ebc 7788 c8be
00000110: 8c0c ecba 6e5e 6e3d b311 a1be 4ff4 a3be
00000120: cfb2 8abd 5813 e93a c024 8ebe 2cbc e0bb
00000130: bdd5 68bc ae1e 1fbd 1976 fcbd 2e0d 16bb
00000140: e89b 09be 36d2 b0bd c416 0ebd db88 0d3c
00000150: 1654 5b3c bd87 05be 3084 c43b 00fc acbe
00000160: a469 c4be 55c5 cdbd 855f 9d3d e292 fdbc
00000170: 748e 49be 749a f8be 2c9b 8a3c 3887 81bc
00000180: 6019 94b9 28d1 95be 4950 d73e a594 853e
00000190: fff3 93be 3e27 00bf b06c c4bd 6380 5fbc
000001a0: f169 f7bc 8dca 163d bde1 1a3c a864 d43e
000001b0: f6ad 5ebe 8345 0dbc a871 8b3e 92c3 863e
000001c0: 925b 3ebc 5e18 f4bb a62e b93c 0722 2ebe
000001d0: 1025 6abc 82a1 813c a9d7 013f ef4f 44be
000001e0: 8751 cebe 71e2 c3bc e5b5 1cbe 6450 e8be
000001f0: 0a4d 52bc 2187 30be e6da 4dbe c136 f4be
00000200: eed8 793c 5ebe acbd 89d2 3cbe 864a ccbe
00000210: a463 30be dbc0 abbe e8b7 083d 8a16 92bb
00000220: 5d54 493c 23f8 a13e 282f da3b 1f89 79be
00000230: 3f9f b8be 2c51 42be 3160 39be 3de2 e0bd
00000240: c8a9 b6bd 12f6 a8be e359 66be 6fd6 fe3c
00000250: 69b3 ddbe e00e 94be 349e a8be 7029 f13c
00000260: 9b97 d6be 0fdc ad3e e1aa 5a3d 84dc 073d
00000270: b880 46bd ad05 463e 31e0 1f3d 6343 cfbc
00000280: 11d5 603d 0172 7e3d b6cb 40be bd3b c0bd
00000290: bf98 7dbe 591d ef3d 9221 a0bc e7cd 52bb
000002a0: dbf9 84be 307b 6e3d fef4 793e 3117 193e
000002b0: 1677 a23e b68d c13c 756b c23d 0813 8ebe
000002c0: cc3c 96bc 3cc9 ec3e f275 c53d c669 c5bd
000002d0: 3c2c 6ebe 1a50 75bd 3a2e c63c 3bdd b2bd
000002e0: 6ac8 f13b 8747 c83b da55 04bc 70e2 16bb
000002f0: fdc7 46bc 6215 b7bd f0c9 01be 6080 9ebe
00000300: e405 073d 07a3 86be 56f7 cdbc e7b0 c43c
00000310: 6d51 6b3d 5bad 633c 61bc 31be ec7a 39be
00000320: 838e 033c 853d 67be 4832 2ebe 0c6a e9bc
00000330: a389 39be e57a 05be 7c93 70be 24a8 62bd
00000340: 2258 6abd 3222 6dbe 0937 65be e873 c33c
00000350: c445 c23d 3be4 cc3e 3f98 dfbc 8c9a 8cbd
00000360: 1717 c2bc 8fb3 72be 498e a8be 8b56 b83e
00000370: 681a 4a3e cc16 143e dbd9 ab3c a817 04be
00000380: 8d8b 863e ad46 bc3d c44e 063e 7df6 0fbc
00000390: 4deb c8bd f382 86bd 2792 f93e 345b 89be
000003a0: 2c84 8d3e 44d0 adbc c48c ca3d e98b 123e
000003b0: 107d d5bc a7b8 e53c 1383 12bc 17f7 5cbe
000003c0: 3bf5 a0bb f445 f53a de08 bcbc 0f54 b9be
000003d0: 092c 3ebc 12dc 823c 4e1e f7bc 3e99 c23d
000003e0: 284f 1aba 3054 adbe 8d66 39bd 7a36 a13d
000003f0: a1f7 5abc df85 843e 7b14 bebe cfbc 4f3c
0.060007885 0.025854204 0.17486614 0.41929498 0.16314878 0.03760196 -0.008262563 0.07747172
0.23109907 0.016471986 0.32635823 0.043990865 0.11976864 0.074354894 -0.48737836 0.013927844
0.013269914 0.3258616 -0.12851375 0.018275255 -0.1555827 0.4793656 0.027189165 -0.045394063
-0.021897718 -0.2614579 -0.02519283 -0.29310888 -0.21132366 0.1368803 -0.048246592 0.056060575
-0.071634434 0.035510994 0.017874632 -0.016382452 0.006855489 0.054101698 0.055683676 -0.2413706
0.02917522 -0.17332388 0.033779714 -0.16260917 0.026623126 0.032977443 -0.048194423 0.058954075
-0.06569763 -0.01227872 0.09597822 -0.06732906 -0.018654479 -0.033509742 -0.0015050494 0.102153
-0.07988778 0.08336059 -0.061278 -0.092484355 -0.15794973 -0.0065371823 -0.019111535 -0.14281051
0.008660937 0.012705538 -0.010658675 -0.39166614 -0.001800911 0.058195524 -0.31458816 -0.3202233
-0.06772386 0.0017782254 -0.27762413 -0.0068583693 -0.014211115 -0.038847618 -0.12327213 -0.002289604
-0.1343838 -0.086338446 -0.03468968 0.008638586 0.013386747 -0.13040061 0.0059972033 -0.3378601
-0.38361847 -0.10047404 0.076842345 -0.030953828 -0.19683248 -0.48555338 0.016919695 -0.015811548
-0.00028247666 -0.29261136 0.4205344 0.2608997 -0.28897092 -0.5005988 -0.09591043 -0.01364145
-0.030201884 0.03681426 0.009453234 0.41483045 -0.21746048 -0.00862253 0.2723515 0.26321083
-0.011618512 -0.007449194 0.022605252 -0.17005168 -0.014291063 0.015824083 0.50719696 -0.19171117
-0.40296575 -0.023911687 -0.15303762 -0.45373833 -0.01283575 -0.17239048 -0.20103034 -0.47698024
0.015249474 -0.08434747 -0.18439688 -0.39900607 -0.1722551 -0.33545575 0.03337851 -0.0044582533
0.01228818 0.31634626 0.0066584535 -0.24368714 -0.36058995 -0.18976277 -0.181031 -0.109806515
-0.08919102 -0.33000237 -0.22495227 0.03110811 -0.43300942 -0.289176 -0.329332 0.029438704
-0.4191254 0.33956954 0.05338562 0.033169284 -0.0484626 0.19338103 0.039032165 -0.025300687
0.054890696 0.06212044 -0.1882771 -0.09386394 -0.247653 0.116755195 -0.019547258 -0.0032166184
-0.25971875 0.05822295 0.24409863 0.14950253 0.3173148 0.023627143 0.09493152 -0.27748895
-0.018339537 0.4624728 0.09641637 -0.09639315 -0.23259062 -0.059890844 0.024191964 -0.087336026
0.0073786275 0.0061120423 -0.008077109 -0.002302315 -0.012132642 -0.08939625 -0.1267469 -0.30957317
0.032964602 -0.26296255 -0.025142353 0.024010135 0.0574507 0.013896312 -0.17357017 -0.18113297
0.008029583 -0.22582062 -0.17011368 -0.02849295 -0.1811891 -0.13035162 -0.23493761 -0.055336133
-0.057212956 -0.23157576 -0.22384275 0.02385898 0.09485963 0.40017876 -0.027294276 -0.06865415
-0.02369265 -0.23701309 -0.32921055 0.36003527 0.19736636 0.14461821 0.020977905 -0.12899649
0.26278344 0.09193168 0.13115984 -0.008786795 -0.09810505 -0.06567945 0.48744318 -0.26827395
0.27639902 -0.021217473 0.0989013 0.14311184 -0.026060611 0.02804215 -0.008942383 -0.21578632
-0.0049120462 0.0018712864 -0.022953447 -0.36196944 -0.0116071785 0.015974078 -0.030165818 0.09501885
-0.0005886429 -0.33853292 -0.045263816 0.07871719 -0.013364703 0.25883386 -0.37125 0.012679293

pos_net.linears.2.bias f4 [30]
00000000: beb4 a93e e83f 95be e28a 8cbe c94c 44be
00000010: f9a2 07be 86d2 dd3e 22a0 3fbe e650 e33b
00000020: 1bb9 c0be 3dff 37be 3dd3 163e 84b6 373c
00000030: ee1b 5c3e 267b 0cbe 0fc2 76be d4c4 2fbe
00000040: 60d9 603e fb50 33be be1d 853e e449 4cbd
00000050: fed1 cb3d e11d 6c3d 15ef 663e 6852 5fbe
00000060: 6634 f63d 833a 8ebe d17c e8bc 3b0f 4abd
00000070: 14b1 8abe 8959 8cbe
0.33145708 -0.2915032 -0.2744971 -0.19169916 -0.13245763 0.4332468 -0.1871343 0.006937134
-0.37641224 -0.1796846 0.14729019 0.011212949 0.2149503 -0.13718852 -0.24097465 -0.17164928
0.21957922 -0.1751136 0.25999254 -0.049875155 0.09952162 0.057645682 0.2255214 -0.21808779
0.12021713 -0.27779016 -0.02837983 -0.04933093 -0.27088225 -0.2741206

pos_net.output_layer.weight f4 [6, 30]
00000000: 985f afbe 88d2 023e 3cc7 3d3d 064a 203e
00000010: 95ec 9dbc af2f e7be 8504 7e3e 4d87 f63d
00000020: e993 29be 26e7 4a3e 9063 6d3d 9c30 febd
00000030: b8a9 c6be 488e 543d 8045 913e 2f75 e93c
00000040: 3f57 b9bd 9488 86bb ea80 093c d846 f53d
00000050: 17bd 563d 5e41 df3e 4998 eabd d66e 043e
00000060: bcc5 02be b390 de3d 1f0a 4b3e 022c 3f3e
00000070: 877f 763e a0e7 d73d dd8c a2be 0a54 0e3c
00000080: 1728 40be 7ddc 7ebe dc31 9bbe 242b 693e
00000090: c98f a43e 7335 bf3e e4ab 083e 140d 8d3e
000000a0: c9ab 5f3e 0fdc 05be 7ddf 153e eec0 0abe
000000b0: 912b 89bd 8456 d63d 5839 d43d df81 263d
000000c0: 1dc2 d4be 9add d3be 3ed2 913e 6fd4 f0bd
000000d0: 6643 ea3e 17b9 e53d 4cc2 d03c 233e 35be
000000e0: 69d1 083e 1160 c4be 4ac6 2f3e e05d 3a3e
000000f0: f76a d9bd e272 0cbd f746 6cbe 41fc eb3e
00000100: 5b52 c73e 8441 90bc 7ed6 34be 1712 04bd
00000110: 73af c93d ad08 e2bd 6742 de3c ea67 61be
00000120: c3cc ef3e 2405 0f3d 84cd ec3d b60e 833c
00000130: 972c ab3e 0758 e2bb 376a 00bf 4f01 92be
00000140: a602 42bd ae3b 07be b3bc bc3e 4f17 8bbd
00000150: 8a91 bf3d d432 15be 613c b53d 9186 51be
00000160: 5b2b ddbc bb60 2abe 63bc 993e 691f e53d
00000170: d8e1 b03e 19c7 fd3e dcf0 063d 41b2 133e
00000180: a0e0 5e3e 4568 003b f5a3 c8be cf63 a43e
00000190: 5156 4bbe 1592 31be cd29 713c a91a 7c3e
000001a0: a4ce 44be 962a ab3b 826e bbbe aa0d 1a3d
000001b0: eebf 69bd 3bce 863d 5328 d03d 355a 8f3d
000001c0: 96e9 f5bc 55e4 40bd f4b4 463e 63af e23d
000001d0: 5337 3e3f 24db 923b 5449 113e f6ad 623d
000001e0: 50f9 81bd 48f2 43bd a217 81bc 1415 3dbe
000001f0: 6c40 56bc 0c3e 9b3c 4d33 dcbe 3d01 b3be
00000200: c8a9 c03e 77fc 9cbe 52b2 5d3e df4c 673e
00000210: d3e5 24bd b96c 2bbf 4674 38be 4ca8 9ebd
00000220: 90e2 3abc b367 fa3c 9980 afbd 37b6 6b3e
00000230: 454f 0c3f 0bac 363e 50b3 1d3e 75b0 84be
00000240: c293 58bd 5dcc b03d faad c53d 0b4c 43be
00000250: 756a 88be 5e83 02be d36e c63d b69d f43d
00000260: 19d3 99be 7213 653e 804d 483e 6e0b 3b3e
00000270: 5457 463e b0c1 b63d bdc0 973e b929 813e
00000280: 690a f13e 06fa c83e 4d49 f43d 12c6 a23e
00000290: 3069 893e bbaa 973c eda5 e2bd f54a 583c
000002a0: e618 27be 0749 40be 94af 9fbc 88a6 c9be
000002b0: 8b40 8bbe 8f0e 003e 7552 03bf 7c62 25be
000002c0: a206 c03e 727c 1e3f 2935 143e e574 713e
-0.3425262 0.12775624 0.046332583 0.15653238 -0.01927785 -0.45153567 0.24806412 0.12037525
-0.1656033 0.19814739 0.05795628 -0.12411615 -0.3880136 0.051893502 0.28373337 0.02849826
-0.09049844 -0.004105637 0.008392552 0.11976403 0.052426424 0.4360456 -0.11454827 0.12932906
-0.12770742 0.10867443 0.1982808 0.18669131 0.24072085 0.10542226 -0.31748095 0.008687029
-0.18765293 -0.24888797 -0.30311477 0.22770363 0.3214095 0.37345466 0.13346821 0.2754904
0.21842875 -0.13072227 0.14636035 -0.1355016 -0.06697763 0.1046572 0.103625 0.0406512
-0.41554347 -0.41380006 0.28480715 -0.117592685 0.45754546 0.11216944 0.025483273 -0.17699485
0.13361134 -0.38354543 0.17165485 0.18199873 -0.10616105 -0.03428925 -0.23073946 0.46090892
0.3893002 -0.017609365 -0.17659947 -0.032243814 0.098479174 -0.11036811 0.027131272 -0.22012296
0.46835908 0.03491701 0.115626365 0.015998226 0.33432457 -0.0069074663 -0.5016207 -0.28516623
-0.047365807 -0.1320636 0.36862716 -0.06791555 0.09353931 -0.1457017 0.08849407 -0.2046149
-0.026998213 -0.16638462 0.3002654 0.11187632 0.34547305 0.49565962 0.032944545 0.14423467
0.21765375 0.00195934 -0.3918759 0.32107398 -0.19857146 -0.17340882 0.014719439 0.24619545
-0.19219452 0.0052235825 -0.36607748 0.037610687 -0.057067804 0.06582304 0.10163941 0.069996275
-0.030018609 -0.047092754 0.19404966 0.110686086 0.7430317 0.00448169 0.14188129 0.055341683
-0.06346381 -0.04783848 -0.01575834 -0.18465072 -0.013076883 0.018950485 -0.4300789 -0.34961882
0.37629533 -0.30661365 0.21650055 0.22587918 -0.04025824 -0.6696277 -0.18013105 -0.07746944
-0.011406556 0.030567026 -0.0856945 0.23018728 0.54808456 0.17839067 0.15400434 -0.25915876
-0.052875288 0.08632729 0.09652324 -0.19071977 -0.2664372 -0.12745425 0.09689107 0.119441435
-0.30043867 0.22370699 0.19560814 0.18266079 0.1936925 0.08923662 0.29639235 0.25227144
0.47078255 0.39253253 0.119280435 0.3179174 0.26838064 0.018514028 -0.11066804 0.013201465
-0.16318092 -0.18777858 -0.019492902 -0.39384866 -0.2719768 0.12505554 -0.51297694 -0.1615085
0.3750506 0.6190864 0.14473404 0.23579748

pos_net.output_layer.bias f4 [6]
00000000: 7608 e6bd eef1 98bd cc8e b83c cd75 adbe
00000010: 21d3 4dbe 9928 dabe
-0.112320825 -0.074680194 0.022529028 -0.33878937 -0.2010007 -0.426091

neg_net.linears.0.weight f4 [30, 12]
00000000: 0fd3 863e 48b8 733e 6954 623d 617d bcbe
00000010: ae16 ebbe 5e76 cb3d b0c2 16be d7c3 8f3d
00000020: 6173 4cbe ca3c 913e 678b 2d3d a442 debe
00000030: cee7 31bd c1af 79be 0d50 adbd 2e15 713d
00000040: ab51 0b3d e75d 22be 8dbb ccbd 4588 f53e
00000050: 0951 b33d 70ad 6e3e b46e 20bf 3226 40be
00000060: 8232 48be e07f 133d a322 3c3d 0a12 50be
00000070: 5c81 13bd 8b32 973e de47 8dbe e400 48be
00000080: 9358 61be 1187 dd3d de15 ee3c 2ab8 7bbd
00000090: 041e 143d 50ed 8bbd 041c efbd 6a58 cd3d
000000a0: 895b 563d 07cb 843d 87a8 933c f874 a33d
000000b0: 7de4 a23d b3c2 3b3e 5f17 5b3c f6b2 05ba
000000c0: b637 a0be 06d0 003f c341 fb3e fe1f 473e
000000d0: 1ef1 8c3e d96e bb3e b7f1 363e d3ff 51be
000000e0: 92a0 da3c f40d 273f 48be 403e b41e 9e3c
000000f0: fc63 b13d ff84 c53e a038 c63e 7a14 31bf
00000100: 5306 d73e a680 22bf 5475 07be 4fbb 873c
00000110: cf1a 503c 1b73 de3e e87d 003b ab7d abbd
00000120: f637 e8bd eeea 433c b637 813e 7326 f33e
00000130: 5fef b83e 60f0 293c d784 1c3e 2fdf 3cbe
00000140: a845 93bd 04eb b3be 944f 11bf f9c6 393e
00000150: 9455 ff3d 3d1c 7c3e 6464 45be 96d5 12bf
00000160: 5950 40bf 3563 ef3d 93d3 84bd c820 bc3d
00000170: e65b c0bd a3f3 52bf 112a 823e f9e0 cc3d
00000180: 37fc 98bc 39b3 04bf 9be4 dabe 8ba9 01bf
00000190: d092 e03d 2351 ea3e 829b babd 1b65 a33e
000001a0: 46b5 90bd 5a0d febd e0fd 5b3e df58 e33d
000001b0: 0d00 f73e 9c44 173e c039 043e 0b28 bf3c
000001c0: b21a 30be c6e9 88bb 4ee5 17bf a458 a1be
000001d0: f4d3 753e d116 bb3e 54ea 5bbe 211b 3b3e
000001e0: 29df 93be 1cf2 dd3e f57b f33d 8ed5 003f
000001f0: ba8f 273f 9420 efbb 42c3 683e b8c6 2a3c
00000200: 0701 223e dcc5 bc3d da9b ac3d 0acf 003e
00000210: e2a9 36bf 0838 43bd a018 943d 5e9e ee3e
00000220: a0d5 773e 669f cbbd 4f51 a8be 0806 e3bc
00000230: fb21 0b3d 0568 08bf 98ee 3dbc 962f 113b
00000240: 236c 333f ee32 223d 5691 19be aa63 6b3d
00000250: 7a50 b43e 6d19 043e e437 d3bd df59 fabc
00000260: 563b 1abd c0c5 52be 0ccb 2a3d 44e4 51bb
00000270: ee2e 233d 5cdb 79be a19b fabd 88f0 bd3e
00000280: 3fbf 0abf 7474 613e 18ab a9bc f57b b83d
00000290: 572c d53c 7009 883e 6ff7 303e 62e2 3dbc
000002a0: eff8 87be e3f9 f23d 9043 bcbe dbc6 07bf
000002b0: 4a97 873e 3067 1abd 0797 49be 3013 b03d
000002c0: 4ec6 c53d 9718 173e f1bc bdbe 9b8e 8dbc
000002d0: 0c9f 143e 3534 cf3d ca8d 883d 20a3 02be
000002e0: 84f3 833e fc82 24be 4907 1cbe 8360 623e
000002f0: 97fc 44be dd94 e5bd 92ab 60bd e868 85bd
00000300: 2602 20bf 57da 3e3c 183d c9bc 3fca 41be
00000310: aa1d 39bc 6e37 b2bc 80cc cdbe 2027 9e3d
00000320: 2e6d b73c b498 a33e 749d a73d e379 9f3d
00000330: ca93 6e3f 0318 88be 65ba eabd 46ae 84be
00000340: bd43 34be f05a 3d3e 066d f3be f046 83bb
00000350: 124a 24bd 5725 713d 341a 02bd aa21 b8bd
00000360: 4cb2 eebd 2880 b83e dca8 c63e 2fb0 cbbe
00000370: 8d57 5d3d 4d11 75be f872 e73d 25cb 94be
00000380: 1ecd cebc 3cf8 00bf 5aa1 063f 05b1 a3bc
00000390: 0545 933e 0db8 b6bd d479 203e 5278 953e
000003a0: 83c2 9b3d bfb1 74be 3176 06bf b3a5 973d
000003b0: 0015 6539 8dbb 0e3e 8266 113c b299 92bd
000003c0: f8e9 213d d6ca 22bf 63b8 dabe 245d 353f
000003d0: 0cc2 9d3e 1802 ecbd dc03 413d 961b eb3d
000003e0: 1f18 8dbd c2bb e23d 4426 c03e faad 86bc
000003f0: b612 44be 3b80 723e 224d d83e 31f0 a2bd
0.263329 0.23800766 0.05525628 -0.36814407 -0.4591574 0.09934686 -0.14722705 0.07019775
-0.19965889 0.2836669 0.042369273 -0.43410218 -0.043433957 -0.24383451 -0.08462534 0.05885809
0.03401343 -0.15856133 -0.0999671 0.47955528 0.087556906 0.23308349 -0.6266892 -0.1876457
-0.19550517 0.036010623 0.04593147 -0.20319381 -0.03601204 0.2953075 -0.27593893 -0.1953159
-0.22006445 0.108167775 0.029063161 -0.06145493 0.036161438 -0.06832373 -0.116752654 0.10026629
0.05233339 0.06484037 0.018024696 0.079812944 0.07953737 0.1833599 0.013372271 -0.00051002146
-0.31292504 0.5031742 0.4907361 0.19445798 0.27527708 0.36608008 0.17865644 -0.20507745
0.026687894 0.65255666 0.18822587 0.01930175 0.08661649 0.3857803 0.38715076 -0.6917187
0.41997012 -0.6347755 -0.13228351 0.016568808 0.012701704 0.43447194 0.0019606296 -0.08373579
-0.11338799 0.011957867 0.25237817 0.47490272 0.36120126 0.010372251 0.1528505 -0.18444513
-0.0719102 -0.3514024 -0.5676205 0.18142308 0.124674946 0.24620147 -0.19276577 -0.57357156
-0.751226 0.11688844 -0.06485667 0.0918594 -0.09392528 -0.8240301 0.2542272 0.10003848
-0.018674953 -0.5183597 -0.42752537 -0.5064933 0.10965502 0.45765027 -0.09111692 0.31913075
-0.07065825 -0.1240489 0.21483564 0.11100935 0.48242226 0.14772266 0.12912655 0.023334524
-0.17197683 -0.0041782586 -0.59334266 -0.3151294 0.24006635 0.36540845 -0.21476108 0.18272068
-0.28881195 0.43348777 0.11888877 0.5032586 0.65453684 -0.007297585 0.22730735 0.010423355
0.15820704 0.09217426 0.08428164 0.12578979 -0.7135297 -0.047660857 0.07231259 0.466052
0.24202585 -0.09942512 -0.32874534 -0.027712837 0.033967953 -0.5328372 -0.01159253 0.0022153608
0.7008688 0.03959935 -0.14996848 0.057468094 0.3521765 0.12900324 -0.10313395 -0.030560432
-0.037654243 -0.20583248 0.041697547 -0.0032026926 0.039839678 -0.24400085 -0.12236715 0.37097573
-0.5419807 0.2201708 -0.020711467 0.09008018 0.02602212 0.265697 0.17281888 -0.011589618
-0.2655711 0.11864068 -0.36770296 -0.53037804 0.26482612 -0.037696064 -0.19686519 0.0859741
0.09656964 0.14755474 -0.37058213 -0.017279914 0.14513797 0.101173796 0.06667669 -0.1275754
0.25771725 -0.16065592 -0.15237154 0.22107129 -0.1923698 -0.11210034 -0.054851122 -0.0651415
-0.6250328 0.011648736 -0.024565265 -0.18924807 -0.011298576 -0.021754947 -0.40195084 0.07722306
0.022390928 0.3195244 0.08184329 0.0778692 0.9319426 -0.2658082 -0.11461333 -0.2591421
-0.17603965 0.18491721 -0.47544116 -0.004006259 -0.0401097 0.0588735 -0.03176327 -0.08990796
-0.11655101 0.36035275 0.38800704 -0.39782855 0.054038573 -0.23932381 0.113012254 -0.29061237
-0.025244292 -0.50378776 0.5258995 -0.01998187 0.28763595 -0.08921824 0.15671474 0.2919336
0.076054595 -0.2389593 -0.52524096 0.074046515 0.00021846965 0.13938732 0.008874537 -0.07158221
0.03952977 -0.63590753 -0.427188 0.70845246 0.3081211 -0.11523837 0.04712282 0.11479871
-0.06889366 0.11070968 0.37529194 -0.01644038 -0.19147763 0.23681729 0.42246348 -0.07955969

neg_net.linears.0.bias f4 [30]
00000000: f2a2 8cbe dbb6 8ebe f59b e6be 3bf3 25bf
00000010: 5b50 033e 9631 943d df6b a2bd 6af9 00be
00000020: 9213 ebbd 17ab fdbd f41c e9be 9215 983e
00000030: 6fc4 103e 8d8b adbe ae9e 4bbe ef4d 1abf
00000040: 8c77 8e3c c199 613e 9649 013e 7ea9 10be
00000050: 737d 7c3d 9066 0ebe bf0a 13bd 85ec dcbd
00000060: 5c13 fdbd c18b a2be 1803 67bd 1923 ae3b
00000070: b205 933c 97fa 07be
-0.27468067 -0.27873883 -0.4504086 -0.64824265 0.12823622 0.0723602 -0.07930731 -0.12595144
-0.11478342 -0.123861484 -0.45529902 0.29703957 0.14137433 -0.3389553 -0.1988475 -0.6027517
0.017390989 0.22031309 0.12625727 -0.14127156 0.061643075 -0.13906312 -0.03589892 -0.107873
-0.12357208 -0.3174725 -0.056399435 0.0053142426 0.017947052 -0.13279186

neg_net.linears.1.weight f4 [30, 30]
00000000: 7c60 89be aa64 70be fccb ff3d c3bb 05bd
00000010: 5ce3 21be 9c5a 0fbd e837 87be 3765 53be
00000020: a1cc 9a3d e998 c7be db74 a8be 9656 3fbe
00000030: 5418 a3be e3ed 3bbe 02da 673e e971 953b
00000040: 2cb4 33be 3638 cdbe 1170 843b 04ba d5bd
00000050: 23b4 4cbe 582c cebd b3d1 bfbe e4b9 92be
00000060: 89bb d1be 1b3b 05be 58d6 3d3e aa07 11be
00000070: 0d5c 47be 1c05 3abe 53ee a13c 1d93 923d
00000080: 5215 5dbc e43b 42bb 63d9 19be 1d5d b03e
00000090: 962a 24be 3f70 f73d 2bac 8bbe d55f 9b3e
000000a0: 5240 9ebe ff15 f4be 9372 c33c 62f9 8abe
000000b0: efb3 c13d 86b2 a0bd c3ad f3be de3b c93e
000000c0: bf8a fcbd 1c8e 6c3e 1af4 cebe 4562 49be
000000d0: 7112 30be dc7e adbe 5751 79be 71b3 57be
000000e0: 4783 ecbc 6990 cdbd 7499 c43e 0cc6 c3bd
000000f0: 834f 8cbe 0723 f7bd 5a6f 0dbe b8c8 ab3c
00000100: c98e 483e e68a dcbe 9445 07be 5521 cfbe
00000110: e953 04be be45 95be fd3e dfbe 8d21 3ebe
00000120: faa4 08bd 0888 29be cac6 0fbe 21bf ae3c
00000130: a95b c33d 19ce d4be a7db d5bd 71e9 bbbe
00000140: a204 84be 6cb6 7fbe 7801 68be 79f0 babe
00000150: e9b6 0fbe 8a3c 07be 89bc 87be 355a b4be
00000160: efcf d9be d216 a9be fa98 b23d ceb8 c1bd
00000170: 7f3e c23e 63b3 07be cc04 c33d 548f 0d3e
00000180: 1dca d4bd 9df5 3e3e 314d ea3d 485e cf3d
00000190: c0f4 543d 0b5b df3e 8f5a c8be 8a14 a13e
000001a0: 543b 3b3e 5ce0 d73d 1769 0c3f 9726 e3bd
000001b0: d028 393e 5098 303d 14b4 193e d45c ee3d
000001c0: 2446 e83d a3cd 3b3e dfef 0ebe d813 85bc
000001d0: 9caa fd3d 10d9 75be 301c d5bd b636 58be
000001e0: 978b 19be 867d 483d 3774 cfbd d0be 353d
000001f0: 742e 6dbe 1700 363c 7498 e7bd 2030 593c
00000200: 8cd9 0abe 13ca 9dbc aee1 34be b7ce 10be
00000210: 5ab6 4cbe 1cf7 35be d771 f1bd 8325 1cbe
00000220: f389 4cbd 46b7 60be a45d f1bd 274a 88bd
00000230: 0ed4 58be 75eb 88bd a2a0 dabd 04d0 b5bd
00000240: 6f7e 76be 641f 08be a061 cbbd 078f 19be
00000250: cacd b3bd b49d 9fbc 4a61 3ebe 3bb0 b7be
00000260: 75f6 de3d 25c4 c6bc 3402 69be ca74 2dbf
00000270: 7605 23bd c83d b03e 40a0 fa3c 9ade 5ebe
00000280: 9b39 b5bd b16e 7b3e 5055 da3c 4cb2 98bd
00000290: b3a0 aebe 5048 82bd 206f 31be 31f9 2ebe
000002a0: a37a ea3e da4b 0dbe a48c 42be 9628 cf3d
000002b0: 4598 773e 2b24 63bd a526 8f3d 76d4 e0bd
000002c0: 3f6a 26bf 6f0c 713d 65f5 53bf 3817 af3e
000002d0: 2da3 c13e 6416 0cbe b0f6 123d 34d9 61bd
000002e0: 557e 073e fdb6 d3be 702a 8c3e d4fe f3be
000002f0: dfa2 c3be 9014 e3bd ade1 443e 875f 793e
00000300: 763b 47be e79e 7b3e cd50 73bd 7ef6 db3d
00000310: 6c46 e73c cacf 31be e796 97be eea0 ed3d
00000320: 8449 cf3d 0fae 9f3d 0c4c 043e a58c a13e
00000330: bf0a 0f3f 7b92 913e ffc9 32be f6dc d9bc
00000340: cc7b c9be a8fe a83d 8a80 a73b f725 f1be
00000350: c22b c33d f4c0 fbbc 0128 bebd b7ed 29bf
00000360: c2f2 8c3e 1942 a8be 0cab 353d 4280 4d3d
00000370: d247 90bd 68f2 e43e 1e36 113e fcca d73e
00000380: 9bda cdbc 7b75 54be 1a43 1ebd e0e4 c7be
00000390: 4281 3dbe 536b d83d e185 a23c 8ce2 f53d
000003a0: 94e8 763e bb79 d43e 67d2 e83e 2f94 883e
000003b0: 5e6b d6be 8524 b83e 9bd1 29bf 3730 283d
000003c0: e210 71be 1e58 6fbe b29b 40be 3692 023d
000003d0: d2e5 05bf ba08 fe3c 9484 85be 4291 443e
000003e0: 6de5 8dbe c358 af3d ce63 29be 7c79 b7be
000003f0: 4601 dd3e 9501 efbe a4e0 a2be cdc5 0fbe
-0.26831424 -0.234759 0.12490079 -0.032649767 -0.15809387 -0.03499852 -0.2640984 -0.20644079
0.07558561 -0.3898385 -0.32901654 -0.18685374 -0.31854498 -0.18352465 0.22641757 0.0045606983
-0.17549199 -0.40081948 0.0040416797 -0.1043587 -0.19990592 -0.10067052 -0.37464675 -0.28657448
-0.4096339 -0.13010828 0.18538797 -0.1416308 -0.19468708 -0.18166012 0.019766962 0.07156966
-0.013493853 -0.0029637748 -0.15024333 0.3444604 -0.1603187 0.12081956 -0.2727979 0.30346552
-0.30908448 -0.47673032 0.023858344 -0.2714339 0.09458148 -0.07846551 -0.47593507 0.39303488
-0.12331151 0.23101085 -0.4042061 -0.19666393 -0.17194535 -0.3388585 -0.24347435 -0.21064545
-0.028871192 -0.1003731 0.38398325 -0.09559259 -0.27404413 -0.12067228 -0.13812009 0.020969734
0.19585718 -0.4307472 -0.13210136 -0.40455118 -0.12922634 -0.29154772 -0.43602744 -0.18567486
-0.03336046 -0.16555798 -0.14040676 0.021331372 0.09538967 -0.4156349 -0.10442286 -0.3670154
-0.25784785 -0.24971932 -0.2265681 -0.3651159 -0.14034618 -0.13206688 -0.26511028 -0.35225073
-0.42541453 -0.33025223 0.08720584 -0.09459077 0.37938306 -0.13252024 0.09522399 0.13824207
-0.103901125 0.18648382 0.11440504 0.101254046 0.051991224 0.43624148 -0.3913159 0.31460983
0.1828435 0.1054084 0.54847854 -0.11091345 0.18081975 0.043114007 0.150101 0.11638799
0.11341503 0.18340163 -0.13958691 -0.016244814 0.12386057 -0.24008584 -0.10405767 -0.2111462
-0.14994656 0.048947833 -0.10129588 0.044371426 -0.23162252 0.01110842 -0.11308375 0.013256103
-0.1355955 -0.019261396 -0.17664215 -0.14141355 -0.19991437 -0.17770046 -0.11789291 -0.15248685
-0.049936246 -0.21944913 -0.11785439 -0.066547684 -0.21174642 -0.06685535 -0.106751695 -0.088775665
-0.24071668 -0.13293225 -0.0993073 -0.14995967 -0.087794855 -0.019484378 -0.185918 -0.3587664
0.10886852 -0.02426345 -0.22754747 -0.6775633 -0.03980013 0.34422135 0.030593991 -0.21764603
-0.08848878 0.24553944 0.026652008 -0.074558824 -0.3410698 -0.06361449 -0.17327547 -0.17087246
0.4579669 -0.13798466 -0.18998963 0.10115163 0.2417918 -0.055454414 0.06989793 -0.10978024
-0.6500587 0.05884975 -0.8279632 0.34197402 0.37819806 -0.13680416 0.03587979 -0.05513878
0.13231786 -0.41350546 0.27376127 -0.47655356 -0.38210198 -0.11087906 0.19226713 0.24352847
-0.19456276 0.24572335 -0.05940323 0.10740374 0.028231822 -0.17364421 -0.29607317 0.116029605
0.10121444 0.07796871 0.12919635 0.31552616 0.5587577 0.28432068 -0.17459868 -0.02659462
-0.39352262 0.08251697 0.0051117586 -0.47099277 0.095298305 -0.030731656 -0.09284974 -0.6637835
0.2752896 -0.32862929 0.044352576 0.050171144 -0.07044949 0.4471619 0.141808 0.42147052
-0.025128653 -0.2074794 -0.03863821 -0.39041805 -0.18506339 0.105673455 0.019839229 0.12006101
0.24112159 0.41499123 0.45473024 0.26675555 -0.4187879 0.35965362 -0.6633546 0.041061606
-0.23541597 -0.23373458 -0.18809393 0.03187772 -0.523038 0.03101002 -0.26077712 0.19196036
-0.277141 0.08561852 -0.16541979 -0.35834873 0.43165034 -0.46680894 -0.31812012 -0.14040299

neg_net.linears.1.bias f4 [30]
00000000: ea2b 8bbe d2e6 c93d 3d7c e8be dadb 133e
00000010: 09ee afbe a292 a53d 6b0f b53d 852f 113e
00000020: b1e3 ccbd 526c 61be f201 7abd 1376 b2be
00000030: c15b 98be 0aa8 a1be 3cd1 003e 0103 ec3d
00000040: f6bd 263e 8350 b0be 273c c9bb a857 8bbe
00000050: 91c6 bd3d ab7c 8e3e d497 44be c14c 0d3d
00000060: 8d7b 1bbd 3cf1 37be 2c60 86be 6fa6 b7bd
00000070: e0cd 9dbc 2c45 10be
-0.2718194 0.098584786 -0.45407286 0.14439335 -0.34361294 0.080846086 0.08840831 0.14178284
-0.10004366 -0.22013977 -0.06103701 -0.34855708 -0.29757503 -0.31573516 0.12579817 0.115240104
0.16283402 -0.34436426 -0.006141204 -0.27215314 0.09266389 0.2782949 -0.19198543 0.034497026
-0.037959624 -0.17963117 -0.26245248 -0.089672916 -0.019263208 -0.14088887

neg_net.linears.2.weight f4 [30, 30]
00000000: af65 5d3e 5c38 c7be ca8b 753d d665 373e
00000010: 6cb1 893b db1c c83d 8a11 113e 9509 963e
00000020: f541 14be e1c2 993e cd55 c23e f28f b2bd
00000030: f63a 1e3e 4822 2fbd 36a6 6ebe f8bf 12be
00000040: ca6f f13d 86c0 41bc cd57 37bd c9a0 a6be
00000050: 5c22 b23d 16c6 163e e7b0 463d 23cb bcbd
00000060: dc04 5abe a690 96be 071c 063c e44a d43d
00000070: 435b 8dbe 1e12 b53e a130 e53c 9f70 c2be
00000080: ade4 3cbe fa6a 843e 696a 703b d7b3 003f
00000090: c42d 5dbe 07ce e6bd 5152 d3be 9e48 24be
000000a0: 43f6 b23e 8784 9f3d 119c d63c 2ad3 5dbe
000000b0: 1ec1 6fbe cd76 753e 4882 50be 37b7 e2bb
000000c0: 5162 94be dee0 0dbd f4e1 1f3d cecd c7be
000000d0: 53a0 a6bc e9e0 f3bd 0a04 eabe 293e f1bc
000000e0: 4e83 063c bcc8 44be b8b2 fcbe 8949 593f
000000f0: dbf3 9f3c cf62 133d b309 e9bd 1ae7 fbbc
00000100: 441e 0b3d 626f b4be 88d4 80be 493c da3c
00000110: ef2e aabe a7e0 003d 6c30 29bb 9a30 9dbe
00000120: 81bd babd 96bd c33c ab4a eabe 719d 7a3c
00000130: 61f4 5cbe 6de6 3a3c 7a2c 1cbd b7f0 15be
00000140: ea04 2fbe 22ab 1ebe 4d4b 54bc 9e89 37be
00000150: d24d b0bc f28e 183d 1939 1f3c 756e 4d3c
00000160: 39f4 a9be 5266 86be 452c b6bd aef2 a8be
00000170: c852 09bc 6ccb 95bd 086e ce3c 82b0 f83d
00000180: e84e 8b3e feb5 4c3e 631d 89be 020a e2bd
00000190: 3586 c43d 8adb 713b dca5 94be 3a91 fbbd
000001a0: 34f2 0c3d 5ab7 06bf 30b4 5c3d 8da8 7ebe
000001b0: 06c4 94be d2a5 77be 39ac 69bd a84a fabc
000001c0: b5a1 493c 4607 833e a9fc 94be 0239 e0be
000001d0: 768a 30be 4adf 32bd fa31 4b3d 70ff 34be
000001e0: bd70 883b 062b 90bc c390 843c 6565 353d
000001f0: 93ff c7bc 1a01 bbbd 1fd8 17bd 0e95 c7bd
00000200: 4cb9 c5bd 165f 353c c0b2 993b 70f4 e0bc
00000210: fff6 1bbe 15d1 e63c a01e 8bbd eaf0 01bb
00000220: 7bbf dabd 3aea 43bc 33cd 133c bdc9 bebd
00000230: e79d 183d 1c0d d0bb 1669 6cbb ab52 57bc
00000240: 8bfa 18be 6fb7 8fbd 6e6a 08bc 2474 14bc
00000250: 6e2a 3fbc 223c f23c 84a7 6f3d 9c0c 6a3b
00000260: 2ec0 68bd 3a12 d4bd ff36 1d3d f4c7 1fbe
00000270: 5343 cb3e bf04 8a3e 9715 20be 239a aabe
00000280: 1a44 843d 83be 0b3d 02f9 443d a45c 85be
00000290: af3f 903e 53a4 aabe bbfe b73e c4c0 f8bd
000002a0: 6bae 5fbd d2a2 4a3e fc9c 09be ff2a f63d
000002b0: b058 a3bc 6065 ff3e 0223 e13d cce8 efbe
000002c0: f022 b3ba e07f d33e 20ac d93e 5c2f 923e
000002d0: b430 93ba c802 2d3e 2be9 1cbc 22ab ec3d
000002e0: 083f 6fbb fe60 013e a039 d23d 83d6 2ebd
000002f0: 167a c63e bb40 9dbc 341e 2c3d bc55 19be
00000300: 3728 03bd e4a3 663c 2983 4bbd c325 88bd
00000310: 183c 353e 382f 4c3c 4852 15bf 130a a43c
00000320: d08d e53d 4e58 fb3e 8d15 093c 7735 8f3e
00000330: ef96 d83e 57e1 823d e6ba 19bc 00cf 0e3e
00000340: 73fe 83be 4a49 863e 0e47 fabd 4b6c 9dbe
00000350: 2495 513d 1b81 4fbe f1e4 48be bf91 b1be
00000360: 2b8d 46be c534 aebe d310 b7be 214b 26be
00000370: ad91 7abc aed4 8ebe 90e8 94be 46c9 cabd
00000380: 2dcc 6bbe 03ca 79bd 22e9 bbbe f2d5 f4bd
00000390: b61c afbd 6a84 97be 8c1b 80be 0d3c edbc
000003a0: 7418 2bbe 324d 2fbe 729b 35be a007 60be
000003b0: c25f 21be e555 553c 09ae 0fbe f469 2bbe
000003c0: 8ad2 55be d203 c73e f44b 34be 3e04 d2be
000003d0: 96fa 5fbc d41a 8cbe 1504 26be 4ece dbbe
000003e0: 476c bf3d 3a22 d03d fc94 b0be 3637 cdbd
000003f0: fc1a 1abc f44b 7c3e 8805 813e 06f6 1b3e
0.2162082 -0.38910186 0.059947766 0.17909941 0.0042020585 0.09771129 0.14166847 0.29304186
-0.14478286 0.30031493 0.37956086 -0.08718862 0.1545218 -0.042757303 -0.23305592 -0.14331043
0.117889 -0.011825686 -0.044761468 -0.32544544 0.0869796 0.14724001 0.04850855 -0.09218433
-0.21290916 -0.29407233 0.008185393 0.10365847 -0.2760869 0.35365385 0.02797729 -0.37976548
-0.18446608 0.25862867 0.003668452 0.50274414 -0.2159949 -0.11269765 -0.4127374 -0.16043326
0.34953508 0.077889495 0.026197465 -0.21662584 -0.23413512 0.239711 -0.20362198 -0.0069188136
-0.2898126 -0.03463828 0.039033845 -0.39024204 -0.02034012 -0.119081326 -0.45706207 -0.029448586
0.008210016 -0.19217199 -0.49355102 0.8487783 0.019525459 0.035982903 -0.11378803 -0.030749846
0.03396441 -0.35241228 -0.25162148 0.026640074 -0.33238932 0.031464245 -0.0025816215 -0.30701143
-0.09118176 0.023894113 -0.45760092 0.015296326 -0.21577598 0.011407477 -0.038128354 -0.14642607
-0.17091718 -0.1549497 -0.012957406 -0.1792359 -0.021521483 0.0372457 0.009718203 0.012538542
-0.3319414 -0.2624994 -0.088951625 -0.3299765 -0.008381553 -0.0731419 0.025198951 0.12143041
0.27208638 0.199913 -0.26780233 -0.11037065 0.095959105 0.0036904537 -0.2903279 -0.12283559
0.03441067 -0.5262352 0.053882778 -0.24868985 -0.29055804 -0.24184349 -0.05704901 -0.030553177
0.01230662 0.25591487 -0.29099014 -0.43793494 -0.17240319 -0.043669976 0.04960821 -0.17675567
0.00416383 -0.01759864 0.016182309 0.04428615 -0.02441386 -0.091310695 -0.037071344 -0.09745227
-0.09654483 0.011070034 0.004690498 -0.027460307 -0.1523094 0.02817587 -0.06792951 -0.0019827434
-0.10681053 -0.011957699 0.009021091 -0.09315822 0.037259962 -0.006349219 -0.0036073378 -0.013142268
-0.14939325 -0.07017409 -0.008326156 -0.009060893 -0.011667831 0.02956969 0.058509365 0.0035713082
-0.0568239 -0.10355039 0.038382526 -0.1560362 0.39699802 0.26956746 -0.15633236 -0.33320722
0.06458302 0.034117233 0.048089035 -0.26047242 0.28173587 -0.33328494 0.3593653 -0.12146142
-0.054609697 0.19788674 -0.13438791 0.120199196 -0.01993975 0.4988203 0.10993005 -0.46857297
-0.0013667028 0.41308498 0.42514133 0.28551757 -0.0011229725 0.16895592 -0.009577076 0.115560785
-0.0036506075 0.12634656 0.10264897 -0.042685043 0.3876502 -0.019195905 0.04202099 -0.14974111
-0.032020774 0.0140771605 -0.04968563 -0.066478275 0.17698705 0.01246243 -0.58328676 0.020024335
0.11208689 0.4909081 0.0083669545 0.27970478 0.42302653 0.063906364 -0.009382939 0.13946152
-0.25780067 0.2622779 -0.12220584 -0.30746683 0.051167622 -0.20264094 -0.19618584 -0.34681508
-0.19389789 -0.34024635 -0.35755023 -0.16239597 -0.015293521 -0.27896637 -0.2908368 -0.09901671
-0.23027106 -0.06098367 -0.36701304 -0.11954869 -0.08550398 -0.2959321 -0.25021017 -0.028959299
-0.16708547 -0.17119291 -0.17735079 -0.21877909 -0.15759185 0.013020967 -0.14031233 -0.16739637
-0.20881096 0.38870102 -0.17607099 -0.41018862 -0.013670584 -0.27364218 -0.16212495 -0.42930835
0.09346824 0.10162778 -0.34488666 -0.10020296 -0.009405848 0.24638349 0.25199533 0.15230569

neg_net.linears.2.bias f4 [30]
00000000: 9ca0 aa3e 6762 f5bd 426e f4be f8be 00be
00000010: 31f5 b0be 4adc 303e 9472 69bd 09ea a8be
00000020: d118 2f3e 720c afbe e474 163e 25e9 35be
00000030: a13d a3be 047f 8abe cad2 033f 859f 7fbe
00000040: 4fd4 86be 242e 1cbe b7f6 c4be 5173 b13e
00000050: c320 c0be d780 98be 58f4 bcbe e53c 8cbe
00000060: 3ba4 523e 8317 9b3e 2a45 a23a c9be a7be
00000070: 6526 1abd 6f28 d8be
0.3332566 -0.119816594 -0.4774037 -0.12572849 -0.34562066 0.17271534 -0.056994036 -0.32991055
0.1709931 -0.34189183 0.14693028 -0.17764719 -0.31882957 -0.2705003 0.51493514 -0.24963196
-0.26333854 -0.15251976 -0.38469478 0.34658292 -0.37524995 -0.29785797 -0.3690517 -0.2739021
0.20570461 0.30291376 0.0012380232 -0.32762745 -0.037634272 -0.42218348
