data/MTMR_28002/sim/random/MLSE4POL/2/train/N100/D6_SinCosInput/1/result/model/ReLU_Dual_UDirection_PKD.pt (torch_old, 22776 bytes, 20 tensors)

input_mean f4 [12]
0	0x39ea386e	0.00044674
1	0x3e82b0ff	0.25525662
2	0x3aafe16d	0.0013418623
3	0x3e7b4817	0.24539219
4	0x3e6c3970	0.23068786
5	0xba9b7ac9	-0.0011862154
6	0x3f6be000	0.9213867
7	0x3f6c0a7e	0.9220351
8	0x3f713e49	0.94235665
9	0x3e2dfee6	0.16991767
10	0x3e74d5d2	0.23909691
11	0x3f6bb094	0.9206631

input_std f4 [12]
0	0x3ec3c22a	0.38234073
1	0x3e8e6b96	0.27816457
2	0x3ea95020	0.33068943
3	0x3f2264f6	0.63435304
4	0x3f2aaf53	0.66673774
5	0x3ec497bf	0.38397023
6	0x3d8ecd13	0.069727086
7	0x3daf37d0	0.08555567
8	0x3d511efd	0.051054943
9	0x3f368d81	0.7130967
10	0x3f2ac9ba	0.6671406
11	0x3d9003cc	0.07031974

output_mean f4 [6]
0	0x3cca7dfb	0.024718275
1	0x3eede712	0.46465355
2	0x3e400862	0.18753198
3	0xb997e898	-0.0002897426
4	0xbd18d82e	-0.03731554
5	0x3bfed323	0.0077766343

output_std f4 [6]
0	0x3d148b3e	0.036265604
1	0x3e216c4e	0.15763971
2	0x3e128b8d	0.14311047
3	0x3df3616d	0.11883817
4	0x3de77a41	0.11302615
5	0x3c8fadd5	0.017538944

pos_net.linears.0.weight f4 [30, 12]
0	0x3e9d3930	0.30707693
1	0x3dab423a	0.08362241
2	0x3dedcb5d	0.11611054
3	0xbe0a471f	-0.13503693
4	0x3f2ffac0	0.6874199
5	0xbeb66492	-0.35623604
6	0xbd91147e	-0.07083987
7	0x3e405c71	0.18785264
8	0xbdcdab26	-0.100424096
9	0x3e822c38	0.2542436
10	0xbeb44fa2	-0.35217005
11	0x3c416e08	0.011806019
12	0x3df2ec9e	0.118615374
13	0xbd95afcb	-0.073089205
14	0xbc9f5eac	-0.019454323
15	0x3d2f533f	0.042804
16	0xbd685209	-0.05671886
17	0x3d85d8c3	0.06535485
18	0x3dbcac67	0.09212571
19	0x3cdad9e3	0.026715225
20	0xbd3b2aa1	-0.04569495
21	0xbce0cf5f	-0.027442632
22	0xbde04572	-0.10950746
23	0x3d18fea7	0.03735223
24	0x3ef7de29	0.48411682
25	0x3eaa2f82	0.3323937
26	0x3eaa481f	0.3325815
27	0x3f4a5661	0.79038054
28	0xbedcd48e	-0.43130916
29	0xbeab625a	-0.33473474
30	0xbdf06c9b	-0.11739465
31	0x3d6e2055	0.058136303
32	0x3be32b92	0.006932684
33	0xbebbd748	-0.36687684
34	0x3e2752d5	0.16340192
35	0xbb00b9fa	-0.00196421
36	0x3da21b3a	0.07915349
37	0xbf2ef11f	-0.6833667
38	0xbee36d30	-0.4441924
39	0x3e2f79f4	0.17136365
40	0x3f2d2209	0.6763006
41	0xbd876d79	-0.06612677
42	0x3db1df10	0.08685124
43	0xbab96786	-0.0014145232
44	0xbd143167	-0.036179926
45	0xbf40220a	-0.7505194
46	0x3ba27f6c	0.0049590375
47	0xbd9b38ee	-0.07579218
48	0xbf26e5c3	-0.6519434
49	0x3ece7e5f	0.40330788
50	0xbf081a15	-0.531648
51	0xbdb315cf	-0.08744394
52	0xbe964e54	-0.29356635
53	0xbe2eb684	-0.17061812
54	0x3d9d0a30	0.07667959
55	0x3da4c4a1	0.080453165
56	0x3d79e646	0.06101062
57	0xbed9e0a3	-0.42554197
58	0x3e36b765	0.17843397
59	0x3bb52d11	0.005529054
60	0x3cf4d7b0	0.029888004
61	0x3ee54d0b	0.44785342
62	0x3eb5c54b	0.35502085
63	0x3e02b0ec	0.12762803
64	0x3f28f4d8	0.659986
65	0xbbf912c5	-0.0076011145
66	0xbda43fc5	-0.080199756
67	0xbda94277	-0.0826463
68	0x3da7f76c	0.08201489
69	0xbe0bda3d	-0.1365747
70	0xbf5530d4	-0.8327763
71	0x3d999ee4	0.07501009
72	0xbee6a197	-0.45045158
73	0xbf239b67	-0.63909
74	0xbe8608ac	-0.2617849
75	0x3f43e370	0.7651892
76	0x3dd12078	0.10211271
77	0xbef99a39	-0.48750475
78	0xbd4b6747	-0.04965904
79	0xbd83e70b	-0.06440552
80	0xbe0203ec	-0.12696809
81	0xbe5a45be	-0.21315667
82	0x3d91d3f3	0.07120504
83	0x3c0087ce	0.007844878
84	0xbdd6f109	-0.104951926
85	0x3d1a366c	0.037649557
86	0x3e7012a0	0.23444605
87	0xbf0a0903	-0.5392
88	0xbf0f5120	-0.5598316
89	0x3e9e326c	0.30897844
90	0x3e12cbea	0.143356
91	0x3ed05cbf	0.4069576
92	0x3d6149a2	0.055001862
93	0xbf347049	-0.70483834
94	0x3ebb5c99	0.36594084
95	0x3e129976	0.14316353
96	0x3e2f9184	0.17145354
97	0x3e20ff6a	0.15722433
98	0xbddd8df7	-0.10818093
99	0xbef55bdf	-0.47921655
100	0x3ef873ca	0.4852584
101	0xbc8b1882	-0.01697946
102	0x3dd66054	0.10467592
103	0x3e62dcab	0.2215449
104	0x3cc80c8c	0.024420045
105	0x3f035266	0.51297605
106	0xbe80bb72	-0.2514301
107	0xbdccba19	-0.09996433
108	0x3da1473a	0.078749135
109	0x3d570af1	0.05250067
110	0xbf11b263	-0.5691282
111	0x3f0bbfb8	0.54589415
112	0xbd9043d4	-0.07044187
113	0xbd88e24e	-0.06683789
114	0xbd77ced8	-0.060499996
115	0x3effdd42	0.49973494
116	0xbdb71ca1	-0.089410074
117	0xbf04199f	-0.51601595
118	0x3e321732	0.17391661
119	0x3ddc2416	0.1074907
120	0x3ec04adc	0.37557113
121	0x3e820520	0.25394535
122	0x3f6c5f4c	0.9233291
123	0xbe0f6454	-0.14003116
124	0x3e8acedd	0.2711095
125	0xbd8d8bbd	-0.069114186
126	0xbdb37493	-0.08762469
127	0x3c92ce88	0.017920747
128	0x3dd2be56	0.1029021
129	0x3f43982e	0.7640408
130	0xbd9e5d93	-0.077326916
131	0xbcd1716c	-0.02556678
132	0xbe960dc9	-0.29307392
133	0xbe1161de	-0.1419749
134	0x3f5bf14d	0.8591507
135	0x3f1b34ab	0.6062724
136	0x3e171816	0.14755282
137	0xbe1cd769	-0.15316547
138	0xbd8f871a	-0.070081905
139	0xbd9fd6d2	-0.078046456
140	0xbdb32dfd	-0.08749006
141	0xbe4d6b10	-0.20060372
142	0xbdee83de	-0.116462454
143	0x3e3774b9	0.1791562
144	0x3d886b3c	0.06661078
145	0xbed471fa	-0.41493207
146	0xbeac9e62	-0.33714586
147	0xbed01f2c	-0.40648782
148	0xbf2641b7	-0.6494402
149	0xbeb1e6a1	-0.34746268
150	0xbd870f65	-0.06594733
151	0x3dfd79b6	0.1237673
152	0xbd8c4d32	-0.06850661
153	0xbf577351	-0.84160334
154	0x3e3a56ab	0.18197124
155	0xbe0b0572	-0.13576296
156	0xbd8da002	-0.06915285
157	0x3f123d95	0.57125217
158	0x3f57a58d	0.84236985
159	0xbe9b8620	-0.30375767
160	0x3d50bc1a	0.050960638
161	0x3dc3d42a	0.095619515
162	0xbd16ca73	-0.036814164
163	0xbe6dfefb	-0.23241799
164	0xbd427193	-0.047471594
165	0xbeb85e38	-0.36009383
166	0xbedd2c14	-0.4319769
167	0xbcff1da2	-0.03114206
168	0xbdb05375	-0.08609668
169	0x3eca9311	0.39565328
170	0x3f10b59f	0.5652713
171	0x3efb6110	0.4909749
172	0xbf05fba0	-0.52337074
173	0xbece6ab0	-0.4031577
174	0x3d54f1d6	0.051988445
175	0xbdeb7951	-0.11497749
176	0x3cd5e438	0.0261098
177	0x3f203d20	0.6259327
178	0xbde8fbbc	-0.113761395
179	0xbb467840	-0.0030284077
180	0x3f27d23c	0.6555517
181	0x3ef0d69a	0.47038728
182	0xbbe78ed8	-0.007066589
183	0xbf146589	-0.5796743
184	0xbcf915b2	-0.030405853
185	0xbe27804c	-0.16357535
186	0x3be74c5f	0.0070586647
187	0x3c2faf6b	0.010722975
188	0xbd55a0f0	-0.052155435
189	0xbe80014f	-0.25000998
190	0x3edc965a	0.4308346
191	0x3d9dcbd7	0.07704895
192	0x3e2335f3	0.15938549
193	0x3ebd0fc5	0.36926094
194	0x3d3e32ba	0.046435095
195	0xbe87d3ad	-0.26528683
196	0xbf043c24	-0.5165427
197	0x3f20b30f	0.6277322
198	0xbd5a9daf	-0.053373035
199	0xbdbc776e	-0.09202467
200	0xbd1e2f21	-0.038619164
201	0x3e230c61	0.15922691
202	0x3e034e55	0.1282285
203	0x3c3517ea	0.011053065
204	0xbf1fb744	-0.62389016
205	0x3e74165b	0.23836653
206	0x3d304e21	0.04304326
207	0xbf154f51	-0.5832415
208	0x3eebf078	0.460819
209	0xbbdcd734	-0.0067395214
210	0xbe60527a	-0.21906462
211	0xbe280ba4	-0.1641069
212	0xbcd48bed	-0.025945628
213	0x3dc89b06	0.097951934
214	0x3c5e9c87	0.013587124
215	0xbcef205b	-0.029190233
216	0xbd77f3cf	-0.06053525
217	0x3e7d87d4	0.24758846
218	0x3f13a1f3	0.5766899
219	0x3f14ce41	0.5812722
220	0x3f5c1639	0.8597141
221	0x3f395f70	0.7241125
222	0xbccf3c37	-0.025297267
223	0xbe8ed27f	-0.2789497
224	0x3d3cd716	0.04610356
225	0x3cd9c5b0	0.026583523
226	0x3e85d366	0.26137847
227	0x3c10b8ec	0.008833151
228	0xbe8596cf	-0.2609162
229	0xbe81ed8e	-0.25376552
230	0x3ee26960	0.4422102
231	0xbeb1f1b2	-0.3475471
232	0x3e44ec60	0.19230795
233	0xbd28a05d	-0.04116856
234	0x3b43fe1c	0.00299061
235	0x3e5b379f	0.21407937
236	0x3e47a870	0.19497848
237	0x3f3f3cb5	0.74702007
238	0xbe8398a1	-0.25702384
239	0xbd3dc26f	-0.046328004
240	0x3ec1d4f1	0.37857774
241	0xbf3da6a2	-0.74082386
242	0xbdcd0efc	-0.10012624
243	0x3eda67ba	0.42657262
244	0xbef00280	-0.46876907
245	0x3e8ff072	0.28113133
246	0xbd53b20f	-0.05168348
247	0xbe5e0d5a	-0.2168478
248	0xbb4c1652	-0.0031141234
249	0x3dbbcc41	0.09169818
250	0x3e4d3262	0.20038751
251	0x3d3ef6f2	0.046622224
252	0xbf00eac5	-0.5035823
253	0xbec4339d	-0.38320628
254	0xbdc52f86	-0.09628205
255	0x3dbdbb5f	0.09264254

pos_net.linears.0.bias f4 [30]
0	0xbcc21c22	-0.023695055
1	0xbf2c83d8	-0.6738868
2	0xbe7cc5f2	-0.24684885
3	0xbe9372f0	-0.28798628
4	0x3da856e7	0.082197
5	0xbed300bf	-0.41211507
6	0x3dbb395e	0.09141801
7	0x3d2189a2	0.039437898
8	0xbd2d7723	-0.042349946
9	0xbf14496e	-0.57924545
10	0xbd509769	-0.050925646
11	0xbe0e000d	-0.13867207
12	0xbef9946d	-0.48746052
13	0xbf0ce560	-0.550375
14	0x3dd81d6a	0.10552485
15	0xbc42f0da	-0.011898244
16	0xbe78f12e	-0.24310753
17	0x3d1175e7	0.03551283
18	0xbd8f2034	-0.06988564
19	0xbe8395fc	-0.25700366
20	0x3cccd330	0.025003046
21	0xbe1bed23	-0.15227179
22	0xbe95d075	-0.29260603
23	0xbf19165a	-0.5979973
24	0x3e363072	0.17791918
25	0xbe3b6fa5	-0.18304308
26	0xbea43ff7	-0.3208005
27	0xbf104001	-0.5634766
28	0xbf334316	-0.7002424
29	0xbe8cb0f1	-0.27478746

pos_net.linears.1.weight f4 [30, 30]
0	0x3e1b8ccb	0.15190427
1	0x3dc52114	0.0962545
2	0x3dae4b62	0.08510472
3	0xbef87be8	-0.48532033
4	0x3da52481	0.08063603
5	0xbe2e5c82	-0.17027476
6	0xbf0d13b5	-0.55108196
7	0x3dc4e70a	0.0961438
8	0x3ec1b5f3	0.3783413
9	0xbeae8384	-0.34084713
10	0xbc816a92	-0.015797887
11	0xbe4c17ba	-0.19930926
12	0xbe627dad	-0.22118254
13	0xbc430eaa	-0.011905352
14	0xbe6ace95	-0.22930367
15	0x3e8b1633	0.27165374
16	0x3dd5e05c	0.10443184
17	0x3e9df6d1	0.30852368
18	0x3d7e2461	0.062046412
19	0xbd21fb58	-0.03954634
20	0xbe76f512	-0.24116924
21	0xbcf90c8a	-0.030401487
22	0x3e9666c2	0.29375273
23	0xbe1ab70b	-0.15108888
24	0x3d9dd585	0.07706741
25	0x3d0717e4	0.03298177
26	0x3eac51af	0.3365607
27	0x3e03d1c6	0.12872991
28	0x3cd71444	0.02625478
29	0x3e84dd16	0.25949925
30	0xbcf6e3eb	-0.030137977
31	0x3c39efdb	0.01134869
32	0xbdd0ddbd	-0.10198543
33	0xbdc176c5	-0.094464816
34	0x3c6b98ca	0.0143796895
35	0xbbe59f1d	-0.007007493
36	0x3caea116	0.021317046
37	0xbc9453ac	-0.018106304
38	0xbb579969	-0.0032897836
39	0x3aff0d22	0.001945887
40	0xbe8b6e39	-0.2723253
41	0xbdafac82	-0.08577825
42	0x39fe3fd4	0.0004849421
43	0xbdd4689a	-0.10371514
44	0xbe04885c	-0.12942642
45	0x3ca1ae2a	0.019736368
46	0xbe181ca4	-0.14854676
47	0xbd9d6554	-0.076853424
48	0x3bcc6f16	0.0062388284
49	0x3cf8b572	0.030359957
50	0x3c9e2838	0.019306287
51	0xbc9badeb	-0.019003829
52	0x3b2b0014	0.0026092576
53	0xbde0c054	-0.10974184
54	0xbe320a3e	-0.1738672
55	0x3cc8d472	0.024515364
56	0x3a885ae2	0.0010403062
57	0xbc4beff4	-0.012447346
58	0xbdeccf60	-0.11562991
59	0x3cdee673	0.027209496
60	0xbe949d1b	-0.29026112
61	0xbcf0ddd3	-0.029402649
62	0xbd797124	-0.060898915
63	0x3cb414c9	0.021982567
64	0x3eaf694f	0.34260032
65	0x3d12cd53	0.035840344
66	0x3e3f3fb4	0.18676645
67	0x3d781eca	0.060576238
68	0x3d589543	0.052876722
69	0xbec4c700	-0.38433075
70	0xbe9a6fe6	-0.30163497
71	0x3e988cc9	0.2979491
72	0x3e5c088c	0.21487635
73	0x3d3bb0b7	0.045822825
74	0x3e9f09a7	0.31062052
75	0xbe3637b6	-0.1779469
76	0xbf0c877c	-0.5489423
77	0x3e97c8fe	0.29645532
78	0x3e9faf72	0.31188542
79	0x3e96d508	0.29459405
80	0xbdf31700	-0.11869621
81	0x3e9d7be0	0.30758572
82	0x3dd4359d	0.103617884
83	0xbe695257	-0.22785316
84	0xbec5164f	-0.38493583
85	0x3e8d0c1f	0.2754831
86	0xbde79682	-0.11308004
87	0x3d57ccb4	0.052685454
88	0xb94d2e6f	-0.00019567621
89	0x3d82c3ac	0.06384978
90	0x3c990463	0.01867885
91	0xbc013869	-0.007886984
92	0x3dd5d526	0.104410455
93	0x3e1238fc	0.1427955
94	0xbe792f1c	-0.24334377
95	0x3d5a6afc	0.053324685
96	0xbd159642	-0.03652025
97	0xbee32394	-0.4436308
98	0xbe8cd401	-0.27505496
99	0x3e335da8	0.17516196
100	0x3d893d92	0.06701197
101	0xbdffaa3b	-0.12483641
102	0xbdba3ed0	-0.09094012
103	0xbdc3efd9	-0.09567232
104	0xbe0657eb	-0.13119476
105	0x3ea1e405	0.31619278
106	0xbe628a7e	-0.22123143
107	0xbe6dd0b4	-0.23224145
108	0xbe883199	-0.2660034
109	0xbe9b3b2b	-0.3031858
110	0x3dca35d3	0.098735474
111	0xbeab008e	-0.3339886
112	0xbe0e41ca	-0.13892284
113	0x3dcf6e54	0.10128465
114	0xbe2b0bd1	-0.16703726
115	0xbe25f6b8	-0.16207397
116	0x3e71f056	0.23626837
117	0x3e173549	0.1476642
118	0xbd5da8c0	-0.05411601
119	0xbe38bd73	-0.18041019
120	0x3ac0d5f3	0.0014712199
121	0x3b39cbfa	0.002835034
122	0x3c868d6b	0.016424855
123	0x3c101596	0.008794209
124	0xbd215959	-0.03939185
125	0xbc2b93fc	-0.010472294
126	0xbc26504d	-0.010150981
127	0x3c271ad4	0.010199267
128	0xbdc60463	-0.096688055
129	0xbd42ae9d	-0.047529805
130	0x3c3374b4	0.010953117
131	0x3c950906	0.01819278
132	0x3b32766e	0.0027231234
133	0x3c1b99cf	0.00949712
134	0x3bcb780e	0.00620938
135	0xbc705246	-0.014668053
136	0xbd3ade26	-0.045622014
137	0x38527f80	5.0186645e-05
138	0x3c9628cc	0.01833
139	0x3c7db14c	0.015484165
140	0x3c1ece4e	0.009692742
141	0xbbc48575	-0.0059973546
142	0xbb766188	-0.0037594754
143	0xbca7d043	-0.02048505
144	0xbdd1cbe0	-0.10243964
145	0xbdcb9ea6	-0.09942369
146	0xbd747c8d	-0.059689093
147	0x3c78ae45	0.015178268
148	0x391317c8	0.00014027872
149	0xbb60f034	-0.003432286
150	0xbee4496d	-0.4458727
151	0xbcbbf96b	-0.02294608
152	0xbe22bb90	-0.15891862
153	0xbebe7761	-0.37200454
154	0xbe5d1693	-0.21590643
155	0x3e009bef	0.12559484
156	0xbe0a910c	-0.13531893
157	0x3de8e46d	0.11371694
158	0xbec53d73	-0.38523445
159	0xbd8acbbe	-0.06777142
160	0x3f09a136	0.53761613
161	0x3c0c17fc	0.00855064
162	0xbba55f4c	-0.0050467607
163	0xbd5f6229	-0.054536972
164	0x3efa3204	0.48866284
165	0xbe03ccfd	-0.12871166
166	0x3d2b69a7	0.041848805
167	0x3de45672	0.11149301
168	0x3ece62cb	0.40309748
169	0x3dc24be4	0.09487131
170	0xbf07c568	-0.53035593
171	0x3e846f60	0.25866222
172	0xbd927610	-0.07151425
173	0xbe40b4f6	-0.18819031
174	0x3e58a46b	0.2115647
175	0xbd4ecbd0	-0.05048734
176	0xbe45a6b7	-0.19301878
177	0xbf35d54e	-0.710286
178	0xbd42f7d4	-0.04759963
179	0xbe2ca947	-0.16861449
180	0xbeb066d5	-0.34453455
181	0xbc9c3e29	-0.019072609
182	0x3de21996	0.110400364
183	0x3de33094	0.1109325
184	0x3d15b8fe	0.036553375
185	0x3ecac745	0.39605156
186	0x3cc995c4	0.024607547
187	0xbf0d9b51	-0.5531512
188	0xbf09fa5e	-0.53897655
189	0xbda2b5d9	-0.07944841
190	0xbe3b570b	-0.18294923
191	0x3dce6dbf	0.10079526
192	0xbefb9863	-0.491397
193	0x3e11f9c4	0.14255434
194	0x3e9fad97	0.31187126
195	0xbea9342a	-0.3304761
196	0x3d5e8222	0.054323323
197	0xbe5d7734	-0.21627504
198	0x3e4beccc	0.1991455
199	0xbeb04fde	-0.34435934
200	0xbe431f4c	-0.19054908
201	0xbca1b7b8	-0.019740924
202	0xbecb9854	-0.39764655
203	0x3e0bf1d9	0.13666476
204	0xbee991f4	-0.45619166
205	0x3bc8e468	0.006130744
206	0xbdf1bb02	-0.11803247
207	0x3de44965	0.111468114
208	0x3dd80bfe	0.10549162
209	0xbe760f8b	-0.24029367
210	0xbd8ee504	-0.06977275
211	0xbd35d3e4	-0.044391528
212	0xbdce3fc7	-0.10070758
213	0xbe41c25e	-0.18921801
214	0xbcf385a7	-0.029726816
215	0x3cab6561	0.020922365
216	0xbda6a9a6	-0.081378266
217	0xbdf7182a	-0.12065156
218	0xbd572041	-0.052520994
219	0x3bf13597	0.0073611247
220	0xbe1bafff	-0.15203856
221	0xbdf120f7	-0.11773866
222	0xbab27232	-0.0013614355
223	0xbe100350	-0.14063764
224	0xbe6059ac	-0.21909207
225	0x3ca21c82	0.019788984
226	0xbe20110e	-0.15631506
227	0xbd6d30fd	-0.057908047
228	0x3bf78926	0.007554191
229	0x3c9c813e	0.019104596
230	0xbcec262d	-0.028826797
231	0x3bcf962b	0.00633504
232	0xbcf13c01	-0.029447557
233	0xbe0ebe72	-0.13939837
234	0xbe0146dd	-0.12624688
235	0xbdb06469	-0.08612902
236	0xbd55e40f	-0.052219447
237	0x3c932953	0.01796404
238	0xbdee1698	-0.11625403
239	0xbcbed29a	-0.023293782
240	0xbc0cc3f1	-0.008591638
241	0xbc001562	-0.007817598
242	0x3c80d0e3	0.015724605
243	0xbe379596	-0.17928156
244	0xbddb0d2c	-0.10695872
245	0x3c437f37	0.011932186
246	0xbde3dfbc	-0.11126658
247	0x3cde59e8	0.02714248
248	0xbd4b190a	-0.049584426
249	0xbd09c169	-0.033631716
250	0x3c2f3640	0.010694087
251	0xbd86027b	-0.06543442
252	0x3a918061	0.0011100882
253	0xbd1aeaf6	-0.037821732
254	0x3c26092a	0.010134021
255	0xbc70163d	-0.0146537395

pos_net.linears.1.bias f4 [30]
0	0xbe03e347	-0.12879668
1	0xbe65766e	-0.22408459
2	0x3de362fb	0.111028634
3	0xbd2a9f4d	-0.041655827
4	0xbe8ee671	-0.27910188
5	0xbbafe69e	-0.005368068
6	0x3e03fd1d	0.12889524
7	0xbe12b427	-0.14326535
8	0xbe1f837c	-0.15577501
9	0x3e6e269d	0.23256917
10	0x3d599ab4	0.053126052
11	0x3d93a7ea	0.072097614
12	0x3e15104b	0.14556997
13	0xbdd43dcd	-0.1036335
14	0x3e929ff1	0.2863765
15	0xbdfc1a32	-0.12309684
16	0xbdbb1b73	-0.09136095
17	0x3e23f614	0.1601184
18	0xbe09d136	-0.13458714
19	0x3e3b2d24	0.18278939
20	0xbd1af433	-0.037830543
21	0xbe2a18fd	-0.16611095
22	0xbe9e55f1	-0.30924943
23	0x3e2e8a10	0.17044854
24	0x3bd49fb8	0.0064887665
25	0xbe005972	-0.1253412
26	0xbe27a57d	-0.16371723
27	0x3e203669	0.15645756
28	0xbd1cfdd2	-0.038328
29	0xbdaff0cd	-0.08590851

pos_net.linears.2.weight f4 [30, 30]
0	0x3cb0430c	0.021516345
1	0xbaade211	-0.0013266226
2	0xbbc6d579	-0.0060679284
3	0xbc18ba0f	-0.009321704
4	0xbb28df82	-0.0025767987
5	0x3c4ed263	0.012623402
6	0xbd7da5e3	-0.06192578
7	0xba0418c9	-0.00050390937
8	0xbb51fb98	-0.003204083
9	0xbc0269b0	-0.007959768
10	0x3b987e7e	0.004653751
11	0x3a860779	0.0010225616
12	0xba462744	-0.00075589516
13	0x3c231d68	0.009955741
14	0xbab7ab24	-0.0014012796
15	0x3aa2fc98	0.0012434898
16	0xbc01201f	-0.007881193
17	0xbc341aa7	-0.010992683
18	0xba566eec	-0.0008179981
19	0xbc5dfc9a	-0.013548994
20	0x3c7c517d	0.015400288
21	0xbad66f1c	-0.0016360017
22	0x3a9e1f6d	0.0012063809
23	0xbd17f40d	-0.03709798
24	0x3bd071a5	0.0063612037
25	0x3bc37743	0.005965145
26	0x39a037ea	0.00030559237
27	0x3a8f6a94	0.0010941797
28	0xbaa1200e	-0.0012292878
29	0xbaeadab0	-0.0017917957
30	0xbea4c668	-0.32182622
31	0x3ddbc379	0.10730643
32	0xbe74c774	-0.2390421
33	0xbc7cc012	-0.0154266525
34	0xbc5a15ae	-0.013310833
35	0xbec8b2bb	-0.3919886
36	0x3e58de76	0.21178612
37	0x3d82781c	0.06370565
38	0xbdef73e8	-0.11692029
39	0x3e85ac6c	0.2610811
40	0xbda0ac3b	-0.0784535
41	0x3e9d1519	0.3068016
42	0xbd3f3600	-0.046682358
43	0xbd522b7d	-0.051311005
44	0xbe63837a	-0.22218123
45	0xbb5a676d	-0.0033325807
46	0x3ccd37ef	0.025051085
47	0x3ded78b3	0.11595287
48	0x3e39fc94	0.18162757
49	0x3d80c7db	0.062881194
50	0xbe77c750	-0.24197125
51	0x3d68f34e	0.05687266
52	0x3ebbd04e	0.3668236
53	0x3c8fb7b8	0.017543659
54	0xbe28f9f9	-0.16501607
55	0xbebcb7d9	-0.36859015
56	0x3cab04ef	0.020876376
57	0x3edfad00	0.43686676
58	0x3c9c2325	0.019059727
59	0xbc506e3b	-0.0127215935
60	0x3e90510c	0.28186834
61	0x3c58aa50	0.013224199
62	0xbeaa1ac7	-0.33223554
63	0xbb0500bb	-0.0020294625
64	0x39c152e0	0.00036873575
65	0x3e1dacb2	0.1539791
66	0xbe925461	-0.2858
67	0x3afcede0	0.0019296966
68	0x3c518df9	0.012790197
69	0x3e1a5eca	0.15075222
70	0x3d9b0a63	0.075703405
71	0xbd297895	-0.04137476
72	0x3dbdd9a7	0.092700295
73	0x3e01272a	0.12612596
74	0xbe061c75	-0.13096793
75	0x3c756525	0.014977728
76	0xbe2c8d07	-0.16850673
77	0xbda41ae7	-0.08012944
78	0xbe223d7c	-0.15843767
79	0x3e03c322	0.12867406
80	0xbca1fdf6	-0.019774418
81	0xbdab1f52	-0.08355583
82	0xbe3c7627	-0.18404447
83	0x3eae5fdc	0.3405751
84	0x3db3c9fa	0.08778758
85	0x3e9340d0	0.28760386
86	0xbe1a22c0	-0.15052319
87	0xbe15b80f	-0.14620994
88	0x3c3d7a41	0.011564792
89	0x3bb99af6	0.0056642247
90	0x3e13558f	0.14388107
91	0xbc1a60f8	-0.009422533
92	0x3e813aeb	0.25240263
93	0xbd077fa6	-0.03308072
94	0xbb9ce029	-0.004787464
95	0x3f00a887	0.5025715
96	0xbd6243b2	-0.05524034
97	0xbc24ceab	-0.010059039
98	0xbd0a759d	-0.03380357
99	0x3ea7d2e5	0.32778087
100	0x3c29131f	0.0103195
101	0xbe26036e	-0.16212246
102	0x3d135466	0.03596916
103	0xbd8fad68	-0.070154965
104	0xbe18bae9	-0.1491505
105	0x3d80205c	0.06256172
106	0xbdfa09ed	-0.122089244
107	0x3d8d22f1	0.0689143
108	0xbe17ec6b	-0.1483628
109	0x3d8f49e0	0.069965124
110	0x3d135d17	0.03597745
111	0x3e03f12b	0.12884967
112	0x3d809185	0.06277756
113	0x3e130e41	0.14360906
114	0x3ec58b7b	0.38582978
115	0xbe83df90	-0.25756502
116	0xbb6601fa	-0.0035096393
117	0x3e7744e8	0.2414738
118	0x3be3afaf	0.0069484334
119	0x3b252827	0.0025200935
120	0xbe76fb28	-0.24119246
121	0x3e5ca85e	0.21548602
122	0x3eded4eb	0.4352182
123	0xbeff7d98	-0.49900508
124	0xbb13df1e	-0.0022563408
125	0x3d8577ec	0.06517014
126	0x3e9f127e	0.31068796
127	0x3da7c9ff	0.081928246
128	0xbde0e228	-0.10980636
129	0xbe9d729c	-0.30751503
130	0xbee172be	-0.44032854
131	0xbcbbc6c6	-0.022921931
132	0x3d4bb12e	0.04972952
133	0x3dece013	0.11566176
134	0x3e5a1b7e	0.2129955
135	0x3b9ee454	0.004848996
136	0xbe90dee4	-0.28295052
137	0x3b285356	0.0025684438
138	0x3e3a7e22	0.18212178
139	0xbe46b4c4	-0.19404894
140	0xbd73aa9a	-0.05948887
141	0xbdbdeb55	-0.09273402
142	0x3d91b01c	0.07113668
143	0xbea36dad	-0.31919613
144	0xbdd5d50b	-0.10441025
145	0x3e9b12ac	0.30287683
146	0x3e8d1fd4	0.27563345
147	0xbd2af526	-0.041737698
148	0xbb80f5e1	-0.003935561
149	0xbc47e49e	-0.012200503
150	0xbe2c2124	-0.16809517
151	0xbbfec482	-0.0077748904
152	0xbe43f685	-0.19137008
153	0xbe894f26	-0.26818198
154	0xbbb7ab64	-0.005605148
155	0xbdd70c30	-0.105003715
156	0xbeadfbc6	-0.3398115
157	0xbad3c33d	-0.0016156208
158	0xbe17ce3c	-0.14824766
159	0xbe67e4f5	-0.22645934
160	0xbe3984e5	-0.18117101
161	0xbe12713b	-0.14301006
162	0x3ba55600	0.0050456524
163	0xbe64eebe	-0.22356698
164	0xbe89052e	-0.26761764
165	0x3b5510d1	0.0032511244
166	0xbe870422	-0.2637034
167	0xbdd7ebfe	-0.10543059
168	0x3b4be344	0.0031110803
169	0xbe31281b	-0.17300455
170	0xbe36e1c7	-0.17859565
171	0xbb859c72	-0.0040774876
172	0x3c3edf5e	0.011649935
173	0xbe8bf99b	-0.2733887
174	0xbe9d72c1	-0.30751613
175	0xbe8f606e	-0.28003258
176	0x3c332e1e	0.010936288
177	0x3b4f0db0	0.0031593852
178	0x3a9f55a6	0.0012156263
179	0xbbee3863	-0.0072699054
180	0xbc36775a	-0.011136854
181	0xbe3c749c	-0.18403858
182	0xbded6492	-0.11591448
183	0xbbcb246c	-0.00619941
184	0x3c0e6318	0.008690618
185	0xbb2ad572	-0.0026067165
186	0xbd1fdba2	-0.039027818
187	0xbddb0a1a	-0.10695286
188	0xbc31dc6d	-0.010855776
189	0xbcbea75c	-0.023273163
190	0xbd3608cb	-0.04444198
191	0xbe68eea7	-0.22747289
192	0x3c3bc7bf	0.011461197
193	0x3ae09b8b	0.0017136199
194	0xbc25eb6b	-0.010126929
195	0xbd5fecdc	-0.054669246
196	0xbe6b6650	-0.22988248
197	0xbd469789	-0.04848436
198	0x3bb43c28	0.0055003352
199	0x3c8b5133	0.017006492
200	0xbe36d8e1	-0.1785617
201	0x3c1c1119	0.009525561
202	0xbc934f7f	-0.017982243
203	0xbe0e4a7b	-0.138956
204	0xbe09ab33	-0.13444214
205	0xbc89adec	-0.016806565
206	0x3c96b13a	0.018395055
207	0x3a8fce2f	0.0010971482
208	0xbaaf5a5c	-0.001337837
209	0xbd7f87ba	-0.0623853
210	0x3c84de8f	0.016219405
211	0xbe256676	-0.16152367
212	0xbe735a60	-0.23764944
213	0xbdcf768b	-0.10130032
214	0x3bbaef32	0.005704784
215	0xbd6341ff	-0.05548286
216	0xbdd653a4	-0.10465172
217	0xbd8a1c7e	-0.06743716
218	0x3c07a2f3	0.008278596
219	0xbd63d517	-0.05562314
220	0xbd455676	-0.04817816
221	0xbe5beeeb	-0.21477859
222	0x3aa0ba64	0.001226258
223	0xbb463277	-0.0030242482
224	0xbb88c87b	-0.0041742898
225	0xbd8a6a4d	-0.067585565
226	0xbe8b9f5e	-0.27270025
227	0xbd6087c0	-0.05481696
228	0x3b513108	0.0031920094
229	0x3c42376a	0.011854032
230	0xbe840956	-0.25788373
231	0xbb1fe1ba	-0.0024396018
232	0xbd2b6003	-0.04183961
233	0xbd423cae	-0.04742115
234	0xbe1b3d75	-0.15160163
235	0xb8dba700	-0.0001047384
236	0xbdcfcd68	-0.101466
237	0xba4b782e	-0.00077617436
238	0xbb94a2bc	-0.004536001
239	0xbde70b72	-0.1128148
240	0x3e1f74f3	0.15571956
241	0x3e10d454	0.14143497
242	0xbf079508	-0.5296178
243	0x3e1e16a8	0.1543833
244	0x3c0b35a5	0.008496677
245	0xbe3ace04	-0.18242651
246	0x3c29358f	0.010327711
247	0xbc6ebb67	-0.014571047
248	0xbd10ab6b	-0.035319727
249	0xbe08f330	-0.13374019
250	0x3ead7061	0.338748
251	0x3eedc310	0.46437883
252	0xbdb04981	-0.0860777
253	0x3e27dd68	0.16393054
254	0x3e902231	0.28151086
255	0xbd6dcd80	-0.05805731

pos_net.linears.2.bias f4 [30]
0	0xbde37176	-0.11105625
1	0x3ebc1c93	0.3674055
2	0x3d8fd52d	0.07023082
3	0xbd73af87	-0.059493568
4	0x3eab5ded	0.33470097
5	0xbe96079d	-0.29302683
6	0xbea43386	-0.3207056
7	0xbe65ba43	-0.22434334
8	0x3e2f9555	0.1714681
9	0xbcdc4b12	-0.026891265
10	0xbea74e59	-0.32676962
11	0xbe894116	-0.2680747
12	0x3d433c01	0.047664646
13	0xbe15df19	-0.14635886
14	0xbc9f4968	-0.019444183
15	0xbeb8222f	-0.3596358
16	0xbe1d8edc	-0.15386528
17	0xbe03ad4e	-0.12859079
18	0xbe349ab3	-0.17637138
19	0xbd970157	-0.073733024
20	0xbd1f5fd5	-0.038909752
21	0x3e850a3b	0.25984368
22	0x3ed31a83	0.41231164
23	0xbe5d1436	-0.21589741
24	0xbe68853b	-0.22707073
25	0x3e0e1d72	0.1387842
26	0xbe8abb37	-0.2709596
27	0xbe7b2e7d	-0.24529453
28	0x3e077a3a	0.1323022
29	0xbe9dbde1	-0.3080893

pos_net.output_layer.weight f4 [6, 30]
0	0x3e170a21	0.14749958
1	0x3e994887	0.29938146
2	0x3e3e6d62	0.18596414
3	0xbe34af16	-0.17644915
4	0xbf096c6a	-0.5368105
5	0x3df9a122	0.12188937
6	0xbdd2b484	-0.10288337
7	0xbcb2afc2	-0.021812323
8	0x3ea11943	0.31464586
9	0x3dcfec33	0.10152473
10	0xbb7e1c2d	-0.0038774118
11	0x3d3e5c59	0.04647479
12	0xbe5ebd07	-0.21751796
13	0xbe569749	-0.20956148
14	0x3dffcdf7	0.124904566
15	0x3d54a223	0.051912438
16	0xbe7fd0c7	-0.24981986
17	0x3cdbce64	0.026831813
18	0x3d632858	0.055458397
19	0x3e7a318a	0.2443296
20	0x3ebafd1e	0.36521238
21	0xbe6ccaeb	-0.23124282
22	0x3d94e506	0.07270245
23	0x3e4660ea	0.19372907
24	0x3aed2ccc	0.0018095016
25	0x3e707fe2	0.23486283
26	0xbcdfbb0c	-0.02731087
27	0x3becb405	0.0072236084
28	0xbbece9a6	-0.0072300015
29	0x3b4a9d62	0.0030916561
30	0x3c5fe613	0.013665694
31	0xbdcdce29	-0.100490876
32	0x3e05719b	0.13031618
33	0x3e0a8910	0.13528848
34	0xbea27eff	-0.31737515
35	0x3dac65b6	0.08417837
36	0x3dee9bc6	0.11650805
37	0x3e676c8c	0.22600001
38	0xbddc0deb	-0.10744842
39	0xbddc4ea8	-0.1075719
40	0xb985f564	-0.00025550567
41	0xbd3633d9	-0.04448304
42	0x3e0cc0a1	0.13745357
43	0xbd8d2b51	-0.068930276
44	0xbe2a4230	-0.16626811
45	0xbc896add	-0.01677459
46	0xbdbce619	-0.09223575
47	0x3d083ef9	0.03326318
48	0x3ec6ecfd	0.38852683
49	0x3d38f0a1	0.045151357
50	0x3e2da2b9	0.16956605
51	0x3e411037	0.18853842
52	0xbf0b4ede	-0.54417217
53	0x3e9c24fa	0.3049696
54	0xbaa5e5c7	-0.001265698
55	0x3de6b0ac	0.11264166
56	0xbe5b60f1	-0.21423699
57	0xbc8dad28	-0.017294481
58	0x3ef757cf	0.4830918
59	0xbc5d7a06	-0.013517862
60	0xbe14bd58	-0.14525354
61	0xbd34c11a	-0.04412947
62	0x3ea527d9	0.32256964
63	0x3e73f19d	0.23822637
64	0xbedbd6d6	-0.42937344
65	0x3e25cb96	0.16190943
66	0xbacb77c1	-0.001552336
67	0xbe12079e	-0.14260718
68	0xbe92201d	-0.28540125
69	0xbe088549	-0.13332094
70	0x3c8a2818	0.016864821
71	0xbe398bb1	-0.18119694
72	0x3e25f5ad	0.16206999
73	0x3def7f6f	0.11694228
74	0xbe97a7f9	-0.2962034
75	0xbd6414a4	-0.055683747
76	0xbd15e7ae	-0.0365979
77	0x3d3a2bbb	0.04545186
78	0x3e3768d9	0.1791109
79	0xbc74f142	-0.0149500985
80	0x3d2f37ac	0.042777702
81	0x3eb1996c	0.34687364
82	0xbcb29a08	-0.021801963
83	0xbe0336b6	-0.1281384
84	0xbc36cd62	-0.0111573655
85	0x3e9cee5c	0.30650604
86	0x3e887830	0.26654196
87	0x3cc59ab2	0.024121616
88	0x3db1d6c8	0.086835444
89	0xbd086359	-0.03329787
90	0xbc83b7a6	-0.016078781
91	0x3f0ebf9a	0.5576111
92	0xbe52ae6d	-0.2057435
93	0xbc087f89	-0.008331188
94	0x3dd22438	0.102608144
95	0x3e2d0253	0.16895418
96	0x3ccb8cfa	0.024847496
97	0x3d4e7185	0.05040123
98	0x3cfc8f39	0.030830013
99	0x3e8c9a14	0.27461302
100	0xbbc298a8	-0.005938608
101	0xbe3e67db	-0.18594305
102	0xbdbe1a4a	-0.09282358
103	0xbd080276	-0.033205472
104	0xbe490b45	-0.19633205
105	0x3e443158	0.19159448
106	0xbe921ed9	-0.2853916
107	0xbd1687c4	-0.03675057
108	0x3e98abc9	0.29818562
109	0xbdc5b858	-0.096543014
110	0x3d3ad255	0.045610745
111	0x3eaa7aea	0.332969
112	0x3e8c11e8	0.2735741
113	0x3ea4990c	0.32148015
114	0xbb1468b9	-0.0022645427
115	0x3e667c93	0.22508459
116	0xbecf07a4	-0.40435517
117	0x3c817348	0.01580204
118	0xbe1d36e2	-0.15352967
119	0xbc9664db	-0.018358639
120	0xbe3a4959	-0.18192042
121	0x3c263d52	0.010146456
122	0x3db16afc	0.08662984
123	0xbd0487e0	-0.032356143
124	0x3d7b10a0	0.06129515
125	0xbe0c3801	-0.13693239
126	0x3e007cbc	0.12547582
127	0x3e28c295	0.16480477
128	0x3d358212	0.044313498
129	0xbdebd510	-0.11515248
130	0xbc66ff12	-0.014098899
131	0x3cbbc3a6	0.02292044
132	0x3de60e8a	0.11233242
133	0xbdc5fa06	-0.09666829
134	0x3e14446c	0.14479226
135	0xbe7458ce	-0.23862001
136	0x3e704cd2	0.23466805
137	0x3d3da6d7	0.04630169
138	0x3e73438b	0.23756234
139	0xbc8580ce	-0.01629677
140	0x3e183a57	0.14866005
141	0xbc9f29fe	-0.019429203
142	0xbe7bbc78	-0.24583614
143	0x3e479fa5	0.19494493
144	0x3ce88b98	0.028386876
145	0xbe129df1	-0.14318062
146	0x3d1bd216	0.03804215
147	0x3d65f460	0.056141257
148	0xbda4a85f	-0.08039927
149	0x3dc7120c	0.09720239
150	0xbc306e54	-0.010768492
151	0x3da4e182	0.08050825
152	0xbe8d74a6	-0.27628058
153	0x3e8b1017	0.27160713
154	0xbe142590	-0.14467454
155	0xbb8ab928	-0.004233498
156	0x3c65ff76	0.014037957
157	0x3e08138b	0.13288705
158	0xbee58270	-0.44826078
159	0x3f1432ae	0.5788983
160	0xbc31036b	-0.010804038
161	0x3d06a8dd	0.032875884
162	0xbed9cad0	-0.42537546
163	0x3dbf5fde	0.09344457
164	0x3efe0114	0.49610198
165	0xbcdb83cf	-0.02679625
166	0xbe950a46	-0.291094
167	0xbcf6fe73	-0.030150628
168	0x3e212188	0.15735447
169	0x3e76bd86	0.24095735
170	0x3f0293c5	0.5100673
171	0x3e1e1dda	0.15441075
172	0xbedb9d2a	-0.42893344
173	0x3ea59b54	0.32345068
174	0x3b3ca8e6	0.0028787195
175	0xbde0b454	-0.10971895
176	0x3e014b0e	0.12626287
177	0x3aab66c6	0.0013076894
178	0xbdf9ebe3	-0.12203195
179	0xbafe806a	-0.0019416932

pos_net.output_layer.bias f4 [6]
0	0x3c01eccd	0.007929993
1	0xbe6d2ace	-0.2316086
2	0xbe83439c	-0.2563752
3	0x3ec9935e	0.39370245
4	0x3ed1c36a	0.40969402
5	0xbeea6cb9	-0.45786074

neg_net.linears.0.weight f4 [30, 12]
0	0xbd5625b5	-0.052282054
1	0x3ef879ab	0.48530325
2	0xbcd31621	-0.025767388
3	0xbf0ae658	-0.54257727
4	0x3d96121e	0.07327674
5	0xbf245ce6	-0.6420425
6	0xbe1a9cb9	-0.15098847
7	0xbeb05987	-0.34443304
8	0x3da71256	0.08157794
9	0x3ef58a8a	0.4795726
10	0xbe96dda2	-0.29465967
11	0xbe44b60f	-0.19210075
12	0xbcf90a5b	-0.030400446
13	0x3e8e5e4f	0.27806327
14	0x3f1ad5f4	0.60482717
15	0x3f42d9f5	0.76113826
16	0x3f0e2a66	0.55533445
17	0x3e748282	0.2387791
18	0xbca06977	-0.01958154
19	0xbcd0f5d2	-0.025507841
20	0xbcfff82e	-0.031246271
21	0x3e94aa81	0.29036334
22	0xbd601ee5	-0.054716963
23	0x3d569913	0.052392077
24	0xbb9f9630	-0.0048701987
25	0x3d1a6fc3	0.03770424
26	0xbd5a8241	-0.053346876
27	0xbe81046b	-0.25198683
28	0x3ea1fde8	0.31639028
29	0xbe081af2	-0.13291529
30	0xbe773e9d	-0.24144979
31	0x3d9d7ffe	0.07690428
32	0x3d9aa584	0.07551101
33	0x3efd0f36	0.49425668
34	0xbf034a8a	-0.5128561
35	0x3c8d80d4	0.017273344
36	0x3ecbe62b	0.39824042
37	0x3f0c62f0	0.54838467
38	0x3e84b4d7	0.2591922
39	0xbf3a3795	-0.7274106
40	0xbea70302	-0.32619482
41	0x3ec16772	0.37774235
42	0xbe257639	-0.1615838
43	0x3dceb89f	0.100938074
44	0xbd5869d6	-0.052835308
45	0xbf039103	-0.51393145
46	0x3ddf525c	0.10904381
47	0xbc86bc33	-0.016447162
48	0x3e9c56c6	0.30534953
49	0x3e992f33	0.29918823
50	0x3e2d4e24	0.1692434
51	0x3ddf2deb	0.1089743
52	0x3d63f407	0.055652644
53	0x3e879661	0.26481918
54	0xbeaec0fd	-0.34131613
55	0x3c6d8d20	0.014498979
56	0x3c88ab15	0.01668314
57	0x3ec5480b	0.38531527
58	0xbe99519f	-0.29945084
59	0xbbeb1982	-0.0071746716
60	0x3e37a3c0	0.1793356
61	0x3f124080	0.5712967
62	0x3f2342e2	0.6377393
63	0xbf0e1e79	-0.5551525
64	0x3db6a9f2	0.08919133
65	0xbe05cadc	-0.13065666
66	0x3d8f049b	0.069833
67	0xbbf96c96	-0.0076118214
68	0x3e1d7aa2	0.15378812
69	0x3f4ccd7a	0.8000103
70	0x3e548ed5	0.20757611
71	0x3d30ce7d	0.043165673
72	0xbe2e5f25	-0.17028482
73	0x3e5de621	0.21669818
74	0xbc921f2a	-0.017837126
75	0xbf1acc37	-0.6046786
76	0x3eb3bb82	0.35103995
77	0x3e7b1002	0.24517825
78	0x3da50415	0.08057419
79	0xbcf45ae5	-0.029828498
80	0x372b0800	1.0194257e-05
81	0x3ef868e5	0.48517528
82	0x3b8ed5d8	0.0043589883
83	0x3d7d0d0c	0.06178002
84	0xbd948d9e	-0.07253574
85	0xbc9e0d08	-0.019293323
86	0x3f00300d	0.5007332
87	0xbe17599d	-0.14780279
88	0xbecb5be7	-0.39718553
89	0xbe89ea1c	-0.26936424
90	0x3ed2fa27	0.41206476
91	0xbe22c221	-0.15894367
92	0xbe113ad9	-0.14182605
93	0x3f04833f	0.51762766
94	0xbf18492a	-0.5948664
95	0xbd52ac46	-0.051433824
96	0xbd2e2cd5	-0.042523224
97	0x3e8a3c10	0.2699895
98	0x3eea004a	0.45703346
99	0x3eebde93	0.46068248
100	0xbf097ba5	-0.5370429
101	0xbf570dc3	-0.84005374
102	0xbc395d0e	-0.01131369
103	0xbe30ff4a	-0.17284885
104	0x3dd66198	0.10467833
105	0x3c49b785	0.012311821
106	0xbe281948	-0.16415894
107	0xbdc416fb	-0.09574696
108	0xbf4e7627	-0.80649036
109	0xbca45bd2	-0.020063315
110	0xbac35e90	-0.0014905501
111	0x3e2a719f	0.16644906
112	0x3db85bbe	0.090018734
113	0x3cdd09b6	0.02698217
114	0xbdc9b274	-0.0984849
115	0x3bf093f8	0.007341858
116	0xb90b3d80	-0.00013278984
117	0x3ea2618a	0.3171504
118	0xbe0d0046	-0.13769636
119	0x3df409bb	0.119159184
120	0xbf1c43ed	-0.61041147
121	0x3d9dfcb1	0.07714213
122	0xbe9e32b9	-0.30898073
123	0xbeeb01ec	-0.45899904
124	0xbeb39427	-0.3507397
125	0x3da15f09	0.07879455
126	0xbc9f3704	-0.019435413
127	0x3e265834	0.16244584
128	0xbd03e83a	-0.03220389
129	0xbe48aaa4	-0.19596344
130	0xbf0e4797	-0.5557799
131	0xbdc82d70	-0.097742915
132	0xbe9c00be	-0.30469316
133	0xbe1207a9	-0.14260735
134	0x3d37cdd8	0.044874042
135	0x3da72783	0.08161833
136	0x3f67d24b	0.90555257
137	0x3f069f26	0.5258659
138	0xbd476f0d	-0.04868989
139	0xbe8653f6	-0.26235932
140	0x3dd9fe78	0.10644239
141	0xbefa22e7	-0.48854753
142	0xbe367c31	-0.17820813
143	0x3cd01b6a	0.025403697
144	0x3ea010d5	0.31262842
145	0xbd01d8a8	-0.03170076
146	0xbf196c28	-0.5993066
147	0xbf436c9f	-0.7633762
148	0xbe2a3913	-0.16623335
149	0xbeae423d	-0.3403491
150	0x3b94684c	0.0045290347
151	0x3da5680e	0.080764875
152	0x3d8a67d1	0.06758083
153	0x3f24f2de	0.64433086
154	0xbedc1704	-0.4298631
155	0x3d5b8af3	0.05359931
156	0xbe1539de	-0.14572856
157	0x3db1a4c2	0.08674003
158	0x3d6f0edc	0.05836378
159	0xbf0af3a5	-0.5427802
160	0x3edef98f	0.43549773
161	0xbeab2893	-0.33429393
162	0x3e6e345a	0.23262158
163	0xbe787280	-0.24262428
164	0xbddfddaa	-0.10930951
165	0xbf45d861	-0.77283293
166	0xbd4d4a5f	-0.050119754
167	0xbbabf188	-0.0052472986
168	0x3d28ab4d	0.04117899
169	0xbf2a88e7	-0.66615146
170	0xbf1fb087	-0.62378734
171	0x3e98e705	0.29863754
172	0xbf42dfda	-0.7612282
173	0x3ee95dff	0.45579526
174	0xbcd4724b	-0.025933405
175	0xbdee64dc	-0.11640331
176	0xbde23cee	-0.11046778
177	0x3f1d836f	0.61528677
178	0xbddd5056	-0.108063385
179	0xbc1c1d2a	-0.009528438
180	0x3e848021	0.25879005
181	0xbe8ac8e5	-0.27106395
182	0xbef25b20	-0.47335148
183	0xbe839775	-0.2570149
184	0xbe51e986	-0.20499238
185	0x3e56dbdd	0.20982309
186	0xbe1d70f3	-0.15375118
187	0xbd9909e9	-0.07472593
188	0x3daa1323	0.08304431
189	0x3dd2125f	0.1025741
190	0xbf8d6ebf	-1.1049422
191	0xbda0e939	-0.07856984
192	0x3f381e00	0.71920776
193	0xbdb89f6c	-0.09014782
194	0x3d3a8f08	0.04554656
195	0x3e112094	0.14172584
196	0xbc7480c4	-0.014923278
197	0xbd93044b	-0.07178553
198	0xbed4a927	-0.41535303
199	0x3d742bad	0.059611965
200	0xbe108d46	-0.14116392
201	0xbd868608	-0.06568533
202	0xbcdad9d2	-0.026715193
203	0x3dd04f21	0.10171343
204	0xbc9c61ae	-0.019089546
205	0xbd998abe	-0.07497166
206	0x3c6406c0	0.013917625
207	0xbe991db4	-0.29905474
208	0x3f80724c	1.0034881
209	0xbf1f470c	-0.62217784
210	0x3c2ac896	0.0104238
211	0xbd24e2b5	-0.040255267
212	0xbc514915	-0.012773772
213	0x3ec5f3b4	0.38662493
214	0xbee3a447	-0.4446127
215	0xbd2d722b	-0.042345207
216	0xbcb2630f	-0.02177575
217	0xbf20957e	-0.62728107
218	0xbe91b1ed	-0.2845606
219	0x3f357200	0.70877075
220	0x3f12ac05	0.5729373
221	0xbf24d20b	-0.64383
222	0xbd437cf3	-0.047726583
223	0xbd256686	-0.040380977
224	0x3da7025b	0.08154746
225	0xbe5b15a7	-0.21394978
226	0xbe90607e	-0.28198618
227	0xbe3c04d2	-0.18361214
228	0x3eeedf0d	0.4665455
229	0x3d339e28	0.043852
230	0x3d1ccb3e	0.038279764
231	0x3daab0a4	0.08334473
232	0x3eb80f58	0.35949206
233	0x3d8eb84b	0.06968745
234	0xbf020c09	-0.50799614
235	0xbe0e1c4d	-0.13877983
236	0x3e2511a0	0.16120005
237	0xbdfb0849	-0.1225744
238	0x3eadd863	0.33954152
239	0xbd71370c	-0.058890387
240	0x3d8b9d9e	0.068171725
241	0x3eba1f70	0.3635211
242	0x3f13a92a	0.5768
243	0xbe8fc41e	-0.28079313
244	0xbe97bdfd	-0.29637137
245	0x3e6ac270	0.22925735
246	0xbda9b0df	-0.082856886
247	0xbe521543	-0.20515923
248	0x3cc05d33	0.02348194
249	0xbe8169cd	-0.25276032
250	0xbf39b7b1	-0.72545916
251	0xbe1a86b2	-0.15090445
252	0xbf1fd64a	-0.62436354
253	0xbe99d9dd	-0.3004903
254	0xbdb17220	-0.08664346
255	0xbd3da112	-0.046296187

neg_net.linears.0.bias f4 [30]
0	0xbf063663	-0.5242674
1	0xbe72a2ee	-0.23694965
2	0xbe2c8dc8	-0.1685096
3	0xbec357be	-0.3815288
4	0xbe77bf19	-0.24193992
5	0x3d0d0321	0.034426812
6	0x3e6491ef	0.22321294
7	0xbeda82f8	-0.42678046
8	0x3d8ae2e8	0.0678156
9	0x3e03c1d2	0.12866905
10	0x3e6787ef	0.22610448
11	0xbde6c0a8	-0.11267215
12	0x3db004a2	0.08594634
13	0xbf405184	-0.7512438
14	0xbf25f6b1	-0.64829546
15	0xbed92c98	-0.42416835
16	0xbc867972	-0.016415332
17	0x3e3bbbae	0.18333313
18	0xbd3282cd	-0.043581773
19	0xbea09e67	-0.3137085
20	0xbecfa0bb	-0.40552315
21	0x3d6a515f	0.057206508
22	0xbf1f4775	-0.6221841
23	0xbf37de1f	-0.71823305
24	0xbe9b7745	-0.30364433
25	0x3e3b4a5a	0.18290082
26	0xbe84d918	-0.2594688
27	0xbe40daea	-0.18833509
28	0xbf60770b	-0.87681645
29	0xbf0248c7	-0.508923

neg_net.linears.1.weight f4 [30, 30]
0	0x3bf3c5d8	0.0074393563
1	0x3bdc5f02	0.006725193
2	0xbde96629	-0.11396439
3	0xbcaac1bd	-0.020844335
4	0xbcdff194	-0.027336873
5	0xbd9566bd	-0.072949864
6	0x3bf98dfc	0.007615803
7	0xbe1bb5b6	-0.15206036
8	0xbba0ff7c	-0.0049132686
9	0xbdc20f79	-0.094756074
10	0xbd6bd400	-0.057575226
11	0xbc357939	-0.011076265
12	0xbdc018a3	-0.09379699
13	0xbd289e7d	-0.04116677
14	0x3b4a4f9e	0.003087021
15	0xbd894182	-0.06701948
16	0xbdfb7530	-0.12278211
17	0xbb2329e2	-0.002489679
18	0xbc545e57	-0.0129619455
19	0x3992a72c	0.00027971843
20	0x3ca154ed	0.019693816
21	0xbc988699	-0.018618869
22	0x3c551022	0.013004335
23	0x3c95d679	0.018290745
24	0x3b0a089c	0.002106226
25	0xbb64d81a	-0.0034918846
26	0xba1ffd18	-0.00061030826
27	0xbb6dc071	-0.0036278034
28	0xbc9f05cc	-0.019411944
29	0xbcaf0238	-0.021363363
30	0xbe997c03	-0.29977426
31	0xbedb353d	-0.42814055
32	0xbce9cbe2	-0.028539602
33	0x3e7ef6e8	0.24898875
34	0xbe60a941	-0.21939565
35	0xbe45033d	-0.19239517
36	0xbea17b65	-0.31539455
37	0x3db5c591	0.088755734
38	0xbefdaac6	-0.49544352
39	0x3ddf17c9	0.108932085
40	0xbddfe3b8	-0.10932106
41	0xbf047c79	-0.5175243
42	0xbec4fa7a	-0.38472348
43	0x3ecfac94	0.40561354
44	0x3f2a1dd7	0.6645178
45	0x3d6ebf6e	0.05828803
46	0x3d8bb823	0.06822231
47	0x3f0cae8c	0.5495384
48	0x3eb978fe	0.36225122
49	0x3e984c99	0.2974594
50	0xbe634c48	-0.22197068
51	0x3e696607	0.22792827
52	0x3e0ef8f8	0.13962162
53	0xbe86a1cb	-0.26295313
54	0x3f394227	0.72366565
55	0xbec89f80	-0.3918419
56	0x3e3ed316	0.1863521
57	0x3e4e7529	0.2016188
58	0x3eac2daf	0.33628604
59	0x3e7229f4	0.23648816
60	0xbda4f881	-0.08055211
61	0x3d52d3d2	0.05147154
62	0xbdd59bb3	-0.10430088
63	0x3ee1073d	0.43950835
64	0x3e969996	0.29414052
65	0xbcf1d8a7	-0.029522253
66	0xbe42c892	-0.19021824
67	0xbd14c6f9	-0.036322568
68	0x3e24d3c3	0.16096406
69	0xbef73cbf	-0.48288533
70	0xbed82830	-0.4221816
71	0xbe0e9613	-0.13924436
72	0x3e152359	0.14564265
73	0x3d82f07d	0.06393526
74	0x3e923ae8	0.28560567
75	0x3e314621	0.17311908
76	0x3ee7b5b2	0.4525581
77	0x3e5129c6	0.20426092
78	0xbc43d5df	-0.011952846
79	0x3ee2b2ce	0.44277042
80	0x3ed82dd1	0.42222455
81	0xbddde552	-0.10834755
82	0x3e2626e9	0.1622578
83	0x3d2ec193	0.042665076
84	0xbda355be	-0.079753384
85	0x3d42bf93	0.04754598
86	0x3e483306	0.19550714
87	0xbecb590a	-0.3971637
88	0x3e4a56c7	0.19759665
89	0x3e035f08	0.1282922
90	0x3df5cf23	0.12002399
91	0xbe503820	-0.2033391
92	0xbe45cb04	-0.19315726
93	0x3ed1eb67	0.4099991
94	0xbd473ae9	-0.048640165
95	0x3ead9d0d	0.33908883
96	0x3e5041ff	0.20337676
97	0x3e1bc7a8	0.15212882
98	0xbdf5d94c	-0.12004337
99	0xbd4e4672	-0.05036015
100	0x3e329c32	0.17442396
101	0xbeda8520	-0.4267969
102	0xbe9b794d	-0.30365983
103	0xbe9fbd06	-0.311989
104	0x3ecada6e	0.39619774
105	0x3d5ff4cd	0.05467682
106	0xbdd58025	-0.10424832
107	0xba94b1b7	-0.0011344467
108	0xbee750ac	-0.45178735
109	0xbdeb4c06	-0.1148911
110	0x3ea45f94	0.3210417
111	0xbe690a39	-0.22757806
112	0xbe22ecd9	-0.15910663
113	0xbebd935e	-0.37026495
114	0x3ee136b7	0.43987057
115	0x3e8033dc	0.25039566
116	0xbec81050	-0.39074945
117	0x3ea6f580	0.32609177
118	0x3cf07bc6	0.029355895
119	0xbd82fee4	-0.06396273
120	0xbe724e04	-0.23662573
121	0xbe50109d	-0.20318837
122	0xbe84587a	-0.25848752
123	0x3ccd773c	0.02508127
124	0xbe429821	-0.19003345
125	0xbdbb7fd9	-0.091552444
126	0xbe98aa2f	-0.2981734
127	0xbdd2676c	-0.102736324
128	0xbea6a3f2	-0.32546955
129	0xbc5c392f	-0.013441368
130	0xbe6fb954	-0.23410541
131	0xbe584b1d	-0.21122403
132	0xbe45cf0d	-0.19317265
133	0xbea78802	-0.32720953
134	0xbe459668	-0.19295657
135	0xbe8ab202	-0.27088934
136	0xbe887893	-0.2665449
137	0xbeac32ae	-0.33632416
138	0x3ce267af	0.02763733
139	0xbdadb9ae	-0.08482681
140	0xbde3f3a2	-0.11130454
141	0xbe89252a	-0.26786166
142	0xbe58c8db	-0.2117037
143	0xbe3857e7	-0.18002282
144	0xbe6a344e	-0.22871515
145	0xbde9f72b	-0.11424097
146	0x3c4c004c	0.012451243
147	0x3bce9c5b	0.00630526
148	0x3c3d8c72	0.011569129
149	0x3bb434c3	0.0054994537
150	0x3e12307e	0.14276311
151	0xbcb0351c	-0.0215097
152	0x3e9646c9	0.2935088
153	0x3e61f707	0.2206689
154	0x3e9d547b	0.30728516
155	0x3f05d847	0.5228314
156	0x3ec39c88	0.3820536
157	0x3e0728eb	0.13199203
158	0xbe7b8f52	-0.24566391
159	0xbe36f906	-0.17868432
160	0xbe75f5de	-0.24019572
161	0xbed0a1f4	-0.4074856
162	0x3ea6ed8a	0.32603103
163	0xbe053440	-0.13008213
164	0xbef16ba3	-0.47152433
165	0x3e5b21bc	0.21399587
166	0x3eab5b5d	0.33468142
167	0x3e919039	0.28430346
168	0x3d2914a5	0.041279454
169	0x3d9ca57f	0.076487534
170	0xbee76c05	-0.451996
171	0xbec22c1f	-0.37924287
172	0x3ed324ab	0.41238913
173	0xbdec6aaa	-0.11543782
174	0x3deb77bc	0.11497447
175	0xbe9472ea	-0.28993922
176	0xbf282f3b	-0.6569707
177	0xbf30b7af	-0.6903028
178	0x3f078a93	0.5294582
179	0xbf1cbad8	-0.612226
180	0xbde57418	-0.11203784
181	0xbe2612df	-0.16218136
182	0xbe4d2278	-0.2003268
183	0xbd81a046	-0.06329398
184	0xbe9ca65b	-0.3059567
185	0xbe9b3cff	-0.30319974
186	0xbdafd81b	-0.08586141
187	0xbe8c5128	-0.27405667
188	0xbec43bf0	-0.3832698
189	0xbe8a3102	-0.26990515
190	0xbe3262a0	-0.17420435
191	0xbe5b206a	-0.21399084
192	0xbdf94482	-0.1217127
193	0xbe982fba	-0.29723912
194	0xbe81610c	-0.25269353
195	0xbe871e63	-0.2639037
196	0xbe7639f1	-0.2404554
197	0xbe835a45	-0.25654808
198	0xbeb895ee	-0.36051887
199	0xbe376cf5	-0.17912658
200	0xbdf86bed	-0.1212996
201	0xbe814b5f	-0.25252816
202	0xbbec4414	-0.007210264
203	0xbe47c219	-0.19507636
204	0xbe1d46a9	-0.15358986
205	0xbe689b4a	-0.22715488
206	0xbe128402	-0.1430817
207	0xbdc4e308	-0.09613615
208	0x3ceae2ff	0.028672693
209	0xbe773284	-0.24140364
210	0xbec872cc	-0.39150083
211	0x3da2b052	0.07943787
212	0x3e1b547f	0.15168951
213	0x3e415be9	0.18882717
214	0x3e71f418	0.2362827
215	0x3d12f0a3	0.03587402
216	0x3ecb441e	0.39700407
217	0xbe659970	-0.22421813
218	0x3d9436d9	0.07237024
219	0x3e8d8e4e	0.27647632
220	0x3e49633f	0.19666766
221	0x3dac8877	0.08424466
222	0x3eb30cef	0.34970805
223	0xbdf61ef0	-0.120176196
224	0xbe14d5fc	-0.14534754
225	0x3e5d1b9c	0.21592563
226	0x3d44c3b0	0.048038185
227	0x3e03730b	0.12836854
228	0xbebda4e7	-0.37039873
229	0xbd37826c	-0.044802114
230	0xbf4e7dff	-0.80661005
231	0x3db77041	0.089569576
232	0x3f507ca8	0.8144021
233	0xbe4a2956	-0.19742331
234	0x3e3e6177	0.18591867
235	0xbe98bae9	-0.298301
236	0xbef465fb	-0.47734055
237	0xbc7be5be	-0.015374599
238	0xbe139e4a	-0.14415851
239	0x3ea8a397	0.3293731
240	0xbd185100	-0.037186623
241	0x3cebeb08	0.028798595
242	0xbe76c239	-0.24097528
243	0x3c1d2eef	0.009593709
244	0x3cac84e7	0.021059467
245	0xbe4cdf7f	-0.20007132
246	0xbdfde1cd	-0.12396584
247	0xbdf7f038	-0.12106365
248	0xbdc1fe05	-0.094722785
249	0xbe540a91	-0.20707156
250	0xbdefb5c3	-0.1170459
251	0x3bec2f56	0.0072077913
252	0xbe9cf6f6	-0.30657166
253	0xbd952942	-0.0728326
254	0x3cbb7612	0.022883449
255	0xbe69cd85	-0.22832306

neg_net.linears.1.bias f4 [30]
0	0xbe900570	-0.28129148
1	0x3e324716	0.1740993
2	0x3d4cb881	0.049980644
3	0xbe91f2b9	-0.28505495
4	0xbe418aca	-0.189006
5	0xbe2e337a	-0.17011824
6	0xbed3afd1	-0.41345075
7	0x3e61459e	0.21999213
8	0xbe9f2757	-0.310847
9	0x3c760675	0.015016188
10	0x3eb8d6a8	0.3610127
11	0xbd44ca8c	-0.048044726
12	0xbc9081d9	-0.017640041
13	0xbe498f66	-0.19683608
14	0xbe0e8608	-0.13918316
15	0xbeae11b8	-0.33997893
16	0xbe2085dd	-0.15676065
17	0xbeba0417	-0.36331245
18	0xbeb6d8bb	-0.35712227
19	0xbe97a7ad	-0.29620114
20	0x3e2bdbc9	0.1678306
21	0xbe8eaad3	-0.27864704
22	0x3e1606a5	0.14650972
23	0xbea25ff4	-0.3171383
24	0x3e87a0c0	0.2648983
25	0x3e71cedc	0.23614067
26	0x3e956521	0.29178718
27	0xbe30a927	-0.17252026
28	0x3e82a869	0.25519112
29	0xbe85c7c0	-0.2612896
