data/MTMR_28002/sim/random/MLSE4POL/2/train/N10/D6_SinCosInput/1/result/model/ReLU_Dual_UDirection_PKD.pt (torch_old, 22776 bytes, 20 tensors)

input_mean f4 [12]
0	0xbaac63d8	-0.0013152314
1	0x3e81eff1	0.25378373
2	0xbbbc3433	-0.0057435273
3	0x3e7e37cf	0.24825977
4	0x3e75435c	0.23951477
5	0xbb27b060	-0.0025587305
6	0x3f6b9e29	0.9203821
7	0x3f6c08f6	0.92201173
8	0x3f712fd0	0.9421358
9	0x3e3436c4	0.17599016
10	0x3e6dbf3b	0.2321748
11	0x3f6baa80	0.9205704

input_std f4 [12]
0	0x3ec4f3a7	0.38467142
1	0x3e8f1da5	0.27952304
2	0x3ea993a2	0.33120447
3	0x3f224afd	0.63395673
4	0x3f2a6ffe	0.66577137
5	0x3ec4bf34	0.38427126
6	0x3d8fb22c	0.070164055
7	0x3dafa3ca	0.08576162
8	0x3d52e192	0.051484652
9	0x3f3602d3	0.7109806
10	0x3f2add57	0.6674399
11	0x3d8f0e5b	0.0698516

output_mean f4 [6]
0	0x3cc95de3	0.024580901
1	0x3eede0d2	0.46460587
2	0x3e3ff1a6	0.18744525
3	0xb9c36345	-0.0003726726
4	0xbd19250a	-0.03738884
5	0x3bfad9d3	0.007655361

output_std f4 [6]
0	0x3d143acc	0.036188886
1	0x3e21cfb0	0.15801883
2	0x3e135c15	0.14390595
3	0x3defee8b	0.1171542
4	0x3de7e717	0.11323374
5	0x3c8ef417	0.017450375

pos_net.linears.0.weight f4 [30, 12]
0	0x3f0bb51e	0.5457324
1	0x3f1d089b	0.61341256
2	0x3f1a6386	0.6030811
3	0xbdfbd13f	-0.1229577
4	0xbe30c7c3	-0.17263703
5	0x3b4fe1c6	0.0031720265
6	0xbd40c136	-0.04705926
7	0xbd308275	-0.043093164
8	0x3d162db4	0.03666468
9	0xbe1b5126	-0.15167674
10	0xbeda1294	-0.425923
11	0x3c0d5a9b	0.008627559
12	0xbed379cd	-0.41303864
13	0x3ea07532	0.31339413
14	0x3de7ab8c	0.11312017
15	0x3ee27469	0.4422944
16	0xbee71e7b	-0.45140442
17	0xbd4df796	-0.050284944
18	0xbd1abfe4	-0.037780657
19	0xbdec5ea1	-0.115414865
20	0xbcb0c1b9	-0.02157675
21	0xbef8c0d1	-0.48584607
22	0x3c372eaa	0.011180559
23	0x3d6f805a	0.058472015
24	0x3c5d18ba	0.013494665
25	0xbee6f26a	-0.45106822
26	0xbf161ca1	-0.58637434
27	0x3ef42734	0.4768616
28	0x3f3bacb2	0.7331039
29	0xbf1f9fdf	-0.6235332
30	0xbc4c02ae	-0.012451811
31	0x3e0899f4	0.13339978
32	0xbd22cbec	-0.039745256
33	0xbeadaf85	-0.33922973
34	0xbe9b8250	-0.30372858
35	0xbca7a690	-0.020465165
36	0xbe6847c9	-0.22683634
37	0x3e3db374	0.18525487
38	0x3e9312f2	0.28725392
39	0xbeeb8fb0	-0.46008062
40	0x3f160409	0.5859991
41	0xbf00ab64	-0.5026152
42	0xbd1fe073	-0.03903241
43	0xbde4df24	-0.11175373
44	0x3d5009fe	0.05079078
45	0x3f36e5bd	0.714443
46	0xbeb1f990	-0.34760714
47	0x3dfa340d	0.12216959
48	0x3f2f5056	0.6848196
49	0xbe09941b	-0.13435404
50	0xbbf6a9b7	-0.007527556
51	0x3f00980b	0.50232
52	0x3e5c1f78	0.2149638
53	0x3ba1d426	0.00493862
54	0x3c9230d1	0.017845543
55	0xbd427d8e	-0.04748302
56	0xbd97cd31	-0.07412184
57	0xbefc60b4	-0.4929253
58	0x3e2b66fc	0.16738504
59	0xbe386ec0	-0.18010998
60	0x3b7a0d88	0.0038155038
61	0xbefcc8b1	-0.49371865
62	0xbf44b724	-0.7684195
63	0xbf1f336e	-0.6218785
64	0xbe881b22	-0.265832
65	0xbe2ec66d	-0.17067881
66	0x3cff7a82	0.031186346
67	0x3e19ed07	0.15031825
68	0x3d44c5fb	0.04804037
69	0xbf0dd075	-0.55396205
70	0xbe632cbf	-0.22185038
71	0x3df59f32	0.11993255
72	0x3dcc12bd	0.099645115
73	0x3f1f9fd2	0.6235324
74	0x3ec75125	0.38929096
75	0x3e95b744	0.29241383
76	0x3d6c0ec1	0.057631258
77	0xbe3ffcfa	-0.18748847
78	0x3ca64161	0.020294847
79	0x3c7c0a19	0.015383267
80	0x3e30abe1	0.17253067
81	0x3f321fa6	0.6957954
82	0xbd3fa854	-0.04679139
83	0x3db23b82	0.087027565
84	0x3e60c329	0.21949448
85	0xbf0168ac	-0.5055034
86	0xbf3268c1	-0.6969109
87	0x3ecdb31e	0.40175718
88	0xbd0e89ac	-0.034799263
89	0xbd84ab25	-0.06477956
90	0x3a977e5d	0.0011558045
91	0x3e176320	0.14783907
92	0x3cba742d	0.022760475
93	0x3f0f1a1e	0.55899227
94	0x3f0af084	0.5427325
95	0x3d5d05e9	0.053960714
96	0x3f39586b	0.7240054
97	0x3e9bd859	0.30438498
98	0xbf23b33a	-0.63945353
99	0xbe727c4c	-0.23680228
100	0x3c946be2	0.018117849
101	0x3e2d1c5a	0.16905347
102	0x3c218750	0.009858921
103	0xbcf77192	-0.030205522
104	0x3dbc6729	0.09199364
105	0xbe5f1229	-0.21784271
106	0x3e12573e	0.14291093
107	0x3d2a6c44	0.041607156
108	0xbeed964f	-0.4640374
109	0x3e44ea67	0.19230042
110	0x3f043025	0.5163596
111	0x3ea39766	0.31951445
112	0xbe5c0a4c	-0.21488303
113	0xbe07583b	-0.13217251
114	0x3d07f0c9	0.033188615
115	0xbb47b694	-0.0030473815
116	0xbdc4f460	-0.09616923
117	0x3ea4499d	0.32087412
118	0xbd49acf7	-0.049237218
119	0xbd9879b5	-0.07445089
120	0x3dd7f389	0.105444975
121	0x3ed9977d	0.4249839
122	0x3f27da73	0.655677
123	0x3f21a548	0.63142824
124	0x3e5aaa37	0.21353994
125	0xbdd2bcae	-0.10289894
126	0x3d0d1810	0.034446776
127	0xbd56f0e2	-0.052475818
128	0xbc5c27a8	-0.013437189
129	0xbe07f49b	-0.13276903
130	0xbe7179f9	-0.23581685
131	0x3d455e37	0.048185553
132	0xbddf6d1b	-0.10909482
133	0xbe804b42	-0.25057417
134	0xbe7852ee	-0.24250385
135	0x3e93bf5b	0.2885693
136	0x3eaf6147	0.34253904
137	0x3d601ce0	0.054715037
138	0xbcd34481	-0.025789501
139	0xbc34b668	-0.011029817
140	0x3db2ea3e	0.087360844
141	0xbf2b7da7	-0.66988605
142	0xbecbeaef	-0.39827678
143	0xbd7ccade	-0.061716907
144	0xbe61aa37	-0.22037588
145	0xbf4dfc91	-0.8046351
146	0xbdda551e	-0.10660766
147	0x3c94f636	0.018183809
148	0x3b5e78b8	0.0033946466
149	0xbd9413d9	-0.07230348
150	0xbd0f8012	-0.035034247
151	0xbe0babc2	-0.13639739
152	0xbb5cb1c1	-0.0033675286
153	0x3f0f22ed	0.5591267
154	0xb9e9ea26	-0.00044615677
155	0x3d85ecce	0.065393075
156	0x3e9c5637	0.30534527
157	0xbd56fdfb	-0.05248831
158	0xbea9157e	-0.3302421
159	0xbea84eff	-0.3287277
160	0x3ea9c4ee	0.33158058
161	0x3de90794	0.113783985
162	0xbdb0065f	-0.08594965
163	0x3cf942e9	0.030427413
164	0x3dbb7a90	0.09154236
165	0x3e1d1b5a	0.15342465
166	0xbe7a0e64	-0.24419552
167	0xbdfce7f8	-0.12348932
168	0xbea1ee87	-0.31627294
169	0x3d814578	0.06312078
170	0xbe9d36de	-0.30705923
171	0xbf4eaa0a	-0.8072821
172	0x3e8b2e51	0.27183774
173	0xbe3d34a1	-0.18477108
174	0xbdd8d8a9	-0.105882
175	0x3e92f2d8	0.287009
176	0xbd5285f6	-0.051397286
177	0x3ee294f4	0.44254267
178	0xbe91de9d	-0.28490153
179	0xbd33a726	-0.043860577
180	0x3f0c43c2	0.5479089
181	0xbe548616	-0.20754275
182	0x3e7f3244	0.24921519
183	0x3ed7551f	0.4205713
184	0xbdbc7194	-0.09201351
185	0xbc943a0f	-0.01809409
186	0xbc11d65c	-0.008901205
187	0x3e6900c7	0.22754203
188	0x3ce6e4a8	0.028185204
189	0xbcfccbff	-0.030858992
190	0xbe10682c	-0.14102238
191	0x3e013712	0.12618664
192	0xbeb3f92c	-0.3515104
193	0x3ece9f6a	0.40355998
194	0xbe57f147	-0.21088134
195	0xbf2b8c96	-0.6701139
196	0xbde7f829	-0.1132663
197	0x3dfa663e	0.122265324
198	0xbc099105	-0.008396392
199	0x3b8fd58f	0.004389472
200	0x3c945bc2	0.01811016
201	0xbeb3b11f	-0.3509607
202	0x3e96d949	0.2946265
203	0xbc71b584	-0.014752749
204	0x3e9f1963	0.31074056
205	0x3e1ce3ec	0.1532132
206	0xbdf3c6e4	-0.1190317
207	0xbee64223	-0.44972333
208	0x3efb9e57	0.4914424
209	0xbf0e7304	-0.5564425
210	0x3ce67809	0.02813341
211	0x3e05c53c	0.1306352
212	0x3bd02e91	0.0063532074
213	0x3f044195	0.5166257
214	0xbe123e33	-0.1428154
215	0x3d84c6a0	0.06483197
216	0x3e13015c	0.14355987
217	0xbf15f0f7	-0.5857081
218	0xbedb9c30	-0.428926
219	0xbe10c34b	-0.14136998
220	0xbe9c096d	-0.3047594
221	0x3ed9773e	0.42473787
222	0xbc3b3b3e	-0.011427699
223	0xbde856e9	-0.11344702
224	0x3d87fd11	0.066400655
225	0x3e6e4ce9	0.23271526
226	0xbce9ba6b	-0.028531274
227	0x3c8ab548	0.016932145
228	0xbebb403c	-0.36572444
229	0xbf751b98	-0.9574523
230	0x3d1af72b	0.037833374
231	0x3dd25009	0.10269172
232	0x3d51cc1c	0.051220044
233	0x3d6da29d	0.05801641
234	0xbd86b53c	-0.065775365
235	0xbde438ac	-0.11143622
236	0xbd4cd514	-0.050007895
237	0xbe832485	-0.256138
238	0xbcb44f63	-0.02201051
239	0xbd39c3e9	-0.04535285
240	0x3bd35e7c	0.0064504724
241	0xbd99868e	-0.074963674
242	0xbeca076d	-0.3945879
243	0xbe24e82e	-0.16104195
244	0xbdba5aa8	-0.090993226
245	0xbee8422c	-0.45362985
246	0x3bc13994	0.0058967564
247	0x3e56d998	0.20981443
248	0xba260da0	-0.0006334428
249	0x3eedc492	0.46439034
250	0xbf116aaa	-0.5680338
251	0xbc802c5e	-0.015646156
252	0xbd63a806	-0.05558016
253	0x3d42616e	0.047456197
254	0x3f1d674c	0.61485744
255	0x3ea44bf4	0.32089198

pos_net.linears.0.bias f4 [30]
0	0x3d86e053	0.06585755
1	0xbc1518e3	-0.009100172
2	0xbedab98f	-0.42719695
3	0x3d081993	0.033227514
4	0x3d127ef7	0.035765614
5	0xbd825d0e	-0.06365405
6	0xbea59b10	-0.32344866
7	0xbdb87551	-0.09006751
8	0x3e31aaba	0.17350283
9	0x3c301dbf	0.0107492795
10	0xbdc116f6	-0.094282076
11	0xbe647c54	-0.22313052
12	0xbe2ccbd6	-0.16874632
13	0xbe71de4e	-0.23619959
14	0x3b6e1276	0.0036326922
15	0x3e399838	0.18124473
16	0xbd2b79a8	-0.041864067
17	0x3e994b7f	0.2994041
18	0xbf3fdf4c	-0.749501
19	0xbdff79bd	-0.124743916
20	0xbe75ba05	-0.23996742
21	0xbe313175	-0.17304023
22	0xbdab3df7	-0.08361428
23	0xbeb1e7af	-0.34747073
24	0xbeb27026	-0.34851187
25	0xbeacb8d1	-0.33734754
26	0xbe0cb544	-0.13741022
27	0xbdceea4f	-0.101032846
28	0xbe0cd915	-0.13754685
29	0xbde7aacb	-0.11311873

pos_net.linears.1.weight f4 [30, 30]
0	0xbed9836f	-0.42483088
1	0xbe285bc6	-0.16441259
2	0x3ba720fa	0.0051003667
3	0x3eaeaf95	0.34118333
4	0xbe57b457	-0.21064888
5	0xbe4b7b3d	-0.1987123
6	0xbe8b4757	-0.27202865
7	0xbdbd945f	-0.09256815
8	0xbe85f2ef	-0.26161906
9	0xbec424cb	-0.3830932
10	0xbed5abab	-0.41732535
11	0xbb254eb6	-0.0025223917
12	0xbca5d556	-0.020243328
13	0xbea00202	-0.31251532
14	0x3e5b9339	0.2144288
15	0xbcacc4a3	-0.021089857
16	0x3d3e0cf7	0.046399083
17	0x3d9f5e89	0.07781703
18	0xbe05e08d	-0.1307394
19	0x3ea040fd	0.31299582
20	0x3e5dde62	0.21666864
21	0xbe8fadd2	-0.28062302
22	0xbe1a0b63	-0.15043406
23	0xbdb0d2b0	-0.086339355
24	0x3e9a4be3	0.30136022
25	0xbe3ca3b9	-0.1842183
26	0xbe0cddf2	-0.1375654
27	0xbcbd2731	-0.023089977
28	0xbeac8ffa	-0.33703595
29	0x3e1472ff	0.14496993
30	0xbd88f305	-0.06686977
31	0x3e389ebf	0.18029307
32	0xbe115390	-0.14192033
33	0xbe635d4d	-0.2220356
34	0xbde587f2	-0.1120757
35	0xbe219e65	-0.15783079
36	0xbdbde929	-0.092729874
37	0xbdf8aa17	-0.12141817
38	0xbd24d5d9	-0.040243004
39	0x3da6b611	0.08140195
40	0x3e7f97a1	0.24960186
41	0xbd0283e3	-0.03186406
42	0xbe19fb1b	-0.15037195
43	0xbd90b4de	-0.07065748
44	0xbd82f2ce	-0.063939676
45	0xbe31d2d5	-0.17365582
46	0x3eb70c5e	0.35751623
47	0xbc621ab9	-0.0138003165
48	0xbd1fec1d	-0.039043535
49	0xbeaa4b7e	-0.3326072
50	0x3d00eba6	0.03147473
51	0xbe96496c	-0.2935289
52	0xbe53e002	-0.20690921
53	0xbe8589ba	-0.2608164
54	0xbe0b9347	-0.136304
55	0xbeac1ee9	-0.33617333
56	0xbc95d54d	-0.018290186
57	0xbd76b96f	-0.060235437
58	0x3e2e50cf	0.17023014
59	0x3e00873e	0.12551591
60	0x3f05722a	0.52127326
61	0x3dbf5d4b	0.09343966
62	0x3ea24c70	0.31698942
63	0x3cc9142e	0.024545755
64	0x3ec3040d	0.38089028
65	0xbdb3a02b	-0.08770784
66	0x3dabbf78	0.08386129
67	0x3e8daa75	0.2766911
68	0x3f245524	0.64192414
69	0xbeb688e3	-0.3565131
70	0xbcb07b80	-0.021543264
71	0x3da09747	0.07841354
72	0xbe956c72	-0.291843
73	0x3e0a57b1	0.13510014
74	0xbe3adf5c	-0.18249267
75	0x3ecb2c46	0.39682215
76	0xbe2b7bc4	-0.16746432
77	0x3ea359c9	0.31904438
78	0x3e448fd4	0.19195491
79	0xbe8a8164	-0.27051842
80	0xbd2636df	-0.040579673
81	0xbe4bbf55	-0.19897206
82	0x3d4b6bef	0.04966348
83	0x3e8168e3	0.25275335
84	0x3e820ba4	0.25399506
85	0xbe1e6dcf	-0.15471576
86	0x3ddda8bb	0.108231984
87	0x3e64f8e1	0.22360565
88	0xbe77a340	-0.24183369
89	0x3ed6e537	0.41971752
90	0xbcb013de	-0.021493848
91	0x3bba4a17	0.0056851017
92	0xbbc51a01	-0.006015063
93	0xba8c6463	-0.001071107
94	0xbc23edf0	-0.010005459
95	0xbb113aed	-0.0022160367
96	0x3b5df9e0	0.003387086
97	0x3b5a068f	0.003326807
98	0x3bb9f8ed	0.005675426
99	0x3abf1ed7	0.0014581335
100	0xbb961259	-0.004579824
101	0xbb4554be	-0.0030110325
102	0xbafe3e1c	-0.0019397172
103	0x3b67a126	0.0035343855
104	0xba0e4946	-0.0005427789
105	0xbc5c711d	-0.013454703
106	0xbc25c137	-0.010116867
107	0x3b4efe76	0.0031584776
108	0x3b346dd6	0.0027531288
109	0x3b04a47e	0.0020239647
110	0x3b6fcb4a	0.0036589676
111	0x3bbd7200	0.005781412
112	0xbba9b305	-0.0051788115
113	0x3bb2c30e	0.0054553812
114	0xbb18578a	-0.0023245537
115	0xbc92e142	-0.017929677
116	0xbbb9619b	-0.0056573874
117	0xbaa94c82	-0.0012916478
118	0x3c02c0a6	0.007980501
119	0xbba2545a	-0.004953903
120	0xbdef3f8e	-0.11682044
121	0x3d2692e7	0.04066744
122	0xbefcca80	-0.49373245
123	0xbeb5ba61	-0.35493758
124	0x3e8c3c37	0.2738969
125	0x3d752ace	0.059855275
126	0xbb8b4574	-0.004250223
127	0xbe826c44	-0.25473225
128	0x3e56cc75	0.20976432
129	0xbe96f862	-0.29486376
130	0x3e57cca4	0.21074158
131	0xbd280f66	-0.04103031
132	0xbe31af8c	-0.17352122
133	0x3dc38cd4	0.09548345
134	0x3e1e0886	0.15432939
135	0xbe138f08	-0.14410031
136	0xbe416cff	-0.18889235
137	0xbda69394	-0.08133617
138	0x3d59ab17	0.05314168
139	0xbd6cd70a	-0.057822265
140	0xbe282e80	-0.16423988
141	0xbe491fac	-0.19640988
142	0x3dd4f23f	0.10397767
143	0x3cfe8a1c	0.031071715
144	0xbec25b5a	-0.3796032
145	0x3edda27c	0.43288028
146	0xbde618e1	-0.11235214
147	0x3e78ff0f	0.24316047
148	0x3d242a59	0.04007945
149	0x3de0820c	0.109623045
150	0xbe1f0e0f	-0.15532707
151	0x3ed76d99	0.42075804
152	0xbd31d361	-0.043414477
153	0xbda4a620	-0.08039498
154	0x3d27455c	0.04083763
155	0xbe7ddc47	-0.2479106
156	0x3cc718f6	0.024303894
157	0x3bdeae42	0.0067956755
158	0xbd608f61	-0.054824237
159	0x3ec346b6	0.38139886
160	0x3d520466	0.051273726
161	0x3eacb026	0.3372814
162	0x3e105e23	0.1409841
163	0xbca7a2f2	-0.02046344
164	0xbe53d9cf	-0.20688556
165	0xbe723d7b	-0.23656265
166	0x3de419a5	0.11137704
167	0xbdde4689	-0.10853297
168	0xbe805a59	-0.2506893
169	0x3d2dc8fd	0.042428005
170	0x3da55935	0.080736555
171	0xbcb4c8e2	-0.022068445
172	0x3e014b75	0.12626441
173	0xbe5cc81d	-0.21560712
174	0x3dd3d4ba	0.10343309
175	0x3ccddc2e	0.025129404
176	0xbe000b29	-0.12504257
177	0xbddd61df	-0.10809683
178	0x3e3c0098	0.18359601
179	0xbefe0e3f	-0.49620244
180	0xbe50c9d8	-0.20389497
181	0x3e85bb54	0.26119483
182	0x3e4bf4ef	0.19917654
183	0xbdc7e6c8	-0.09760815
184	0x3de656d6	0.112470314
185	0x3d1ec97a	0.03876636
186	0xbe53e831	-0.20694043
187	0x3e94d6d4	0.2907015
188	0xbe2fdd24	-0.17174202
189	0xbea7ab9a	-0.3274811
190	0xbe9b8128	-0.30371976
191	0xbd72db54	-0.0592912
192	0xbd6077f5	-0.0548019
193	0xbe26f4f7	-0.16304384
194	0xbeafb993	-0.3432127
195	0x3be7b8c4	0.0070715863
196	0xbc596538	-0.013268761
197	0xbe810c51	-0.2520471
198	0x3e260047	0.16211043
199	0x3ea820df	0.3283758
200	0xbec0221d	-0.37526026
201	0xbe2a7216	-0.16645083
202	0xbec68dbe	-0.38780016
203	0x3c734d76	0.014850011
204	0x3ef076c9	0.46965626
205	0xbe82d728	-0.25554776
206	0xbdd76496	-0.10517232
207	0x3ed798c6	0.42108744
208	0xbe4bc4c7	-0.19899283
209	0x3e1040a9	0.14087166
210	0xbbb85b77	-0.005626138
211	0xbcc43639	-0.023951637
212	0x3e4bb24d	0.19892235
213	0xbd636aee	-0.055521898
214	0xbe4decf7	-0.20109926
215	0x3e58b264	0.211618
216	0x3eaa691b	0.33283314
217	0xbe385d72	-0.18004397
218	0x3e2c9c8d	0.16856594
219	0x3e68f1cb	0.22748487
220	0x3c144421	0.009049446
221	0x3c4fb1cb	0.0126766665
222	0xbe97ff10	-0.29686785
223	0xbe56bfda	-0.20971623
224	0xbece122e	-0.40248245
225	0xbda7bf8c	-0.081908315
226	0x3d92d9d8	0.07170457
227	0xbd8b820d	-0.068119146
228	0xbe46b992	-0.19406727
229	0xbe031e14	-0.12804443
230	0x3d383d01	0.044980053
231	0x3df81035	0.12112466
232	0xbe18a070	-0.14904952
233	0x3e5fe9be	0.2186651
234	0xbed23e4d	-0.41063157
235	0x3ec23eb2	0.37938458
236	0x3c9fcc50	0.019506603
237	0xbdbb60ed	-0.091493465
238	0xbde20e82	-0.110379234
239	0x3ef34530	0.47513723
240	0xbe9f8520	-0.31156254
241	0xbe25da29	-0.16196503
242	0xbe0fe084	-0.1405049
243	0xbe4b2a38	-0.19840324
244	0x3db891f6	0.09012215
245	0xbefe3acb	-0.4965423
246	0x3ea7cbf0	0.3277278
247	0xbe8844e9	-0.26615074
248	0x3d58d464	0.052936926
249	0x3e3cbd78	0.18431652
250	0xbe9880da	-0.29785806
251	0xbe70bbe2	-0.23509172
252	0xbe8ed674	-0.2789799
253	0x3e067015	0.13128693
254	0x3df74cb9	0.120751806
255	0xbd96773f	-0.07346963

pos_net.linears.1.bias f4 [30]
0	0xbde559b7	-0.111987524
1	0xbe723c97	-0.23655926
2	0x3ec94153	0.3930765
3	0xbd998d1f	-0.0749762
4	0x3e53fb09	0.20701231
5	0xbc08b0cd	-0.008342934
6	0xbe8a5d52	-0.27024323
7	0xbd4bc3d0	-0.04974729
8	0x3dc1fb5c	0.09471771
9	0xbe07ab02	-0.13248828
10	0xbe88b7ea	-0.26702815
11	0xbb624d6e	-0.0034531015
12	0xbe81a976	-0.253246
13	0xbe89c507	-0.26908132
14	0xbe053c04	-0.13011175
15	0xbe977d24	-0.29587662
16	0xbd92092e	-0.07130657
17	0xbd9ef30f	-0.077612035
18	0x3eaf63ab	0.34255728
19	0x3e086bcb	0.1332237
20	0xbd21f0bc	-0.039536223
21	0x3df17cc4	0.11791375
22	0xbd1c2cea	-0.03812877
23	0xbdd9bc7d	-0.106316544
24	0xbe12244d	-0.1427166
25	0x3aeb9fb5	0.0017976674
26	0x3e700f21	0.23443271
27	0x3e80a526	0.25125998
28	0x3e876f8f	0.264523
29	0x3ea6a5fa	0.32548505

pos_net.linears.2.weight f4 [30, 30]
0	0x3c6efe15	0.014586945
1	0x3b5d773e	0.0033792998
2	0x3af2d7c9	0.0018527444
3	0x3a007a77	0.0004901061
4	0xbb1a198f	-0.002351377
5	0x3c29240d	0.010323537
6	0xbbcf5617	-0.0063274014
7	0xbb942224	-0.0045206714
8	0xbd275f7b	-0.04086254
9	0x3a8a4207	0.0010548242
10	0xbbae679f	-0.005322411
11	0x3c456f34	0.012050439
12	0xbb270216	-0.002548342
13	0xbbe9333a	-0.0071167024
14	0x3b8ae730	0.0042389855
15	0xbb20fa8a	-0.0024563395
16	0xbc1f7d93	-0.009734529
17	0xba523ee3	-0.0008020235
18	0xbd86200d	-0.06549082
19	0xbc2e9c66	-0.0106574055
20	0xbd09b8e9	-0.03362361
21	0xba8eea2c	-0.0010903529
22	0xbb5ff699	-0.0034174083
23	0xbb8e59de	-0.004344209
24	0xbb01f9b9	-0.0019832684
25	0xbe1ff77a	-0.15621749
26	0x39c6ae78	0.00037895492
27	0xbde47d7b	-0.11156746
28	0xbbd0f985	-0.0063774013
29	0x3b14fc16	0.0022733263
30	0x3b9a2947	0.0047046277
31	0xbe81d516	-0.25357884
32	0x3e290068	0.16504061
33	0xb79b3160	-1.8500432e-05
34	0x3e4cda25	0.2000509
35	0x3d33d3a2	0.043903
36	0x3dbd21a2	0.092349306
37	0x3de3fc9e	0.11132167
38	0xbe17dd47	-0.14830504
39	0xbd8a3d59	-0.067499824
40	0x3eaa2a31	0.33235314
41	0x3e66c4cb	0.22536008
42	0xbd02647b	-0.031834107
43	0xba30568b	-0.0006726763
44	0xbbe18e10	-0.0068833902
45	0x3e6b782a	0.22995058
46	0x3d91c787	0.07118135
47	0x390a5aa0	0.00013194466
48	0xbdc97844	-0.09837392
49	0xbbd7b9f4	-0.0065834466
50	0xbd258a0c	-0.040414855
51	0xbe5ee468	-0.21766818
52	0x3d8147f2	0.063125506
53	0xbef03abc	-0.4691981
54	0x3b0be1f7	0.0021344402
55	0x3c865feb	0.01640316
56	0xbda5ba1a	-0.08092137
57	0xbe8b6c74	-0.2723118
58	0x3e42f860	0.1904006
59	0x3eb71a9b	0.35762486
60	0x3c8ca4fc	0.017168514
61	0xbe04d7d1	-0.12972952
62	0xbb4cae42	-0.0031231795
63	0xba91d169	-0.0011125031
64	0x3e55944b	0.2085735
65	0x3ec8a7b6	0.39190453
66	0xbe248203	-0.1606522
67	0xbdfa2d81	-0.122157104
68	0xbd9ef600	-0.077617645
69	0x3df12f36	0.11776583
70	0xbc5247fc	-0.012834545
71	0x3e8b8986	0.2725336
72	0x3be7b96d	0.007071665
73	0x3ca6b8a9	0.020351725
74	0x3d6c8175	0.057740647
75	0x3f2eda80	0.68302155
76	0x3e93eb4b	0.28890452
77	0x39a8e198	0.00032211537
78	0xbc8b8178	-0.017029509
79	0x3dab46c6	0.08363108
80	0xbdd1cc82	-0.10244085
81	0xbd318784	-0.04334213
82	0x3e480193	0.1953185
83	0x3ddc5c96	0.10759847
84	0x3b537c10	0.0032269992
85	0x3e93d446	0.2887289
86	0xbd20e96c	-0.03928511
87	0xbdbe8008	-0.09301764
88	0x3ea7151e	0.326333
89	0xbe656d7b	-0.22405045
90	0xbd045fe8	-0.032318026
91	0xbd71e9cb	-0.059060853
92	0xbe4cef09	-0.2001306
93	0xb9d96f60	-0.00041472446
94	0xbd109245	-0.035295743
95	0xbe2daed8	-0.16961229
96	0x3e2b53f6	0.16731247
97	0xbc26c876	-0.01017963
98	0xbbf4081d	-0.0074472562
99	0xbe016112	-0.12634686
100	0xbb178ac8	-0.0023123492
101	0xbe70aa87	-0.23502551
102	0xbd9692a5	-0.07352189
103	0xbbbc11fe	-0.0057394495
104	0xbc9bd83a	-0.019024003
105	0x3d1b9bc4	0.037990347
106	0xbdf3bf34	-0.119017035
107	0xbc873414	-0.016504325
108	0xbd872dc5	-0.06600527
109	0xbcb33bd6	-0.021879118
110	0xbeca64cd	-0.3953003
111	0xbe276051	-0.16345336
112	0x3e8491e9	0.2589257
113	0x3e6889cc	0.22708815
114	0x3c593d6f	0.013259276
115	0x3edea09f	0.4348192
116	0xbe2e9bdf	-0.17051648
117	0xbe9f70e6	-0.31140822
118	0xbd6d677f	-0.05796003
119	0xbe993abe	-0.2992763
120	0x3c8ae2b4	0.016953804
121	0xbb0e37b1	-0.0021700675
122	0xbd7ce4de	-0.061741702
123	0x3b837e53	0.0040128618
124	0xbbfe14a0	-0.0077539235
125	0x3c8cb12c	0.017174326
126	0x3ccfecc0	0.025381446
127	0xbd0eb525	-0.03484072
128	0xbca6d355	-0.020364443
129	0x39f6f79e	0.00047105266
130	0xbb13ef60	-0.0022573099
131	0x3a1bc506	0.00059421395
132	0xba432ec5	-0.0007445629
133	0xbb6ff68b	-0.0036615457
134	0x3b5a1d77	0.0033281723
135	0x3c88affc	0.016685478
136	0x3af0af3c	0.0018362771
137	0xba89baa6	-0.0010507896
138	0xbe06614e	-0.13123056
139	0xbaba2328	-0.0014201151
140	0x3d641b78	0.05569026
141	0x3da26677	0.079297
142	0x3ae19e1e	0.001721326
143	0x3bb5a59e	0.0055434247
144	0xbbc8ede9	-0.0061318767
145	0xbc40af18	-0.011760496
146	0xbe18c27a	-0.14917937
147	0xbe3f95ce	-0.1870949
148	0x3ca14148	0.019684449
149	0xbdf5a17a	-0.1199369
150	0xbdcafea4	-0.0991185
151	0x3f2b2f36	0.66868913
152	0x3dab0663	0.083508275
153	0xbb32c726	-0.0027279346
154	0xbc7b1454	-0.015324671
155	0x3e9790bb	0.29602608
156	0xbde5f6c8	-0.112287104
157	0xbe6e3c77	-0.23265253
158	0xbd95d13a	-0.073152974
159	0xbac26618	-0.0014831452
160	0x3e6ce98b	0.23135965
161	0x3d97dc97	0.07415121
162	0x39d84d06	0.00041256117
163	0xbbd3d7e9	-0.0064649475
164	0xbc219963	-0.00986323
165	0x3b3d4f73	0.0028886467
166	0x3e1444c8	0.14479363
167	0x3b15a80d	0.0022835762
168	0xbe03ea5c	-0.1288237
169	0xbd0d4524	-0.034489766
170	0xbd444ed1	-0.047926728
171	0xbd54d43e	-0.051960222
172	0xbeb4f846	-0.35345668
173	0xbede5574	-0.4342457
174	0xbb8f1762	-0.004366801
175	0xbeb93a85	-0.3617746
176	0xbe38a49c	-0.18031543
177	0xbdbbb97b	-0.09166237
178	0xbca2c730	-0.01987037
179	0xbe9430b0	-0.28943396
180	0xbde187b0	-0.110122085
181	0xbd791b26	-0.060816906
182	0x3e016f22	0.1264005
183	0xbb8682ab	-0.0041049323
184	0xbc93ad2c	-0.01802691
185	0xbd723dd3	-0.05914099
186	0xbe222030	-0.15832591
187	0x3e0d13a2	0.1377702
188	0x3d8922ad	0.06696067
189	0xbb690bf4	-0.0035560103
190	0x3e37c962	0.17947915
191	0x3cba648a	0.022753019
192	0x3ab648cd	0.0013907194
193	0x3c44ac0c	0.01200391
194	0xbb9a2f1d	-0.0047053234
195	0xbe0d99fd	-0.13828273
196	0x3e9d0b50	0.30672693
197	0x3a17911c	0.0005781816
198	0xbd480c9b	-0.048840147
199	0xbe77429a	-0.241465
200	0xbe3c5204	-0.18390661
201	0xbe384b94	-0.17997581
202	0xbe0e9388	-0.13923466
203	0xbddb9926	-0.1072257
204	0x3c3304e5	0.01092646
205	0xbe343f2f	-0.17602228
206	0xbe1e6a3e	-0.15470216
207	0xbeaeb993	-0.34125957
208	0xbd307ef7	-0.043089833
209	0xbe8881fa	-0.26661664
210	0x3c06e46a	0.008233169
211	0x3c4a4f25	0.012347971
212	0x3ba12bb3	0.0049185394
213	0x39da607a	0.0004165208
214	0xbdd7e5b1	-0.10541857
215	0xbe48ef0c	-0.19622439
216	0xbe0cb70d	-0.13741703
217	0x3dc0fb53	0.09422936
218	0xbebc838b	-0.3681911
219	0x3acffd5c	0.0015868354
220	0xbe10587f	-0.14096259
221	0x3e5360c8	0.20642388
222	0x3a4d8526	0.000783997
223	0x3a74e5a4	0.00093420804
224	0x39097934	0.0001311049
225	0xbd75e578	-0.06003329
226	0xbc20e49c	-0.00982013
227	0x3b059bce	0.0020387056
228	0x3cadd256	0.02121846
229	0xbdc145a5	-0.09437112
230	0x3ef2b72d	0.47405377
231	0xbdfdf80b	-0.12400826
232	0xbd6d8654	-0.057989433
233	0x3f0cc9a8	0.54995203
234	0x3ace2067	0.0015726209
235	0xbe4c34cb	-0.19942014
236	0xbe381a22	-0.17978719
237	0xbcaf164f	-0.021372942
238	0xbe6e22ad	-0.23255415
239	0x3e83d675	0.25749555
240	0x3c2a34bc	0.010388549
241	0xbc346831	-0.011011169
242	0xbe63bd1e	-0.22240111
243	0x3a1469f3	0.00056615396
244	0xbcf9b92b	-0.030483803
245	0xbe37e9e3	-0.17960314
246	0xbc01347d	-0.007886049
247	0x3c03eeeb	0.008052568
248	0x3b89a458	0.0042004995
249	0x38b11c38	8.445274e-05
250	0xba1441a8	-0.00056555355
251	0x3cd8eab0	0.026479095
252	0xbac6cd2a	-0.0015167345
253	0xba9354f2	-0.0011240526
254	0xba0e0cde	-0.00054187875
255	0x3a9cccb8	0.0011962866

pos_net.linears.2.bias f4 [30]
0	0xbe9404c8	-0.28909898
1	0x3df1b3bc	0.1180186
2	0x3ea1a757	0.31572983
3	0x3b788cdc	0.0037925756
4	0xbe01aebe	-0.12664315
5	0xbdcb8997	-0.099383526
6	0x3ea603d6	0.32424802
7	0xbe87e538	-0.26542068
8	0xbe940cb2	-0.28915936
9	0x3e711f09	0.23546995
10	0xbe132e60	-0.1437316
11	0x3e0af6ea	0.13570753
12	0xbe1aef96	-0.15130457
13	0xbe2ed582	-0.17073634
14	0xbea861d9	-0.32887152
15	0x3e36af9b	0.17840426
16	0xbd5e4906	-0.05426886
17	0x3d418045	0.047241468
18	0xbc044602	-0.008073332
19	0xbecaa42e	-0.39578384
20	0x3bd7dc8e	0.0065875715
21	0xbd5c5ac2	-0.05379749
22	0xbe8a7af1	-0.27046922
23	0xbe782341	-0.24232198
24	0x3ec0cf48	0.37658143
25	0x3e9e04fc	0.30863178
26	0xbe83f5d9	-0.25773504
27	0xbeca41e5	-0.395034
28	0xbe52132d	-0.20515127
29	0xbe77f70d	-0.24215336

pos_net.output_layer.weight f4 [6, 30]
0	0x3e3abe65	0.18236692
1	0x3e0b8dd6	0.13628325
2	0xbe6bae4f	-0.23015712
3	0xbdf59c4d	-0.11992703
4	0xba48329a	-0.0007636935
5	0x3e24bac1	0.16086866
6	0x3c998207	0.01873876
7	0xbd0839a9	-0.033258114
8	0x3e8d9875	0.27655378
9	0xbe67ebe8	-0.22648585
10	0x3dd9089a	0.10597344
11	0x3d901a6e	0.07036291
12	0x3efd4230	0.4946456
13	0xbd6f774a	-0.058463372
14	0x3e23b709	0.15987791
15	0xbe540eaf	-0.20708726
16	0x3e16b10f	0.1471598
17	0xbd9ffb75	-0.078116335
18	0x3a990a51	0.0011676048
19	0x3d1efac6	0.038813375
20	0x3e2081ee	0.15674564
21	0xbe1f9c9e	-0.15587088
22	0xbe3137cc	-0.17306441
23	0x3e0c6b25	0.13712747
24	0xbc8455ac	-0.016154133
25	0xbe1847ea	-0.14871183
26	0xbd9887f3	-0.07447805
27	0xbe6faeff	-0.234066
28	0xbe15b599	-0.14620055
29	0xbc84e9ea	-0.01622482
30	0x3ba9fe0d	0.005187756
31	0xbc92f305	-0.017938146
32	0xbe84d5ba	-0.2594431
33	0xbda3bd20	-0.07995057
34	0x3cc27ab2	0.023740146
35	0x3d55c9f0	0.052194536
36	0x3e65db7f	0.22447012
37	0xbe5b9487	-0.21443377
38	0x3e0eb5fa	0.13936606
39	0xbd007e40	-0.0313704
40	0x3e692660	0.22768545
41	0x3e3fc809	0.18728651
42	0xbe237213	-0.15961485
43	0xbc5c6a81	-0.013453127
44	0x3da1a2dc	0.07892391
45	0xbeb748d4	-0.3579775
46	0x3eaeecdb	0.3416508
47	0x3e0d40a4	0.1379419
48	0x3db4a152	0.08819832
49	0xbb98aa90	-0.0046590045
50	0xbdb4a620	-0.08820748
51	0x3d13f971	0.036126558
52	0x3e24f8bc	0.1611051
53	0x3a7d0271	0.0009651548
54	0xb908c380	-0.000130428
55	0x3ebe8473	0.37210426
56	0xbc02cc40	-0.007983267
57	0xbe90fd5d	-0.283183
58	0xbe1e53df	-0.15461682
59	0x3dfb6760	0.122755766
60	0xbcb368a1	-0.021900477
61	0xbdcd2e06	-0.10018544
62	0xbe46d103	-0.19415669
63	0x3cc1bf32	0.02365074
64	0x3e08e4cc	0.13368529
65	0x3e339982	0.17539027
66	0x3e10277b	0.1407756
67	0xbe62595d	-0.22104402
68	0x3e7d2b1f	0.2472348
69	0x3e907bbe	0.28219408
70	0x3e254434	0.16139299
71	0x3ea0e36a	0.31423503
72	0x3e171238	0.14753044
73	0xbd067001	-0.03282166
74	0x3c2258c3	0.009908858
75	0x3bc61fd9	0.006046277
76	0xbdc6da26	-0.09709577
77	0x3b154b62	0.0022780527
78	0xbe9f292f	-0.31086108
79	0xbe010731	-0.126004
80	0xbe5c37c6	-0.21505651
81	0x3ea7635a	0.32692987
82	0x3e86fb4a	0.26363593
83	0x3dbe464f	0.09290754
84	0xbe90a4b0	-0.28250647
85	0x3e08ae23	0.13347678
86	0xbbe693ff	-0.0070366855
87	0x3e17fa7e	0.14841649
88	0x3e2fbdc6	0.17162237
89	0xbd4df57c	-0.05028294
90	0x3d49691c	0.049172506
91	0xbdd64a05	-0.10463337
92	0x3e89855f	0.26859567
93	0x3dbada0a	0.09123619
94	0x3e7e2829	0.24820007
95	0x3f054c60	0.52069664
96	0x3f04cf95	0.51879245
97	0xbe37993a	-0.17929545
98	0x3e6428e5	0.22281225
99	0xbecc20a5	-0.39868656
100	0xbe5aea21	-0.21378376
101	0x3ed356ac	0.41277063
102	0xbd0269a2	-0.03183902
103	0x3b9f486f	0.0048609297
104	0x3db291f1	0.08719242
105	0xbbaf1cf3	-0.005344027
106	0xbe770fde	-0.24127147
107	0xbd02b8a1	-0.031914357
108	0x3d98917a	0.074496225
109	0x3dda3923	0.10655429
110	0xbcd5113f	-0.0260092
111	0x3dd15174	0.10220614
112	0x3bb8720a	0.005628829
113	0x3e0bb629	0.13643707
114	0x3dff92c6	0.12479167
115	0x3e99f131	0.30066827
116	0xbc311680	-0.010808587
117	0x3e81f1d0	0.253798
118	0x3e4359bd	0.19077201
119	0xbe19c1e9	-0.15015377
120	0x3e5599ed	0.208595
121	0xbe38fb22	-0.1806455
122	0xbdf4d1f0	-0.11954105
123	0xbce26143	-0.027634269
124	0xbbe960ec	-0.0071221497
125	0xbee7991e	-0.45234007
126	0x3dda8eb2	0.10671748
127	0xbe1c0bf3	-0.15238933
128	0x3e4df28c	0.20112056
129	0x3dcb1107	0.09915357
130	0xbe00004b	-0.12500112
131	0xbdc61821	-0.09672571
132	0x3d820769	0.063490696
133	0xbc6dbf5e	-0.0145109575
134	0x3e3de9ff	0.18546294
135	0x3dc37bf9	0.0954513
136	0xbcfbdeed	-0.030745948
137	0x3d255ffa	0.040374734
138	0x3db01587	0.08597856
139	0x3d92e337	0.07172244
140	0x3cf29f9c	0.029617123
141	0xbdd20461	-0.102547415
142	0xbdaac9cc	-0.08339271
143	0x3e28a706	0.16469964
144	0x3e2593a2	0.16169599
145	0x3deca6bf	0.11555242
146	0x3c54b14e	0.012981726
147	0xbcb6c3ee	-0.022310223
148	0x3daff416	0.085914776
149	0xbe0eceb8	-0.13946044
150	0xbc597637	-0.0132728135
151	0x3e7811a6	0.24225482
152	0x3dd5bc41	0.10436297
153	0xbe98d2b0	-0.29848242
154	0x3ba19c06	0.0049319295
155	0xbd451deb	-0.048124235
156	0x3d901736	0.07035677
157	0xbeaa8a66	-0.33308715
158	0xbe105abc	-0.14097112
159	0xbddf3c93	-0.109002255
160	0xbe4121f6	-0.18860611
161	0xbd729390	-0.059222758
162	0x3d3a0eb2	0.04542417
163	0x39e2924c	0.0004321508
164	0x3e2b5dad	0.16734953
165	0xbc8eaeba	-0.0174173
166	0x3e06147f	0.13093756
167	0x3ebee515	0.3728415
168	0xbcf3ca97	-0.029759688
169	0x3dc74df5	0.09731666
170	0xbee9f407	-0.4569399
171	0x3ec0fb02	0.37691504
172	0xbdf72de0	-0.12069297
173	0x3e17867f	0.147974
174	0x3ed43328	0.4144528
175	0xbe661548	-0.22469056
176	0x3dfcc54b	0.12342318
177	0x3e692202	0.22766879
178	0xbed16658	-0.40898395
179	0xbd8c38a4	-0.06846741

pos_net.output_layer.bias f4 [6]
0	0xbe840400	-0.25784302
1	0x3be210e9	0.0068989885
2	0xbec1fcfd	-0.37888327
3	0xbd8937af	-0.06700074
4	0x3ec6b198	0.38807368
5	0xbdc4c4ee	-0.09607874

neg_net.linears.0.weight f4 [30, 12]
0	0x3e0dd936	0.1385239
1	0x3d0e9e68	0.034819037
2	0xbeb93497	-0.36172935
3	0xbed2ea6f	-0.41194484
4	0x3ee817d7	0.45330688
5	0x3eea61d6	0.45777768
6	0x3e629732	0.22127989
7	0x3c88ae62	0.016684715
8	0x3ced3806	0.028957378
9	0x3e166ce4	0.14689976
10	0x3dd49438	0.10379833
11	0x3d905272	0.07046975
12	0xbe8287de	-0.25494283
13	0xbf4b4a53	-0.79410285
14	0xbed264a3	-0.41092405
15	0xbc7fef0c	-0.015620958
16	0xbca25ad6	-0.019818705
17	0xbcd9dad8	-0.02659361
18	0xbd73f5fb	-0.059560757
19	0x3c31a1c7	0.010841793
20	0xbd426d1b	-0.047467332
21	0x3d4d08ff	0.050057407
22	0x3ea3c821	0.31988624
23	0x3c90ec3f	0.017690776
24	0xbf0147bc	-0.5050008
25	0xbe6c5fcd	-0.2308342
26	0xbd5ca3ea	-0.053867258
27	0x3e622079	0.220827
28	0xbf215b8f	-0.6303033
29	0xbdb9d2d3	-0.09073415
30	0xbdf59a04	-0.11992267
31	0xbe3fc6a7	-0.18728124
32	0x3c8d4650	0.017245442
33	0x3dc55650	0.096356034
34	0x3ed86c7b	0.42270264
35	0x39df254c	0.00042561663
36	0x3e9617ed	0.2931513
37	0x3e82e2b3	0.25563583
38	0x3e9d7bfc	0.30758655
39	0xbf03c23e	-0.51468265
40	0x3ed7144b	0.4200767
41	0xbea23f2f	-0.3168883
42	0xbd3ab662	-0.04558409
43	0xbe00172e	-0.12508842
44	0x3e0fae63	0.14031367
45	0x3f2d5523	0.67708033
46	0x3dd0d210	0.10196316
47	0x3c6c52de	0.014424054
48	0xbf596f9b	-0.8493592
49	0x3e76299e	0.24039313
50	0x3bfde380	0.0077480674
51	0x3d2ca533	0.042149734
52	0x3e6017f8	0.21884143
53	0x3dc4423d	0.095829464
54	0xbe1322ba	-0.14368716
55	0x3c5f7de4	0.0136408545
56	0xbafa3d3e	-0.0019091738
57	0xbe545bfd	-0.20738216
58	0x3e0728d0	0.13199162
59	0xbd97f343	-0.07419445
60	0x3cd74102	0.026276115
61	0xbd161c12	-0.036647864
62	0x3c256138	0.01009398
63	0x3f84041f	1.0313758
64	0x3eb09e13	0.344956
65	0xbea5d1cc	-0.32386625
66	0xbd683f41	-0.05670095
67	0xbd51ade7	-0.051191237
68	0x3cf31eb5	0.029677728
69	0xbf44cbe9	-0.7687364
70	0xbdd561e6	-0.10419063
71	0x3ca39777	0.019969685
72	0x3ed45756	0.41472882
73	0x3ee84a8c	0.45369375
74	0xbda916b3	-0.08256283
75	0xbeffa884	-0.49933255
76	0xbbf7e110	-0.0075646713
77	0xbd19d56a	-0.037557043
78	0xbcb96a5e	-0.022633728
79	0xbe27cb43	-0.16386132
80	0x3d17067f	0.03687143
81	0xbe9b9752	-0.30388886
82	0x3e49f3ae	0.19721863
83	0x3da3efe9	0.080047436
84	0x3e88c736	0.26714486
85	0x3e2a0379	0.16602887
86	0xbe490e4a	-0.19634357
87	0xbd65af62	-0.05607546
88	0x3f6243f5	0.88384944
89	0x3f12f859	0.574102
90	0x3d57df08	0.052702934
91	0xbdfa0ac6	-0.12209086
92	0x3dea5833	0.11442604
93	0xbed7e0a9	-0.4216359
94	0x3e2d75fa	0.16939536
95	0x3dad056e	0.08448301
96	0x3f1d9a31	0.615634
97	0xbb9120b4	-0.0044289473
98	0xbe1811b8	-0.14850509
99	0xbf052d29	-0.52022034
100	0xbdbb8fa8	-0.0915826
101	0x3ddfcfc9	0.10928304
102	0xbeff8391	-0.49905065
103	0x3e0c8bb8	0.13725173
104	0xbd6995cf	-0.057027634
105	0x3d916a5d	0.07100365
106	0x3d2fd633	0.042928886
107	0xbdc279eb	-0.0949591
108	0x3c939f70	0.018020362
109	0xbe6c1b16	-0.23057207
110	0xbe84b4b4	-0.25919116
111	0xbf192fe0	-0.59838676
112	0x3f1626ce	0.5865296
113	0xbb89190c	-0.004183894
114	0x3e3d1f6b	0.18469016
115	0xbbdeca06	-0.0067989854
116	0x3db888bb	0.09010454
117	0x3f154b53	0.5831806
118	0xbe159eae	-0.14611313
119	0x3e24297b	0.16031449
120	0xbaa104f8	-0.0012284806
121	0x3e8475c8	0.2587111
122	0xbccf040a	-0.02527048
123	0xbe3a943a	-0.18220606
124	0x3f68b77c	0.90904975
125	0xbf39877a	-0.72472346
126	0x3b13e0bc	0.0022564372
127	0x3ddb93f2	0.10721578
128	0xbcfedc53	-0.031110918
129	0x3ec6c254	0.38820136
130	0xbe895706	-0.26824206
131	0xbda3ee98	-0.080044925
132	0x3b77a269	0.0037786013
133	0x3e784c31	0.24247815
134	0x3f6c5626	0.9231895
135	0x3f278ea8	0.6545205
136	0x3d7a9d76	0.061185323
137	0x3d8f9465	0.07010726
138	0x3df776de	0.12083219
139	0xbded3de9	-0.11584074
140	0x3d45fbbe	0.048335783
141	0x3ce046f9	0.027377592
142	0xbe21d6da	-0.15804616
143	0x3c9ff0b5	0.019523958
144	0xbdff12c7	-0.12454753
145	0x3e87a238	0.2649095
146	0x3f1088ec	0.56458926
147	0xbf1e13c6	-0.6174892
148	0x3edf83e8	0.43655324
149	0xbe4bc1f5	-0.19898207
150	0xbaf948c4	-0.0019018878
151	0xbdf207df	-0.118179075
152	0xbb5b15c8	-0.003342973
153	0xbf87c5b9	-1.0607215
154	0xbd45b862	-0.048271544
155	0xbc62d066	-0.013843631
156	0x3c962897	0.018329902
157	0xbd73af31	-0.059493247
158	0x3db25f5f	0.08709597
159	0xbe1d879d	-0.15383764
160	0xbf31be9f	-0.6943149
161	0xbefcb46d	-0.49356404
162	0x3d3a41e5	0.045473
163	0xbda08f6c	-0.078398556
164	0x3c45e22a	0.0120778475
165	0xbea06f3d	-0.31334868
166	0x3eb1d080	0.34729385
167	0x3dd2c5ed	0.102916576
168	0x3e7156de	0.23568293
169	0xbea3d69a	-0.31999665
170	0xbd4cd29e	-0.050005548
171	0x3e145067	0.14483796
172	0xbdf7cfa6	-0.12100153
173	0xbe6398e0	-0.22226286
174	0xbd97f991	-0.07420648
175	0x3da1171a	0.078657344
176	0x3e43d371	0.19123627
177	0x3e0e48fd	0.1389503
178	0xbd7c6b3c	-0.061625704
179	0xbdd445f9	-0.10364909
180	0xbd814677	-0.06312268
181	0x3e5c8092	0.2153342
182	0x3d542373	0.05179162
183	0x3db7db58	0.089773834
184	0xbf26be32	-0.65133965
185	0x3dc29b43	0.0950227
186	0x3d887b8a	0.06664188
187	0x3d00c153	0.03143437
188	0xbcc4568c	-0.02396705
189	0xbf1616d1	-0.58628565
190	0x3e35340d	0.17695637
191	0xbdb4f535	-0.08835832
192	0xbe92de9b	-0.2868546
193	0xbf62a006	-0.88525426
194	0x3dcc4600	0.09974289
195	0xbc544f16	-0.012958309
196	0x3e51fcfd	0.20506664
197	0xbeb68b7b	-0.3565329
198	0xbddf9338	-0.109167516
199	0xbd838477	-0.0642175
200	0x3d62ffe4	0.055419818
201	0xbe978991	-0.29597142
202	0xbe865250	-0.26234674
203	0x3ca32ef4	0.01991985
204	0xbe03e027	-0.12878476
205	0xbd1c409c	-0.038147554
206	0xbe688b53	-0.22709398
207	0xbd98c7c5	-0.07459978
208	0xbe198f2c	-0.14996022
209	0x3e57250f	0.2101023
210	0xbd85bace	-0.06529771
211	0x3e305d57	0.17223106
212	0xba948dfa	-0.0011333816
213	0xbe892e93	-0.26793346
214	0xbf8d44d2	-1.1036627
215	0xbd4015d5	-0.04689582
216	0x3e64de9a	0.22350541
217	0x3c0695d2	0.008214431
218	0x3e292022	0.16516164
219	0xbe78664a	-0.2425777
220	0xbee1c89a	-0.4409836
221	0x3dd7947a	0.105263665
222	0x3dd34dfa	0.10317607
223	0xbdbc320a	-0.09189232
224	0x3b21f022	0.002470978
225	0x3f15b177	0.58473915
226	0xbf9562ec	-1.1670814
227	0x3cf24730	0.02957496
228	0xbec7ba1b	-0.39009175
229	0x3ea05871	0.31317475
230	0x3edb9f15	0.42894807
231	0x3eb15751	0.3463693
232	0xbe8df665	-0.27727047
233	0xbea82fed	-0.32849064
234	0xbd5283eb	-0.051395338
235	0xbc16aaef	-0.009196027
236	0x3d8077bb	0.06272837
237	0x3ee73cca	0.45163566
238	0xbccf1492	-0.025278363
239	0x3cc76fcc	0.024345301
240	0xbe9f363d	-0.31096068
241	0xbe46ff35	-0.19433291
242	0xbd7a0f57	-0.061049785
243	0xbf277c5c	-0.6542413
244	0x3df9e920	0.12202668
245	0x3e97a08d	0.29614678
246	0x3de068fb	0.109575234
247	0x3e704651	0.23464324
248	0x3d50d58b	0.0509849
249	0x3e9ad1ad	0.30238095
250	0x3e36e264	0.17859799
251	0xbd843090	-0.06454575
252	0xbd1ddc2d	-0.038540054
253	0xbe3377da	-0.17526188
254	0xbeb8201a	-0.35961992
255	0xbe4bce25	-0.19902857

neg_net.linears.0.bias f4 [30]
0	0xbf199ac8	-0.600018
1	0xbe9b6925	-0.30353656
2	0xbdd7c070	-0.105347514
3	0x3c887b7c	0.016660444
4	0x3c846993	0.016163623
5	0xbc83d64b	-0.016093394
6	0x3d85b738	0.06529087
7	0xbecac6a2	-0.3960467
8	0xbd9261bf	-0.0714755
9	0xbe38d3e9	-0.18049587
10	0x3e367ee8	0.17821848
11	0x3e2e98bc	0.17050451
12	0xbf0f0328	-0.5586419
13	0xbf233941	-0.6375924
14	0xbf15c3ba	-0.5850178
15	0xbe8a61fa	-0.27027875
16	0x3d6ec848	0.05829647
17	0xbe4c1430	-0.19929576
18	0xbe33d4d6	-0.17561659
19	0x3ea1a5cd	0.31571808
20	0x3d4d849b	0.05017529
21	0xbefc839c	-0.4931916
22	0x3dd2748f	0.10276138
23	0xbe97faca	-0.29683524
24	0xbea148cd	-0.31500855
25	0x3c853b9e	0.01626378
26	0xbe2e119c	-0.16998905
27	0xbefc7751	-0.4930978
28	0x3e9b2565	0.30301967
29	0xbe16cfce	-0.14727709

neg_net.linears.1.weight f4 [30, 30]
0	0x3ae594b5	0.0017515632
1	0xbcb56e74	-0.022147395
2	0xbbac6cf9	-0.005262014
3	0xbb0a6a35	-0.0021120433
4	0x3aea933b	0.0017896661
5	0x3aff65ac	0.0019485257
6	0x3b101e02	0.0021990542
7	0xbab1938b	-0.0013548
8	0x3c17d831	0.009267853
9	0xbb4933bc	-0.0030701002
10	0x3a89b77c	0.0010506953
11	0x3c00d76b	0.00786386
12	0x3a24d601	0.00062879926
13	0xbb3e9dc3	-0.0029085733
14	0x3b84c342	0.004051597
15	0x3c0e1206	0.008671289
16	0x3b2c498c	0.0026288955
17	0x3aa44127	0.0012531624
18	0xbaa9aabf	-0.0012944563
19	0xbaf30827	-0.0018541858
20	0x3b0a991c	0.002114839
21	0xbb0e8fde	-0.0021753232
22	0xba98a336	-0.001164532
23	0x3c6129d8	0.0137428865
24	0xba95e49c	-0.0011435929
25	0x3b67fe22	0.0035399278
26	0xbbcb031f	-0.0061954404
27	0x3c210340	0.009827435
28	0xb9d129b8	-0.0003989467
29	0x3b0c39f0	0.0021396838
30	0xbb42ad2b	-0.0029705267
31	0xbcc59014	-0.024116553
32	0xbc6513f7	-0.013981811
33	0xbc10c80f	-0.00883676
34	0xbd059aae	-0.032618217
35	0xbda9fb55	-0.08299891
36	0xbe480b90	-0.1953566
37	0x3c4433bb	0.011975224
38	0xbe47ae91	-0.19500186
39	0x3b9ae89e	0.004727437
40	0xbdaed816	-0.08537309
41	0xba8f8e71	-0.0010952485
42	0xbdf03e54	-0.11730638
43	0x3c65aa89	0.0140177095
44	0xbd98bacd	-0.074575044
45	0xbcd3f8d4	-0.025875486
46	0xbdefbb03	-0.117055915
47	0xbd493dce	-0.049131207
48	0xbcbdb194	-0.023155965
49	0xbc88611b	-0.016647866
50	0xbddafb8a	-0.106925085
51	0xbd45228b	-0.048128646
52	0x3c5266ab	0.012841861
53	0xbd8615e6	-0.065471455
54	0xbd876189	-0.066104
55	0xbd6f5029	-0.058426056
56	0xbe64f995	-0.22360833
57	0xbcd50b02	-0.026006225
58	0xbdb8f98e	-0.09031974
59	0xbda965dd	-0.08271382
60	0xbdcea680	-0.10090351
61	0x3c81d1be	0.015847083
62	0xbc6b7be4	-0.0143728
63	0xbef82c86	-0.4847147
64	0x3e88e29b	0.26735386
65	0xbc954e4a	-0.018225808
66	0xbc9f5ba0	-0.01945287
67	0x3e58dbf8	0.21177661
68	0xbe468df0	-0.19390082
69	0xbded2404	-0.11579135
70	0xbe906f02	-0.28209692
71	0x3e6dbeb1	0.23217274
72	0x3e7ec6b1	0.24880482
73	0x3e7d59d9	0.24741305
74	0xbcb249dd	-0.021763736
75	0xbe24687d	-0.16055484
76	0x3e170bf3	0.14750652
77	0x3dfa427b	0.122197114
78	0x3d9ce1cb	0.07660254
79	0x3e4f4238	0.20240104
80	0x3e8b46da	0.27202493
81	0x3e40eb67	0.18839799
82	0x3e98e77f	0.29864118
83	0xbe12f1fc	-0.14350122
84	0x3d90fe56	0.07079761
85	0x3d9ba44c	0.075996965
86	0xbf002058	-0.5004935
87	0xbdcb6e8c	-0.099331945
88	0xbe676ccd	-0.22600098
89	0x3ebc8c0c	0.36825597
90	0xbd06ee3b	-0.032942038
91	0x3c88491c	0.016636424
92	0xbd1a3178	-0.037644833
93	0xbd8737bc	-0.06602427
94	0x3bffa6eb	0.0078018806
95	0x3b2b11d9	0.0026103167
96	0xba4820c0	-0.00076342747
97	0xbd12337a	-0.035693623
98	0xbd24a0f3	-0.040192556
99	0xbdc5e073	-0.09661951
100	0x3da64912	0.08119406
101	0x3b109cb2	0.0022066054
102	0x3d810709	0.0630017
103	0xbd295376	-0.04133936
104	0x3b878902	0.0041362057
105	0xbd0327aa	-0.03202025
106	0x3d291e6d	0.041288782
107	0x3c780c28	0.015139617
108	0x3d5429a6	0.05179753
109	0xbce3a876	-0.02779029
110	0xbc599e3c	-0.013282355
111	0xbca2af1b	-0.019858887
112	0x3d3135f6	0.04326435
113	0x3bb65b82	0.005565108
114	0x3c6d904c	0.014499735
115	0xbcd4979e	-0.025951203
116	0xbd3c0a48	-0.045908242
117	0xbcb3e881	-0.021961452
118	0xbc78f7e6	-0.015195822
119	0xbb0a5fee	-0.0021114307
120	0xbd8c3e06	-0.068477675
121	0x3e200a30	0.15628886
122	0x3df797f7	0.12089532
123	0xbe83ae4b	-0.25718912
124	0x3db70e98	0.089383304
125	0x3ec44b19	0.38338545
126	0xbe86c11b	-0.26319203
127	0x3ae581d8	0.001751001
128	0xbe73d67f	-0.23812293
129	0xbe4b3f4d	-0.19848366
130	0x3d45e154	0.048310593
131	0x3e0bc90d	0.13650914
132	0xbdc490ac	-0.095979065
133	0xbdbf27d0	-0.093337655
134	0xbe30eedb	-0.17278616
135	0xbd0c6505	-0.034276027
136	0x3dc73152	0.09726204
137	0x3d81d2f3	0.063390635
138	0xbe1c4ba7	-0.15263234
139	0x3e8a61be	0.27027696
140	0xbeb54394	-0.3540312
141	0xbde8f8e8	-0.113756
142	0x3e75510c	0.23956698
143	0x3e65850a	0.22414032
144	0xbec9578d	-0.39324608
145	0x3e340b67	0.17582475
146	0xbd448dfc	-0.04798697
147	0xbd5808b2	-0.052742667
148	0xbe70341b	-0.23457377
149	0x3cd8004e	0.026367333
150	0xbdcf8ad6	-0.10133903
151	0x3e0db9f2	0.13840464
152	0xbf10ec89	-0.56610924
153	0xbcbc42e5	-0.022981117
154	0x3d28f8f8	0.04125306
155	0x3f395de8	0.72408915
156	0xbe075b0b	-0.13218324
157	0xbe339194	-0.17536002
158	0x3eaa4060	0.3325224
159	0xbdb2d4a1	-0.08731962
160	0x3e3dafc3	0.18524079
161	0xbeea84b0	-0.45804358
162	0x3db1c4ab	0.086800896
163	0xbe690044	-0.22754008
164	0xbd616bb4	-0.055034354
165	0xbe8909e6	-0.26765364
166	0x3e0bf4c5	0.13667591
167	0xbdc2098f	-0.094744794
168	0xbe4065b5	-0.18788798
169	0x3db53a98	0.088490665
170	0xbf16fb2c	-0.5897701
171	0xbe8486cb	-0.2588409
172	0x3e73bfe4	0.23803669
173	0x3eec3f31	0.4614196
174	0xbec428e6	-0.38312453
175	0xbdbb81aa	-0.09155591
176	0x3e78eaed	0.24308367
177	0x3c2bcdd4	0.010486085
178	0x3e8c2826	0.2737438
179	0xbe78eaea	-0.24308363
180	0xbe4f3d19	-0.2023815
181	0x3f2213f2	0.63311684
182	0x3e29f3d1	0.16596915
183	0xbe9ebd1d	-0.31003657
184	0xbbc91a4c	-0.006137168
185	0x3e482af7	0.1954764
186	0xbea3d057	-0.31994888
187	0xbe22ddb3	-0.15904884
188	0xbd8f7b8c	-0.070059866
189	0x3cbb42d1	0.022859009
190	0x3eca9ca7	0.3957264
191	0xbe0da63e	-0.13832948
192	0x3caab34c	0.020837449
193	0xbe401e91	-0.1876166
194	0x3d77035c	0.060305938
195	0x3dbb6adb	0.091512404
196	0x3ed9c63f	0.42534062
197	0xbe11555d	-0.1419272
198	0xbd16c0d0	-0.036804974
199	0xbd307638	-0.043081492
200	0x3d7b9144	0.061417833
201	0xbee70a25	-0.45124927
202	0xbea2f70c	-0.31829107
203	0x3f160abc	0.5861013
204	0xbda06666	-0.07832031
205	0xbe5e7be4	-0.21726948
206	0x3e245865	0.16049345
207	0xbe71e836	-0.23623738
208	0x3e38f3be	0.1806173
209	0xbe48a6c8	-0.19594872
210	0xbd87dbbe	-0.06633709
211	0x3daa18cd	0.083055116
212	0xbe437455	-0.19087346
213	0x3de177ec	0.110092014
214	0xbe76ac0b	-0.24089067
215	0xbdc17e9a	-0.094479755
216	0xbecf04d2	-0.40433365
217	0xbd4c5e7d	-0.0498948
218	0x3e6adefb	0.22936623
219	0xbd125d2a	-0.03573338
220	0xbe51d0c2	-0.20489791
221	0x3e94b016	0.29040593
222	0xbe95354b	-0.29142222
223	0xbd2d6fb0	-0.04234284
224	0x3ea389ef	0.31941172
225	0xbeff3d5f	-0.4985151
226	0x3e993610	0.2992406
227	0x3eb91384	0.36147702
228	0x3f2830d7	0.65699524
229	0xbd237604	-0.03990747
230	0x3e30bea0	0.17260218
231	0x3edd8eb2	0.4327293
232	0x3ee054db	0.4381474
233	0x3d53c216	0.051698767
234	0xbd950051	-0.07275451
235	0x3a07d612	0.000518174
236	0xbd8bcba2	-0.06825949
237	0x3f04d353	0.51884955
238	0x3eae9459	0.34097555
239	0x3e57658a	0.21034828
240	0xbcfe6c30	-0.031057447
241	0x3c5700bb	0.013122733
242	0xbbb9c21f	-0.005668893
243	0xbdf8f2a0	-0.12155652
244	0x3bc771a4	0.006086545
245	0xbb64163a	-0.0034803287
246	0xbdd77820	-0.10520959
247	0x3b159d53	0.0022829368
248	0xbca09314	-0.019601382
249	0xbc9b18df	-0.018932758
250	0x3ba2076b	0.004944732
251	0xbdf60a8e	-0.12013732
252	0x3ac6a578	0.0015155515
253	0xbbf0424a	-0.007332121
254	0xbe498e9a	-0.19683304
255	0xbd13d26e	-0.036089353

neg_net.linears.1.bias f4 [30]
0	0xbd4e7d92	-0.050412722
1	0xbe05c39b	-0.13062899
2	0x3e8ddbcd	0.27706757
3	0xbde85eca	-0.113462046
4	0xbcde1f3e	-0.027114507
5	0x3c807dbd	0.015684957
6	0x3e66e75b	0.22549193
7	0xbdc546dc	-0.09632656
8	0xbea63bc5	-0.32467476
9	0xbe330319	-0.1748165
10	0xbeb479d7	-0.35249206
11	0xbe180982	-0.14847377
12	0x3e24d7eb	0.16097991
13	0x3e7d77fa	0.24752799
14	0xbdf48c3c	-0.1194081
15	0xbd0d03a7	-0.03442731
16	0xbc484340	-0.012223065
17	0xbe610293	-0.21973638
18	0xbd8fa3e1	-0.07013679
19	0x3ceb6082	0.028732542
20	0xbea737d6	-0.32659787
21	0xbd81190f	-0.06303608
22	0x3da03671	0.07822884
23	0xbe543fdb	-0.20727484
24	0xbe4987f0	-0.19680762
25	0x3c64ade7	0.013957477
26	0xbe6638a7	-0.22482549
27	0xbd4f22e4	-0.050570384
28	0x3e33245b	0.17494337
29	0xbda5f4ea	-0.08103354
