data/Backup/2/train/N100/D6_SinCosInput/3/result/model/ReLU_Dual_UDirection_BP.pt (torch_old, 22776 bytes, 20 tensors)

input_mean f4 [12]
-0.015756981 0.22982161 0.033805575 0.26437622 0.3020048 0.012494783 0.9182602 0.9298343
0.9435262 0.30548048 0.2725758 0.9230184
00000000: c914 81bc 5b56 6b3e b777 0a3d 525c 873e
00000010: 60a0 9a3e ebb6 4c3c 1a13 6b3f 9f09 6e3f
00000020: ef8a 713f f067 9c3e 0e8f 8b3e ef4a 6c3f

input_std f4 [12]
0.39043498 0.27423742 0.32568684 0.60464174 0.6192172 0.3784125 0.06410775 0.085935235
0.050429836 0.6864373 0.6716147 0.06843057
00000000: 18e7 c73e d968 8c3e 6dc0 a63e cdc9 1a3f
00000010: 0585 1e3f 48bf c13e ed4a 833d d0fe af3d
00000020: 848f 4e3d 5bba 2f3f f1ee 2b3f 5425 8c3d

output_mean f4 [6]
0.026538359 0.46320707 0.19537899 -0.025822915 0.005492363 0.0037278698
00000000: f966 d93c 7a29 ed3e 6e11 483e 948a d3bc
00000010: 48f9 b33b 474f 743b

output_std f4 [6]
0.035918858 0.15410656 0.13154429 0.09472028 0.030861167 0.016598878
00000000: a71f 133d 1cce 1d3e 8cb3 063e b5fc c13d
00000010: 8fd0 fc3c 5ffa 873c

pos_net.linears.0.weight f4 [30, 12]
0.37490124 0.38101688 -0.3600805 -0.2851798 -0.29609472 -0.11452387 0.09859545 -0.3403633
0.2447933 0.075724855 0.14325428 -0.7825602 0.6583797 0.040574946 -0.12591523 0.17243537
0.15796404 -0.2586413 0.13156556 0.47634375 0.16955698 0.735604 -0.18596049 -0.42919257
-0.042315185 0.022403019 0.21678975 0.28086495 0.28939041 0.65230334 -0.09345809 0.5059807
-0.42621446 0.17510983 0.13842317 -0.34775895 -0.24523088 -0.2794634 -0.25899708 0.7199631
-0.23737061 0.26029617 0.46560457 -0.052563775 0.20318365 -0.03599391 -0.047968842 -0.091839656
-0.8696933 -0.41073492 -0.7497528 0.07416891 -0.31180158 0.17436534 0.25343508 0.32514653
0.23862341 0.1810073 0.5236241 -0.19984211 -0.58890903 -0.18845977 0.07235027 0.08176379
0.23987013 0.48838928 -0.66092545 0.30475637 -0.0570721 0.3708101 -0.05871629 0.08732055
-0.29729012 0.013898319 0.043228228 -0.5899353 0.7842489 0.13182372 -0.5086613 0.27358365
-0.09024375 0.32174942 0.15803748 0.06382784 0.30701825 0.47804782 -0.27262887 -0.6463041
-0.28810564 0.08337225 0.027288908 0.18863174 0.32137632 -0.34937707 0.2834839 0.15781316
-0.07180428 -0.14406802 0.020863326 -0.40308377 0.29388526 0.016229723 0.11394624 0.3907737
-0.57472515 0.2519562 -0.0040749386 0.5074427 0.102931574 -0.35413262 -0.18721613 -0.48761976
-0.24573186 -0.0044157673 -0.09306796 0.38691634 0.12805259 0.24331017 -0.22127108 0.2417942
-0.022667885 -0.13274518 0.013720982 -0.40380475 -0.46972916 -0.09709776 -0.69720685 0.27038574
0.2857819 -0.49680227 0.1191661 0.40263715 -0.4661854 -0.066432804 0.18449256 -0.47356895
0.011956908 -0.14432691 -0.03410291 -0.4207746 0.22137621 -0.15437025 0.40780535 0.084760055
-0.23075256 -0.2181773 -0.81873184 -0.31133088 -0.16813265 0.5229273 0.3411729 0.09013016
0.27290413 0.09763878 0.24782981 -0.23691168 0.10047353 0.24657038 0.029913582 0.5652135
0.04276721 -0.11061269 0.018057939 -0.15415275 0.076622605 -0.5056321 -0.18582556 0.30165067
-0.35656604 -0.5410512 -0.45072457 0.48739892 -0.069581755 0.043540724 -0.52101463 -0.047931492
-0.068633065 0.24736254 0.14430036 -0.14617114 -0.2973149 0.3398755 -0.45490745 -0.39973915
-0.07728593 -0.1465687 -0.121074505 0.22167797 0.5285593 -0.2182631 -0.4751931 0.10215966
-0.2021457 -0.585462 -0.4158599 0.5461755 0.35330993 -0.68714076 -0.11340648 -0.07373764
0.26275337 0.15364777 0.34681854 0.012019452 0.42528316 0.26846823 -0.21662994 -0.30167484
-0.39062473 0.052690558 0.023557242 -0.20804866 -0.3185428 0.773763 0.78264725 -0.03219204
0.18961374 0.056708694 -0.025088875 -0.5524738 0.0016813725 -0.40269944 -0.30493346 0.13123181
-0.17806546 -0.2490399 0.47860032 0.33891457 -0.10021759 -0.2604906 -0.31177893 -0.2635508
0.38054708 -0.1877153 0.24573797 0.38229048 -0.034184113 0.48140597 -0.27099922 -0.067083016
0.51632226 -0.0042457017 0.15369815 0.25856638 0.052502524 0.40146935 -0.2217079 0.036157683
-0.22545727 -0.4427695 0.04381665 0.44158518 -0.31194714 0.032613855 -0.35527062 -0.3363324
00000000: 0ef3 bf3e a514 c33e 795c b8be 1603 92be
00000010: ba99 97be 7e8b eabd 69ec c93d 1944 aebe
00000020: 18ab 7a3e a215 9b3d 40b1 123e de55 48bf
00000030: 928b 283f ea31 263d ecef 00be e692 303e
00000040: 53c1 213e a26c 84be 1fb9 063e 54e3 f33e
00000050: 58a0 2d3e 8b50 3c3f 6d6c 3ebe 21bf dbbe
00000060: b052 2dbd 8986 b73c 22fe 5d3e 88cd 8f3e
00000070: fb2a 943e 5afd 263f f566 bfbd f387 013f
00000080: c838 dabe fe4f 333e cebe 0d3e 760d b2be
00000090: ce1d 7bbe d415 8fbe 449b 84be 804f 383f
000000a0: 4811 73be 8a45 853e b963 ee3e 1d4d 57bd
000000b0: 600f 503e 5a6e 13bd fa7a 44bd 6e16 bcbd
000000c0: 38a4 5ebf d94b d2be cdef 3fbf dfe5 973d
000000d0: 75a4 9fbe d48c 323e 3ec2 813e 9b79 a63e
000000e0: b259 743e fa59 393e 3b0c 063f 69a3 4cbe
000000f0: bec2 16bf 99fb 40be 612c 943d c673 a73d
00000100: 84a0 753e 290e fa3e 6932 29bf 0709 9c3e
00000110: 6fc4 69bd d2da bd3e 7e80 70bd 1ed5 b23d
00000120: 6936 98be c6b5 633c 1510 313d 0006 17bf
00000130: 89c4 483f ccfc 063e a137 02bf 2813 8c3e
00000140: b7d1 b8bd 57bc a43e 94d4 213e 2cb8 823d
00000150: 7f31 9d3e afc2 f43e 0396 8bbe 2f74 25bf
00000160: 9582 93be 12bf aa3d fd8c df3c ae28 413e
00000170: 708b a43e 8de1 b2be cd24 913e c699 213e
00000180: 1f0e 93bd 9186 13be 91e9 aa3c ff60 cebe
00000190: 2178 963e 32f4 843c a55c e93d 7e13 c83e
000001a0: 3021 13bf 6700 813e 1087 85bb c4e7 013f
000001b0: cacd d23d df50 b5be 96b5 3fbe 4ca9 f9be
000001c0: 22a1 7bbe 24b2 90bb 6a9a bebd e619 c63e
000001d0: 3820 033e 4d26 793e e394 62be e698 773e
000001e0: 00b2 b9bc 5aee 07be f8cd 603c 7fbf cebe
000001f0: 5780 f0be 31db c6bd 267c 32bf 0070 8a3e
00000200: 0152 923e de5c febe 5b0d f43d 7526 ce3e
00000210: daaf eebe ec0d 88bd 9eeb 3c3e a177 f2be
00000220: e8e6 433c 6fca 13be 7eaf 0bbd c56f d7be
00000230: 72b0 623e 3c13 1ebe ddcb d03e ae96 ad3d
00000240: 664a 6cbe df69 5fbe 6998 51bf c366 9fbe
00000250: f72a 2cbe 90de 053f 37ae ae3e 2996 b83d
00000260: 17ba 8b3e d7f6 c73d 19c7 7d3e fa98 72be
00000270: 11c5 cd3d f27c 7c3e 540d f53c d5b1 103f
00000280: ac2c 2f3d e888 e2bd 3eee 933c 38da 1dbe
00000290: 50ec 9c3d 1b71 01bf 0e49 3ebe f571 9a3e
000002a0: d38f b6be 5582 0abf 5fc5 e6be 5a8c f93e
000002b0: e180 8ebd c257 323d 3761 05bf d053 44bd
000002c0: 7e8f 8cbd 9b4c 7d3e 79c3 133e e3ad 15be
000002d0: a939 98be 2904 ae3e a1e9 e8be 9caa ccbe
000002e0: 1648 9ebd 1b16 16be e9f5 f7bd 8dff 623e
000002f0: aa4f 073f 5d80 5fbe 834c f3be 1539 d13d
00000300: 48ff 4ebe d6e0 15bf 97eb d4be 28d2 0b3f
00000310: 0ae5 b43e 75e8 2fbf a841 e8bd c303 97bd
00000320: 9c87 863e d755 1d3e 3392 b13e 3ced 443c
00000330: b7be d93e ab74 893e 3dd4 5dbe 2075 9abe
00000340: f7ff c7be 0ed2 573d 1efb c03c b50a 55be
00000350: 0b18 a3be 5515 463f 925b 483f cddb 03bd
00000360: 1b2a 423e 6047 683d 2f87 cdbc ec6e 0dbf
00000370: 8061 dc3a 9f2e cebe 3d20 9cbe a261 063e
00000380: cb56 36be 5104 7fbe 1a0b f53e 3686 ad3e
00000390: e13e cdbd 065f 85be 7da1 9fbe 21f0 86be
000003a0: 11d7 c23e 7138 40be bca2 7b3e 94bb c33e
000003b0: a404 0cbd d87a f63e 69c0 8abe d262 89bd
000003c0: b22d 043f 871f 8bbb 0c63 1d3e d062 843e
000003d0: e30c 573d 648d cd3e 6507 63be 141a 143d
000003e0: 45de 66be afb2 e2be 1679 333d 7417 e23e
000003f0: 89b7 9fbe 1b96 053d 08e6 b5be c333 acbe

pos_net.linears.0.bias f4 [30]
-0.27793163 -0.27260163 -0.15500431 0.0145435715 0.01026405 -0.3030626 -0.13321763 -0.24284753
-0.20490967 -0.4555623 -0.051992085 -0.24253495 -0.09827924 0.0073824693 -0.30597925 -0.06549694
-0.45026666 -0.003055729 -0.45833504 -0.13423067 0.18935846 -0.29841897 -0.12612079 -0.3547581
-0.16033123 -0.17750297 0.0921437 -0.09172477 -0.029851213 -0.0851556
00000000: 0e4d 8ebe 7192 8bbe 73b9 1ebe 2948 6e3c
00000010: 8c2a 283c 052b 9bbe 346a 08be 06ad 78be
00000020: d7d3 51be 763f e9be a7f5 54bd 155b 78be
00000030: a046 c9bd a4e8 f13b 50a9 9cbe 4223 86bd
00000040: 5a89 e6be a042 48bb e4aa eabe c473 09be
00000050: 2fe7 413e 5fca 98be cf25 01be dba2 b5be
00000060: df2d 24be 57c3 35be d6b5 bc3d 32da bbbd
00000070: 888a f4bc 0f66 aebd

pos_net.linears.1.weight f4 [30, 30]
-0.26881936 0.39147457 -0.09729697 -0.17135772 0.105672516 -0.0048673274 0.25005773 0.26349762
0.29242834 0.16769154 -0.14558658 -0.11083135 0.14355394 -0.09290353 -0.10477028 0.31791645
-0.56493586 -0.054479558 -0.17549597 0.33904085 -0.39792237 0.34118807 -0.5583637 0.03178897
0.176427 -0.16185668 -0.10030809 -0.20289744 -0.087703176 0.10494768 -0.0065390198 -0.019899955
0.30454114 0.21468796 0.07154864 0.4187529 -0.26223034 -0.6625672 -0.042223297 -0.3344677
-0.22602825 -0.37251812 0.10585457 0.097050875 -0.0039392943 0.020127632 -0.20893945 -0.1559206
-0.17325886 -0.8069193 0.18442029 -0.9287792 -0.5214106 -0.3600335 -0.24429949 -0.35111815
-0.17075072 0.20570034 0.2657092 0.19284302 -0.022242859 -0.069004714 -0.025844844 0.014740588
-0.31381118 0.048779663 -0.26692018 0.04287208 -0.14259714 0.051499646 -0.11869432 -0.07242884
-0.09044109 -0.113444634 0.019652303 -0.14701438 0.036324937 -0.15439884 -0.046042167 -0.091789514
0.066727 -0.105647445 0.011940192 -0.15949143 -0.19352329 -0.086713545 -0.101694345 -0.21636257
0.05981768 -0.008148732 -0.02074142 0.2865287 -0.13185894 -0.403348 -0.09120824 -0.73610276
0.26417732 0.22212921 -0.05318546 -0.3952719 -0.005038712 0.081030354 -0.32205266 0.24657032
-0.17811911 0.33028567 -0.33037117 0.22351974 0.16789062 0.22198693 -0.061967865 0.2779173
-0.078306496 0.14019813 -0.38581687 0.021010173 -0.36338964 0.37218788 -0.24448681 -0.28961256
-0.0005121289 -0.21147364 -0.10279747 -0.23979264 -0.41127792 -0.043320753 -0.28207797 0.10505796
0.27224457 -0.08550709 -0.31936216 0.12683661 -0.25978392 -0.17418247 -0.15896426 -0.49828437
-0.29714742 0.5201349 0.07154633 -0.04594071 -0.119738705 -0.4162492 0.04045564 -0.1308876
-0.18613608 -0.34998056 -0.14119811 -0.29348424 -0.19075264 -0.16970393 0.05832953 -0.119751416
-0.11114045 -0.13155413 -0.16328774 -0.12087265 0.07166072 0.050839167 0.032036394 0.040543906
-0.09821887 -0.053664953 0.07637915 -0.13282172 -0.094873115 0.012429106 -0.008290251 -0.21755452
0.056162134 -0.1932567 -0.15551572 0.046827193 -0.1832328 -0.12741221 0.02425206 -0.1562896
-0.11906372 -0.20128383 -0.15243897 -0.027564026 0.13110778 -0.4614027 0.026321555 -0.066536054
-0.004346428 -0.003752268 0.2841083 0.25060782 0.24372435 0.052629974 0.3335471 -0.10698486
-0.13278566 -0.045671444 0.2538916 0.25503233 0.19891764 -0.25244477 0.19460805 0.030748354
-0.09643497 0.27880308 0.17266448 0.25227144 0.12774567 0.07714188 0.1559325 0.3422276
-0.53970397 -0.1801037 -0.12801889 -0.14736703 0.603871 -0.22699787 0.006657292 0.5290816
0.23214471 -0.047288444 0.15806563 -0.48341602 0.15818267 0.12022719 0.3008207 0.03325816
-0.26648793 0.3461791 -0.48304865 0.0004224698 -0.2710536 -0.22831972 -0.36449605 0.26690587
0.13470428 0.18717809 0.099162824 -0.05729845 -0.22315481 0.23204099 -0.6529293 -0.042412497
0.049244426 0.059254892 0.034963913 -0.1430053 -0.04394008 -0.02034733 -0.1273455 -0.20197427
-0.08002922 0.08596384 0.09813124 -0.104390614 -0.075977914 -0.1011088 -0.05659742 -0.15855472
00000000: b1a2 89be 5b6f c83e a243 c7bd 6678 2fbe
00000010: d56a d83d 1a7e 9fbb 9107 803e 29e9 863e
00000020: 2bb9 953e 55b7 2b3e a614 15be 8cfb e2bd
00000030: ceff 123e 3544 bebd cd91 d6bd f2c5 a23e
00000040: a39f 10bf f525 5fbd 37b5 33be c396 ad3e
00000050: 7bbc cbbe 34b0 ae3e ecf0 0ebf 2735 023d
00000060: 48a9 343e c2bd 25be 546e cdbd 59c4 4fbe
00000070: b99d b3bd cfee d63d 4645 d6bb 3b05 a3bc
00000080: d1ec 9b3e 29d7 5b3e 1888 923d c866 d63e
00000090: 0e43 86be 019e 29bf 56f2 2cbd 5a3f abbe
000000a0: f373 67be b2ba bebe 48ca d83d 9cc2 c63d
000000b0: 3215 81bb b4e2 a43c 39f4 55be a6a9 1fbe
000000c0: c56a 31be 4392 4ebf acd8 3c3e 79c4 6dbf
000000d0: 2a7b 05bf 5056 b8be a529 7abe c2c5 b3be
000000e0: 47d9 2ebe 1ca3 523e 090b 883e a478 453e
000000f0: a836 b6bc 5852 8dbd 91b8 d3bc 8282 713c
00000100: dcab a0be 2fcd 473d c3a9 88be a29a 2f3d
00000110: fc04 12be 4bf1 523d 0216 f3bd 9255 94bd
00000120: 2e39 b9bd a955 e8bd defd a03c f08a 16be
00000130: 75c9 143d bb1a 1ebe b696 3cbd 24fc bbbd
00000140: 2aa8 883d b05d d8bd cca0 433c b951 23be
00000150: f82a 46be df96 b1bd 2045 d0bd 268e 5dbe
00000160: 6203 753d 4282 05bc e9e9 a9bc e4b3 923e
00000170: 0806 07be a183 cebe 63cb babd 3b71 3cbf
00000180: 4042 873e d775 633e ffd8 59bd 1461 cabe
00000190: c81b a5bb 3ef3 a53d 16e4 a4be ee7c 7c3e
000001a0: db64 36be 341b a93e 6926 a9be 5ce2 643e
000001b0: 85eb 2b3e 8b50 633e 04d2 7dbd 2d4b 8e3e
000001c0: 285f a0bd 1990 0f3e ca89 c5be 871d ac3c
000001d0: 350e babe 698f be3e c05a 7abe 1948 94be
000001e0: 6440 06ba 8c8c 58be 7b87 d2bd 348c 75be
000001f0: 0593 d2be 1a71 31bd 866c 90be a128 d73d
00000200: a463 8b3e 571e afbd 7083 a3be 75e1 013e
00000210: 6602 85be e45c 32be 87c7 22be 211f ffbe
00000220: b523 98be 9027 053f e286 923d 532c 3cbd
00000230: 9139 f5bd 9d1e d5be d0b4 253d 6607 06be
00000240: 759a 3ebe a730 b3be 3d96 10be 9143 96be
00000250: a954 43be dec6 2dbe f2ea 6e3d 3b40 f5bd
00000260: 9b9d e3bd 20b6 06be e734 27be 148c f7bd
00000270: dbc2 923d bb3c 503d 9838 033d 5e11 263d
00000280: fa26 c9bd c8cf 5bbd ac6c 9c3d 6b02 08be
00000290: d64c c2bd 73a3 4b3c d5d3 07bc 9dc6 5ebe
000002a0: 440a 663d 16e5 45be 833f 1fbe dfcd 3f3d
000002b0: 61a1 3bbe 5978 02be 42ac c63c 620a 20be
000002c0: aed7 f3bd 591d 4ebe f618 1cbe f4cd e1bc
000002d0: 1e41 063e fa3c ecbe 4da0 d73c 0e44 88bd
000002e0: 7b6c 8ebb 9ce8 75bb a576 913e ab4f 803e
000002f0: e092 793e 8792 573d afc6 aa3e e11a dbbd
00000300: f7f8 07be fb11 3bbd 14fe 813e 9993 823e
00000310: 11b1 4b3e 7140 81be 5547 473e f9e3 fb3c
00000320: b37f c5bd 47bf 8e3e f5ce 303e b929 813e
00000330: c3cf 023e 90fc 9d3d c5ac 1f3e 7538 af3e
00000340: 0a2a 0abf 1b6d 38be 6217 03be 62e7 16be
00000350: 4a97 1a3f 2172 68be 6a25 da3b e471 073f
00000360: 58b7 6d3e 87b1 41bd f5db 213e 4e82 f7be
00000370: a3fa 213e ac39 f63d 2c05 9a3e b539 083d
00000380: 1b71 88be 633e b13e 2752 f7be f07e dd39
00000390: 8ac7 8abe a5cc 69be 3a9f babe e3a7 883e
000003a0: ebef 093e 9dab 3f3e e115 cb3d c8b1 6abd
000003b0: b282 64be 279c 6d3e 6026 27bf bab8 2dbd
000003c0: 86b4 493d 42b5 723d 5236 0f3d fb6f 12be
000003d0: 83fa 33bd 72af a6bc dc66 02be 58d2 4ebe
000003e0: 5ce6 a3bd cf0d b03d 08f9 c83d bfca d5bd
000003f0: 4f9a 9bbd 2112 cfbd b2d2 67bd 2b5c 22be

pos_net.linears.1.bias f4 [30]
0.11343844 0.0013913513 -0.29767242 0.1272377 -0.20563349 -0.25381005 -0.1908886 0.12538026
-0.20413774 0.11730496 -0.1038318 -0.097272374 -0.27909946 -0.25825757 -0.07360169 -0.25532472
-0.092538945 0.06592556 -0.12724051 -0.004355889 0.16479251 -0.2466473 -0.12113757 -0.08284306
-0.40990037 -0.37185088 -0.13796705 0.20139346 -0.3213269 -0.1595779
00000000: 6a52 e83d 015e b63a 8568 98be 9a4a 023e
00000010: 9691 52be 64f3 81be 4d78 43be af63 003e
00000020: 7c09 51be 953d f03d c4a5 d4bd bd36 c7bd
00000030: 20e6 8ebe 563a 84be 7cbc 96bd ecb9 82be
00000040: 0f85 bdbd fb03 873d 564b 02be d8bb 8ebb
00000050: 5ebf 283e 1c91 7cbe f916 f8bd 9fa9 a9bd
00000060: 76de d1be 3d63 bebe 3c47 0dbe 163a 4e3e
00000070: f684 a4be 6468 23be

pos_net.linears.2.weight f4 [30, 30]
0.14890352 0.22187543 0.11118448 0.28466824 -0.100244306 -0.014792843 0.42732182 0.25636232
-0.21290937 -0.15318811 0.1161131 -0.056157596 -0.076749876 -0.009846811 0.31067166 -0.11277772
0.0014703709 0.1625186 -0.07659483 0.024572425 0.107100904 0.012649208 -0.021209288 0.11407781
0.1311208 0.15268612 0.26991248 -0.44545627 0.17390203 0.18851541 -0.12689851 -0.26779592
-0.12025677 -0.31730705 -0.22492312 0.11757041 0.08959918 -0.37308788 0.058439992 0.18021958
-0.38958806 -0.023409754 0.030694013 -0.04713274 -0.29350954 0.3019754 0.30437067 -0.39892402
-0.47163653 0.062932976 0.31919032 0.16049564 0.022612248 -0.0019370308 0.033795204 -0.15936145
0.23583545 0.03610182 -0.3041825 0.1131035 0.3437925 -0.43113762 0.15132466 -0.02971609
0.11183779 0.03740923 0.013257125 0.22148386 -0.05409854 -0.22906256 -0.039153952 0.2415302
-0.060701378 0.017835177 0.2460405 -0.30718973 -0.25977576 0.1842728 0.0015660343 0.09022551
-0.41269693 -0.094604 -0.12527062 0.010797236 -0.32737437 -0.015776362 -0.061690956 -0.4766964
-0.31165907 0.01755062 -0.28283224 -0.30182266 -0.10556242 -0.17820248 0.13791463 -0.10046176
-0.32567286 -0.18629646 -0.103334986 -0.21340004 -0.2230916 -0.01248122 -0.27110174 0.02072633
0.03706671 -0.10849853 -0.16580784 -0.39788955 0.28397337 -0.031523854 -0.040817983 -0.067009844
-0.11885228 -0.23254803 0.06744843 -0.08118993 -0.26116592 -0.052059557 -0.23144935 -0.21969041
-0.3727901 -0.09706249 0.008336663 -0.23305193 -0.14044343 -0.007930245 -0.2626438 -0.3014934
-0.039331824 -0.31302106 -0.1368455 -0.0077439053 0.1526469 0.0053023766 0.07989993 -0.12006872
-0.07702497 -0.1459906 0.0025557068 -0.018236017 -0.40849602 0.0032365555 -0.42239717 -0.032186814
-0.050508842 0.02398874 -0.027081408 0.009392152 -0.21770166 -0.021694364 -0.15217271 0.0044362647
0.0061565377 0.055319004 -0.16043878 0.040479742 -0.025381938 0.053545963 -0.1138865 0.0061584427
-0.13559295 -0.00624457 0.04006838 -0.0009277584 -0.003426971 -0.17099649 -0.0822732 -0.011098793
0.041810177 -0.0126202665 -0.18292084 0.019958366 0.00973485 -0.14765644 0.06294453 0.016826576
0.020157456 -0.035601575 -0.018295696 -0.13510646 -0.06393548 0.012574245 -0.04269285 0.13470218
-0.3840983 0.38142627 -0.07090808 -0.3927106 0.2592217 -0.16121173 -0.23441449 -0.1251211
-0.14105013 0.028060924 -0.2648677 -0.11561755 0.38629636 -0.2585824 -0.074519105 0.021561075
0.27053207 0.100081764 0.0641181 -0.23166491 -0.3742579 -0.090484604 -0.1688466 0.2502864
-0.2245327 -0.16476868 -0.33494303 0.036996663 -0.035834733 -0.06344135 -0.21621898 -0.14706014
-0.031540938 -0.16696058 0.06940162 0.015716054 -0.17230166 -0.0054358803 -0.07322178 -0.005280285
0.03997473 -0.19526614 -0.17349763 -0.0012285989 0.025030108 0.029896628 -0.37000868 -0.10925224
-0.0011985973 -0.22919625 -0.029039945 -0.043001175 -0.21295679 -0.23625693 -0.033518758 -0.19114932
0.29175684 -0.15926519 -0.05088039 -0.58583355 -0.13734141 -0.19036578 -0.28115517 0.07278531
0.021102995 0.14859752 -0.71053797 -0.009301411 0.222945 0.005147784 -0.40985107 -0.18268736
00000000: 2a7a 183e 5033 633e b0b4 e33d 09c0 913e
00000010: e34c cdbd ae5d 72bc edc9 da3e ec41 833e
00000020: ea04 5abe 58dd 1cbe b4cc ed3d 8205 66bd
00000030: 0a2f 9dbd 8554 21bc 5b10 9f3e 01f8 e6bd
00000040: 76b9 c03a 476b 263e c0dd 9cbd 1c4c c93c
00000050: b857 db3d a03e 4f3c 1abf adbc a0a1 e93d
00000060: 8844 063e c059 1c3e f831 8a3e d812 e4be
00000070: 6013 323e 2f0a 413e aff1 01be 8c1c 89be
00000080: 2e49 f6bd 1276 a2be 3f52 66be c1c8 f03d
00000090: c67f b73d 6005 bfbe c65e 6f3d 7b8b 383e
000000a0: 1678 c7be d0c5 bfbc 0372 fb3c 430e 41bd
000000b0: e246 96be 859c 9a3e 79d6 9b3e c53f ccbe
000000c0: 587a f1be 01e3 803d ea6c a33e f858 243e
000000d0: 523d b93c f8e3 fdba d76c 0a3d a62f 23be
000000e0: d97e 713e 81df 133d cfbd 9bbe cfa2 e73d
000000f0: 9205 b03e 12be dcbe daf4 1a3e 286f f3bc
00000100: 360b e53d 6c3a 193d 6a34 593c aacc 623e
00000110: 6e96 5dbd 608f 6abe e55f 20bd b153 773e
00000120: 02a2 78bd 141b 923c 0af2 7b3e f947 9dbe
00000130: 5401 85be 02b2 3c3e 6443 cd3a 27c8 b83d
00000140: 034d d3be bebf c1bd f146 00be e4e6 303c
00000150: 9d9d a7be 6e3d 81bc a8af 7cbd 8d11 f4be
00000160: c791 9fbe 51c6 8f3c 63cf 90be 8088 9abe
00000170: 1c31 d8bd b67a 36be 7e39 0d3e e5be cdbd
00000180: 98be a6be 80c4 3ebe 4ba1 d3bd 8a85 5abe
00000190: 2072 64be 087e 4cbc d9cd 8abe 44ca a93c
000001a0: 43d3 173d 7a34 debd 88c9 29be 2eb8 cbbe
000001b0: f564 913e 281f 01bd c230 27bd 753c 89bd
000001c0: d368 f3bd 1221 6ebe 6722 8a3d e846 a6bd
000001d0: 8ab7 85be 673c 55bd 0f01 6dbe 86f6 60be
000001e0: 58de bebe b3c8 c6bd 8096 083c 2aa5 6ebe
000001f0: 67d0 0fbe dced 01bc 4079 86be 585d 9abe
00000200: 681a 21bd 4c44 a0be 3a21 0cbe 96c0 fdbb
00000210: 784f 1c3e 8fbf ad3b 93a2 a33d 97e6 f5bd
00000220: 44bf 9dbd 8f7e 15be a57d 273b b363 95bc
00000230: 6426 d1be 641c 543b 7144 d8be 52d6 03bd
00000240: 5ce2 4ebd 0984 c43c d4d9 ddbc 8ae1 193c
00000250: 2fed 5ebe 61b8 b1bc 2ad3 1bbe 165e 913b
00000260: c8bc c93b 2e96 623d 104a 24be 16ce 253d
00000270: c8ed cfbc 0353 5b3d 533d e9bd c3cc c93b
00000280: e1d8 0abe 409f ccbb be1e 243d d034 73ba
00000290: 0897 60bb b419 2fbe da7e a8bd b6d7 35bc
000002a0: 2641 2b3d 3cc5 4ebc 9a4f 3bbe ba7f a33c
000002b0: ec7e 1f3c 4033 17be 10e9 803d e3d7 893c
000002c0: 4021 a53c f5d2 11bd dbe0 95bc 5959 0abe
000002d0: 9bf0 82bd 3504 4e3c b3de 2ebd 5eef 093e
000002e0: 88a8 c4be 4e4a c33e 4138 91bd 5d11 c9be
000002f0: b5b8 843e b014 25be 5a0a 70be bf1f 00be
00000300: 726f 10be 06e0 e53c bd9c 87be e5c8 ecbd
00000310: a3c8 c53e ea64 84be 799d 98bd daa0 b03c
00000320: 2e83 8a3e abf7 cc3d 5a50 833d 9139 6dbe
00000330: bb9e bfbe fe4f b9bd 20e6 2cbe 8a25 803e
00000340: e6eb 65be 1fb9 28be a77d abbe d089 173d
00000350: 71c7 12bd 8aed 81bd 8268 5dbe ef96 16be
00000360: 1231 01bd b7f7 2abe 7022 8e3d f4be 803c
00000370: d96f 30be 781f b2bb 4df5 95bd 3e06 adbb
00000380: 8bbc 233d d9f3 47be 5da9 31be f008 a1ba
00000390: f10b cd3c c6e9 f43c c771 bdbe a3bf dfbd
000003a0: 401a 9dba 6cb2 6abe 2ee5 edbc 0022 30bd
000003b0: 5811 5abe 56ed 71be f74a 09bd a6bc 43be
000003c0: 2761 953e 6a16 23be f567 50bd 30f9 15bf
000003d0: 3aa3 0cbe 3fef 42be 92f3 8fbe 7710 953d
000003e0: 30e0 ac3c f329 183e d1e5 35bf f264 18bc
000003f0: b24b 643e beae a83b 00d8 d1be 6512 3bbe

pos_net.linears.2.bias f4 [30]
0.032857526 0.15745291 0.1592602 -0.31498948 -0.16853325 -0.35583588 0.21612683 -0.27917647
-0.031869363 0.011676971 -0.114983246 -0.13213275 0.05846425 0.25279292 0.07181846 -0.2924785
0.1597817 0.4171331 -0.24647252 -0.21305333 0.23874326 -0.114667185 -0.24198447 0.29374227
-0.3182435 -0.33538437 0.108279675 0.14869995 -0.2861294 -0.27090123
00000000: 9d95 063d 563b 213e 1b15 233e 4d46 a1be
00000010: fb93 2cbe 1f30 b6be 5a50 5d3e 38f0 8ebe
00000020: 7389 02bd c450 3f3c 567c ebbd cf4d 07be
00000030: 3678 6f3d 136e 813e 8f15 933d bebf 95be
00000040: d09d 233e 7892 d53e 4b63 7cbe a72a 5abe
00000050: 1d79 743e a1d6 eabd c7ca 77be 6365 963e
00000060: d0f0 a2be 80b7 abbe bcc1 dd3d cd44 183e
00000070: 8d7f 92be 91b3 8abe

pos_net.output_layer.weight f4 [6, 30]
-0.15145084 0.22277571 -0.2803234 0.07973792 0.044702884 0.053842362 0.12579097 0.22987837
0.4073166 -0.14902785 0.28280646 -0.24579583 0.5248061 -0.52840245 0.21349193 0.028338421
-0.044804595 0.062860064 0.1635177 0.18699072 -0.14247054 -0.18662706 0.19385569 0.1622486
0.22725911 -0.35671058 0.05408004 0.15932988 0.038707767 0.078307465 0.43043974 0.027163174
0.1967063 -0.2311074 0.2280414 0.15706061 0.08369022 0.14726445 0.18458419 0.0117453355
-0.1391939 -0.29565698 0.36350414 0.012621233 -0.070892006 -0.035688248 -0.26036698 0.4103573
-0.4919837 0.09394461 -0.15396333 -0.17530039 0.050281443 -0.09749995 0.060352266 -0.06861592
-0.31296062 -0.048922937 0.10142899 0.12375816 0.19489913 -0.1076357 0.4356426 0.0011321588
-0.39728704 0.060252897 -0.24336822 -0.16230409 0.19134931 -0.20057523 0.13722895 -0.13451172
0.45030728 -0.000901334 -0.26965883 -0.089426436 -0.2061472 0.51966137 0.07147011 0.032639123
0.011003793 0.042751312 -0.16842827 -0.3464737 -0.12643036 0.19391254 -0.05165332 -0.03943719
0.018599337 0.0016372976 -0.019019637 0.25423697 0.0507903 0.07314915 0.23132534 0.1589707
0.21138074 0.16746637 0.79291975 0.32914984 0.21076743 0.3077621 -0.063129544 -0.61076546
0.30788836 0.05606921 -0.05983314 -0.23545675 -0.43194437 0.23590074 0.27545834 -0.0049469904
0.19573636 -0.40451 0.23449862 -0.082940474 0.31024146 0.106982015 -0.054463364 0.02533327
-0.07574257 -0.46321535 -0.15091002 -0.026544595 -0.3424258 0.03616178 0.44815052 0.13189435
0.13517499 0.06724465 0.27165338 -0.19776209 0.23197222 0.6514885 -0.32977217 -0.104750186
0.008327785 0.17427601 -0.35124204 0.03133881 -0.5304367 0.46707317 0.12276717 0.5218045
0.046350997 0.330426 -0.007424157 0.20510915 -0.016609985 -0.27827388 -0.13068478 -0.09996019
-0.1797612 -0.06121603 0.058381412 0.032717213 0.46771815 0.28190592 0.6763647 -0.022587866
-0.22154018 -0.15364273 -0.014038041 0.21932565 -0.40769157 -0.034115642 0.16770129 -0.36764735
0.4162497 -0.002742351 0.38034302 0.36463097 -0.006260109 0.61855143 0.047706883 -0.1216188
-0.6733167 -0.4788497 0.003385346 0.78356344
00000000: ee15 1bbe 511f 643e 8c86 8fbe a24d a33d
00000010: 5f1a 373d cf89 5c3d 59cf 003e 3c65 6b3e
00000020: cd8b d03e c29a 18be 02cc 903e e7b1 7bbe
00000030: b159 063f 6245 07bf a19d 5a3e fa25 e83c
00000040: 0685 37bd c7bc 803d 2f71 273e 7f7a 3f3e
00000050: cce3 11be 2a1b 3fbe 1b82 463e 7f24 263e
00000060: 9db6 683e c5a2 b6be 0883 5d3d 5f27 233e
00000070: 098c 1e3d aa5f a03d 9962 dc3e 4e85 de3c
00000080: 606d 493e 6ba7 6cbe af83 693e 7fd4 203e
00000090: c765 ab3d 7ecc 163e a303 3d3e 826f 403c
000000a0: d988 0ebe 5a60 97be 371d ba3e 4ac9 4e3c
000000b0: d42f 91bd d72d 12bd d24e 85be 5a1a d23e
000000c0: 4ae5 fbbe 0866 c03d 90a8 1dbe f281 33be
000000d0: eaf3 4d3d 0eae c7bd f033 773d 8186 8cbd
000000e0: 603c a0be 6b63 48bd 01ba cf3d eb74 fd3d
000000f0: a393 473e 1b70 dcbd 8c0c df3e f264 943a
00000100: 3569 cbbe becb 763d 8535 79be 0b33 26be
00000110: 13f1 433e 9863 4dbe bf85 0c3e 71bd 09be
00000120: ad8e e63e 8047 6cba b910 8abe 3525 b7bd
00000130: 4018 53be 8708 053f ec5e 923d 9ab0 053d
00000140: 4149 343c 001c 2f3d 7678 2cbe 0065 b1be
00000150: f676 01be 0291 463e 6f92 53bd e488 21bd
00000160: a35d 983c 979a d63a 12cf 9bbc 592b 823e
00000170: 7d09 503d 39cf 953d 8de0 6c3e 37c9 223e
00000180: 3174 583e 4e7c 2b3e cafc 4a3f 5486 a83e
00000190: 6bd3 573e fe92 9d3e 104a 81bd 205b 1cbf
000001a0: 8ba3 9d3e d4a8 653d 9813 75bd 931b 71be
000001b0: d027 ddbe f78f 713e e008 8d3e 5d1a a2bb
000001c0: 1d6f 483e ef1b cfbe 6820 703e b2dc a9bd
000001d0: f8d7 9e3e 6319 db3d fa14 5fbd b887 cf3c
000001e0: ec1e 9bbd 902a edbe 2888 1abe 0d74 d9bc
000001f0: 6f52 afbe 601e 143d fc73 e53e 500f 073e
00000200: 506b 0a3e 90b7 893d 2716 8b3e 2582 4abe
00000210: 208a 6d3e f3c7 263f e6d7 a8be 4487 d6bd
00000220: 4371 083c 6975 323e ffd5 b3be 205d 003d
00000230: b3ca 07bf 3724 ef3e 5b6d fb3d fb94 053f
00000240: 8bda 3d3d 992d a93e 5846 f3bb 2208 523e
00000250: aa11 88bc ea79 8ebe 3bd2 05be eeb7 ccbd
00000260: 5213 38be a9bd 7abd 5921 6f3d 7c02 063d
00000270: c178 ef3e f955 903e 3d26 2d3f 300a b9bc
00000280: 6edb 62be 8554 1dbe d0ff 65bc e796 603e
00000290: f3bc d0be d8bc 0bbd e3b9 2b3e 463c bcbe
000002a0: ae1e d53e 04b9 33bb 52bc c23e e9b0 ba3e
000002b0: 9a21 cdbb 6359 1e3f 4b68 433d 4713 f9bd
000002c0: 7c5e 2cbf ca2b f5be aedc 5d3b 9d97 483f

pos_net.output_layer.bias f4 [6]
0.049276102 -0.017716791 -0.2970417 0.025258733 0.34022313 -0.13348909
00000000: bdd5 493d ce22 91bc da15 98be 67eb ce3c
00000010: ba31 ae3e 5db1 08be

neg_net.linears.0.weight f4 [30, 12]
-0.5833107 -0.27344617 -0.34934935 0.5543908 0.37315854 -0.16337486 -0.029566517 -0.15975593
-0.21605504 -0.27275395 -0.18839966 0.11218089 0.0040604454 -0.21567386 0.038552325 -0.49163932
-0.16438748 -0.12871313 -0.17102656 0.07353132 0.3844369 -0.16207486 0.1208677 0.5427582
-0.3013677 -0.67072475 -0.29134148 0.060816184 -0.1071326 -0.36440802 0.09667987 0.14272404
-0.2739451 0.080750614 0.47398266 0.06996062 0.23010331 -0.5158276 -0.40534705 0.17041172
-0.20028268 -0.28118265 0.063523866 0.16860405 -0.3452146 0.3572257 -0.020805618 -0.4773352
-0.4271061 -0.31650156 0.3767796 0.43174985 -0.0011759693 -0.2622214 0.05322298 0.093509234
-0.5171694 -0.059569247 -0.4478843 -0.6511598 -0.37467143 -0.21016094 0.1223225 0.10697169
0.14198843 -0.1891764 0.00067198067 0.018240504 -0.30177808 -0.08648723 0.054048985 0.26156348
0.25315863 -0.34477717 -0.5058061 0.38106573 -0.5646189 0.06707342 -0.045054723 0.5093466
0.7346762 -0.3301292 -0.65065426 -0.7632191 -0.4451027 0.16544047 0.546739 0.46905354
-0.18550211 -0.009319978 -0.43170103 -0.086304635 0.37051243 -0.33468193 -0.04662111 0.42405188
-5.3860247e-05 0.009779789 0.32935807 0.29705685 0.05075358 0.17657287 0.5349677 -0.018778937
-0.17830661 -0.018204222 -0.30475914 0.22503585 -0.20350856 0.020306684 0.624662 0.57209396
0.0006252811 0.09698061 -0.009949721 -0.12122363 -0.35522586 -0.15188271 0.6053822 -0.054116085
-0.543677 0.060416047 -0.14318706 0.24563813 -0.03861993 0.052079886 -0.11138502 0.24852063
0.18230419 -0.4168253 0.016705079 -0.20185016 -0.308354 -0.333935 -0.48513862 0.26446378
-0.3074455 0.20844625 -0.065318845 0.105002284 -0.26793012 -0.40761122 0.08391774 -0.52349865
-0.7824651 -0.1063874 -0.032360755 -0.7819723 0.4261497 0.10031906 -0.39579198 0.29496834
-0.23866889 0.80505383 0.12782754 0.33151686 -0.13185233 -0.0888215 -0.4806454 -0.4666983
0.22289823 -0.28462586 -0.011487184 -0.007979637 0.20861427 0.5846351 -0.15714729 0.24040063
0.4698999 -0.08384432 -0.38224292 0.6743877 0.11150289 -0.07344451 0.32807902 0.34482867
-0.12432811 0.31669486 0.46597534 0.097987786 0.9418667 -0.085443154 -0.19831353 -0.6786819
0.0026157936 -0.37041432 -0.10404588 -0.2994592 -0.22218537 -0.047855657 -0.03946729 0.15757774
-0.009684445 0.024180036 0.040249847 -0.2302002 0.053357717 -0.067722514 -0.6853801 0.3214906
-0.15375596 0.45441142 -0.38987684 0.1958532 -0.5139986 0.016991565 0.08673774 0.075425304
0.43225032 0.05350037 0.19951144 -0.0650332 0.67617327 0.7796661 -0.15071864 -0.05734554
0.24037513 0.3549815 0.39374393 -0.74912095 -0.27660793 -0.23854679 -0.08162719 -0.11276949
-0.33411068 0.56279486 0.517841 -0.6691899 -0.11575037 -0.07332487 0.23191136 0.07848797
0.28358996 0.9056611 0.34912282 0.32139298 0.42706028 0.015452966 -0.16039746 -0.66421956
-0.09090914 0.3202343 0.69463164 0.36875084 -0.124968424 0.048598647 -0.002540663 -0.3158517
-0.07280487 -0.5230467 -0.3801732 0.000856366 0.70434964 0.15402675 0.41431472 -0.33617508
00000000: da53 15bf 2301 8cbe ebdd b2be 8eec 0d3f
00000010: a30e bf3e bd4b 27be 7b35 f2bc 0f97 23be
00000020: 883d 5dbe 68a6 8bbe d7eb 40be 18bf e53d
00000030: 7c0d 853b 9cd9 5cbe 0be9 1d3d 26b8 fbbe
00000040: 3155 28be 60cd 03be 9621 2fbe 9797 963d
00000050: ead4 c43e f4f6 25be 7c89 f73d 34f2 0a3f
00000060: de4c 9abe 9eb4 2bbf b62a 95be 641a 793d
00000070: 5668 dbbd b093 babe 1800 c63d 4026 123e
00000080: 8842 8cbe 9460 a53d dbad f23e 8347 8f3d
00000090: 34a0 6b3e 470d 04bf a689 cfbe 6980 2e3e
000000a0: e716 4dbe 2cf7 8fbe cd18 823d 8aa6 2c3e
000000b0: f8bf b0be 49e6 b63e 8b70 aabc 4865 f4be
000000c0: a7ad dabe 7e0c a2be 41e9 c03e 510e dd3e
000000d0: fb22 9aba e241 86be 5700 5a3d c581 bf3d
000000e0: 3765 04bf e2fe 73bd 1751 e5be 69b2 26bf
000000f0: efd4 bfbe 6e34 57be 3884 fa3d f913 db3d
00000100: 6a65 113e 75b7 41be dc27 303a 1c6d 953c
00000110: a882 9abe 3820 b1bd 7862 5d3d a6eb 853e
00000120: 029e 813e a286 b0be 827c 01bf 0c1b c33e
00000130: dd8a 10bf ca5d 893d 4d8b 38bd 8a64 023f
00000140: bd13 3c3f b206 a9be 4791 26bf 5462 43bf
00000150: 80e4 e3be 3a69 293e 16f7 0b3f c927 f03e
00000160: 44f4 3dbe d2b2 18bc eb07 ddbe 7cc0 b0bd
00000170: ceb3 bd3e 6e5b abbe c7f5 3ebd 541d d93e
00000180: 00e8 61b8 683b 203c 9fa1 a83e d617 983e
00000190: fce2 4f3d 85cf 343e a5f3 083f 49d6 99bc
000001a0: 0296 36be 0521 95bc 6409 9cbe cc6f 663e
000001b0: 8c64 50be 345a a63c d9e9 1f3f c074 123f
000001c0: e8e9 233a c59d c63d 2804 23bc 1844 f8bd
000001d0: 2ae0 b5be 2487 1bbe 54fa 1a3f d4a8 5dbd
000001e0: 6a2e 0bbf d176 773d a19f 12be 9088 7b3e
000001f0: ef2f 1ebd b851 553d d41d e4bd 317c 7e3e
00000200: f3ad 3a3e 206a d5be 17d9 883c cfb1 4ebe
00000210: 93e0 9dbe 87f9 aabe 1764 f8be cc67 873e
00000220: 7f69 9dbe ef72 553e e3c5 85bd 700b d73d
00000230: 232e 89be 6bb2 d0be 10dd ab3d 0204 06bf
00000240: a24f 48bf a3e1 d9bd b68c 04bd 562f 48bf
00000250: 4b30 da3e 1474 cd3d 3fa5 cabe 1706 973e
00000260: 9e65 74be 0218 4e3f 39e5 023e 94bc a93e
00000270: 4c04 07be 0ce8 b5bd 2717 f6be 14f3 eebe
00000280: 6f3f 643e 7bba 91be be34 3cbc 06bd 02bc
00000290: fb9e 553e a5aa 153f 38eb 20be 952b 763e
000002a0: b896 f03e 92b6 abbd 58b5 c3be aca4 2c3f
000002b0: a15b e43d 136a 96bd f9f9 a73e 628d b03e
000002c0: bc9f febd d425 a23e 5294 ee3e d2ad c83d
000002d0: 2d1e 713f d2fc aebd b412 4bbe 19be 2dbf
000002e0: bc6d 2b3b f2a6 bdbe 0216 d5bd b752 99be
000002f0: 9084 63be 4b04 44bd 74a8 21bd 0f5c 213e
00000300: 82ab 1ebc 3615 c63c 06dd 243d 9ab9 6bbe
00000310: 9f8d 5a3d 1ab2 8abd 1275 2fbf 6a9a a43e
00000320: 3472 1dbe 9da8 e83e f09d c7be be8d 483e
00000330: 6a95 03bf e531 8b3c 8ea3 b13d 9578 9a3d
00000340: ea4f dd3e 3423 5b3d ba4c 4c3e 2030 85bd
00000350: b119 2d3f 3398 473f fd55 1abe 28e3 6abd
00000360: e624 763e 23c0 b53e ce98 c93e 64c6 3fbf
00000370: 8e9f 8dbe 9c45 74be 282c a7bd b1f3 e6bd
00000380: 8e10 abbe 5313 103f 3a91 043f 0750 2bbf
00000390: 880e edbd 592b 96bd 2c7a 6d3e 4dbe a03d
000003a0: b432 913e 68d9 673f 3ac0 b23e 9f8d a43e
000003b0: a5a7 da3e 702e 7d3c 3b3f 24be 4b0a 2abf
000003c0: 922e babd c0f5 a33e 61d3 313f e9cc bc3e
000003d0: 72ef ffbd 600f 473d 4081 26bb 50b7 a1be
000003e0: b81a 95bd 63e6 05bf 10a6 c2be c07d 603a
000003f0: 4250 343f 30b9 1d3e 0f21 d43e 241f acbe

neg_net.linears.0.bias f4 [30]
-0.081902854 -0.2708942 -0.46520346 -0.3729193 -0.24385722 -0.5219626 0.07237702 -0.13593064
-0.25396582 0.06373669 -0.3450432 -0.0034105885 0.20550767 -0.1982839 -0.321676 0.48090574
-0.26173973 -0.23805368 -0.097756736 -0.2508814 0.1484814 -0.7021369 -0.22267452 -0.3581111
-0.6603779 -0.10612692 -0.50197244 -0.116571955 -0.36227617 -0.3529406
00000000: afbc a7bd a5b2 8abe 262f eebe 47ef bebe
00000010: b5b5 79be 579f 05bf 673a 943d 6731 0bbe
00000020: cf07 82be 6288 823d 81a9 b0be 2e84 5fbb
00000030: 9a70 523e ef0a 4bbe b7b2 a4be 4739 f63e
00000040: c002 86be 58c4 73be af34 c8bd 8773 80be
00000050: 820b 183e 3ebf 33bf ca04 64be 575a b7be
00000060: 870e 29bf 1259 d9bd 4481 00bf 47bd eebd
00000070: 437c b9be a1b4 b4be

neg_net.linears.1.weight f4 [30, 30]
-0.051352438 -0.13146679 -0.1870764 -0.08332065 -0.12348037 0.06610028 -0.0057978015 -0.14649233
-0.10454804 -0.17939399 -0.05064052 0.007215202 0.0036595003 -0.12256463 -0.01652098 -0.045956865
0.040271994 -0.054845102 -0.25929964 -0.00072677806 -0.190428 -0.23247229 -0.05958205 -0.06782074
-0.057994917 -0.097077765 0.04407483 -0.24330296 -0.22558865 -0.18512605 0.025950572 -0.1497079
0.20895854 0.51453334 -0.29179808 -0.044207767 -0.3760275 -0.01964812 0.28443524 -0.42065486
-0.14266708 0.22813967 0.28977212 0.36952776 0.1692125 0.21175179 -0.09203912 -0.1430637
0.07245258 0.09070343 -0.69678247 -0.02390185 0.00898169 -0.2543537 -0.14935206 -0.12170628
0.085943125 -0.14109197 0.077715546 -0.20080264 -0.17599179 -0.091547005 0.0009422591 -0.11399474
-0.037424196 -0.094804235 -0.1331559 -0.050189372 -0.08179571 -0.12503731 0.059390124 0.08540776
-0.09419703 -0.11986215 -0.07262282 -0.08454331 0.031185132 0.012450833 -0.00975778 0.0010874039
-0.1709017 0.007528231 0.024819817 -0.014883135 0.06208671 -0.10633418 0.0012752088 -0.12486507
0.07233083 0.037527937 -0.22426784 -0.012865631 0.017257318 -0.12531464 -0.086161084 -0.066645555
-0.2727918 -0.0026360704 -0.10068584 0.06624611 -0.11195922 -0.14293496 0.075749174 -0.060919855
-0.09956099 -0.08954954 -0.0065031145 -0.007158662 -0.045291927 -0.061725285 -0.07538234 0.038247094
-0.00900859 0.025484374 0.05174374 -0.07150958 -0.03056553 -0.015653923 0.050328135 -0.025854947
0.024085265 -0.087171175 -0.005707272 -0.043831244 0.12654786 0.032702487 -0.44511205 0.08349624
0.18375118 0.1746944 -0.028988969 -0.3388797 -0.7265388 -0.17367382 -0.014671722 -0.17068407
-0.34552872 0.21506879 -0.3565031 0.025970578 0.17302729 -0.18985185 -0.07100822 0.16496003
-0.14788498 0.32591233 0.1778386 -0.072157554 0.16974874 0.10704093 0.17720555 -0.18033545
-0.84148175 -0.5321797 -0.72403115 0.034308586 -0.5346429 -0.3139746 0.09403164 -0.06957014
-0.24352345 -0.21126108 0.59190124 0.10931481 -0.12813683 0.065990664 0.068835214 0.36196133
-0.00790555 0.0058291852 -0.0037707067 0.015057014 -0.1765665 0.041842584 -0.16191387 -0.24482964
-0.44391176 -0.5883146 -0.66814536 0.0994883 -0.20351647 -0.16352153 -0.13257831 -0.038221758
0.07519789 0.20203988 0.06518074 -0.13264994 0.2391688 -0.03811224 -0.3995144 -0.34983686
-0.47101536 -0.05324106 0.282254 0.2956392 -0.17605302 0.13315105 0.17227672 0.120477796
0.10150725 -0.02524019 0.0473869 0.020359652 0.36558768 0.2493286 0.09572822 -0.4235002
-0.07168432 -0.36279967 0.2617244 -0.15818587 0.102223925 -0.3556096 -0.4021349 0.064893745
-0.93062896 0.38110298 -0.4492584 0.26275703 -0.23167121 -0.8626556 -0.47984582 -0.17765622
-0.104270995 -0.3154375 -0.13333422 0.3041845 -0.34614322 -0.24535923 0.3454133 -0.07281269
0.010279358 0.09278506 0.44080943 -0.099417895 0.007724935 -0.051621847 0.0016770251 0.013932284
-0.015531909 -0.19274694 -0.069407925 -0.11160903 -0.03781736 0.14375119 -0.16006419 0.064526066
-0.20124799 0.06778944 0.03184689 0.069273606 -0.008113949 -0.13976555 -0.14037512 -0.16391426
00000000: ef56 52bd 3b9f 06be f590 3fbe 04a4 aabd
00000010: 47e3 fcbd 955f 873d 7cfb bdbb 1602 16be
00000020: 481d d6bd 0fb3 37be 6f6c 4fbd 806d ec3b
00000030: 3ad4 6f3b 2a03 fbbd 0257 87bc 443d 3cbd
00000040: 3ff4 243d 42a5 60bd ecc2 84be 4085 3eba
00000050: 8fff 42be 370d 6ebe 4f0c 74bd 9ae5 8abd
00000060: 148c 6dbd b5d0 c6bd cf87 343d 6924 79be
00000070: b600 67be af91 3dbe 4b96 d43c 074d 19be
00000080: 3af9 553e 75b8 033f 8f66 95be 3413 35bd
00000090: ad86 c0be 18f5 a0bc 7fa1 913e 1360 d7be
000000a0: 5217 12be 729d 693e 035d 943e be32 bd3e
000000b0: 0b46 2d3e 76d5 583e 027f bcbd 4a7f 12be
000000c0: 0562 943d b8c2 b93d 5660 32bf d0cd c3bc
000000d0: f027 133c a63a 82be bfef 18be 2441 f9bd
000000e0: f302 b03d 6a7a 10be 5429 9f3d 359f 4dbe
000000f0: 3137 34be ff7c bbbd f001 773a 1376 e9bd
00000100: 1d4a 19bd b928 c2bd 055a 08be 5f93 4dbd
00000110: 8284 a7bd c809 00be 0f43 733d 44ea ae3d
00000120: 5fea c0bd 497a f5bd 46bb 94bd 0b25 adbd
00000130: f677 ff3c 94fe 4b3c 18df 1fbc 3887 8e3a
00000140: db00 2fbe 61af f63b ee52 cb3c 65d8 73bc
00000150: a24e 7e3d bcc5 d9bd e824 a73a 42b9 ffbd
00000160: 3022 943d e5b6 193d 78a6 65be 5eca 52bc
00000170: 385f 8d3c 7b52 00be 3975 b0bd 777d 88bd
00000180: 5eab 8bbe ecc1 2cbb 6134 cebd 0aac 873d
00000190: e04a e5bd 8b5d 12be 6222 9b3d 1987 79bd
000001a0: a2e6 cbbd c065 b7bd 1418 d5bb 3693 eabb
000001b0: 0784 39bd a7d3 7cbd 0e62 9abd fca8 1c3d
000001c0: c498 13bc 9bc4 d03c 3ef1 533d 9d73 92bd
000001d0: 9064 fabc a83c 80bc e024 4e3d c1cd d3bc
000001e0: 764e c53c cd86 b2bd 1104 bbbb 6488 33bd
000001f0: c395 013e 0bf3 053d bae5 e3be 1400 ab3d
00000200: 4529 3c3e 17e3 323e 467a edbc a481 adbe
00000210: 72fe 39bf 8dd7 31be aa61 70bc cec7 2ebe
00000220: 24e9 b0be fe3a 5c3e 9387 b6be 40c0 d43c
00000230: 112e 313e 8668 42be c26c 91bd 48eb 283e
00000240: 296f 17be fbdd a63e 521b 363e 57c7 93bd
00000250: 9dd2 2d3e 4638 db3d 5f75 353e dba9 38be
00000260: 596b 57bf ee3c 08bf 1b5a 39bf 2987 0c3d
00000270: 5bde 08bf 47c1 a0be a993 c03d ca7a 8ebd
00000280: 365e 79be d354 58be d786 173f 71e0 df3d
00000290: 4d36 03be 1d26 873d 7af9 8c3d ff52 b93e
000002a0: 4886 01bc c002 bf3b f61d 77bb b2b1 763c
000002b0: d9cd 34be 2163 2b3d c0cc 25be 9fb4 7abe
000002c0: 6748 e3be c99b 16bf 930b 2bbf 86c0 cb3d
000002d0: 9f66 50be 3072 27be 9cc2 07be 6b8e 1cbd
000002e0: 5a01 9a3d 8be3 4e3e 7b7d 853d 63d5 07be
000002f0: aae8 743e 951b 1cbd 278d ccbe d11d b3be
00000300: ed28 f1be 4c13 5abd 9983 903e 055e 973e
00000310: 3e47 34be c058 083e 4f69 303e 10bd f63d
00000320: 08e3 cf3d 84c4 cebc c418 423d 49c9 a63c
00000330: 4f2e bb3e ff4f 7f3e 280d c43d 05d5 d8be
00000340: 3bcf 92bd e1c0 b9be be00 863e 7afb 21be
00000350: c75a d13d 7612 b6be a0e4 cdbe 03e7 843d
00000360: b33d 6ebf ee1f c33e 3205 e6be 1788 863e
00000370: 383b 6dbe ffd6 5cbf 5aae f5be 83eb 35be
00000380: 088c d5bd 0681 a1be c488 08be 12be 9b3e
00000390: af39 b1be 733f 7bbe 03da b03e d21e 95bd
000003a0: c16a 283c 1806 be3d c6b1 e13e 9c9b cbbd
000003b0: 7421 fd3b 6e71 53bd a0cf db3a 3c44 643c
000003c0: 8c79 7ebc 745f 45be be25 8ebd 4693 e4bd
000003d0: 60e6 1abd 8333 133e dee7 23be 3e26 843d
000003e0: f413 4ebe 31d5 8a3d e271 023d 52df 8d3d
000003f0: 5ef0 04bc b31e 0fbe 7fbe 0fbe 24d9 27be

neg_net.linears.1.bias f4 [30]
-0.3442378 -0.15413009 -0.2495582 -0.23237829 0.1767466 0.068385325 0.25184062 0.029512333
-0.24820411 -0.13109063 0.1625237 -0.062069494 0.21192823 -0.058983073 0.13243936 0.21073003
-0.33933473 0.008411717 -0.20432398 -0.0325286 -0.087614685 0.015488396 -0.22894047 0.20747003
-0.17162737 -0.14478774 -0.26035392 0.13935128 0.12841287 -0.2609108
00000000: f03f b0be 47d4 1dbe 2f8c 7fbe 93f4 6dbe
00000010: 10fd 343e 9b0d 8c3d 41f1 803e d9c3 f13c
00000020: 3829 7ebe 9f3c 06be 9d6c 263e 953c 7ebd
00000030: b703 593e 3c98 71bd 2f9e 073e 9dc9 573e
00000040: 48bd adbe 4cd1 093c 4e3a 51be b63c 05bd
00000050: 546f b3bd 0bc3 7d3c 5f6f 6abe 0673 543e
00000060: 16bf 2fbe 3d43 14be 1c4d 85be 1ab2 0e3e
00000070: aa7e 033e 1a96 85be

neg_net.linears.2.weight f4 [30, 30]
-0.058341686 -0.34629878 0.12443029 0.045247205 -0.1658101 -0.27971542 -0.04217851 -0.3447362
-0.06677258 -0.22327779 -0.26814836 1.0699219 0.25336632 -0.054753236 -0.25140655 -0.23410055
-0.07172924 -0.12543347 -0.01351128 -0.3240381 -0.14983395 0.061794303 -0.25054204 -0.058353025
0.17094609 0.22627367 -0.10508412 -0.027668951 -0.2570047 -0.25774753 -0.047435142 -0.4114814
0.032930702 -0.056057863 -0.08405211 -0.7889916 0.22456406 -0.014191719 0.04226155 -0.043135576
-0.36201155 -0.16059808 0.40507165 -0.5248715 0.27015767 0.23043643 -0.13884144 -0.76249886
0.06571371 0.6417666 -0.12243622 -0.6215858 0.17217164 -0.12247335 -0.01756334 0.06708521
0.14887671 -0.624221 -0.16353773 -0.10417955 -0.2064893 -0.3285087 -0.05550734 0.011654916
-0.18946914 -0.07308288 -0.2945569 -0.32737207 0.044789173 -0.23047231 -0.27065927 -0.20358597
-0.25184238 -0.33434847 -0.32711285 0.109863095 -0.24650535 0.043342613 0.0022545047 -0.14866424
-0.40828687 -0.32708827 -0.07153837 0.17153114 -0.0700272 0.025032537 -0.071760476 -0.42661637
-0.14317568 -0.20153685 0.02699491 -0.39470094 0.08824846 0.006855378 0.10104106 0.035581585
-0.27847397 0.2669212 -0.0009284727 0.060762845 0.30029693 0.4503079 0.11181427 0.19463776
0.2176697 -0.6666159 -0.13846487 -0.26090047 0.19160771 -0.40406293 0.013235344 -0.08939278
-0.13212843 0.7974644 0.11940481 0.1305681 -0.11325381 0.59993225 -0.09225908 -0.35280862
0.0087636905 -0.38369298 0.004349769 -0.0007567415 0.024108466 -0.20725283 0.113377996 -0.18856631
0.0079109445 -0.01774298 -0.036147907 -0.19977209 -0.010350814 -0.46219158 -0.24818978 0.377106
-0.059325315 -0.061059456 0.09368825 0.56045794 -0.15691218 -0.14582653 0.13607965 -0.20516637
0.010468107 0.33147416 -0.038457997 0.097703554 -0.41531348 0.074788235 -0.12494226 0.22227745
-0.033341177 -0.06251358 -0.6475484 0.516892 -0.5710356 -0.52218366 -0.2587333 0.30900085
-0.1633575 -0.34198642 -0.14495142 0.36067307 -0.20616801 0.011817945 0.058956455 0.023665393
0.19724366 -0.25508863 0.12939587 0.23637933 0.019018602 -0.35947695 -0.08965268 -0.0049497257
0.097617045 0.3282669 -0.32408178 -0.022770675 -0.1237363 0.2383338 0.051316842 0.043609895
-0.10963767 -0.12799309 -0.2653494 0.05956672 -0.18327197 0.062120337 -0.17739663 -0.3598307
0.071435496 0.1954023 -0.10228249 -0.44838405 -0.002581622 -0.38989016 0.10398441 -0.28346086
0.042927787 -0.00023375498 -0.07697595 -0.47336122 -0.03520738 0.046801616 -0.21645215 -0.6231948
-0.33670205 0.004004496 -0.004823718 0.0658151 -0.013024134 0.0009794421 0.07009897 -0.12142458
-0.012587891 0.008789174 0.08987069 0.055821422 -0.21155965 -0.16124398 0.13687694 -0.053677768
-0.20350073 -0.21383809 -0.03604827 0.032582644 -0.007801657 0.013043676 -0.046371847 -0.18223953
0.027916465 0.18890432 0.004121354 0.07284267 -0.03889471 -0.16352096 -0.097172126 0.0044372277
-0.013930285 0.46100205 -0.045502916 0.07006767 -0.31389466 0.15862153 -0.038404193 -0.15979175
-0.08531257 0.1781645 -0.3109485 0.12649815 0.1302488 -0.48927262 -0.048862454 -0.29122236
00000000: b1f7 6ebd 134e b1be 4fd5 fe3d 2255 393d
00000010: 1fca 29be dc36 8fbe 60c3 2cbd 4381 b0be
00000020: 10c0 88bd efa2 64be be4a 89be 33f3 883f
00000030: 3bb9 813e ee44 60bd 5cb8 80be 0eb8 6fbe
00000040: c8e6 92bd a271 00be 6a5e 5dbc 52e8 a5be
00000050: 126e 19be 061c 7d3d 0c47 80be 9503 6fbd
00000060: 7e0c 2f3e 49b4 673e 5836 d7bd ffa9 e2bc
00000070: 1f96 83be 7cf7 83be 5a4b 42bd b1ad d2be
00000080: 58e2 063d ee9c 65bd 8323 acbd 5afb 49bf
00000090: 1ff4 653e 6284 68bc 721a 2d3d eeae 30bd
000000a0: 9459 b9be d373 24be 8d65 cf3e fb5d 06bf
000000b0: 1b52 8a3e 87f7 6b3e 732c 0ebe 2033 43bf
000000c0: e994 863d d14a 243f d7bf fabd 3f20 1fbf
000000d0: c34d 303e 4fd3 fabd fee0 8fbc f863 893d
000000e0: 2373 183e f3cc 1fbf 6f76 27be 175c d5bd
000000f0: ee71 53be 4b32 a8be aa5b 63bd 43f4 3e3c
00000100: 3304 42be 7aac 95bd 29d0 96be 509d a7be
00000110: da74 373d ef00 6cbe da93 8abe d778 50be
00000120: 7cf1 80be b92f abbe 567b a7be e7ff e03d
00000130: e66b 7cbe 0688 313d 50c0 133b 703b 18be
00000140: fa0a d1be 1d78 a7be b582 92bd dca5 2f3e
00000150: 6c6a 8fbd 0911 cd3c 28f7 92bd 766d dabe
00000160: a59c 12be ad5f 4ebe 6e24 dd3c 3e16 cabe
00000170: 9cbb b43d 14a3 e03b 9eee ce3d ffbd 113d
00000180: 2494 8ebe e5a9 883e c064 73ba 76e2 783d
00000190: 85c0 993e c28e e63e e1fe e43d 1f4f 473e
000001a0: cee4 5e3e 57a7 2abf bcc9 0dbe bf94 85be
000001b0: d034 443e 56e1 cebe 0ed9 583c 9013 b7bd
000001c0: ad4c 07be a026 4c3f 828a f43d a5b3 053e
000001d0: 9df1 e7bd 2995 193f 54f2 bcbd 55a3 b4be
000001e0: 9595 0f3c 6873 c4be 8288 8e3b 1060 46ba
000001f0: 1e7f c53c 163a 54be b932 e83d 8717 41be
00000200: e89c 013c ba59 91bc d40f 14bd 0e91 4cbe
00000210: 7696 29bc 60a4 ecbe 7625 7ebe 0a14 c13e
00000220: 1aff 72bd 7b19 7abd a0df bf3d 2c7a 0f3f
00000230: 96ad 20be 8d53 15be 7758 0b3e 2217 52be
00000240: 6c82 2b3c fbb6 a93e 2286 1dbd cd18 c83d
00000250: f8a3 d4be 932a 993d bae1 ffbd b39c 633e
00000260: c290 08bd 1f07 80bd bbc5 25bf 0953 043f
00000270: 642f 12bf d4ad 05bf b178 84be 5c35 9e3e
00000280: 3047 27be d818 afbe 256e 14be 24aa b83e
00000290: b51d 53be 0ea0 413c 537c 713d eddd c13c
000002a0: 3efa 493e fa9a 82be 5a80 043e 6c0d 723e
000002b0: e6cc 9b3c 5d0d b8be d39b b7bd 4f31 a2bb
000002c0: 72eb c73d 9912 a83e 0cee a5be 9189 babc
000002d0: 7569 fdbd c70d 743e 9c31 523d 4aa0 323d
000002e0: b789 e0bd 9f10 03be e0db 87be 3cfc 733d
000002f0: a6ab 3bbe e571 7e3d 76a7 35be bb3b b8be
00000300: c64c 923d 8a17 483e 7b79 d1bd 9892 e5be
00000310: 6e30 29bb af9f c7be c7f5 d43d c821 91be
00000320: 0cd5 2f3d 201c 75b9 91a5 9dbd 675c f2be
00000330: 9d35 10bd 0db3 3f3d a2a5 5dbe b289 1fbf
00000340: 3664 acbe 2638 833b 4810 9ebb 11ca 863d
00000350: 2d63 55bc a060 803a 0c90 8f3d 73ad f8bd
00000360: 713d 4ebc 7800 103c 200e b83d 01a5 643d
00000370: 18a3 58be 241d 25be 7829 0c3e 38dd 5bbd
00000380: 7f62 50be 5ff8 5abe 5aa7 13bd 6175 053d
00000390: 0ba5 ffbb 24b5 553c 68f0 3dbd 009d 3abe
000003a0: 12b1 e43c 2270 413e 6c0c 873b 8a2e 953d
000003b0: 0f50 1fbd 0a72 27be 2e02 c7bd 2a66 913b
000003c0: da3b 64bc 7608 ec3e 4461 3abd a37f 8f3d
000003d0: cdb6 a0be af6d 223e b74d 1dbd 73a0 23be
000003e0: 5bb8 aebd c170 363e a434 9fbe bb88 013e
000003f0: f15f 053e f181 fabe ff23 48bd 191b 95be

neg_net.linears.2.bias f4 [30]
0.12787892 0.20105685 -0.31407386 0.13966282 0.2762116 0.07225766 0.06480045 -0.20292462
0.044027597 -0.29437625 -0.2743516 0.32526052 0.07028378 -0.14725347 0.0140987355 0.16200642
0.18233089 0.11975919 -0.3684037 0.16687545 0.10601571 0.056537654 0.12382668 -0.03851196
-0.38678584 -0.29906946 -0.0013866704 -0.0138860475 0.3713885 0.12166343
00000000: b1f2 023e d9e1 4d3e 4ace a0be c503 0f3e
00000010: 9b6b 8d3e d3fb 933d 19b6 843d 79cb 4fbe
00000020: 4856 343d 7cb8 96be d077 8cbe 8c88 a63e
00000030: f1f0 8f3d 9dc9 16be 62fe 663c 03e5 253e
00000040: f3b4 3a3e 4e44 f53d 699f bcbe 66e1 2a3e
00000050: c41e d93d 0794 673d d898 fd3d b8be 1dbd
00000060: cb08 c6be a21f 99be f0c0 b5ba 4e82 63bc
00000070: a226 be3e ad2a f93d
