data/Backup/1/train/N10/D6_SinCosInput/2/result/model/ReLU_Dual_UDirection_PKD.pt (torch_old, 22776 bytes, 20 tensors)

input_mean f4 [12]
-0.00020867857 0.25158462 -0.0016192612 0.24829456 0.24421477 0.00020035208 0.92013824 0.922611
0.9424136 0.17862822 0.23378757 0.9203
00000000: bad0 5ab9 b3cf 803e 643d d4ba ee40 7e3e
00000010: 7013 7a3e 9a15 5239 2e8e 6b3f 3c30 6c3f
00000020: 0542 713f 51ea 363e 0266 6f3e c898 6b3f

input_std f4 [12]
0.38528106 0.27956367 0.33051693 0.6318109 0.6658712 0.38488346 0.07002894 0.0856637
0.05111272 0.7122196 0.66506994 0.07008984
00000000: 8f43 c53e f822 8f3e 8439 a93e 5cbe 213f
00000010: 8976 2a3f 720f c53e 556b 8f3d 7370 af3d
00000020: 925b 513d 0654 363f 0642 2a3f 438b 8f3d

output_mean f4 [6]
0.02693378 0.464712 0.19356166 -0.0059603523 -0.0011311112 0.002080521
00000000: 3ba4 dc3c bbee ed3e 0735 463e 0f4f c3bb
00000010: cb41 94ba 5a59 083b

output_std f4 [6]
0.036488265 0.15910645 0.14300835 0.10280748 0.036197353 0.017344126
00000000: b874 153d cdec 223e c870 123e ba8c d23d
00000010: ad43 143d 4515 8e3c

pos_net.linears.0.weight f4 [30, 12]
0.01844813 -0.27495083 0.00047228322 -0.73832697 -0.41797882 0.09948187 -0.07844199 0.04015915
0.08933217 -0.45441097 0.22719237 0.005784095 0.1324353 0.1263149 0.37019363 -0.2165516
-0.35479933 -0.023628179 0.051421463 -0.15767571 -0.054500382 0.20725667 -0.973065 0.07574114
-0.09263191 -0.24187163 -0.5251271 0.31725314 -0.107603095 0.28531876 0.019243494 0.18415979
-0.025514798 0.5790299 -0.18891072 -0.036371585 -0.05871166 -0.13552065 -0.15383269 0.23339716
0.8223853 0.652705 -0.018233456 -0.016525183 -0.016009223 0.15794381 -0.2853825 0.009456475
-0.0054843877 0.37115437 0.5695761 0.373748 0.41608083 -0.06453442 -0.03613608 -0.05536643
-0.016484737 0.661321 -0.074012645 -0.06374343 0.12777053 -0.09827925 0.031446066 0.21286426
-0.51219976 -0.5985624 -0.081124954 0.053556275 0.02935821 0.5606324 -0.12298977 -0.07440165
0.09066741 0.15465337 0.3932126 0.39644435 -0.007547688 -0.2251808 -0.052135393 -0.08140458
0.094923995 -0.44910342 0.37500155 0.088514976 0.23229036 0.19580154 0.18571915 -0.08240529
0.03693404 0.06972307 -0.08168364 -0.18561804 -0.2175789 -0.3703629 0.24186806 0.033939056
0.041696593 -0.12478432 -0.7440046 -0.5643817 0.32047242 -0.23412728 -0.010650463 0.08731352
-0.018967874 0.61626035 -0.3507039 -0.03875684 0.020765936 0.22527505 0.45857677 0.2834006
0.6410012 -0.0074057733 0.011898292 -0.20329887 -0.050163325 -0.659335 -0.3258447 -0.08126537
-0.07501348 -0.31040746 -0.46794367 0.50529593 0.7305503 -0.5912533 -0.046075735 0.0172942
0.005151934 -0.49172983 -0.5386593 0.06951283 0.20530316 -0.6641108 0.061689295 0.10571219
0.21087606 -0.037843674 0.12001521 -0.06036536 -0.14153509 -0.60754806 0.1517864 -0.115739904
-0.051452544 -0.5979738 -0.45807546 0.20233661 -0.27293736 -0.11989236 -0.06366234 -0.2104277
-0.061065163 0.29543114 0.5456974 0.020354133 -0.04555741 0.61714274 0.013983529 -0.5996522
0.29886705 -0.28875032 -0.07683882 -0.038357366 -0.06801718 0.33355138 -0.12188364 0.03961731
0.08573133 0.21308543 0.20677853 -0.03125427 0.08441044 -0.023681574 0.002288068 0.15325491
-0.0117311925 0.7580013 -0.68920004 -0.034754407 -0.060849044 0.38502434 0.2288914 0.3263466
-0.50521696 -0.11460703 -0.07379979 -0.101120576 0.056318775 0.38687536 0.3522304 0.058638606
0.13201353 0.23387276 0.04536117 -0.4573926 -0.36497065 0.20292962 -0.033797357 0.008871625
0.07070727 -0.41945484 0.11763956 0.0014673847 0.059405696 -0.38597733 -0.5263348 -0.2297559
-0.35602847 -0.14645341 -0.029336153 -0.03208273 -0.07243395 -0.8914512 -0.0699181 -0.02654345
0.9216599 -0.2082629 -0.19150008 -0.029871915 0.17667152 0.0179952 -0.05127284 -0.049690753
0.0218816 0.15548791 0.032576527 0.041664194 -0.13746125 -0.0010734999 0.37937194 0.7546257
0.08484884 -0.2794098 -0.00544072 -0.054058958 0.07369869 0.17476538 -0.1420651 0.13635235
-0.2052064 0.39131346 0.61560404 0.32075232 -0.3928307 -0.55245775 -0.12184831 -0.14031513
-0.055883467 -0.50638217 -0.540573 -0.0042220918 0.050546147 0.14698467 0.70246446 0.12830463
00000000: 8820 973c 5bc6 8cbe c89c f739 ff02 3dbf
00000010: 5201 d6be 27bd cb3d 32a6 a0bd ec7d 243d
00000020: c9f3 b63d 8ea8 e8be 1ea5 683e 8188 bd3b
00000030: 1f9d 073e b158 013e 058a bd3e b4bf 5dbe
00000040: 42a8 b5be e28f c1bc 509f 523d be75 21be
00000050: cb3b 5fbd 183b 543e ca1a 79bf 2c1e 9b3d
00000060: cdb5 bdbd 32ad 77be bb6e 06bf 016f a23e
00000070: 035f dcbd 4d15 923e 88a4 9d3c 6294 3c3e
00000080: 6904 d1bc 4e3b 143f d071 41be 5ffa 14bd
00000090: a37b 70bd edc5 0abe 5186 1dbe aaff 6e3e
000000a0: d887 523f ad17 273f 545e 95bc d25f 87bc
000000b0: c625 83bc 06bc 213e a81d 92be 55ef 1a3c
000000c0: 61b6 b3bb f207 be3e bdcf 113f e65b bf3e
000000d0: 8c08 d53e 9f2a 84bd 6d03 14bd e9c7 62bd
000000e0: 000b 87bc 554c 293f f193 97bd ea8b 82bd
000000f0: 47d6 023e a246 c9bd 97cd 003d 17f9 593e
00000100: 861f 03bf 633b 19bf d724 a6bd d35d 5b3d
00000110: a180 f03c 9b85 0f3f 0fe2 fbbd e45f 98bd
00000120: d6af b93d 745d 1e3e 2953 c93e c1fa ca3e
00000130: 9952 f7bb cc95 66be ec8b 55bd 72b7 a6bd
00000140: 8367 c23d e2f0 e5be 3400 c03e 5747 b53d
00000150: 86dd 6d3e 3380 483e 292d 3e3e 1bc4 a8bd
00000160: 2648 173d f8ca 8e3d c149 a7bd a812 3ebe
00000170: 01cd 5ebe 35a0 bdbe 43ac 773e ae03 0b3d
00000180: 0cca 2a3d ec8e ffbd 1677 3ebf 527b 10bf
00000190: f614 a43e 10bf 6fbe 487f 2ebc 6ed1 b23d
000001a0: 8462 9bbc 3dc3 1d3f 768f b3be 7ebf 1ebd
000001b0: 531d aa3c 81ae 663e 93ca ea3e e219 913e
000001c0: a818 243f 21ac f2bb 0ef1 423c 942d 50be
000001d0: 0f78 4dbd 2eca 28bf 1ed5 a6be 756e a6bd
000001e0: aba0 99bd baed 9ebe 5096 efbe 135b 013f
000001f0: 5805 3b3f 605c 17bf e9b9 3cbd 91ac 8d3c
00000200: 8ed1 a83b 03c4 fbbe 93e5 09bf be5c 8e3d
00000210: fe3a 523e 2a03 2abf eaad 7c3d a27f d83d
00000220: e5ef 573e f801 1bbd 89ca f53d ab41 77bd
00000230: 93ee 10be 4588 1bbf e56d 1b3e 0b09 edbd
00000240: e7bf 52bd d014 19bf de88 eabe 5431 4f3e
00000250: 72be 8bbe 208a f5bd 6761 82bd 5c7a 57be
00000260: 771f 7abd c042 973e d3b2 0b3f b6bd a63c
00000270: 689a 3abd 11fd 1d3f 2c1b 653c ce82 19bf
00000280: 1a05 993e 15d7 93be ac5d 9dbd 9d1c 1dbd
00000290: 974c 8bbd 3fc7 aa3e 219e f9bd c345 223d
000002a0: e893 af3d 1133 5a3e c0bd 533e 7a04 00bd
000002b0: 61df ac3d dcff c1bc 69f3 153b dbee 1c3e
000002c0: 3034 40bc 600c 423f 6a6f 30bf a35a 0ebd
000002d0: d93c 79bd e921 c53e 8262 6a3e e716 a73e
000002e0: e655 01bf 17b7 eabd 5824 97bd 4e18 cfbd
000002f0: 84ae 663d 8714 c63e 8b57 b43e 092f 703d
00000300: 8e2e 073e 577c 6f3e a2cc 393d 5d2f eabe
00000310: 6fdd babe c8cc 4f3e 196f 0abd 4b5a 113c
00000320: f9ce 903d c9c2 d6be 02ed f03d 4355 c03a
00000330: 6353 733d d29e c5be e1bd 06bf 2145 6bbe
00000340: 5d49 b6be e2f7 15be 5f52 f0bc 2e69 03bd
00000350: 4058 94bd 2536 64bf 3931 8fbd a671 d9bc
00000360: e7f1 6b3f df42 55be 9918 44be f2b5 f4bc
00000370: 61e9 343e ab6a 933c 7803 52bd 8888 4bbd
00000380: 0b41 b33c 3938 1f3e f76e 053d 13a8 2a3d
00000390: a4c2 0cbe aeb4 8cba 0a3d c23e 262f 413f
000003a0: 3bc5 ad3d cd0e 8fbe 1148 b2bb ed6c 5dbd
000003b0: 57ef 963d b2f5 323e 8379 11be f39f 0b3e
000003c0: a021 52be 3d5a c83e 3a98 1d3f a639 a43e
000003d0: 1b21 c9be df6d 0dbf 9b8b f9bd c5ae 0fbe
000003e0: 10e6 64bd 43a2 01bf fe62 0abf 7959 8abb
000003f0: 7a09 4f3d 2683 163e b6d4 333f 4a62 033e

pos_net.linears.0.bias f4 [30]
-0.1386265 0.054760855 -0.107168734 0.5392179 -0.020352583 -0.22230916 0.047000572 -0.22962669
0.1245238 0.05173519 -0.16827449 -0.32391518 -0.0241452 0.107108384 -0.101498604 0.047461145
-0.12123839 -0.3103671 0.58447665 -0.20584233 0.107539736 -0.41646424 0.0925254 0.005606932
0.5494948 -0.21596688 0.04628247 -0.036447365 -0.25510493 0.15068674
00000000: 1bf4 0dbe eb4c 603d 487b dbbd 2f0a 0a3f
00000010: 76ba a6bc 03a5 63be ac83 403d 4223 6bbe
00000020: 5606 ff3d 47e8 533d 2650 2cbe 36d8 a5be
00000030: 28cc c5bc a45b db3d 80de cfbd 9e66 423d
00000040: d54b f8bd 70e8 9ebe 43a0 153f 55c8 52be
00000050: cb3d dc3d cd3a d5be f57d bd3d 5bba b73b
00000060: b1ab 0c3f 6c26 5dbe b092 3d3d d549 15bd
00000070: 1d9d 82be a04d 1a3e

pos_net.linears.1.weight f4 [30, 30]
-0.11031721 -0.14195648 0.1317065 -0.2052726 0.24429466 -0.03507381 0.15962099 0.112126686
-0.15739629 -0.5016785 0.61174506 -0.07839946 -0.4601666 0.3656808 -0.37615585 0.123077564
0.18441212 -0.4241058 -0.022885201 0.0089469645 -0.36544055 0.9011046 0.19683991 0.016136743
-0.0076335017 0.4593783 0.4492553 0.17967097 0.02264814 -0.26305714 0.18196699 -0.05724269
-0.04814369 -0.26310658 -0.12949106 -0.11197946 -0.14491309 -0.09494552 0.31110388 -0.2340892
-0.15674967 0.023432001 -0.55442995 0.35494015 -0.0141476 -0.05302052 0.19110812 0.3027176
-0.14209154 0.07472206 -0.18927902 -0.05587822 0.19504477 -0.3315653 0.0012230783 0.1553316
0.19631125 -0.2351051 0.039382387 -0.12653667 -0.093549006 -0.00065848813 -0.047107797 -0.019535415
-0.027456421 -0.008640131 -0.016235866 -0.002677122 -0.022173947 0.0019702907 0.0007444628 -0.0045405524
0.0011976482 -0.06719255 0.0022648226 -0.08955685 -0.05419 -0.046939686 0.0009804822 -0.0692018
0.0047605773 -0.053630404 -0.054151464 0.001306202 -0.004273875 -0.02000012 -0.09724439 -0.054291572
-0.116436325 -0.0041778125 0.07516204 0.2961011 -0.20107308 0.17148376 0.07039207 0.07983011
0.06280487 0.058981016 0.1752494 -0.05348609 -0.14491084 0.34899807 -0.2673807 -0.2401708
-0.050269652 -0.26263407 -0.020948485 0.23252285 0.69026333 0.08652956 0.22073132 0.3574442
0.20617439 0.17369694 0.06947431 0.22656217 -0.114932485 0.22373831 -0.27525216 0.20872374
0.10097088 -0.14693554 -0.021243824 0.00669501 -0.037411913 0.2954378 0.12539063 -0.29580072
-0.14131907 0.13223481 0.1567373 0.28234193 0.44189373 -0.3503564 0.12197058 0.05757147
0.13812885 -0.10465869 -0.25821894 -0.041324418 0.057255834 0.101408675 -0.022207294 0.72808063
-0.32199833 0.02160158 -0.14607686 0.2077128 0.29887772 -0.07396699 0.015309469 0.71219504
0.2970259 -0.13182296 -0.78438973 -0.09528921 -0.091908425 -0.17262667 -0.25070524 0.16415597
0.5793244 0.27874768 0.19717078 -0.21538869 0.21116358 -0.37586752 -0.16322124 0.019518087
0.043229025 -0.28069004 0.1630374 -0.31030542 -0.25825754 0.37655783 0.06186798 0.04996886
-0.07629036 -0.32191214 0.4727257 -0.24299678 -0.31611902 0.013910663 0.0748538 -0.20771362
-0.23169631 -0.24239907 -0.025776554 0.097804554 -0.24546245 0.17651334 0.27387285 -0.05257441
0.3740541 0.011084398 -0.012371187 -0.13883467 -0.27225342 0.3499597 0.09218865 -0.1509612
0.1312196 -0.12883626 -0.070861705 -0.0771087 0.4368628 -0.26566628 0.012620894 -0.46952522
-0.23590642 0.15744483 0.22345534 -0.17413794 0.26747552 -0.020013995 -0.06620548 -0.015736707
-0.051673472 -0.017536698 -0.053251233 -0.18621658 -0.24802493 -0.052892707 -0.03516354 0.22938064
-0.13968556 0.06383903 0.24015498 0.061168473 -0.3754517 0.015006208 0.26281393 -0.022972493
-0.2211806 -0.05736461 -0.28693855 -0.042650465 0.14418398 0.058583517 0.36130652 -0.008080311
-0.039800987 -0.0025237645 0.0056302575 -0.002690248 0.0016527039 -0.00272346 0.0011868869 -0.005267625
-0.0036773917 -7.899056e-05 0.0006512068 -0.0017435803 -0.0009941628 -0.03210877 0.0018153699 -0.0028729306
00000000: fded e1bd 0a5d 11be 12de 063e fb32 52be
00000010: 6128 7a3e 8ea9 0fbd af73 233e ada2 e53d
00000020: 7e2c 21be 016e 00bf 539b 1c3f e58f a0bd
00000030: f59a ebbe 843a bb3e 8097 c0be 1710 fc3d
00000040: 88d6 3c3e 6524 d9be bf79 bbbc 4a96 123c
00000050: 061b bbbe cbae 663f 6790 493e 3431 843c
00000060: 7422 fabb a233 eb3e ca04 e63e abfb 373e
00000070: 9888 b93c 6daf 86be 8e55 3a3e 5077 6abd
00000080: 5132 45bd e8b5 86be 4e99 04be 7d55 e5bd
00000090: 1964 14be cc72 c2bd 0249 9f3e 14b5 6fbe
000000a0: fc82 20be 78f4 bf3c 1fef 0dbf b7ba b53e
000000b0: 56cb 67bc 0b2c 59bd d9b1 433e cdfd 9a3e
000000c0: 7280 11be e107 993d 5cd2 41be 8fe0 64bd
000000d0: d1b9 473e edc2 a9be b34f a03a 3f0f 1f3e
000000e0: d105 493e 64bf 70be 6d4f 213d d492 01be
000000f0: 9f96 bfbd 649e 2cba 1bf4 40bd bc08 a0bc
00000100: 4aec e0bc 568f 0dbc 1401 85bc a772 2fbb
00000110: 23a6 b5bc fe1f 013b 0e28 433a eac8 94bb
00000120: 68fa 9c3a 3f9c 89bd 6b6d 143b 9569 b7bd
00000130: 55f6 5dbd d443 40bd 8683 803a acb9 8dbd
00000140: 9efe 9b3b 8eab 5bbd edcd 5dbd de34 ab3a
00000150: dd0b 8cbb 4bd7 a3bc 1128 c7bd d760 5ebd
00000160: 2b76 eebd 08e6 88bb 8eee 993d 909a 973e
00000170: 1ae6 4dbe 7099 2f3e b829 903d f87d a33d
00000180: d79f 803d 1496 713d 9474 333e 3b14 5bbd
00000190: 8263 14be e0af b23e 20e6 88be 56ef 75be
000001a0: 8de7 4dbd f977 86be 289c abbc 781a 6e3e
000001b0: 19b5 303f 6936 b13d 6407 623e ed02 b73e
000001c0: 611f 533e 9cdd 313e 8c48 8e3d eaff 673e
000001d0: b961 ebbd a81b 653e daed 8cbe adbb 553e
000001e0: d2c9 ce3d 4576 16be 8707 aebc d061 db3b
000001f0: 3c3d 19bd a043 973e 6766 003e 3173 97be
00000200: f2b5 10be 9068 073e be7f 203e 1f8f 903e
00000210: e53f e23e ea61 b3be b6cb f93d 10d0 6b3d
00000220: a671 0d3e 4c57 d6bd 4635 84be cb43 29bd
00000230: 1885 6a3d 5aaf cf3d 12ec b5bc 7e63 3a3f
00000240: f7dc a4be ccf5 b03c 2c95 15be aab2 543e
00000250: 8006 993e 017c 97bd 91d4 7a3c 6a52 363f
00000260: c713 983e 99fc 06be c4cd 48bf fd26 c3bd
00000270: 7c3a bcbd 0cc5 30be 705c 80be 8118 283e
00000280: 9b4e 143f 04b8 8e3e 23e7 493e da8e 5cbe
00000290: 443b 583e b571 c0be 7823 27be 65e4 9f3c
000002a0: eb10 313d 9bb6 8fbe 47f3 263e 5ae0 9ebe
000002b0: 553a 84be 30cc c03e 4769 7d3d 26ac 4c3d
000002c0: 1f3e 9cbd abd1 a4be 1a09 f23e 26d4 78be
000002d0: 5ada a1be 8de9 633c f34c 993d e1b2 54be
000002e0: cc41 6dbe 7637 78be 5a29 d3bc c14d c83d
000002f0: 825a 7bbe eabf 343e 1039 8c3e 4458 57bd
00000300: 0584 bf3e 569b 353c 85b0 4abc ad2a 0ebe
00000310: cd64 8bbe eb2d b33e 67cd bc3d 9395 1abe
00000320: 6e5e 063e a7ed 03be f11f 91bd 2beb 9dbd
00000330: 7bac df3e 6905 88be dec7 4e3c 9c65 f0be
00000340: 7491 71be 3839 213e 7ad1 643e 3751 32be
00000350: 8df2 883e 64f4 a3bc bd96 87bd 44ea 80bc
00000360: 90a7 53bd 1fa9 8fbc f71d 5abd 8faf 3ebe
00000370: 3ffa 7dbe 06a6 58bd a507 10bd c2e2 6a3e
00000380: bb09 0fbe 0abe 823d 30eb 753e cb8b 7a3d
00000390: 353b c0be 99dc 753c 8c8f 863e cf30 bcbc
000003a0: 2b7d 62be 27f7 6abd 9ce9 92be 41b2 2ebd
000003b0: f7a4 133e 45f5 6f3d 2bfd b83e 4863 04bc
000003c0: 5c06 23bd be65 25bb 067e b83b df4e 30bb
000003d0: 8a9f d83a 147c 32bb 5191 9b3a 0b9c acbb
000003e0: 6500 71bb bca7 a5b8 c0b5 2a3a d988 e4ba
000003f0: 914e 82ba 7c84 03bd b5f1 ed3a c747 3cbb

pos_net.linears.1.bias f4 [30]
-0.042532086 0.17124906 -0.18476558 -0.081062116 -0.22383426 -0.07602414 0.08428953 -0.013762103
-0.12133605 0.04187021 -0.06972834 0.085841924 -0.07722578 -0.11973264 -0.17824681 -0.25138864
0.121827275 0.09108222 -0.21238463 -0.12893793 0.3956989 -0.12437338 -0.060763672 0.0062358463
-0.14237854 0.19624887 -0.06629362 -0.13076462 0.090896495 -0.052748725
00000000: 2036 2ebd ea5b 2f3e 3033 3dbe e503 a6bd
00000010: cf34 65be 8bb2 9bbd fd9f ac3d 727a 61bc
00000020: 097f f8bd 1980 2b3d bbcd 8ebd e4cd af3d
00000030: 8d28 9ebd 6336 f5bd 5586 36be 03b6 80be
00000040: 9480 f93d 5189 ba3d 5b7b 59be 4e08 04be
00000050: 0c99 ca3e 78b7 febd 54e3 78bd 1256 cc3b
00000060: aecb 11be 77f5 483e f3c4 87bd 29e7 05be
00000070: f127 ba3d 0c0f 58bd

pos_net.linears.2.weight f4 [30, 30]
-0.017228547 0.016367085 -0.0004347802 -0.028351333 -0.007715741 -0.008833588 -0.004399924 -0.020281408
0.0015195085 0.036843225 0.0007023059 0.003939556 -0.0024766214 -0.0013398447 -0.0032081436 -0.0002487843
-0.050949823 0.054276466 0.0028017943 -0.0079854755 0.020091306 0.013892253 -0.05813455 0.0010125814
0.041368056 -0.115743026 -0.037902117 -0.0014510854 0.0058608856 -0.008990179 0.28593808 0.007229302
0.0006878943 -0.0462657 -0.31182534 0.16856466 0.12647982 -0.034693748 -0.0014275709 -0.1967555
0.03243046 0.31761277 -0.0015801201 0.0002339345 -0.005330942 0.048622627 0.08703166 0.48633063
0.0066081895 0.035738163 0.03207963 0.029699136 -0.025971018 0.29312947 -0.6057884 0.1631221
-0.61437136 0.064696066 0.31727076 -0.32024002 -0.060611043 -0.2203921 -0.00516327 0.06954985
-0.07382981 0.07391302 -0.07252181 -0.23546189 -0.00035435427 -0.07438941 -0.20492949 -0.21839951
0.0039710146 -0.0032856734 0.0020121671 0.01869938 -0.27867764 0.037617486 -0.036139604 -0.08313931
-0.19973673 0.025719473 -0.15232052 0.0025121632 -0.1131576 -0.09305945 -0.12588988 -0.24675892
-0.21017917 -0.22352058 0.31726295 0.19407743 -0.12497094 0.23786855 -0.05257891 0.18221205
-0.06370548 0.03907309 -0.0005976376 -0.48350868 -0.2279388 -0.12694581 0.004648551 -0.07295422
-0.030070443 0.00019479459 0.18387851 -0.3639422 -0.0019377841 -0.17705062 0.19087313 0.32961366
-0.087075435 0.13948587 0.6264265 0.1827078 -0.38978466 -0.24944898 0.31717116 -0.2580238
0.22720814 -0.11176724 0.009410326 0.57885563 -0.048247267 0.38876477 -0.1008614 -0.21633779
0.0005975575 -0.0020208545 -0.26335296 0.21107593 0.00042362 -0.07763496 -0.002781815 -0.034572728
-0.06944595 0.15900601 -0.0015077704 -0.16561072 -0.0699094 -0.16492094 0.037070032 0.26528627
0.11273192 0.0574929 -0.09811839 0.42215782 -0.038329653 0.08379565 -0.019405834 -0.27937743
0.00028288117 -0.32765108 -0.3580662 -0.0276051 0.30062017 -0.36574513 -0.0009747504 0.45333642
0.036416616 -0.048964158 -0.00076502434 -0.022057563 -0.006910295 -0.093085855 0.08707442 -0.1907839
-0.031102799 0.41499397 0.6960334 0.05677772 -0.20227936 -0.0065771993 0.29213092 -0.20244183
0.5641152 -0.5932616 0.018916322 -0.4071853 -0.03587984 0.030676348 -0.0004677282 -0.07065916
-0.050726697 0.07641721 -0.08792113 0.1243624 -0.042999145 -0.025200779 0.27565855 -0.10982483
-0.096181944 0.003223326 -0.03051461 -0.00029593921 -0.16471837 -0.3323547 -0.09210188 -0.019440357
0.1701671 -0.038630407 0.3072949 0.15721503 0.062229503 -0.3040433 -0.22761644 0.039948992
-0.02275614 0.0329906 -0.008604892 -0.045106545 0.0015310852 -0.14089644 0.0033547988 -0.09428998
-0.024568196 -0.0026014873 0.00025757914 0.00380098 -0.002096922 -0.038131118 -0.00017449858 -0.00018481884
-8.549512e-05 -0.0034559825 0.0048696357 -0.022754356 -0.00087504357 -0.0028943375 0.03673384 -0.06394849
-0.013330678 -0.00072508794 -0.053734213 -0.25688493 -0.010664404 -0.13540506 -0.024000693 -0.14651032
-0.19092798 -0.05012079 0.00056442444 -0.10388338 -0.15237711 -0.18163824 -0.12850723 -0.1059074
0.03787925 -0.19938537 -0.23138028 -0.32335 0.00030488675 -0.013990908 0.04283738 4.4394983e-06
00000000: e222 8dbc 4414 863c 36f3 e3b9 0e41 e8bc
00000010: 54d4 fcbb c1ba 10bc 3d2d 90bb 3225 a6bc
00000020: 3f2a c73a ece8 163d f31a 383a 6417 813b
00000030: d04e 22bb ba9d afba b83f 52bb 436f 82b9
00000040: c3b0 50bd 0051 5e3d 4f9e 373b 83d5 02bc
00000050: 8696 a43c 559c 633c 7e1e 6ebd 98b8 843a
00000060: 8d71 293d ae0a edbd 403f 1bbd 5932 beba
00000070: ac0c c03b 8b4b 13bc 7a66 923e c8e3 ec3b
00000080: ce53 343a 1a81 3dbd 92a7 9fbe 379c 2c3e
00000090: ed83 013e 081b 0ebd 551d bbba 467a 49be
000000a0: cdd5 043d 249e a23e 081c cfba 504c 7539
000000b0: 2faf aebb 8528 473d a83d b23d 5400 f93e
000000c0: 8389 d83b 2e62 123d ee65 033d 9a4b f33c
000000d0: 2cc1 d4bc 1115 963e f314 1bbf 7b09 273e
000000e0: 7147 1dbf 5f7f 843d 5071 a23e 80f6 a3be
000000f0: 4943 78bd 77ae 61be a630 a9bb 2770 8e3d
00000100: 1534 97bd b65f 973d 5186 94bd ec1c 71be
00000110: a0c8 b9b9 7a59 98bd 09d9 51be 1fa4 5fbe
00000120: 491f 823b 7454 57bb 90de 033b 712f 993c
00000130: d6ae 8ebe cb14 1a3d 1f07 14bd f144 aabd
00000140: c987 4cbe a5b1 d23c e9f9 1bbe 1ba3 243b
00000150: 2cbf e7bd f495 bebd 47e9 00be 5fae 7cbe
00000160: 3539 57be 94e2 64be 4a70 a23e 3cbc 463e
00000170: c4f0 ffbd d093 733e fc5c 57bd cc95 3a3e
00000180: 0578 82bd 1b0b 203d c8aa 1cba 738e f7be
00000190: ca68 69be 15fe 01be df52 983b 0669 95bd
000001a0: 4a56 f6bc c641 4c39 a64a 3c3e a256 babe
000001b0: 3ffd fdba c24c 35be 3f74 433e 1fc3 a83e
000001c0: 9b54 b2bd 62d5 0e3e 7d5d 203f c117 3b3e
000001d0: db91 c7be 8e6f 7fbe 4264 a23e b21b 84be
000001e0: 40a9 683e 39e6 e4bd c52d 1a3c e22f 143f
000001f0: ed9e 45bd 2d0c c73e 6c90 cebd a787 5dbe
00000200: 68a5 1c3a 5070 04bb 33d6 86be 4a24 583e
00000210: 5019 de39 14ff 9ebd 1c4f 36bb 229c 0dbd
00000220: ae39 8ebd 79d2 223e 61a0 c5ba db95 29be
00000230: a92c 8fbd 09e1 28be bfd6 173d 9ad3 873e
00000240: fedf e63d ad7d 6b3d 4bf2 c8bd 1225 d83e
00000250: 8eff 1cbd 0e9d ab3d fcf8 9ebc 8f0a 8fbe
00000260: ab4f 9439 e2c1 a7be 7454 b7be 1724 e2bc
00000270: e3ea 993e f242 bbbe 6486 7fba b61b e83e
00000280: 9729 153d a48e 48bd ea8b 48ba 10b2 b4bc
00000290: c26f e2bb cca3 bebd 1354 b23d db5c 43be
000002a0: 4ccb febc 177a d43e 3f2f 323f c18f 683d
000002b0: 5222 4fbe 8c85 d7bb 2f92 953e e94c 4fbe
000002c0: db69 103f fedf 17bf 67f6 9a3c 977a d0be
000002d0: bdf6 12bd f74c fb3c 6b39 f5b9 c0b5 90bd
000002e0: ccc6 4fbd a080 9c3d fe0f b4bd b7b1 fe3d
000002f0: df1f 30bd dd71 cebc 1e23 8d3e d7eb e0bd
00000300: 0afb c4bd 703e 533b c7f9 f9bc 4a28 9bb9
00000310: efab 28be 652a aabe e99f bcbd 6241 9fbc
00000320: 4940 2e3e eb3a 1ebd c255 9d3e fafc 203e
00000330: 5de4 7e3d 90ab 9bbe 4914 69be 8ea1 233d
00000340: 166b babc 2721 073d 88fb 0cbc a4c1 38bd
00000350: b2ae c83a 2847 10be 2fdc 5b3b 1b1b c1bd
00000360: 3e43 c9bc b77d 2abb b00b 8739 dd19 793b
00000370: 836c 09bb 602f 1cbd 9bf9 36b9 eecb 41b9
00000380: d84b b3b8 c47d 62bb 7791 9f3b 5867 babc
00000390: 2e63 65ba edae 3dbb 3976 163d 6df7 82bd
000003a0: eb68 5abc d413 3eba 6818 5cbd 6c86 83be
000003b0: c1b9 2ebc a0a7 0abe 1a9d c4bc cd06 16be
000003c0: a082 43be 754b 4dbd e2f5 133a cfc0 d4bd
000003d0: bf08 1cbe 60ff 39be 6697 03be fbe5 d8bd
000003e0: 4627 1b3d ae2b 4cbe f4ee 6cbe 228e a5be
000003f0: 35d9 9f39 1f3a 65bc 4076 2f3d 00f7 9436

pos_net.linears.2.bias f4 [30]
-0.11856605 0.07313461 -0.12135002 -0.20466243 -0.12392555 0.321211 -0.066776164 -0.2831907
0.05873761 -0.029683094 -0.15454076 -0.12523456 0.14013629 -0.22753933 -0.21081859 0.3035817
0.40556228 0.106812395 -0.28701305 0.43624124 -0.25996962 0.2577346 0.035514414 -0.29255146
0.19361944 0.20108643 -0.18404359 -0.054770384 0.09862721 -0.1293243
00000000: c2d2 f2bd 99c7 953d 5c86 f8bd 0793 51be
00000010: aecc fdbd c575 a43e f1c1 88bd 5ffe 90be
00000020: d996 703d f629 f3bc ef3f 1ebe 7d3d 00be
00000030: e37f 0f3e 1200 69be d4e0 57be 106f 9b3e
00000040: dca5 cf3e 75c0 da3d 60f3 92be 035b df3e
00000050: bd1a 85be caf5 833e 9077 113d 4ec9 95be
00000060: 2d44 463e 9ae9 4d3e ec75 3cbe e956 60bd
00000070: 10fd c93d 976d 04be

pos_net.output_layer.weight f4 [6, 30]
-0.07401603 0.0053138537 0.20435262 -0.025252592 0.29200602 -0.13247785 0.17923239 0.0022269068
-0.08901384 -0.062583394 -0.0057383534 0.031330578 -0.07874428 0.014380578 -0.181079 -0.0992081
-0.04258582 -0.087989815 0.17257108 -0.24463715 0.035514515 -0.15043238 -0.13684066 -0.32585707
-0.03467998 -0.14091173 -0.004726113 0.590592 -0.024178084 0.18916336 -0.029247887 0.07679737
-0.23735875 0.0021861424 -0.30220053 0.11656546 0.13900825 -0.12611595 -0.23231284 -0.077167146
-0.00110032 -0.073416546 -0.27075705 -0.0026038988 0.05699463 0.2267002 0.3496115 -0.4287048
0.025319343 0.20384559 -0.26365864 -0.0022042736 -0.017002055 -0.17966011 -0.03581658 0.2871998
0.27899662 0.21407261 -0.13638352 0.12075341 0.0041907914 -0.23898487 -0.061736707 0.27443767
0.20189804 0.075435854 -0.105827555 -0.08927895 0.4525743 -0.06251452 0.01837988 -0.16206019
-0.049655996 -0.00436815 0.21078974 0.21333903 0.35898027 -0.15410177 0.1860193 0.3525738
0.030860437 -0.0005371296 -0.25062343 -0.18292558 0.13464186 -0.08930742 -0.031294297 -0.013866372
-0.39188525 0.06691074 -0.017844073 -0.028592268 0.16160937 -0.100902386 -0.16146684 0.024425179
0.23605654 -0.08728181 -0.06425164 -0.22816026 -0.001811105 -0.32035282 0.004894294 0.0062178154
-0.025643334 0.14568207 -0.42973095 0.2624421 0.17351563 -0.18351446 0.4354277 0.46103114
-0.16859682 -0.1929197 -0.21225376 0.30005124 0.051587954 0.15382111 -0.11767859 0.16253531
0.012582041 0.30406597 -0.0046697413 0.41485253 0.30352527 -0.4710922 -0.18496984 -0.04248004
-0.18888152 -0.66618997 -0.0058516115 0.0029518143 0.06038534 -0.00048731815 0.06619223 -0.35595325
0.01475775 -0.20657255 -0.10437364 0.008734219 0.14849956 0.048234552 -0.07184492 -0.103771634
-0.10144021 0.31675234 0.056126796 -0.29374635 0.23981343 0.1479077 0.16595705 0.25091347
-0.25491026 0.25360653 0.021090606 -0.122355506 -0.1653034 0.05343642 -0.008050214 0.030378928
0.002457165 0.09560924 -0.22782727 -0.0021776455 0.11483349 0.29709175 -0.059811186 0.33905163
-0.26231107 -0.31791893 0.46615008 -0.0572913 0.43343157 0.00024560266 0.5382694 0.05645898
0.06466664 0.015967414 -0.37948182 -0.026356524
00000000: b795 97bd d61f ae3b d041 513e 86de cebc
00000010: d081 953e 46a8 07be b288 373e 4cf1 113b
00000020: e34c b6bd b92b 80bd cc08 bcbb 7e54 003d
00000030: ae44 a1bd 849c 6b3c c66c 39be 9e2d cbbd
00000040: 786e 2ebd 0134 b4bd 79b6 303e 2982 7abe
00000050: ab77 113d f20a 1abe f51f 0cbe bdd6 a6be
00000060: 980c 0ebd 2a4b 10be 82dd 9abb 0a31 173f
00000070: 1e11 c6bc 0ab4 413e 4499 efbc f147 9d3d
00000080: 2c0e 73be 6245 0f3b 07ba 9abe dfb9 ee3d
00000090: 2e58 0e3e 8a24 01be 6be3 6dbe cf09 9ebd
000000a0: 9d38 90ba 6a5b 96bd aba0 8abe 2ca6 2abb
000000b0: 3373 693d 1924 683e 4700 b33e 327f dbbe
000000c0: 836a cf3c e6bc 503e 44fe 86be 9375 10bb
000000d0: e547 8bbc d2f8 37be 68b4 12bd da0b 933e
000000e0: a5d8 8e3e da35 5b3e 1fa8 0bbe 904d f73d
000000f0: e852 893b 73b8 74be a1df 7cbd 1883 8c3e
00000100: 5cbe 4e3e 1d7e 9a3d 1ebc d8bd e2d7 b6bd
00000110: d2b7 e73e 9d07 80bd 6791 963c 1bf3 25be
00000120: 1664 4bbd b322 8fbb 44d9 573e 8c75 5a3e
00000130: 43cc b73e dbcc 1dbe d87b 3e3e 8e84 b43e
00000140: 07cf fc3c 28ce 0cba b751 80be d850 3bbe
00000150: 8edf 093e cfe6 b6bd 732e 00bd c82f 63bc
00000160: 2fa5 c8be 8008 893d bc2d 92bc 553a eabc
00000170: ed7c 253e e9a5 cebd 9057 25be 5017 c83c
00000180: ceb8 713e cec0 b2bd 5d96 83bd d8a2 69be
00000190: 9962 edba 4905 a4be 5060 a03b d1be cb3b
000001a0: f811 d2bc ae2d 153e b205 dcbe d05e 863e
000001b0: 15ae 313e 37eb 3bbe 61f0 de3e 460c ec3e
000001c0: a5a4 2cbe be8c 45be 0d59 59be 51a0 993e
000001d0: e44d 533d 4883 1d3e 7901 f1bd a86f 263e
000001e0: e824 4e3c 89ae 9b3e a104 99bb 8d67 d43e
000001f0: aa67 9b3e ff32 f1be bc68 3dbe 8dff 2dbd
00000200: 286a 41be 6d8b 2abf e0be bfbb 3a73 413b
00000210: 9e56 773d bc7e ffb9 cb8f 873d 813f b6be
00000220: 7dca 713c c187 53be d9c1 d5bd f819 0f3c
00000230: 4510 183e 9891 453d 6e23 93bd 3986 d4bd
00000240: e3bf cfbd 5d2d a23e 36e5 653d ec65 96be
00000250: a791 753e 1e75 173e a5f0 293e bb77 803e
00000260: 9983 82be b7d8 813e 35c6 ac3c 8695 fabd
00000270: 4b45 29be 26e0 5a3d 0be5 03bc 3bdd f83c
00000280: 6308 213b c7ce c33d 8d4b 69be d4b6 0ebb
00000290: d22d eb3d 691c 983e 93fc 74bd 2d98 ad3e
000002a0: a34d 86be 45c6 a2be 39ab ee3e 48aa 6abd
000002b0: beea dd3e 3bc4 8039 06cc 093f 8841 673d
000002c0: f16f 843d 18ce 823c 714b c2be a3e9 d7bc

pos_net.output_layer.bias f4 [6]
-0.19490571 0.19474143 0.15668656 0.27570394 0.031519096 -0.2818627
00000000: 5d95 47be 4c6a 473e 7172 203e 1129 8d3e
00000010: 2b1a 013d 4f50 90be

neg_net.linears.0.weight f4 [30, 12]
-0.09306537 0.3248237 0.7123171 0.2994907 -0.3037182 -0.10249288 0.061095264 0.015090887
0.020338519 0.6237215 -0.36372417 -0.090220205 -0.011731724 0.33092618 0.3035322 0.3261423
-0.48497656 -0.003988805 -0.029016435 0.099822655 -0.14427906 -1.0383601 -0.06782947 -0.08137287
0.5567995 0.10637517 0.5010085 0.3106629 -0.20443219 -0.15819083 -0.16020183 -0.2213342
0.0049423208 0.49036485 0.09048701 -0.06282892 0.15491572 0.018705962 -0.5790942 -0.50460017
0.39423147 0.12632214 0.0053036353 0.014462661 -0.12447253 0.6217032 -0.15146665 -0.02590489
-0.022000937 -0.4187706 -0.24982452 0.05261124 -0.19792901 -0.18245104 0.013768813 -0.06853847
0.039840154 0.44379976 0.2739341 0.113390505 -0.03116308 0.3651681 0.47808194 -0.47626886
-0.6238101 0.18583845 -0.051205724 -0.090851 -0.062544614 0.13154384 -0.57612574 -0.008915829
0.7331776 0.24769121 -0.24604599 0.07804611 0.020971708 0.24575822 -0.3606766 0.027042715
0.027071714 -0.25906444 -0.091605015 -0.014424935 -0.010447929 0.4603838 0.15436839 -0.20331718
0.54961455 -0.47467577 -0.008030176 -0.092500865 0.016515145 0.5578762 -0.19616118 -0.0572175
-0.042945858 0.2095502 0.30262914 -0.6664327 0.260877 -0.005356795 0.08091025 -0.073841296
0.035400998 -0.53477144 0.20881931 -0.0004010019 0.015503605 0.50712556 0.5057626 -0.3021915
-0.18723552 0.5566727 -0.022011878 -0.08206133 -0.05190973 0.4865188 0.53184634 -0.19360684
-0.04671979 -0.07172991 -0.06894368 0.09629355 -0.44700867 0.73175144 -0.022933552 0.18216912
0.015774647 0.26018623 -0.18722634 -0.047875755 -0.13482209 -0.32073814 -0.09615982 -0.57059073
0.35789052 -0.22815032 0.063678846 0.1524871 -0.034393948 0.6635514 -0.6005638 -0.040497944
0.117456704 0.32565072 0.51823115 -0.031782426 0.38947627 0.33585975 -0.019344775 -0.047946297
0.013527837 -0.70906883 -0.32713506 -0.029467683 0.27656034 -0.6959679 -0.33772767 0.12163955
-0.004495396 0.193836 -0.109103 -0.019919723 -0.066509314 0.18127269 0.27758643 -0.09471032
-0.24761577 0.51545936 0.8468323 0.3113601 -0.17414396 -0.35385635 -0.0018220365 -0.25364977
-0.016285213 -0.2593191 -0.32446638 0.06098059 -0.24166673 0.33272097 -0.35120368 0.123236805
0.48002145 0.49020448 0.1384689 0.10721296 0.044620585 0.05473143 -0.29246417 0.009936547
0.086095236 0.3917978 0.610006 -0.4345602 0.4444269 -0.047938902 0.017794393 0.04516147
0.059060577 0.85945654 -0.09554273 0.06620017 0.05499936 -0.005952122 -0.1583731 0.36984792
0.500216 -0.5670171 -0.07715153 0.21588446 -0.0009778577 0.12242299 -0.072072014 -0.05189379
0.0064063277 0.32672966 0.41426733 -0.034785822 -0.016544413 -0.08854097 0.011700917 -0.07605419
-0.0517613 -0.23539285 -0.6802824 -0.03581243 -0.13871798 -1.00601 0.20821789 0.15175071
0.25272217 -0.25006047 -0.024595449 -0.1206826 -0.14395982 -0.046724726 -0.15909114 -0.04363741
-0.25634474 0.19599481 -0.14248937 -0.30321604 0.2670109 -0.093893416 -0.007963955 0.16942532
0.15034886 -0.25154975 -0.019953106 -0.02161092 0.70496434 -0.12944652 -0.2541497 -0.35379624
00000000: 0f99 bebd 4b4f a63e 6a5a 363f d856 993e
00000010: f480 9bbe c9e7 d1bd 073f 7a3d c53f 773c
00000020: f79c a63c 36ac 1f3f 0e3a babe 5fc5 b8bd
00000030: 6b36 40bc 286f a93e 9368 9b3e 20fc a63e
00000040: d94e f8be 86b4 82bb e0b3 edbc d26f cc3d
00000050: e4bd 13be fce8 84bf 2dea 8abd d2a6 a6bd
00000060: 698a 0e3f 3adb d93d 1842 003f 350f 9f3e
00000070: ac56 51be c7fc 21be f30b 24be 6fa5 62be
00000080: 31f3 a13b 1a11 fb3e 4151 b93d 73ac 80bd
00000090: 3aa2 1e3e 3f3d 993c 843f 14bf 7a2d 01bf
000000a0: b5d8 c93e 975a 013e 1eca ad3b ccf4 6c3c
000000b0: 74eb febd f127 1f3f 131a 1bbe 7e36 d4bc
000000c0: 4f3b b4bc 1a69 d6be 00d2 7fbe e27e 573d
000000d0: e7ad 4abe 72d4 3abe 9696 613c e65d 8cbd
000000e0: 6e2f 233d b939 e33e 1741 8c3e 4839 e83d
000000f0: b749 ffbc 50f7 ba3e 28c7 f43e 83d9 f3be
00000100: 05b2 1fbf 6f4c 3e3e 18bd 51bd 1710 babd
00000110: 6417 80bd 6eb3 063e fa7c 13bf b213 12bc
00000120: 87b1 3b3f c4a2 7d3e 7bf3 7bbe a4d6 9f3d
00000130: dccc ab3c 0ba8 7b3e 9aaa b8be af88 dd3c
00000140: 80c5 dd3c 18a4 84be 699b bbbd 9056 6cbc
00000150: ca2d 2bbc 6db7 eb3e bf12 1e3e 6132 50be
00000160: 8ab3 0c3f b408 f3be 0091 03bc 1871 bdbd
00000170: c54a 873c fad0 0e3f 7ade 48be e65c 6abd
00000180: ffe7 2fbd 5494 563e 35f2 9a3e 559b 2abf
00000190: ac91 853e 0e88 afbb 46b4 a53d 1b3a 97bd
000001a0: a300 113d c8e6 08bf bbd4 553e 903d d2b9
000001b0: d502 7e3c fbd2 013f a879 013f d8b8 9abe
000001c0: abba 3fbe 1a82 0e3f 4152 b4bc c50f a8bd
000001d0: 4c9f 54bd fe18 f93e 1527 083f df40 46be
000001e0: 405d 3fbd 22e7 92bd 5832 8dbd 8e35 c53d
000001f0: 52de e4be 1054 3b3f 25df bbbc 8b8a 3a3e
00000200: d539 813c 2137 853e 43b8 3fbe 5e19 44bd
00000210: cd0e 0abe ca37 a4be 71ef c4bd 3c12 12bf
00000220: 6d3d b73e 3da0 69be 0e6a 823d 9425 1c3e
00000230: abe0 0cbd 81de 293f 8dbe 19bf 2ce1 25bd
00000240: 248d f03d b1bb a63e ccaa 043f 4a2e 02bd
00000250: 6f69 c73e cff5 ab3e ef78 9ebc 5663 44bd
00000260: dca3 5d3c 8985 35bf 3f7e a7be 3666 f1bc
00000270: 5199 8d3e f42a 32bf a4ea acbe 281e f93d
00000280: 1d4e 93bb f27c 463e 6571 dfbd b02e a3bc
00000290: 0936 88bd 8c9f 393e cf1f 8e3e 7cf7 c1bd
000002a0: fd8e 7dbe 25f5 033f 00ca 583f 976a 9f3e
000002b0: cb52 32be a92c b5be 66d1 eeba 62de 81be
000002c0: 9168 85bc 79c5 84be 7520 a6be c8c6 793d
000002d0: 7c77 77be 675a aa3e f8d0 b3be 9463 fc3d
000002e0: 5fc5 f53e 15fc fa3e cbca 0d3e 7892 db3d
000002f0: 13c4 363d 102e 603d ddbd 95be e6cc 223c
00000300: b352 b03d b999 c83e 5a29 1c3f ad7e debe
00000310: ec8b e33e 955b 44bd 8cc5 913c 3cfb 383d
00000320: 81e9 713d 5805 5c3f e8ab c3bd f493 873d
00000330: 0247 613d 050a c3bb 8f2c 22be b55c bd3e
00000340: 280e 003f 0828 11bf 9f01 9ebd d110 5d3e
00000350: 762b 80ba e8b8 fa3d 7e9a 93bd 958e 54bd
00000360: 2cec d13b 1c49 a73e d91a d43e 947b 0ebd
00000370: 2688 87bc f854 b5bd 34b5 3f3c 4dc2 9bbd
00000380: a803 54bd d30a 71be fd26 2ebf 0eb0 12bd
00000390: 160c 0ebe f0c4 80bf 1237 553e 8a64 1b3e
000003a0: cd64 813e ed07 80be 657c c9bc 7028 f7bd
000003b0: 346a 13be 6d62 3fbd cae8 22be 24bd 32bd
000003c0: 9e3f 83be ddb2 483e bce8 11be 223f 9bbe
000003d0: a7b5 883e 314b c0bd 407b 02bc d57d 2d3e
000003e0: 0df5 193e 21cb 80be b274 a3bc 6209 b1bc
000003f0: 8b78 343f a18d 04be e91f 82be c824 b5be

neg_net.linears.0.bias f4 [30]
-0.09583061 -0.42117128 0.563351 -0.04214414 -0.34948915 -0.39109695 -0.12312825 -0.015121485
0.086722426 0.045311596 -0.019429784 -0.010270966 -0.46755457 -0.28903285 0.2123051 -0.49813247
0.3565678 -0.43552732 -0.4548605 -0.28819123 -0.40850595 -0.028294966 -0.4171529 0.30899942
-0.13967991 -0.040625498 -0.22018622 -0.2669388 0.060899884 -0.20096886
00000000: d742 c4bd c3a3 d7be c537 103f 559f 2cbd
00000010: 3ef0 b2be dc3d c8be aa2a fcbd 1bc0 77bc
00000020: 879b b13d a798 393d 362b 9fbc 8e47 28bc
00000030: 5063 efbe 1dfc 93be 8266 593e 380b ffbe
00000040: 0e90 b63e 70fd debe 7ae3 e8be cd8d 93be
00000050: b127 d1be d8ca e7bc 1195 d5be 2c35 9e3e
00000060: 4008 0fbe ec66 26bd 7f78 61be 34ac 88be
00000070: 2872 793d c8ca 4dbe

neg_net.linears.1.weight f4 [30, 30]
0.27712294 0.39101207 0.16199394 -0.5029604 0.13494797 -0.3367798 -0.3443041 -0.46456805
-0.371551 -0.18733042 -0.12526312 -0.28502947 0.019875482 0.54723436 -0.013723728 -0.28218573
0.27353087 -0.5868458 0.22742055 0.3999412 -0.04656068 -0.06511305 -0.051655564 0.030475957
0.2875474 0.36978942 0.046263285 -0.13471557 0.3791585 -0.13722853 0.05897295 0.26843295
-0.082789786 0.0130482055 -0.17307135 -0.046569556 -0.21962364 0.0625463 0.06934196 0.01662115
0.23731679 0.24817616 0.10001187 0.33711484 -0.29033715 -0.21247391 0.11360387 0.03568995
-0.1576125 0.6122335 -0.06300379 -0.11455123 -0.14342266 0.55389225 0.07897247 -0.19278197
0.057868525 0.6026385 0.1671122 -0.09493036 -0.25588298 -0.4153827 -0.13994287 0.41393283
0.16091236 0.048569825 -0.17157972 -0.27433807 0.00828118 -0.32207006 -0.029772844 0.23572569
-0.044476643 0.12868367 -0.083534114 0.061597034 -0.18951385 -0.0755831 -0.008908383 -0.24913996
0.015970733 -0.044766378 -0.034953382 0.13124065 -0.2725808 0.26903054 0.0344873 0.098231554
-0.10294253 -0.26980394 0.2111256 -0.14141127 0.2817588 -0.3321155 0.04268314 0.19145744
0.07060624 -0.06331781 -0.4004753 -0.4220665 0.07186101 0.041169368 0.33678892 0.11520447
0.23840404 -0.27443928 -0.4139557 0.042666044 0.01964488 0.4142815 -0.24735104 0.06847688
0.041641504 -0.2873211 0.32395467 -0.26380667 -0.41811833 0.01872397 0.04606382 -0.08170219
-0.042461164 0.3934352 -0.03541313 -0.18005055 -0.11204622 0.49358532 0.14377487 -0.43232355
-0.12473329 0.0038760435 -0.1913919 -0.34743372 -0.35280195 -0.27880222 0.3590476 0.47021574
-0.567207 -0.10903136 0.23348072 -0.3068746 -0.15597104 -0.46514547 0.03912881 -0.026196852
-0.038738713 -0.2600037 0.10076137 -0.22077213 -0.10875549 -0.080692075 -0.20042928 0.6541615
-0.19741072 0.14587381 -0.11509472 0.065942846 0.20945327 0.3794991 -0.0016759543 -0.0671666
0.38514414 0.011602659 -0.53508526 -0.009710402 -0.40135399 0.039953787 -0.09415815 -0.2892859
-0.16802292 -0.35538587 0.09103183 -0.059212122 0.46760795 -0.28484458 0.09620608 -0.09785928
0.23584963 0.2643976 -0.35086897 0.027881926 0.06028712 0.31213284 0.06325629 -0.4187979
-0.016220381 -0.48153225 -0.17230478 -0.37238163 0.6364824 -0.513002 0.19301668 -0.2525389
-0.07272846 -0.43349844 0.6911157 -0.51144147 -0.543302 -0.5497969 -0.33345246 0.1374288
-0.21307708 0.059179224 -0.30461982 0.04063303 0.40510798 0.5768577 0.15178527 0.022772325
-0.16533428 0.38300204 -0.5582875 -0.35438094 0.18154085 0.32068163 -0.45940888 0.22024518
0.08192141 0.45885032 0.15760577 0.27822793 0.19211636 0.12469332 -0.12732172 -0.3526743
-0.3306342 -0.0022782856 0.27336273 0.22441496 -0.4525398 -0.21752033 0.3044295 0.023837306
0.029432077 0.06847978 -0.1276554 -0.5779728 0.18869708 0.11458912 -0.12814713 -0.08817696
-0.123463586 -0.19375835 -0.14957327 -0.08033784 -0.29483894 0.0013770072 -0.25432917 -0.045033704
-0.19942912 -0.20999815 -0.05169476 -0.24346173 0.0045027165 -0.093713775 -0.119468406 -0.055994086
00000000: 0fe3 8d3e bc32 c83e bde1 253e 03c2 00bf
00000010: cd2f 0a3e 676e acbe a148 b0be dddb edbe
00000020: ef3b bebe 8cd3 3fbe fa44 00be 62ef 91be
00000030: e8d1 a23c 8d17 0c3f 7dd9 60bc a67a 90be
00000040: 3d0c 8c3e 873b 16bf efe0 683e 18c5 cc3e
00000050: 69b6 3ebd fe59 85bd c994 53bd b7a8 f93c
00000060: 6a39 933e 0a55 bd3e 927e 3d3d e1f2 09be
00000070: 1021 c23e a385 0cbe 9f8d 713d 0b70 893e
00000080: b18d a9bd 24c8 553c 9e39 31be b8bf 3ebd
00000090: 05e5 60be 4618 803d 2803 8e3d 1429 883c
000000a0: 2c03 733e e421 7e3e 06d3 cc3d 519a ac3e
000000b0: 12a7 94be c392 59be 25a9 e83d a02f 123d
000000c0: 2c65 21be 56bb 1c3f 2208 81bd d699 eabd
000000d0: 64dd 12be e2cb 0d3f 51bc a13d a368 45be
000000e0: 8c07 6d3d 8446 1a3f 761f 2b3e d96a c2bd
000000f0: 1803 83be 0bad d4be 2f4d 0fbe 01ef d33e
00000100: 36c6 243e 27f1 463d 98b2 2fbe 0a76 8cbe
00000110: c9ad 073c 5ee6 a4be 2ee6 f3bc 1362 713e
00000120: 242d 36bd a7c5 033e ef13 abbd 2c4d 7c3d
00000130: eb0f 42be 50cb 9abd 77f4 11bc 8c1e 7fbe
00000140: 0ed5 823c f35c 37bd 472b 0fbd f363 063e
00000150: b68f 8bbe 5fbe 893e 8e42 0d3d a02d c93d
00000160: 88d3 d2bd be23 8abe 4f31 583e 1ece 10be
00000170: b042 903e 0b0b aabe 84d4 2e3d 6b0d 443e
00000180: 019a 903d c5ac 81bd 190b cdbe 1a19 d8be
00000190: dd2b 933d 36a1 283d 996f ac3e 52f0 eb3d
000001a0: 3020 743e 4e83 8cbe 00f2 d3be 97c2 2e3d
000001b0: 4dee a03c b41c d43e 9749 7dbe 9b3d 8c3d
000001c0: 4890 2a3d c01b 93be 63dd a53e ab11 87be
000001d0: 9b13 d6be 0363 993c 6bad 3c3d 7a53 a7bd
000001e0: c2eb 2dbd 5770 c93e 5c0d 11bd 2c5f 38be
000001f0: 7d78 e5bd 37b7 fc3e b839 133e 8359 ddbe
00000200: 2b74 ffbd 3805 7e3b 3dfc 43be d5e2 b1be
00000210: 75a2 b4be 2abf 8ebe 16d5 b73e 1ec0 f03e
00000220: 7a34 11bf d54b dfbd 9215 6f3e ab1e 9dbe
00000230: dfb6 1fbe 8c27 eebe 8845 203d c89a d6bc
00000240: 7cac 1ebd 341f 85be fa5b ce3d 1712 62be
00000250: 33bb debd e341 a5bd 553d 4dbe 2177 273f
00000260: 0926 4abe f25f 153e c8b6 ebbd 0b0d 873d
00000270: eb7a 563e b54d c23e b2ab dbba a48e 89bd
00000280: 9d31 c53e 1419 3e3c 59fb 08bf 6118 1fbc
00000290: 457e cdbe 95a6 233d fdd5 c0bd 481d 94be
000002a0: 330e 2cbe 23f5 b5be e56e ba3d 6988 72bd
000002b0: 4f6a ef3e 26d7 91be b107 c53d 726a c8bd
000002c0: 9182 713e 1f5f 873e 19a5 b3be a368 e43c
000002d0: a1ef 763d e0cf 9f3e 848c 813d ae6c d6be
000002e0: 9be0 84bc 658b f6be aa70 30be cea8 bebe
000002f0: 83f0 223f 1954 03bf 2aa6 453e c74c 81be
00000300: a9f2 94bd 82f3 ddbe f5ec 303f d4ed 02bf
00000310: d715 0bbf 7dbf 0cbf 48ba aabe 23ba 0c3e
00000320: e130 5abe ea65 723d 21f7 9bbe d26e 263d
00000330: 506a cf3e f2ac 133f 996d 1b3e 078d ba3c
00000340: 644d 29be d818 c43e eeeb 0ebf 6b71 b5be
00000350: d8e5 393e 6230 a43e a437 ebbe f487 613e
00000360: 6ac6 a73d 6eee ea3e 6863 213e e473 8e3e
00000370: 27ba 443e 365f ff3d a060 02be ba91 b4be
00000380: e348 a9be 4a4f 15bb 33f6 8b3e 09cd 653e
00000390: 4cb3 e7be a6bd 5ebe 2fde 9b3e 7446 c33c
000003a0: 8a1b f13c 203f 8c3d 19b8 02be 07f6 13bf
000003b0: cf39 413e b3ad ea3d 0039 03be 1f96 b4bd
000003c0: 7ada fcbd 9768 46be bc29 19be 2a88 a4bd
000003d0: 21f5 96be b27c b43a 6f37 82be 4375 38bd
000003e0: 2637 4cbe c109 57be e2bd 53bd 084e 79be
000003f0: 868b 933b 02ed bfbd daab f4bd 0e5a 65bd

neg_net.linears.1.bias f4 [30]
0.037398323 -0.08154278 -0.086695075 -0.05028402 -0.07746705 0.14237565 -0.090624705 0.015372058
-0.33121148 0.3026828 0.23508137 0.06587136 0.2179087 -0.43903393 -0.24552347 -0.032122638
-0.11929772 -0.12118481 -0.08096182 -0.052082177 0.21182805 -0.20427136 -0.016361795 0.11409221
0.033935625 -0.19929335 -0.087585874 -0.07171436 -0.04780923 -0.20724787
00000000: fc2e 193d e7ff a6bd 308d b1bd 9ef6 4dbd
00000010: 0ba7 9ebd ecca 113e 7299 b9bd 16db 7b3c
00000020: 8d94 a9be 3df9 9a3e 2cb9 703e 90e7 863d
00000030: 7523 5f3e 0ec9 e0be 816a 7bbe 0793 03bd
00000040: 5d52 f4bd be2f f8bd 50cf a5bd 1f54 55bd
00000050: 74e9 583e 832c 51be 2c09 86bc 2da9 e93d
00000060: 1500 0b3d 8e13 4cbe 3960 b3bd fade 92bd
00000070: 9cd3 43bd c938 54be

neg_net.linears.2.weight f4 [30, 30]
0.00020856864 -0.036017224 -0.072302535 0.012466888 0.03324229 -0.10854004 -0.043853562 -0.13752215
-0.0019923616 -0.31140336 0.18385893 0.00035902168 -0.27431306 0.0019305763 -0.2847096 0.0027319067
0.002339724 -0.00090074126 -0.0042877016 -0.124665275 -0.010386438 -0.0029816255 -0.077381656 -0.41258007
0.04994701 -0.037443005 -0.00055817974 -0.056349434 -0.0010732816 -0.00032878495 0.13315225 0.4019249
-0.50389665 -0.3448265 -0.28351 0.2771663 -0.1259981 0.28516978 -0.25890067 -0.31781867
0.13185492 -0.30879477 -0.21113981 -0.04588688 0.06987163 0.16448423 -0.006792805 0.002999359
-0.0041353963 0.19428286 -0.15286884 -0.13730301 0.011815414 0.088746525 0.25499517 0.3253364
0.0016522243 0.15594287 -0.00013034794 0.0072038095 0.017687017 -0.17555003 -0.20250584 -0.067257725
0.19911453 -0.116489135 0.38939855 -0.0761101 -0.0748517 0.45983726 0.060929082 0.06529758
0.46731195 0.08638253 -0.07444695 0.22736548 -0.0021767167 0.020927515 -0.003447307 -0.023438878
-0.2901223 0.051080376 -0.27826884 0.017603585 0.12793933 0.22573853 -0.0033463056 0.24626988
-0.0035849242 -0.37411395 -0.13669306 -0.06888862 -0.2508583 -0.09999791 -0.22350815 -0.026654717
-0.21203813 -0.09156959 -0.027766464 -0.14234208 -0.15767357 0.020901412 -0.130872 -0.05844376
-0.13545679 0.47297117 -0.0018871548 0.009094468 0.0006058826 -0.43895146 -0.17146076 -0.21779655
-0.28911078 0.23529974 -0.17922609 0.00022834791 0.0019679046 0.012169425 0.008294149 -0.047886662
-0.050684027 0.030011604 0.025446482 -0.07169454 0.060923085 0.5938328 0.25469482 0.46155408
0.089949355 0.13038068 0.13316612 -0.3099117 -0.04915977 0.14323078 0.12282678 -0.38597375
-2.1316868e-05 0.0031477034 -0.014154322 -0.2668749 -0.25271383 0.10423655 -0.008340101 0.28809416
-0.21753384 -0.1028309 -0.0023959794 0.07436618 -0.0008455541 -0.07380889 -0.44017795 -0.10202533
-0.25157255 -0.21172544 -0.48286316 -0.16857931 -0.36846665 0.05807679 0.000485991 -0.19713484
-0.5544237 0.46789315 -0.27613637 -0.0007519625 -0.3156613 -0.46930942 -0.008500702 -0.002774571
-0.06631646 0.38126633 -0.2551995 -0.0008025849 -0.21355261 0.22627981 -0.029421482 0.00013712866
0.0013387168 0.23382252 -0.004363122 -0.0032966782 0.0333096 -0.20425157 0.038698282 -0.001448358
-0.06768986 0.06813415 0.06902184 -0.17048468 -0.00036934018 0.02365652 -0.21787396 -0.020513944
-0.084689684 6.358752e-05 0.02876918 -0.002688149 0.00083150936 -0.0011544091 -3.0515774e-05 -0.23966227
-0.047481503 -0.000599535 -0.043972354 -0.24129218 -0.06835964 0.00035422793 -2.803572e-05 -0.097784534
0.00091392227 0.0004389213 0.051003322 -0.5449463 -0.12980099 -0.003349749 0.15868942 -0.35421744
0.45874104 -0.22675763 -0.060379073 0.038621195 0.29186735 -0.28333345 0.18909214 -0.0049673724
-0.2078059 -0.13112998 0.0044082752 0.003389763 -0.0010538737 0.44734943 -0.2708092 0.0012104721
-0.20679471 -0.50910807 -0.11550306 -0.13566531 0.0018196082 -0.5301341 0.00089093094 0.0023131457
-0.28208455 -0.16032849 -0.25980407 -0.051072646 -0.52638596 -0.23576757 0.5697699 -0.0052631
-0.14118627 -0.28349388 -0.57540643 -0.1348462 0.18263173 -0.029344935 -0.25135896 -0.36538973
00000000: 38b3 5a39 cc86 13bd 5a13 94bd eb41 4c3c
00000010: 1129 083d 3e4a debd cb9f 33bd 9bd2 0cbe
00000020: 4892 02bb 4370 9fbe 8445 3c3e 133b bc39
00000030: c372 8cbe 640b fd3a 75c5 91be ca09 333b
00000040: 0e56 193b b91f 6cba d97f 8cbb 8250 ffbd
00000050: e12b 2abc 6067 43bb 467a 9ebd b23d d3be
00000060: 3c95 4c3d d65d 19bd cf52 12ba aace 66bd
00000070: 5bad 8cba c560 acb9 1059 083e 1ac9 cd3e
00000080: 5fff 00bf 198d b0be 3928 91be bee8 8d3e
00000090: a505 01be c601 923e a18e 84be 21b9 a2be
000000a0: fa04 073e 591a 9ebe 0935 58be e2f3 3bbd
000000b0: db18 8f3d 8e6e 283e 2e96 debb e590 443b
000000c0: 3882 87bb 16f2 463e a689 1cbe 2999 0cbe
000000d0: 7095 413c bdc0 b53d ba8e 823e 7e92 a63e
000000e0: 738f d83a 7daf 1f3e 02ae 08b9 ef0d ec3b
000000f0: 5de4 903c 63c3 33be b15d 4fbe 6bbe 89bd
00000100: aee4 4b3e db91 eebd 3f5f c73e 9ddf 9bbd
00000110: d94b 99bd ca6f eb3e c690 793d bdba 853d
00000120: 8343 ef3e 53e9 b03d a477 98bd 7fd2 683e
00000130: 3fa7 0ebb 2e70 ab3c 37ec 61bb e402 c0bc
00000140: e98a 94be a839 513d 4179 8ebe 6535 903c
00000150: 8702 033e 0028 673e b14d 5bbb 2c2e 7c3e
00000160: 0cf1 6abb dd8b bfbe 44f9 0bbe 7a15 8dbd
00000170: 8070 80be b4cb ccbd 52df 64be fe5a dabc
00000180: 8620 59be d688 bbbd 7f76 e3bc 1fc2 11be
00000190: 2e75 21be 7039 ab3c 4f03 06be b962 6fbd
000001a0: 2fb5 0abe 4729 f23e 685a f7ba f700 153c
000001b0: 18d4 1e3a 3fbe e0be 6993 2fbe 0f06 5fbe
000001c0: 5406 94be 6af2 703e 0b87 37be ad70 6f39
000001d0: f6f7 003b 4562 473c 2fe4 073c ce24 44bd
000001e0: 0e9a 4fbd e5da f53c 2475 d03c 96d4 92bd
000001f0: 7c8a 793d 6d05 183f 5c67 823e d150 ec3e
00000200: 5e37 b83d 8382 053e b35c 083e bfac 9ebe
00000210: c15b 49bd 17ab 123e 9b8c fb3d 5a9e c5be
00000220: a0d1 b2b7 b349 4e3b 88e7 67bc d4a3 88be
00000230: b563 81be f979 d53d eba4 08bc 1481 933e
00000240: 31c1 5ebe 0299 d2bd dd05 1dbb 4c4d 983d
00000250: 2da8 5dba 1e29 97bd 015f e1be a8f2 d0bd
00000260: 1ece 80be 8ece 58be d739 f7be 0ea0 2cbe
00000270: a9a7 bcbe eee1 6d3d 9ccc fe39 b7dd 49be
00000280: b6ee 0dbf b18f ef3e bf61 8dbe 591f 45ba
00000290: 5c9e a1be 5349 f0be 8746 0bbc 94d5 35bb
000002a0: edd0 87bd 5735 c33e 82a9 82be 9064 52ba
000002b0: 89ad 5abe e5b5 673e 5205 f1bc 32ca 0f39
000002c0: e277 af3a 2c6f 6f3e 85f8 8ebb 150d 58bb
000002d0: a66f 083d 5327 51be 1782 1e3d d4d6 bdba
000002e0: fba0 8abd eb89 8b3d 535b 8d3d 8993 2ebe
000002f0: 00a4 c1b9 51cb c13c 5a1a 5fbe dc0c a8bc
00000300: c971 adbd 4a5a 8538 58ad eb3c a82b 30bb
00000310: a6f9 593a 8b4f 97ba 20fc ffb7 076a 75be
00000320: f77b 42bd 1d2a 1dba 5b1c 34bd 4c15 77be
00000330: 2400 8cbd abb7 b939 402e ebb7 4243 c8bd
00000340: 4994 6f3a 051f e639 dce8 503d 9a81 0bbf
00000350: 8dea 04be 7687 5bbb 7b7f 223e fd5b b5be
00000360: 1be0 ea3e 2733 68be 0c50 77bd 4231 1e3d
00000370: a36f 953e 1511 91be 5fa1 413e 57c5 a2bb
00000380: 12cb 54be f046 06be 4b73 903b c926 5e3b
00000390: 2222 8aba fc0a e53e 81a7 8abe b4a8 9e3a
000003a0: fec1 53be e854 02bf de8c ecbd d9eb 0abe
000003b0: eb7f ee3a deb6 07bf 5d8d 693a 2598 173b
000003c0: 636d 90be 272d 24be 0a05 85be 8d31 51bd
000003d0: 3bc1 06bf 0e6d 71be 71dc 113f 1576 acbb
000003e0: 2293 10be 1c26 91be d64d 13bf 1f15 0abe
000003f0: d003 3b3e ca64 f0bc 1fb2 80be 5d14 bbbe

neg_net.linears.2.bias f4 [30]
-0.28312752 0.34880748 0.1612856 -0.09432011 0.16563231 -0.3405655 -0.0727387 -0.0882271
-0.008804954 0.2948092 -0.23682228 -0.38057232 0.59434766 -0.10636032 -0.2422372 0.014181233
-0.116399646 0.3056619 -0.1433969 0.6799078 0.38843632 -0.27696955 0.26153278 -0.2834703
-0.20074223 0.54304177 0.29033512 -0.16098104 0.400508 0.060972694
00000000: 17f6 90be e596 b23e 0d28 253e e72a c1bd
00000010: 849b 293e 9a5e aebe 07f8 94bd 69b0 b4bd
00000020: a742 10bc 3bf1 963e 8a81 72be 60da c2be
00000030: 2b27 183f 70d3 d9bd 070d 78be 6758 683c
00000040: f062 eebd b77f 9c3e a3d6 12be 700e 2e3f
00000050: 20e1 c63e f4ce 8dbe a0e7 853e 0523 91be
00000060: 5f8f 4dbe c904 0b3f cea6 943e 37d8 24be
00000070: 620f cd3e 81be 793d
