data/MTMR_28002/sim/random/NN_Dist_0.02/train/N10/D6_SinCosInput/2/result/model/ReLU_Dual_UDirection_PKD.pt (torch_old, 22776 bytes, 20 tensors)

input_mean f4 [12]
0	0xba354a18	-0.0006915643
1	0x3e8262ac	0.25465906
2	0x3b661cbd	0.0035112344
3	0x3e7a7fa3	0.24462752
4	0x3e738c0d	0.23783894
5	0xba052d4b	-0.00050802965
6	0x3f6bcab3	0.9210617
7	0x3f6bf6cf	0.92173475
8	0x3f713542	0.9422189
9	0x3e2f4034	0.17114335
10	0x3e7220e9	0.23645367
11	0x3f6bf8d6	0.9217657

input_std f4 [12]
0	0x3ec42c88	0.38315225
1	0x3e8f2f1b	0.27965626
2	0x3ea97ae8	0.33101583
3	0x3f23555e	0.63802135
4	0x3f2a51e7	0.66531223
5	0x3ec343c0	0.38137627
6	0x3d8e77c4	0.06956437
7	0x3daf88b4	0.08570996
8	0x3d527260	0.051378608
9	0x3f35b488	0.70978594
10	0x3f2ac02a	0.6669947
11	0x3d8f5bc3	0.06999924

output_mean f4 [6]
0	0x30535896	7.688724e-10
1	0x3eb7c36e	0.3589129
2	0x3e47ef21	0.19524814
3	0xbc0376c5	-0.008023922
4	0x3b4887c9	0.0030598512
5	0x3aa6f81a	0.0012738735

output_std f4 [6]
0	0x36a335c5	4.864038e-06
1	0x3e564a9f	0.20926903
2	0x3e21eabf	0.15812205
3	0x3d7e3cc6	0.062069677
4	0x3d234089	0.039856467
5	0x3c1b0743	0.009462181

pos_net.linears.0.weight f4 [30, 12]
0	0x3ca262dd	0.019822532
1	0xbb6b6610	-0.0035918988
2	0x3e513a51	0.20432402
3	0x3e9d6803	0.30743417
4	0x3efc5c36	0.492891
5	0xbd47a491	-0.048740927
6	0x3e967b25	0.29390827
7	0xbd607fd1	-0.054809395
8	0x3efecffc	0.49768054
9	0xbea37d33	-0.31931457
10	0xbebd6191	-0.369885
11	0x3e801452	0.25015503
12	0x3f1fec92	0.6247035
13	0xbeadc9cf	-0.3394303
14	0xbf44c39a	-0.76860964
15	0x3f6d1392	0.92607987
16	0xbec82d9d	-0.390973
17	0xbd69c1c9	-0.057069574
18	0x3ef1f65d	0.47258273
19	0x3e8cc231	0.27491906
20	0xbe9a2b03	-0.3011094
21	0xbf3dae5e	-0.7409419
22	0x3f21797e	0.6307601
23	0x3e639dc0	0.22228146
24	0x3de260cf	0.11053621
25	0xbeb07b4f	-0.34469077
26	0xbf180228	-0.5937829
27	0x3e83c431	0.2573562
28	0xbf659922	-0.8968679
29	0x3f0a7322	0.5408193
30	0x3ed747d3	0.42046985
31	0x3f3491f7	0.70535225
32	0xbebc5b4e	-0.3678841
33	0xbf0d8f3a	-0.5529667
34	0x3ec0892b	0.3760465
35	0x3ec68bfb	0.38778672
36	0xbf1bd3be	-0.6086997
37	0x3e5c9f9e	0.21545264
38	0x3d4808a0	0.04883635
39	0x3d63eede	0.055647723
40	0x3ea7ced1	0.32774976
41	0x3e1a6de0	0.15080976
42	0xbdbfdef6	-0.09368698
43	0xbeaa41f7	-0.33253452
44	0x3c6b22d0	0.014351562
45	0x3d173fda	0.036926128
46	0xbe9c6db4	-0.30552447
47	0x3eba550c	0.3639301
48	0xbeebfcc8	-0.46091294
49	0xbbf60e39	-0.0075090197
50	0x3e5a1379	0.2129649
51	0xbeff0e8d	-0.4981579
52	0x3eaeda7c	0.34151065
53	0xbeb260e5	-0.3483955
54	0xbe502316	-0.20325884
55	0xbe743f60	-0.238523
56	0x3dd6d113	0.104890965
57	0x3f02b756	0.51061
58	0xbd673b76	-0.05645319
59	0x3f2d059d	0.6758669
60	0xbeee3ca4	-0.4653064
61	0xbf019b87	-0.5062794
62	0xbf1514eb	-0.58235043
63	0x3e84c4b5	0.25931326
64	0xbf297abd	-0.6620291
65	0xbe69c310	-0.22828317
66	0x3d9f25ea	0.077709034
67	0x3f06032c	0.5234859
68	0xbdf655d6	-0.12028091
69	0xbee8707f	-0.45398328
70	0x3e4ea0fc	0.20178598
71	0x3dc80d58	0.0976817
72	0x3e4ce189	0.2000791
73	0xbef64fa1	-0.48107627
74	0xbf172c51	-0.59051996
75	0xbe773fda	-0.24145451
76	0xbee86922	-0.4539271
77	0x3e596c80	0.21232796
78	0x3e87aa0f	0.26496932
79	0x3f0e0e27	0.55490345
80	0xbeedcec4	-0.46446812
81	0xbd72469b	-0.059149366
82	0x3f05340a	0.5203253
83	0x3e939a5f	0.28828713
84	0xbf1641a1	-0.5869389
85	0x3e6ed8b0	0.23324847
86	0x3e67b83d	0.22628875
87	0x3e176a51	0.1478665
88	0x3f22092a	0.63295233
89	0x3db6b596	0.089213535
90	0x3d3cfc8b	0.04613928
91	0xbef2e990	-0.4744382
92	0x3efc0618	0.492234
93	0xbe97fbd2	-0.2968431
94	0xbeb052a0	-0.34438038
95	0x3dae38ec	0.08506951
96	0x3ec2e515	0.380654
97	0xbf11bcd3	-0.5692875
98	0x3d9d4a80	0.07680225
99	0xbf588338	-0.84575224
100	0x3f1c5d2a	0.6107966
101	0x3e0c7893	0.1371787
102	0xbc1f7b33	-0.009733963
103	0x3f4ea6ff	0.80723566
104	0x3e3612a9	0.17780556
105	0x3eb2d82d	0.34930554
106	0xbd0c73dc	-0.03429018
107	0x3db6232f	0.088934295
108	0x3ebf8b6b	0.37411055
109	0xbea1bfeb	-0.31591734
110	0x3ef1b209	0.47206143
111	0xbe0788d3	-0.13235788
112	0x3e5da288	0.21644032
113	0xbea755a9	-0.3268254
114	0x3e83a664	0.25712883
115	0x3e236d1d	0.15959592
116	0x3c3d27e0	0.0115451515
117	0xbda923fd	-0.08258817
118	0xbd1e218c	-0.03860621
119	0x3d8d29a8	0.06892711
120	0xbe60674b	-0.21914403
121	0x3d30a9c4	0.04313065
122	0x3b3b0dd8	0.0028542187
123	0x3e863c8d	0.26218072
124	0x3ea7b3fe	0.3275451
125	0xbcde848a	-0.027162809
126	0x3d1ad0fa	0.03779695
127	0xbd41d55f	-0.047322627
128	0x3e1176d1	0.14205481
129	0x3e332582	0.17494777
130	0x3e33e0e4	0.17566258
131	0x3ec28e30	0.37999105
132	0x3d680610	0.056646407
133	0x3db5a022	0.088684335
134	0xbf08c91c	-0.5343187
135	0x3ea2cad9	0.31795385
136	0xbccd6923	-0.025074547
137	0xbe58c060	-0.21167135
138	0x3be67b68	0.007033754
139	0x3ee4be8d	0.4467663
140	0x3e62e193	0.22156362
141	0xbf0eaaa7	-0.55729145
142	0xbe9794e3	-0.2960578
143	0x3ecae291	0.3962598
144	0xbdad3cf8	-0.084588945
145	0x3ee556be	0.44792742
146	0x3d5b10af	0.053482708
147	0x3c048621	0.008088619
148	0x3ef6fe3f	0.4824085
149	0xbe13a601	-0.14418794
150	0x3eaed907	0.34149954
151	0xbe3cb7a1	-0.18429424
152	0x3eda4f7e	0.42638773
153	0xbe5b1d78	-0.2139796
154	0xbe80f1e9	-0.25184563
155	0x3e87014e	0.26368183
156	0xbec6ed25	-0.38852802
157	0xbe00f576	-0.12593636
158	0x3ee9f90a	0.45697814
159	0xbe90e6d8	-0.2830112
160	0x3e6e6020	0.23278856
161	0xbeab8522	-0.3350001
162	0xbf2a2aab	-0.66471356
163	0xbe3aa900	-0.18228531
164	0xbd58592e	-0.052819423
165	0x3ee1e3cc	0.44119108
166	0x3e749b5d	0.23887391
167	0x3edd79e3	0.43257055
168	0x3dadc401	0.084846504
169	0x3e55b5d0	0.20870137
170	0x3e306216	0.17224917
171	0xbcf2d43d	-0.029642219
172	0x3c22af5a	0.009929502
173	0xbf041441	-0.51593405
174	0x3cc67e38	0.024230108
175	0x3dc64563	0.09681203
176	0xbe132350	-0.1436894
177	0x3ee359b1	0.44404367
178	0x3d722c8a	0.059124507
179	0x3c21f67f	0.009885429
180	0xbe06a72a	-0.13149706
181	0x3e8d603c	0.27612484
182	0xbe0a5f29	-0.13512863
183	0xbe46fd87	-0.1943265
184	0x3eb66a01	0.3562775
185	0x3e9519d3	0.29121265
186	0xbef5edff	-0.4803314
187	0xbe84d69c	-0.25944984
188	0x3e8cf1f4	0.27528346
189	0x3e24feff	0.16112898
190	0x3d6e0b6d	0.058116365
191	0x3e25aca5	0.1617914
192	0x3eadc291	0.33937505
193	0xbec190d6	-0.37805814
194	0xbec7e3cf	-0.39040992
195	0x3e58efe5	0.21185263
196	0xbf02a81e	-0.51037776
197	0x3d08e0f4	0.033417657
198	0x3c7043c2	0.014664592
199	0x3ef56db8	0.4793527
200	0xbebc0bba	-0.36727697
201	0xbd7214e2	-0.059101947
202	0xbe18c3fd	-0.14918514
203	0x3e95f0bd	0.2928523
204	0xbec2426a	-0.37941295
205	0x3f044a66	0.51676023
206	0x3eaa4267	0.33253786
207	0xbea1e9e5	-0.3162376
208	0x3eb355d7	0.35026428
209	0x3d4e3c03	0.0503502
210	0xbe29d3c1	-0.16584684
211	0xbe701df4	-0.23448926
212	0xbdfad3eb	-0.122474514
213	0x3ed5f526	0.41788596
214	0x3d34c150	0.04412967
215	0x3ed627d3	0.41827258
216	0xbf115750	-0.56773853
217	0x3f2a28fd	0.66468793
218	0x3eeecdfb	0.46641526
219	0x3ed066e5	0.40703502
220	0x3eaa562a	0.33268863
221	0x3f10c40d	0.5654915
222	0xbd996dbe	-0.07491635
223	0xbed4cf60	-0.41564465
224	0x3eaea5bb	0.34110817
225	0x3e45b8f4	0.19308835
226	0xbe6f60b0	-0.23376727
227	0x3cc3e2cf	0.023911862
228	0xbe9fa2f9	-0.31179026
229	0x3ed71743	0.42009935
230	0xbdc88574	-0.09791079
231	0x3e8ac88d	0.27106133
232	0x3eac2f0b	0.3362964
233	0x3d05c9ca	0.032663144
234	0x3e9de77e	0.30840677
235	0xbf1074c1	-0.5642815
236	0x3e2ff042	0.17181495
237	0xbe44cb42	-0.19218162
238	0xbed9394e	-0.42426533
239	0x3cf894be	0.030344363
240	0xbebbd055	-0.36682382
241	0x3df9abb5	0.12190954
242	0xbe993b70	-0.2992816
243	0xbe971828	-0.29510617
244	0x3d9c7306	0.076391265
245	0xbf06745d	-0.52521306
246	0xbe2328cc	-0.15933532
247	0xbe98aa06	-0.29817218
248	0x3da543b9	0.08069558
249	0x3e9cc7bc	0.30621135
250	0x3e84ab4f	0.25911948
251	0x3e216f46	0.15765104
252	0x3ea53b43	0.32271776
253	0xbebe94a3	-0.37222776
254	0xbf155a10	-0.5834055
255	0x3e95304d	0.29138413

pos_net.linears.0.bias f4 [30]
0	0x3eb235ab	0.3480657
1	0x3e677207	0.22602092
2	0x3e8d9080	0.27649307
3	0x3cfe81e4	0.031067796
4	0xbe5f33c2	-0.21797088
5	0xbf13242c	-0.5747707
6	0xbdf19a74	-0.11797038
7	0x3e92d1fb	0.28675827
8	0xbdf4a656	-0.119457886
9	0xbe42168e	-0.18953916
10	0x3ea76749	0.32695988
11	0x3df43799	0.11924667
12	0x3e8e84d0	0.27835703
13	0xbe853f55	-0.2602488
14	0xbe3ce569	-0.18446888
15	0x3d8f68a1	0.07002378
16	0x3e9762a8	0.29567456
17	0x3e22dbbf	0.15904139
18	0x3e8d52a8	0.27602124
19	0x3ef466ac	0.47734582
20	0x3e5a778c	0.21334666
21	0xbe5340b7	-0.20630156
22	0x3e763ad5	0.2404588
23	0x3e4176cf	0.18892978
24	0xbc9c55be	-0.019083854
25	0xbd8644d8	-0.065561
26	0x3cabf0d9	0.020988869
27	0xbe118cee	-0.14213917
28	0x3d41c2bf	0.047304865
29	0x3e9399c0	0.2882824

pos_net.linears.1.weight f4 [30, 30]
0	0x3cdfd5c4	0.027323611
1	0xbf1c2a93	-0.61002463
2	0xbd759570	-0.059956968
3	0x3ea07e99	0.31346586
4	0x3eb0c4b5	0.34525076
5	0x3e071e1e	0.13195083
6	0xbebe0a0c	-0.3711704
7	0x3ea8fc7f	0.3300514
8	0xbed74c79	-0.42050532
9	0xbec0eb5a	-0.3767956
10	0x3e537b7a	0.20652571
11	0x3d414bbe	0.047191374
12	0x3e01dcb0	0.12681842
13	0x3ec90968	0.3926499
14	0xbdfe6190	-0.12420952
15	0xbdfa6118	-0.122255504
16	0xbe9a8050	-0.3017602
17	0x3e466e2c	0.19377965
18	0x3e80c4f2	0.25150257
19	0x3ed535e9	0.41642693
20	0x3b74d508	0.0037358422
21	0x3c0be023	0.008537325
22	0xbce34f35	-0.02774773
23	0x3deb6349	0.114935465
24	0xbe88a278	-0.26686454
25	0xbec1fc73	-0.37887916
26	0x3e1fc9be	0.15604302
27	0x3e8e84c0	0.27835655
28	0x3e76c974	0.24100286
29	0xbe5422b3	-0.20716362
30	0x3b3f08cc	0.002914953
31	0xba84d734	-0.0010134936
32	0xbd0aff97	-0.033935156
33	0xbe9a5665	-0.3014404
34	0xbe293ab3	-0.16526298
35	0x3c1cf318	0.009579442
36	0xba856944	-0.0010178466
37	0xbe12b05a	-0.14325085
38	0x3c5a0c74	0.013308633
39	0xbe37124f	-0.17878078
40	0xbd35b056	-0.04435762
41	0x3c0f20ff	0.008735894
42	0xbc538c7d	-0.012911913
43	0x3c93b1f2	0.018029187
44	0xbc7033af	-0.01466076
45	0xbe8a486f	-0.27008387
46	0xbc4dea76	-0.012568107
47	0xbe9a39c8	-0.3012221
48	0xbe357ce5	-0.17723425
49	0xbb9db15e	-0.0048124036
50	0xbe64a306	-0.22327814
51	0xbcff9dfc	-0.031203263
52	0x3c0db153	0.008648234
53	0xbe161417	-0.14656101
54	0xbe435c31	-0.19078137
55	0xbb9d3f34	-0.004798794
56	0xbbf89cd2	-0.007587054
57	0xbe64deb3	-0.22350578
58	0xbe589b24	-0.21152931
59	0xbbe5688d	-0.007000989
60	0xbc85f28d	-0.016351009
61	0x3bf4a0e3	0.0074654683
62	0xb9b786e0	-0.0003500497
63	0xbe0741cf	-0.13208698
64	0xbbd329d2	-0.0064441944
65	0x3c165a26	0.0091767665
66	0xbb467e7c	-0.0030287793
67	0xbca395a0	-0.019968808
68	0x3c6acafa	0.01433062
69	0xbdb173fe	-0.08664702
70	0xbbff2594	-0.007786462
71	0xbc5ab83b	-0.013349588
72	0x3bee1cbe	0.00726661
73	0xbdeeda39	-0.116627164
74	0x3bb20116	0.0054322584
75	0xbe0c4e2e	-0.13701698
76	0xbb87beaa	-0.004142602
77	0xbc1d2b9c	-0.009592917
78	0xbdca5256	-0.098789856
79	0xbe398270	-0.18116164
80	0xbc16544c	-0.009175371
81	0xbda3c04a	-0.079956606
82	0xbe347cb3	-0.17625694
83	0x3d72ec3c	0.059307322
84	0xbc93a712	-0.018024001
85	0x3b2a5ca0	0.002599515
86	0x3c354d00	0.0110657215
87	0xbdc2db2e	-0.095144615
88	0x3becae60	0.0072229356
89	0xbbfdfdce	-0.007751203
90	0x3e6f92d5	0.23395856
91	0x3ee82823	0.45343122
92	0xbd9999ac	-0.07500014
93	0x3e0fecec	0.14055222
94	0x3d30fb70	0.04320854
95	0xbcd4e25d	-0.025986845
96	0xbf50159c	-0.81282973
97	0x3e7e0ba0	0.24809122
98	0x3e3eac73	0.18620472
99	0x3c5ac97e	0.013353704
100	0xbd858e49	-0.06521279
101	0x3c773b2b	0.01508979
102	0x3eb1b646	0.34709376
103	0x3e25acd2	0.16179207
104	0x3da30e6c	0.07961735
105	0x3da0a07c	0.0784311
106	0xbf363eac	-0.7118938
107	0x3e30c895	0.17264016
108	0x3ee5cf3d	0.44884673
109	0x3edc264f	0.42997977
110	0x3dee3609	0.116314
111	0x3e6f570d	0.23373051
112	0x3ee5ebdf	0.44906518
113	0x3eb60c85	0.35556427
114	0x39b91cb0	0.00035307324
115	0x3ebeacb8	0.3724115
116	0xbe99f4e8	-0.3006966
117	0x3e797deb	0.2436444
118	0x3e2a4ffa	0.16632071
119	0xbf18c4db	-0.5967538
120	0xbec6a645	-0.3879873
121	0x3e6987ac	0.22805661
122	0x3ea166c8	0.31523728
123	0xbea7c226	-0.3276531
124	0xbf149251	-0.5803576
125	0x3f00e663	0.5035154
126	0x3e670699	0.2256111
127	0xbe761e1c	-0.24034923
128	0xbf11e13e	-0.5698432
129	0xbe6e7667	-0.23287354
130	0xbefca19f	-0.49342057
131	0x3e0cf149	0.13763918
132	0xbf0a2f42	-0.5397836
133	0xbe91a245	-0.28444114
134	0x3d85230c	0.06500825
135	0xbf424b32	-0.7589599
136	0x3dc46d1f	0.09591126
137	0xbe949d33	-0.29026183
138	0xbe14e928	-0.14542067
139	0xbec6005d	-0.38672152
140	0xbf209a57	-0.62735504
141	0x3ef1cead	0.47227994
142	0xbe51be19	-0.20482673
143	0xbf23f3c4	-0.6404383
144	0xbde3404a	-0.110962465
145	0x3e1c04e3	0.15236239
146	0x3e5335fa	0.20626059
147	0xbdddb197	-0.10824888
148	0xbe4164bf	-0.18886088
149	0x3d1aca2e	0.03779047
150	0x3d8c42fd	0.068487145
151	0xbc08ebf9	-0.0083570415
152	0xbe8b0f4b	-0.27160105
153	0x3c1b44b6	0.009476831
154	0xbc8cba84	-0.017178781
155	0xbb3f42dc	-0.0029184138
156	0xbd87d263	-0.06631925
157	0xbe4afd1e	-0.19823119
158	0xbca3a646	-0.019976746
159	0x3c7d79c6	0.015470928
160	0xbe151b64	-0.1456123
161	0x3c265644	0.010152403
162	0xbb4a50be	-0.003087088
163	0xbc4a51f0	-0.012348637
164	0xbdef8ad7	-0.116964035
165	0xbc9edf06	-0.019393455
166	0xbe1c2cda	-0.15251485
167	0xbe37ef42	-0.17962363
168	0xbda76041	-0.08172656
169	0x3c43c3a0	0.011948496
170	0xbe7cf4fd	-0.2470283
171	0xbc4a80f8	-0.01235985
172	0x3bb6743c	0.0055680554
173	0xbdb4c554	-0.088267
174	0xbeaae841	-0.3338032
175	0x3bfcb6d8	0.0077122264
176	0xbe8f398b	-0.2797359
177	0x3bb6365a	0.0055606784
178	0x3c5afee4	0.013366435
179	0xbe9bcd5e	-0.3043012
180	0xbcc5dbc8	-0.024152651
181	0xbefa0543	-0.4883214
182	0xbe2f8217	-0.17139469
183	0xbca6c852	-0.020359192
184	0x3e215da3	0.15758376
185	0xbe933e03	-0.2875825
186	0xbec57342	-0.38564497
187	0x3e1e8dec	0.15483826
188	0xbe3c89a6	-0.18411884
189	0xbeada718	-0.33916545
190	0x3e32a7be	0.17446801
191	0xbe45e4b8	-0.1932553
192	0xbc7c60e7	-0.015403963
193	0x3d76c075	0.060242135
194	0xbe5a13cf	-0.21296619
195	0xbd2d20ac	-0.042267486
196	0xbe7284d4	-0.23683482
197	0x3d9df2b0	0.077123046
198	0xbcb2d86a	-0.02183171
199	0xbe10edca	-0.1415321
200	0x3dcbd86e	0.0995339
201	0xbf0ddf8d	-0.55419236
202	0xbea953b0	-0.3307166
203	0x3e0a0d90	0.13481736
204	0xbdf15b19	-0.117849536
205	0xbee3577b	-0.4440268
206	0xbf1ebe64	-0.62009263
207	0x3db0556e	0.086100444
208	0xbd042f9a	-0.03227196
209	0xbed772e1	-0.42079833
210	0x3e73df0b	0.23815553
211	0xbe823873	-0.25433692
212	0xbe326f24	-0.1742521
213	0x3df39788	0.11894137
214	0x3e8f0b5d	0.27938357
215	0xbf11ebe7	-0.57000583
216	0xbf0d0607	-0.5508732
217	0x3e2b9706	0.1675683
218	0x3db09458	0.08622044
219	0xbe3c8bff	-0.1841278
220	0x3e163776	0.14669594
221	0x3e217a75	0.1576937
222	0x3e0c17b5	0.13680919
223	0x3d996afa	0.07491107
224	0xbec956ef	-0.39324138
225	0x3e712c86	0.2355214
226	0xbf25db3d	-0.64787656
227	0x3e0781ac	0.1323306
228	0x3e83615c	0.25660217
229	0xbe5b0ee8	-0.21392405
230	0x3e4fe845	0.20303448
231	0xbe2f5f5c	-0.1712622
232	0xbe63bcd4	-0.22240001
233	0xbb553c8a	-0.0032537305
234	0xbdea1e07	-0.114315085
235	0x3ccfa2a4	0.025346108
236	0xbee52bc7	-0.44759962
237	0x3ec7e9c6	0.39045542
238	0x3e81b01f	0.25329682
239	0xbf08d05a	-0.5344292
240	0xbf274098	-0.6533294
241	0x3ebc7d32	0.36814266
242	0x3f16c714	0.5889752
243	0xbecdfea6	-0.40233344
244	0xbf2e4cde	-0.6808604
245	0x3eae69c8	0.3406508
246	0x3eac947d	0.33707038
247	0xbe9ed1b0	-0.31019354
248	0xbf5c28a8	-0.85999537
249	0xbdb56015	-0.08856217
250	0xbf161b96	-0.5863584
251	0x3e19184e	0.14950678
252	0xbf070bda	-0.5275246
253	0xbf33ecb7	-0.70283073
254	0x3f16f695	0.58970004
255	0xbf4bb56f	-0.7957372

pos_net.linears.1.bias f4 [30]
0	0x3e8b456f	0.2720141
1	0xbe85747d	-0.26065436
2	0xbe6efe9d	-0.23339315
3	0x3e7e0d88	0.2480985
4	0xbee1f0d9	-0.44129065
5	0xbea391c8	-0.3194716
6	0x3e21fd4d	0.15819283
7	0x3e86651f	0.26249024
8	0xbe87df8b	-0.26537737
9	0xb98af060	-0.00026500504
10	0xbeb325be	-0.34989733
11	0xbc36e1b7	-0.011162213
12	0x3e5b02f4	0.21387845
13	0x3e1f7fba	0.15576068
14	0xbe672aec	-0.22574967
15	0xbe540339	-0.20704354
16	0x3c2f3ba9	0.010695376
17	0x3eba1f5f	0.3635206
18	0x3db347e3	0.08753946
19	0x3e98e44c	0.29861677
20	0x3e9e6d9f	0.3094301
21	0xbe550913	-0.20804243
22	0xbe9a61f3	-0.30152854
23	0xbf0174e4	-0.50568986
24	0xbe48082d	-0.19534369
25	0x3ea10530	0.3144927
26	0xbe2f020a	-0.17090622
27	0xbc85dcb0	-0.016340584
28	0xbd5e7788	-0.054313213
29	0xbe8acbf1	-0.2710872

pos_net.linears.2.weight f4 [30, 30]
0	0x3f00509d	0.50123006
1	0x3cdc6294	0.026902474
2	0x3e8c0768	0.273494
3	0x3e81259f	0.25224015
4	0xbef4b0a8	-0.47791028
5	0x3baca2a5	0.005268412
6	0xbd8af53a	-0.067850545
7	0x3e00a9c2	0.12564757
8	0xbf286e23	-0.65793055
9	0x3e54180c	0.20712298
10	0x3e1a3395	0.1505874
11	0xbf78ac20	-0.9713764
12	0x3ed1a6da	0.4094761
13	0xbdadb0da	-0.084809974
14	0x3e831fe4	0.25610268
15	0x3da854f8	0.082193315
16	0x3dbd3a70	0.09239662
17	0x3ec96daf	0.39341494
18	0xbf313dc3	-0.69234866
19	0x3f025569	0.50911576
20	0x3e8115eb	0.25212035
21	0xbeedc1e0	-0.46436977
22	0xbc6d0425	-0.01446632
23	0x3e83cfcd	0.25744477
24	0xbef92cac	-0.48666894
25	0x3eedc858	0.46441913
26	0xbe9e8493	-0.3096052
27	0x3cf00465	0.02929897
28	0xbeb88e7d	-0.3604621
29	0xbd0a447c	-0.033756718
30	0x3db318a9	0.08744938
31	0xbc9a8f58	-0.01886718
32	0xbe5a053b	-0.21291058
33	0x3e8e58b9	0.27802065
34	0xbf317c97	-0.69330734
35	0x3bee0708	0.007264022
36	0x3a6fef54	0.0009152789
37	0x3cc20e81	0.023688557
38	0xbf47fd49	-0.7812086
39	0x3d8fed6f	0.07027709
40	0x3dc2de22	0.09515025
41	0xbf0fde2e	-0.56198394
42	0x3edb1034	0.427858
43	0x3c409f96	0.011756798
44	0x3e700c6d	0.2344224
45	0xbc99fa86	-0.018796217
46	0xbe901e08	-0.28147912
47	0xbdf485f3	-0.11939611
48	0xbda527fb	-0.08064266
49	0x3ea2f9c6	0.31831187
50	0xbdac5a97	-0.08415716
51	0xbe95524a	-0.29164344
52	0x3d129efc	0.03579615
53	0x3e9cda9b	0.30635533
54	0xbf1fe270	-0.6245489
55	0x3ebf1cce	0.37326664
56	0x3a8b0d84	0.0010608886
57	0xbde4b31f	-0.11166977
58	0xbeaa60c2	-0.33276945
59	0x3d8aa1bf	0.06769132
60	0xbe192395	-0.1495498
61	0xbbd771dc	-0.0065748524
62	0xbeae510e	-0.34046215
63	0xbdc13f88	-0.09435946
64	0xbe0d1ae6	-0.13779792
65	0x3cff25d5	0.03114597
66	0xbcf867c2	-0.030322913
67	0x3cca315e	0.024681743
68	0xbe1a55ff	-0.15071867
69	0xbe2353d0	-0.1594994
70	0xbe845e01	-0.2585297
71	0xbe0ad779	-0.13558759
72	0xbdd3edbc	-0.103480786
73	0xbe253013	-0.1613162
74	0xbd91367b	-0.070904694
75	0x3c599ffe	0.013282774
76	0xbe8f80f4	-0.2802807
77	0xbd714536	-0.058903895
78	0xbd83fe9d	-0.06445048
79	0xbcb859da	-0.022503782
80	0xbe2807bb	-0.16409199
81	0xbe8b270a	-0.27178222
82	0x3c3b0412	0.011414545
83	0xbeaacaef	-0.3335795
84	0x3bf7ad04	0.007558467
85	0xbe8e8d03	-0.27841958
86	0xbd974307	-0.07385831
87	0xbe670ca7	-0.2256342
88	0xbe290646	-0.165063
89	0x3cebd456	0.028787773
90	0x3cf2c0cf	0.029632954
91	0xbc012d06	-0.00788427
92	0x3a0f7218	0.00054720184
93	0x3e005270	0.12531447
94	0xbdf0dc65	-0.11760787
95	0xbca3fd0b	-0.020018121
96	0x3dac1a8f	0.08403503
97	0xbc83e326	-0.016099524
98	0xbee9d110	-0.45667315
99	0xbd04e56f	-0.032445367
100	0x3c571787	0.013128168
101	0xbf3237a8	-0.69616175
102	0x3f01e823	0.5074484
103	0x3d1b6d18	0.037945837
104	0x3e03854a	0.12843814
105	0x3dfea18c	0.12433156
106	0xbe8559f2	-0.26045185
107	0x3d065461	0.032795314
108	0xbf0046c9	-0.5010801
109	0x3eb93bc0	0.36178398
110	0x3c32425c	0.010880079
111	0xbe36f802	-0.17868045
112	0xbbdb4f91	-0.0066928347
113	0x3eab18f3	0.33417472
114	0xbe91df0e	-0.2849049
115	0x3e8c79b3	0.274366
116	0xbebf0c4d	-0.37314072
117	0x3c997381	0.018731834
118	0xbebe54d0	-0.37174082
119	0xbd9ff3a0	-0.0781014
120	0xbdb12d57	-0.08651226
121	0xbb9395b8	-0.004503932
122	0xbc5b1a96	-0.013373038
123	0xbe3a1edc	-0.18175834
124	0xbd91aab6	-0.07112639
125	0xbc1bb92b	-0.009504597
126	0xbe447d0c	-0.19188327
127	0xbe640db9	-0.2227086
128	0xbd8f2130	-0.06988752
129	0xbd952b4d	-0.072836496
130	0x3b4a9728	0.003091285
131	0x3cfa7e00	0.03057766
132	0xbe88b444	-0.26700032
133	0xbe5aa27d	-0.21351047
134	0xbc0c57b4	-0.008565832
135	0x39083200	0.00012988597
136	0xbe456861	-0.19278099
137	0xbe4bcd69	-0.19902577
138	0xbec4a3d4	-0.3840624
139	0xbe5ae4a2	-0.21376279
140	0xbe955244	-0.29164326
141	0xbe9d4f97	-0.30724785
142	0x3afc91bc	0.0019269506
143	0xb9e73370	-0.00044098077
144	0xbc62fa34	-0.013853598
145	0xbe5545c5	-0.20827396
146	0xbea4c2ec	-0.32179964
147	0xbe2b7f3b	-0.16747753
148	0x3d4d26e8	0.050085932
149	0xbc50280c	-0.01270486
150	0x3d958388	0.07300478
151	0x3c2de41a	0.010613466
152	0xbc246d35	-0.010035803
153	0x3ea1a5b3	0.3157173
154	0xbf12f24f	-0.57400984
155	0xbb7f4476	-0.0038950718
156	0x3d6c7f22	0.05773843
157	0x3e29d0c0	0.16583538
158	0xbe226da1	-0.15862133
159	0x3dbea296	0.093083546
160	0x3e589ad7	0.21152817
161	0xbed858c9	-0.42255238
162	0x3effcb3d	0.49959746
163	0x3e3dc263	0.18531184
164	0x3e2ce819	0.16885413
165	0x3cec752b	0.028864464
166	0x3dc00704	0.09376338
167	0x3c903c57	0.017606897
168	0xbe09bfb6	-0.13452038
169	0x3eb5815a	0.3545025
170	0x3e9294c8	0.28629136
171	0x3d9bb763	0.076033376
172	0x3b9ebd6a	0.0048443573
173	0x3e7c4a5f	0.24637745
174	0xbef7d73b	-0.48406395
175	0x3ede88bc	0.43463695
176	0xbe648150	-0.22314954
177	0x3e747745	0.23873623
178	0xbec31354	-0.38100684
179	0xbbd3ddea	-0.006465663
180	0xbe1c05d3	-0.15236597
181	0x3c5b1958	0.013372742
182	0x3b2a17dc	0.0025954163
183	0xbe4e3eaf	-0.201411
184	0xbdba1647	-0.0908628
185	0x3c5a63d8	0.013329469
186	0xbe0783b9	-0.13233842
187	0xbe15383b	-0.14572231
188	0xbe6ab2a1	-0.22919704
189	0xbd9a7dc2	-0.07543518
190	0xbc24d0ab	-0.010059516
191	0xbe30ede9	-0.17278256
192	0xbe3256ea	-0.17415968
193	0xbeda2969	-0.42609718
194	0x39dfb580	0.00042669103
195	0x3c37f3d7	0.01122757
196	0xbe675929	-0.22592606
197	0xbe804d2f	-0.25058886
198	0xbd89b405	-0.06723789
199	0xbdc2430c	-0.094854444
200	0xbdb933e3	-0.090431
201	0xbe31a73c	-0.17348951
202	0x3c1b781f	0.009489088
203	0xbbebe652	-0.007199087
204	0x3e66a0fa	0.22522345
205	0xbd703548	-0.058644563
206	0xbebb20e5	-0.36548534
207	0xbe738e29	-0.23784699
208	0xbe9f7841	-0.31146434
209	0x3b42a30c	0.0029699234
210	0xbe377a6d	-0.17917795
211	0xbc54eaf9	-0.012995475
212	0xbea04ec0	-0.3131008
213	0x3e50c3c8	0.20387185
214	0xbca9d4f1	-0.020731421
215	0xbd8a5175	-0.06753818
216	0xbcb597d8	-0.022167131
217	0xbc8b100a	-0.016975421
218	0xbe5b051c	-0.21388668
219	0xbe5805dd	-0.21095987
220	0xbeb176aa	-0.34660846
221	0xbccedacd	-0.025250817
222	0xbe369aa6	-0.17832431
223	0xbe0ebe83	-0.13939862
224	0xbdfa363e	-0.12217377
225	0xbc051721	-0.00812319
226	0xbe483a04	-0.19553381
227	0xbc667fe8	-0.014068581
228	0xbd987110	-0.0744344
229	0xbe773d52	-0.24144486
230	0xbe913e39	-0.28367785
231	0x3d869d87	0.06573015
232	0xbb99d292	-0.0046942914
233	0xbe52a20a	-0.20569625
234	0xbc12e732	-0.008966254
235	0xbed7a3fe	-0.42117304
236	0xbcc73a22	-0.024319712
237	0xbe4903bb	-0.1963033
238	0xbd96ee71	-0.07369698
239	0x3d69eaab	0.057108562
240	0xbed01e18	-0.4064796
241	0xbba74999	-0.005105209
242	0xbe462d75	-0.19353278
243	0xbe9b423f	-0.3032398
244	0xbdd6ee26	-0.10494642
245	0xbd41f8a8	-0.047356278
246	0xbe6bedd6	-0.23039946
247	0xbea73e4b	-0.32664713
248	0xbe35f74d	-0.17770119
249	0xbee86bc6	-0.45394725
250	0xbe47dfdb	-0.19518988
251	0xbe65645d	-0.22401567
252	0x3d7c908c	0.06166129
253	0xbe9d8bf1	-0.3077083
254	0xbd85c87d	-0.06532381
255	0xbd05c3ad	-0.032657314

pos_net.linears.2.bias f4 [30]
0	0x3f576326	0.84135664
1	0x3ea9e875	0.33185163
2	0xbe9f60d7	-0.3112857
3	0x3eb4d54c	0.35318983
4	0xbe9ddcbb	-0.30832466
5	0x3f1e39fc	0.6180723
6	0xbdfadd01	-0.122491844
7	0xbea7f5d1	-0.3280473
8	0xbe9114bf	-0.2833614
9	0xbe9dfa6a	-0.30855113
10	0x3f24cfcd	0.6437958
11	0xbc623776	-0.013807168
12	0xbe6c4654	-0.23073703
13	0xbdf74702	-0.120740905
14	0x3da89fd0	0.08233607
15	0xbe82357a	-0.25431424
16	0xbebbc462	-0.36673266
17	0xbdec3fd3	-0.11535611
18	0x3e019738	0.12655342
19	0x3e99aa63	0.30012807
20	0xbe5ab0d7	-0.21356522
21	0x3c444d8e	0.011981381
22	0x3d6cdacc	0.05782585
23	0xbdb5f858	-0.088852584
24	0xbe1ba7cf	-0.15200733
25	0x3f1fd25f	0.62430376
26	0xbf0438de	-0.5164927
27	0xbe7b83b7	-0.24561964
28	0x3f4d4605	0.80184966
29	0xbe5accc4	-0.21367174

pos_net.output_layer.weight f4 [6, 30]
0	0x3f1632ba	0.5867115
1	0x3efc00d5	0.49219385
2	0x3e74844f	0.23878597
3	0x3ee0fd95	0.43943468
4	0x3cb80fdc	0.0224685
5	0x3f013ca2	0.50483143
6	0xbc888461	-0.016664686
7	0x3e440206	0.19141397
8	0x3eb07be2	0.34469515
9	0x3d3935a2	0.045217164
10	0x3f00e7cd	0.503537
11	0x3ecc01a6	0.39845008
12	0xbb8973d7	-0.0041947174
13	0x3e29959b	0.16560976
14	0x3e1faa9d	0.15592428
15	0x3efc64aa	0.4929555
16	0x3bc5aecb	0.0060328
17	0x3d734357	0.059390392
18	0x3e3f7dfd	0.18700404
19	0x3f14c79f	0.581171
20	0xbf09fe81	-0.5390397
21	0x3dd0cd0c	0.101953596
22	0xbf38a0d4	-0.72120404
23	0x3befde4e	0.007320202
24	0x3d1d70d1	0.03843767
25	0x3ebff9da	0.3749531
26	0x3eb28b6f	0.34872004
27	0xbf4159ae	-0.75527465
28	0x3f0161e9	0.50540024
29	0x3ebbac29	0.36654785
30	0xbe163914	-0.14670211
31	0x3ca9983d	0.020702476
32	0x3eabf844	0.3358785
33	0xbe0743b3	-0.13209419
34	0xbd911eaa	-0.07085927
35	0x3cd09970	0.02546379
36	0x3db0745c	0.08615944
37	0x3e97716b	0.2957872
38	0xbe56626e	-0.20935985
39	0xbc9dd4e1	-0.019266548
40	0xbd4afef6	-0.049559556
41	0x3ed8a8a2	0.42316157
42	0x3c7d3221	0.015453846
43	0x3e4e8d14	0.20171005
44	0x3d208172	0.03918595
45	0x3de338db	0.11094829
46	0x3cfb5512	0.030680213
47	0x3c6ace8e	0.014331473
48	0x3e6d76d3	0.23189859
49	0x3f1f55c8	0.62240267
50	0xbe8308e9	-0.25592735
51	0xbd91c1cc	-0.07117042
52	0x3dfc4510	0.1231786
53	0x3cd2425c	0.025666408
54	0x3e1ebc60	0.15501547
55	0x3dc41744	0.0957475
56	0xbe944ee7	-0.28966448
57	0xbd123a01	-0.035699848
58	0x3e1fcdc1	0.15605833
59	0xbe82073f	-0.25396153
60	0x3d3d0d03	0.046154987
61	0xbde68100	-0.112550735
62	0xbc55a167	-0.01303897
63	0x3b86c947	0.0041133496
64	0x3e58136e	0.21101162
65	0x3d289120	0.041154027
66	0x3e34a225	0.17639978
67	0x3cbb614d	0.022873545
68	0xbe0f82f1	-0.14014794
69	0x3c6aefe5	0.014339422
70	0xbe903418	-0.28164744
71	0x3ddd190a	0.107957914
72	0xbe31038c	-0.1728651
73	0x3e4468e9	0.19180645
74	0x3e0a9dea	0.13536802
75	0x3e5d6831	0.21621777
76	0xbe1ff97b	-0.15622513
77	0x3d7c1f66	0.06155338
78	0x3e423e96	0.18969187
79	0x3f089e5c	0.5336664
80	0x3e16d37c	0.14729112
81	0xbeab61fd	-0.33473197
82	0x3f138210	0.57620335
83	0x3e287077	0.16449152
84	0x3ef1cd19	0.4722679
85	0x3f01b9fb	0.5067441
86	0xbe99d332	-0.30043942
87	0x3dc1d56a	0.094645336
88	0x3deecfe1	0.116607435
89	0xbe1fb214	-0.15595275
90	0xbcb86138	-0.022507295
91	0xbe21061a	-0.15724984
92	0x3e74e897	0.23916851
93	0xbde2f435	-0.11081735
94	0x3dc389ff	0.09547805
95	0x3d50223f	0.05081391
96	0xbdb863b4	-0.09003392
97	0x3ea5b734	0.32366335
98	0xbe1c2fb1	-0.15252568
99	0xbb8d3657	-0.0043094563
100	0x3d2a0b65	0.041514773
101	0x3e8993f3	0.2687069
102	0x3bdc20e0	0.006717786
103	0x3d70f411	0.05882651
104	0x3dee3371	0.116309054
105	0x3e165809	0.1468202
106	0xbe5817c1	-0.21102811
107	0xbd0005c6	-0.031255506
108	0x3e57e6a2	0.21084073
109	0xbf0fcd52	-0.5617267
110	0x3dbeab04	0.093099624
111	0x3cffa8e5	0.031208465
112	0xbdfa9626	-0.1223567
113	0x3dbfc33e	0.09363411
114	0xbeac6bc5	-0.33675972
115	0x3eb029ba	0.34406835
116	0x3c893ef6	0.016753655
117	0xbd0efa48	-0.034906656
118	0xbd93ec13	-0.07222762
119	0xbe988070	-0.2978549
120	0x3d8f5256	0.06998126
121	0x3d6c6d62	0.057721503
122	0x3e2864f2	0.16444758
123	0xbd6d415b	-0.057923656
124	0xbc115862	-0.00887117
125	0x3cb1bd0e	0.021696594
126	0x3cf32de5	0.02968497
127	0x3e376add	0.17911859
128	0x3e503b13	0.20335035
129	0x3c86bfe4	0.016448922
130	0xbdacfbfe	-0.08446501
131	0x3ebd1c79	0.36935785
132	0x3baeecaa	0.005338271
133	0x3d5918e6	0.05300226
134	0xbd0fb0aa	-0.03508059
135	0x3e1ec9cb	0.15506665
136	0x3b714bda	0.0036818893
137	0x3d0ccfd4	0.034377888
138	0x3cf980e5	0.03045697
139	0x3e88e203	0.26734933
140	0xbecb16b9	-0.39665774
141	0xbe257974	-0.16159612
142	0x3e1f5116	0.15558276
143	0xb96d7690	-0.00022646249
144	0xbe4fa2d4	-0.20276958
145	0x3e379d2f	0.17931055
146	0xbe5346f3	-0.20632534
147	0x3dfb548e	0.12271987
148	0x3ce94d36	0.0284792
149	0x3edcf102	0.43152624
150	0xbdbf30f0	-0.09335506
151	0xbe0da5dd	-0.13832803
152	0x3e6046aa	0.21901956
153	0xbdfda3a3	-0.12384727
154	0x3d228d16	0.03968533
155	0x3d9a08fc	0.07521245
156	0x3de8ec6c	0.11373219
157	0xbebcc042	-0.3686543
158	0x3c5fe1d2	0.01366468
159	0x3cfbdc67	0.030744744
160	0x3dcd1f5f	0.10015749
161	0x3f04b17a	0.5183331
162	0x3e7c068e	0.24611875
163	0xbe8b3c24	-0.2719432
164	0xbdac05a7	-0.083995156
165	0xbd976ca9	-0.07393772
166	0xbddab6d5	-0.10679404
167	0x3d1209e8	0.03565398
168	0xbdbee010	-0.0932008
169	0x3e1c2766	0.15249404
170	0xbcb7e5bd	-0.022448415
171	0xbe06be4e	-0.13158533
172	0x3d114f40	0.03547597
173	0xbd8f1821	-0.06987024
174	0xbd225763	-0.03963412
175	0x3e4220b5	0.18957789
176	0xbec8cd9d	-0.3921937
177	0xbd0edd9e	-0.03487932
178	0x3e376662	0.1791015
179	0x3e223a4c	0.15842551

pos_net.output_layer.bias f4 [6]
0	0x3f29bc82	0.66303265
1	0x3effbfe3	0.49951085
2	0xbd935d86	-0.071955726
3	0x3e5881ee	0.21143314
4	0x3d9c3ef2	0.07629193
5	0x3bc0afa0	0.005880311

neg_net.linears.0.weight f4 [30, 12]
0	0xbe88bb7b	-0.26705536
1	0xbbe813d2	-0.007082441
2	0xbe1ad40b	-0.1511995
3	0xbe2185d1	-0.15773703
4	0x3f0ffb7e	0.5624312
5	0xbc94e018	-0.018173262
6	0xbd3e0a8e	-0.046396784
7	0x3ec09c3b	0.37619194
8	0x3e201ba3	0.15635543
9	0x3c1da171	0.00962101
10	0xbf79009f	-0.9726657
11	0xbd8d0293	-0.068852566
12	0xbee020f2	-0.43775135
13	0xbc4ab54b	-0.012372325
14	0xbe706be6	-0.2347866
15	0xbe4e6fda	-0.20159855
16	0x3f373a38	0.7157321
17	0x3e8f9dfb	0.28050217
18	0x3e88875e	0.26665777
19	0x3ea0feb2	0.31444317
20	0xbeb84c44	-0.35995686
21	0x3e902d9b	0.28159794
22	0xbf8b59cf	-1.0886782
23	0x3d405e28	0.046964794
24	0x3ec992b2	0.39369732
25	0x3f1eed8a	0.62081206
26	0xbeae27ff	-0.3401489
27	0x3d9d4c19	0.0768053
28	0xbe762cbe	-0.24040505
29	0xbec5659c	-0.38554084
30	0x3ec2e21b	0.3806313
31	0xbf35d487	-0.71027416
32	0x39fea958	0.00048572826
33	0x3bce8927	0.006302971
34	0xbe803fe5	-0.25048748
35	0xbeaea442	-0.34109694
36	0x3f0a7665	0.54086906
37	0x3f1a5ef6	0.6030115
38	0xbeded1d9	-0.43519476
39	0x3e80e58a	0.25175124
40	0x3b4f3772	0.0031618741
41	0xbe7fec90	-0.24992585
42	0xbdbbff54	-0.09179559
43	0xbe811480	-0.25210953
44	0xbf0441bd	-0.5166281
45	0xbcc759de	-0.024334844
46	0x3e3fe271	0.18738724
47	0xbd858d0a	-0.06521042
48	0x3ebd20ad	0.36938992
49	0x3ef69277	0.4815862
50	0x3e23f6bf	0.16012095
51	0x3e9cc879	0.30621698
52	0x3e9b110e	0.3028645
53	0x3db6f0be	0.08932637
54	0xbe1895b0	-0.14900851
55	0xbee5832c	-0.4482664
56	0x3ed66ecf	0.41881415
57	0xbf8a317d	-1.0796353
58	0x3e0de24b	0.13855855
59	0x3e708201	0.23487093
60	0x3e16fa36	0.14743885
61	0x3e8c0986	0.27351016
62	0xbddba065	-0.10723952
63	0x3df43ab4	0.11925259
64	0x3de77c10	0.1130296
65	0x3db30c68	0.08742601
66	0x3f0ed0c8	0.55787325
67	0xbe8e24c5	-0.27762428
68	0x3ed7edb3	0.42173538
69	0xbf55b6fd	-0.8348234
70	0xbed53ed9	-0.4164951
71	0x3f17b3bd	0.59258634
72	0x3e54d040	0.20782566
73	0xbe12b6a3	-0.14327483
74	0x3ee67f3c	0.45018947
75	0x3e5fc73d	0.21853347
76	0x3f5e9050	0.86938953
77	0xbe44f519	-0.19234122
78	0x3dac4ba8	0.08412868
79	0x3e86e5a6	0.26347083
80	0x3e9eaaad	0.3098959
81	0x3e9399cd	0.28828278
82	0xbf53366c	-0.82504916
83	0x3e8726ef	0.2639689
84	0xbcce9711	-0.025218518
85	0xbe3a990e	-0.18222448
86	0xbe72190d	-0.23642369
87	0x3dff2b6d	0.12459455
88	0xbe629ef3	-0.22130947
89	0xbed8f2b9	-0.42372683
90	0x3ebd3afe	0.3695907
91	0xbe305bb7	-0.17222486
92	0xbe48526e	-0.19562694
93	0x3e953667	0.29143068
94	0x3eeea51d	0.46610346
95	0xbf1a9249	-0.60379463
96	0x3d1a9d25	0.03774752
97	0x3dd4b12a	0.10385354
98	0x3d5fa3f3	0.054599714
99	0x3e0395d1	0.12850119
100	0xbe0bb1e2	-0.13642076
101	0xbf0b1c7d	-0.54340345
102	0x3e931963	0.28730306
103	0xbefa2865	-0.48858944
104	0xbe100932	-0.14066008
105	0x3d8240c3	0.063600086
106	0x3de0683f	0.10957383
107	0xbe245b33	-0.16050415
108	0x3c0ad111	0.008472697
109	0x3efbc760	0.4917555
110	0xbeb2936c	-0.348781
111	0xbe9d0272	-0.30665928
112	0xbe47478b	-0.19460885
113	0xbee632d3	-0.4496065
114	0xbeadb421	-0.3392649
115	0xbdac3703	-0.0840893
116	0xbeabceac	-0.33556116
117	0x3f0391b2	0.5139419
118	0x3efdbe78	0.4955938
119	0x3d195c69	0.037441645
120	0xbf52d472	-0.82355416
121	0xbe7ffcd1	-0.24998786
122	0xbe9a176f	-0.30096003
123	0xbf50c5cc	-0.81551814
124	0xbec091fc	-0.37611377
125	0x3d485b1e	0.04891502
126	0xbe4fc090	-0.202883
127	0x3e442f24	0.19158608
128	0x3e024a6a	0.12723699
129	0x3e938818	0.2881477
130	0x3f66a6cd	0.9009827
131	0x3d281a56	0.04104074
132	0xbf1b1251	-0.60574824
133	0x3db0f034	0.08639565
134	0xbef3624a	-0.47535926
135	0xbf3b9753	-0.7327778
136	0xbed8f127	-0.42371485
137	0x3db54459	0.08850927
138	0xbe4b808d	-0.19873257
139	0xbcfa3afa	-0.0305457
140	0x3dcd95cd	0.10038338
141	0x3ecc2c80	0.398777
142	0x3f6bc5c6	0.92098653
143	0x3ea11a1f	0.3146524
144	0xbea398e8	-0.31952596
145	0x3ea8a50b	0.32938418
146	0xbd8a6db5	-0.06759206
147	0x3f45e8d7	0.7730841
148	0x3f0ca3d4	0.5493748
149	0x3e1882b5	0.14893611
150	0x3e0f4249	0.1399013
151	0x3dbb9930	0.091600776
152	0x3e9b60d1	0.30347303
153	0xbeba86b5	-0.36430898
154	0xbe89a767	-0.2688553
155	0x3d0a46e9	0.03375903
156	0x3e9a5170	0.30140257
157	0xbd2925f7	-0.04129597
158	0xbe031de2	-0.12804368
159	0x3e2ab66b	0.1667115
160	0xbf0fded1	-0.56199366
161	0xbdc35671	-0.09537972
162	0x3ee89cb4	0.45432055
163	0xbe9d08b9	-0.30670717
164	0xbcabcc5b	-0.020971468
165	0x3e419423	0.18904166
166	0x3f10571d	0.56382924
167	0xbf250269	-0.644568
168	0x3da186e2	0.07887055
169	0x3bcff06a	0.0063457983
170	0xbd9dec5a	-0.07711096
171	0x3e31ccfe	0.17363355
172	0x3f1253c1	0.5715905
173	0x3e60d961	0.21957923
174	0xbee04338	-0.43801284
175	0x3ea72b8a	0.32650405
176	0xbed86329	-0.42263153
177	0x3d5fbb4e	0.054621987
178	0xbf2d159a	-0.67611086
179	0x3e9068e6	0.2820503
180	0xbddae231	-0.10687674
181	0xbd75f1fd	-0.06004523
182	0x3ea185f0	0.315475
183	0xbeeadd5d	-0.45872012
184	0x3ee56089	0.44800213
185	0x3e423711	0.18966319
186	0x3e0827b7	0.132964
187	0x3dd43fbc	0.10363719
188	0xbd5cafdc	-0.05387865
189	0x3ee91567	0.4552414
190	0xbf042a1e	-0.51626766
191	0x3e0ef706	0.1396142
192	0xbf18b5ed	-0.59652597
193	0x3ed4befe	0.41551965
194	0xbe6af73e	-0.22945878
195	0x3f109061	0.56470305
196	0x3ed43989	0.41450146
197	0xbd698a5e	-0.057016723
198	0xbefe0bc1	-0.49618343
199	0xbe83e189	-0.25758007
200	0xbe8336b2	-0.25627667
201	0xbdb75982	-0.08952619
202	0xbeb20347	-0.34768125
203	0xbdec7b35	-0.115469374
204	0xbd92e442	-0.07172443
205	0xbeddef25	-0.43346515
206	0xbef653d2	-0.48110825
207	0xbf102fdb	-0.5632302
208	0xbf1579eb	-0.5838916
209	0x3dc58711	0.096449025
210	0xbd68288b	-0.05667929
211	0x3e845408	0.2584536
212	0x3e8ad1f3	0.27113304
213	0x3dc85906	0.09782605
214	0x3f461419	0.77374417
215	0xbe18bb20	-0.14915133
216	0xbe199aed	-0.15000506
217	0x3dd2d084	0.102936774
218	0x3cd159f0	0.02555558
219	0x3eca87d3	0.3955675
220	0x3d82c7f5	0.06385795
221	0x3e9dca4a	0.30818397
222	0x3e858533	0.26078185
223	0x3e8cd953	0.27509555
224	0x3d8d2790	0.068923116
225	0xbf1f8231	-0.6230803
226	0xbd9f1a6a	-0.0776871
227	0x3f147132	0.5798522
228	0xbecb9f6a	-0.3977006
229	0x3daf3a7c	0.08556077
230	0xbdaa5d6b	-0.08318599
231	0x3eb8b3c7	0.3607466
232	0x3ed77278	0.4207952
233	0x3eec8a6b	0.46199355
234	0xbd031db8	-0.032010764
235	0x3e8648bc	0.26227367
236	0x3dd55edb	0.10418483
237	0x3eab0c49	0.3340781
238	0xbf4bf04b	-0.7966353
239	0xbe8cd4c5	-0.2750608
240	0xbe92a048	-0.2863791
241	0x3e03916e	0.12848446
242	0xbee79079	-0.4522741
243	0xbec48ff4	-0.38391078
244	0xbf1a473b	-0.6026494
245	0xbeab7718	-0.334893
246	0xbe3275ee	-0.17427799
247	0xbe6a2529	-0.22865738
248	0x3e0bac12	0.13639858
249	0x3f14b479	0.5808788
250	0x3e860401	0.2617493
251	0x3de06e68	0.10958558
252	0x3c4a5102	0.012348415
253	0xbeee320e	-0.46522564
254	0xbf0217a2	-0.5081731
255	0xbef5832b	-0.47951636

neg_net.linears.0.bias f4 [30]
0	0x3e9e5392	0.30923134
1	0x3db4dd2d	0.088312484
2	0xbe938f24	-0.28820145
3	0x3e26be8a	0.16283622
4	0xbef6ccc0	-0.48203087
5	0x3e5d2a2d	0.2159812
6	0xbd24aa14	-0.04020126
7	0xbd989229	-0.07449753
8	0xbda49a49	-0.0803724
9	0x3e296d95	0.16545708
10	0xbe097c0d	-0.13426228
11	0x3e053906	0.13010034
12	0xbe980a91	-0.29695562
13	0x3e68d661	0.22738029
14	0x3e56e48b	0.2098562
15	0x3e3b69e0	0.18302107
16	0xbe06c5f0	-0.13161445
17	0xbc2d422a	-0.010574857
18	0xbe43381c	-0.19064373
19	0x3ecfd1af	0.40589663
20	0x3eefbb92	0.46822792
21	0x3f13bc6a	0.5770937
22	0x3ee55ca5	0.44797245
23	0x3e8b59d3	0.27216968
24	0xbe5c6242	-0.21521857
25	0x3c8268e2	0.015919153
26	0x3eb83e8f	0.35985228
27	0xbeb690e2	-0.35657412
28	0xbe0f7aea	-0.14011732
29	0xbea3b6b7	-0.31975338

neg_net.linears.1.weight f4 [30, 30]
0	0xbeb2ae5c	-0.3489865
1	0xbe1c8ad4	-0.15287334
2	0xbea0ad33	-0.3138214
3	0xbe88d90c	-0.26728094
4	0x3f0adca2	0.5424291
5	0x3ea1f6d1	0.31633618
6	0xbd432610	-0.04764372
7	0xbe803a63	-0.25044546
8	0xbe68b4b0	-0.22725177
9	0xbd43b1c9	-0.04777697
10	0xbdf57f8e	-0.1198722
11	0x3d8691a1	0.06570745
12	0x3e8f5553	0.27994785
13	0xbee3a9e7	-0.44465563
14	0xbebab783	-0.36468133
15	0xbe2c4855	-0.16824467
16	0xbd044302	-0.032290466
17	0xbdf9afda	-0.12191744
18	0x3eeb4cb8	0.4595697
19	0xbd79b658	-0.060964912
20	0xbe2c06bd	-0.16799445
21	0xbe4a97f5	-0.1978453
22	0xbe3c425f	-0.18384694
23	0xbf068bd7	-0.5255713
24	0xbe35ae8b	-0.17742364
25	0xbd9ede6b	-0.077572666
26	0xbec6b019	-0.38806227
27	0x3cecc290	0.028901368
28	0x3c849ef8	0.016189083
29	0xb98f4f9a	-0.00027334393
30	0xbe6fec24	-0.23429924
31	0x3d9a006e	0.07519613
32	0xbe596e22	-0.21233419
33	0xbd575636	-0.05257245
34	0xbe07368d	-0.13204403
35	0xbe9bd731	-0.30437616
36	0x3a0f31c8	0.0005462435
37	0xbc3c06f8	-0.011476271
38	0x3b29748c	0.002585682
39	0xbb8765e6	-0.0041320203
40	0xbcd42e51	-0.025900992
41	0xbe22b288	-0.15888417
42	0x3c506a5e	0.012720672
43	0xbe873fc0	-0.26415825
44	0xbbeb9831	-0.0071897735
45	0xbdd0884d	-0.10182247
46	0xbe2d661d	-0.16933484
47	0xbc7db3bb	-0.015484746
48	0xbe1439ba	-0.14475146
49	0x3d124ef1	0.035719816
50	0xbe3aceb6	-0.18242916
51	0x3c233af0	0.009962782
52	0x3c59a456	0.01328381
53	0xbe464d9c	-0.19365543
54	0xbdff2b07	-0.12459379
55	0xbc583786	-0.013196832
56	0x3bd60e3f	0.00653246
57	0xbbd62616	-0.006535302
58	0xbd0ba6ee	-0.034094743
59	0x3c09c026	0.008407628
60	0xbe7ecd4c	-0.24883002
61	0xbd534942	-0.051583536
62	0xbec99bb3	-0.39376602
63	0xbe0a4a8b	-0.13504998
64	0xbcdd235a	-0.026994396
65	0xbe104218	-0.14087713
66	0x3c869eef	0.016433207
67	0xbe8bcc29	-0.273042
68	0x3dd4f194	0.1039764
69	0xbd3929c3	-0.045205843
70	0xbe5bf8c9	-0.21481623
71	0xbdd3718d	-0.103243925
72	0x3c92090f	0.017826585
73	0xbe1aa79c	-0.15103
74	0x3cdd887e	0.027042624
75	0x3ce17788	0.027522817
76	0xbe50849d	-0.20363088
77	0xbe245739	-0.16048898
78	0xbe10df30	-0.1414764
79	0x3d83c534	0.06434098
80	0xbe1c536e	-0.15266201
81	0xbe9c8b81	-0.30575183
82	0x3d8bc1d4	0.06824079
83	0xbe0ab54c	-0.13545722
84	0xbe5ffe88	-0.2187444
85	0xbc91fff2	-0.01782224
86	0xbdd465e8	-0.103709996
87	0xbd5e1250	-0.054216683
88	0x3d86308c	0.06552228
89	0xbd002bde	-0.031291835
90	0xbeba3d83	-0.36375055
91	0xbea90bea	-0.33016902
92	0xbee56c12	-0.44809014
93	0x3f1192c4	0.5686457
94	0x3d2116ec	0.0393285
95	0x3ebfc1a2	0.37452418
96	0xbe5a7762	-0.21334603
97	0xbefa09ea	-0.4883569
98	0x3d76dee3	0.060271155
99	0xbe886524	-0.26639664
100	0xbebd3975	-0.369579
101	0xbea37072	-0.31921726
102	0xbc1338dd	-0.008985725
103	0x3d2c1e7c	0.04202126
104	0x3e1222f4	0.14271146
105	0xbe3bc4dd	-0.18336816
106	0xbedcce63	-0.4312621
107	0x3dda95ef	0.10673129
108	0x3ec67c65	0.3876678
109	0xbdb17aa7	-0.08665972
110	0x3c4cd9ef	0.012503131
111	0x3eac56b1	0.3365989
112	0x3e06fcb9	0.13182344
113	0x3c90f0fe	0.017693039
114	0x3db7282b	0.08943208
115	0xbd1526ef	-0.036414083
116	0xbeeb97af	-0.46014163
117	0x3d9ca6e3	0.076490186
118	0xbaaa8270	-0.0013008844
119	0xbcfc71c8	-0.030815974
120	0xbddf7e4e	-0.109127626
121	0xbeb56570	-0.35428953
122	0x3e8eb1d6	0.27870053
123	0x3ee03b32	0.43795162
124	0xbe855477	-0.26041004
125	0xbee63bfc	-0.4496764
126	0x3d3badd6	0.04582008
127	0x3edd1718	0.43181682
128	0x3e7b0d64	0.24516827
129	0x3f072c15	0.5280164
130	0x3f166253	0.5874378
131	0x3f12abaa	0.5729319
132	0xbea7ad05	-0.3274919
133	0x3ebfc174	0.3745228
134	0xbe831019	-0.2559822
135	0xbe8fd68f	-0.28093383
136	0xbd92c0e8	-0.071657
137	0x3e1a0286	0.15040025
138	0xbeecad87	-0.4622614
139	0xbdc8eb62	-0.09810521
140	0x3ebebf7f	0.37255475
141	0x3e91619d	0.28394786
142	0x3f0cd9ad	0.55019647
143	0x3e6ee578	0.23329723
144	0x3ed18de7	0.40928575
145	0x3ee91987	0.45527288
146	0x3e328a20	0.17435503
147	0x3daf3d9a	0.085566714
148	0xbceec7b1	-0.029147955
149	0x3eaca783	0.3372155
150	0x3e94206b	0.28930983
151	0x3f1f41e8	0.6220994
152	0x3e2c41eb	0.1682202
153	0xbdb76fec	-0.08956894
154	0x3e1692c6	0.14704427
155	0xbec36954	-0.38166296
156	0x3eec99d2	0.46211106
157	0xbe91fc0e	-0.28512615
158	0x3e6b6a88	0.22989857
159	0xbdb843e7	-0.08997326
160	0xbe0f5b48	-0.13999665
161	0xbe2fb177	-0.17157541
162	0xbe74b70f	-0.23897956
163	0xbf22cc3f	-0.63592905
164	0x3eb3ac53	0.3509241
165	0x3ed57ecc	0.416983
166	0x3f2165bd	0.63045865
167	0xbe9e0bd7	-0.30868408
168	0xbebaec39	-0.3650835
169	0x3f2fc899	0.6866546
170	0xbe824199	-0.25440672
171	0xbecb605a	-0.39721948
172	0xbdea627a	-0.11444564
173	0x3e1eafd0	0.15496755
174	0x3e610a5f	0.21976613
175	0x3df72fc4	0.120696574
176	0x3ecadc81	0.39621356
177	0xbd836efa	-0.064176515
178	0x3ebe9b17	0.372277
179	0x3d842d36	0.06453936
180	0x3dd8149e	0.105508074
181	0xbc8fecb9	-0.017568933
182	0xbf0ebcb8	-0.5575671
183	0x3e5d184c	0.215913
184	0x3e02218b	0.12708108
185	0xbe52ede5	-0.20598562
186	0xbc972ac5	-0.018453011
187	0xbe98ffac	-0.29882562
188	0xbe28b08b	-0.16473596
189	0xbe38e240	-0.18055058
190	0xbf381233	-0.7190277
191	0xbf10d59f	-0.5657596
192	0xbe0d3f68	-0.13793719
193	0xbf1f2960	-0.6217251
194	0xbdd7fb25	-0.10545949
195	0x3d9991ae	0.07498489
196	0xbd2d034e	-0.04223948
197	0xbe325f72	-0.17419222
198	0xbe2e8316	-0.17042193
199	0x3dfa9cc8	0.12236935
200	0xbf1e141e	-0.61749446
201	0xbe94591a	-0.2897423
202	0xbf18003d	-0.59375364
203	0xbe0b7691	-0.13619448
204	0xbe9dad8f	-0.30796477
205	0xbefebe0a	-0.49754363
206	0xbe5ea702	-0.21743396
207	0xbc7e5f58	-0.015525661
208	0x3e19b55b	0.15010588
209	0x3b9ae34a	0.004726802
210	0xbd4a1ae2	-0.049342044
211	0xbd9373e4	-0.07199839
212	0xbe67d742	-0.22640708
213	0x3e9f327a	0.31093198
214	0x3c4db6b7	0.01255577
215	0xbdd9878f	-0.10621559
216	0x3d9de65d	0.07709954
217	0x3e3e62c6	0.18592367
218	0x3e52a32f	0.20570062
219	0x3e381622	0.17977193
220	0x3ef8683d	0.48517027
221	0x3f07be08	0.5302434
222	0xbd351678	-0.04421088
223	0x3e262909	0.16226591
224	0x3e7f1edb	0.24914114
225	0xbcb00379	-0.02148603
226	0x3e34fcb8	0.1767453
227	0x3e964171	0.29346803
228	0xbe76a61f	-0.24086808
229	0xbe51bc7d	-0.20482059
230	0x3ded1149	0.115755625
231	0x3f08f152	0.53493226
232	0x3eefdc97	0.46847984
233	0x3e6dc7ff	0.23220824
234	0xbd9d51a8	-0.0768159
235	0x3ee7f244	0.45302022
236	0x3e1a2a7f	0.15055273
237	0xbd94d288	-0.07266718
238	0xbd469e5e	-0.048490874
239	0x3e22300d	0.15838642
240	0xbf01340d	-0.5047005
241	0xbebd6f10	-0.36998796
242	0xbeaf8811	-0.34283498
243	0xbd713edc	-0.058897838
244	0xbe920277	-0.28517506
245	0xbea7917c	-0.32728183
246	0xbe1bb0de	-0.15204188
247	0x3cb5a65e	0.022174057
248	0xbcc5f8fd	-0.024166578
249	0xbe6325ce	-0.2218239
250	0xbe91cc84	-0.28476346
251	0xbe9a743c	-0.30166805
252	0x3da5ce91	0.0809604
253	0xbcb7dc06	-0.022443783
254	0xbda729eb	-0.08162292
255	0xbe931cc9	-0.287329

neg_net.linears.1.bias f4 [30]
0	0xbda77a2e	-0.08177601
1	0xbeb6407b	-0.3559607
2	0xbe243d6f	-0.1603906
3	0xbe86b1fd	-0.2630767
4	0x3deae140	0.11468744
5	0x3e276ff4	0.163513
6	0xbde4fae7	-0.11180668
7	0x3db8d447	0.09024864
8	0xbe3722ac	-0.1788432
9	0x3ddd1c1a	0.107963756
10	0x3e323db8	0.17406356
11	0x3d481d88	0.04885629
12	0xbe803b1a	-0.2504509
13	0x3f023718	0.50865316
14	0x3eba37f9	0.3637083
15	0x3e44a3be	0.19203088
16	0xbd904b5c	-0.07045624
17	0x3e1c3463	0.15254359
18	0x3e51cad6	0.20487532
19	0x3e74c637	0.23903738
20	0xbdd1cf9b	-0.10244676
21	0xbecd6f11	-0.401238
22	0xbc5b6002	-0.013389589
23	0xbde1fe31	-0.11034811
24	0x3f0eb284	0.55741143
25	0x3dce3db1	0.100703605
26	0xbea1ba03	-0.31587228
27	0xbecc5598	-0.39909053
28	0x3ebfb56e	0.37443107
29	0xbee635d2	-0.44962937

neg_net.linears.2.weight f4 [30, 30]
0	0x3afea528	0.0019427883
1	0xbc4ac794	-0.012376685
2	0x3e5ba75b	0.2145056
3	0xbf250221	-0.64456373
4	0x3e437c40	0.19090366
5	0xbde069ec	-0.10957703
6	0xbe9ce61f	-0.30644318
7	0x3dabc97e	0.08388041
8	0xbea7340f	-0.32656905
9	0x3e0a5d90	0.13512254
10	0x3c4ddb78	0.012564532
11	0xbe2df609	-0.16988386
12	0xbe99870d	-0.29985848
13	0x3d008752	0.03137905
14	0x3d123e27	0.035703804
15	0xbd3bb613	-0.045827936
16	0x3d4c8610	0.04993254
17	0x3db996ed	0.0906199
18	0xbeda0855	-0.42584482
19	0x3e37af65	0.17938001
20	0xbded8576	-0.11597721
21	0xbcd0ce1c	-0.025488906
22	0xbe428c39	-0.18998803
23	0xbea9b6e7	-0.33147356
24	0x3e676120	0.22595644
25	0x3d50cb62	0.05097521
26	0x3da5c619	0.08094425
27	0x3e658f51	0.22417952
28	0x3ab42f3c	0.0013746987
29	0x3e388999	0.1802124
30	0x3e90ec86	0.28305453
31	0xbcb968e8	-0.022633031
32	0x3e6fc5af	0.23415254
33	0x3e7a60a6	0.24450931
34	0xbec7a67d	-0.38994208
35	0xbea2d014	-0.31799376
36	0x3e57bee7	0.21068917
37	0xbe13fd11	-0.14452006
38	0xbe059a83	-0.13047223
39	0xbf10ffa8	-0.566401
40	0xbee7281a	-0.45147783
41	0xbe44e834	-0.19229203
42	0x3dd15a29	0.10222275
43	0xbdf1a45f	-0.117989294
44	0xbe61afe8	-0.22039759
45	0xbe6abcd8	-0.229236
46	0x3e2cac25	0.16862543
47	0xbe757fa4	-0.23974472
48	0x3e7fd7ae	0.24984619
49	0xbf1091bd	-0.5647238
50	0xbea675ac	-0.32511652
51	0x3e205fda	0.15661564
52	0x3e0e73e6	0.13911399
53	0x3d6895ea	0.056783594
54	0xbe66aa81	-0.2252598
55	0xbb610da0	-0.0034340397
56	0x3e9596fa	0.29216748
57	0x3d056965	0.032571215
58	0xbf0467eb	-0.51721066
59	0xbe42e224	-0.19031578
60	0xbe157931	-0.14597012
61	0x3d89b6be	0.067243084
62	0xbe32f234	-0.17475206
63	0xbead75da	-0.33878976
64	0x3e04463a	0.12917414
65	0xbe8d9798	-0.2765472
66	0xbdb0f761	-0.08640934
67	0x3db2aabe	0.08723973
68	0xbd9ddfbd	-0.0770869
69	0x3d03dcba	0.032192923
70	0x3cc8cde4	0.024512239
71	0xbe2126fe	-0.1573753
72	0x3cdb8c33	0.02680025
73	0x3b60b2ec	0.0034286333
74	0x3dfe61f7	0.12421029
75	0xbe6232d6	-0.22089705
76	0xbddc0f33	-0.107450865
77	0x3dd7a10d	0.10528765
78	0xbee2d055	-0.4429957
79	0xbdb35ca2	-0.08757903
80	0xbe8217d0	-0.25408792
81	0xbe944fb0	-0.28967047
82	0x3d0ace7b	0.03388832
83	0xbe9415db	-0.28922924
84	0xbe92c1f8	-0.2866361
85	0xbd69b6b8	-0.05705902
86	0xbe1a5021	-0.15069629
87	0x3e23cc12	0.15995815
88	0xbdac6b73	-0.08418932
89	0x3e4ebea7	0.20189916
90	0xbf06df72	-0.526847
91	0x3d995e16	0.074886486
92	0xbeaebfd8	-0.3413074
93	0xbe237457	-0.15962349
94	0xbf519ed3	-0.8188297
95	0x3ecbf44c	0.3983482
96	0x3cafbcbc	0.0214523
97	0xbf2ac14b	-0.6670119
98	0xbde5bf55	-0.11218134
99	0xbf3cbcec	-0.7372577
100	0xbf3d693c	-0.739887
101	0xbf3f0489	-0.74616295
102	0xbca3311a	-0.019920874
103	0x3eacbaf0	0.33736372
104	0xbf213728	-0.62974787
105	0xbf43212e	-0.76222503
106	0x3c243d63	0.010024401
107	0xbf0f546a	-0.5598818
108	0xbe821d42	-0.25412947
109	0x3e30b7fd	0.17257686
110	0x3e24efe2	0.16107133
111	0x3b8441b1	0.0040361513
112	0xbb58412e	-0.0032997834
113	0xbeb27c3d	-0.3486041
114	0x3e865f24	0.26244462
115	0xbdee0b37	-0.11623233
116	0xbc1e345e	-0.00965604
117	0xbd7bf020	-0.061508298
118	0x3ebad29c	0.36488807
119	0xbed1ffb0	-0.41015387
120	0xbee3b3ff	-0.44473264
121	0xbcbceb28	-0.02306135
122	0x3e338699	0.17531814
123	0xbcaf4ce7	-0.021398975
124	0x3ec6d0f1	0.38831285
125	0x3e98076c	0.29693162
126	0xbeab59c3	-0.3346692
127	0xbe12c6f4	-0.14333707
128	0xbead41f6	-0.33839387
129	0x3dc7834f	0.09741842
130	0x3eb57407	0.35440084
131	0x3df051fb	0.117343865
132	0xbe497bde	-0.19676158
133	0xbcc2220d	-0.023697877
134	0x3e2a0d83	0.16606717
135	0x3e7a9f6e	0.2447488
136	0xbb8ca0d8	-0.004291635
137	0xbaba1a6c	-0.0014198548
138	0xbe103d95	-0.14085992
139	0xbe398279	-0.18116178
140	0x3ca55774	0.020183302
141	0xbdf87bf4	-0.12133017
142	0x3d1ed4e0	0.038777232
143	0xbc22d5ba	-0.009938652
144	0x3e0cb2be	0.1374006
145	0xbe0c0bf3	-0.13676433
146	0xbdd93419	-0.1060564
147	0xbdf7e9ea	-0.121051624
148	0xbe3e724d	-0.1859829
149	0x3ee5d8c7	0.4489195
150	0xbdb3479e	-0.08753894
151	0x3d29b234	0.041429713
152	0x3e95bd6f	0.2924609
153	0xbe2181e3	-0.15772204
154	0x3f0037f6	0.5008539
155	0xbda4c54f	-0.08045446
156	0xbe9154b3	-0.28384933
157	0x3ea623ec	0.3244928
158	0xbd2843ca	-0.041080274
159	0x3ee31625	0.44352832
160	0x3ecc3898	0.39886928
161	0x3d3a0e18	0.045423597
162	0x3e1125f7	0.14174639
163	0xbe7a90c7	-0.2446929
164	0x3e5c12ac	0.21491498
165	0x3e9ae0bb	0.3024958
166	0x3d52dd54	0.051480606
167	0xbc8ccb2e	-0.017186727
168	0xbdf232f5	-0.118261255
169	0x3e8866f4	0.26641047
170	0x3d46bf95	0.04852255
171	0x3e01ba22	0.1266866
172	0x3c8ff2ff	0.017571924
173	0x3dd91d5b	0.10601302
174	0xbe1ea8db	-0.15494101
175	0xbd786c84	-0.060650364
176	0x3c1c82d8	0.00955268
177	0xbdc8a6cb	-0.09797438
178	0xbe98114e	-0.29700702
179	0x3e225701	0.15853502
180	0xbe53e0cc	-0.20691222
181	0xbd037722	-0.032096036
182	0xbdd04294	-0.10168949
183	0xbee90887	-0.45514318
184	0xbd70dfd4	-0.05880721
185	0xbf44e02e	-0.7690457
186	0xbeac0a12	-0.33601433
187	0xbe17da45	-0.14829357
188	0xbdb81370	-0.089880824
189	0xbdf4d733	-0.119551085
190	0xbe20b69f	-0.15694664
191	0xbe29cf3e	-0.16582963
192	0xbe82253a	-0.25419027
193	0xbf8b5059	-1.0883895
194	0xbe3508b4	-0.17679101
195	0xbdfcc77d	-0.12342737
196	0xbd197407	-0.037464168
197	0xbe70dc95	-0.23521645
198	0xbead6c97	-0.3387191
199	0xbe3e73d8	-0.18598878
200	0xbe51f710	-0.20504403
201	0xbdad8e2d	-0.084743835
202	0xbe4e30c2	-0.20135787
203	0xbe50bfa5	-0.20385607
204	0xbea3e7f3	-0.320129
205	0x3dea2404	0.11432651
206	0xbca5d07b	-0.020241013
207	0x3e9092e7	0.28237078
208	0xbeff2088	-0.49829507
209	0x3e39ea63	0.18155818
210	0xba60a330	-0.00085692387
211	0xbc5ecf75	-0.013599266
212	0xbe4538d9	-0.19259967
213	0x3cb1f9c5	0.021725545
214	0xbe55851f	-0.20851563
215	0xbe946b58	-0.28988147
216	0xbeb92aa4	-0.36165345
217	0xbe485ab9	-0.19565858
218	0x3c3215aa	0.010869423
219	0xbee8d7d8	-0.45477176
220	0xbe3b9a71	-0.18320633
221	0xbe2334a8	-0.15938056
222	0x3a881998	0.0010383604
223	0xbdd00f2a	-0.10159142
224	0xbe3a8714	-0.1821559
225	0x3c2bdfb7	0.0104903495
226	0xbaa14328	-0.0012303339
227	0xbe7988b9	-0.24368562
228	0xbb189819	-0.0023284017
229	0xbec9b4d7	-0.39395782
230	0xbb553886	-0.0032534911
231	0x3d1541f3	0.036439847
232	0xbd8489de	-0.064716086
233	0xbc02db46	-0.007986849
234	0xbe5f3e4c	-0.21801108
235	0xbc817edc	-0.015807562
236	0xbe5c083f	-0.2148752
237	0xbe181ae5	-0.1485401
238	0x3c4c96ee	0.012487156
239	0xbe1cc2ac	-0.15308636
240	0xbe13d424	-0.14436394
241	0x3c334c87	0.0109435385
242	0x3be38bd8	0.006944161
243	0x3c339efb	0.010963197
244	0xbe8d5196	-0.27601308
245	0x3b4ba0d2	0.0031071198
246	0x3c5f7cd2	0.013640599
247	0xbbabc898	-0.0052424185
248	0x3afeeb44	0.0019448777
249	0xbdccaad4	-0.099935204
250	0xbe58b830	-0.21164012
251	0xbe82e1c1	-0.25562862
252	0x3c2d875b	0.010591353
253	0xbc93f633	-0.018061733
254	0xbe767366	-0.24067459
255	0xbea22e9c	-0.31676185
