data/MTMR_28002/sim/random/Dist_0.1/train/N100/D6_SinCosInput/1/result/model/ReLU_Dual_UDirection_BP.pt (torch_old, 22856 bytes, 20 tensors)

input_mean f4 [12]
00000000: c191 153d e66a 873e 8750 643b 15de 973e
00000010: d067 8c3e a260 6b3d 22c1 6c3f 3496 693f
00000020: 090b 713f 6394 253e 4ad6 823e 8fe2 6d3f
0.036515955 0.26448745 0.0034838037 0.29661623 0.27422953 0.057465203 0.924822 0.91244817
0.94157463 0.16169886 0.25554115 0.92923826

input_std f4 [12]
00000000: 0b9b be3e ad5f 983e 022c aa3e c851 173f
00000010: 37ac 1e3f a785 b73e da9a 8d3d cb62 c13d
00000020: 7ac1 5e3d e481 3b3f 037f 303f 0cea 8c3d
0.37227663 0.29760495 0.332367 0.59109163 0.6198153 0.35844156 0.06914301 0.094426714
0.054383732 0.7324507 0.68943805 0.068805784

output_mean f4 [6]
00000000: c3e2 c438 1bda b13e fb76 3e3e 0574 c0bb
00000010: 9889 553b 4abd 2c3b
9.388246e-05 0.34736714 0.18600075 -0.0058732056 0.0032583233 0.0026357942

output_std f4 [6]
00000000: 26f8 833a 7786 533e 52cd 193e 7f70 7a3d
00000010: b8a3 233d a3b4 163c
0.0010068461 0.20656763 0.1501973 0.06114244 0.039951056 0.009198341

pos_net.linears.0.weight f4 [30, 12]
00000000: 172f 91be f713 b53d a4f8 76bc fb50 6b3e
00000010: 0cc9 363d 0e3a 973e c139 093e fe02 10bd
00000020: 2c77 bc3e 3486 f93d 3a7c 1d3e 3291 acbb
00000030: 9a18 10be 5200 e43d 4f43 803e 1624 5bbe
00000040: 0e2f d8bd bc5b debc a6e2 c6bc 3821 26be
00000050: 2c0b dfbd 68d9 ebbd 4397 44bd b45a 78bd
00000060: 767a 903e 93d8 013e cf43 d3be 2f59 ecbd
00000070: 1c55 c53e 0e6c 433d 4d5e 943e d510 ec3d
00000080: 11fa a7bc d259 9a3d 5c5f a1be b3e6 e1bd
00000090: 523d 54bd 4be0 3a3e b55f c63e b424 6cbd
000000a0: 5b7c 4dbd adeb 8bbc 190c 0c3e d06c 82bd
000000b0: 1278 50bd 91a8 3bbf 25ab 303e f8d1 efbd
000000c0: d97c 863e 51fd 113e 1a35 aa3e 3ea1 a43d
000000d0: 33b6 11be 44b3 213e 0470 99bd 6b83 28be
000000e0: eedc 163d 828c 6ebe cf2d 71be 4d29 95be
000000f0: e99f afbe 692a 5dbd e7ea 963c e01c e9be
00000100: da31 ce3d 2bdc f1bd 8f78 78bd a590 c73d
00000110: f388 52be 782b ff3e c996 59be e872 aabd
00000120: b59e 2a3e 77c8 07bd 69c5 02be c039 2bbd
00000130: 91aa 873e 03c8 363e 40e6 94bd 5b3d 693d
00000140: ad18 46be c2bf 11bf 2d10 dbbd fcd7 263e
00000150: 4a5a 04be 79d0 a1be f750 093e bd7d 46bd
00000160: 0355 a03e ae8c 303e ac6e 55be 7d0e 473e
00000170: 2b82 b53e fbfa 28be dacb 49be bf51 acbd
00000180: bd05 c63e 8b5a debe 9289 ddbd d449 063e
00000190: 8ce9 84be 7668 9f3d a99f e53d 5dd2 853e
000001a0: 26ce 58be d06e 273e 385b 293e 92a7 2cbe
000001b0: 4ec1 f83c f905 093e 09a0 9d3e f327 be3e
000001c0: 0550 043e 3e25 ab3e 40aa d0bd dee9 2fbe
000001d0: 61e1 113d ba1d 583e 6150 103e ebb5 cb3b
000001e0: 06e9 70bc 8a1c cb3b 554f e33d 7fd7 f7bd
000001f0: d5a5 47bc 4fc2 16bd c52a 5e3d df6e 48bc
00000200: 8c74 e7bc 468a 04bc 4e9e a1bc 29f7 48bd
00000210: 55cc 03be 3c40 863e bb23 aa3e 8b7c 243e
00000220: 1cd2 e3be a30c 90be 14bb 973d f8b5 7dbe
00000230: 0e00 13be e3c3 e2bd 3b7b 3e3d 9416 a13d
00000240: 2e84 2cbe 1bb2 533b 0d61 6cbe 9a4d 2ebe
00000250: 0cd7 fabd c613 70bd 483e 35be d661 e0bd
00000260: 6d26 e9bd ded8 e83d 527a 5c3e f486 0bbe
00000270: a539 283e 9da3 673d 09fc b2be e448 09bf
00000280: fb32 adbe 6479 52bc 68f3 ba3d 9593 9b3e
00000290: 40b5 5dba b6ab c8be 5cd2 82bd 3a75 603c
000002a0: cd97 09be cffd be3d 5cb8 00bf 5ac1 77be
000002b0: a3db 60bd 33b6 943e 19c9 cabd 1a20 8d3d
000002c0: 87de b33d 5efe 0f3f 35e2 5abd 33de 0fbe
000002d0: 5758 d33e 13b5 d1bc 665b bdbd 54e9 4a3e
000002e0: daf4 7dbe d26c 02bd a769 8f3e 5043 633d
000002f0: 3ede 74bd 83f7 b3be 08f4 7e3e ac76 2fbe
00000300: 67cd 0d3e 4c57 1e3e 94b5 1cbe 5e73 99bd
00000310: 6a1f b2bd 6f34 083e e219 e8bd 9e42 83bd
00000320: 4c2c a63b a6c7 66be 87a5 f2bc 0ceb b93d
00000330: a37e 37bb c194 ca3c 98e3 fbbc 44bb 30bd
00000340: dcd0 04ba 55f2 243d 0566 6e3c e74e 313d
00000350: 50b8 4c3d 3821 923b 0c6c 043c e3fa 4bbd
00000360: 6dd9 533d e94f aa3d 6cd8 353e ef67 3bbe
00000370: 3ebd b6be 858a 503d 3eae 153e b253 b3bc
00000380: b7e9 90bc 17eb bdbc 40fb e2bd 5194 1cbd
00000390: 204e 87be e50e 82be ad28 bc3d c003 59be
000003a0: 00be 293e c8e6 943d ce0d 713c 86ae ae3c
000003b0: bebd c23d 6f50 64be 9f33 da3e 5349 0ebd
000003c0: 5bb4 26bd 3569 f63d 69f8 a83d 13c5 803e
000003d0: 29d0 803e f983 fabd 6100 a73e 7ec0 de3c
000003e0: af85 4d3e 243a 83bc eb4b f5be 42d8 3bbd
000003f0: 6463 65bd e461 a83e 07a4 0b3f ce4b 8d3e
-0.2835624 0.088416986 -0.015073929 0.2298011 0.044625327 0.2953648 0.13400938 -0.035159104
0.3680967 0.121838 0.1537942 -0.005266332 -0.14071885 0.111328736 0.25051352 -0.21400484
-0.1055585 -0.027143352 -0.024277996 -0.1622361 -0.10890803 -0.11516076 -0.047995817 -0.060633376
0.2821843 0.12680273 -0.4126267 -0.11540448 0.38541496 0.04771047 0.28978196 0.11526648
-0.020504983 0.07536663 -0.31518066 -0.110303305 -0.051816292 0.18249623 0.38744894 -0.05765219
-0.050167423 -0.017080152 0.1367649 -0.063684106 -0.050895758 -0.73304087 0.17252786 -0.1170997
0.26267126 0.14256789 0.33243638 0.08038567 -0.1422966 0.1579104 -0.074920684 -0.16456382
0.03683179 -0.23295787 -0.23552631 -0.29133072 -0.3430169 -0.053995524 0.018422557 -0.45529842
0.10068102 -0.11809572 -0.06066185 0.09744386 -0.20560054 0.49837852 -0.21248926 -0.08322698
0.16662104 -0.033150163 -0.12770618 -0.04180312 0.2649732 0.17849736 -0.07270479 0.05694328
-0.1934535 -0.56933224 -0.10696445 0.16293329 -0.12925068 -0.31604365 0.13409792 -0.048459757
0.3131486 0.17241165 -0.20842999 0.1943912 0.35450873 -0.16501991 -0.1970667 -0.08414029
0.38676253 -0.43428454 -0.10817255 0.131141 -0.25959432 0.07783596 0.112120934 0.26137057
-0.2117239 0.16350865 0.16538703 -0.16860798 0.030365612 0.13381185 0.3078616 0.37139854
0.1292115 0.3342685 -0.101887226 -0.17179057 0.03561533 0.2110509 0.14093162 0.0062167547
-0.014703995 0.0061984705 0.11099116 -0.121016495 -0.0121855335 -0.0368064 0.054240007 -0.012233465
-0.028253816 -0.008089608 -0.019728806 -0.049063835 -0.12870915 0.26220882 0.33230385 0.16063134
-0.44496238 -0.2813464 0.07408729 -0.24776447 -0.1435549 -0.11072519 0.04650424 0.078656346
-0.16847298 0.0032302204 -0.23083897 -0.1702179 -0.12248048 -0.058612607 -0.1769954 -0.10956161
-0.11384282 0.11369489 0.21531036 -0.136257 0.1642824 0.05655252 -0.34957913 -0.5362685
-0.33827958 -0.012846325 0.09128457 0.30386034 -0.00084574893 -0.39193505 -0.06387779 0.013699824
-0.13436814 0.09325754 -0.5028131 -0.24194852 -0.054896962 0.29045257 -0.099016376 0.068908885
0.08782678 0.5624751 -0.053438384 -0.14049606 0.41278335 -0.025599038 -0.092459485 0.1981557
-0.24800435 -0.03184206 0.28010294 0.055484116 -0.05978226 -0.35149774 0.24897778 -0.17135113
0.13847886 0.15462989 -0.15303642 -0.07492708 -0.08697398 0.13301252 -0.11333062 -0.064091906
0.0050711986 -0.22537097 -0.029619945 0.09078035 -0.0027999065 0.024729135 -0.030748174 -0.04314734
-0.0005066523 0.04027017 0.014550691 0.043288138 0.04998046 0.0044595264 0.008082401 -0.04979981
0.051721025 0.08316023 0.1775834 -0.18301366 -0.35691255 0.050913353 0.1461725 -0.021890495
-0.017689569 -0.023183389 -0.110830784 -0.038227383 -0.26426792 -0.2540199 0.09187446 -0.21192837
0.16576385 0.072705805 0.014712764 0.021323454 0.09508847 -0.22296308 0.4261751 -0.034737896
-0.040699344 0.120317854 0.082505055 0.25150356 0.25158814 -0.12232203 0.32617477 0.027191397
0.20070527 -0.016018935 -0.47909483 -0.045860536 -0.05600299 0.32887185 0.5454716 0.27596897

pos_net.linears.0.bias f4 [30]
00000000: 431f 2ebc 847f 33be eef6 d3bd cfe1 7fbe
00000010: 0a05 22be bbb6 343e 5542 e2bc 0973 9c3e
00000020: e85d 5cbd f18f 90bd a535 06be b223 893e
00000030: face d5bd 0f3d 563d 9b51 a7bd 344e f43d
00000040: ba22 e8bd b163 a3bd fe20 39be 94fc 21bb
00000050: 1071 523d a6cc 343e 5e92 6a3c 2a7a 32bd
00000060: 69fb 713d dc7d c4bd 1ea6 95bd 939f f53c
00000070: 5e54 37bd b10b 613d
-0.010627571 -0.17529112 -0.103498325 -0.24988483 -0.15822235 0.17647831 -0.02761952 0.30556515
-0.053800493 -0.07058705 -0.13106401 0.26785046 -0.10439868 0.052304324 -0.08169862 0.119289786
-0.113347486 -0.07977999 -0.18078992 -0.0024717199 0.051377356 0.17656192 0.014317123 -0.043573536
0.059077654 -0.09594318 -0.07307075 0.029983317 -0.044758193 0.05494279

pos_net.linears.1.weight f4 [30, 30]
00000000: e763 2236 6c72 f1b5 a1f6 e8b4 c374 4736
00000010: 8458 7635 d2bc 04b6 6267 4536 23ae 1cb6
00000020: 737e 6636 48b1 f5b6 ceca 2536 620d 64b6
00000030: 5e15 2536 6e5f 0636 7d97 81b6 7183 ba36
00000040: 67fa 15b6 7373 4336 17e5 08b6 7bef f735
00000050: b6d4 85b6 a493 fcb6 4989 2835 2c03 2435
00000060: c5be f8b7 3802 5ab6 defb 97b7 f0ab d835
00000070: f305 7db7 e9e6 9b36 f249 c13c 327b e5bc
00000080: 5608 963d eb37 3abe b29c 15be ccdc b1be
00000090: f2ce c93e 285a 5bbe 58d5 c1bb 2984 953d
000000a0: fdff 53bc 6e5a d93b 3778 da3c 0e4d 883e
000000b0: 5a46 0abe c211 00be eeba c63d 2730 1bbb
000000c0: c602 82bc b806 653e b826 adbd c076 0dbe
000000d0: 244f 813b c047 f43e c6fc 1abd 4365 403e
000000e0: b646 9dbc 4842 0abe 3803 dbbc 59ad 39be
000000f0: faa5 03ba 6309 243b fc8f 9eba 8611 1dbb
00000100: 4106 cfba febd adbb be66 06bb 4ccc aaba
00000110: 580c 89bb 883e 40ba 0184 323a c8f7 ccbb
00000120: 7908 43bb 788c 8fbb 5910 55bb fe17 9abb
00000130: 1b6b b2ba f08d fbb6 daf3 a739 8aea 09ba
00000140: 5991 f1ba bcee 7dbb c3e1 6bbb 26d4 b73a
00000150: 42d2 553b ed05 b53b cb91 993b d332 043b
00000160: e725 7ebb c4b8 8abb f00a 75be 1dfd d9bd
00000170: 2de9 153e c86a 09be 0584 203e 231e 813d
00000180: 1672 f53c f30b d73d ed7f 4abe b929 53be
00000190: 5f24 14bd d662 2abe bf91 6ebc 9ade 92be
000001a0: ec82 fabe e08b 31bd d1c9 f6b9 dc1c 433c
000001b0: ad16 1abd 22bb 94be 32c5 063f 6a78 0e3e
000001c0: defa 2cbe b654 763e ec9c 2fbd 4cd0 cf3d
000001d0: 5301 363d 8b32 563e 6443 913c 0889 8ebe
000001e0: e012 98bd c988 163d ca6c a5bd e539 bc3e
000001f0: 712e d5bc 29f6 963c 7274 453e c781 52bd
00000200: ec55 4e3e 2c98 69be 0a0f c23c 5495 18bb
00000210: 133d 93bd 04f5 9b3e b7e3 fc3b 3fc0 733e
00000220: 402a 043e 76d5 a7bc c7ba 17bb 2b03 423e
00000230: 7ab9 81bd 90d1 253d c4ec d43d 19b7 453d
00000240: 3aa9 4cbd 8bdf 323e 8403 c3bd 1edd b43c
00000250: cbcc 30be 528b 843d b09b 4bb9 affb 27ba
00000260: 71dc 32b9 d094 56b9 20fc 443b 195e fbb8
00000270: 1fcd 82b8 dc6f d537 4c6f 28ba f201 f23a
00000280: 5b9f 6e3a 4d8f 6fbb 38b0 1fb8 ac96 feb9
00000290: eee1 e136 5184 8eba e872 42b8 bfd8 f9b8
000002a0: 9243 c0b7 5677 1438 e8a0 9537 8946 aeba
000002b0: 1e84 21ba 40c3 8bb9 8c09 acba 209d 71ba
000002c0: 9ca7 8db9 69b5 9ab9 3126 25ba e1f9 d7b9
000002d0: 785d 7c3d 745d febd 572b 7c3e 11ce 36be
000002e0: 47bf 4c3d be56 143a 958d 3f3e 020f aa3d
000002f0: 928e 03bd 0db0 7c3e 8ea0 57bd a4ab 1cbe
00000300: d042 2dbe 9026 123c 8f21 7fbd d1c8 1bbd
00000310: e2d4 403d 69f6 82bb b133 96bd 150f 04bc
00000320: 15dc 2f3e 19ab e13d 5c04 7cbe eb4f 15be
00000330: 7769 063e 445a 3fbd 1044 c43d fff3 43be
00000340: eaa0 4b3e 2046 31be 8853 f93a b0e8 23bc
00000350: 4652 923d 2a07 463e 1f2c 81bd 5fe9 613e
00000360: 92e2 37be bf27 c3bc bdbd 5fbd 5452 ee3a
00000370: 82e5 28bb 866d c9bd 9db4 df3d 702d c23e
00000380: f063 dabc 5dc6 c43d dc0c 813c e170 e93c
00000390: 47aa b9bc 3d30 aebc 7c6c d2bd 9883 30be
000003a0: acb6 ed3d 221a 9abd 4033 5bb8 73f6 1d3c
000003b0: a07c 0ebe 7965 553e 24b2 6fbe 2c28 1b3e
000003c0: d46d 8439 d6d6 25b7 8de2 3db9 135b 7038
000003d0: f553 d0b8 1106 88b9 6fc9 79ba 9546 87ba
000003e0: aaef 70b9 c0be b238 e3ab 89b8 f09f d8b8
000003f0: 4375 a5b9 9473 dcb9 a2aa 40b9 0eab 22b9
2.4198032e-06 -1.79892e-06 -4.3392814e-07 2.9721275e-06 9.177095e-07 -1.977944e-06 2.9415464e-06 -2.3347172e-06
3.4346274e-06 -7.3222072e-06 2.4704964e-06 -3.3982437e-06 2.4599353e-06 2.0023103e-06 -3.862135e-06 5.5585338e-06
-2.2348484e-06 2.9124465e-06 -2.0398927e-06 1.8472632e-06 -3.9884717e-06 -7.527373e-06 6.2784653e-07 6.1099377e-07
-2.9652738e-05 -3.2485823e-06 -1.8117888e-05 1.6143294e-06 -1.508136e-05 4.6462415e-06 0.02359483 -0.028012846
0.07325809 -0.18185394 -0.14610556 -0.34738767 0.394157 -0.2142111 -0.005915325 0.07300598
-0.01293945 0.0066330945 0.026668651 0.26621288 -0.135034 -0.12506774 0.09703623 -0.0023679824
-0.015870463 0.22365844 -0.08454651 -0.13814831 0.003946202 0.4771099 -0.03783872 0.18788628
-0.019198757 -0.13501847 -0.026734933 -0.18132533 -0.0005021986 0.002503001 -0.0012097354 -0.0023966744
-0.001579471 -0.00530219 -0.0020508016 -0.0013030856 -0.0041823797 -0.00073335366 0.0006809831 -0.0062551238
-0.0029759689 -0.004380759 -0.0032510965 -0.004702567 -0.0013612242 -7.4969066e-06 0.00032034406 -0.00052610843
-0.0018430158 -0.0038747033 -0.0035992719 0.0014025017 0.0032626544 0.005524388 0.0046865693 0.0020171895
-0.0038779916 -0.0042334516 -0.23929954 -0.10643981 0.14639731 -0.1341964 0.15675361 0.06304576
0.029961627 0.10500326 -0.19775362 -0.20621385 -0.0361675 -0.16639265 -0.014561116 -0.28685457
-0.4892801 -0.043346286 -0.0004707114 0.011908736 -0.03761928 -0.2904902 0.52644646 0.13913122
-0.16892573 0.24055752 -0.04287426 0.10147151 0.044434857 0.20917718 0.01773233 -0.27838922
-0.07425475 0.036751542 -0.080773905 0.3676292 -0.026023122 0.018427925 0.19282702 -0.051393297
0.20149964 -0.22811955 0.023688812 -0.0023282366 -0.07189383 0.3046037 0.0077175754 0.23803805
0.12906742 -0.020487528 -0.00231521 0.18946521 -0.06334205 0.040483057 0.10396722 0.04827032
-0.049966075 0.17468087 -0.09522155 0.022078093 -0.17265622 0.06471886 -0.00019417587 -0.0006408048
-0.00017057524 -0.00020464067 0.0030057505 -0.0001198614 -6.23709e-05 2.5443667e-05 -0.0006425276 0.0018463715
0.00091027253 -0.003655392 -3.807267e-05 -0.00048558915 6.731824e-06 -0.0010873174 -4.636022e-05 -0.00011913617
-2.2919648e-05 3.539709e-05 1.7837112e-05 -0.0013296168 -0.00061613496 -0.0002665762 -0.0013125404 -0.0009216834
-0.00027018494 -0.0002950833 -0.00062999415 -0.0004119417 0.061612576 -0.124201685 0.24625908 -0.17852046
0.049987104 0.00056586775 0.18706353 0.08303644 -0.032118388 0.24676533 -0.05264335 -0.1529985
-0.16920018 0.008920327 -0.062287863 -0.03803331 0.04707802 -0.0039966595 -0.07334078 -0.008060236
0.17173798 0.110189624 -0.24611038 -0.14581268 0.13126169 -0.046716943 0.095832944 -0.19136046
0.19885603 -0.17311907 0.0019022087 -0.0100042075 0.07144599 0.1933867 -0.063072436 0.2206168
-0.17957523 -0.023822663 -0.054624308 0.0018182495 -0.0025771563 -0.09835343 0.10923121 0.3792529
-0.026658982 0.09608147 0.015753202 0.028496208 -0.022664202 -0.021263236 -0.10274598 -0.17237699
0.116071075 -0.07524516 -5.22614e-05 0.009641278 -0.13914728 0.2083949 -0.23407799 0.15152043
0.0002525883 -9.884787e-06 -0.00018108841 5.730528e-05 -9.933851e-05 -0.0002594446 -0.0009528612 -0.0010320718
-0.00022977465 8.5232314e-05 -6.5646855e-05 -0.00010329473 -0.0003155862 -0.00042047782 -0.00018374113 -0.00015513247

pos_net.linears.1.bias f4 [30]
00000000: 05a5 a7b7 e449 b6bc 1944 d3bb aaa5 0e3e
00000010: 0506 873c 1aef 2ebb 2b58 ca3d ba62 b3bd
00000020: 3b8a 80ba ec6a c1b7 4ce7 20be 2049 e3b9
00000030: 4029 92b7 6ccb 20bd 1d7c eb3d 0b97 dfbe
00000040: a909 b1bc c441 d7bb 96c1 f23d 637d b23d
00000050: 8530 c6bc a689 733d cc97 e4bd 4024 9f3d
00000060: df6d 93bd d949 e33d 3994 95bd 9ad5 263d
00000070: ba08 143e ad27 17b9
-1.9984795e-05 -0.02225203 -0.006447327 0.13930383 0.016482363 -0.0026692809 0.09880098 -0.08759065
-0.0009806821 -2.3057182e-05 -0.15713233 -0.00043351296 -1.7423765e-05 -0.0392565 0.11498282 -0.43669924
-0.021611052 -0.006569119 0.1185333 0.08715322 -0.024193058 0.059457444 -0.111617655 0.07770586
-0.071986906 0.1109807 -0.07303662 0.04073105 0.14456454 -0.00014415263

pos_net.linears.2.weight f4 [30, 30]
00000000: 0229 8036 f0bf 2cbe 7cfa c4b9 97d0 bbbe
00000010: 0c3f c8be 8c8f a839 07d2 583e ea77 b1bd
00000020: 6d65 8bb9 67bf 9fb7 1820 f6bd 84ee 7e38
00000030: ae0c b337 e298 4a3d 9cac 56bd 214a 1dbc
00000040: e173 703e b500 eebd 58b4 1fbf 156c 4b3e
00000050: 366b bd3d eca4 c03c 59d5 0d3d 7fa6 823e
00000060: 2297 603d 1637 463e 0630 a33e b679 c53e
00000070: b275 363e e80c e238 b702 3db6 213c 43be
00000080: 5465 97ba 6fde 60be 7b9a b33e 40df a4b8
00000090: e44b 09bd 4228 99bd a834 b1b8 1eb2 bab6
000000a0: cad1 d23e 285f d836 e870 9eb6 739a 763d
000000b0: 2255 1dbe a94c 543e 6124 e3bd 901d 413e
000000c0: 2b19 893d af24 723d d12a 503e 84b1 673d
000000d0: 601c 60be 6005 c1bd 57cd ad3d 74bb a83e
000000e0: d159 283e 271c 92bd a3c5 23be 13dd 7938
000000f0: 4079 fd35 3c82 93b3 097a 0436 cbfd c935
00000100: 4810 45b7 9c3f cdb4 d286 13b6 8552 ee34
00000110: 6891 d7b2 7ac5 88b5 eb7f a336 aa76 8eb4
00000120: 879e 1e35 ebc0 3eb7 a68b 9236 45a1 0935
00000130: 15ab 9ab5 b387 4b37 4287 0f35 1f01 0338
00000140: 0699 0336 1523 8fb7 b2a3 f134 b9e1 3736
00000150: ad93 e8b4 b547 8db6 5ab8 4735 107e a0b6
00000160: 708a 1235 60c6 f133 b716 44b6 b11b b63e
00000170: 8974 0fbc b08f 9abd ae54 bf3d 67f2 ceb8
00000180: 1324 51be 1a91 aabe 3915 cf39 8876 3337
00000190: 5ff7 513e 6d2d 9838 212e 99b8 2472 35be
000001a0: 4093 a7bd 62d5 033e dd99 9a3b 72eb 3ebe
000001b0: 762a 203f 0d1a 44be 7869 3a3e a12f d33d
000001c0: 6d34 b5bd af9c aa3e 567e 973b 7209 623e
000001d0: 2079 44be 6e0b 82bd 5740 0ebe 9310 2e39
000001e0: f487 9c34 8e93 b23c ac12 07b7 26a5 99bb
000001f0: eff3 5cbc 0cd3 1234 45ab 4bbc 6788 06bd
00000200: e5e1 f7b5 2c61 98b4 a68d 7fba 302b da32
00000210: 2cc0 9fb5 9a65 3fbb cf90 02bc c0d9 fe35
00000220: 6872 f63a c579 9cbc 3c81 ebba 25c0 74bc
00000230: 69b7 23b9 5d4a dcba e17b d8bb 8e6c ae3c
00000240: be74 c0bb 5ee5 4dbb 74e7 99bc 6db4 1cbc
00000250: d77b a7bd 3ff4 ab35 9989 6c36 d0dc f53e
00000260: a29c 09bc cd96 273e 3a0b 3cbd 338f 6a39
00000270: 0bd3 5d3e c9ea ecbd 4c2f bd39 6702 2238
00000280: 905b 52be 90ed dd38 c08b 57b6 927c 503e
00000290: 3687 793d 54a3 c8bd ab47 123e 7bd8 ebbd
000002a0: 3211 6b3b d65d 8abb 0e4f d9ba 49b0 1dbe
000002b0: 607d b63e 7596 773d be9d c83d fb93 79be
000002c0: 7c64 c13d e883 bd3e bf02 b53c 2834 2139
000002d0: ef3a 48b4 c08b 4db8 ae5c 8c36 7644 413b
000002e0: e8d2 ad3a e4c4 76b4 633c 853b 6755 963b
000002f0: 8872 7234 ca10 0fb6 9e2b f23c 1885 97b4
00000300: 67fe fb35 4c29 0f3d 3248 b439 1112 1abd
00000310: a417 073a 5f4c d6ba 40fe 683b 338d 293b
00000320: 144a 503c dc32 143d 2db2 d839 10d6 763b
00000330: 22dd d9b4 b79a c7bc d5fd aebb cd56 f3bb
00000340: c599 743a 64b9 b235 aa6e 2036 a3d3 cf3e
00000350: 3dea 85ba 7b45 e13e 8bb9 483e d151 6bb9
00000360: 92dd 4e3e 1c38 c7bc face 5539 bc7d 4138
00000370: a43f 15be 5081 d237 303d 5d39 cef6 4d3e
00000380: b70d 3bbe 59ae bfbd 9a68 c3bc 6cd2 813e
00000390: 3737 4f3e 0f95 063e cc67 623d 4a58 64be
000003a0: 2ff0 0abe 1969 46be 3d77 7cbc 695e 0fbe
000003b0: a209 a4be ce05 47be 9684 613e 6dcf 18b8
000003c0: a153 6fb5 bcb8 93b4 753e 1db6 d4c6 eeb7
000003d0: ac00 9abb 23b7 24b5 963f 99bb d15f 8935
000003e0: 8f61 b3b4 aeb1 a534 ffaa 82b6 d71a d435
000003f0: ce7b b234 bdf8 7938 01e5 193d 3c62 5134
3.819471e-06 -0.16870093 -0.0003757066 -0.3668258 -0.391106 0.00032150408 0.21173869 -0.0866545
-0.00026587714 -1.9043406e-05 -0.1201784 6.0780454e-05 2.1344367e-05 0.049462207 -0.052410707 -0.009600193
0.23481704 -0.116212286 -0.6238456 0.19865449 0.092489645 0.02351614 0.034627292 0.2551765
0.05483163 0.19356951 0.31872576 0.3856942 0.17818335 0.00010778924 -2.8164775e-06 -0.19065906
-0.0011550584 -0.21959852 0.35078797 -7.861713e-05 -0.03351964 -0.07478382 -8.449826e-05 -5.5639675e-06
0.4117568 6.4483793e-06 -4.721911e-06 0.060205888 -0.15364507 0.20732369 -0.11090923 0.18858933
0.066942535 0.059117015 0.20328833 0.056565776 -0.21885824 -0.09424853 0.08486431 0.32955515
0.16440512 -0.07134276 -0.15993361 5.9572118e-05 1.8885257e-06 -6.8689104e-08 1.9740567e-06 1.504953e-06
-1.1745906e-05 -3.8230507e-07 -2.1983183e-06 4.4390995e-07 -2.5095417e-08 -1.0190263e-06 4.87267e-06 -2.65359e-07
5.9090274e-07 -1.13698e-05 4.3673963e-06 5.1271155e-07 -1.1523686e-06 1.2131338e-05 5.346848e-07 3.1233878e-05
1.9609593e-06 -1.7063265e-05 4.5008852e-07 2.7400513e-06 -4.3320816e-07 -4.2104753e-06 7.4401544e-07 -4.783047e-06
5.459069e-07 1.1258521e-07 -2.9219498e-06 0.35568002 -0.0087558115 -0.075469375 0.09342323 -9.8679964e-05
-0.20423917 -0.3331383 0.0003949793 1.0696829e-05 0.20504521 7.256386e-05 -7.304201e-05 -0.17719322
-0.081823826 0.12874368 0.004718049 -0.18644503 0.6256479 -0.19150563 0.18204296 0.10311819
-0.0884789 0.33322665 0.0046232147 0.22073916 -0.1918683 -0.06349836 -0.13891731 0.00016600107
2.9156183e-07 0.021798875 -8.050974e-06 -0.0046888767 -0.013485893 1.3674088e-07 -0.012430971 -0.032844927
-1.8468678e-06 -2.8382908e-07 -0.0009748585 2.539818e-08 -1.1902353e-06 -0.0029204846 -0.007969095 1.8987848e-06
0.0018802406 -0.019101033 -0.0017967592 -0.014938389 -0.00015613217 -0.001680683 -0.0066065644 0.021291997
-0.0058732918 -0.003141723 -0.018787123 -0.009564501 -0.081779175 1.2811578e-06 3.5246833e-06 0.4802003
-0.008399161 0.1636612 -0.045909144 0.00022369325 0.21662538 -0.11568219 0.00036084128 3.8626047e-05
-0.20542741 0.00010582351 -3.2118842e-06 0.2036002 0.060919963 -0.09796777 0.14285152 -0.115159
0.0035868404 -0.004222612 -0.0016579346 -0.15399279 0.3564253 0.06044622 0.09795712 -0.24372856
0.09442994 0.370147 0.022096036 0.00015373586 -1.8647891e-07 -4.900596e-05 4.1831145e-06 0.0029490269
0.0013261707 -2.2982164e-07 0.0040660365 0.0045878175 2.2579673e-07 -2.1318433e-06 0.029561814 -2.822278e-07
1.8774998e-06 0.034951493 0.00034386065 -0.037614886 0.0005153364 -0.0016349665 0.0035551935 0.0025871515
0.012712974 0.036181316 0.00041331482 0.0037664212 -4.0580295e-07 -0.024365766 -0.0053403177 -0.007426119
0.0009330775 1.3315989e-06 2.3906273e-06 0.40591154 -0.0010216903 0.43998322 0.19602029 -0.00022441825
0.2020171 -0.024318747 0.00020390368 4.6131885e-05 -0.14575058 2.5094167e-05 0.00021098997 0.2011368
-0.1826695 -0.09359426 -0.023853589 0.25355852 0.20235907 0.13142799 0.05527477 -0.22299305
-0.13568185 -0.19376029 -0.015409288 -0.14000858 -0.320386 -0.19435808 0.22023234 -3.6432804e-05
-8.9156134e-07 -2.7515296e-07 -2.3431178e-06 -2.8464397e-05 -0.004699787 -6.136126e-07 -0.0046767695 1.0235182e-06
-3.341233e-07 3.0862924e-07 -3.8942085e-06 1.5803042e-06 3.3245163e-07 5.959788e-05 0.03757191 1.9500379e-07

pos_net.linears.2.bias f4 [30]
00000000: 9474 4d3e 4084 083d bdea 2abb 7a58 4e3e
00000010: 5998 00bd aad3 99bd 0b3e 2fbd 2075 753d
00000020: 37df ebbd acc1 a53e 74d2 293d 7657 88bc
00000030: dc63 693e e2b4 a83e fe5b 033e 83e3 1a3d
00000040: a149 8f3e f6cc 9bb9 bce8 4f3d c1b9 be3c
00000050: 15c2 e6ba f817 61bd 2542 bd3d 711f 953e
00000060: c199 e5bc f267 e43b 9b9a 02be 0e77 17bd
00000070: a20d d83c 3473 17bd
0.20064002 0.03332925 -0.0026079856 0.20150939 -0.03139529 -0.07511075 -0.04278378 0.059926152
-0.11517184 0.32374322 0.04146047 -0.016643267 0.22792 0.32950503 0.12828061 0.03781463
0.27985862 -0.00029716612 0.050759062 0.023281934 -0.0017605448 -0.0549545 0.09241132 0.2912555
-0.028027417 0.006970399 -0.1275429 -0.036978774 0.026373688 -0.0369751

pos_net.output_layer.weight f4 [6, 30]
00000000: 57a9 9fbc fa96 c43e d864 1bb8 1107 7a3d
00000010: 6365 32bb bd1e 81bd 1add 98bb 0b50 f23e
00000020: 4350 88bb a855 87bd 5e0c b23e e62c 6536
00000030: 5615 913d 9744 92be 33ea 613e a392 10be
00000040: 7e3b f9be 6087 0fb8 b4a1 633e dc36 17bd
00000050: cb1d 25b9 4937 993e 0e6c 8abe b7f6 31be
00000060: 246f a73d a6ba edbc 5f29 973e ee80 3abe
00000070: 93e7 f8bd 9c40 8d3c 00d9 1fbe 81b4 26be
00000080: b782 35bb c166 dcbe 706d 683a 8579 91be
00000090: 0041 eabc ec6d a3bd 3b27 1ebd a268 733e
000000a0: 7daf 1a3d ef8f 6d35 93d7 9cbe 4be4 403e
000000b0: 791c 4dbe 1e1f 18bf e9ff 3c3e cad1 a3b8
000000c0: c6e2 6e3e 06f9 11be a3ac adb9 3092 f43d
000000d0: ab63 34be 8c29 803e 0fb7 fe3b 11b4 463b
000000e0: e6b2 233e aef7 cbbd 9a84 783e e033 963d
000000f0: fbdb 84be a47a aeb9 5297 9e37 729f 18be
00000100: 28a2 a9bb 0d2e e1bd 1adc ebbc 28cd 7c3e
00000110: 61f0 e93c 3c05 36be c86f 4abd daa7 2d35
00000120: 6d28 29be baee d2bb 5284 a4be 5b0e 9cbe
00000130: 1c7b 0e3f 0e18 11b8 8549 053e 3ed0 153e
00000140: 40ee a938 2157 fb3d 5b86 0d3e 0510 d03d
00000150: 59b8 19be 1ae2 263b bfe3 2f3e 4bc3 053d
00000160: 519e ab3e 90bc ca3d f28f 0cbf baa2 e13e
00000170: f290 32b8 99cb 093e e275 1d3b 1f1e 0bbf
00000180: 309f f73c b9b0 81be 53ca 1e3c ae35 40be
00000190: 90ba d23e f393 2c36 8570 6b3e def5 e13e
000001a0: d35c ab3e 71d3 c0bd d706 7c3d fc8a 2e39
000001b0: d549 6fbe 4057 ae3e 766a 5839 a535 91be
000001c0: 36f2 94be 309e 293f c68b 263d 9b8c 1f3d
000001d0: 500a b6be d774 dcbd 907a d23b 72db 063b
000001e0: 6284 9e3b cdd7 67be 9891 183b 952d 94be
000001f0: a49b 80bb 913f 7b3e 2f71 6cba 9c2f ab3e
00000200: aead 003c cf29 20bf 0a6f 7d3e df30 0a36
00000210: 4613 c5bd 0568 c5be f290 ce3e 61c3 483e
00000220: 8846 cc3e 369d d4b8 4f94 623e 2eea 493d
00000230: 0e1a d4b8 ca35 53be 96d0 aebe 5703 81be
00000240: 2ccb 803c e281 32bc 7f54 4ebe 2ac7 bfba
00000250: a2c4 e6bd 5fe3 983c b638 433f e8ff d33d
00000260: 77e5 5d3b 24f9 e9be 8bcf b93b 4ed5 90bd
00000270: ace1 a73a a322 00bf 8ea6 e83c 53b9 a9bd
00000280: 3170 da3c 8ef3 4eb5 ec82 003f 9667 e2be
00000290: ad12 b73d 691a e03d 70d7 b9be f04f 83b8
000002a0: 9fb1 bf3d 2dee 343e 2694 55b9 caeb 16be
000002b0: c04f 37be c4dc 2cbe 6c2a d437 c794 923d
000002c0: f6dc a53c 5205 393d 87ea 153f e131 0cbd
-0.019489927 0.38396436 -3.7048798e-05 0.061041895 -0.0027221076 -0.06304691 -0.0046650292 0.47326693
-0.0041599586 -0.066081345 0.3477506 3.4149793e-06 0.07084148 -0.28567955 0.22061996 -0.14118437
-0.486782 -3.4219935e-05 0.22229654 -0.036917552 -0.00015746725 0.29924992 -0.27035564 -0.1737927
0.08175495 -0.029019665 0.2952375 -0.18213245 -0.12153544 0.017242722 -0.15610123 -0.16279794
-0.002769632 -0.43047145 0.0008866405 -0.28413025 -0.028595448 -0.0797995 -0.03861163 0.23770383
0.037765015 8.849883e-07 -0.3063322 0.18837087 -0.20030393 -0.5942248 0.18456997 -7.811522e-05
0.23328695 -0.14255151 -0.00033125756 0.119419456 -0.17616145 0.25031698 0.007773287 0.003031973
0.15986213 -0.099593505 0.24269333 0.07334113 -0.25949082 -0.0003327924 1.8905532e-05 -0.14904574
-0.0051768012 -0.109951116 -0.028791476 0.24687636 0.028557004 -0.17775434 -0.04942301 6.469178e-07
-0.16519327 -0.00643715 -0.32132202 -0.30479702 0.556566 -3.4593097e-05 0.13016327 0.1463022
8.1029255e-05 0.12272478 0.13820784 0.101593055 -0.1501173 0.0025464357 0.17176722 0.03265695
0.33519223 0.09899247 -0.54907143 0.44069463 -4.2573498e-05 0.13456573 0.0024026562 -0.54342836
0.030227274 -0.2533014 0.009691793 -0.18770477 0.4115796 2.5716115e-06 0.22992142 0.44132894
0.33469257 -0.09415329 0.06152996 0.00016645709 -0.23368008 0.3405094 0.00020639025 -0.2836124
-0.29091042 0.66257 0.040660642 0.03895245 -0.35554743 -0.10764473 0.006423302 0.0020577577
0.0048375586 -0.22640915 0.002328014 -0.28941026 -0.003924804 0.24535967 -0.0009019551 0.3343476
0.007853908 -0.62563795 0.2474939 2.059205e-06 -0.09622817 -0.38555923 0.4034496 0.19605781
0.3989756 -0.000101382306 0.22126888 0.049295597 -0.00010113801 -0.20625988 -0.34143513 -0.2519786
0.01572188 -0.010895224 -0.2014942 -0.0014631499 -0.112679735 0.018663106 0.7625841 0.103515446
0.0033858696 -0.45697892 0.005670493 -0.07071935 0.0012808344 -0.5005285 0.028399732 -0.08287301
0.026664825 -7.70954e-07 0.5019977 -0.44219655 0.08939109 0.10942537 -0.36297178 -6.261456e-05
0.093600504 0.17668982 -0.00020368453 -0.14738384 -0.17901516 -0.1688109 2.5292124e-05 0.07157283
0.020246964 0.04517109 0.58560985 -0.034227256

pos_net.output_layer.bias f4 [6]
00000000: 03ab 9e3d 6aad a03e 3987 86be fa22 94bd
00000010: b0bb 9c3d 9073 d33d
0.07747462 0.31382304 -0.26275042 -0.07233234 0.07652986 0.10324776

neg_net.linears.0.weight f4 [30, 12]
00000000: 2025 843d 8154 fd3c 0479 e1bd 17ea b33d
00000010: 6022 3e3e dc71 003d 808a cd3d 5e23 6a3d
00000020: 7cf0 153e 3b54 4cbe 8dac 76be e4fa 1fbe
00000030: c114 a1bd 05bf 883e bdbb 673e 5e82 973c
00000040: a209 243e db25 153e a0a8 9fbe f033 83be
00000050: be68 cabd 44cc 9fbe e60e 92be 9a45 003e
00000060: 5bee 1abd f0d1 95bd a8c8 e13a 7a19 d63b
00000070: e633 9dbd bc4f 503e bdc4 a73d 8b9f c2bc
00000080: 207f 28be bf9d 0d3d e1cd d93d 07e0 49bd
00000090: ac37 8d3d 346f 713e 8dde cb3e ccc6 34be
000000a0: 0071 d2bd 503c 193e db7b 98bc 71ab f3bd
000000b0: 7451 d53d ee12 9f3e e273 2d3e 558d 2fbc
000000c0: 3119 f83d 5bdd 91be 2279 74be 0e92 bb3b
000000d0: 892c 2a3e b20c b03b 3cfa 8ebe 3589 9c3d
000000e0: 0a91 243e 6c4a 6c3d e61d 8abe 20e6 2cbc
000000f0: 85c6 1b3c 2ee8 083d cc51 ecbd 6da6 9dbe
00000100: 5c61 11be aa7a f5bd 5f05 1eba 78b4 563c
00000110: 34ff 51be 4e3b 88bd 63dd c8bd a649 12bd
00000120: 76a0 4abb 889f ebbd d077 e13c 348a afbe
00000130: 4a97 0d3e a92a 1e3e 89da dcbe acac 353e
00000140: 74b1 803e b045 8dbd f0fe bf3d bd89 7dbe
00000150: b2f9 a8be 9597 0dbc 155c a9bd 4485 6bbd
00000160: eb0c a6be 1534 c63d 36aa efbc 74a8 3d3e
00000170: 1589 243e 26ca be3c 3464 9c3e 2180 153e
00000180: ac2f a0be 6f7d 84be b051 833d be22 253c
00000190: f6fd fbbd 0250 63be e18a a4bc 6011 303e
000001a0: 7f37 0dbe f99c 24be 7566 acbd 5196 d0bd
000001b0: 6e4c 1c3d 8493 0f3e eee0 043f a8e9 e13e
000001c0: ceb9 af3c 57c6 173c 7ec2 ba3d b8b6 c43a
000001d0: 251c 8f3d 3640 bcbe 0bce 40bd 7f87 b03d
000001e0: 6833 a73d 399d 55bd d2d7 3ebd 9af8 7b3c
000001f0: bf19 67bd 24b7 3cbe 49a2 c2bc ec80 51bb
00000200: b008 23bd a130 10be e72a f73d a5a3 05bd
00000210: e6d9 2d3e 22f1 8f3d dc45 933d b978 4dbe
00000220: 5656 fc3d b0e1 8dbe ece7 a33d 38c3 813c
00000230: c619 9d3d 3a88 cabc 2f72 d1bd 1fed 813c
00000240: bb12 a83e 420e 02be 15fd a8be f4bd c8be
00000250: b6f0 48be 40e3 27be 274a 6f3d 20f3 a83e
00000260: 3263 82bc a8cd 453e 54da 08be 9023 a4bc
00000270: 97c2 94bd a3aa 103d 7a38 4cbd 4c16 c83d
00000280: 7ad5 b7be cb18 2abe d1fa 573d b911 c43c
00000290: f932 143e d11b 073d 47e4 1b3e 467f 853c
000002a0: 2226 9e3e b893 23bd ea11 b3bc 468d 3d3e
000002b0: 3bd6 273e 30ab 213e 6de7 963e bed2 d43d
000002c0: 9bfc fd3d b234 48bd df2b 363c 2c8c 873d
000002d0: 5cb5 cbbe e8cf 103e 889d 873e f0ff 1bbf
000002e0: c320 083e 0a8d 40bd 1bbe fa3d 0e49 70be
000002f0: 9f20 8abd 959e 813e 8eba a83d 2309 86be
00000300: e5cf a23c d0a5 0a3e 237b 74bd 964d 5a3e
00000310: 3483 8fbd 10b6 11be 2022 e9bc 8a63 e9bd
00000320: 9837 d4bd bd89 f3bd 4b0d ab3d aa32 76be
00000330: bd56 773e c647 0b3e fabf ddbe a2a5 58bc
00000340: 5a66 6fbe 1f23 853c 1049 e83d da26 953c
00000350: 1053 a43c b581 adbd 289f a63e df18 aebd
00000360: 2c1a 623e b65b 453e 27b6 893e a22f 86bd
00000370: e9a8 acbd 97f9 39bd 3812 7abd 13a1 6cbe
00000380: d114 563e 0b10 3e3e ac5d 273e 6c1f 2b3e
00000390: abba 9dbe 5c60 8abe e730 adbe fd61 183d
000003a0: eeff 953b 02b1 63bc 2f86 e8bd f4cf a63b
000003b0: f5c5 d8be 73c8 93be bec6 96bd b791 703d
000003c0: 0ea8 2cbd e046 13be cbef 943e e027 313e
000003d0: b228 27be 86a2 6abe ea0d 273d eab3 9f3d
000003e0: 10eb 803d 2986 48be 4ef6 c53d 6ddd e93d
000003f0: cbd1 d23d 26d2 813d 2c1e 46be 0808 703e
0.064523935 0.030924084 -0.1100941 0.087848835 0.185678 0.031358585 0.100361824 0.057162635
0.14642519 -0.19954006 -0.2408926 -0.15623051 -0.078652866 0.26708236 0.2263021 0.018494781
0.160193 0.14565222 -0.31183338 -0.25625563 -0.09883259 -0.3121053 -0.28526992 0.12526551
-0.03782497 -0.07315433 0.0017225938 0.0065337988 -0.076759145 0.20342916 0.08191822 -0.023757717
-0.16454744 0.034574267 0.106349714 -0.049285915 0.06895384 0.23577577 0.3981823 -0.1765396
-0.10275459 0.14964414 -0.018613746 -0.11897934 0.104159266 0.3106913 0.16938737 -0.0107148485
0.1211418 -0.28489193 -0.23874334 0.005724198 0.16618551 0.005372607 -0.2792529 0.07643358
0.16070953 0.05768816 -0.26975936 -0.010552913 0.00950778 0.03342455 -0.11539039 -0.30791035
-0.14197296 -0.11986287 -0.0006028022 0.013104551 -0.20507509 -0.066519365 -0.09807851 -0.035714768
-0.0030918396 -0.115050375 0.027522951 -0.34285128 0.13827243 0.15445961 -0.4313548 0.1774165
0.25135386 -0.068980575 0.09374797 -0.24759574 -0.33003002 -0.008642097 -0.082695164 -0.05750014
-0.3243173 0.096779026 -0.029255968 0.18521291 0.16067918 0.023289751 0.305452 0.14599659
-0.3128637 -0.25876948 0.06412065 0.010079084 -0.123042986 -0.2219849 -0.020085754 0.17194128
-0.13790701 -0.16075505 -0.0841798 -0.101849206 0.038158827 0.14021116 0.51905715 0.44123578
0.021450903 0.0092635965 0.09119128 0.0015008068 0.0698779 -0.3676774 -0.047071498 0.08619594
0.08164102 -0.052151892 -0.04659254 0.015379095 -0.056421038 -0.18429238 -0.023759024 -0.0031967713
-0.039803207 -0.1408105 0.1206873 -0.032626767 0.16977653 0.07028414 0.07191059 -0.20065583
0.12321155 -0.27711248 0.0800322 0.015840158 0.076709315 -0.024723161 -0.10226857 0.015860138
0.3282679 -0.12700751 -0.33005586 -0.39207423 -0.19623074 -0.16395283 0.058420327 0.3299799
-0.01591644 0.19316733 -0.13364536 -0.020036489 -0.072636776 0.03531898 -0.049858548 0.09769878
-0.35905057 -0.1661102 0.05272943 0.023934232 0.1447257 0.032985512 0.152238 0.01629604
0.30888468 -0.039935797 -0.021859128 0.18510923 0.16390316 0.15787959 0.2947344 0.103917584
0.12401696 -0.04887838 0.011118858 0.066185325 -0.39786804 0.1414181 0.26487374 -0.60937405
0.13293748 -0.047009505 0.12243291 -0.23465368 -0.06744503 0.253163 0.082387075 -0.26178846
0.019874522 0.13539815 -0.059687745 0.21318659 -0.07007447 -0.14229608 -0.028458655 -0.11395939
-0.10362166 -0.11891506 0.08352145 -0.24042764 0.24154182 0.13601598 -0.4331053 -0.013223084
-0.23378888 0.016252099 0.113420606 0.018207002 0.020059139 -0.08472005 0.32543302 -0.085008375
0.22080296 0.19273266 0.26896784 -0.06552054 -0.084306546 -0.045404043 -0.06105253 -0.2310832
0.20906378 0.18560807 0.16344327 0.16711205 -0.3080648 -0.2702664 -0.33826372 0.037202824
0.0045776283 -0.013897182 -0.113537185 0.005090708 -0.4233853 -0.28863868 -0.07362126 0.058732715
-0.042152457 -0.14382505 0.29089198 0.17300367 -0.16324118 -0.2291356 0.040784754 0.07797988
0.062948346 -0.19582428 0.096661195 0.11419187 0.10293921 0.06338911 -0.19347447 0.23440564

neg_net.linears.0.bias f4 [30]
00000000: 5e1c a6bd bb1e f1bb 665e bbbc 7d2d 8f3c
00000010: 2716 9f3c d698 babc d741 0f3c 0c39 513e
00000020: bd29 9abd 8396 ad3e b22f 13bd a274 09be
00000030: c252 29be 0b1e 933d 0ee5 5bbc d278 3a3e
00000040: 6029 a93d 8a39 283e 84c1 85bd 2e51 75be
00000050: cab9 f5bc cc4b a73a 9b8d e0ba 8588 82bc
00000060: 7552 8dbd a9ad 033e 3a6f 5e3d 0335 83bd
00000070: 7668 463c 4bc4 533e
-0.08110879 -0.0073583997 -0.022872161 0.017477745 0.019419743 -0.022777956 0.008743725 0.20431918
-0.07527492 0.33903894 -0.035934158 -0.13423398 -0.16535476 0.071834646 -0.01342131 0.18210152
0.08259845 0.164282 -0.06531051 -0.23956749 -0.029995818 0.0012763678 -0.0017132045 -0.015934238
-0.06900493 0.12859215 0.054305293 -0.064065956 0.012109866 0.20680349

neg_net.linears.1.weight f4 [30, 30]
00000000: e2b3 063c 22fe d33c f36c 34bd 9bfe ef3d
00000010: fe23 fcbd f7d5 cebd ea3e 2cbd 1c37 343e
00000020: 28f4 2c3e 3550 6d3e 3934 ee3d 6bce 6abd
00000030: 9b79 ab3d 2d97 a93e 6592 453d 78b5 8abe
00000040: 045a b93d 15d4 973e 026c 243e f630 91bd
00000050: ea18 313e 925f c33d 06dd 9abd 7b17 0d3d
00000060: 9edd 98bd db1f 2dbe 5b9a 983d 3689 dd3b
00000070: a401 33be 753d 003e 0e9d 81bd 952f af3d
00000080: 7e1d 01bd 1bc6 5f3e f647 02be 19e1 9fbd
00000090: 7010 17be 0c4f 51bd b017 6a3d 8599 463e
000000a0: c49a 003d 1c48 18be ae75 a7bd 1f4a 923d
000000b0: 0b3f c6bc 8f3c 7b3e fd40 17bd 00b7 c5b8
000000c0: cc38 cf3d ee52 44bd 662d f93d 8cc3 81be
000000d0: abab 03be 87d4 49be 5d07 a8bc c6aa 70be
000000e0: f6c0 f6bd c34c 92bd 54f8 a4bd 006f be3e
000000f0: 18a5 e5bb 0231 a8bc ceb0 33bc 9f44 8ebd
00000100: 3ad0 e5bc c316 38bd e386 96bc f3a6 82bc
00000110: 2f5f 0fbc 9851 32bc 1132 3cbb f081 85bd
00000120: 62e7 35bd e99c 0fbc 02c9 5cbc f9ea b7bd
00000130: ae2b cabb 577e 58bc ba08 40bd 88f7 96bb
00000140: a75a 8fbb e002 13bc 8b0c 59bc 9a32 66bd
00000150: fc41 d2bc 8c70 2ebd b021 1abc 85e0 29bc
00000160: 931f b6bd 1893 57bd cffb ef3d 03c0 8abe
00000170: 1aa0 833c 4cac 3cbc bf5f 403e 6af4 17be
00000180: c40c c0bd 51e9 59be 6ccf 193d 3286 febc
00000190: b2d7 01bd 17af 59bd abc0 a8bd be63 12be
000001a0: c8bc 9e3d ecee 15bd 54e7 f0bd b501 64be
000001b0: 6bb1 01bd 6996 2b3d 81a9 b7bd 84e2 a9bd
000001c0: b0e0 9f3e 20b9 08be ebd0 d83e 2aa3 ef3d
000001d0: 8cfc 103e 1547 533d c879 573e aa90 0ebe
000001e0: 0196 1fbb 3879 60bb 5c6d 59ba d91f dfb7
000001f0: ddce 05bb 590c 19b9 878b a7b8 50cf d335
00000200: a0fd 3c38 cfaf c3ba 4d4b ae35 9ea6 ddb6
00000210: 6b05 7f35 e3d1 9a34 cb07 88b8 6011 0bb8
00000220: 5034 29ba 277e b437 2f16 1836 4811 beb6
00000230: afdb 02b7 1863 feb9 224e edba e49b 10b7
00000240: b814 2b3b 4b4a 7238 32ef 4aba 2724 7ab5
00000250: 9df3 c83a 4c0e f036 466a 7e3d 1c6d 833e
00000260: dc11 30bd 889b 1c3e c3e1 913d 9fc3 52bd
00000270: ae09 a53d 3ec5 f3bd 83e6 a5bb 0cfc 933e
00000280: 172f 893c c55c a9bd d2a0 d93d 511c 11bd
00000290: 6271 96bd 5064 73be 65ff df3d 1535 d6bd
000002a0: 1941 f93d ad6e dabc e20e d73d 6474 583e
000002b0: 11b5 45be f254 27be 903e c5bc 99a8 80bc
000002c0: 3eee 51be 7fec 8c3d 8a39 0abd 8e33 bc3e
000002d0: 9c76 c2b9 c0f4 2838 edfc a438 cd85 f9b9
000002e0: 448a 78b9 5c2c cdb7 1167 a6b9 cb3e 34b9
000002f0: 0cc8 3bb8 f94c 1dba d1a3 23b8 aa54 bdb9
00000300: 4ade 5cb9 3849 f1b8 33aa 36bb 9c07 a1b9
00000310: 21c8 a1b8 fa6a e8b8 0f8c 66b9 72c4 20b7
00000320: de67 0ab9 2fd4 37b9 6a19 feb8 f426 b1b9
00000330: 2083 f2b9 b4d4 cfb8 3858 b7b9 2ead dfb9
00000340: 905a 07ba 01f1 a637 d8c9 80bc 18b6 8b3b
00000350: 1de9 213c c349 393c 5488 593a e2c8 e1bb
00000360: 109a 2fbb 28e8 30ba 25fe 61bc a74a be3d
00000370: f853 cfbc ccb7 0c3b a05a 2abc 80be a7bc
00000380: 60eb 263c 0659 b6bc 189b 0fbd f4da 393c
00000390: 11d2 10bc 1dd0 b63b cb82 0fbd 9743 69bc
000003a0: aeb7 0cbc 4719 c9bc fe87 68bb 1e9c a53c
000003b0: 0b05 c2bc bbc3 5fbb 8492 5d3d 2cb8 933b
000003c0: be49 a23c e4b5 523d 21bc 563d fbf3 c7bc
000003d0: b0a5 25ba 6dd2 603d ca36 353e fea4 d8bb
000003e0: ce4b e3bc a957 c7bd 0ec0 043c 5b75 03bd
000003f0: 542c 803e d9eb 36bd 5926 d3bd e7bd 0d3e
0.008221598 0.025878016 -0.044049215 0.11718484 -0.123115525 -0.10099404 -0.042052187 0.17599148
0.16890013 0.23175128 0.116310544 -0.05732576 0.08372804 0.3312315 0.048235316 -0.27091575
0.09050372 0.29653993 0.16056827 -0.07089417 0.1729466 0.09539713 -0.07561688 0.03444622
-0.07464145 -0.16906683 0.07451316 0.0067607416 -0.17481095 0.12523444 -0.06328784 0.085539974
-0.031522267 0.21852915 -0.12722763 -0.07806606 -0.14752364 -0.051100776 0.057151496 0.193945
0.031397596 -0.14871258 -0.081767425 0.07143044 -0.024199983 0.2453482 -0.036927212 -9.4277784e-05
0.10118255 -0.04793065 0.12166862 -0.25344503 -0.12858455 -0.19709979 -0.020511324 -0.23502645
-0.12048523 -0.071435474 -0.08055177 0.3719406 -0.007008206 -0.020531181 -0.0109674465 -0.06946682
-0.028053392 -0.044943582 -0.018374866 -0.015948748 -0.008750721 -0.010883711 -0.0028716365 -0.06518924
-0.044410117 -0.008765438 -0.013475658 -0.08980364 -0.006169758 -0.0132137155 -0.046883322 -0.0046071447
-0.0043748203 -0.008972853 -0.013247619 -0.0562006 -0.02566623 -0.0425878 -0.009407446 -0.010368471
-0.08892741 -0.052630514 0.117179506 -0.27099618 0.016067553 -0.011515688 0.18786524 -0.1483933
-0.09377435 -0.2128041 0.03755133 -0.031069849 -0.031699844 -0.053145494 -0.082398735 -0.14295861
0.07750851 -0.036604807 -0.11762872 -0.22266276 -0.03166334 0.04189149 -0.08967877 -0.082951576
0.3122611 -0.1335187 0.42346892 0.11701043 0.14158839 0.05158146 0.2104255 -0.13922372
-0.0024350884 -0.003425194 -0.0008294189 -2.6598502e-05 -0.002041749 -0.00014595817 -7.9891695e-05 1.5781061e-06
4.50589e-05 -0.0014929714 1.2985926e-06 -6.60571e-06 9.5002787e-07 2.8837448e-07 -6.486437e-05 -3.3156364e-05
-0.00064546335 2.1516416e-05 2.2662678e-06 -5.664453e-06 -7.799753e-06 -0.00048520486 -0.001810495 -8.619365e-06
0.0026104879 5.7766487e-05 -0.00077413314 -9.3184866e-07 0.0015331391 7.1542217e-06 0.06211307 0.2566918
-0.042985782 0.15293705 0.07123139 -0.05145609 0.08058487 -0.11902855 -0.0050628795 0.28903234
0.016746087 -0.082696475 0.10626377 -0.035427395 -0.07345845 -0.23768735 0.109373845 -0.10459343
0.121706195 -0.026664102 0.105008855 0.2113815 -0.19307353 -0.16340998 -0.024077684 -0.015705394
-0.20501038 0.068810456 -0.03374628 0.36758083 -0.00037090934 4.0282262e-05 7.8672405e-05 -0.0004759267
-0.00023702631 -2.445856e-05 -0.00031738778 -0.0001718953 -4.4770582e-05 -0.00060005445 -3.9014794e-05 -0.0003611197
-0.00021063644 -0.000115054136 -0.0027872443 -0.00030713982 -7.714355e-05 -0.00011082548 -0.00021986685 -9.582482e-06
-0.00013199399 -0.00017531285 -0.000121163976 -0.00033789093 -0.00046255533 -9.910148e-05 -0.00034970208 -0.00042662903
-0.0005163336 1.9900968e-05 -0.015721247 0.0042636506 0.009882239 0.01130909 0.00082982075 -0.006890402
-0.002679471 -0.0006748461 -0.013793503 0.092915826 -0.025308594 0.0021471856 -0.010397583 -0.02047658
0.010187954 -0.022259247 -0.03506002 0.011343706 -0.008839146 0.0055790083 -0.035036843 -0.014237306
-0.0085887145 -0.024548186 -0.0035481448 0.020216044 -0.023684045 -0.0034143764 0.054094806 0.004508039
0.019810554 0.051442996 0.052425507 -0.024408331 -0.000631894 0.054888178 0.17696682 -0.0066114655
-0.027746107 -0.09733517 0.00810243 -0.03209434 0.2503382 -0.044658516 -0.103100486 0.13841973

neg_net.linears.1.bias f4 [30]
00000000: 9ffe b23d 6fac e23d 0fbc 69bd 6d06 113e
00000010: d8c3 73bc 24b7 683d e9dd 4fba b778 dcbc
00000020: 627d 173e a25b 2bbc b110 be3d 8a24 3a3d
00000030: 7b11 a9bd 20e2 25b8 cf0a 05bd 3d75 45bc
00000040: 88b4 113e 5ec5 b53d 75e1 46be 69cb dcbd
00000050: f164 ac3d 8868 12bd 0c22 6bb7 9c38 de3d
00000060: e44b 613c b155 b6b9 7267 33bc fd61 103c
00000070: a7df 2c3d 604c 253a
0.08739971 0.11068045 -0.057064112 0.14162607 -0.014878236 0.05681528 -0.00079294905 -0.02691303
0.14793923 -0.010458859 0.092805274 0.045445003 -0.08255287 -3.954966e-05 -0.03248101 -0.012051878
0.14229023 0.088755354 -0.19421943 -0.10780985 0.084176905 -0.03574422 -1.4015019e-05 0.10850641
0.013751004 -0.0003477759 -0.010949956 0.008812425 0.04220548 0.0006305631

neg_net.linears.2.weight f4 [30, 30]
00000000: fc62 8e3e 2e4f 6cbe 7efd ad3b 5c7a 1dbd
00000010: d4a1 bab4 2cf3 04be 9d79 153a 3233 5ebc
00000020: 7f8b 173d 2f9a 753c 702a 31be e30e 053e
00000030: 8e39 0fbc ec2b b4b7 50b6 863a 6ad6 8234
00000040: ece0 4abe 96be 1dbe 006d adbd 9c2e 593e
00000050: a2be e73c 89ef d6bd 58f7 1937 283b 823e
00000060: c830 da3d 1f23 2238 d866 77bd 0849 1f3c
00000070: 3846 9ebd b7fc 08bd 16e4 ddbb 98c3 45bd
00000080: c040 7339 641d 88bc bf3d e236 e199 28bd
00000090: 2571 52b8 d2a5 953c d2e7 c63c c4a7 04bc
000000a0: e81e 3ebe ad6e bc3d 2dae a4bd e901 b0b4
000000b0: 3e5a 103c 442b bfba 2261 503d 1401 f1bd
000000c0: ed38 e03c d0e3 eabd 9fc5 653e 3eca a8bb
000000d0: 06e7 e435 94d5 d9bb 551e 0b3d a753 2bb7
000000e0: c11f da3d 5ff2 103e bc88 66bd c7b8 fb3c
000000f0: 656e 2d3e 6ba7 b53e 3fc1 80bc 1f5e 4abe
00000100: 39fb 41bd d6b6 bcbb ec2f a5b8 37e5 0dbd
00000110: 222a 103e 6b9b 1c3d c4dc a03e fe14 44bd
00000120: e7ba a5bb 09f0 5437 3236 c23b 5e75 9034
00000130: 5a87 d7be a5f9 b7be c4e0 833d 1eb7 ad3e
00000140: 03d0 a13d a363 9bbd a6e4 52b6 7105 93be
00000150: de6a 6f3d 8387 c038 f872 83be 2259 57bd
00000160: 39ec ecbc 99da 5ebe 9488 4e3e 60c2 483e
00000170: 093b d9b9 e931 1ebe e5c7 843b e4b4 5d3e
00000180: a054 0138 8492 e0bb 1204 933d 53eb 133e
00000190: b6ca c8bd 32ca 15bd 9286 513e e3ba 8a36
000001a0: 957f 86bc 0591 0ebb d23a fd3d 654d aebd
000001b0: 0c9b 2e3e 26b1 12be 59eb 93be 6fc3 4bbe
000001c0: 0965 0b37 90a3 7dbc 21ff 253e 40b0 88b7
000001d0: 4877 3fbd 6c4a 173e bf08 b43d fa08 833e
000001e0: e70c 843e 1c9e a03e ef0f 06bc 73a8 17be
000001f0: 6532 0cbc a9fa 913e 4c95 a5b7 d46e 473d
00000200: 20dc 22be e432 b53d 8b14 6abd c1ca 02be
00000210: 3d45 a63d 82ee 1837 d11c 3bbc 8dc0 073c
00000220: 0412 053e 9658 5d3e 66fd 3e3e 63f7 b7bd
00000230: e74a 86be da7e 2abd 961b 3636 7eeb 12be
00000240: db04 3abd bb30 9cb7 5c61 1dbe 63bb 693e
00000250: d032 893d b51f a93e 340e 6b36 a8d6 86b5
00000260: b029 2334 665e 0cb6 c5c1 9eb4 f171 6bb6
00000270: fb0a f634 5d8b 5ab5 00e2 6ab6 160c 09b6
00000280: 20b7 e2b4 9cc3 5c36 f05f 3eb5 4cc9 8634
00000290: d342 17b4 7441 b1b4 8a95 2bb5 b7c6 aab9
000002a0: 495d 3fb6 3e64 f9b5 ac1f 0ab9 a086 94b5
000002b0: ea47 1c35 451c 0cb6 e659 aab6 e42b 06b5
000002c0: 5679 dcb5 27df aeb5 dbc8 c535 0f9a 1e36
000002d0: 90f7 9eba 7d9f b739 a09b 15b7 df25 d2bc
000002e0: 29c5 af33 1ac5 76bb 59e0 e735 a3c8 e7ba
000002f0: b6a9 f5bb 33bd 933b e90b aebb d71f 83bc
00000300: 55a9 45ba c41a ea33 c448 bab9 f700 21b5
00000310: 2f03 c9ba 1da2 bebb f64f c43a f110 26bc
00000320: d6bb 443b 2ec6 a73b 6c85 3d35 9c5c 3eba
00000330: 64ab 7cbc c2d4 5cb6 5891 d8ba b10d 11bc
00000340: 12f1 b2ba c56b 27bc ba2f 4bbe f4ed b5bd
00000350: 2502 b9bc 367e e33e 7a78 393c b1cc 9c3e
00000360: 3a51 a3b9 397b 963c bf2c 1d3d ffee f23d
00000370: c63a c23e cb1d 90bd 5df7 fd3d f9f3 9cb6
00000380: 8c98 6b3a be08 1d3b 0328 163e e42c 363e
00000390: 6507 46be 5164 55be aa5d 8bbe 52ce be3d
000003a0: d5f4 7ab6 c387 24be 5cdb 0a3d 6fcf e538
000003b0: e4e2 69be 4b8d e73d 4bf3 223e 0c41 9a3e
000003c0: b725 48be f326 d0bc d6b8 423b 6225 2bbe
000003d0: 98fb 363a f615 81bd ca53 7838 43f5 02bd
000003e0: 196d e43c f21b 833d f3d9 9abe f958 c73c
000003f0: 140b 60bd 5d1a 8336 0381 17bd 5462 de3c
0.27809894 -0.2307708 0.0053097596 -0.03844677 -3.4762945e-07 -0.12983388 0.0005702021 -0.013562011
0.03699827 0.0149903735 -0.17301345 0.1299396 -0.008741749 -2.1478125e-05 0.0010277722 2.4370394e-07
-0.19812363 -0.15404734 -0.08468056 0.21209186 0.028289143 -0.104949065 9.1771e-06 0.25435758
0.106538355 3.865652e-05 -0.060400814 0.009722002 -0.07728237 -0.033444133 -0.0067715747 -0.048282236
0.00023198407 -0.016615577 6.742513e-06 -0.041162375 -5.0173276e-05 0.018267546 0.024280462 -0.008096639
-0.18566477 0.09200797 -0.08041034 -3.2783944e-07 0.008810578 -0.0014585038 0.050873883 -0.11767784
0.027370894 -0.11469233 0.22438668 -0.0051510623 1.705456e-06 -0.006647775 0.033964474 -1.0211871e-05
0.10650588 0.14154957 -0.056282744 0.030727757 0.16936643 0.35479292 -0.015717147 -0.19762467
-0.047358725 -0.0057591004 -7.876739e-05 -0.034642424 0.14078572 0.038234156 0.3141843 -0.047871582
-0.005057681 1.2692072e-05 0.0059268707 2.6907486e-07 -0.42095453 -0.3593265 0.06439355 0.3392877
0.07901003 -0.075873636 -3.142553e-06 -0.2871509 0.058451526 9.1805145e-05 -0.25673652 -0.052575238
-0.028921233 -0.21763076 0.20169288 0.19605398 -0.0004143345 -0.15448727 0.0040521496 0.21651036
3.083481e-05 -0.0068534035 0.07178511 0.14445238 -0.09804289 -0.03656978 0.20461491 4.134477e-06
-0.016418258 -0.002175392 0.12364735 -0.085108556 0.17051333 -0.1432539 -0.28890494 -0.19898771
8.30857e-06 -0.015480891 0.16210605 -1.6294536e-05 -0.046744615 0.14774483 0.08790731 0.25592786
0.25791094 0.31370628 -0.00818251 -0.14810352 -0.008556937 0.2851155 -1.9739055e-05 0.04868968
-0.15904284 0.08847597 -0.057148498 -0.12772657 0.08118675 9.115438e-06 -0.011420445 0.008285654
0.12995154 0.21615824 0.18651351 -0.08982732 -0.2622902 -0.04162488 2.713617e-06 -0.14347646
-0.045414787 -1.8619341e-05 -0.15369171 0.22825389 0.06699145 0.33032003 3.5025996e-06 -1.0046251e-06
1.5195724e-07 -2.0916573e-06 -2.957078e-07 -3.5084051e-06 4.582906e-07 -8.141413e-07 -3.5000267e-06 -2.0421626e-06
-4.222902e-07 3.2896414e-06 -7.0920123e-07 2.5105908e-07 -1.4087281e-07 -3.3016443e-07 -6.392007e-07 -0.0003257298
-2.8515517e-06 -1.858112e-06 -0.00013172504 -1.106604e-06 5.821918e-07 -2.087808e-06 -5.0768604e-06 -4.998276e-07
-1.6426591e-06 -1.3028956e-06 1.47361e-06 2.3633509e-06 -0.0012128223 0.00035023308 -8.917326e-06 -0.025652824
8.184936e-08 -0.0037654103 1.7276135e-06 -0.0017683696 -0.0074970378 0.0045086383 -0.0053114784 -0.016006393
-0.0007540186 1.0901343e-07 -0.000355309 -5.997858e-07 -0.0015336032 -0.0058176653 0.0014977443 -0.010135875
0.0030019186 0.0051200604 7.060214e-07 -0.00072617247 -0.015421722 -3.2906396e-06 -0.0016522808 -0.008853362
-0.0013652167 -0.010218565 -0.19842425 -0.088832766 -0.02258403 0.4443223 0.011320228 0.30624917
-0.000311503 0.018369304 0.03837275 0.11861991 0.37935466 -0.070369326 0.124006964 -4.6775644e-06
0.000898727 0.002396151 0.14663701 0.17790562 -0.19338758 -0.20839049 -0.27219898 0.09316696
-3.7395414e-06 -0.16067414 0.033900604 0.000109582084 -0.22840458 0.11306246 0.15913121 0.30127752
-0.19545637 -0.025409197 0.0029712222 -0.16713479 0.00069802394 -0.06303017 5.9205842e-05 -0.03197218
0.027884053 0.064018145 -0.30244407 0.024334418 -0.054698065 3.9071733e-06 -0.03698827 0.027146496

neg_net.linears.2.bias f4 [30]
00000000: 0c67 e83d 4a81 193e 0485 b93e cf80 c1bd
00000010: 8fe6 973c 2ff2 e8b9 eabb 47bc b3c5 123e
00000020: 26ec cbba 351b d0bc f473 d33d 628b 113e
00000030: fc14 6abc 60de 95ba 8e03 a8bc 1e12 3ebd
00000040: 1738 073e 3833 533e 2eb0 a23d 0c1a ceb7
00000050: 6241 bebd dd11 27bc c8bf c7bd 9a2f 6ebc
00000060: 0893 d9bc 404b b8bd c4c9 17bd b5b6 963c
00000070: afd8 9a3c ab65 5c3d
0.1134778 0.14990726 0.36234295 -0.094483964 0.018542556 -0.0004443093 -0.012190798 0.14333229
-0.0015558049 -0.025403598 0.10324851 0.14213327 -0.01428723 -0.0011434071 -0.020509508 -0.046403997
0.1320499 0.20625007 0.0794376 -2.4569243e-05 -0.092898145 -0.01019713 -0.09753376 -0.014537716
-0.026559368 -0.08998728 -0.037057653 0.018397668 0.01890215 0.053807896
