data/MTMR_28002/sim/random/NN_Dist_1/simulator_param.pt (torch_old, 13431 bytes, 8 tensors)

_input_linear.weight f4 [100, 6]
00000000: 7697 5bbe 9292 9d3d 8fc0 283e ea8a 8d3d
00000010: 8835 34bd bd5f 543e a241 db3d 70db 103c
00000020: 3c87 b3bd 85bb 393e 4d69 2c3e afdc fbbd
00000030: d03b 01bd 7746 3b3e 5441 6dbd c82a d83c
00000040: 16e9 aebd b133 453e a55e 073e a8c6 b23c
00000050: 2510 493e f094 04be 0e21 29be ac23 263d
00000060: bcf5 6f3d d017 613c 4a90 3dbe e007 3f3c
00000070: 6f5b 2ebe 2007 99bb 8c0c 3ebd 1747 6d3e
00000080: 8083 0abc 820c c03d 98c3 0fbd 77fa 29be
00000090: 2ecc 00be 1c6b 86bd 9c99 473d 74f0 6e3d
000000a0: b1f4 2b3e 8fdd 49be 8f5d 503e 86dc 26be
000000b0: 2f22 693e be2c 51be 2da0 38be ff45 403e
000000c0: 0d10 24be 805f 5bbe fcd5 13be 8ac7 5fbe
000000d0: dc49 44bd ca73 ce3d 0608 9ebd c85b 0bbe
000000e0: 8099 a0bb d941 0b3e dff7 6e3e 52de ac3d
000000f0: 907c 6abe 9021 c5bd a135 3b3e 048d 5ebe
00000100: 7474 763d 1b36 463e 9b94 4e3e d321 39be
00000110: 540f 50be 4e14 d83d d872 d93c c617 8fbd
00000120: a0cc 4bbd b8aa 6dbe 32e1 873d a8c4 b93c
00000130: d316 393e a30b 733e 4294 1ebe 9634 c8bd
00000140: 8821 09bd ec27 313d ceff 06be ce06 67be
00000150: 546e cfbd 6e15 4ebe 127d ac3d 506d 52bc
00000160: fb09 303e b4e0 5fbd c0fe 3b3c 0ce7 53be
00000170: 7ef9 d93d 6049 23be e0fe 5dbe 12d1 e13d
00000180: 4063 a7bb 6e5e e0bd 80ea 21bd 7cc2 ebbd
00000190: 0bcf 0c3e 31ae 67be 4c42 2abd e200 f53d
000001a0: 0936 6f3e 7055 53bd 7ce0 f3bd 501e 053c
000001b0: dd7d fabd 802f 99bc 289c 56be 5671 33be
000001c0: c0ef 05bd add5 083e 90f4 443c e1cf 38be
000001d0: 429f 36be a8b1 63be 20fd 09be b1c9 54be
000001e0: 00a6 c73b d6e3 d23d 865c d33d a819 80bd
000001f0: 57c7 333e 8cc1 5bbd 1e7b 1ebe 4b42 69be
00000200: 4964 5cbe 8101 1b3e 9997 05be 0c65 423d
00000210: 0cf6 09bd e898 f83c e995 683e 555c 6b3e
00000220: fa86 66be 69ce 3f3e 1997 56be cd18 5d3e
00000230: 5c99 283d 8ec4 bcbd 1006 4b3c 5f4f 403e
00000240: ac85 0abe e008 e9bb ea4e e03d 90ad a4bc
00000250: 5c60 7abd 3bf8 673e 1ba8 6f3e 5543 393e
00000260: 1fe7 1d3e d214 973d 30b5 67bc 684d c0bc
00000270: 5bbf 13be f0ae 13bd e1db 3e3e d657 983d
00000280: 4f7a 2c3e 01d0 4e3e 6c22 5a3d 48f1 8cbd
00000290: ac46 173d eb2f 283e cb24 3d3e 70b1 9bbc
000002a0: fd04 0b3e 3843 e93c 29ec 323e e23b fe3d
000002b0: f607 8b3d 13af 38be a057 25bd 075c 673e
000002c0: 38f5 09bd cb63 713e 7d02 2e3e 35a8 0e3e
000002d0: d04b 9bbd 629d fc3d 7df0 00be 2a89 0ebe
000002e0: d06a 1dbd 69cf 5b3e 7c64 0fbd 1434 ffbd
000002f0: 389a eb3c 4e06 68be 13e1 693e f49b 053d
00000300: ccef 003d 6ac2 68be 022e 3cbe c937 5bbe
00000310: 05b7 0e3e 426d 53be 41f4 053e c7e8 1b3e
00000320: 2546 1c3e 28d2 e93c 5c21 f0bd 6253 e5bd
00000330: a485 56be 9e7b 43be 9cdd 2a3d b9fb 3dbe
00000340: 6b4d 36be e149 673e 7818 2fbd 12c3 81bd
00000350: 0ceb 05be 407f 48be 32b4 e53d 124e ba3d
00000360: 5493 cfbd ed64 043e 5c99 e5bd a8c3 17be
00000370: 20af 1c3c a89a a3bd 2b8d 243e 695b 193e
00000380: 895e 3f3e 9e7b dcbd f509 efbd 0936 0bbe
00000390: 2550 213e 8301 3a3e ce83 15be 58e1 15bd
000003a0: 5e76 f13d 404e 22be 67c9 463e 91ac 48be
000003b0: a4f2 d9bd 7944 43be f026 3ebc 723b 70be
000003c0: 8ff4 11be 4e59 913d e0c8 6dbe f8f4 99bc
000003d0: 1dce 703e 184d 2abd 5ea7 b63d 8542 463e
000003e0: 84f4 2fbe a8d1 26bd 991e 02be 144b 013d
000003f0: b932 5f3e 0b80 f7bd 8668 0abe 0cc6 18be
-0.21444497 0.07693972 0.16479705 0.069112614 -0.043996364 0.20739646 0.10705878 0.0088413805
-0.08766028 0.1813794 0.16837044 -0.122979514 -0.031551182 0.18288599 -0.05792363 0.026387587
-0.08540551 0.19258 0.13219698 0.021823242 0.19635065 -0.1294744 -0.16516516 0.040561363
0.05858396 0.0137385875 -0.18512073 0.011659592 -0.17027067 -0.004670039 -0.046398684 0.2317165
-0.008454204 0.09377386 -0.035098642 -0.16599451 -0.12577888 -0.06563398 0.048730478 0.058334783
0.16792561 -0.19713424 0.2034819 -0.1629506 0.22766946 -0.20427224 -0.18029852 0.18776701
-0.16021748 -0.21423149 -0.14437097 -0.21853462 -0.047922 0.10080679 -0.07716374 -0.1360923
-0.004901111 0.13599338 0.23336743 0.08440842 -0.2289908 -0.09625542 0.18282177 -0.2173348
0.060169652 0.19356577 0.20173876 -0.18079309 -0.20318347 0.10550748 0.02654402 -0.06986956
-0.049755692 -0.23209655 0.066347495 0.02267678 0.18075113 0.23734908 -0.15486243 -0.09775655
-0.033479244 0.043250963 -0.13183519 -0.2256119 -0.10128465 -0.20125362 0.08422293 -0.012843445
0.17191307 -0.054657653 0.011474311 -0.20693606 0.1064329 -0.15945959 -0.21679258 0.11026205
-0.005108267 -0.10955511 -0.039530277 -0.11511704 0.13750856 -0.22625042 -0.041567132 0.11963059
0.23360457 -0.05159515 -0.11908051 0.008124903 -0.12231038 -0.018699408 -0.20958006 -0.17523703
-0.032699347 0.13362761 0.012021199 -0.1804805 -0.1783419 -0.22235739 -0.13475466 -0.20780064
0.006092787 0.102973625 0.10320382 -0.062548935 0.17556511 -0.053651378 -0.15476653 -0.22779195
-0.21522631 0.15137292 -0.13046111 0.047459647 -0.033681914 0.030346349 0.22713436 0.2298444
-0.22512427 0.18731083 -0.20956077 0.21591492 0.04116188 -0.09217177 0.012391582 0.18780278
-0.13527554 -0.0071116537 0.10952552 -0.020102292 -0.06112705 0.22653286 0.23403971 0.18092091
0.15420197 0.07377018 -0.01414232 -0.02347441 -0.14428465 -0.036055505 0.18638565 0.074386284
0.16843532 0.20196535 0.053255484 -0.06881958 0.036932632 0.16424529 0.18471067 -0.019005507
0.13576122 0.028474435 0.174729 0.124137655 0.06788628 -0.18035536 -0.04036677 0.225937
-0.033681124 0.23573224 0.16993137 0.13931353 -0.075828195 0.12334706 -0.12591739 -0.13919511
-0.038431942 0.2146584 -0.03500794 -0.12461105 0.02876006 -0.22658655 0.22839765 0.03261943
0.031478688 -0.22730413 -0.18376926 -0.21407999 0.13937004 -0.20647147 0.13081457 0.15225516
0.15261133 0.028542593 -0.11725113 -0.11197545 -0.20949417 -0.19090125 0.04171525 -0.18553056
-0.1780297 0.22586776 -0.042747945 -0.06336035 -0.13077945 -0.19579792 0.1121601 0.09096922
-0.101355225 0.12929125 -0.112108916 -0.1482073 0.009563237 -0.07988483 0.16069476 0.14976276
0.18688406 -0.107657656 -0.11671821 -0.13594832 0.15753229 0.18164639 -0.14601061 -0.036591858
0.11790155 -0.15850163 0.19412766 -0.19597079 -0.10641983 -0.19069089 -0.011605963 -0.23460177
-0.14253448 0.07097112 -0.23221159 -0.018793568 0.23516126 -0.04157743 0.089186415 0.19361313
-0.17183119 -0.040727288 -0.12706985 0.03156574 0.21796693 -0.12084969 -0.13516435 -0.14919299

_input_linear.bias f4 [100]
00000000: 0ad7 233c 0ad7 233c 0ad7 233c 0ad7 233c
00000010: 0ad7 233c 0ad7 233c 0ad7 233c 0ad7 233c
00000020: 0ad7 233c 0ad7 233c 0ad7 233c 0ad7 233c
00000030: 0ad7 233c 0ad7 233c 0ad7 233c 0ad7 233c
00000040: 0ad7 233c 0ad7 233c 0ad7 233c 0ad7 233c
00000050: 0ad7 233c 0ad7 233c 0ad7 233c 0ad7 233c
00000060: 0ad7 233c 0ad7 233c 0ad7 233c 0ad7 233c
00000070: 0ad7 233c 0ad7 233c 0ad7 233c 0ad7 233c
00000080: 0ad7 233c 0ad7 233c 0ad7 233c 0ad7 233c
00000090: 0ad7 233c 0ad7 233c 0ad7 233c 0ad7 233c
000000a0: 0ad7 233c 0ad7 233c 0ad7 233c 0ad7 233c
000000b0: 0ad7 233c 0ad7 233c 0ad7 233c 0ad7 233c
000000c0: 0ad7 233c 0ad7 233c 0ad7 233c 0ad7 233c
000000d0: 0ad7 233c 0ad7 233c 0ad7 233c 0ad7 233c
000000e0: 0ad7 233c 0ad7 233c 0ad7 233c 0ad7 233c
000000f0: 0ad7 233c 0ad7 233c 0ad7 233c 0ad7 233c
00000100: 0ad7 233c 0ad7 233c 0ad7 233c 0ad7 233c
00000110: 0ad7 233c 0ad7 233c 0ad7 233c 0ad7 233c
00000120: 0ad7 233c 0ad7 233c 0ad7 233c 0ad7 233c
00000130: 0ad7 233c 0ad7 233c 0ad7 233c 0ad7 233c
00000140: 0ad7 233c 0ad7 233c 0ad7 233c 0ad7 233c
00000150: 0ad7 233c 0ad7 233c 0ad7 233c 0ad7 233c
00000160: 0ad7 233c 0ad7 233c 0ad7 233c 0ad7 233c
00000170: 0ad7 233c 0ad7 233c 0ad7 233c 0ad7 233c
00000180: 0ad7 233c 0ad7 233c 0ad7 233c 0ad7 233c
0.01 0.01 0.01 0.01 0.01 0.01 0.01 0.01
0.01 0.01 0.01 0.01 0.01 0.01 0.01 0.01
0.01 0.01 0.01 0.01 0.01 0.01 0.01 0.01
0.01 0.01 0.01 0.01 0.01 0.01 0.01 0.01
0.01 0.01 0.01 0.01 0.01 0.01 0.01 0.01
0.01 0.01 0.01 0.01 0.01 0.01 0.01 0.01
0.01 0.01 0.01 0.01 0.01 0.01 0.01 0.01
0.01 0.01 0.01 0.01 0.01 0.01 0.01 0.01
0.01 0.01 0.01 0.01 0.01 0.01 0.01 0.01
0.01 0.01 0.01 0.01 0.01 0.01 0.01 0.01
0.01 0.01 0.01 0.01 0.01 0.01 0.01 0.01
0.01 0.01 0.01 0.01 0.01 0.01 0.01 0.01
0.01 0.01 0.01 0.01

_output_linear.weight f4 [6, 100]
00000000: 684f ca3c b964 653e f67e a4bd ec8a 47bd
00000010: a1a3 623e 6ad7 41be 2977 463e c805 08bd
00000020: 49c5 693e 4efd 0dbe c05e 0c3b 0583 463e
00000030: b1bd 363e aeef f93d 2270 af3d 851b 3d3e
00000040: 7c5b 4abd b822 adbd 6501 39be 7578 1e3e
00000050: fb39 383e 9eb7 42be 2840 b43c b882 91bc
00000060: e11e 063e f02c 763c 0869 e2bc 60b2 36bd
00000070: c9d6 0f3e 581f 803c b6bd 17be 6c19 463d
00000080: 4e2d ea3d 78f9 23be 5bb8 573e 9f3d 5d3e
00000090: f469 1cbd 8df9 6b3e 16b5 a03d bf9a 013e
000000a0: 940a 60be c0be f83b c961 4c3e 0c20 11be
000000b0: ae65 a03d e96a 633e 4b74 403e 3e2e 24be
000000c0: 6273 6cbe 609a a0bb 9cde 35be 9853 75bd
000000d0: 007e 90ba fb3f 3ebe e867 4bbe d766 593e
000000e0: 83e6 1e3e 4865 55be 5ff7 263e 8c63 443d
000000f0: 8ac2 853d dbcf 383e 03f2 033e e4cc 39bd
00000100: f356 2a3e 2a81 43be c0a1 6ebe 9250 cc3d
00000110: 6a2a cf3d c6fd 19be b6e5 86bd 0058 733a
00000120: 2c14 243d dac3 d93d 13cb 513e 8cec 2d3d
00000130: 0cb7 e7bd 3090 4f3c aa6c ccbd b4d0 e1bd
00000140: 6943 63be 4ba5 653e fb50 033e 009f 3bbd
00000150: 013d 5e3e d486 633d 97aa 6f3e 9895 50be
00000160: 588c b43c 6843 1abd 304b 17be 1d2c 14be
00000170: 1d61 203e 8012 edba 30d2 19be 6e21 22be
00000180: 90a7 6bbe a15e 113e d768 183e 8008 55bc
00000190: 0060 603a 58de 27be 6bfe 59be f396 713e
000001a0: 5882 21bd 70f6 29bc fc0d 67bd 0830 2abd
000001b0: 98af 823c 0613 6ebe 6831 5fbe faec 92bd
000001c0: 102a 623c 231f 1cbe a22d 54be 402f 0b3b
000001d0: 2e29 803d 2b42 143e 80bf 7dbb 48d2 d4bc
000001e0: 4515 2ebe b2bf c13d fe14 01be 61c7 413e
000001f0: d5ac 5e3e 4455 6d3d 5f60 4d3e a2fb d23d
00000200: c8a3 1abe 02db 81bd bef2 dd3d b179 1f3e
00000210: de77 b23d 6a76 1abe 74f4 8abd a78a 643e
00000220: 6841 a3bd 38b3 8b3c 5ea7 30be 2b97 2e3e
00000230: 98e6 8fbd 5480 29bd 4a6d 883d 1e2b 973d
00000240: 8c24 693d eceb 5c3d b542 483e 5d60 1cbe
00000250: da48 c23d bc15 85bd ada7 6c3e 1ba9 243e
00000260: f230 37be b16f 653e 8ec6 88bd 163b 8b3d
00000270: c562 6a3e 71ba 403e 3de2 033e b610 edbd
00000280: 2487 0ebd 467a d73d 0af5 6dbe eb24 3cbe
00000290: d797 4a3e fd0f 3cbe 6cf2 5bbe eb48 1c3e
000002a0: 48c6 85bc feec 93bd dc87 0cbe b8e6 8a3c
000002b0: ad24 2f3e 80c2 cb3b 4a0a 883d d285 42be
000002c0: 8002 4cbe b4ac d6bd a0a0 6bbc 88ad d73c
000002d0: cc48 1a3d b29c f33d aaa3 81bd 209d b6bd
000002e0: 4bc3 473e e78f 6abe de82 bbbd d3cf 463e
000002f0: 3369 633e c01d ae3b fe21 0abe dac5 a33d
00000300: 6c0c 60bd f604 a53d 00f0 a9b8 7b24 063e
00000310: a668 b93d 8730 60be a8dc 52be 2276 9a3d
00000320: b629 65be f469 7b3d 80e4 64bd f65d f53d
00000330: 4800 93bc fa72 f6bd 853a 453e 3cab 3e3d
00000340: 1589 6dbe 5e30 31be 3174 603e f3ef 163e
00000350: 9060 a6bd 8dbc 1c3e b47f 8cbd ca82 eb3d
00000360: d4fc 18be 6df5 233e 8463 4abe de97 c4bd
00000370: 7c2e b1bd ed54 09be 7234 ff3d 41b2 3c3e
00000380: b80f 74bd 64d9 643d 6a8b 62be 4031 bfbd
00000390: 100a 2dbe 88dc ed3c 0e86 cc3d 7099 603c
000003a0: 0828 56be 2e6f 6dbe 9404 60be 2298 c43d
000003b0: 5a51 983d 924e 63be 7a91 8fbd c35e 0a3e
000003c0: b77b 433e f87d 913c 4533 2f3e 710d 4fbe
000003d0: 833a 4abe a5bf 4d3e 00c9 dd3a 562c 80bd
000003e0: 406b cabd e8af d0bd 8cfb 3bbd aefc 0bbe
000003f0: e2c7 f93d 4bd7 2a3e c363 3abe 0207 fe3d
0.024696067 0.22401704 -0.080320284 -0.04871647 0.22132732 -0.1892983 0.19381393 -0.03320864
0.22829165 -0.1386616 0.002141878 0.19385917 0.17845799 0.122039184 0.085663095 0.18467529
-0.049403653 -0.08453888 -0.18066938 0.15475638 0.17990868 -0.19015357 0.022003248 -0.017762527
0.13097717 0.015025362 -0.027637973 -0.044603705 0.14046778 0.015639946 -0.14818463 0.048364088
0.114344224 -0.16013134 0.2106642 0.21605538 -0.038186982 0.23044415 0.078470394 0.12656687
-0.21879035 0.0075910985 0.19959177 -0.14172381 0.07831894 0.22208752 0.18794362 -0.16033265
-0.2309089 -0.0049012154 -0.177607 -0.059894174 -0.0011023879 -0.18579094 -0.19863856 0.21230637
0.1551762 -0.20839417 0.16305302 0.047946498 0.06531246 0.1804804 0.12885289 -0.045361415
0.16634731 -0.19092241 -0.2330389 0.09976305 0.10115512 -0.15038213 -0.06586783 0.00092828274
0.0400583 0.10633059 0.20487623 0.042461917 -0.1131421 0.012668654 -0.099816635 -0.11026135
-0.22193684 0.22426336 0.1282386 -0.04580593 0.21702959 0.055548504 0.23404919 -0.20369565
0.022039577 -0.03766194 -0.14774776 -0.14469953 0.15662046 -0.0018087178 -0.15021586 -0.15833065
-0.23013139 0.14196254 0.14883743 -0.013002515 0.0008559227 -0.16393411 -0.21288459 0.23592739
-0.039430946 -0.010373697 -0.05640982 -0.041549712 0.01595287 -0.23249444 -0.2179619 -0.07174106
0.013803974 -0.15246253 -0.20720533 0.002123788 0.062578544 0.14478366 -0.003871888 -0.025979176
-0.17000301 0.09460391 -0.12605664 0.18923713 0.21745618 0.057942644 0.20056294 0.103019014
-0.1510154 -0.063406006 0.10837315 0.15573765 0.08714269 -0.15084234 -0.06784907 0.22318517
-0.079714596 0.017053232 -0.17251346 0.17049854 -0.07026404 -0.04138215 0.0666147 0.07381271
0.05691962 0.05393593 0.19556697 -0.15271135 0.094865516 -0.06498286 0.23110838 0.16080134
-0.17889765 0.22405888 -0.06678496 0.06798379 0.2288924 0.18821122 0.12879272 -0.11575453
-0.03479685 0.10521369 -0.23238006 -0.18373458 0.19784485 -0.18365474 -0.21479195 0.15262191
-0.0163299 -0.07222937 -0.13723701 0.016955718 0.17103834 0.0062182546 0.066425875 -0.18996361
-0.19922829 -0.10482159 -0.014381558 0.026327863 0.03766708 0.11895122 -0.063300446 -0.08916688
0.19508092 -0.22906457 -0.0915582 0.19415216 0.22208099 0.005313605 -0.1348953 0.079967216
-0.054699346 0.08057587 -8.1032515e-05 0.13099854 0.09053163 -0.21893512 -0.20591986 0.07542063
-0.22379193 0.06138034 -0.055881977 0.11980812 -0.01794447 -0.12033649 0.19260605 0.04655002
-0.23196824 -0.17303607 0.21919324 0.14739971 -0.081238866 0.15306301 -0.06860295 0.114995554
-0.14940196 0.16011591 -0.19764525 -0.09599279 -0.08651444 -0.13411303 0.12461175 0.18427373
-0.059585303 0.055871382 -0.22123495 -0.093355656 -0.1689837 0.029035822 0.099865064 0.013708457
-0.20913708 -0.23186943 -0.21876746 0.095993295 0.074373916 -0.22197941 -0.07010169 0.13512711
0.19090162 0.017760262 0.17109402 -0.20219971 -0.19748883 0.20092638 0.0016920865 -0.062584564
-0.098837376 -0.101898015 -0.04589419 -0.13670608 0.12196328 0.1668369 -0.18202119 0.124036804

_output_linear.bias f4 [6]
00000000: 0ad7 233c 0ad7 233c 0ad7 233c 0ad7 233c
00000010: 0ad7 233c 0ad7 233c
0.01 0.01 0.01 0.01 0.01 0.01

_input_linear.weight f4 [100, 6]
00000000: 1584 713e 450f 273e 2011 df3b 8710 29be
00000010: a864 933c 0e71 9a3d a8c6 b5bc efdc 45be
00000020: a58d 02be 2449 083d dc5e 60bd 74fd 1b3d
00000030: 1108 053e f73c 233e 8abc b33d 3992 4e3e
00000040: f2a5 4abe e617 a4bd c3e2 2cbe eae7 3abe
00000050: 82f8 11be ec93 123d 692f 033e a415 283d
00000060: 16a1 28be eec2 b43d 58eb d03c 8065 b0bd
00000070: 480c 04bd 89cd 663e d974 323e 6013 76bd
00000080: bbbc 1e3e ab97 283e 4268 ba3d b1ae 3d3e
00000090: 6e78 ce3d 3b32 123e 25f9 4b3e 9e90 86bd
000000a0: c013 26bc 4378 1e3e d2be cbbd ed09 473e
000000b0: 41c6 393e 1c88 6fbe 561e ea3d 2220 a43d
000000c0: 98bf dfbd ad9d 603e 02c3 30be 90d2 5abd
000000d0: 30bf d7bc 7d9c 5c3e a223 0cbe d3ba 3fbe
000000e0: d4d6 283d 7cff 6dbe f85a c93c 1205 4fbe
000000f0: e045 dfbc 9843 3bbe 7672 98bd d325 203e
00000100: 3cb2 8abd ec07 273d b695 97bd c46c 07be
00000110: 393f 25be 6439 26be 9983 5dbe 204b a6bd
00000120: 2027 53bc 10c1 80bd e144 2e3e c22e e03d
00000130: 611c 17be 6d34 673e a263 a8bd d036 6d3c
00000140: d085 51be a3c0 003e 7c74 3d3d e332 3d3e
00000150: fd1b 5b3e 8075 083c ea0f 91bd c658 e1bd
00000160: 4ebc f13d bc8b 2f3d 66a9 21be 04fa 09be
00000170: 96a2 53be 5102 1e3e 785b aebd 5741 243e
00000180: b438 3bbd 6f25 723e 1c79 553d 8757 70be
00000190: 514b 5bbe a09c e03b 0743 063e 40c9 28bb
000001a0: 5c19 123d 5058 3cbc 2861 cabd 9e00 d73d
000001b0: 70fd 71bd 36e6 8a3d 8439 463d 1284 c0bd
000001c0: c075 6c3b 4278 b13d c841 2ebe 8b84 1f3e
000001d0: 2dcc 1b3e 68e1 25be ed93 3cbe 0042 d1bc
000001e0: ae9b 32be ac63 393d af8b 0a3e 8076 3f3c
000001f0: ab41 20be 6ba9 6d3e c6ee 843d 1307 6b3e
00000200: 6cfc e5bd b2ed 0fbe 0090 f739 9bb2 1abe
00000210: 6ca1 403d b89a e8bd a636 69be df07 27be
00000220: f0ed 2bbe 910e 403e 2e70 27be c04c 113c
00000230: 1517 233e 0d86 6e3e 4234 843d 7e0e dd3d
00000240: 89fb 6b3e 3725 6cbe 06de de3d 8d4a 313e
00000250: 6f54 4d3e d6d8 e83d 8800 f7bc 4017 b53b
00000260: 09bb 693e f642 41be 533e 593e 00f4 b2ba
00000270: 3c2a 0bbe 505b d7bc 44a9 733d 0b7d 69be
00000280: 4bf7 453e 64df 2bbe c0db 2abe 6a8e 8fbd
00000290: b83c 1bbd 1257 05be 11d2 1f3e c50c 103e
000002a0: 8e3a 993d fd4c 6cbe f014 753c 03ae 3dbe
000002b0: 256c 283e df08 233e aaad 30be 6c98 51bd
000002c0: 53d3 063e 5f0b 103e 4787 343e f0da e9bd
000002d0: dc58 4fbe 4c84 703d bcd5 0e3d f23a ff3d
000002e0: 794b 23be a0d9 3f3c de0e 1cbe 0c17 2a3d
000002f0: ad15 5cbe 20d8 56be 5bb1 6a3e 6ab0 2dbe
00000300: fe11 f13d d00b 4a3c 0282 6ebe 284a fc3c
00000310: 2421 1abe c59d 5bbe 8831 f4bc bc92 7bbd
00000320: 0795 283e 804e 49be ea21 e43d 0d41 6a3e
00000330: 44ac cabd d7ca 703e 9783 673e 955b 443e
00000340: 6ca6 6cbe d4b5 1a3d bbf1 6a3e f581 3d3e
00000350: 5a7f 8bbd 922a 09be cbef 3d3e 7b86 723e
00000360: 180c 803c 8c77 443d 3b73 34be 4481 5a3d
00000370: 9467 4ebe 9f43 203e c9bf 6f3e 20cd 62bc
00000380: 9e3e f73d 5f0f 1c3e 38ac 9dbd 5c63 9cbd
00000390: 7c68 083d 3561 2a3e f60a 813d d190 693e
000003a0: 802a 87bd 705f 6ebc 5de0 023e bc6b 7a3d
000003b0: 2b6c 623e 76cd 1dbe 9936 1f3e c46a 00be
000003c0: ab80 3abe d8b3 cabd 982b d53c 2103 713e
000003d0: a2cc 8e3d 94d7 28be 21ba 633e cd01 2a3e
000003e0: e6c4 c43d e04c cabd a878 f8bc b006 3cbe
000003f0: 26bb 873d f0d1 01be 44bb 603d b467 b5bd
0.23585542 0.16314419 0.0068074614 -0.16510211 0.017992333 0.07541095 -0.022189453 -0.1932256
-0.12749346 0.033272877 -0.054777965 0.03808351 0.12991358 0.15941225 0.08776195 0.20172967
-0.19789866 -0.08012371 -0.16883378 -0.1825253 -0.14254954 0.0357856 0.12811054 0.041036263
-0.164677 0.088262424 0.025502846 -0.086131096 -0.032238275 0.22539343 0.17427386 -0.06007707
0.15501682 0.16464107 0.09101917 0.1852367 0.10081564 0.14276974 0.1991926 -0.06570552
-0.010136545 0.15475564 -0.099485055 0.1943738 0.18142034 -0.23391765 0.11431567 0.08013941
-0.109252155 0.21935149 -0.1726189 -0.053423464 -0.026336282 0.2154407 -0.13685468 -0.18723612
0.0412205 -0.23241991 0.02457951 -0.20216778 -0.027254999 -0.18287504 -0.07443707 0.15639429
-0.06772277 0.04077904 -0.07401602 -0.13225085 -0.16137399 -0.1623283 -0.21632232 -0.08119798
-0.012887746 -0.06286824 0.17018463 0.10946418 -0.1475692 0.22578593 -0.082221285 0.0144784
-0.20461202 0.12573485 0.046253666 0.18476443 0.21397395 0.008328795 -0.070831135 -0.1100326
0.118034944 0.04285787 -0.15787277 -0.1347428 -0.2066749 0.15430571 -0.0851354 0.1604055
-0.045708373 0.23647092 0.052117452 -0.23470889 -0.2141545 0.0068546087 0.13111506 -0.002575472
0.035668716 -0.011495665 -0.09881812 0.104981646 -0.059079587 0.067821905 0.048394695 -0.094001904
0.0036080927 0.086655155 -0.17017281 0.15577905 0.15214606 -0.16199267 -0.18415804 -0.025544167
-0.174422 0.04526107 0.13529848 0.011685967 -0.1565005 0.23209159 0.06490855 0.22951917
-0.11229786 -0.14055517 0.000472188 -0.15107195 0.047028944 -0.11357635 -0.22774753 -0.16311596
-0.16789985 0.18755557 -0.16351387 0.008868396 0.15926774 0.23293324 0.0645528 0.1079378
0.23045172 -0.23061071 0.10882191 0.17313595 0.2005174 0.11369483 -0.03015162 0.0055264533
0.22825254 -0.188732 0.21215181 -0.001365304 -0.1359033 -0.026288658 0.059487596 -0.22801606
0.19332616 -0.16784436 -0.1668539 -0.07009585 -0.037899703 -0.13021496 0.15607478 0.14067371
0.074818715 -0.23076244 0.014958605 -0.18523411 0.16447504 0.15921353 -0.17253748 -0.05117075
0.13166551 0.14066838 0.17629729 -0.11418712 -0.20248741 0.058719918 0.0348718 0.12462415
-0.1594676 0.011709601 -0.15240046 0.041525885 -0.21492644 -0.20980883 0.22919218 -0.16961828
0.1177101 0.012331918 -0.23291782 0.03079708 -0.15051705 -0.21446903 -0.029808775 -0.061419234
0.164631 -0.19658852 0.11139281 0.22876377 -0.09896138 0.23514877 0.22608791 0.19175561
-0.2311036 0.03777106 0.22943775 0.18506606 -0.068114 -0.13395146 0.18548505 0.23684113
0.015630767 0.04796557 -0.17622082 0.053345934 -0.201567 0.15650795 0.23413004 -0.013842851
0.1207249 0.15240239 -0.07698864 -0.07636139 0.03330277 0.16638644 0.06300919 0.2280915
-0.06599903 -0.014549121 0.127809 0.0611379 0.22111575 -0.15410408 0.15548171 -0.12540728
-0.18213145 -0.09897584 0.026021764 0.2353635 0.06972624 -0.16488487 0.22238971 0.1660225
0.09607868 -0.09877944 -0.03033097 -0.18361926 0.066274926 -0.12677741 0.05486609 -0.088576704

_input_linear.bias f4 [100]
00000000: 0ad7 233c 0ad7 233c 0ad7 233c 0ad7 233c
00000010: 0ad7 233c 0ad7 233c 0ad7 233c 0ad7 233c
00000020: 0ad7 233c 0ad7 233c 0ad7 233c 0ad7 233c
00000030: 0ad7 233c 0ad7 233c 0ad7 233c 0ad7 233c
00000040: 0ad7 233c 0ad7 233c 0ad7 233c 0ad7 233c
00000050: 0ad7 233c 0ad7 233c 0ad7 233c 0ad7 233c
00000060: 0ad7 233c 0ad7 233c 0ad7 233c 0ad7 233c
00000070: 0ad7 233c 0ad7 233c 0ad7 233c 0ad7 233c
00000080: 0ad7 233c 0ad7 233c 0ad7 233c 0ad7 233c
00000090: 0ad7 233c 0ad7 233c 0ad7 233c 0ad7 233c
000000a0: 0ad7 233c 0ad7 233c 0ad7 233c 0ad7 233c
000000b0: 0ad7 233c 0ad7 233c 0ad7 233c 0ad7 233c
000000c0: 0ad7 233c 0ad7 233c 0ad7 233c 0ad7 233c
000000d0: 0ad7 233c 0ad7 233c 0ad7 233c 0ad7 233c
000000e0: 0ad7 233c 0ad7 233c 0ad7 233c 0ad7 233c
000000f0: 0ad7 233c 0ad7 233c 0ad7 233c 0ad7 233c
00000100: 0ad7 233c 0ad7 233c 0ad7 233c 0ad7 233c
00000110: 0ad7 233c 0ad7 233c 0ad7 233c 0ad7 233c
00000120: 0ad7 233c 0ad7 233c 0ad7 233c 0ad7 233c
00000130: 0ad7 233c 0ad7 233c 0ad7 233c 0ad7 233c
00000140: 0ad7 233c 0ad7 233c 0ad7 233c 0ad7 233c
00000150: 0ad7 233c 0ad7 233c 0ad7 233c 0ad7 233c
00000160: 0ad7 233c 0ad7 233c 0ad7 233c 0ad7 233c
00000170: 0ad7 233c 0ad7 233c 0ad7 233c 0ad7 233c
00000180: 0ad7 233c 0ad7 233c 0ad7 233c 0ad7 233c
0.01 0.01 0.01 0.01 0.01 0.01 0.01 0.01
0.01 0.01 0.01 0.01 0.01 0.01 0.01 0.01
0.01 0.01 0.01 0.01 0.01 0.01 0.01 0.01
0.01 0.01 0.01 0.01 0.01 0.01 0.01 0.01
0.01 0.01 0.01 0.01 0.01 0.01 0.01 0.01
0.01 0.01 0.01 0.01 0.01 0.01 0.01 0.01
0.01 0.01 0.01 0.01 0.01 0.01 0.01 0.01
0.01 0.01 0.01 0.01 0.01 0.01 0.01 0.01
0.01 0.01 0.01 0.01 0.01 0.01 0.01 0.01
0.01 0.01 0.01 0.01 0.01 0.01 0.01 0.01
0.01 0.01 0.01 0.01 0.01 0.01 0.01 0.01
0.01 0.01 0.01 0.01 0.01 0.01 0.01 0.01
0.01 0.01 0.01 0.01

_output_linear.weight f4 [6, 100]
00000000: 04da 1bbe 7e3c a33d 5016 dabc 8403 c3bd
00000010: fe05 933d 563f 39be 8c38 04be f840 8cbc
00000020: 93e2 283e 83ad 663e 6835 e9bd f17d 46be
00000030: 366c 01be 08db ae3c 120d bd3d bc27 afbd
00000040: a4fa 1bbe 2a37 17be e4e9 663d 1a96 bf3d
00000050: e084 38be f051 d5bc d54f 1bbe 62c6 95bd
00000060: 7bc2 003e aa0e 03be 9835 b9bc 0564 423e
00000070: f8de 92bd 4176 213e 2c80 28be 44db 67bd
00000080: a7bc 4c3e 84ab efbd 243f 34be 9777 423e
00000090: 6a39 a83d f879 23be f6ff ae3d d8fa a33c
000000a0: db47 453e 8cbc 29be 396b 2c3e 20eb cdbb
000000b0: f9f1 143e b070 39bc d692 853d 02f6 cc3d
000000c0: 569e 0ebe 3a7b 82bd 8813 dabc 58bb bebc
000000d0: 509f 2bbd 3438 4cbd 8097 1fbd 92a5 8d3d
000000e0: b2b8 eb3d 9ff3 593e 0047 02bc 20c1 06bd
000000f0: f7d3 083e c0df 1dbb b1d4 5a3e e276 aa3d
00000100: dca2 70be 90e6 aebd e260 c8bd cf91 253e
00000110: e592 193e c548 253e c6cb fd3d d8e2 c03c
00000120: 94a0 1dbd 74e9 17bd ef4a 52be 7817 bfbc
00000130: 779b 3c3e 616a 3c3e 31fe 083e 7a19 fabd
00000140: 53e3 483e a049 77bd 6427 0a3d fc58 1e3d
00000150: 0069 01be 7e91 f0bd 309d 103c 40d5 14be
00000160: 5e3a e43d 50ab 33be ea6f f5bd d011 76bc
00000170: afe4 663e 48ff d73c 8efe a1bd 3c19 013d
00000180: 982d f5bd 4851 babc 69c1 623e b916 263e
00000190: 7eae 46be 422d 1cbe 349f 7b3d 783d 80bc
000001a0: 753c 123e d4d1 6bbd 0ff6 653e 1ad8 a43d
000001b0: f442 5cbd 2faf 683e ddf1 713e 32dc 87bd
000001c0: e4a3 3fbd 2044 8abb 7658 a0bd 002f 423b
000001d0: 4059 3b3c ac31 293d 5ede 59be aca5 19be
000001e0: be3d 37be da5b ca3d 20dd 64be d4e5 65be
000001f0: 3623 893d fc25 493d 2634 19be 2386 203e
00000200: 7c9d 12be f84b 35be 3da7 233e 2e91 f83d
00000210: 1c3b 3abe cf9b 193e 2988 66be ca1c e2bd
00000220: 3231 a33d 1b3d 3dbe bf16 5dbe a713 4a3e
00000230: e8e4 4bbd cc31 6dbe 0c1f 30be 30b5 79bd
00000240: 78a8 f03c 6196 41be a136 e9bd bc94 17bd
00000250: eb4b 6dbe dec8 bb3d 9adf b4bd b8ee b13c
00000260: a2dc ff3d 81ab 483e b0e8 7abd bd8b 373e
00000270: c493 4ebd 300e 40bc 807e 30be ba33 da3d
00000280: c2cd a43d e3b8 1c3e 772f 72be 5dac 623e
00000290: 2142 64be 9b3d 623e b4a2 68bd 2b5e 2b3e
000002a0: a8c0 4dbe abc1 66be 6ea8 c23d 97f6 1f3e
000002b0: 71df 033e a046 35bd 7936 6ebe b17d 413e
000002c0: 84aa 69bd 2a79 d1bd 8b9e 643e 54e4 643d
000002d0: d2e4 cb3d d823 893c ec73 723d d38c 1a3e
000002e0: 034d 0f3e c11f 313e 6463 2d3d 6808 87bc
000002f0: b6b4 cc3d 2dc6 65be 1c90 1bbd f4e1 3f3d
00000300: 3a4e f13d 8a5a c5bd 744a 71be f44d 2e3d
00000310: f627 f53d 6bb0 69be e2b9 57be 1b56 233e
00000320: e6cc 0fbe 80e4 bbbc 19d1 703e 6096 9bbb
00000330: 7c38 15bd 8cb7 4f3d ad1c 453e 8257 963d
00000340: ae4d 963d 9477 2f3d 8c28 593d e36e 133e
00000350: d928 473e 2a38 c8bd 471b 393e 2bc1 273e
00000360: 5ec6 80bd 3bf2 173e 0010 4abe 56ef 923d
00000370: 9d32 333e 64dd c6bd 9535 5bbe 5c42 5c3d
00000380: 1358 3a3e df6e 5d3e 4c9a 62be 1e83 32be
00000390: ae8f ff3d d474 4d3d c44a 68be 2003 7cbd
000003a0: d720 203e e7de 213e 9fee 283e 27ee 6fbe
000003b0: af6f 443e 1a58 d23d a292 2cbe 4b86 243e
000003c0: 8fb6 263e fc48 70bd c31b 6e3e f07d 41bd
000003d0: 940d 1f3d 8b7a 043e 642d 0b3d d0a0 2cbc
000003e0: 5862 46be 005e 2bba efa6 54be 7e84 8bbd
000003f0: 5004 70bd 09d6 4a3e cf93 09be 8014 45bc
-0.15219885 0.07970522 -0.026621968 -0.09522155 0.07178877 -0.18090567 -0.12912196 -0.017120823
0.16492681 0.22527127 -0.113871396 -0.1938398 -0.12638935 0.021344677 0.092310086 -0.085525006
-0.1523233 -0.14767137 0.0563754 0.093548015 -0.18019438 -0.026040047 -0.15167172 -0.07313229
0.12574188 -0.12798563 -0.022608563 0.18983467 -0.07171434 0.15767767 -0.16455144 -0.056605592
0.1999384 -0.11702636 -0.17602211 0.18990932 0.08214076 -0.15964496 0.085449144 0.020017073
0.19265692 -0.16575831 0.16837777 -0.0062841326 0.1454543 -0.011318371 0.06522147 0.1000786
-0.13927588 -0.0637116 -0.026620641 -0.023282692 -0.04189998 -0.049858287 -0.03896284 0.06916346
0.11509837 0.2128434 -0.007951498 -0.032899022 0.13362108 -0.0024089664 0.21370198 0.08323456
-0.23499626 -0.0854007 -0.09784104 0.16168903 0.14997442 0.1614104 0.12392382 0.023545668
-0.038483217 -0.037087873 -0.20536397 -0.02332662 0.1841868 0.18399955 0.13378216 -0.122118905
0.19617967 -0.06037295 0.033728972 0.03865908 -0.1263771 -0.117465004 0.008826539 -0.14534473
0.11143945 -0.1754582 -0.119842365 -0.015018895 0.22548173 0.026366845 -0.079098806 0.031518206
-0.11971587 -0.022743836 0.22144093 0.16219606 -0.19402501 -0.1525164 0.061431125 -0.01565431
0.14280875 -0.057573155 0.22457145 0.080490306 -0.05377479 0.22723077 0.2362742 -0.06633796
-0.046787158 -0.004219547 -0.078293726 0.0029630065 0.011434853 0.041307136 -0.21276233 -0.15004605
-0.17894647 0.098808005 -0.22349977 -0.22450954 0.06696169 0.04910849 -0.149613 0.15676169
-0.14317888 -0.17704761 0.15981765 0.12137066 -0.18186611 0.15000843 -0.22512878 -0.11040647
0.07968368 -0.18480341 -0.21590708 0.1973406 -0.04977885 -0.23163527 -0.17199343 -0.06096381
0.029377207 -0.18905021 -0.11387373 -0.03700708 -0.23173492 0.09169172 -0.08831711 0.021720275
0.12493254 0.19596674 -0.061257064 0.179244 -0.05043389 -0.011722133 -0.17235756 0.10654397
0.08047058 0.15304904 -0.23650919 0.22136064 -0.22290851 0.22093813 -0.05679579 0.16735141
-0.20093024 -0.22534816 0.09504782 0.1562141 0.12878205 -0.044256806 -0.23262967 0.18895604
-0.057047382 -0.10228188 0.22326104 0.055881813 0.099557534 0.016740724 0.059192583 0.15092783
0.13994221 0.1729727 0.042331114 -0.0164835 0.099954054 -0.2243888 -0.03797923 0.046846345
0.11782499 -0.096364096 -0.23563558 0.04255481 0.119705126 -0.22821204 -0.21067002 0.15950815
-0.14043006 -0.022936106 0.23517264 -0.0047481507 -0.03643082 0.050712153 0.1924922 0.073409095
0.07339035 0.042838648 0.053017184 0.14397769 0.19449176 -0.097763374 0.18076812 0.16382281
-0.062878355 0.14838497 -0.19732666 0.07174556 0.17499776 -0.09710196 -0.21407159 0.053774223
0.1819766 0.21624325 -0.22129172 -0.1743283 0.124785766 0.050160244 -0.22684771 -0.061526418
0.15637527 0.15807687 0.16497277 -0.23430692 0.19183229 0.1027071 -0.16852811 0.16066854
0.16280578 -0.058663353 0.23252778 -0.047239244 0.03883131 0.12937371 0.033978835 -0.010536388
-0.19373453 -0.00065371394 -0.20766805 -0.0681238 -0.058597863 0.1980821 -0.13435291 -0.012028813

_output_linear.bias f4 [6]
00000000: 0ad7 233c 0ad7 233c 0ad7 233c 0ad7 233c
00000010: 0ad7 233c 0ad7 233c
0.01 0.01 0.01 0.01 0.01 0.01
