data/MTMR_28002/sim/random/MLSE4POL/bias_0.001/train/N1000/D6_SinCosInput/4/result/model/ReLU_Dual_UDirection_BP.pt (torch_old, 22776 bytes, 20 tensors)

input_mean f4 [12]
000000 18 11 03 bc c9 4b 83 3e 53 7d 66 bc 83 73 78 3e
       -0.007999681 0.25643757 -0.014067966 0.24262814
000010 e7 7c 5c 3e ab bf eb 3b 17 e4 6b 3f fb 25 6c 3f
       0.21532021 0.0071944795 0.9214491 0.92245454
000020 70 6e 71 3f de 50 0e 3e 1d f4 64 3e 5c d0 6a 3f
       0.9430914 0.13898036 0.22358747 0.9172418

input_std f4 [12]
000000 0c af c3 3e 4c 49 8d 3e d6 05 a8 3e 59 6c 21 3f
       0.38219488 0.27594984 0.32816952 0.6305595
000010 c2 6c 2e 3f a2 97 c8 3e 48 d0 8d 3d 93 68 ad 3d
       0.681347 0.39178187 0.06924492 0.084672116
000020 5f 44 54 3d a9 59 39 3f 99 b2 29 3f 42 95 92 3d
       0.051823016 0.72402436 0.66288143 0.07157375

output_mean f4 [6]
000000 eb f0 d4 3c 48 db ed 3e 83 eb 44 3e dd f3 d8 bb
       0.025993785 0.4645636 0.19230466 -0.0066208676
000010 a9 0a 09 bb a4 9e 01 3b
       -0.0020910895 0.0019778395

output_std f4 [6]
000000 60 03 13 3d e6 4f 25 3e 9b ce 13 3e 4f f7 d6 3d
       0.03589189 0.1614376 0.14434282 0.10496389
000010 d6 87 f8 3c f2 35 92 3c
       0.03033821 0.017847989

pos_net.linears.0.weight f4 [30, 12]
000000 34 2d 39 3d 41 d3 6e 3e a8 4f 4a be cc 7b fd 3e
       0.045209125 0.23322774 -0.19756949 0.49508512
000010 56 47 be be 00 5a ba 3e f7 26 92 3e 44 9f 44 3e
       -0.371638 0.3639679 0.28545353 0.1920138
000020 2e 38 2f bd 73 20 61 be 73 2e 4b 3e cd 2c 82 bc
       -0.042778187 -0.21985035 0.19841938 -0.015890503
000030 af c6 50 3e 74 a7 e0 3e 88 1b 29 3e b8 00 eb be
       0.20388292 0.43877757 0.16514409 -0.45898986
000040 1e 15 be 3e 83 85 fd bd 21 36 dd 3c 8d f3 62 bd
       0.37125486 -0.12378981 0.02700335 -0.05540805
000050 06 99 0c 3e d3 1a 3e 3e 87 dd 27 3e 15 4e 9d 3d
       0.13730249 0.1856492 0.163931 0.076809086
000060 bf 28 6b be fc 8b 98 3e 57 58 16 3e 14 0b 04 3e
       -0.22964762 0.297943 0.14682136 0.12894851
000070 75 76 c1 3e dc c0 d2 3e 7d 18 bd 3d 9d 99 8d 3d
       0.37785688 0.41162765 0.092331864 0.06914065
000080 15 93 be bd c1 34 4c be 91 82 d1 3e fa c1 18 be
       -0.093053974 -0.19941999 0.40919927 -0.14917746
000090 8d 59 fc 3e f9 75 fa bd 12 ab 8f be 5b 0c 29 bd
       0.49287072 -0.12229533 -0.28060204 -0.04127155
0000a0 3d 6d 00 3f 35 18 d5 3e 02 a6 82 3e 6e 6d 2d 3c
       0.50166684 0.4162003 0.2551728 0.010585172
0000b0 d6 6e 37 3e 1a 47 cd be 33 03 41 3d 20 9f 07 bd
       0.17913374 -0.4009331 0.04712219 -0.033110738
0000c0 6e ea 4e 3f a7 73 a3 be 16 30 7c bd 47 8e 46 be
       0.8082646 -0.31924173 -0.061569296 -0.19390212
0000d0 37 6f 38 bd 29 55 4a bd b2 54 84 bd 95 4f db 3c
       -0.045027938 -0.04939762 -0.06461467 0.026771346
0000e0 19 12 a6 bd 97 89 ad 3c 89 51 a9 bd 6c be 10 3d
       -0.081089206 0.021183772 -0.08267505 0.03533785
0000f0 10 85 18 3f 7d b9 a4 3e 6b 25 7b 3e 42 af a8 3e
       0.5957804 0.32172766 0.24525993 0.3294621
000100 15 39 26 3d 29 2c b3 bd ad af ee 3c 41 5e 4a be
       0.04058178 -0.08748657 0.029136503 -0.19762518
000110 0f 7d 93 3d 5e 2e 95 3d 49 ff 9a 3e 8d 7b 14 bd
       0.072015874 0.072842345 0.30272892 -0.03625064
000120 09 25 b3 3d f4 8f 1d be aa 3f 45 bf 95 e5 02 3e
       0.08747298 -0.15386945 -0.7705027 0.12782891
000130 ea f9 d8 3c 91 e6 40 3d 8a da 49 bc e8 cb 54 3e
       0.026486356 0.047094885 -0.01232017 0.20780909
000140 be f2 41 bd 25 64 f3 3e f5 4f cf 3e 8f 83 d4 bd
       -0.047350638 0.47537342 0.4049069 -0.10376655
000150 ad 48 3a bd 79 81 87 be e2 a4 ae be 96 1c 44 bf
       -0.045479465 -0.26465967 -0.3411017 -0.7660612
000160 4c b5 02 bf a6 84 49 be 2e 1e d6 bc 1c 3d 5e bd
       -0.5105789 -0.19679508 -0.026137438 -0.054257497
000170 6c 5c cd bd 00 dd 47 bf c1 34 7b 3d 62 c9 ff bd
       -0.10027394 -0.78071594 0.061329607 -0.124895826
000180 c8 72 90 3e 2b f3 a9 3e 2c 8c 85 be d5 2b 84 be
       0.2821257 0.33193335 -0.26083505 -0.2581469
000190 30 84 81 3e b3 31 2b 3c 75 22 15 3c 4a bc 58 3d
       0.25296164 0.010448861 0.0091024535 0.05291394
0001a0 81 b2 6a bd f5 e1 22 3e 56 54 03 bf 2b d2 f5 bd
       -0.05729914 0.15906508 -0.5130056 -0.12002977
0001b0 08 47 e2 be 5d ed b7 3c 0c 65 b3 be 62 b6 80 bd
       -0.44194818 0.02245205 -0.3503803 -0.06284787
0001c0 85 eb ae bd f0 e7 b1 3e ad 49 e8 3d b2 44 e7 3c
       -0.085410155 0.34747267 0.113421775 0.028230999
0001d0 31 b1 a2 3d bd 03 df 3e 38 22 0e bf fc d3 98 3c
       0.07943953 0.4355754 -0.55520964 0.01865577
0001e0 55 cd 05 3e 78 98 3b 3e 40 17 a8 bd 1e d9 e4 be
       0.13066609 0.18319881 -0.082075596 -0.44696897
0001f0 5a a3 bf be 4f 4b 7e 3d b9 3e 7a 3e cb c2 9d 3e
       -0.37429315 0.06208354 0.2443799 0.30812678
000200 e3 9f 1f 3d 11 97 a1 3e 12 62 5c 3e 73 7a 52 3d
       0.03897084 0.31560567 0.21521786 0.051386308
000210 df c5 79 bd ab 44 da 3e 66 60 37 3f 76 2c 60 3e
       -0.06097972 0.42630515 0.7163147 0.2189196
000220 e8 fc ae 3d f4 c4 61 bd cf e8 8a bd d2 10 07 be
       0.08544332 -0.05511947 -0.06782686 -0.1319001
000230 d2 da 3f 3c d2 d9 5e 3f cb 33 36 3e 22 5d 6f bd
       0.011709886 0.8705112 0.17793195 -0.058438428
000240 99 f4 a2 be 1e e5 89 3e 45 7e 4d be a5 ae 79 bd
       -0.31827238 0.26932615 -0.20067699 -0.06095757
000250 0b a7 90 3e 17 1f 92 be fb f3 c8 bd 6a 81 c0 bb
       0.28252444 -0.28539345 -0.098121606 -0.0058748024
000260 6d 72 f6 3d 94 6c 01 bc d1 52 68 be fe 7d 20 3e
       0.12033544 -0.007899422 -0.22687842 0.15673062
000270 84 91 ee bd 54 80 c3 be 0e 5c 60 3d 10 c1 8e be
       -0.11648849 -0.38183844 0.05477529 -0.2788167
000280 8d dd c3 3e e1 df 19 3e 9d 42 25 be 45 a7 59 be
       0.38254967 0.1502681 -0.16138692 -0.21255215
000290 14 18 7e ba 2d 18 00 bf 45 dd 9d 3d 5a 31 bb bd
       -0.0009692919 -0.5003689 0.077082194 -0.091402724
0002a0 f6 4e 35 be d3 13 4f be be 64 99 bd 9c 6d 0b bf
       -0.17705902 -0.20222406 -0.07489918 -0.54464126
0002b0 3c af d4 3e 35 14 b1 bd 47 52 1e be e8 90 3b 3e
       0.41539943 -0.08646432 -0.15461074 0.18316996
0002c0 c5 f5 86 bd 4a 2e 17 3f 23 9a f3 be 8e 97 68 bd
       -0.065898456 0.59055007 -0.47578534 -0.05678516
0002d0 6a 39 6b 3e d9 fc d8 bd 4c ca 34 be 28 f9 7b ba
       0.2297112 -0.10595102 -0.17655295 -0.00096120173
0002e0 3f ad 8a 3e fc da bd be e3 14 b9 3e 7d ff 4c 3d
       0.270853 -0.37081134 0.36148748 0.05004834
0002f0 dd 33 31 be 47 c6 e0 3c a8 f9 7a 3d 70 03 be 3d
       -0.1730494 0.027438296 0.061273247 0.092779994
000300 37 23 55 3b 9c 84 4d 3e 33 e6 0d be 2b 70 2f be
       0.003252221 0.20070118 -0.13857345 -0.17132632
000310 18 3d 3e bf 9c f7 e8 3e 55 b6 80 bc d1 09 cc bd
       -0.7431197 0.4550141 -0.015711943 -0.0996281
000320 3d 25 8b 3d 5c 76 74 be 68 b4 02 be 21 fe b0 3d
       0.06794212 -0.23873276 -0.12764132 0.08642221
000330 53 5b 3d bf 4e 34 ea 3a 0c 3e c8 be 1c 7f 17 3e
       -0.73967475 0.0017868371 -0.39109838 0.14794582
000340 13 e8 91 be 00 7b 7e bd a6 39 ca bd 88 0f 47 3d
       -0.2849737 -0.06212902 -0.09874277 0.048598796
000350 a5 13 25 3d 74 54 ad bd 82 e4 9d 3d 8e 9f 07 bc
       0.040301938 -0.08463374 0.077096 -0.008277787
000360 25 c6 c5 bd f6 5e 7b bf ff c9 8c be 94 fb e4 3d
       -0.09656934 -0.98191774 -0.2749786 0.11180797
000370 c7 6c 15 bd 6e f9 08 3e 95 3c cb 3d b6 54 a2 be
       -0.03648069 0.133764 0.099236645 -0.31705254
000380 0e 1d a3 bd a7 f9 9b 3e ce c2 90 3e 5c 79 8a bd
       -0.07964526 0.30463907 0.28273624 -0.06761429
000390 3e fb a6 3c 5c 87 b6 3e 4c a1 a1 3e 6b ea d7 be
       0.020383473 0.35650146 0.31568372 -0.42171034
0003a0 6d 79 8d 3e 5b c8 bd bd 03 bc 6b 3d cd 58 2a bd
       0.27631703 -0.092667304 0.05755235 -0.041588593
0003b0 2f 7b 61 bc 05 a3 c8 3c 2e 66 2b 3f b2 0c 91 bd
       -0.013762279 0.024491796 0.6695279 -0.070824996
0003c0 9e 58 ca bd 8b 17 e8 3e 61 f6 0b 3f f6 1f 09 3f
       -0.09880184 0.45330462 0.5467282 0.53564394
0003d0 d2 8d ce be 18 93 28 be 01 70 89 3d 71 e4 89 3b
       -0.40342575 -0.16462362 0.06710816 0.0042081405
0003e0 32 3d 9d 3d 4c 22 f0 3c 1c 3a cb be 5a 0f 43 3b
       0.07677688 0.029313229 -0.3969277 0.002976379
0003f0 15 9c 83 3d 25 af ec 3e c2 b2 38 3f ff c0 ed be
       0.06426255 0.46227375 0.7214776 -0.46436307

pos_net.linears.0.bias f4 [30]
000000 9b 56 49 be f3 76 90 3e 44 a6 fc bc 80 14 08 bf
       -0.19661944 0.2821575 -0.030841 -0.5315628
000010 c8 f3 32 3e a0 4c 4d bd 16 d0 8e bd d9 07 27 be
       0.17475808 -0.050121903 -0.06973283 -0.16311587
000020 0c 76 07 be 1d bb 84 be e7 9f af be 00 93 ab 3c
       -0.13228625 -0.25924006 -0.34301683 0.020944118
000030 71 ac d6 bd 79 69 09 bf 06 39 1c 3e 0f f3 72 be
       -0.10482109 -0.53676564 0.15256128 -0.23725532
000040 d7 70 17 bf 31 e8 ad 3e e2 7f b4 bd b3 00 53 bd
       -0.59156555 0.3396621 -0.08813454 -0.05151434
000050 49 1e be 3e 78 c4 e3 be 80 93 a0 be 25 d5 a7 bd
       0.3713248 -0.4448583 -0.31362534 -0.08194951
000060 7a eb 79 3e 5d 53 cc be 6c ec d7 be 0c 49 e8 be
       0.24406233 -0.3990735 -0.42172563 -0.4536823
000070 f8 90 17 3d 8a 5b 13 be
       0.037003487 -0.14390388

pos_net.linears.1.weight f4 [30, 30]
000000 5a 2a 17 be 65 8b c8 bd 40 8d 90 3e 6e 3c 5d be
       -0.1476225 -0.097922124 0.28232765 -0.21605083
000010 57 00 60 be b9 af 95 be ae 54 c7 3d 47 23 82 bc
       -0.2187513 -0.29235628 0.09732948 -0.015885962
000020 ae 5c 03 be 5e ad 76 bd fa a7 44 3d 72 89 31 3e
       -0.12828323 -0.06022393 0.048011757 0.17337587
000030 51 31 88 3e 10 2d 80 3e 02 80 65 be be f9 3f be
       0.26600125 0.2503438 -0.22412112 -0.18747613
000040 ec ed 60 3d df 93 00 3f b9 ee 0a be b4 b8 be bd
       0.0549144 0.50225633 -0.13567628 -0.09312573
000050 5b d5 b7 3e f6 ee 55 bc 78 da 32 3d b6 c5 b7 3e
       0.35904965 -0.013057461 0.04366538 0.3589303
000060 8d dc 31 3e 52 f9 1a bc a6 f7 6a be 7b c2 68 3e
       0.1736929 -0.009458857 -0.22946033 0.22730438
000070 9f e0 17 3e 3a 9d 28 bd 99 32 53 be 85 3f a7 3d
       0.1483178 -0.041165568 -0.2062477 0.08166412
000080 29 be 98 be 1d 6e 8a be b4 39 aa be 36 ce 89 be
       -0.2983258 -0.27037135 -0.3324715 -0.2691514
000090 22 c6 99 be a4 84 9d be 87 db 86 3e ed da d4 3b
       -0.30033976 -0.3076526 0.2633936 0.0064958245
0000a0 cc ea 85 3d 10 38 89 3e ef 77 d0 bd 6a 3f 41 3d
       0.065389246 0.26800585 -0.101791255 0.047179617
0000b0 74 e3 a9 3c 17 a7 b2 bd 76 40 87 bd 7c f4 27 3d
       0.02073834 -0.08723276 -0.06604092 0.041004643
0000c0 8d 66 20 bd 67 b2 71 be 09 82 ba 3e c8 dd b7 3e
       -0.0391603 -0.23603211 0.36427334 0.35911393
0000d0 ad 2c 12 bf 9b a9 93 3e 9c 1c 85 be 4d 46 d6 3e
       -0.5709942 0.28840336 -0.2599839 0.4185051
0000e0 37 f7 1d bc 42 0c 0a bd 5b 04 4d be a8 b5 05 bd
       -0.00964146 -0.033703096 -0.20021193 -0.032643944
0000f0 fc e4 25 3c 21 d4 a9 bd ce a2 36 3d b9 49 d1 bc
       0.010125395 -0.082924135 0.044588856 -0.025547849
000100 52 85 c8 3c be e8 7a bd 86 1c 03 bb f8 f1 0b 3a
       0.024477635 -0.061257116 -0.0020006015 0.00053384854
000110 3c a2 08 3d e7 41 8f bc 6c 87 ea 3c 47 db 27 be
       0.033357844 -0.01748748 0.028629027 -0.16392241
000120 5c 6a e0 bb 3d a5 44 bc 3b 43 ef 3c 5e 3d 43 3c
       -0.0068486165 -0.0120022865 0.029206863 0.011916487
000130 95 40 a9 3c d6 9b e0 3b 14 6b 80 bc 0c 1f 5e bd
       0.020660678 0.0068545146 -0.015676059 -0.054228827
000140 8d e8 ce bd b6 18 c7 3c 40 c8 5d bc bf 32 00 bd
       -0.10102949 0.024303775 -0.013536513 -0.031298395
000150 72 ff 5c 3c f0 2f f0 bc e0 30 5f 39 b8 b2 91 3d
       0.013488637 -0.029319733 0.00021285145 0.07114166
000160 c8 5c 53 3b 7f 3e 14 3d fc 93 eb bc 04 ba d7 3c
       0.0032251347 0.036192413 -0.028757088 0.026333816
000170 53 d1 a0 bd 2b 22 1e bf 93 bf 28 3e 28 c2 35 3d
       -0.078524254 -0.61770886 0.1647933 0.044374615
000180 e0 98 46 3d 64 dc 23 be 37 10 a4 3d e7 a9 06 3e
       0.048485637 -0.16002041 0.08010905 0.1315075
000190 5d ea 1e be 43 94 77 bd 73 1e d3 3d 71 22 12 be
       -0.1551909 -0.060444128 0.10308542 -0.14270951
0001a0 b3 5b 7f 3e ca 9d ac 3e 2a df d0 bd 9e 3f 82 be
       0.24937324 0.33714134 -0.10198815 -0.2543916
0001b0 14 df 44 be 27 4e 1c be 08 27 ad be ba 00 90 3e
       -0.19225723 -0.15264188 -0.3381884 0.28125554
0001c0 f4 f8 2f 3d 08 31 b6 be 78 39 b5 bd 14 1b 61 be
       0.04296203 -0.35584283 -0.08848852 -0.21982986
0001d0 b0 1d d9 bd 72 37 44 bd 69 2d 10 bd 18 d6 5c 3e
       -0.106013656 -0.04790444 -0.035199556 0.21566045
0001e0 a9 47 9c ba 03 85 b8 3c c2 f3 a6 bb 98 65 d0 ba
       -0.0011923212 0.022524362 -0.005094976 -0.0015899418
0001f0 76 4a c8 bd cb b4 87 bc 04 a0 f0 3b 95 ff 35 bc
       -0.09779827 -0.016565701 0.007343294 -0.011108299
000200 76 f0 94 bd c4 df 31 bc 94 a0 0a bd 98 54 b0 bc
       -0.07272427 -0.010856573 -0.033844545 -0.021524712
000210 75 11 2e 3c bd b7 d9 ba 33 7f db 3c 3b f9 a2 3a
       0.010624279 -0.0016610544 0.026794052 0.0012433896
000220 19 d5 71 3b 78 91 87 bc d9 f2 d3 bc 1d c8 c2 bd
       0.0036900698 -0.016548857 -0.025872635 -0.09510825
000230 2c b2 83 bc 1a ff 22 3c 4d f9 02 3b 1a 15 32 bc
       -0.01607617 0.009948516 0.001998502 -0.010869289
000240 c8 1b 91 bc 9f 45 33 3b b4 ba 4f 3b 6b f6 d7 bd
       -0.017713442 0.002735473 0.0031696977 -0.105450474
000250 59 a0 20 3e ba 36 00 3d fd 84 00 3d f0 39 34 bc
       0.15686168 0.03130219 0.031376828 -0.0110001415
000260 34 0d 81 ba 41 33 03 3d 9a 8b 9c bc dc d9 57 3c
       -0.0009845854 0.0320313 -0.019109536 0.0131745
000270 cf 5c a5 3c 80 c2 8e 3a 2a 61 96 3d 10 28 c8 3c
       0.020185856 0.0010891706 0.07342751 0.024433166
000280 e6 28 6f 3d d8 1a 92 3b 35 7c d6 bb 9c 0e e5 bb
       0.058388613 0.0044587664 -0.0065455684 -0.006990267
000290 be 40 b5 bb cf db 03 bc 96 9c 09 3d f4 c7 31 3a
       -0.0055313995 -0.008048012 0.033596598 0.00067818095
0002a0 5d a3 24 bd 22 56 07 3c af 09 be bc f6 0e 43 3d
       -0.040194858 0.008260282 -0.023197977 0.04762169
0002b0 de a1 a3 3b 20 fd bc bc f6 8e a3 bc 60 00 34 3b
       0.0049936613 -0.023069918 -0.01996563 0.0027466044
0002c0 77 d9 e7 3c 99 cb 01 bc 2d d4 18 3d 58 e1 9d bb
       0.028301938 -0.007922077 0.03731172 -0.004818123
0002d0 5c dd f0 bd 26 88 ea 3e a5 41 73 be d4 17 20 bd
       -0.11760971 0.45806998 -0.2375551 -0.039085224
0002e0 3d 77 2f bd 42 0e ba be 4d c2 83 be 4c 05 84 3e
       -0.042838324 -0.36339003 -0.25734177 0.2578529
0002f0 fd 3d 10 3e f5 4b cb 3e c7 26 ec 3e 43 ca e3 3d
       0.14086147 0.39706388 0.46123335 0.11122563
000300 1d ff 24 3e f4 ad fb 3e cc e1 dc 3e a5 e1 ee 3d
       0.16112943 0.49156153 0.4314102 0.11664132
000310 00 47 09 3e 2d 13 96 be cb e1 2b 3d a3 d2 5e 3e
       0.1340599 -0.29311505 0.04196338 0.21760039
000320 37 7a 04 be 33 6b cc 3e 98 7a 99 be dd ba 53 be
       -0.12937246 0.39925537 -0.29976344 -0.20676751
000330 2c a6 77 be 6a c1 0d 3e 43 2d 84 3e 43 d0 a0 bd
       -0.24184483 0.13843313 0.25815782 -0.07852223
000340 e3 c5 53 3e 6f 2f a9 3d f1 d8 b5 3b 7c b2 a0 be
       0.20680957 0.08261 0.005549543 -0.31386173
000350 58 de c8 bd 49 b8 ba bd af 77 63 be 86 62 91 3d
       -0.09808034 -0.09117181 -0.22213624 0.0709887
000360 0f b7 b4 be 0c f9 ca 3e 2c 40 4c be 7f 5b 85 be
       -0.35295913 0.39643133 -0.19946355 -0.26046368
000370 93 2c bd be 3d 5c 0b be c6 0e 8c 3e 79 e4 0a 3e
       -0.3694807 -0.13609405 0.2735502 0.13563718
000380 7c 6d cb be 17 0d bb be 8a a9 1c bd d3 80 03 3e
       -0.39731967 -0.36533424 -0.038247623 0.12842111
000390 5d a3 d8 be 20 58 04 be 66 93 0e 3e f2 bc ca bd
       -0.42312136 -0.12924242 0.13923416 -0.0989932
0003a0 41 18 15 3f f4 52 c0 be dc a3 ff 3c 04 21 b1 3e
       0.58240134 -0.37563288 0.031206064 0.345955
0003b0 e0 ee 98 bd f4 15 9c bd 00 72 e0 bd 1a 76 89 be
       -0.07467437 -0.07621375 -0.10959244 -0.26847917
0003c0 db 1f a9 bd 5b 96 14 be 14 7c 4e bc 77 b5 ce bd
       -0.08258029 -0.14510481 -0.012602825 -0.100932054
0003d0 22 0b c5 bd 9b e3 81 3d b9 f1 8f bd aa 3d 5a bc
       -0.09621264 0.063422404 -0.07028527 -0.013320366
0003e0 e9 4e 48 bd 17 1a d2 ba 57 06 db bc 61 5c 1d be
       -0.04890338 -0.0016029504 -0.026736422 -0.15367271
0003f0 77 f7 24 bd 48 af 13 bd aa f8 dc bc 61 51 93 3d
       -0.040275063 -0.036055833 -0.026974041 0.07193256

pos_net.linears.1.bias f4 [30]
000000 91 98 fc bc 37 37 29 be 66 a9 e3 bd 7f eb 70 3e
       -0.030834468 -0.16524969 -0.111162946 0.23527335
000010 2a 06 19 be fc e8 af bd 24 31 99 bd f8 5b f5 3c
       -0.14943758 -0.0858936 -0.07480076 0.02995108
000020 c9 8a ab bd 2f 9a ab 3e 1b cd e6 bd e4 dd c2 bc
       -0.083760805 0.3351607 -0.112695895 -0.023787446
000030 45 42 3b 3e 90 99 be bc 80 ec 7e 3e 50 d8 4b be
       0.18286999 -0.023266584 0.24894905 -0.19906735
000040 ad 07 2c be ad c2 4c 3e ce 57 f0 bd ee f5 af 3e
       -0.16799803 0.19996138 -0.117354974 0.34367317
000050 e8 47 0f be e1 55 61 3e 01 b8 99 be c5 2c db be
       -0.13992274 0.22005416 -0.30023196 -0.42807594
000060 a0 99 16 be 26 59 8f 3d a9 f4 f8 bc 58 cf 97 3c
       -0.14707041 0.069994256 -0.0303901 0.018531486
000070 09 23 96 bd 5c bb b3 bd
       -0.07330901 -0.0877597

pos_net.linears.2.weight f4 [30, 30]
000000 3e bd c2 be 26 f8 a3 3c 54 47 1e 3b ea 4a 51 3e
       -0.38035005 0.020015787 0.0024151402 0.20438734
000010 5c 02 6e bd d2 af 69 3b e3 6f 3e be 74 f4 6d be
       -0.05810772 0.0035657776 -0.18597369 -0.23237783
000020 65 1f a9 bd 87 f3 ee 3d bd 83 15 3b ed 78 8d 3e
       -0.08257941 0.11667543 0.0022814118 0.27631322
000030 eb 20 32 3e 93 2c 9f bd 23 fc 8a be 84 33 86 3e
       0.1739537 -0.07772174 -0.2714549 0.26211178
000040 08 34 1d bb 76 da 2f 3f d6 d0 50 3b 52 cf 81 be
       -0.0023987312 0.6869272 0.0031862757 -0.25353485
000050 73 b2 6b bd 85 4a 38 3e de dc 02 3e df 52 6e be
       -0.05754323 0.17997177 0.12779567 -0.232738
000060 bf 38 52 be 86 71 ab 3e de 6e e2 bb be ff 7e bd
       -0.2052946 0.3348505 -0.006910189 -0.062255614
000070 6f 11 8c 3d fd 60 b0 3b 40 f7 2d be 50 77 87 3c
       0.06839263 0.0053826557 -0.1698885 0.016536385
000080 42 f7 f0 3b 76 d2 03 be 9c a0 9b ba 78 2f 77 3d
       0.007353694 -0.12873253 -0.0011873427 0.060348004
000090 84 4d 3c 3e 43 51 c7 be 52 15 79 bd e3 d8 a6 3d
       0.18388945 -0.38929185 -0.06081135 0.081468366
0000a0 c3 90 fa ba 61 19 57 be 26 da 6b 3d c9 f4 85 be
       -0.0019116629 -0.21005775 0.05758109 -0.2616332
0000b0 e2 d9 99 be d1 2e ce be cc 50 32 3d 6b 6a a1 3e
       -0.30049044 -0.40270093 0.043534085 0.31526503
0000c0 ab e4 d7 39 53 7a d3 3e 96 0e 58 bd 15 91 e6 3c
       0.00041178367 0.41304263 -0.052748285 0.028145352
0000d0 f4 76 af bd cc 69 04 3e e9 ea 0f 3e 7c 84 76 bd
       -0.085676104 0.12930983 0.14054455 -0.06018494
0000e0 0e 35 9f 3a e1 94 4e be 58 bc ef ba 00 50 bc ba
       0.0012146549 -0.2017398 -0.0018290384 -0.0014367104
0000f0 fd c5 06 3e 7e 2c 89 bc b0 58 12 bc 96 d0 6a 3e
       0.13161464 -0.016744848 -0.008932278 0.22931132
000100 32 36 84 3c 5a 81 c5 3c 74 5e d1 3d f9 0f fa 3c
       0.016139124 0.024109531 0.10223094 0.030525194
000110 26 9e 3d be 64 0a e0 3d f2 e8 51 ba 86 26 7d bd
       -0.1851736 0.10939482 -0.0008007429 -0.061804317
000120 33 30 47 3d 40 ff 71 bd 40 87 0b be f3 33 f4 3e
       0.04862995 -0.059081316 -0.13625813 0.47695884
000130 47 ea 90 bd bb c0 9b be 8f 15 b8 3a 11 be 13 3e
       -0.07075935 -0.3042048 0.0014044511 0.14427973
000140 32 00 05 be 5a 8e 2c 3e 2b ea 81 3e ff 51 99 bd
       -0.12988356 0.16851178 0.25373968 -0.07486343
000150 ef 33 ef be fa 07 0c bf 26 10 9e ba 74 21 68 3e
       -0.4671931 -0.5469967 -0.0012059256 0.22669011
000160 18 76 c5 3e e0 5f 27 3b 6e 1d c2 bb 0e 47 ce bd
       0.3856666 0.0025539324 -0.0059239184 -0.10072146
000170 ab d0 7f 3c 9f 84 62 3e 43 dd 27 3b a6 e5 7b 3b
       0.015613715 0.22120903 0.002561406 0.0038436442
000180 aa d1 6f 3e f1 98 45 be d6 23 57 be f3 cb aa be
       0.23419824 -0.19296624 -0.21009764 -0.33358726
000190 de 1a 25 ba 3c 91 15 3e f1 5b 96 3d 4b 9e 26 3d
       -0.0006298254 0.14606184 0.07341755 0.040678304
0001a0 e2 54 96 be 57 eb cc bd e8 10 55 ba 99 04 c8 be
       -0.29361635 -0.10005825 -0.00081278244 -0.39066008
0001b0 60 78 a4 bc 00 70 36 bd a5 4e 81 3e 20 4f 5e be
       -0.02007693 -0.044540405 0.25255314 -0.21709871
0001c0 0a b5 40 bc b7 6d 1a 3e 17 a2 99 be 89 10 ae 3e
       -0.011761913 0.15080915 -0.30006477 0.3399699
0001d0 80 e9 1e 3b 41 81 5a 3d 4d e5 05 3e 0b dc 99 3b
       0.0024248064 0.053345922 0.13075753 0.0046954206
0001e0 8f bb da 3b e7 61 95 bb 41 dd 29 bb ff 06 cf 3a
       0.0066751908 -0.00455879 -0.002591923 0.0015794932
0001f0 45 85 a6 b9 1d 51 8e 3b ca 3d f4 ba d0 a5 b7 39
       -0.0003176128 0.0043431656 -0.0018634137 0.0003502802
000200 fa ac 1e b9 32 c3 5e b9 37 c4 84 39 df 2a ed bb
       -0.00015132493 -0.00021244286 0.00025323193 -0.0072377766
000210 34 c1 44 b9 5c 52 07 ba 87 06 65 b9 10 47 c5 3a
       -0.0001876399 -0.0005162114 -0.00021841573 0.0015051086
000220 1b 89 90 3a 0c af fb 39 42 db 8a bb d9 c4 94 ba
       0.0011027189 0.0004800487 -0.0042375633 -0.0011350169
000230 61 90 07 bb a4 2b 92 ba 26 9d 0c 3b 0e 48 83 b8
       -0.0020685422 -0.0011151922 0.0021455972 -6.259988e-05
000240 9d 9d ff 3a eb ba 09 ba a6 f6 54 3b 32 9d 1a 3a
       0.0019501928 -0.0005253988 0.0032495647 0.0005898058
000250 f2 a7 0b bc 4b df 88 b8 44 d7 a1 3e 62 4a 99 be
       -0.008523928 -6.526577e-05 0.31609547 -0.29939562
000260 05 5c 56 3c f9 b7 a2 3d dc b3 51 bb b4 e6 92 3c
       0.013083463 0.07945246 -0.0031998074 0.017932273
000270 87 44 6f be 49 6e 44 bd c3 2b 98 3d 25 89 db 3e
       -0.23365985 -0.04795674 0.07430222 0.4287807
000280 72 25 56 bb 83 04 9a 3e a6 36 de 3e bd 39 1b 3e
       -0.0032676128 0.30081567 0.43401068 0.15158744
000290 08 4f 37 be ce 52 60 3e 0e 0f ba 3d 95 38 16 be
       -0.17901242 0.21906587 0.09084903 -0.14670022
0002a0 74 57 e5 3a 56 40 0b bd 75 bb 02 bf 35 c0 a7 3e
       0.0017497377 -0.033996902 -0.51067287 0.3276383
0002b0 f5 d1 53 3e d5 03 2f be e8 80 fe 3d 2f fd ce be
       0.20685561 -0.17091306 0.12426931 -0.4042754
0002c0 3d ce 31 bc 8e e6 40 be 6f 65 8f 3e da d1 80 3b
       -0.010852394 -0.1883795 0.28007075 0.0039312663
0002d0 a8 2e 4e 3e 2e 43 23 3f 79 a7 0c bd 2b 7c 96 be
       0.20134985 0.63774383 -0.034339402 -0.29391608
0002e0 98 03 60 bd 45 94 e5 bc 24 6b f7 3e a5 85 5e be
       -0.054690927 -0.028024802 0.4832393 -0.21730669
0002f0 83 4f 7c 3d 03 d3 6a 3d 40 d1 15 ba 73 76 90 bc
       0.061599266 0.057330143 -0.00057150796 -0.017634606
000300 4a 6a 64 be 37 51 f3 be 84 c8 e1 3c 3e 05 de bd
       -0.22306171 -0.475229 0.027561434 -0.108408436
000310 1e b2 54 be 3b 50 2d 3d c2 09 5e ba 4d 7a 38 bd
       -0.20771071 0.04231284 -0.0008470082 -0.04503851
000320 b3 10 d9 3d d7 6a 7a bd 92 56 b0 be 4b 9f 33 3f
       0.10598888 -0.061137047 -0.34441048 0.70164937
000330 88 2c 45 3e 92 c3 fa 3e 86 38 db 3b 50 3b ef be
       0.19255269 0.48977333 0.0066900877 -0.4672494
000340 29 50 0a be a6 a5 b1 3a 87 d6 83 be 18 3c 17 bd
       -0.13507141 0.0013553395 -0.2574961 -0.036922544
000350 6d 1a 7b 3c 9c e3 ec bd 2d 60 1d 3b dd 30 5a 3c
       0.015326125 -0.115668505 0.0024013624 0.013317314
000360 b9 d0 90 3e 70 12 a3 bc e0 0d 11 39 3b d4 21 bd
       0.28284243 -0.019906253 0.00013833446 -0.03950904
000370 b9 ab ef 3a 91 7f 48 be 0e b5 ce 3e 74 41 97 be
       0.001828543 -0.19579913 0.4037251 -0.29542124
000380 47 a4 68 bd c7 46 92 bd d8 01 b4 3c bb 30 81 be
       -0.056797292 -0.07142406 0.021973535 -0.2523249
000390 ab 52 e5 39 c4 99 76 3d 14 15 bf bc ca 68 92 3d
       0.00043739876 0.060205236 -0.02332548 0.07148893
0003a0 ca 73 81 3e 15 68 87 3d c7 d7 d1 bd 0a 73 32 bd
       0.25283653 0.06611649 -0.102462344 -0.04356674
0003b0 cc 4a 2c 3b 0e e5 2b be 84 b8 ac bd 4f 11 35 3c
       0.00262897 -0.16786596 -0.08433631 0.01105149
0003c0 bf ee e9 be df bc 8f be 92 b6 78 bc 72 fe 1d bc
       -0.4568996 -0.28073785 -0.015180247 -0.009643184
0003d0 fd 79 a9 bc 71 11 fa bb b7 0d 8f bd f6 68 0c 3f
       -0.020688051 -0.0076314737 -0.06985038 0.5484766
0003e0 8e 5c d6 3b 74 64 4b be ad 65 a8 38 ac d8 11 bd
       0.006541795 -0.19862539 8.029803e-05 -0.035607025
0003f0 9c e4 8c 3d 54 fd 54 3e aa 0c 2c 3e 86 bb 3f 3d
       0.06879541 0.20799762 0.16801706 0.046809696

pos_net.linears.2.bias f4 [30]
000000 9d f5 b2 3d 0e 72 16 be 37 f4 40 3e b8 f0 ed 3d
       0.08738253 -0.14691946 0.1884316 0.11618179
000010 1f 9c 1b be 25 3c 89 3e 2e 05 11 be 21 88 4b be
       -0.15196274 0.268037 -0.14162132 -0.19876148
000020 81 54 e4 3d a3 37 2b 3e cf d7 b0 3d f0 ea 77 be
       0.1114893 0.16720442 0.08634912 -0.24210715
000030 b9 7e f4 3e e5 3c fb 3d ed c1 e3 bd dc 05 dc bd
       0.47752932 0.12267474 -0.11120973 -0.10743305
000040 f0 ff 16 3d 2a 0a 82 bd 7b 7e ac 3b 05 f7 ee bd
       0.036865175 -0.06349595 0.005264101 -0.11668209
000050 d2 4f 21 3e 32 fc 68 be 74 f7 b5 bc 60 ef 6e 3c
       0.15753105 -0.22752455 -0.022212721 0.014583439
000060 de f7 18 be a7 5b e0 be 33 84 e1 3e aa 17 c4 bc
       -0.14938304 -0.43819925 0.44046172 -0.023937065
000070 61 4a 14 3e c0 15 c1 3d
       0.14481498 0.094279766

pos_net.output_layer.weight f4 [6, 30]
000000 72 c0 0f 3f 4c ff 9a bc ea 2d 08 be f3 3a b8 be
       0.56153023 -0.018920563 -0.13298765 -0.35982475
000010 f7 c3 db bb 2f 57 a3 3d 23 7b 02 3d 93 7c 31 3e
       -0.0067067104 0.07975613 0.031855714 0.17332678
000020 ca e6 6f 3e e5 93 92 bd b9 85 4c be 94 0f 63 be
       0.23427883 -0.07157115 -0.19972886 -0.22173911
000030 8a a6 55 be 8d bb bd be 47 3e 04 bc eb b8 e2 3c
       -0.20864311 -0.37057152 -0.008071489 0.027676066
000040 9f 69 c4 bd 2a ce 63 3e d8 ef 09 bd 82 1c 95 3a
       -0.09590458 0.22246614 -0.033676 0.0011376294
000050 41 58 25 3b 43 a6 11 bd 0c f0 97 bb 6c 54 52 bd
       0.0025229605 -0.03555895 -0.00463677 -0.051350042
000060 aa b8 c6 bd 0f 46 2b 3e 33 62 9d 3e d1 94 c6 bd
       -0.097031906 0.16725944 0.30738983 -0.09696353
000070 72 a5 45 3e c1 ee 72 bd 33 aa ac bd 3e ec 67 be
       0.19301394 -0.059309725 -0.084309004 -0.22648713
000080 40 c9 93 be 3f 9a 25 3e b8 72 2e 3d 92 ab 96 be
       -0.2886448 0.16172121 0.042589873 -0.29427773
000090 0a 10 6a bd fa 18 c4 bd 95 4e b1 3e 68 d9 97 3e
       -0.057144202 -0.095750764 0.34630266 0.29658055
0000a0 d7 db 8f be 62 6d 45 be 4b b9 f0 bc a3 ac 86 3e
       -0.28097412 -0.19280007 -0.02938523 0.26303586
0000b0 64 f4 d5 bb c0 a4 95 3d 3a 31 cb 3d c2 c3 cb 3e
       -0.006529378 0.07306814 0.099214986 0.3979779
0000c0 27 a5 82 bd bf 03 df 39 8a de f2 bb d5 37 43 bb
       -0.063791566 0.00042536666 -0.0074117826 -0.0029787917
0000d0 bd 2c 90 3c 45 e5 03 be 49 70 9e 3d 7b 42 86 bc
       0.017599458 -0.12880428 0.077362604 -0.016389122
0000e0 18 bc 88 be 4a 02 1b 3e 5c 87 94 bd f7 f3 10 be
       -0.26706004 0.15137592 -0.0725238 -0.14155565
0000f0 d3 4f 4b 3e 24 9c 06 bd 72 93 2d be a6 cb d9 3e
       0.1985467 -0.03286375 -0.16950777 0.42538184
000100 ee 4e 2b 3c d1 ef 9a bd b2 65 07 bd 14 b4 f3 bd
       0.01045583 -0.075652726 -0.03305597 -0.118995816
000110 4f 07 f9 3e 41 f4 c9 3e b2 dc 1a 3e fc 05 a2 be
       0.4863839 0.39444163 0.15123251 -0.3164519
000120 ec c2 22 3e a6 af ce 3c 6d bc 20 3b ae a1 98 3a
       0.1589467 0.02523024 0.0024526373 0.0011644864
000130 87 7b 88 bd 6f 15 54 be 3c db 33 3d 2e 82 02 bb
       -0.06664186 -0.20711301 0.04391025 -0.001991402
000140 4e a8 89 3e 3f b6 69 be 08 0b aa 39 cb a5 7b be
       0.2688622 -0.22823428 0.00032433146 -0.24574964
000150 22 a0 ae 3d 48 90 9d 3d 30 c6 a6 bd 20 1e 24 be
       0.08526637 0.07693535 -0.0814327 -0.16027117
000160 70 9f 75 be e2 5b 98 be ba 18 38 be 1b cc c1 be
       -0.23986602 -0.297576 -0.17978182 -0.37851033
000170 e2 df 70 bd 69 5c d2 bd 5e 52 8e 3c 63 b1 55 be
       -0.05880726 -0.10271532 0.01737326 -0.20868449
000180 7e 10 72 be 58 c3 c6 be 88 98 3a 3e db 69 a4 3e
       -0.23639104 -0.3882091 0.18222249 0.3211201
000190 84 df 12 be 8a 9e aa be 1b 69 44 3f fc a2 41 bd
       -0.14343077 -0.3332408 0.7672288 -0.047274575
0001a0 55 30 93 3b a2 f5 af 3d 81 87 7f be 4c d4 09 be
       0.0044918456 0.085917726 -0.24954034 -0.13459891
0001b0 a1 c3 48 bf 31 f2 d6 3a eb 87 1a be 2e d3 6c bd
       -0.78423506 0.0016399083 -0.15090911 -0.057818584
0001c0 1e be d6 3b ea 09 7e 3e 93 f0 83 3e 9a 19 00 3e
       0.0065534255 0.2480847 0.2576948 0.12509766
0001d0 44 92 dc 3e 37 52 1b 3f e0 93 01 3e e6 28 e6 bc
       0.43080342 0.60672325 0.12654066 -0.028095674
0001e0 f6 d6 b1 3e c8 b5 ff be dd 9f eb 3e fb d3 11 3e
       0.34734315 -0.49943376 0.46020404 0.1424102
0001f0 e9 3f 02 3d cb 8e c0 3e 83 b6 3e bf ac 77 1f 3e
       0.03179923 0.37608942 -0.7449724 0.15572995
000200 72 3e fb 3c 1f bf 4e 3d 8f 04 fc 3d 5b 6f 0c bf
       0.030669425 0.050475236 0.12305557 -0.54857415
000210 ae 7c e3 be eb 67 a1 3e a4 9c 0b bb 58 d6 6c 3d
       -0.4443106 0.31524596 -0.0021303082 0.0578216
000220 0e 7c 0d 3f 12 84 bc bd 52 d9 f1 be b1 86 06 3b
       0.5526742 -0.09204878 -0.47236115 0.002052706
000230 5c 1e 99 be 50 91 ba 3e 3a be ea 3d 43 97 d0 be
       -0.29905975 0.3643899 0.11462064 -0.40740404
000240 dc ca 12 3f 6a ac 25 3f 39 fb be be 94 0e 3b 3e
       0.5734079 0.6471621 -0.37301043 0.1826728
000250 d4 c2 2d 3f d6 1d 0c 3b 6f 47 63 3d 86 2d 92 bd
       0.6787541 0.0021380088 0.055488046 -0.07137589
000260 10 ed 90 be ba 65 80 be 54 23 1d 3b d5 20 fa 3e
       -0.28305864 -0.2507761 0.0023977356 0.48853174
000270 45 9d 4d be 60 6c a1 3c 01 51 56 3d a1 95 bc be
       -0.20079525 0.019704998 0.052323345 -0.36832908
000280 a6 c6 dd bd 90 c0 31 3e 6f b7 84 bd ef 0d 86 3e
       -0.10828905 0.17358613 -0.064803 0.26182505
000290 f8 a8 ba 3b 7e b5 be ba 93 64 36 bf d4 1a 5d bc
       0.005696412 -0.0014549938 -0.71247214 -0.013495166
0002a0 27 9b 02 3e d1 eb 84 b9 6b 51 56 3f 44 e0 5e 3e
       0.12754498 -0.000253527 0.83717984 0.21765238
0002b0 2e 06 b1 ba 2f 68 05 3f 12 7b 01 3d 6d fb 19 be
       -0.001350587 0.52112097 0.03161151 -0.15037318
0002c0 07 08 09 be 4b 5e 20 3d a5 0e 35 3e 57 a8 1e bf
       -0.13381968 0.039152425 0.17681368 -0.61975616

pos_net.output_layer.bias f4 [6]
000000 4f f5 0e 3d a6 f0 2f 3d d0 9c 85 3e b1 c6 8c 3d
       0.034901913 0.04295411 0.260962 0.06873835
000010 9f 3c 91 3e 81 22 42 bd
       0.28366563 -0.047396187

neg_net.linears.0.weight f4 [30, 12]
000000 a7 b6 a7 be 96 18 ad 3e fb 13 15 3f 51 7e d6 3d
       -0.3275654 0.3380782 0.5823361 0.10473312
000010 0a 77 db 3d 29 83 d6 bd a4 a9 1d bd 7f 42 9c bd
       0.10716064 -0.104742356 -0.03849186 -0.076298706
000020 91 7a 08 3e 15 b1 94 be 81 6f 1a bf 6f 90 a8 3d
       0.13328005 -0.29041353 -0.6032639 0.082306735
000030 aa 59 59 be c9 83 a4 3e 84 07 b1 3e e0 1a 03 bf
       -0.2122561 0.32131794 0.34576046 -0.51212883
000040 88 9c 31 3e de 11 a9 bb a8 e5 28 bd 67 c0 47 be
       0.17344868 -0.0051596006 -0.041234642 -0.1950699
000050 15 4d fa 3c ae 2d 59 bf 66 f8 ff b9 ae 57 ec 3c
       0.030554334 -0.84835327 -0.0004882246 0.028850403
000060 1e 87 e2 bc 5d bd e3 3e 0b c8 6f 3e 73 01 b0 be
       -0.02765232 0.4448041 0.23416154 -0.34376106
000070 a4 40 ee 3d d8 67 9a be a4 b1 2f 3c 83 c7 e6 3d
       0.11633423 -0.30157351 0.010723505 0.112685226
000080 cb d3 31 3c a9 a8 0f 3f 1e 8a 6e be fb 99 de bd
       0.010853718 0.5611673 -0.23294875 -0.10869213
000090 36 f1 f9 bc ad 9d 57 bf 9b 4f 20 bf 65 25 51 3e
       -0.030510526 -0.8422497 -0.6262147 0.20424421
0000a0 58 b4 88 3d 60 7c 5e 3e 92 f7 94 bd 06 f7 09 be
       0.06675023 0.21727133 -0.07273783 -0.13473138
0000b0 01 91 d8 bb 50 40 80 3c 48 a8 f2 3e 7a 66 fc bb
       -0.0066090827 0.015655667 0.47394013 -0.007702646
0000c0 15 6e 30 bf 39 f4 29 3e 13 c2 d7 3d 18 75 7c 3e
       -0.6891797 0.1659707 0.105350636 0.24654043
0000d0 86 60 a5 3c 85 b7 86 3d 4a 25 7f be 97 d9 aa bd
       0.020187628 0.06577972 -0.24916568 -0.08342283
0000e0 4e b9 90 bd 84 24 4c 3e 5b 36 3f 3e 61 33 07 be
       -0.07066594 0.19935805 0.18673079 -0.13203193
0000f0 37 28 c4 3b a8 e1 42 3e 8c 4b 11 3e 59 85 8c 3d
       0.0059862393 0.19031394 0.14188975 0.068613715
000100 8d 10 10 3f 3c 08 5f 3e af 28 15 3e fa 05 75 3e
       0.56275254 0.21780485 0.14566301 0.23928061
000110 88 75 03 be 61 d4 e4 3e 10 ef 0e bd 8a e1 8c 3e
       -0.12837803 0.44693282 -0.034895957 0.27515823
000120 37 aa c6 be 88 b0 bf be 00 48 01 36 69 10 27 3b
       -0.3880174 -0.3743937 1.9264407e-06 0.002549196
000130 6b b3 c2 3e 49 b3 b8 3e ab 2d 27 be 13 12 90 bd
       0.3802751 0.36074284 -0.16326015 -0.070346974
000140 d2 c8 c9 bd c2 08 9a 3c b0 67 39 3e 50 0a bc b9
       -0.098527566 0.018803004 0.1810596 -0.00035865838
000150 77 2a d5 bd 9a 01 18 bf 45 44 05 bd 59 0e c0 be
       -0.1040849 -0.59377444 -0.03253581 -0.37510946
000160 1c c5 65 3d 2f 89 9e 3d ea 3c c0 3d 00 65 d5 3d
       0.05609618 0.077410094 0.093866184 0.10419655
000170 b7 6a e4 3d ac 99 0a bd 24 c8 d3 be fb 93 ac 3d
       0.11153167 -0.03383796 -0.41363633 0.084266625
000180 01 3d fb bd 73 2e 58 3e 4c 45 20 3e 1a ba 18 bf
       -0.12267495 0.21111469 0.15651435 -0.5965897
000190 a7 89 1c 3f 70 86 f5 be a4 eb b8 bd 14 42 7c 3d
       0.6114754 -0.4795413 -0.0902932 0.061586455
0001a0 3a 91 e6 bc 53 ce 94 3c 55 90 af be a1 6b 08 3c
       -0.028145421 0.01816479 -0.34289804 0.008326442
0001b0 09 eb 61 3f 3a 0c 27 be 43 5d b1 be 29 a6 0c bf
       0.8824926 -0.16313258 -0.34641466 -0.5494104
0001c0 37 88 6c bd a3 84 2d be 48 05 3e be a5 7d ec 3d
       -0.057747092 -0.16945128 -0.18556702 0.11547402
0001d0 ff 2e bd 3c 69 8e 41 be e6 65 8e 3c c0 6c d0 39
       0.023093699 -0.18901981 0.017382573 0.00039753877
0001e0 8b 03 3b 3e 19 9a 01 bf c3 d7 ce 3e 1d 84 b7 3e
       0.1826307 -0.5062576 0.40398988 0.35842982
0001f0 fb c1 11 be 85 94 28 be e9 97 14 bd 3d d4 d7 bd
       -0.14234154 -0.16462906 -0.036277685 -0.10538528
000200 86 10 07 be 29 61 93 3e 58 9c 8c 3d 87 7f 57 bb
       -0.13189897 0.28785065 0.06865758 -0.0032882409
000210 28 cb a3 be 49 af 91 3c 45 ee 46 be 1c fc 05 bf
       -0.31990933 0.017783778 -0.1942683 -0.52337813
000220 1d f0 2b 3e d1 34 f7 bd 7d 87 35 be 0d 32 bd 3c
       0.16790815 -0.12070621 -0.17727466 0.023095155
000230 f6 a0 52 bc 83 08 cb 3e c9 64 1c bf 6e 51 18 be
       -0.012855759 0.3965493 -0.61091286 -0.14874813
000240 bc 5d 54 be cf 77 b3 3e bd b5 f9 3e c5 28 a2 3e
       -0.20738882 0.35052344 0.48771468 0.3167173
000250 51 40 e1 be 93 f8 93 be 8d 4a 78 3d 4b cd af bd
       -0.43994382 -0.28900585 0.060617972 -0.085840784
000260 2a a9 09 3e 31 3c 2c 3f f7 95 97 3d bf 1d 14 3d
       0.13443437 0.67279345 0.074016504 0.03616118
000270 b6 c0 09 bd 1a 28 c9 3e 17 71 8a 3e 08 42 63 be
       -0.03363105 0.39288408 0.27039406 -0.22193158
000280 9e 04 d7 3e 29 3d e4 3d b4 c4 34 be 3c cc 42 be
       0.4199571 0.11144478 -0.17653161 -0.19023222
000290 e8 24 2c 3d 9f 04 34 3f 34 19 96 3e 9f 47 c8 bd
       0.042027384 0.7031955 0.29316103 -0.09779286
0002a0 0a ca c7 bd e4 f2 7e 3e 4a a1 d8 be 7b 60 d7 be
       -0.09755333 0.24897343 -0.42310554 -0.42065796
0002b0 90 7f 91 3e 49 7c 7d 3e 2a 49 8a 3d 2a 44 f6 bc
       0.28417635 0.24754442 0.06752236 -0.0300618
0002c0 d0 ef 20 3d a8 03 b2 be 3e f4 41 be 2e 56 ec 3c
       0.039291203 -0.34768414 -0.18940827 0.028849687
0002d0 d8 f6 c4 bd 70 4e 93 3e 80 bb e0 bd 76 b1 ed 3e
       -0.09617394 0.2877078 -0.10973263 0.46424454
0002e0 e9 35 f8 3e 25 c7 4f 3e ec 63 7e bd 3b 2e 7f 3d
       0.4847863 0.20290811 -0.06210701 0.06229995
0002f0 82 6d 8a 3e 6e df 73 be 16 da 90 3e ad f2 10 3e
       0.27036673 -0.238157 0.28291386 0.14155073
000300 26 89 9b bd 51 e2 6d be 21 a8 14 bf 31 b5 1c 3f
       -0.07594518 -0.23230864 -0.58069044 0.61213976
000310 fe 94 03 3f 86 a0 bc be 04 4e 12 bd 86 36 15 bb
       0.5139922 -0.3684122 -0.035718933 -0.0022768094
000320 97 f5 97 3d b9 cb e6 be 98 10 3d bf 72 d5 ba bd
       0.074198894 -0.45077303 -0.73853445 -0.09122743
000330 81 04 d2 bd ae 74 9e be 3c c9 ae be ca 06 19 3e
       -0.10254765 -0.30948395 -0.34137905 0.14943996
000340 8d c4 e9 be b3 51 f2 3e b9 e8 36 be c4 5d 64 be
       -0.4565777 0.47327957 -0.17862214 -0.22301394
000350 f6 68 08 3d 45 61 d8 3e d4 94 03 bf d5 0e 9b 3d
       0.033303224 0.4226171 -0.5139897 0.07571188
000360 2b 47 df 3d 5e 5c 0d 3f c0 ea 7d 3e 48 e1 a0 3e
       0.10902246 0.55219066 0.24796581 0.31421876
000370 9b 1c 27 3e e4 4d 8f be d2 a9 bf bd aa 03 56 be
       0.16319506 -0.27989113 -0.093585625 -0.20899835
000380 55 0e 33 bd 87 cc 89 be 58 30 bd 3e 74 5a 34 bd
       -0.04371484 -0.26913854 0.36950946 -0.044031575
000390 83 12 a6 be 6a 14 b0 bb c1 a6 60 3e a5 77 1f bf
       -0.32435998 -0.0053735273 0.21938612 -0.6229194
0003a0 d1 3f ac be 8f 3a b8 be 76 18 d5 3d e1 18 1e be
       -0.33642438 -0.35982177 0.10405056 -0.15439178
0003b0 50 60 de bc 22 c2 85 bc c5 e5 b7 3e c6 6d a7 bc
       -0.027145535 -0.016327921 0.35917488 -0.020438086
0003c0 48 d7 59 be fd b7 49 be 85 db 67 3e 3d cb cb 3d
       -0.2127353 -0.19699092 0.22642334 0.09950874
0003d0 61 f6 94 be ef cd 7f be 73 9e 4e be d1 82 95 be
       -0.29094222 -0.24980901 -0.20177631 -0.29201367
0003e0 17 3a 8c 3d f1 38 30 bf d0 06 cc be 65 c0 6e bd
       0.06847017 -0.68836886 -0.39848948 -0.05828895
0003f0 2b eb 75 3d 2d 5f da 3c f0 94 41 bc 39 6f b4 3c
       0.060038727 0.026656711 -0.011815295 0.022025691

neg_net.linears.0.bias f4 [30]
000000 19 bd 8b 3b fe 1d bb be c2 ef 84 3e 47 92 41 bd
       0.0042644856 -0.3654632 0.2596417 -0.04725864
000010 a1 6b 0d 3e 90 00 93 bd 65 aa fb 3e 5a cb 13 3e
       0.13810588 -0.07177842 0.49153438 0.14433041
000020 18 e6 d3 bd 6e 47 c2 3d 01 86 ce 3d 75 87 7e 3e
       -0.10346621 0.094862804 0.10084153 0.2485636
000030 d2 5b 50 3e fc c0 3f 3e c4 9a 1d 3e 6e 37 98 3d
       0.20347527 0.18725961 0.1539107 0.074324474
000040 80 15 14 be 79 a3 c6 be 21 a8 35 be 02 ad 11 3d
       -0.14461327 -0.38796595 -0.17739917 0.035565384
000050 a4 99 68 be f2 56 65 be c7 cc e9 be e3 5f 09 bf
       -0.22714859 -0.22396448 -0.45664045 -0.53661937
000060 9d 37 c7 be 99 df 98 bd 2f 20 21 3c ce 99 8d bd
       -0.38909617 -0.07464523 0.009834333 -0.069141015
000070 7e 77 1e 3e c7 f0 71 3c
       0.1547527 0.014766878

neg_net.linears.1.weight f4 [30, 30]
000000 97 66 20 be dc 4d c2 be 86 ca 65 3e 07 a7 8c be
       -0.15664135 -0.37950027 0.22440538 -0.27471182
000010 a8 ad 7a 3d 72 28 37 3e 4e 5b f3 3b 9d 33 3b be
       0.061200768 0.17886522 0.007426656 -0.18281408
000020 bd ab d4 be 7a 25 10 be d8 e6 86 3e 00 8c e2 bd
       -0.41537276 -0.14076796 0.26347995 -0.11061859
000030 30 5f f6 3e 55 af db 3e 48 75 c3 be 57 00 f6 bd
       0.48119497 0.42907205 -0.38175416 -0.120117836
000040 49 83 a9 3e 5e 9b f6 3d 03 d1 77 bd c1 8f 0a 3f
       0.33107975 0.12041353 -0.060502063 0.541256
000050 23 11 fc be 96 42 b8 bd 14 6d 94 bd 83 4e ee 3c
       -0.49231824 -0.08997075 -0.072473675 0.029090172
000060 dc 1a 9b 3e 0a 31 31 be ce c4 e0 3c d4 ce fc 3e
       0.3029393 -0.17303863 0.027437594 0.49376547
000070 f6 a9 89 bd 56 61 83 be b3 7a d8 bd 52 6e a2 3d
       -0.067218706 -0.256602 -0.10570278 0.07931198
000080 b3 b8 7d 3e 9b 45 6a be 02 32 11 be a6 3a 43 3e
       0.24777488 -0.22878115 -0.14179233 0.19065341
000090 89 20 64 be 19 42 98 3e 9a 97 a4 3e ec 27 1d 3e
       -0.22278036 0.29737929 0.32146913 0.1534726
0000a0 1f be ad 3d d3 3e 6a 3e 0f e6 ff bc d0 7e 82 3e
       0.08483528 0.22875528 -0.03123763 0.25487375
0000b0 ce b2 45 3e d2 8a 68 bd c7 50 19 be 86 7d 40 3b
       0.1930649 -0.056773014 -0.1497222 0.0029371693
0000c0 f1 82 1a be 21 9c 55 3e cb 33 1c bf a6 a6 09 3f
       -0.15089013 0.2086034 -0.6101653 0.5376991
0000d0 fe 92 9e be 49 e3 3b 3e e7 ea 37 be 12 b4 cb be
       -0.3097152 0.18348421 -0.17960702 -0.3978582
0000e0 06 e8 89 bd 39 d1 e3 3d 2c 19 2d 3e 58 11 0a bf
       -0.06733708 0.111238904 0.16904134 -0.53932714
0000f0 f8 31 91 be 0b fb c4 be ef e0 c7 3d dc 3a 5b be
       -0.28358436 -0.3847278 0.097596996 -0.21409172
000100 79 6a 85 3e d9 dc b4 3e b2 2c a9 3e 37 f4 b8 3d
       0.26057795 0.35324743 0.33041912 0.09030955
000110 24 7c 1d bd 01 31 e1 bd 0f 22 68 3e 6b a0 73 bd
       -0.038448468 -0.10995675 0.22669242 -0.05947916
000120 06 7e 67 3e 86 5e 17 3f 7e e2 f2 3d b3 4c 3f 3e
       0.22606668 0.59128606 0.11859606 0.18681602
000130 21 28 a2 bc a0 13 1d bf 46 47 22 bd d6 47 e7 3e
       -0.019794526 -0.6135807 -0.039618753 0.45171994
000140 69 b7 27 be 80 bf bb 3d 4b 7a a2 be 1d 98 f4 be
       -0.16378559 0.09167385 -0.31733927 -0.47772303
000150 98 cc 90 3d 7e ef 52 be 17 0e 0b bc ae bf c5 bd
       0.07070273 -0.20599172 -0.008487246 -0.096557006
000160 ea 52 71 be c1 7d 7a be 6f e7 bb 3a 51 0e d5 3a
       -0.23566785 -0.24462034 0.001433594 0.0016254877
000170 0a 67 81 3b 67 ab 19 bc fd 3f 59 3b c2 2b 85 3a
       0.003949051 -0.009379244 0.0033149712 0.0010160136
000180 82 d5 15 bc 92 b1 61 3b a3 71 05 bb e9 e5 81 bd
       -0.0091451425 0.0034438116 -0.0020361922 -0.0634268
000190 9c f6 ff bb 9a f0 b8 3b 67 84 bb bb f8 73 d4 ba
       -0.0078113806 0.0056439163 -0.0057225707 -0.0016208878
0001a0 00 75 53 3b 9c 08 8a 3a 09 e9 81 3a d2 79 f7 3a
       0.0032265782 0.001053113 0.0009911369 0.001888091
0001b0 a4 d9 27 bd 5f e2 07 bb 91 50 06 3a e4 cd 8a b9
       -0.040979043 -0.0020734293 0.00051236997 -0.00026474812
0001c0 ab 63 b0 3b a3 a4 ea ba 13 56 b6 bb 24 e3 ed bb
       0.005382975 -0.0017901849 -0.00556446 -0.0072597433
0001d0 42 8d d6 bd a0 06 c9 ba 0e ee 24 3b 6a 40 c2 3c
       -0.104761615 -0.0015337057 0.0025166306 0.023712356
0001e0 d0 b0 75 3e 0a a0 ae bd 92 eb 73 be 54 d9 26 3e
       0.2399323 -0.08526619 -0.23820332 0.16293842
0001f0 c1 79 33 bd 52 79 1b bf 64 1f 3d 3e f8 d8 13 be
       -0.043817285 -0.60731995 0.18469006 -0.14438236
000200 ae e9 60 3e f5 60 27 3e 8a f1 e4 bb be 7f d1 3d
       0.21964142 0.1634558 -0.0069868015 0.10229443
000210 3d 24 53 3d b9 5d 0c bf 08 0b af 3e c4 b2 60 3e
       0.05154823 -0.5483051 0.34188104 0.21943194
000220 fc f8 65 bd 9a 0b ac bd ff 5b a7 be d6 3d d8 3d
       -0.056145653 -0.0840065 -0.32687375 0.10558669
000230 59 88 46 be 9c c2 17 3d 38 f6 8e 3d 45 d0 7a bd
       -0.1938795 0.03705083 0.06980556 -0.061233778
000240 1e 5c 00 3e 77 47 5c 3d 8e 23 62 be a0 28 4d 3d
       0.1253514 0.05377909 -0.22083876 0.05008757
000250 84 05 6f 3d 4d c9 81 3e 36 c5 e5 bc 57 73 46 3d
       0.05835487 0.25348893 -0.028048139 0.04844984
000260 09 da 1a be 68 69 f0 bd 3c ae 0a bd 91 1a b8 bd
       -0.15122236 -0.11738855 -0.03385757 -0.08989442
000270 19 d8 85 3d c2 46 52 be 9b f2 0a bd c0 a3 e3 bd
       0.06535358 -0.20534804 -0.033922773 -0.11115217
000280 94 f0 29 bd a6 06 d7 3c 9c bc ad bb dd 66 89 bd
       -0.0414892 0.026248287 -0.005302025 -0.06709073
000290 32 73 ba bd 66 e2 ef bc 73 10 28 3c 63 2b d0 bc
       -0.09104003 -0.02928276 0.010257828 -0.025411313
0002a0 a5 9c 21 bd 3b 1d ec 3c 4b 55 83 3b a8 07 45 3b
       -0.03945603 0.028822532 0.0040079704 0.0030064378
0002b0 35 d2 9f 3b 78 65 f5 b9 d2 2d 11 3c 49 7b d7 bc
       0.0048773536 -0.00046805642 0.008861022 -0.026303904
0002c0 94 3a fb bc a5 86 12 3e 66 e0 aa bd 30 2c 52 bd
       -0.03066758 0.14309175 -0.08343582 -0.05131167
0002d0 1f ad 8e bd 6c a6 35 be 3f 09 81 bc 73 18 05 be
       -0.06966614 -0.17739266 -0.01575148 -0.12997608
0002e0 26 89 49 bd 08 7b 9a bd 7c a2 06 be 30 13 05 be
       -0.04920306 -0.075429976 -0.1314792 -0.129956
0002f0 6f df 9c bd 05 0c b9 bd 25 36 8c bd 46 67 b0 bd
       -0.07659804 -0.09035496 -0.06846265 -0.08613448
000300 04 b6 a9 3a 74 8e b1 bc 84 0e 93 bd ba ef 93 bd
       0.0012947922 -0.021674372 -0.07180503 -0.072234586
000310 ed 5e fa bc e1 15 ce bd a8 ae 3c bd 52 1d 94 bc
       -0.030562842 -0.10062767 -0.046065003 -0.018080387
000320 28 60 df bd cf 46 00 bd 19 00 93 bd a2 c7 11 bd
       -0.10907012 -0.03131753 -0.07177753 -0.035590775
000330 c9 17 41 bc 57 e2 b8 bd 64 c3 e2 bd 9f 88 f3 bd
       -0.011785456 -0.09027546 -0.11072424 -0.11891293
000340 24 51 4c bd b2 6e 04 bd db f4 b0 be 19 f8 18 3e
       -0.04988207 -0.03233213 -0.3456181 0.14938392
000350 59 c6 6b bd f1 b7 fb be 24 aa 19 be fa 52 dd bc
       -0.057562206 -0.49163774 -0.1500631 -0.027017105
000360 0c 55 87 bd 62 22 b4 3e 58 a7 0b 3e f0 9d 4c 3e
       -0.06608018 0.35182482 0.13638055 0.19982123
000370 da f1 b1 3d 91 29 2a 3e 14 8b f1 bd 1d 7c ac be
       0.08688708 0.16617419 -0.11794105 -0.3368844
000380 d7 48 8f 3d 0d 55 a3 3e 56 a5 cf bc c6 38 fb 3e
       0.06996315 0.31900826 -0.025347393 0.49066752
000390 4d ce 71 be 60 e6 8e be d6 cd 35 bd 24 cf 22 be
       -0.23613854 -0.27910137 -0.044385754 -0.1589933
0003a0 df fc c1 3d e2 d0 84 bd 15 a1 de bd 55 c8 40 bd
       0.094720595 -0.06485154 -0.10870568 -0.04706605
0003b0 1d c5 0a 3e ca 56 ab be b3 9f bb 3c 7e 95 e6 bd
       0.13551755 -0.33464652 0.022903299 -0.11258982
0003c0 f9 37 65 bc b1 ce 48 be c0 63 95 3e b6 2d 83 be
       -0.013990396 -0.19610097 0.29177666 -0.25620812
0003d0 03 e5 02 bd bd 42 42 3e 38 73 64 3d 88 c7 31 3e
       -0.031956684 0.18970771 0.055773944 0.17361271
0003e0 c0 5e 27 3e ed ca b3 3c 7d 70 02 be 60 15 ca 3e
       0.16344738 0.021947348 -0.12738223 0.39469433
0003f0 5f 80 1e be b4 b2 6c 3e 39 bf 25 3e af 15 a8 3d
       -0.15478657 0.23115045 0.16186227 0.08207261

neg_net.linears.1.bias f4 [30]
000000 9b c5 b7 bd 0a 2b a2 bd 0e 9f 23 bd fc 06 df bd
       -0.08973237 -0.07918365 -0.03994661 -0.10890004
000010 40 35 66 be 66 70 7f bb f5 6a 0a be 43 06 49 be
       -0.22481251 -0.0038976907 -0.13517363 -0.19631295
000020 8f 56 10 3d 9b e7 34 be aa 83 90 3d 42 b9 e8 3d
       0.0352388 -0.17666475 0.07056363 0.1136346
000030 fc 9a 26 bb fe 5e 08 3b d1 8b f7 bc e6 44 70 3d
       -0.0025421968 0.0020808573 -0.030218037 0.058659457
000040 39 da b8 bc 12 e5 9e bd aa b4 8d bd db e1 34 bd
       -0.022564994 -0.077585354 -0.069192246 -0.044160705
000050 3e cd 35 be 5a 19 6b 3e 28 18 91 bd 62 44 d9 bd
       -0.17754075 0.2295889 -0.070846856 -0.10608746
000060 b1 c6 69 be d6 19 3a be 1e 00 99 3e 60 6e c4 3e
       -0.22829701 -0.18173918 0.29882902 0.3836546
000070 44 42 33 be cb 81 8f 3c
       -0.17505747 0.017517945
