data/MTMR_28002/sim/random/MLSE4POL/bias_0.001/train/N50/D6_SinCosInput/4/result/model/ReLU_Dual_UDirection_BP.pt (torch_old, 22776 bytes, 20 tensors)

input_mean f4 [12]
0.06698731 0.24964863 0.047082793 0.20174205 0.26484686 -0.06212329 0.90518004 0.92615384
0.9345167 0.29461738 0.15579501 0.9185555
00000000: a530 893d e4a3 7f3e e3d9 403d 7895 4e3e
00000010: 029a 873e fe74 7ebd e1b9 673f 6b18 6d3f
00000020: 7d3c 6f3f 17d8 963e ba88 1f3e 7426 6b3f

input_std f4 [12]
0.41420162 0.27084976 0.34906587 0.66821283 0.65979767 0.3834236 0.06781286 0.080967814
0.051150747 0.65268093 0.68574935 0.073377416
00000000: 3c12 d43e d2ac 8a3e c3b8 b23e ff0f 2b3f
00000010: 80e8 283f 1950 c43e 78e1 8a3d 74d2 a53d
00000020: 7283 513d 1916 273f 458d 2f3f e646 963d

output_mean f4 [6]
0.035419602 0.46247318 0.19053891 -0.020293316 -0.001437029 0.005359411
00000000: 2514 113d 49c9 ec3e a21c 433e 2b3e a6bc
00000010: b15a bcba ff9d af3b

output_std f4 [6]
0.036147535 0.16467457 0.15056673 0.10236988 0.036309104 0.017667495
00000000: 700f 143d 73a0 283e 2a2e 1a3e 4da7 d13d
00000010: dbb8 143d 6cbb 903c

pos_net.linears.0.weight f4 [30, 12]
0.21058168 0.1270924 -0.54890996 -0.17929174 0.41734657 0.39084494 -0.04749603 -0.04254588
0.069667414 0.34123203 -0.52577436 0.38253868 0.027411144 0.11706123 0.17895076 -0.11969264
0.40502816 -0.05840642 -0.011499908 0.24730363 -0.21720287 -0.1727444 -0.37471655 -0.09420445
0.5214774 0.16255629 -0.054931883 -0.31929374 0.24768385 0.36182222 -0.20395656 -0.2661423
0.11680398 0.17521644 -0.017206142 -0.16557017 -0.29849026 -0.29957443 -0.23656717 0.26101944
0.097904384 -0.017546203 -0.10543629 -0.26346987 -0.118227765 -0.043467797 0.07217949 0.2703236
0.05527847 -0.033344276 0.05187138 -0.15624613 -0.0042178365 -0.35978508 -0.33602902 0.23665938
0.29215837 0.031197742 -0.058421396 0.1864813 0.23648232 0.070840135 -0.12733024 -0.07734718
0.2829136 0.32257655 -0.35101226 0.20130366 0.34833896 0.13492937 -0.23566964 -0.27287734
0.13066076 -0.13321479 0.036691684 0.022904726 -0.17617615 0.0864137 0.17756505 0.15435734
-0.06290847 -0.21035314 -0.0047399243 -0.12538351 -0.03598023 0.08977899 0.17624708 0.26852298
0.0587395 0.01877873 0.14629604 0.2832467 0.21727777 -0.29046297 0.28247303 -0.25274542
-0.25584692 0.14767364 -0.22389078 -0.4596539 -0.21185249 -0.38695598 -0.08207305 0.08967436
-0.062249627 -0.33145964 0.020910932 -0.4470389 -0.19494443 -0.22596681 -0.27061337 0.12239952
0.08337452 -0.0044436976 0.15780602 -0.035069283 -0.048562925 -0.035496768 0.09889416 0.32578582
-0.04709257 0.10464559 -0.24477717 -0.33537078 0.23803894 -0.20191541 0.043543227 0.1389354
0.10918632 -0.10102905 0.13166772 0.09007292 -0.06639106 -0.2480918 0.20311688 0.013387384
-0.29066995 -0.036731485 0.20833047 0.12382689 0.3052079 0.08029393 -0.23465705 0.17180145
-0.39847237 0.17841445 -0.14533652 -0.22445759 -0.25946492 0.057184055 -0.20968866 -0.17589289
0.0699434 -0.14465079 -0.06418756 0.22326925 0.44279593 0.22560976 0.013920846 -0.39154276
0.10422313 0.12107626 0.02020981 -0.45491147 -0.4097677 0.15040065 0.07296704 0.1301242
0.10459162 0.123381995 0.44486725 -0.35365897 -0.04270351 -0.14768831 -0.17480819 0.103079684
-0.16309963 0.26022622 0.3084188 -0.0052999444 0.004786281 0.19556054 0.11481543 0.28311318
0.022212118 0.33979782 -0.17033112 -0.2065474 0.10016489 -0.22367524 0.05830883 -0.042750955
-0.062813886 -0.314643 -0.0888442 -0.29872644 0.24694142 -0.07924405 0.33113438 -0.29822606
-0.23587935 -0.23407361 0.081310995 -0.1799714 -0.217377 0.01741218 0.08911874 -0.03827723
0.384797 0.31026664 -0.050869722 -0.22736886 0.10036781 -0.34999132 0.060950913 0.030505251
-0.1291283 -0.15243062 0.03395235 0.028247047 0.0020505101 0.15063933 0.032443933 0.041795418
-0.049993325 -0.121468514 -0.14796466 -0.32674527 -0.17651461 -0.21782802 0.2601887 0.34422565
-0.33224627 0.063507184 -0.0011073165 -0.04899804 -0.2901728 -0.17001367 -0.06456679 0.4065912
-0.19011901 -0.13885121 -0.34534872 0.030068956 -0.07223867 -0.33272904 -0.52584076 -0.11678381
-0.09149095 0.12391162 -0.14397155 -0.11808053 0.12829903 -0.19464655 0.42157632 0.37949437
00000000: b9a2 573e 8324 023e 5d85 0cbf 4198 37be
00000010: 73ae d53e d41c c83e 328b 42bd 9744 2ebd
00000020: caad 8e3d f7b5 ae3e 2699 06bf 1cdc c33e
00000030: 568d e03c ccbd ef3d de3e 373e 6a21 f5bd
00000040: da5f cf3e 923b 6fbd 1c6a 3cbc 2a3d 7d3e
00000050: 6e6a 5ebe e8e3 30be d9da bfbe 43ee c0bd
00000060: 8b7f 053f 2875 263e 4100 61bd 787a a3be
00000070: d6a0 7d3e c340 b93e fdd9 50be ce43 88be
00000080: ed36 ef3d f06b 333e e5f3 8cbc 3a8b 29be
00000090: b7d3 98be d261 99be aa3e 72be 57a4 853e
000000a0: 1882 c83d 0ebd 8fbc fbee d7bd 86e5 86be
000000b0: 6621 f2bd 4a0b 32bd d7d2 933d db67 8a3e
000000c0: ad6b 623d 0294 08bd 1677 543d fcfe 1fbe
000000d0: c735 8abb c035 b8be ff0b acbe d656 723e
000000e0: c895 953e 6892 ff3c 464b 6fbd f4f4 3e3e
000000f0: 6c28 723e a214 913d dc62 02be 3368 9ebd
00000100: 0dda 903e c128 a53e e1b7 b3be 8c22 4e3e
00000110: 7c59 b23e ed2a 0a3e 6253 71be 94b6 8bbe
00000120: efcb 053e 7569 08be 054a 163d b1a2 bb3c
00000130: 8567 34be aaf9 b03d 9dd3 353e da0f 1e3e
00000140: 28d6 80bd d066 57be 5e51 9bbb 8964 00be
00000150: 0160 13bd 0cde b73d 1d7a 343e d87b 893e
00000160: d498 703d dad5 993c a1ce 153e b605 913e
00000170: 107e 5e3e 90b7 94be 4ea0 903e d967 81be
00000180: 5efe 82be c237 173e a043 65be c257 ebbe
00000190: dcef 58be 181f c6be ea15 a8bd 31a7 b73d
000001a0: 77f9 7ebd 14b5 a9be 674d ab3c 48e2 e4be
000001b0: 839f 47be d863 67be d68d 8abe 99ac fa3d
000001c0: 43c0 aa3d 709c 91bb e797 213e cfa4 0fbd
000001d0: ebe9 46bd 0f65 11bd 0589 ca3d 66cd a63e
000001e0: 24e4 40bd 6d50 d63d dea6 7abe b8b5 abbe
000001f0: 7bc0 733e eac2 4ebe 625a 323d 1545 0e3e
00000200: 149d df3d 52e8 cebd e7d3 063e 2778 b83d
00000210: 09f8 87bd c70b 7ebe dffd 4f3e c256 5b3c
00000220: b1d2 94be c173 16bd 9554 553e f498 fd3d
00000230: 3644 9c3e 2571 a43d f049 70be b8ec 2f3e
00000240: 9204 ccbe 47b2 363e 19d3 14be 36d8 65be
00000250: 96d8 84be d439 6a3d a0b8 56be 441d 34be
00000260: 7c3e 8f3d 561f 14be c474 83bd b2a0 643e
00000270: 26b6 e23e 3f06 673e 4314 643c 4b78 c8be
00000280: f072 d53d d5f6 f73d 0b8f a53c 28ea e8be
00000290: 12cd d1be a102 1a3e be6f 953d 473f 053e
000002a0: 2234 d63d b3af fc3d a4c5 e33e ca12 b5be
000002b0: e0e9 2ebd 9b3b 17be eb00 33be 711b d33d
000002c0: 9703 27be 5f3c 853e 12e9 9d3e 28ab adbb
000002d0: 3cd6 9c3b 0641 483e 5a24 eb3d 36f4 903e
000002e0: 30f6 b53c fbf9 ad3e 486b 2ebe 2981 53be
000002f0: 4023 cd3d 1f0b 65be 3dd5 6e3d a01b 2fbd
00000300: 91a4 80bd e318 a1be f3f3 b5bd acf2 98be
00000310: 36de 7c3e b44a a2bd 728a a93e 16b1 98be
00000320: 5b8a 71be feb0 6fbe 6186 a63d 6c4a 38be
00000330: 1498 5ebe fda3 8e3c e383 b63d 96c8 1cbd
00000340: 1d04 c53e 45db 9e3e c55c 50bd 62d3 68be
00000350: a38d cd3d 1032 b3be aaa7 793d 26e6 f93c
00000360: 363a 04be c616 1cbe 9f11 0b3d 5a66 e73c
00000370: da61 063b 3241 1a3e eee3 043d ac31 2b3d
00000380: cdc5 4cbd 7cc4 f8bd 0c84 17be 284b a7be
00000390: 3fc0 34be 4f0e 5fbe 7437 853e 583e b03e
000003a0: 2f1c aabe 0e10 823d 6023 91ba 2bb2 48bd
000003b0: 8791 94be 1018 2ebe 983b 84bd b92c d03e
000003c0: 8fae 42be 032f 0ebe 8cd1 b0be 2c53 f63c
000003d0: def1 93bd 765b aabe 809d 06bf 5a2c efbd
000003e0: 9b5f bbbd 60c5 fd3d 476d 13be 34d4 f1bd
000003f0: d260 033e 6d51 47be dad8 d73e 164d c23e

pos_net.linears.0.bias f4 [30]
0.23661603 -0.029494505 0.22080027 -0.31667918 -0.2734807 0.2167124 -0.4637196 -0.26195824
-0.17735206 -0.35233986 -0.2113007 0.036848485 0.06962262 -0.053318266 0.0055368985 -0.11583968
-0.078291304 0.14553382 -0.13770707 0.17534044 0.049590454 0.31385815 0.117421776 0.1776783
-0.17130542 -0.15348902 0.29627138 0.06429646 -0.049068645 0.15272506
00000000: 794b 723e 769e f1bc 7719 623e c623 a2be
00000010: aa05 8cbe dbe9 5d3e a86c edbe 641f 86be
00000020: c79b 35be e465 b4be 365f 58be 70ee 163d
00000030: 4e96 8e3d 4164 5abd df6e b53b 5b3d edbd
00000040: 3157 a0bd d106 153e 1503 0dbe 728c 333e
00000050: 5c1f 4b3d 04b2 a03e d47a f03d 4df1 353e
00000060: b06a 2fbe 3a2c 1dbe e2b0 973e ddad 833d
00000070: 34fc 48bd f563 1c3e

pos_net.linears.1.weight f4 [30, 30]
-0.2504311 0.2090287 -0.1047061 0.007908152 -0.07567704 -0.28259414 -0.050851256 -0.175622
0.16066909 0.12263545 -0.055082366 -0.31371933 0.08610586 -0.2212114 -0.12846121 -0.079574294
0.29743874 -0.23238693 -0.02049557 -0.21509902 -0.13663232 -0.2841408 -0.1324726 0.009609249
-0.18593039 -0.055700608 0.033337012 0.03115483 -0.1488725 0.12192625 -0.30721146 -0.18296906
-0.31408474 -0.14898545 -0.027245255 -0.34062442 -0.07568858 -0.20952204 -0.26554528 -0.108927116
-0.14438042 -0.08785978 -0.19522902 -0.09603366 -0.28448617 0.007127914 0.0406587 -0.22359365
0.09966074 -0.118574455 -0.25250423 -0.105754964 -0.25330186 -0.06919841 -0.040807232 -0.050970595
-0.35897893 -0.14567415 -0.323524 -0.19768919 0.06712885 -0.010032825 0.032183625 0.17723319
-0.043206997 -0.16103432 0.124001786 0.13953203 -0.4043449 0.04108962 -0.1724856 0.123734675
-0.26443225 0.08623541 0.25718772 0.09292282 0.10758644 -0.3568714 0.16864297 0.42899397
-0.23926486 -0.26748064 0.11998489 -0.3579564 -0.37082848 0.27055842 0.0012816526 0.20881054
-0.39211214 -0.25267297 0.09909628 -0.27527595 0.08291516 0.22174792 0.285985 0.066927016
-0.07435532 0.3202845 0.13758734 0.044846617 0.07838258 0.08512208 -0.099847466 -0.075874805
0.106910765 0.41584352 -0.31305575 0.3269705 -0.095399305 0.12003271 -0.067732014 0.2968396
-0.042236093 0.2592726 0.23492709 0.38595906 -0.2901611 -0.10570188 0.23009819 -0.061865285
0.32167193 -0.24627736 0.37823325 -0.068849064 0.1009853 0.34929907 -0.005010887 0.1329421
-0.036858235 -0.30494487 -0.15310414 0.07191479 -0.42094323 0.15556985 0.20195733 -0.005694665
-0.06676867 0.123997934 -0.22641733 -0.1782123 0.12448413 0.22909218 0.04052657 -0.038338214
-0.022153381 -0.13663667 -0.24152668 0.12694858 0.057305194 0.22167678 -0.37113848 -0.008095147
-0.2585539 -0.2880715 0.14265558 -0.09269253 -0.15632193 -0.015120992 -0.0043824017 -0.11393726
-0.20582613 -0.11215895 -0.2231178 -0.22582465 0.051794577 0.12525715 -0.048206687 -0.052599996
-0.025486337 -0.11243777 0.035515018 -0.09891306 -0.07462427 0.019947238 -0.018516703 -0.13628888
-0.35693067 -0.25614372 -0.27883485 0.0072952895 -0.27078035 -0.21608798 0.2232807 0.08672486
-0.08206456 0.14550322 -0.01587278 -0.0061410964 -0.2114926 -0.19378053 -0.22751805 -0.31638926
-0.089695 0.19942555 0.17278315 0.35768804 0.026047217 -0.06685632 -0.0145531595 -0.08281197
-0.1871388 -0.016476694 0.121202104 -0.39505786 0.06780594 -0.030787554 -0.33202738 -0.3823611
0.35476452 -0.1921786 -0.048949283 -0.03648319 -0.2162857 -0.14579919 -0.2844395 -0.18136555
-0.27916318 0.18037695 0.20416625 0.23473798 -0.079190366 -0.1275986 0.19946879 -0.17582177
-0.07923114 0.0010059923 0.11347504 -0.24721892 -0.07534047 0.11265994 0.098837174 -0.3274662
-0.33864766 0.15890414 0.052091718 0.24578905 -0.23857959 -0.27970734 -0.3448622 -0.22921865
-0.0899284 -0.0523743 -0.040620536 -0.030847862 -0.19753703 -0.1329821 -0.18609689 0.0016475022
0.12551366 0.12712197 -0.05085899 -0.24608165 -0.0045649754 -0.31833684 -0.27869517 -0.15699703
00000000: 8138 80be 9f0b 563e 2770 d6bd 3291 013c
00000010: 90fc 9abd 2eb0 90be 6849 50bd 41d6 33be
00000020: 7086 243e 4b28 fb3d 0c9e 61bd d29f a0be
00000030: 4558 b03d 3e85 62be 568b 03be d9f7 a2bd
00000040: e449 983e d7f6 6dbe 53e6 a7bc eb42 5cbe
00000050: 58e9 0bbe e77a 91be e6a6 07be 1d70 1d3c
00000060: 8964 3ebe 5226 64bd 648c 083d 6a38 ff3c
00000070: 0872 18be 78b4 f93d d24a 9dbe 3e5c 3bbe
00000080: b7cf a0be a48f 18be 7131 dfbc 5366 aebe
00000090: 9d02 9bbd f28c 56be 8df5 87be 2e15 dfbd
000000a0: 76d8 13be d4ef b3bd 1eea 47be 4cad c4bd
000000b0: 2ca8 91be 4791 e93b bd89 263d bcf5 64be
000000c0: ee1a cc3d 2ad7 f2bd 3c48 81be 0f96 d8bd
000000d0: c8b0 81be e5b7 8dbd 7c25 27bd 8bc6 50bd
000000e0: 16cc b7be 9b2b 15be f0a4 a5be 096f 4abe
000000f0: da7a 893d b860 24bc fad2 033d 9e7c 353e
00000100: d2f9 30bd 2ee6 24be a6f4 fd3d 7ce1 0e3e
00000110: 4b06 cfbe 974d 283d 11a0 30be 9b68 fd3d
00000120: aa63 87be 319c b03d 1cae 833e 524e be3d
00000130: 4856 dc3d d9b7 b6be beb0 2c3e 19a5 db3e
00000140: d901 75be 39f3 88be a3ba f53d 1046 b7be
00000150: 3bdd bdbe a286 8a3e 20fd a73a 6ed2 553e
00000160: ecc2 c8be 5a5e 81be fef2 ca3d f8f0 8cbe
00000170: 6ccf a93d e311 633e a06c 923e 0811 893d
00000180: 9a47 98bd 54fc a33e b2e3 0c3e 16b1 373d
00000190: 0c87 a03d 7c54 ae3d d47c ccbd 4064 9bbd
000001a0: 08f4 da3d 71e9 d43e d848 a0be ad68 a73e
000001b0: b660 c3bd b6d3 f53d 15b7 8abd 5cfb 973e
000001c0: c1ff 2cbd 61bf 843e ba90 703e 6d9c c53e
000001d0: ff8f 94be 3a7a d8bd dc9e 6b3e 7466 7dbd
000001e0: 2fb2 a43e 2230 7cbe caa7 c13e bd00 8dbd
000001f0: 62d1 ce3d 54d7 b23e 5e32 a4bb f921 083e
00000200: a9f8 16bd bc21 9cbe 55c7 1cbe 1048 933d
00000210: df85 d7be b44d 1f3e e7cd 4e3e 509a babb
00000220: 03be 88bd a1f2 fd3d f2d9 67be 497d 36be
00000230: 89f1 fe3d 2497 6a3e 30ff 253d 8808 1dbd
00000240: 027b b5bc 7cea 0bbe c552 77be cffe 013e
00000250: dab8 6a3d 3dff 623e dd05 bebe 82a1 04bc
00000260: 2d61 84be 1c7e 93be 4e14 123e 95d5 bdbd
00000270: db12 20be 0abe 77bc 409a 8fbb f057 e9bd
00000280: 16c4 52be 97b3 e5bd fe78 64be 943e 67be
00000290: 8d26 543d 6943 003e 6074 45bd 1873 57bd
000002a0: b9c8 d0bc c645 e6bd 3278 113d ee92 cabd
000002b0: 9cd4 98bd 6468 a33c 57b0 97bc 508f 0bbe
000002c0: 9ebf b6be 4525 83be 71c3 8ebe 530d ef3b
000002d0: b9a3 8abe 2b46 5dbe b2a3 643e ce9c b13d
000002e0: 7711 a8bd ccfe 143e a207 82bc 403b c9bb
000002f0: 8491 58be 676e 46be 7efa 68be c6fd a1be
00000300: 03b2 b7bd 3636 4c3e 11ee 303e e322 b73e
00000310: f960 d53c f7eb 88bd 6070 6ebc 5299 a9bd
00000320: 50a1 3fbe 22fa 86bc cf38 f83d 0645 cabe
00000330: d7dd 8a3d 2e36 fcbc 7eff a9be d6c4 c3be
00000340: b2a3 b53e 78ca 44be 0b7f 48bd 666f 15bd
00000350: 007a 5dbe 624c 15be 0ea2 91be e4b7 39be
00000360: 7aee 8ebe bcb4 383e f510 513e 275f 703e
00000370: 8f2e a2bd 35a9 02be 8c41 4c3e 9f0a 34be
00000380: f043 a2bd 80db 833a 9a65 e83d f526 7dbe
00000390: 1b4c 9abd 41ba e63d 256b ca3d a6a9 a7be
000003a0: 3a63 adbe c4b7 223e 205e 553d 20b0 7b3e
000003b0: 354e 74be cd35 8fbe c791 b0be 4bb8 6abe
000003c0: 622c b8bd 6f86 56bd b861 26bd a8b4 fcbc
000003d0: 2647 4abe 762c 08be 2f90 3ebe 00f1 d73a
000003e0: a786 003e 432c 023e 8451 50bd d4fc 7bbe
000003f0: ca95 95bb 0cfd a2be 22b1 8ebe d4c3 20be

pos_net.linears.1.bias f4 [30]
-0.021443902 -0.148755 0.11326803 0.120907664 0.06652948 0.009236115 0.03875657 -0.19746204
-0.26053932 -0.14638658 0.045537084 0.13596357 -0.079406634 0.10073316 0.09489508 -0.14461431
-0.19407588 -0.045082815 -0.024510741 -0.024781337 0.17648758 0.19979244 -0.007926833 -0.052113958
-0.1702966 -0.0982847 -0.06578302 0.07127816 -0.005976611 -0.0842724
00000000: 1fab afbc 3b53 18be 12f9 e73d 709e f73d
00000010: 9c40 883d 1353 173c 36bf 1e3d 7d33 4abe
00000020: 6965 85be 5de6 15be 1885 3a3d 093a 0b3e
00000030: f29f a2bd 304d ce3d 5a58 c23d c615 14be
00000040: d4bb 46be c2a8 38bd c0ca c8bc 3b02 cbbc
00000050: 29b9 343e 6496 4c3e 8cdf 01bc 7275 55bd
00000060: 3b62 2ebe 7d49 c9bd 3fb9 86bd 49fa 913d
00000070: 72d7 c3bb 0297 acbd

pos_net.linears.2.weight f4 [30, 30]
-0.23937099 0.22805206 -0.11837722 0.007844664 -0.17676616 -0.06984489 -0.22114804 0.11561025
-0.1041255 0.14650275 -0.06263361 -0.04229734 -0.28348503 -0.19819185 -0.06065502 -0.14060616
-0.011173431 -0.12291686 -0.23129512 -0.26775983 -0.115364954 -0.084420465 0.06051466 0.029769365
0.08711923 -0.060499556 0.17242822 -0.14551598 0.20002805 0.0268735 0.029845884 0.2385301
0.15845507 0.23164319 0.14576681 0.0135379955 0.124176085 0.15717977 0.06621959 -0.21744975
-0.051165685 0.025744129 -0.24996774 -0.03396289 -0.0034830095 0.03727783 0.17970939 0.05263611
0.04481261 0.27123058 0.11681785 0.1681365 -0.12646423 0.046133094 -0.10211662 -0.14329739
0.017624803 0.1706274 -0.048601326 -0.15915132 -0.21165557 -0.101800054 -0.28069636 -0.28133968
-0.2927866 -0.19938926 -0.022722296 -0.13060972 -0.08801759 -0.08006214 -0.04894631 -0.2857948
0.037941583 -0.30100277 -0.32109565 -0.10296461 -0.097057894 -0.047676682 -0.21841347 -0.11028837
-0.3588141 -0.26669705 -0.091591194 -0.081868574 -0.011126816 0.093458265 -0.029887667 -0.10812172
-0.2199544 0.08158884 -0.14734922 0.12700775 -0.2922329 0.0038997335 0.15774477 0.20086275
-0.1354796 0.06850261 0.10203281 0.30659184 -0.033832327 0.05531431 -0.0567851 -0.21135852
0.04975461 0.32931992 -0.09385058 0.11799399 -0.1988303 0.29362214 0.15111567 -0.15765193
0.11501647 0.14670353 0.118053116 0.33184114 -0.015386738 -0.014290653 0.12593305 0.17655858
-0.02346659 -0.09244357 0.053032752 -0.07562952 0.0043124445 0.042527523 -0.096224524 0.07453264
-0.12440145 0.05744856 -0.17902932 -0.0799562 0.021771675 -0.118789285 0.051651817 -0.0066046435
0.037681203 -0.05671202 -0.08358881 0.0074745994 -0.14359571 0.01406176 0.06295737 -0.07520865
0.06491259 -0.009991923 -0.10481538 -0.12450136 -0.047558043 0.020134484 0.008138219 0.049255665
0.037803438 0.05972881 -0.15171689 -0.13839403 -0.15704174 -0.026708858 -0.033885483 -0.090309076
-0.13017921 -0.26136798 -0.15923584 -0.12577808 -0.16899316 -0.098885365 -0.030393021 -0.16204846
-0.15837806 -0.1478329 -0.17197686 -0.068080865 -0.09778986 -0.036782064 -0.011809295 -0.08909738
-0.085612 -0.041310064 -0.16476357 -0.15291724 0.07368613 0.05211317 0.27085388 -0.07516133
0.2046911 -0.17815386 0.41708487 -0.1161059 -0.20267722 -0.31158626 -0.07501516 -0.22430402
-0.11766027 0.046407104 0.40802005 -0.21715921 0.095984876 -0.21056198 0.46105224 -0.026606712
0.16002463 0.08674358 -0.03659536 -0.07495014 -0.13015728 -0.10034107 -0.07712514 -0.23682557
-0.28600004 -0.009617779 0.055981167 -0.053977072 -0.010808522 -0.025913225 -0.14811067 -0.08478232
-0.02311765 -0.055746395 0.08663007 -0.079904705 -0.09936881 -0.07091411 -0.14592272 -0.0432935
0.07822548 -0.042598475 -0.029463783 -0.0951421 -0.094945304 0.0150716435 -0.09790757 0.07104417
-0.13149542 -0.026773758 -0.004199138 0.018023858 -0.096114814 -0.11882803 -0.115965106 -0.10272634
-0.2086955 -0.09813988 -0.09704444 0.030365676 -0.08328878 -0.20622645 -0.26221237 -0.3181749
-0.12259113 -0.024324685 -0.12915339 0.084627606 -0.15987536 -0.19084758 -0.03345822 -0.3053352
00000000: ab1d 75be 7b86 693e c26f f2bd e886 003c
00000010: 3002 35be d60a 8fbd a274 62be 11c5 ec3d
00000020: c03f d5bd d104 163e 0d46 80bd fa3f 2dbd
00000030: f324 91be cef2 4abe 6671 78bd 10fb 0fbe
00000040: c410 37bc d6bb fbbd a1d8 6cbe d117 89be
00000050: 7644 ecbd a3e4 acbd 38de 773d e2de f33c
00000060: 916b b23d 62ce 77bd 0691 303e 2402 15be
00000070: 27d4 4c3e d025 dc3c 5b7f f43c 3c41 743e
00000080: 0c42 223e df33 6d3e e543 153e 78ce 5d3c
00000090: 0850 fe3d bcf3 203e 239e 873d 26ab 5ebe
000000a0: 1c93 51bd 5ae5 d23c 8bf7 7fbe ac1c 0bbd
000000b0: 3443 64bb a3b0 183d bd05 383e f698 573d
000000c0: 6d8d 373d bcde 8a3e 323e ef3d fa2b 2c3e
000000d0: d77f 01be 0ef6 3c3d 8522 d1bd 8dbc 12be
000000e0: e461 903c f3b8 2e3e 2f12 47bd 90f8 22be
000000f0: 3dbc 58be 8c7c d0bd 6fb7 8fbe c10b 90be
00000100: 20e8 95be b32c 4cbe 1c24 babc 8ebe 05be
00000110: 9142 b4bd 9ff7 a3bd ed7b 48bd b253 92be
00000120: a268 1b3d 091d 9abe a666 a4be 1cdf d2bd
00000130: 4ac6 c6bd a048 43bd c8a7 5fbe dede e1bd
00000140: 7bb6 b7be 848c 88be 2a94 bbbd b6aa a7bd
00000150: 404d 36bc 0c67 bf3d fbd6 f4bc ec6e ddbd
00000160: ba3b 61be 0d18 a73d b7e2 16be 520e 023e
00000170: 8d9f 95be ac92 7f3b d887 213e f7ae 4d3e
00000180: 2abb 0abe 194b 8c3d 94f6 d03d 9bf9 9c3e
00000190: c493 0abd 4291 623d 7e97 68bd 5e6e 58be
000001a0: 7dcb 4b3d 9f9c a83e bc34 c0bd d5a6 f13d
000001b0: 2c9a 4bbe a455 963e 11be 1a3e 826f 21be
000001c0: c18d eb3d 7339 163e d5c5 f13d 15e7 a93e
000001d0: a818 7cbc 5823 6abc 98f4 003e c6cb 343e
000001e0: 023d c0bc 0e53 bdbd df38 593d a6e3 9abd
000001f0: 684f 8d3b 5731 2e3d 5d11 c5bd 92a4 983d
00000200: 30c6 febd 2e4f 6b3d 7653 37be 14c0 a3bd
00000210: 835a b23c cc47 f3bd db90 533d c46b d8bb
00000220: 9b57 1a3d dd4a 68bd 9c30 abbd 7ced f43b
00000230: c10a 13be 4c63 663c cbef 803d fe06 9abd
00000240: e4f0 843d 2ab5 23bc 72a9 d6bd 92fa febd
00000250: 39cc 42bd 13f1 a43c 2a56 053c 4fc0 493d
00000260: c7d7 1a3d 32a6 743d ac5b 1bbe 2ab7 0dbe
00000270: 8dcf 20be 89cc dabc 81cb 0abd f7f3 b8bd
00000280: b34d 05be 06d2 85be b80e 23be f8cb 00be
00000290: 8b0c 2dbe 6984 cabd c9fa f8bc 08f0 25be
000002a0: dc2d 22be 8261 17be b41a 30be fb6d 8bbd
000002b0: 0d46 c8bd caa8 16bd c67b 41bc b078 b6bd
000002c0: 5855 afbd be34 29bd c8b7 28be 5696 1cbe
000002d0: c1e8 963d 9f74 553d 5cad 8a3e 2fee 99bd
000002e0: 8b9a 513e f76d 36be 268c d53e eec8 edbd
000002f0: 9e8a 4fbe 3c88 9fbe 8ca1 99bd f4af 65be
00000300: def7 f0bd 6015 3e3d 01e8 d03e fc5e 5ebe
00000310: b893 c43d 8f9d 57be 0a0f ec3e 52f6 d9bc
00000320: 7fdd 233e 9ea6 b13d 04e5 15bd 767f 99bd
00000330: f347 05be 9e7f cdbd c9f3 9dbd 6782 72be
00000340: 996e 92be e493 1dbc 824c 653d 1017 5dbd
00000350: 3a16 31bc f947 d4bc 53aa 17be 5aa2 adbd
00000360: 3a61 bdbc 5556 64bd 1b6b b13d 14a5 a3bd
00000370: e081 cbbd 6b3b 91bd c46c 15be 8654 31bd
00000380: ae34 a03d bd7b 2ebd 085e f1bc dcd9 c2bd
00000390: af72 c2bd 0eef 763c c483 c8bd 9b7f 913d
000003a0: bca6 06be a454 dbbc ec98 89bb c5a6 933c
000003b0: d8d7 c4bd 1c5c f3bd 1d7f edbd 3062 d2bd
000003c0: 46b4 55be 90fd c8bd 3cbf c6bd 70c1 f83c
000003d0: 4f93 aabd 072d 53be b340 86be d2e7 a2be
000003e0: 0f11 fbbd 9044 c7bc c940 04be 3d51 ad3d
000003f0: 5eb6 23be 8c6d 43be 7d0b 09bd e554 9cbe

pos_net.linears.2.bias f4 [30]
-0.31832156 0.13442019 -0.1380872 0.063914806 -0.11391683 -0.18696854 0.024365302 -0.14406022
-0.11287742 0.072698645 -0.18952064 -0.14634992 -0.039242905 0.035518177 0.07344841 -0.09286031
-0.26145807 -0.16260643 0.024589276 -0.07871637 0.16251124 -0.36817583 0.0075452467 0.057631847
-0.12908047 0.18995926 -0.23584436 -0.11488587 0.20311336 -0.19379932
00000000: 0bfb a2be 72a5 093e bb66 0dbe c4e5 823d
00000010: 3a4d e9bd ae74 3fbe be99 c73c 8684 13be
00000020: 472c e7bd 07e3 943d b311 42be c1dc 15be
00000030: 2bbd 20bd 827b 113d 1f6c 963d 8c2d bebd
00000040: d5dd 85be 4d82 26be 736f c93c 0c36 a1bd
00000050: 5969 263e 8b81 bcbe 1e3e f73b 5f0f 6c3d
00000060: ac2d 04be ae84 423e 2f81 71be 4849 ebbd
00000070: f3fc 4f3e 5473 46be

pos_net.output_layer.weight f4 [6, 30]
0.07358838 0.17762816 0.12890351 -0.28353912 0.07882992 -0.11365429 0.046383813 -0.11979629
0.2660697 -0.07474064 -0.123379834 -0.095540926 -0.14551055 0.17324913 0.08808106 0.19015059
0.08032052 -0.12121953 -0.0350293 0.25457773 -0.11328029 -0.06757763 0.00023623742 -0.051811673
-0.050977886 0.3140476 0.15126035 0.11383364 0.1248465 0.2056502 -0.31246477 0.060770486
0.11417627 -0.07578811 0.08278133 0.17942685 -0.3291919 0.09795234 0.024780888 0.05013246
0.083643794 -0.16657385 -0.2241388 0.37857756 0.14395772 0.23460823 0.17682573 0.121688694
0.29684693 0.08040196 -0.17125008 0.014013281 0.3500178 -0.06169966 0.2052221 -0.26967913
-0.070764706 0.111077644 0.26354623 0.09445846 -0.2979861 -0.20472378 -0.039685044 -0.014946321
-0.107233405 -0.086716406 0.059103355 0.017018225 0.12644601 0.08490313 0.08030588 0.032788813
-0.0836318 0.28143722 0.049003456 0.0364891 0.009935891 -0.2876914 -0.024460487 -0.0565565
-0.059121847 0.00074473396 0.2146646 -0.34301403 -0.31210673 0.17270665 -0.1072211 -0.16799907
0.06194473 0.14898363 0.13530606 0.14743671 0.05597634 0.04203197 0.08155825 0.06781809
-0.22446656 0.07932029 0.1222249 0.17374246 0.08287506 0.044453245 0.027734442 -0.21256442
-0.24423547 -0.0013071075 -0.072859734 0.29299438 0.22403063 0.2351763 0.09494856 -0.026335657
0.024215173 0.20282601 -0.05948858 0.09432995 0.17757608 0.28248233 -0.21825266 0.18515301
0.04150278 0.10381423 0.09163915 -0.28480378 0.08115277 -0.05144947 0.44818467 0.0861084
-0.16775812 -0.150394 -0.024958892 0.065672286 -0.042068377 0.09151429 0.23623379 0.15732408
0.08078131 -0.043388177 -0.23449986 -0.26616523 0.028761452 -0.06340929 -0.13947833 -0.12764412
-0.05982966 0.1653792 0.12970409 -0.044737004 0.18224928 0.048015248 0.26899633 0.033537112
0.14371467 0.27331764 0.10037532 -0.13147207 -0.35995927 0.061480105 -0.12798478 -0.350008
-0.07860111 -0.30261022 0.22578433 0.039236896 -0.18269756 -0.056147307 -0.03657938 -0.09200748
-0.26277187 -0.052382775 -0.14182527 -0.08239031 -0.15951037 0.3158487 0.037571672 0.07705507
-0.23226324 0.19578783 0.2888026 0.21650134
00000000: 81b5 963d 28e4 353e 48ff 033e 0a2c 91be
00000010: 9571 a13d 95c3 e8bd f4fc 3d3d c257 f5bd
00000020: 4a3a 883e 9f11 99bd 91ae fcbd f6aa c3bd
00000030: b800 15be 3868 313e d863 b43d d6b6 423e
00000040: 167f a43d f241 f8bd e27a 0fbd 0358 823e
00000050: 7fff e7bd 2466 8abd 80b6 7739 7a38 54bd
00000060: 30ce 50bd d9ca a03e fee3 1a3e 9d21 e93d
00000070: 86af ff3d f795 523e 62fb 9fbe 79ea 783d
00000080: 40d5 e93d cc36 9bbd 4289 a93d acbb 373e
00000090: d78b a8be 3d9b c83d 4a01 cb3c b257 4d3d
000000a0: 704d ab3d 5692 2abe a484 65be ebd4 c13e
000000b0: a769 133e 243d 703e ce11 353e ec37 f93d
000000c0: 52fc 973e c8a9 a43d 2e5c 2fbe f697 653c
000000d0: 8835 b33e c8b8 7cbd be25 523e 6213 8abe
000000e0: 16ed 90bd ad7c e33d 88ef 863e 7073 c13d
000000f0: a291 98be 1ca3 51be c98c 22bd 6ae1 74bc
00000100: 309d dbbd 5f98 b1bd 5c16 723d ce69 8b3c
00000110: 107b 013e b1e1 ad3d 6977 a43d 904d 063d
00000120: 2647 abbd 8a18 903e d9b7 483d 9875 153d
00000130: 26ca 223c 4a4c 93be 5c61 c8bc caa7 67bd
00000140: c029 72bd 403a 433a 09d1 5b3e 899f afbe
00000150: 74cc 9fbe 03da 303e bc96 dbbd f307 2cbe
00000160: c2b9 7d3d 2a8f 183e ac8d 0a3e a6f9 163e
00000170: 7247 653d b729 2c3d 0308 a73d 36e4 8a3d
00000180: 90da 65be ad72 a23d 0c51 fa3d 8be9 313e
00000190: 66ba a93d 9b14 363d 5733 e33c 7daa 59be
000001a0: dd18 7abe 4053 abba 7c37 95bd 5c03 963e
000001b0: 4968 653e 0ed2 703e 6474 c23d e0bd d7bc
000001c0: e65e c63c 9fb1 4f3e 4caa 73bd 1030 c13d
000001d0: 81d6 353e 86a1 903e a07d 5fbe c098 3d3e
000001e0: d2fe 293d 8e9c d43d 4fad bb3d cdd1 91be
000001f0: 6c33 a63d aebc 52bd 7678 e53e 9a59 b03d
00000200: c9c8 2bbe e200 1abe 9776 ccbc 317f 863d
00000210: e44f 2cbd d86b bb3d 45e7 713e 9019 213e
00000220: ac70 a53d cdb7 31bd bb20 70be cf46 88be
00000230: 239d eb3c bbdc 81bd 68d3 0ebe 24b5 02be
00000240: f20f 75bd 2a59 293e 26d1 043e 263e 37bd
00000250: 8e9f 3a3e a3ab 443d e3b9 893e 365e 093d
00000260: f029 133e 4af0 8b3e 9391 cd3d 9da0 06be
00000270: 954c b8be 90d2 7b3d 710e 03be 4034 b3be
00000280: 9ef9 a0bd baef 9abe 0234 673e deb6 203d
00000290: 1215 3bbe b8fa 65bd 43d4 15bd 6b6e bcbd
000002a0: 098a 86be 528f 56bd a53a 11be 40bc a8bd
000002b0: b056 23be ecb6 a13e c1e4 193d 0ccf 9d3d
000002c0: 6ad6 6dbe 9b7c 483e efdd 933e 87b2 5d3e

pos_net.output_layer.bias f4 [6]
-0.08656178 -0.009785588 -0.10369487 0.26994404 0.2500885 -0.13573256
00000000: 4d47 b1bd bb53 20bc fa5d d4bd 1b36 8a3e
00000010: 9a0b 803e 7afd 0abe

neg_net.linears.0.weight f4 [30, 12]
0.38112637 0.08349771 0.2699109 -0.3396325 -0.06760833 -0.21688251 -0.014115531 -0.07487557
-0.04551486 0.27512228 -0.17959295 0.015267216 -0.21955642 0.08981988 -0.06957397 0.10577984
-0.2587885 -0.082622245 -0.008347365 -0.067791924 -0.15427859 0.31826723 -0.39023754 -0.081532195
0.17060749 -0.3100685 0.20952578 0.28952745 -0.03118058 -0.027757514 -0.065713674 -0.12450327
0.12200242 -0.3606874 -0.059594046 0.14369209 -0.025891017 -0.30098015 -0.11905318 0.10291239
0.30253834 0.2667598 -0.08407316 0.19578442 -0.04283303 0.33896223 -0.028871693 0.034247056
0.34771353 0.09680186 -0.014532734 -0.1822354 0.035503224 0.16277222 -0.056538966 0.112530135
0.28077868 0.22983605 -0.3123075 0.50060415 0.25782293 0.3553858 0.2853378 -0.2086488
-0.085895605 -0.07144456 -0.20358504 -0.17061141 -0.024810167 0.13925186 -0.29749772 -0.10855225
0.044962913 0.08758332 0.17579919 0.49425837 -0.2142223 0.23565345 -0.022060452 -0.09403467
-0.1658487 -0.39362112 -0.022502597 -0.2584892 -0.09876853 0.3996584 -0.1032062 -0.14308055
0.27426666 0.08887284 0.20032379 -0.28244242 0.121074215 0.27039975 -0.19704771 -0.06253196
-0.12709925 -0.02289325 0.0286052 0.36038828 -0.06492191 -0.07915808 0.15291469 -0.158534
0.013440978 0.17519882 -0.081535086 -0.3115574 0.15830234 -0.21775699 -0.12558343 0.18109316
0.06403009 0.005827047 -0.022925436 0.10623313 -0.48089346 -0.45800966 0.2796379 -0.04435017
-0.239721 0.25338632 0.32026315 0.3916163 -0.19212317 -0.25665483 -0.074530385 0.32481992
0.06445495 -0.050409555 -0.21851335 0.16987708 -0.3416889 -0.17416297 0.05126039 -0.047887567
-0.07382565 0.038944956 -0.024093311 0.30000257 0.29376993 -0.06769592 -0.20145981 -0.14849289
-0.19703436 0.006396398 0.033737097 -0.36272582 0.009400017 0.32926235 -0.1009609 0.21940261
-0.19576901 0.2072727 -0.22371028 -0.33731598 -0.1564997 -0.15879291 0.26294684 0.36048198
-0.41629165 0.22494008 0.12913689 0.17069575 0.012640329 -0.19171558 -0.11978248 0.2238223
0.34456187 -0.15374765 -0.3084343 -0.3312077 -0.041329008 -0.27560222 0.1559681 0.22710611
-0.2532481 -0.14938685 0.017536506 -0.14840153 -0.2186833 0.24879162 0.29450673 0.2521087
-0.07233611 -0.14757717 -0.1202593 -0.14339966 -0.23945038 0.08042565 -0.1633686 0.01764004
-0.31089967 0.14155525 0.00063268095 -0.56398696 0.10426292 0.3216172 -0.016494734 0.06305753
0.45106304 0.22008666 -0.06445068 0.002762217 -0.066288695 -0.10468908 0.1250022 0.43064988
-0.014660817 0.19636093 -0.10259738 0.08104975 -0.17506416 -0.08850387 -0.22732343 -0.016108613
-0.3962805 -0.3101235 -0.036598403 -0.25852114 0.13216622 -0.29854134 -0.2692134 -0.0044769347
0.23065192 0.037406296 0.2943465 -0.1317523 -0.2804086 0.118989214 0.057097707 0.3256874
0.33065605 -0.37761134 0.12002916 -0.392813 0.025694512 -0.4080934 -0.18609229 -0.22043775
0.29052103 0.22817285 -0.33601695 -0.3441858 0.26086205 -0.06139599 0.15990797 0.3047473
-0.21374238 -0.18524095 0.13589409 0.29620975 -0.062499687 -0.40352938 -0.5585856 0.08950868
00000000: ff22 c33e d900 ab3d c331 8a3e 50e4 adbe
00000010: 3c76 8abd 7316 5ebe d444 67bc 5d58 99bd
00000020: ca6d 3abd d4dc 8c3e 37e7 37be 5823 7a3c
00000030: 66d3 60be 7cf3 b73d cc7c 8ebd 1aa3 d83d
00000040: ed7f 84be da35 a9bd 63c3 08bc 7ed6 8abd
00000050: 35fb 1dbe ecf3 a23e 37cd c7be 5afa a6bd
00000060: bbb3 2e3e 4cc1 9ebe ed8d 563e f13c 943e
00000070: 6a6e ffbc ba63 e3bc e494 86bd 92fb febd
00000080: 68dc f93d 05ac b8be e318 74bd 0524 133e
00000090: 6619 d4bc 121a 9abe 27d2 f3bd bbc3 d23d
000000a0: 4ee6 9a3e be94 883e 8d2e acbd b67b 483e
000000b0: b071 2fbd 758c ad3e 5484 ecbc a446 0c3d
000000c0: 8207 b23e 0e40 c63d b41a 6ebc eb9b 3abe
000000d0: d46b 113d c3ad 263e 6795 67bd 3376 e63d
000000e0: 39c2 8f3e 245a 6b3e c5e6 9fbe 9827 003f
000000f0: 5e01 843e 21f5 b53e cc17 923e 08a8 55be
00000100: 09ea afbd 8751 92bd 9978 50be c2b4 2ebe
00000110: b13e cbbc 0a98 0e3e 9f51 98be a450 debd
00000120: 082b 383d e25e b33d b404 343e 6f0f fd3e
00000130: 175d 5bbe 234f 713e 1fb8 b4bc 4095 c0bd
00000140: 3ed4 29be b588 c9be 5e57 b8bc b258 84be
00000150: 2847 cabd 07a0 cc3e c65d d3bd b583 12be
00000160: ae6c 8c3e f702 b63d ae21 4d3e 4b9c 90be
00000170: c2f5 f73d d671 8a3e e0c6 49be c210 80bd
00000180: 4e26 02be a08a bbbc 7455 ea3c d084 b83e
00000190: c7f5 84bd a21d a2bd ab95 1c3e bd56 22be
000001a0: 8c37 5c3c 5267 333e defb a6bd 7484 9fbe
000001b0: 021a 223e b0fb 5ebe f198 00be 7c70 393e
000001c0: 3522 833d d0f0 be3b 20ce bbbc c190 d93d
000001d0: ab37 f6be 3e80 eabe b32c 8f3e 86a8 35bd
000001e0: 6c79 75be dabb 813e 88f9 a33e ef81 c83e
000001f0: f0bb 44be 4368 83be 63a3 98bd cc4e a63e
00000200: f500 843d 407a 4ebd f7c1 5fbe 42f4 2d3e
00000210: d9f1 aebe c757 32be 6af6 513d c125 44bd
00000220: e731 97bd bf84 1f3d 565f c5bc f099 993e
00000230: 0369 963e 29a4 8abd 7b4b 4ebe 850e 18be
00000240: 60c3 49be e098 d13b e92f 0a3d 33b7 b9be
00000250: 8702 1a3c 1395 a83e 97c4 cebd 14ab 603e
00000260: ac77 48be 4b3f 543e 4f14 65be aeb4 acbe
00000270: 7541 20be 9c9a 22be f8a0 863e 1891 b83e
00000280: 2e24 d5be b156 663e 763c 043e deca 2e3e
00000290: 6219 4f3c 1751 44be 8450 f5bd ac31 653e
000002a0: 6a6a b03e 0670 1dbe 1aeb 9dbe 0e94 a9be
000002b0: 9b48 29bd bc1b 8dbe 1ab6 1f3e 818e 683e
000002c0: bca9 81be def8 18be b8a8 8f3c 92f6 17be
000002d0: 84ee 5fbe 3bc3 7e3e 96c9 963e 6414 813e
000002e0: f424 94bd 781e 17be 824a f6bd 5cd7 12be
000002f0: 7b32 75be 34b6 a43d 194a 27be d881 903c
00000300: 3e2e 9fbe dcf3 103e 80da 253a 7361 10bf
00000310: cc87 d53d 02ab a43e f71f 87bc 4e24 813d
00000320: bcf1 e63e 665e 613e b8fe 83bd 5006 353b
00000330: 5ec2 87bd 3a67 d6bd 9400 003e 247e dc3e
00000340: ec33 70bc d712 493e 931e d2bd 69fd a53d
00000350: 0544 33be 8441 b5bd 79c7 68be 36f6 83bc
00000360: 47e5 cabe 82c8 9ebe 35e8 15bd e25c 84be
00000370: 9556 073e 69da 98be 57d6 89be 40b3 92bb
00000380: 0430 6c3e 5837 193d 96b4 963e 13ea 06be
00000390: b791 8fbe 9eb0 f33d 49df 693d 80c0 a63e
000003a0: c04b a93e 4656 c1be d9d1 f53d c91e c9be
000003b0: 4c7d d23c 9ef1 d0be fa8e 3ebe 6fba 61be
000003c0: 2cbf 943e 25a6 693e 6a0a acbe 1f39 b0be
000003d0: b68f 853e 5d7a 7bbd eabe 233e d707 9c3e
000003e0: 48df 5abe ceaf 3dbe d227 0b3e cea8 973e
000003f0: acff 7fbd 679b cebe 77ff 0ebf 5450 b73d

neg_net.linears.0.bias f4 [30]
0.0058556506 -0.036820337 -0.066540025 0.15705445 0.014419243 -0.18239132 0.17745161 0.11066985
-0.1524495 0.15741538 0.033766463 -0.102997035 -0.1945958 -0.19281459 -0.03770519 -0.004226949
0.22336558 -0.06975003 -0.22417396 0.039771482 0.27494282 0.1479048 -0.17963102 -0.17808539
-0.27274367 0.013450779 -0.11994524 -0.021550369 -0.10633029 0.013572753
00000000: c2e0 bf3b ecd0 16bd 2346 88bd e2d2 203e
00000010: b03e 6c3c cac4 3abe e0b5 353e e0a6 e23d
00000020: b91b 1cbe 7f31 213e b44e 0a3d 1cf0 d2bd
00000030: 1f44 47be 3071 45be c270 1abd 3882 8abb
00000040: f2b9 643e 1bd9 8ebd dc8d 65be 6ce7 223d
00000050: 4ec5 8c3e 5b74 173e 32f1 37be 045c 36be
00000060: 0fa5 8bbe a860 5c3c daa5 f5bd 668a b0bc
00000070: b2c3 d9bd 4160 5e3c

neg_net.linears.1.weight f4 [30, 30]
-0.00956136 0.12885942 -0.08158238 -0.03710749 -0.15751255 -0.31756568 -0.21923216 0.12409273
-0.23355699 0.021083666 -0.43984535 -0.049753763 0.090849094 0.19121847 0.01908426 -0.12161799
0.16483217 -0.081684306 0.11683532 -0.25960097 0.020241857 0.047166772 -0.06130462 -0.20658648
0.09193279 -0.3473169 0.20262921 -0.2922979 0.0051467624 -0.2615911 -0.10978269 0.13708708
-0.26528934 -0.30915013 0.16644567 -0.12355805 -0.018632267 0.029560322 -0.101021506 -0.22160119
-0.17064556 -0.26853478 0.022435205 -0.22096863 -0.078615874 -0.064207956 0.36626172 -0.076114565
-0.084278576 -0.14993343 0.18829465 -0.13165458 -0.1422385 -0.3158969 -0.03264738 -0.10861942
0.09661911 -0.283588 -0.1400226 -0.051218323 -0.27714133 -0.2194899 0.05273415 0.06310344
-0.17653935 -0.08503599 0.16166562 -0.31236276 -0.23671679 -0.06723747 -0.26612186 -0.08223607
-0.2747164 0.114448875 -0.23761302 -0.14545873 -0.19420782 0.24181974 -0.22217429 -0.3505918
-0.21938986 0.08389259 0.09272365 -0.014854992 -0.012034746 -0.05546864 -0.12616205 -0.17414609
0.11667504 -0.19102737 0.117168516 0.053716306 0.2636302 -0.18337256 -0.15141779 0.17311218
0.1987404 -0.37924433 0.008784488 -0.07617907 0.12649426 -0.05265657 0.06623209 0.03465633
-0.042002805 0.17802551 -0.35033202 0.07637591 -0.055864386 0.20834848 -0.14022021 -0.15733528
-0.019102834 -0.06683933 0.31480828 -0.39848202 -0.22599374 0.078739464 -0.20822619 -0.2483511
0.19080612 0.13710925 -0.10363197 0.066589125 -0.052038327 -0.29045454 -0.30119145 0.072333686
-0.2554565 -0.1277812 -0.12295762 0.19971587 0.2017087 -0.16963094 0.112988874 -0.13801283
0.20314583 -0.28022146 0.16032092 -0.167743 0.012029409 -0.21232575 -0.2125062 -0.18722925
-0.16454113 0.025965447 0.1991994 -0.27401367 0.32246315 0.135632 -0.19028279 -0.13896559
-0.26406235 -0.15479411 -0.027460648 -0.26308954 -0.115950815 0.16536139 -0.1264561 0.20542336
-0.20423205 0.07808134 0.12907684 -0.27453744 0.339783 0.0050978214 0.19879915 -0.3093181
0.3699286 0.15357953 0.12331108 0.3525793 0.19903502 -0.07323383 0.16933626 -0.06602748
0.2942795 -0.24051829 0.3445672 0.04835203 -0.014120951 0.11669065 0.047674865 -0.02109868
-0.14918143 -0.07536067 0.15994212 0.05318033 0.25717217 -0.06144455 0.15463775 -0.14359155
0.05105769 0.16262116 -0.22336443 0.15133421 -0.32052445 -0.015819862 -0.01081674 0.16141778
-0.16458847 -0.15881287 0.026677363 -0.088913836 -0.11687184 0.013272032 -0.018438805 -0.10044648
-0.2647151 -0.14040442 -0.18306784 -0.20341471 0.03826189 -0.22439869 -0.28116274 -0.07971389
-0.17132768 -0.1449955 0.055706657 -0.30676642 -0.21802187 -0.19343497 -0.1307691 0.068401776
-0.048151195 -0.28135934 -0.20146497 -0.26554048 -0.18663235 -0.13860428 -0.16074066 -0.07203729
-0.10192642 0.0039260127 -0.03089447 -0.13037753 -0.2313155 -0.24848478 -0.06683346 -0.097445846
-0.0017889943 0.012268014 -0.06282397 -0.043533966 0.3407234 -0.033443224 -0.1626995 -0.019545682
-0.17368792 -0.32299742 -0.15852238 0.076929286 0.030708829 -0.07997452 0.28541812 0.036214888
00000000: 40a7 1cbc b9f3 033e aa14 a7bd 06fe 17bd
00000010: f84a 21be f897 a2be 657e 60be 5424 fe3d
00000020: 9029 6fbe a7b7 ac3c 6933 e1be 9aca 4bbd
00000030: 170f ba3d c6ce 433e 9856 9c3c da12 f9bd
00000040: c4c9 283e 1a4a a7bd 5b47 ef3d 6bea 84be
00000050: 40d2 a53c f231 413d 8e1a 7bbd 688b 53be
00000060: 4247 bc3d 85d3 b1be 087e 4f3e 12a8 95be
00000070: 2ca6 a83b 45ef 85be bfd5 e0bd 8e60 0c3e
00000080: 01d4 87be ed48 9ebe bc70 2a3e 010c fdbd
00000090: b2a2 98bc 7d28 f23c 5de4 cebd 6ceb 62be
000000a0: b6bd 2ebe 647d 89be 09ca b73c 9a45 62be
000000b0: 5c01 a1bd 767f 83bd a886 bb3e f4e1 9bbd
000000c0: 3f9a acbd 2688 19be 50d0 403e 75d0 06be
000000d0: f8a6 11be 3dbd a1be 42b9 05bd dc73 debd
000000e0: 3de0 c53d 7232 91be 1662 0fbe 4eca 51bd
000000f0: 78e5 8dbe f6c1 60be c4ff 573d 603c 813d
00000100: bbc6 34be 5927 aebd ac8b 253e 03ee 9fbe
00000110: e365 72be ccb3 89bd 2041 88be 626b a8bd
00000120: a1a7 8cbe 2c64 ea3d d450 73be 22f3 14be
00000130: 6ade 46be 989f 773e a881 63be c580 b3be
00000140: bca7 60be e1cf ab3d e6e5 bd3d 5a62 73bc
00000150: 622d 45bc 1633 63bd a030 01be 5a53 32be
00000160: 53f3 ee3d ae9c 43be 0cf6 ef3d a105 5c3d
00000170: 8afa 863e 04c6 3bbe 440d 1bbe 5244 313e
00000180: 9a82 4b3e 502c c2be d0ec 0f3c c603 9cbd
00000190: b687 013e 6aae 57bd b1a4 873d ccf3 0d3d
000001a0: 220b 2cbd 524c 363e b85e b3be f96a 9c3d
000001b0: 0ed2 64bd 4e59 553e e395 0fbe 801c 21be
000001c0: 8c7d 9cbc 0fe3 88bd 8d2e a13e d605 ccbe
000001d0: e76a 67be 2842 a13d 3f39 55be c04f 7ebe
000001e0: ae62 433e 5e66 0c3e 003d d4bd e15f 883d
000001f0: 2426 55bd 75b6 94be c435 9abe af23 943d
00000200: 32cb 82be 13d9 02be 34d1 fbbd 5182 4c3e
00000210: ba8c 4e3e bcb3 2dbe b666 e73d 3c53 0dbe
00000220: 7605 503e 3079 8fbe 2b2b 243e d2c4 2bbe
00000230: 0017 453c ec6b 59be 3a9b 59be 06b9 3fbe
00000240: 787d 28be 7db5 d43c edfa 4b3e 854b 8cbe
00000250: e419 a53e 1de3 0a3e 7ed9 42be ff4c 0ebe
00000260: 2e33 87be 5982 1ebe 27f5 e0bc acb3 86be
00000270: 9f77 edbd 7f54 293e b57d 01be 805a 523e
00000280: 3522 51be 1ce9 9f3d b82c 043e 2c90 8cbe
00000290: 0af8 ad3e a00b a73b 0192 4b3e f15e 9ebe
000002a0: 4867 bd3e f443 1d3e 858a fc3d 4685 b43e
000002b0: d6cf 4b3e 9efb 95bd 7c66 2d3e 6a39 87bd
000002c0: cdab 963e 6d4a 76be 1d6b b03e c70c 463d
000002d0: 905b 67bc 82fb ee3d b846 433d 24d7 acbc
000002e0: 04c3 18be b256 9abd dec7 233e 9ed3 593d
000002f0: 12ac 833e 48ad 7bbd 5c59 1e3e aa09 13be
00000300: de21 513d 2986 263e a5b9 64be 5bf7 1a3e
00000310: c81b a4be a898 81bc b238 31bc b44a 253e
00000320: e189 28be d79f 22be 7c8a da3c 7518 b6bd
00000330: 815a efbd f072 593c fa0c 97bc e2b6 cdbd
00000340: bd88 87be 2dc6 0fbe 2376 3bbe f24b 50be
00000350: 80b8 1c3d c5c8 65be 90f4 8fbe 0941 a3bd
00000360: 8670 2fbe b379 14be aa2c 643d 7d10 9dbe
00000370: 2041 5fbe d113 46be 56e8 05be 3b16 8c3d
00000380: 303a 45bd 550e 90be d54c 4ebe ecf4 87be
00000390: 8d1c 3fbe 48ee 0dbe 3399 24be 4988 93bd
000003a0: cdbe d0bd c8a5 803b 6616 fdbc b081 05be
000003b0: f8dd 6cbe cb72 7ebe fbdf 88bd b091 c7bd
000003c0: b07c eaba c8ff 483c dba9 80bd ac50 32bd
000003d0: 4c73 ae3e c3fb 08bd b39a 26be 441e a0bc
000003e0: 3fdb 31be eb5f a5be b153 22be 1a8d 9d3d
000003f0: 1591 fb3c aec9 a3bd 5322 923e 1056 143d

neg_net.linears.1.bias f4 [30]
-0.03141407 -0.16067544 -0.179617 0.19684775 -0.13643776 0.08317168 -0.022642814 -0.119745165
-0.05642324 -0.24281105 -0.21513514 0.057646405 -0.03378951 -0.051999863 -0.081478655 -0.20735882
0.04062174 -0.05222962 -0.052826375 0.07015906 -0.029500553 -0.2388699 0.1423566 0.25172108
0.04067275 -0.041879475 -0.19583197 0.2087932 -0.024758514 0.21573928
00000000: 0aac 00bd 1a88 24be 85ed 37be 7592 493e
00000010: 57b6 0bbe ea55 aa3d 6c7d b9bc f43c f5bd
00000020: 0e1c 67bd 76a3 78be 634c 5cbe a31e 6c3d
00000030: df66 0abd cffd 54bd 48de a6bd df55 54be
00000040: fb62 263d baee 55bd 7860 58bd 8eaf 8f3d
00000050: 25ab f1bc 509a 74be eec5 113e 96e1 803e
00000060: 7898 263d d089 2bbd 2d88 48be e2cd 553e
00000070: 5ed2 cabc c2ea 5c3e

neg_net.linears.2.weight f4 [30, 30]
-0.02521132 -0.10292947 0.08345218 0.048786357 -0.057350703 0.063146725 -0.23356348 -0.15957177
-0.07766732 -0.13887031 -0.12695657 -0.19677983 -0.06194783 -0.043346405 0.0083251875 -0.2298576
-0.27084565 -0.060975503 -0.07939277 0.086681224 -0.2479587 -0.096404195 -0.23494165 -0.3141507
-0.1940254 -0.109680444 -0.3053027 -0.29146847 -0.3059638 -0.08433506 -0.1798781 0.10866508
0.2056612 0.26866862 -0.23307429 -0.19038682 0.2557103 -0.1947543 -0.16954063 0.14166538
0.17896156 -0.11143884 -0.25117263 -0.3883596 0.14920753 -0.23175788 -0.02872112 0.14729671
-0.034069233 -0.016951108 0.017363288 0.003148822 0.15696007 0.18688375 0.23662497 -0.014145812
-0.0013191663 0.4173249 -0.17575286 0.087903425 0.008593004 0.089691736 -0.02696483 0.14177914
-0.18077174 -0.15554392 0.028893137 -0.10535246 -0.22640368 0.0627082 0.17813951 0.039325528
-0.04468103 -0.23137009 -0.049844682 -0.10097177 0.18202652 -0.03385793 -0.1388211 0.11324705
0.11747734 0.30123755 0.29888734 0.08918249 0.14082013 0.3623132 -0.12053699 0.33860743
-0.25766838 -0.06714776 -0.05162306 0.006721651 -0.024491413 0.08715402 -0.08139412 -0.043203123
0.020080313 0.08715172 -0.050995164 -0.08714267 0.026093092 0.07253822 0.025737206 0.08653856
-0.08711033 -0.08708193 0.07481698 0.008914936 0.026859436 -0.085760444 -0.063274674 0.00790691
-0.049678408 -0.024989206 -0.007848665 -0.072943226 -0.055513624 -0.00075295195 -0.02666591 0.02009933
-0.20041004 -0.14485824 -0.1936832 -0.07719759 0.0048899576 -0.21250522 -0.07084935 0.07139441
0.12388473 -0.02766324 0.089846484 -0.07970789 0.29587102 -0.0047056973 -0.07573967 -0.0076799095
0.3013482 0.16667491 -0.006788822 0.18066545 0.023184745 0.18373053 0.074987404 -0.23812322
0.2032322 0.38816762 -0.2343839 -0.3672411 0.16983393 0.15268977 0.068549804 -0.06306106
0.056244146 0.1199265 -0.032489914 0.0019139033 0.15853761 0.0370674 -0.04095353 0.023991894
0.119763024 0.0045106 -0.009796131 -0.02058766 0.07021927 0.07635676 -0.06440343 0.0070396513
0.026473634 0.050731145 -0.042787902 0.019171678 0.07007013 0.048607837 -0.05416978 -0.06587022
0.12385401 0.12014303 0.019205261 0.04973986 0.28275806 0.30362326 0.020839306 -0.10918702
0.22224055 0.13381703 0.005626142 -0.17625228 0.12582168 0.11623508 -0.26706198 0.026917905
-0.3782971 0.10924797 -0.0874459 -0.103829 -0.23192978 -0.21066292 -0.012224488 -0.27022746
-0.1066636 -0.14283828 -0.28968003 -0.03619796 -0.09150923 -0.34494746 0.08688062 -0.14705572
0.04643277 -0.3908641 -0.20511498 0.06362089 0.234336 0.3024674 -0.032685094 -0.45555663
-0.017495006 -0.104831375 -0.19346692 0.14306007 0.10279667 0.05158267 -0.09407216 -0.13560581
-0.101361915 -0.23185693 -0.057422727 -0.1295854 -0.040131073 -0.004571149 -0.033513423 -0.19235197
0.080674894 0.024778483 0.0223234 0.14100845 0.12008255 0.07734511 -0.35585356 0.064202815
-0.15644893 -0.20039365 -0.07279706 -0.21557248 -0.0725365 -0.24714315 -0.2838956 -0.17208734
-0.052070722 0.08278926 -0.22906809 -0.27349284 -0.10500872 -0.08346965 -0.011808358 -0.11932987
00000000: f887 cebc b0cc d2bd fae8 aa3d 34d4 473d
00000010: 92e8 6abd 1253 813d 442b 6fbe c866 23be
00000020: 0b10 9fbd 0534 0ebe e700 02be a780 49be
00000030: 02bd 7dbd 008c 31bd 5e66 083c ca5f 6bbe
00000040: 48ac 8abe 73c1 79bd ad98 a2bd ed85 b13d
00000050: e3e8 7dbe 906f c5bd 8b94 70be 5cd8 a0be
00000060: 98ae 46be 24a0 e0bd a350 9cbe 5b3b 95be
00000070: 4aa7 9cbe dcb7 acbd f731 38be cc8b de3d
00000080: da98 523e ef8e 893e 07ab 6ebe c3f4 42be
00000090: 76ec 823e ac6d 47be 0f9c 2dbe bb10 113e
000000a0: b341 373e 0c3a e4bd b399 80be 12d7 c6be
000000b0: dcc9 183e f051 6dbe 8e48 ebbc f3d4 163e
000000c0: 2e8c 0bbd 0ddd 8abc 743d 8e3c 785c 4e3b
000000d0: 24ba 203e 745e 3f3e d14d 723e d6c3 67bc
000000e0: e0e7 acba 9cab d53e 8ff8 33be b606 b43d
000000f0: acc9 0c3c 4db0 b73d 59e5 dcbc 8d2e 113e
00000100: 3a1c 39be e846 1fbe 4db1 ec3c 08c3 d7bd
00000110: 5ed6 67be 286d 803d 346a 363e ce13 213d
00000120: 7503 37bd 48ec 6cbe f029 4cbd 4aca cebd
00000130: 2965 3a3e 9dae 0abd 1e27 0ebe 12ee e73d
00000140: f697 f03d cf3b 9a3e c307 993e 4fa5 b63d
00000150: 2733 103e 1e81 b93e 19dc f6bd f45d ad3e
00000160: 1ced 83be c484 89bd b472 53bd 4c41 dc3b
00000170: 37a2 c8bc cf7d b23d f6b1 a6bd c2f5 30bd
00000180: 787f a43c 9a7c b23d 4ee0 50bd db77 b2bd
00000190: 2ec1 d53c eb8e 943d d5d6 d23c 213b b13d
000001a0: e766 b2bd 0358 b2bd a539 993d f40f 123c
000001b0: 5208 dc3c 2ca3 afbd 2796 81bd fc8b 013c
000001c0: 967b 4bbd 2ab6 ccbc b097 00bc 4263 95bd
000001d0: 4162 63bd c061 45ba 7772 dabc 5aa7 a43c
000001e0: 4a38 4dbe b855 14be e454 46be c519 9ebd
000001f0: f03b a03b f89a 59be 7719 91bd 3c37 923d
00000200: 47b7 fd3d 059e e2bc 6f01 b83d e43d a3bd
00000210: 687c 973e 4032 9abb 661d 9bbd c0a7 fbbb
00000220: 504a 9a3e d4ac 2a3e c474 debb 5d00 393e
00000230: efed bd3c db23 3c3e ff92 993d 93d6 73be
00000240: 1a1c 503e e8bd c63e 5502 70be 0707 bcbe
00000250: f2e8 2d3e b55a 1c3e d763 8c3d 2826 81bd
00000260: 4360 663d 069c f53d 2514 05bd f0db fa3a
00000270: af57 223e fcd3 173d e4be 27bd a68a c43c
00000280: 5146 f53d a8cd 933b f47f 20bc 74a7 a8bc
00000290: 1fcf 8f3d ef60 9c3d f2e5 83bd e0ac e63b
000002a0: 3cdf d83c 76cb 4f3d 5e42 2fbd ec0d 9d3c
000002b0: ee80 8f3d 0319 473d 22e1 5dbd f7e6 86bd
000002c0: 2ca7 fd3d 8d0d f63d 5a54 9d3c 06bc 4b3d
000002d0: aac5 903e 8274 9b3e 31b7 aa3c 729d dfbd
000002e0: 0793 633e 5507 093e 805b b83b 7a7b 34be
000002f0: 66d7 003e a80c ee3d 59bc 88be f082 dc3c
00000300: 28b0 c1be 66bd df3d d616 b3bd 4ca4 d4bd
00000310: 007f 6dbe 05b8 57be 3849 48bc 415b 8abe
00000320: 7272 dabd 3344 12be f150 94be 5044 14bd
00000330: 3169 bbbd f49c b0be 77ee b13d c695 16be
00000340: 4a30 3e3d 571f c8be a909 52be ab4b 823d
00000350: c7f5 6f3e 02dd 9a3e cee0 05bd b83e e9be
00000360: b051 8fbc d5b1 d6bd 311c 46be 577e 123e
00000370: 0f87 d23d 5a48 533d e8a8 c0bd 40dc 0abe
00000380: d696 cfbd e76b 6dbe 1834 6bbd 09b2 04be
00000390: 7b60 24bd 94c9 95bb 5f45 09bd eaf7 44be
000003a0: e138 a53d 3ffc ca3c 90df b63c 8564 103e
000003b0: d7ed f53d 1d67 9e3d 7032 b6be c47c 833d
000003c0: 2634 20be fe33 4dbe a016 95bd 08bf 5cbe
000003d0: 048e 94bd 1813 7dbe c45a 91be aa37 30be
000003e0: 1c48 55bd 6a8d a93d d390 6abe 4107 8cbe
000003f0: d00e d7bd 23f2 aabd d877 41bc 3863 f4bd

neg_net.linears.2.bias f4 [30]
-0.10911587 0.34670705 0.07912987 -0.24603596 0.15654173 0.15920757 0.15750171 0.11719376
-0.11610478 -0.20083429 -0.098394446 0.15700854 -0.12204311 -0.22352257 0.20526884 0.03434372
-0.019536125 0.1357482 0.24382909 -0.0906723 0.05230552 0.07182613 -0.04438562 -0.1370579
-0.0069579366 0.061090466 -0.09062126 0.13195536 0.023885686 -0.06546894
00000000: 2478 dfbd 9683 b13e d70e a23d daf0 7bbe
00000010: 7a4c 203e 4f07 233e 2148 213e 4803 f03d
00000020: 58c8 edbd 81a7 4dbe 0783 c9bd d9c6 203e
00000030: bdf1 f9bd 1ae3 64be ff31 523e 00ac 0c3d
00000040: 390a a0bc 9301 0b3e 55ae 793e 66b2 b9bd
00000050: 503e 563d 9419 933d b2cd 35bd e858 0cbe
00000060: 67ff e3bb ff39 7a3d a497 b9bd 4e1f 073e
00000070: eaab c33c 9414 86bd
