data/MTMR_28002/sim/random/MLSE4POL/bias_0.004/train/N50/D6_SinCosInput/6/result/model/ReLU_Dual_UDirection_BP.pt (torch_old, 22776 bytes, 20 tensors)

input_mean f4 [12]
000000 3d 6d 84 3c 5d 55 80 3e a3 fd cd bc c2 fa 91 3e
       0.01616537 0.25065127 -0.025145357 0.28511626
000010 74 fb 81 3e 65 17 8e bc 73 ad 6e 3f ec 0f 6b 3f
       0.25387156 -0.01734514 0.9323341 0.9182117
000020 22 81 72 3f 05 07 2d 3d de 26 4b 3e d1 89 69 3f
       0.9472829 0.042243022 0.19839045 0.91225916

input_std f4 [12]
000000 01 86 b6 3e 7d bb 96 3e 39 e1 a1 3e 0b fa 21 3f
       0.35649112 0.29439917 0.31617144 0.6327216
000010 30 34 29 3f 85 db ce 3e 0d 21 6f 3d da 0e b0 3d
       0.66095257 0.40401855 0.05838113 0.08596583
000020 20 c2 39 3d 57 ff 37 3f 4e 80 2d 3f d7 8c 85 3d
       0.045351148 0.7187399 0.677739 0.06521004

output_mean f4 [6]
000000 2f d0 e6 3c fe 95 e6 3e 73 f0 3a 3e 42 e0 c8 bb
       0.028175442 0.4503631 0.18255787 -0.0061302492
000010 72 05 11 bc 65 49 0b ba
       -0.008851396 -0.0005313366

output_std f4 [6]
000000 44 3b ff 3c 62 0d 2c 3e cd 37 11 3e 0d 39 d4 3d
       0.03115619 0.1680198 0.14181443 0.10362444
000010 a1 2f f5 3c 36 c8 8b 3c
       0.029929938 0.017063241

pos_net.linears.0.weight f4 [30, 12]
000000 17 ce 30 be 95 d3 1a be ad 61 22 be a1 88 8a be
       -0.17266117 -0.15119775 -0.15857573 -0.27057365
000010 32 de 28 bf d2 6e 8d 3e 26 31 40 bf b0 8f 9c 3e
       -0.65964043 0.27623612 -0.75074995 0.30578375
000020 90 42 be bc 65 0a ea 3d 20 19 eb bd d5 c2 e3 3e
       -0.023225099 0.11427764 -0.114794016 0.44484583
000030 4a b1 3d be 31 8c cb 3e e6 7f 87 3e 8a a3 c9 3d
       -0.18524662 0.39755395 0.26464766 0.09845646
000040 a3 8e 06 bf 45 3a 87 3d e4 36 9f 3e 73 e8 26 be
       -0.52561396 0.06602911 0.31096566 -0.1629961
000050 92 e4 f2 bd d6 64 a7 3e 69 57 09 bf d0 95 3f 3e
       -0.118600026 0.3269412 -0.53649 0.18709493
000060 bc 53 83 3c 67 d6 b9 bd 79 d9 fe bc ff b3 12 bf
       0.016031139 -0.09074097 -0.031109558 -0.573059
000070 65 45 e9 3e 06 e6 b2 bd e9 05 2e 3e ec d3 b6 3e
       0.45560756 -0.0873528 0.16994442 0.3570856
000080 83 e6 03 3d f2 9c 92 3e 88 f6 0e 3e e6 18 d1 bd
       0.032202255 0.28635365 0.13961232 -0.10209827
000090 cc 99 01 3f e2 99 c8 3d 49 99 e3 3d c7 2e 04 bf
       0.506253 0.09794976 0.11113221 -0.51633877
0000a0 cc 2c ce 3d 59 fb 94 3d 44 08 cf 3e 54 b1 b4 3e
       0.10067138 0.07274503 0.40435994 0.3529154
0000b0 93 48 af 3d 40 e2 b7 bd 10 83 00 3f 59 8d 8f 3d
       0.08558764 -0.08978701 0.50199986 0.07009382
0000c0 e0 7c 71 be a9 51 ae 3d f1 81 bc 3e 44 3c be 3e
       -0.23582792 0.08511669 0.36817887 0.37155354
0000d0 2b ae 08 3e ca 8a 02 3e 58 07 c2 be 93 55 c3 be
       0.1334769 0.12748256 -0.37896228 -0.38151225
0000e0 38 08 8b be 64 7e df be a2 43 a6 3e 5a d2 52 3d
       -0.27154708 -0.43651116 0.32473475 0.051470138
0000f0 d5 fd fa 3e cc 06 5e bd ae 07 2e be 4d f4 2a be
       0.49021783 -0.0542057 -0.16995117 -0.16694756
000100 9f 25 44 3e 5f f8 83 3e 47 c7 dc 3d 6d c5 6d be
       0.19154976 0.2577543 0.10780197 -0.23219843
000110 9c 31 dd 3d f7 93 af 3e c8 24 9f be 5b 2c 6a 3e
       0.10800478 0.34292576 -0.3108275 0.22868483
000120 fb 9e c3 3e 7a a2 1a 3e 2c 2f ac bc 21 87 72 3e
       0.3820723 0.15101042 -0.021018587 0.2368436
000130 80 38 35 3e 16 a5 b3 3e 82 a9 88 3c 6e 7e db bc
       0.17697334 0.35086888 0.01668239 -0.026793685
000140 c0 38 58 3d 24 6d 4d 3e 07 54 8a be b6 e1 89 3c
       0.052788496 0.20061165 -0.27017233 0.01683126
000150 a6 ee 44 be b1 05 8f 3e 27 2d a9 3d ca c2 b4 be
       -0.19231662 0.2793403 0.08260565 -0.35304862
000160 4c 26 9b be ee 50 6f be 5a ed c4 3e 35 45 a1 be
       -0.30302656 -0.23370716 0.38462335 -0.31498113
000170 0e 6a ad bd 6b 91 45 3f de 73 92 3d 77 f4 a1 3e
       -0.08467494 0.77175015 0.07151006 0.31631824
000180 2e 41 0d 3e 09 73 40 bf 25 1c 89 bd a4 df 09 3e
       0.13794395 -0.7517553 -0.06694821 0.13464218
000190 18 41 d0 3e e2 57 76 3e e5 94 8c be 20 f3 c1 3d
       0.40674663 0.24056962 -0.27457348 0.094702005
0001a0 ba 0c eb bd 8c 11 02 3e 88 b5 29 3d e1 76 2f be
       -0.11477037 0.12702006 0.041432887 -0.17135192
0001b0 d0 bb ec bd ce 7b 16 bc 16 dc 2f bf bc 1b b4 be
       -0.1155926 -0.009184791 -0.686952 -0.3517741
0001c0 71 79 2f 3e af ad 8d bd 6f b3 60 be d6 ce f1 3e
       0.1713617 -0.06917893 -0.21943448 0.47228116
0001d0 cd e7 d3 be 36 e6 07 be 2c 85 65 3c 64 25 6b bd
       -0.41387787 -0.13271412 0.014008801 -0.057408705
0001e0 d0 89 05 3e 1a 7e e5 bd 27 92 a2 be 1a 81 31 bf
       0.13040853 -0.112056926 -0.3175213 -0.6933762
0001f0 40 2b 96 3e 88 ff 1b 3e 0a b1 bd 3e 42 6e 94 3e
       0.29329872 0.15234196 0.37049133 0.2899037
000200 df cf 05 be f0 2b 43 3a 70 eb 81 3e c0 d2 e5 bd
       -0.13067578 0.0007445207 0.25374937 -0.11221838
000210 0d 12 73 3e 62 78 f3 bd 66 5c 7f be 6e cd af be
       0.23737355 -0.118881956 -0.24937591 -0.34336418
000220 dc 13 1b 3e 00 a8 bc 3e d1 05 a2 3e 94 90 5a 3e
       0.15144295 0.36846924 0.31645063 0.21344215
000230 15 98 a1 bd 99 74 ac be 1f ba 90 be c1 9c 06 bd
       -0.078903355 -0.33682707 -0.28267 -0.032864336
000240 82 48 de bd 86 c8 58 3e 66 89 02 3c 3e 8c 4f be
       -0.108536735 0.21170244 0.007967329 -0.20268342
000250 45 e6 62 be 94 f8 eb be 92 68 f3 be 50 9f 0d 3c
       -0.22158153 -0.46088088 -0.47540718 0.00864394
000260 73 43 83 be d6 d4 12 be 07 c3 45 be 6c 13 1c bf
       -0.25637397 -0.14339003 -0.19312678 -0.60967135
000270 0e d5 2d 3e 47 da ad bd 00 7b f2 3c f7 a8 82 3d
       0.16975805 -0.08488899 0.029599667 0.06379884
000280 38 cd 84 be 34 9c b5 bb 99 48 35 bd df d5 9a 3d
       -0.2593782 -0.0055423025 -0.044258688 0.07560324
000290 85 f7 d7 3d 86 13 39 be 69 e8 4b 3e 39 29 ec 3c
       0.105452575 -0.18073854 0.19912876 0.02882825
0002a0 d6 d6 2e bf 5b 68 a5 bc 1e ab 48 3e 26 9c 92 3e
       -0.68296564 -0.020191362 0.19596526 0.28634757
0002b0 e7 24 87 bd 93 e7 18 bf a1 33 8d 3d 47 a4 e3 bd
       -0.065988354 -0.59728354 0.06894613 -0.11115318
0002c0 ae d0 94 3e bf 7b e9 bd 27 a1 2f 3d b0 1c 01 bf
       0.2906546 -0.11400556 0.042878296 -0.504344
0002d0 3e f1 04 3f 77 8f 76 be 7f ac f6 3e 63 40 ee be
       0.51930606 -0.24078165 0.4817848 -0.46533498
0002e0 7e c8 0f be 13 42 c2 3e a7 52 69 3e 61 4c 81 3d
       -0.14041325 0.37941036 0.22785436 0.06313396
0002f0 f8 77 8c be 99 cc a0 be 24 50 32 3f 7d c7 ab 3d
       -0.2743528 -0.31406096 0.69653535 0.08387659
000300 ea 4a a0 be 4d ab 2c 3d 8d f4 8a 3e 64 f8 ab bd
       -0.31307155 0.042155553 0.27139702 -0.08396986
000310 ee 19 4f be e9 8c 76 be dd 0b d6 3e 5e ad b7 3c
       -0.20224735 -0.2407719 0.41805926 0.022421535
000320 7b a2 b1 3e 06 29 8b 3e 47 7b b1 be 0e 11 2e be
       0.34694275 0.27179736 -0.34664366 -0.16998693
000330 e2 c5 41 3d 78 ef 5f 3d c8 e9 cf 3e 06 e1 9d 3e
       0.047307856 0.054671735 0.40608048 0.30835742
000340 db 8b a1 be 4d ff 3a 3d 65 f8 e1 bd 2f f8 81 bd
       -0.31552014 0.04565363 -0.110337056 -0.063461654
000350 d5 2c cb bd f6 b6 e8 be fb fc 6d be 9f 08 0b 3f
       -0.099206604 -0.45452088 -0.23241036 0.5431003
000360 09 73 83 3e a6 73 3b be 44 5f b9 be cb 95 c6 3e
       0.25673702 -0.18305835 -0.36205494 0.38786158
000370 fa 10 e7 3e 4b 4e 94 3d 42 5a 0c 3e 74 cc 09 3d
       0.4513014 0.07241496 0.13706306 0.033642247
000380 0a 04 25 3f 9c ee 76 3e a4 0e ba be 6e d8 50 3d
       0.6445929 0.2411446 -0.36339295 0.050987653
000390 5f d5 8e be f7 1a 0a bd 04 e1 bd bd d2 ce 6f be
       -0.27897164 -0.033717122 -0.09271434 -0.2341874
0003a0 8a c7 5d be 0e 38 b0 bd 5f f6 e2 be de e0 8a 3e
       -0.2165815 -0.086044416 -0.4432859 0.27124685
0003b0 1d 36 eb be 66 39 3f 3d f1 9f 1f be d5 d8 bb be
       -0.45939723 0.0466856 -0.15588357 -0.36688867
0003c0 fe 8c 0e 3e df 09 0f bd 1d ed 04 3f 96 c6 a0 be
       0.13920972 -0.034921523 0.51924306 -0.3140151
0003d0 c4 e2 26 3e 6f 5d 13 be 2a 83 8d bd 95 43 86 be
       0.16297442 -0.14391111 -0.06909783 -0.26223436
0003e0 f5 f2 b1 3e 6b 8e c4 3e d9 98 ee 3e 76 b7 02 3f
       0.34755674 0.38389906 0.46600989 0.5106119
0003f0 ff 91 f5 3d 39 6e 4d 3e 59 1b e1 3e d2 a5 ef be
       0.11990737 0.20061578 0.43966177 -0.46806198

pos_net.linears.0.bias f4 [30]
000000 c1 7e 8f be 43 e2 8e bc 9c 7d 5f bc 04 85 80 bc
       -0.28026393 -0.017441874 -0.013640787 -0.015688427
000010 8c 43 7b be 22 b7 95 be f7 0b b2 be 07 03 e0 bd
       -0.24537486 -0.29241282 -0.34774753 -0.109380774
000020 f3 2e a6 3d 4d 9b 5a be b5 45 51 3e 7f a0 27 be
       0.081144236 -0.21348305 0.20436747 -0.16369818
000030 f1 fb d0 be 00 0f 3d bf db 80 4c be 32 1b ea 3c
       -0.40817216 -0.73851013 -0.1997103 0.02857742
000040 38 39 65 ba 64 41 a3 be 96 10 27 3e 90 d6 e8 be
       -0.0008744183 -0.31885827 0.16314921 -0.45476198
000050 08 26 0f 3d 74 3d b7 3d 44 01 40 3e 39 c7 1b be
       0.03494838 0.08947268 0.18750483 -0.15212716
000060 6b 76 c1 be 99 05 96 bc 7f 3c 58 bd 1d c0 f4 bd
       -0.37785658 -0.018313216 -0.05279207 -0.11950705
000070 2d 5c 78 be 5a 4b cc 3c
       -0.24253912 0.024938274

pos_net.linears.1.weight f4 [30, 30]
000000 10 04 66 be 44 90 bd be cb 2e 50 be 05 ad 05 be
       -0.22462487 -0.37024128 -0.2033035 -0.13054283
000010 27 34 4b be c3 62 fb bd dc 40 5e 3d 5f ec 20 be
       -0.19844113 -0.12274697 0.054261073 -0.15715168
000020 e8 a9 84 be 2d 0e 61 be 0e 59 34 be 10 53 9e bd
       -0.25910878 -0.21978064 -0.17612097 -0.07730687
000030 7a 19 19 be 2f 67 64 be 3c 48 86 be 00 f5 56 be
       -0.14951125 -0.22304986 -0.26226985 -0.20991898
000040 90 cd 78 be 5a 8a 57 3c 11 95 88 be 2e 55 a4 3c
       -0.24297166 0.013155544 -0.2667623 0.020060148
000050 63 05 97 be 19 4e 8d be 44 0c 94 be c9 1c 7f 3e
       -0.29496297 -0.27598646 -0.28915608 0.24913324
000060 1a 16 2b bc 6d 37 24 be 3a 5c 06 be 5a 7c 9d be
       -0.010442281 -0.16036768 -0.13121119 -0.30758935
000070 d5 cf 91 be a8 69 4a be 11 8d 32 3e 5d be 0b 3e
       -0.28478876 -0.19766867 0.17436625 0.13646837
000080 85 e8 88 bd a1 54 94 be 0d 37 02 be c1 1c 3c 3e
       -0.066849746 -0.28970817 -0.12716313 0.18370344
000090 fd 6e 02 3e be 73 67 be 05 44 ff 3d 94 75 b4 be
       0.12737651 -0.22602746 0.124641456 -0.35245955
0000a0 52 63 df 3d e4 93 34 3e 8f 0f 97 be 3d 3b 9f bc
       0.10907616 0.17634541 -0.29504058 -0.019437427
0000b0 4f 72 b0 be 11 f9 a5 be 3b f8 53 3e ca 35 d4 be
       -0.3446221 -0.32416585 0.20700161 -0.41447288
0000c0 3c 3b de 3e 20 47 aa be cb 81 a6 bd 7c 79 ff 3e
       0.43404567 -0.3325739 -0.08130225 0.49897373
0000d0 7c 76 b3 3e 71 f1 83 be 88 42 bb 3c 6d a4 c6 3d
       0.35051334 -0.25770143 0.022858873 0.096993305
0000e0 18 75 9a bd d2 13 91 3e bc 32 41 3e a6 bd 84 3d
       -0.07541865 0.28335434 0.1886701 0.06481485
0000f0 68 f7 d0 3d 66 4c 53 3e bc bf a8 be 4b e8 05 bf
       0.10203439 0.20634612 -0.32958782 -0.52307576
000100 c6 26 e5 3e 84 cb 68 be bc a7 85 be 3c c8 b1 3b
       0.44756144 -0.22733885 -0.26104534 0.005425481
000110 e0 de 33 3a ec a0 31 bc 9f a9 14 bf 0d 9d a8 bd
       0.0006861519 -0.010841589 -0.5807132 -0.0823308
000120 60 b7 00 be a8 16 81 be 3e 8e d1 3e c1 0c c4 be
       -0.12569952 -0.25212598 0.40928835 -0.3829098
000130 4c 32 f2 3d 6b 43 a1 3e 10 b9 92 bc 74 de ee bd
       0.118259996 0.31496748 -0.01791051 -0.11663523
000140 f0 62 37 be 43 e8 89 be ad 40 e4 be d0 5b 82 3e
       -0.17908835 -0.26935014 -0.44580594 0.25460672
000150 91 04 82 be 2d bb a6 bd 0b 26 a3 3e 0b da 93 be
       -0.2539411 -0.0814117 0.31864962 -0.2887729
000160 b1 26 ac 3d 84 65 c8 be 12 88 05 be 5e 82 ef 3d
       0.08405817 -0.3913995 -0.13040188 0.116947874
000170 16 71 f6 3e cc 86 85 3e 0e bd 07 bf 47 b8 1a bd
       0.48133153 0.26079404 -0.5302285 -0.037773397
000180 3e 47 f1 bd de 49 ea bb ae 8a 19 bf 8b e8 f5 3d
       -0.117811665 -0.007149919 -0.59977233 0.12007245
000190 a3 6f 4d 3e ea f6 3d 3b 94 45 c5 3e 9e 84 27 bc
       0.20062117 0.0028986284 0.38529646 -0.0102244895
0001a0 06 01 94 be 05 e0 76 be a7 75 0b 3e 74 83 b2 bd
       -0.2890703 -0.24108894 0.136191 -0.08716479
0001b0 a4 e7 21 be d0 97 f3 ba 57 c0 7e be 72 fa 52 3e
       -0.1581102 -0.0018584672 -0.2487806 0.2060335
0001c0 6c ce 11 3e d7 a5 9f be b2 db 8e be 0a 21 8e bd
       0.142389 -0.31181213 -0.2790199 -0.069398955
0001d0 c1 5e 4e 3e 66 b6 cc 3e 57 fd fc 3d c0 16 f5 3c
       0.20153333 0.3998291 0.12353008 0.029918075
0001e0 0e 3b aa 3e 9f ac 10 3f fe f5 11 3e a7 f7 80 be
       0.3324818 0.565134 0.14253995 -0.25188944
0001f0 57 c2 1d be 7f a9 cb bd a8 d7 8c be de 3e b3 3e
       -0.15406166 -0.09944438 -0.27508283 0.350089
000200 96 96 ff bc 66 cc 23 bd f0 cb 30 be b3 a9 88 be
       -0.031199735 -0.03998985 -0.17265296 -0.2669197
000210 8d 32 0d be 4f 73 54 3e 12 cc 94 bc 0a 1e 20 bf
       -0.13788815 0.20747112 -0.018163715 -0.62545836
000220 18 22 7e 3e 44 2c ca bd e7 6b da bd 11 fb a3 be
       0.24817693 -0.09871724 -0.10665112 -0.32027486
000230 de 52 4c 3c 3b ed 37 3e 98 28 3c 3e 84 70 d2 bb
       0.012470929 0.1796159 0.1837486 -0.0064221043
000240 6b 28 c8 be e4 2f aa bd 56 32 92 3e 04 bc 32 3e
       -0.39093336 -0.08309916 0.28554028 0.17454535
000250 6d b8 ce 3e 4f f0 f4 be 0a c5 d8 bd 16 05 e3 3d
       0.4037508 -0.4783959 -0.10584457 0.110849544
000260 6c 1d 64 bb 5a 74 65 3e 64 39 32 be cc 28 b2 bd
       -0.0034807576 0.22407666 -0.17404705 -0.08699188
000270 c7 01 fd 3d 2e ee 68 be 01 95 9c 3c 7e c4 5f 3d
       0.123538546 -0.22747108 0.01911402 0.05463075
000280 7b 83 88 be 3e 63 a8 be 36 94 ca 3d 9b ee a0 bc
       -0.26662812 -0.32888216 0.0989155 -0.019645026
000290 23 a8 f9 3d 91 05 1b be 67 45 96 3d 46 6f cc 3d
       0.12190273 -0.15138842 0.07337456 0.09982161
0002a0 02 74 27 3e 7c e9 55 3e 52 e7 b6 bd 66 8a 7e 3d
       0.16352847 0.20889848 -0.089308396 0.062143706
0002b0 b8 52 26 3d cc 85 81 be 2a 4b 8a bd 22 a2 5e 3e
       0.04060623 -0.2529739 -0.06752618 0.21741536
0002c0 41 3f 0c be 02 3d 4f 3d 6b 38 36 be a0 d1 83 bb
       -0.13696004 0.05059529 -0.17794959 -0.004022792
0002d0 aa e1 77 be e2 d1 ac be 5b c5 80 be b7 d4 86 3d
       -0.24207178 -0.33753878 -0.2515057 0.06583541
0002e0 84 71 02 be d9 05 4f be c6 a1 05 bd b2 28 81 be
       -0.12738615 -0.20217074 -0.032624982 -0.2522636
0002f0 6e 4e 46 be c9 d4 76 be af 64 1e be 8b 2e 11 be
       -0.19365856 -0.24104609 -0.15468095 -0.14177911
000300 3a a9 40 be 3a 05 0d bd ea 52 52 be 60 85 e4 bd
       -0.18814555 -0.034428813 -0.20539442 -0.11158252
000310 4a 0c 61 be 4b 0a 39 be 5d ea 5e be 89 46 02 bd
       -0.21977344 -0.18070333 -0.2176909 -0.03180555
000320 91 58 2f be d3 8a 81 be 5e 98 b2 be 19 b8 bf 3c
       -0.17123629 -0.25301227 -0.34881872 0.023403214
000330 aa 36 4a be ee d5 26 be a0 04 a3 be e8 d3 84 be
       -0.19747415 -0.16292545 -0.31839466 -0.25942922
000340 4b 6e 51 be 97 a3 04 be 0c 09 fe bd 29 79 68 be
       -0.2045223 -0.1295303 -0.12404069 -0.22702469
000350 10 35 31 3e 2e eb 48 bd df 58 7d 3e d8 57 a2 3e
       0.17305398 -0.04905241 0.24740933 0.31707644
000360 15 23 0c bf ce 4e 38 be 24 37 7c 3e 75 e5 b0 be
       -0.5474103 -0.17998812 0.2463041 -0.34550062
000370 22 b1 82 3d 51 e8 2a 3e ed a1 46 be b6 e5 52 be
       0.06381442 0.16690184 -0.19397707 -0.2059544
000380 6f 21 08 be 50 c3 8c 3e 65 19 70 be 32 04 71 bc
       -0.13294004 0.27492762 -0.23447187 -0.014710473
000390 36 75 c5 bd f5 1f 73 3e 69 5a 2b 3e 59 40 ad 3e
       -0.09641497 0.2374266 0.16733707 0.33838156
0003a0 06 27 98 3d cb 86 a6 bd 06 5f 3a 3e 5a e7 0f 3d
       0.07429318 -0.081311785 0.18200311 0.035132743
0003b0 0d c2 df be d7 d0 b3 3d 11 14 2e be 6b 62 e0 bd
       -0.43702736 0.087800674 -0.16999842 -0.10956272
0003c0 41 02 90 be b1 4b e5 be f6 bd 0a 3e f6 73 a0 3e
       -0.2812672 -0.4478431 0.13549027 0.3133847
0003d0 c3 7a 1f 3e f9 17 8b bd b8 50 25 3d ea e6 2e be
       0.15574174 -0.06791682 0.040360183 -0.17080274
0003e0 f0 de dc bd 52 8b 95 3e 58 e3 14 3e 7c 52 de 3b
       -0.107847095 0.29207855 0.1453985 0.0067847352
0003f0 0f 6a e5 3e 60 2e bf 3d 4f b4 53 3e 27 70 28 3e
       0.4480748 0.09335017 0.20674251 0.16449033

pos_net.linears.1.bias f4 [30]
000000 90 ad 76 be fc c5 0d 3e 74 db 94 bd ff 74 13 3d
       -0.24089646 0.13845056 -0.0726842 0.036000248
000010 ed 3c a7 bd a8 12 3b bd ef 3e 81 be 37 72 78 3d
       -0.081659175 -0.04567209 -0.25243327 0.0606558
000020 68 13 32 be 15 48 4e 3e 18 1d 93 be 83 37 8a be
       -0.17390215 0.20144685 -0.28733134 -0.26995477
000030 28 ac 89 be b8 25 46 be ac 50 40 bd 39 6e b2 be
       -0.26889157 -0.19350326 -0.046951935 -0.34849718
000040 e0 c3 54 bb ea 69 34 be 61 90 f3 bd 06 f1 6c be
       -0.0032465383 -0.17618528 -0.118927725 -0.23138818
000050 da d2 1c be a8 10 c7 be be 61 ae bd bc 86 83 3c
       -0.15314808 -0.38879895 -0.085147366 0.016055457
000060 61 ca 17 be 8e 1f 14 3d c4 30 74 bd ac 5e 97 be
       -0.14823295 0.036162905 -0.05961682 -0.29564416
000070 77 f8 7b 3e 50 a1 0e be
       0.246065 -0.13928723

pos_net.linears.2.weight f4 [30, 30]
000000 68 22 e8 3c 00 7c b7 3e 1a 91 aa be 31 09 86 3d
       0.028336719 0.35836792 -0.3331383 0.06544722
000010 13 65 9d 3d 7c c4 4f bd 86 7a b2 bc 84 b5 46 be
       0.07685294 -0.05072449 -0.02178694 -0.1940518
000020 be be 46 be df e7 8c bd 19 ae bd 3d 99 31 03 bc
       -0.194087 -0.068801634 0.09261722 -0.0080074305
000030 e7 31 d8 be 03 be e3 be 78 3e 0a be 2c 9e ed bc
       -0.42225572 -0.44480905 -0.13500392 -0.029006086
000040 59 cf 55 be b4 ee b0 3d cd 31 2e 3e 67 17 67 bc
       -0.20879878 0.08639279 0.17011185 -0.014104701
000050 cb b7 28 be 98 33 bb bc 8b 84 bd 3e 91 65 6d be
       -0.16476361 -0.02285175 0.37015185 -0.23183276
000060 10 0a a4 bc 30 38 f6 3d 54 c0 b6 3d 3c fa 12 3c
       -0.02002433 0.12022436 0.089234024 0.008970793
000070 67 73 dc be 5d bd 8d be 89 6e 80 be d5 bb ca 3c
       -0.43056795 -0.27683535 -0.25084332 0.024747768
000080 03 36 ad be 89 37 9b be 8c e7 4f be 01 54 8c bc
       -0.3383027 -0.30315807 -0.20303172 -0.0171299
000090 da ec 35 be 37 d4 71 be 6a 0f 52 be ed 58 9c be
       -0.17766133 -0.2361611 -0.20513692 -0.30536595
0000a0 c4 1e e9 bc 4c 01 0f be 40 4d b2 bd 60 e3 93 3c
       -0.028457053 -0.13965338 -0.087061405 0.018052757
0000b0 5b 43 5a be c0 47 3e 3c 9a 95 35 be 73 62 b5 bd
       -0.21314757 0.011613786 -0.1773285 -0.08856668
0000c0 13 ea bc be f5 38 10 be 15 f8 5a be 12 a4 2c be
       -0.36897334 -0.14084227 -0.21383698 -0.16859463
0000d0 35 9a 78 be 1d 02 6f be 0f 9c 05 be fd ba a0 be
       -0.24277575 -0.2334065 -0.13047813 -0.3139266
0000e0 49 7e 66 be 92 80 fd 3c b6 01 33 be 26 12 d2 3c
       -0.22509111 0.030945096 -0.17481121 0.02564342
0000f0 87 9f 99 be a7 30 14 bf 6d 74 bb be ef 6e 77 3e
       -0.30004522 -0.5788674 -0.36612263 0.24163412
000100 2b fe a7 bc 70 ce f2 3b 5f c8 9f be 5d 48 cb be
       -0.020506939 0.007409863 -0.3120756 -0.39703646
000110 83 c6 99 3e 4e 3d 03 bf dc 30 11 3e 6d f7 23 3e
       0.30034265 -0.5126542 0.14178795 0.16012354
000120 9c 9e f8 bc f6 6b 8b 3e 4c 58 a2 bd ad 7b 94 bd
       -0.030349068 0.27230805 -0.079269975 -0.07250152
000130 f5 6d f7 3b b4 f3 90 bc c6 29 9f be a7 ec 51 3e
       0.0075509497 -0.017694332 -0.31086558 0.20500432
000140 bd fd 84 3d 44 1b 87 be 62 f9 a2 be 2b dd 96 be
       0.06493709 -0.2638799 -0.3183089 -0.29465613
000150 ee 2c 0b be 76 45 fa be de c2 8e bc fa 4c b3 bd
       -0.13591358 -0.4888112 -0.017426904 -0.087549165
000160 ce 1c 08 bf 85 a4 9b 3d 76 dd 8a bc e1 be 7f be
       -0.5316895 0.07599739 -0.016951304 -0.24975158
000170 e6 d7 a0 bd 70 5f 9b be 78 22 b7 be 9d 2a 6a 3e
       -0.07853679 -0.3034625 -0.35768485 0.22867818
000180 42 c7 41 bd ba a0 e2 3d fe 0e 1e 3e fc 6f c1 3e
       -0.047309168 0.110658124 0.15435407 0.3778075
000190 8e 58 f8 be bd f7 98 bc 2e d5 b3 be 0f 8b a6 bd
       -0.48505062 -0.018672818 -0.3512358 -0.08131992
0001a0 b7 7e 0f bf a6 88 8a 3b 7d 2d e5 be 12 ca f1 3e
       -0.56052727 0.0042277155 -0.44761267 0.4722448
0001b0 7e 55 b6 be 36 04 a4 3c 00 89 43 be 8d 80 6a 3d
       -0.356121 0.02002154 -0.1909523 0.0572515
0001c0 8c cb 20 3c f3 ad 5c 3d 6e 2d 5b bd 16 eb 99 be
       0.009814154 0.05387683 -0.053510122 -0.3006217
0001d0 16 6c 27 bf b6 38 8d bb 35 95 d2 3e a0 13 b6 3c
       -0.653993 -0.004309739 0.4112946 0.022226155
0001e0 2f fa 32 be 81 cf 1c be 4d d6 17 be a8 78 9b be
       -0.1747825 -0.15313531 -0.14827843 -0.3036549
0001f0 72 9f d7 be f2 6e 05 3c de f4 1f be 00 bf b4 be
       -0.42113835 0.008144127 -0.15620753 -0.3530197
000200 98 fd 99 be 60 bc 6c be 2f 67 39 3c 85 82 4c be
       -0.3007629 -0.23118734 0.011316105 -0.19971664
000210 84 06 96 bc 98 6b 8d 3c 34 46 49 be 66 da 47 be
       -0.018313654 0.017263219 -0.19655687 -0.19516906
000220 0b 66 d3 be 4b e1 88 be 13 1e af be 0a 2a 5a be
       -0.4128879 -0.26734385 -0.34202632 -0.21305099
000230 7c 3b 43 be f5 63 88 be 00 21 3f be 70 79 06 be
       -0.1906566 -0.2663876 -0.18664932 -0.13132262
000240 28 00 83 3d 1a 2b 3e be de 98 1d be 04 1a 1c bb
       0.06396514 -0.1857113 -0.15390345 -0.0023819217
000250 61 8d 17 be d0 d1 ba bd b1 da d0 bc 40 ce 3b be
       -0.14800026 -0.0912205 -0.025494905 -0.18340397
000260 9a 20 49 be d8 5b 89 be 5d 23 7b be b0 34 6a 3c
       -0.19641343 -0.26827884 -0.24525209 0.014294788
000270 64 ff 26 3c c9 26 5b be f3 75 7e be 69 cb 79 be
       0.010192726 -0.21401514 -0.24849682 -0.24394001
000280 00 4f a3 b7 36 33 63 3c ab 54 24 be e0 13 54 be
       -1.9467901e-05 0.01386719 -0.16047923 -0.20710707
000290 02 67 32 be 97 2a ed bc 8a cb 3e be ec c7 94 bd
       -0.17422107 -0.028950972 -0.18632331 -0.072646946
0002a0 f4 2f 3e be 3e bd 09 bc 15 93 78 be 3c b0 c1 3c
       -0.1857298 -0.008406935 -0.24274857 0.023643605
0002b0 66 7a e0 bd 32 a6 99 bd a6 2c 54 3d d6 3d 9d bd
       -0.10960846 -0.07502402 0.051800393 -0.0767781
0002c0 da 7c 5d be 92 0b 4a 3b 56 77 42 be c0 79 79 3c
       -0.21629658 0.003082965 -0.18990836 0.015226781
0002d0 9c ca 92 3c dc 80 08 3e 27 80 92 be c4 66 53 bc
       0.017918877 0.13330406 -0.28613397 -0.012902919
0002e0 22 2d 0b be c1 98 41 bd d6 e0 c6 bb 90 ae a7 bd
       -0.13591436 -0.047264818 -0.006069283 -0.08187592
0002f0 e8 a1 40 be fc 47 41 bc 10 0b d0 be 30 87 83 3c
       -0.18811762 -0.011796948 -0.4063344 0.016055673
000300 09 83 ad be 27 f0 ad be f9 7f 9b bd dc ea 7b 3b
       -0.33889034 -0.33972284 -0.07592768 0.0038439548
000310 90 cc 73 be 23 be 2f 3f b4 e6 a0 3c 28 fa 86 3c
       -0.23808503 0.686495 0.019641258 0.016476706
000320 17 57 68 be db 64 c0 bb 2c 7d 1c be db c6 8e bd
       -0.22689472 -0.005871398 -0.15282124 -0.069715224
000330 64 ea 81 be 85 e0 99 be ad c2 f6 bc 6a a1 68 bc
       -0.25374138 -0.30054107 -0.030122126 -0.01419864
000340 9e 82 d9 3b 84 96 85 be 9f d7 a9 3d f9 4d 10 be
       0.0066378852 -0.26091397 0.082930796 -0.14092244
000350 dc c9 75 3e c3 f6 73 3d b8 b5 9f 3b 6c ae 1f be
       0.24002784 0.059561502 0.0048739575 -0.1559388
000360 b8 fc 83 be 7c ce a8 3d 4e d9 13 3e 35 e7 8b be
       -0.25778747 0.08242509 0.14438364 -0.27324834
000370 86 47 cb 3c 68 62 a7 bc b0 31 2c 3e 73 58 a2 3d
       0.024814378 -0.020432666 0.1681583 0.079270266
000380 97 7c 11 3e 4a b7 ff bd 92 93 11 3e 47 12 cc be
       0.14207684 -0.124861315 0.1421645 -0.39857695
000390 5c a5 aa 3e c4 77 26 bd ce 2e 62 be df 3a b4 be
       0.33329284 -0.04064156 -0.22088167 -0.35201165
0003a0 ad 2e 07 3f 64 21 74 be 36 e1 24 3e 64 a3 15 3f
       0.52805597 -0.23840863 0.16101536 0.5845244
0003b0 54 7b 7a 3e bc 32 2d bd b3 87 5e be 26 06 ee be
       0.24461108 -0.042284712 -0.21731453 -0.46489066
0003c0 1e 50 49 3d cb cf 96 3e 18 dd 9a be b8 4d d3 bb
       0.04914867 0.29455408 -0.30246806 -0.006448474
0003d0 e7 73 fd bc 2c bf 51 bd 8e 95 32 3d e1 51 10 bd
       -0.030939056 -0.051207706 0.043599658 -0.035234336
0003e0 b9 5d 16 bf 82 52 52 be b8 94 8a bd cd 80 0f be
       -0.5873676 -0.20539287 -0.06766647 -0.14013977
0003f0 7e 9e eb 3c c4 8f 9f bb d0 33 ab be 9a 20 2d bd
       0.028762098 -0.004869433 -0.33437967 -0.04226742

pos_net.linears.2.bias f4 [30]
000000 37 87 d9 3c b8 0b 1f be d6 b9 0d bd 53 cc 5c 3e
       0.026553733 -0.15531814 -0.034601055 0.21562319
000010 d6 5b c4 be 08 90 4c be 16 d1 8f 3d 24 71 e3 bc
       -0.38351315 -0.19976819 0.07022302 -0.02776391
000020 f8 af 31 3c 24 7a 3d be fb 3d e7 be cd 4f c2 be
       0.010845177 -0.18503624 -0.45164475 -0.37951508
000030 fd a9 cd bd 56 6a 4f be 42 f5 8c be c9 1d 44 3d
       -0.10042188 -0.20255408 -0.27530867 0.047879968
000040 ee 5e 97 3e 9b 33 bd be 87 ba 85 be bc 2c 11 be
       0.29564613 -0.36953434 -0.26118872 -0.14177221
000050 c4 36 5a be 08 1a 36 be 93 da fc bd 24 ad 9f 3e
       -0.21309954 -0.17783368 -0.12346377 0.31186783
000060 c6 33 ed 3b 77 78 a7 bd f1 4d bd be c7 ea b6 3e
       0.007238838 -0.08177274 -0.36973527 0.35725996
000070 02 b1 37 3e ec 87 19 bd
       0.17938617 -0.03748314

pos_net.output_layer.weight f4 [6, 30]
000000 a9 fe d8 3e c3 75 1a be a1 8d 65 be f4 d1 52 3d
       0.4238179 -0.15083985 -0.22417308 0.05146976
000010 3d 11 30 be 5d 5a 2d 3e 75 af 23 3e 67 d4 89 be
       -0.17194076 0.16929002 0.159849 -0.26919863
000020 63 4d cd 3e de e2 0e bd ce ae 85 bd 0f 05 e3 bd
       0.40098104 -0.034884326 -0.06527482 -0.11084949
000030 d7 e0 85 3c 91 db 00 3e 68 c0 aa bd e3 c5 66 3e
       0.016342564 0.12583758 -0.0833748 0.22536425
000040 62 eb 7d 3e f8 6b 33 3d 0b 92 b5 bc e8 2e 33 3e
       0.24796823 0.04380414 -0.022164365 0.17498362
000050 39 06 83 3e 6a f5 30 bc 2d e3 be bd 5a a3 ca 3e
       0.25590685 -0.010800699 -0.09320674 0.39577752
000060 bb 9d cc bd fe d0 37 be 2a f3 55 3d 4b f0 be be
       -0.09991022 -0.17950818 0.052233852 -0.37292704
000070 0b 8d 8a bc 7d 8d 8b 3e ad 6c b1 bd af 21 93 3e
       -0.016912958 0.27256384 -0.086633064 0.28736636
000080 30 06 60 3e 16 4a 0c bf 39 59 47 3e ae 2c 3c be
       0.2187736 -0.54800546 0.1946763 -0.18376419
000090 3f 3c 9b be cb 5b a3 3e fd af a9 3d 08 1e 5e 3d
       -0.30319402 0.3190597 0.0828552 0.05422786
0000a0 53 e5 52 be 2a d0 5b 3e ec 2f c4 3c 96 09 a0 3e
       -0.20595293 0.21466127 0.023948632 0.31257313
0000b0 8e 65 f1 3d e6 64 70 3e 7b c2 41 3e 18 9a c9 3d
       0.11786948 0.2347599 0.18921845 0.09843844
0000c0 3f ea da bb 2f bd 83 3e 76 0f a2 3e 44 44 ba 3e
       -0.0066807563 0.25730273 0.3165242 0.36380208
0000d0 31 38 33 3e 56 ed cc bd f2 77 05 3e 12 df 64 3d
       0.17501904 -0.10006206 0.13034037 0.0558768
0000e0 5f 6b aa 3e 4a 1f 9a be ae 94 fb bc a7 72 d7 bd
       0.33285043 -0.30101997 -0.030710544 -0.10519915
0000f0 64 39 f6 3d 89 3b 5a 3e 64 15 01 be 5b 12 1d 3e
       0.12022665 0.21311773 -0.12605816 0.15339033
000100 80 8f 1e 3e 46 31 46 be 50 b2 91 bd 57 f6 09 3e
       0.15484428 -0.19354734 -0.071140885 0.13472877
000110 c9 8f 07 be b2 ff be bc 2a 31 3f 3b b3 22 0c 3e
       -0.13238443 -0.023315284 0.0029173591 0.13685112
000120 78 f4 27 3d 68 cc 5e be a8 04 e8 b9 6a bd 61 be
       0.041004628 -0.21757662 -0.00044253957 -0.22044912
000130 0e 32 6c be 85 ec 01 3e 40 58 6b 3d 18 40 93 3e
       -0.2306597 0.12687881 0.05745721 0.28759837
000140 1c 63 bd 3c c9 aa b7 3b d4 a4 bf be 39 65 9d 3e
       0.023118548 0.005605076 -0.3743044 0.3074129
000150 ab 4a b5 3e a8 29 96 3e ac 20 54 3e db 62 0a bf
       0.3540853 0.29328656 0.20715588 -0.5405709
000160 a4 e8 8d be e6 3f 94 3e 3e 8a 3b be 93 06 2b 3e
       -0.27716553 0.28955 -0.18314454 0.16701727
000170 3a 4b fa be e3 01 80 3e cf ba 5e be 0f 37 42 3e
       -0.48885518 0.2500144 -0.2175095 0.18966316
000180 a6 0e 91 3d 4a 7a ef 3c e9 12 07 3e f4 c7 5f bd
       0.07082872 0.029233117 0.13190807 -0.05463405
000190 0d 0c 86 be 04 e3 87 3c 4b 8e 78 bd 67 73 87 3e
       -0.2618107 0.016587742 -0.060682576 0.26455233
0001a0 eb cd 2b 3e 85 fe fb 3d 7a 33 6e bd 7a 32 0d 3e
       0.1677777 0.12304405 -0.05815456 0.13788787
0001b0 06 7f 88 be f0 f6 c7 bd 4d 1c 55 3c ae 35 c6 be
       -0.2665941 -0.097638965 0.013007236 -0.3871283
0001c0 11 f5 8f 3e 4c 79 e4 3e 4c dc 4f be 11 a5 a7 be
       0.28116658 0.44623792 -0.2029888 -0.32743123
0001d0 0c 10 ba bd 65 fe 93 3e 99 c2 d6 3e ae 21 03 be
       -0.09085092 0.28905025 0.4194534 -0.12805817
0001e0 4e 6b 14 3d 10 9f 18 3e d9 48 6d 3e ac 70 37 bf
       0.036235146 0.14904428 0.2317232 -0.716563
0001f0 f2 d8 1d 3e 4d 16 09 be 6a d0 53 3d ea ca a9 3e
       0.1541479 -0.13387413 0.05171243 0.33162624
000200 c3 6b f4 3e 40 5a 5a 3b 28 6e 45 3d ba 7a a6 3b
       0.47738466 0.0033317953 0.048200756 0.005080548
000210 aa dd 0b bd eb 99 0b 3e f2 28 2d bd df 6b 95 be
       -0.034146942 0.13632934 -0.042275377 -0.29183862
000220 fb c2 65 be b6 b7 02 3c 3c 31 25 3e 20 72 1a 3e
       -0.2243766 0.00797837 0.16132063 0.15082598
000230 89 c8 16 3e a6 4d d3 bc 68 ca 0e 3e 61 8b b3 be
       0.14724936 -0.025793862 0.139444 -0.35067275
000240 54 78 a7 3e 3d ed d0 3e 34 8a 8f 3e 14 b4 fc 3e
       0.3270899 0.40805998 0.28035128 0.4935614
000250 a4 c4 86 bd 69 29 b3 3e 14 b4 8f be 20 33 61 be
       -0.06580475 0.3499253 -0.28067076 -0.21992159
000260 91 56 14 3f c2 97 b2 3e ab 29 32 3d 0c 05 9f bc
       0.5794459 0.34881407 0.04349677 -0.019411586
000270 03 37 cd bb c4 8e 19 bf 6f 03 a4 be 80 4d f7 b9
       -0.0062626614 -0.5998347 -0.3203387 -0.00047169253
000280 a4 aa 80 3e 9e d2 dc 3c f2 b5 fe 3c eb 8c 9e be
       0.25130188 0.026955899 0.031092618 -0.30966887
000290 fe 33 a1 3d 2a 68 1e be f4 12 75 3e b2 d8 ff 3b
       0.07871245 -0.15469423 0.23933011 0.0078078145
0002a0 17 83 ae 3e 11 24 b1 3e ad 86 2a be 2f 42 6f be
       0.3408439 0.3459783 -0.16652937 -0.23365091
0002b0 ee 14 c2 be 64 89 cd 3d 0e d7 95 bd 1a 7a 0e 3e
       -0.37906593 0.10035971 -0.07316409 0.13913766
0002c0 ff 69 11 be ed 90 09 be 91 4f 21 3c a3 fa 60 be
       -0.1420059 -0.13434191 0.00984563 -0.2197061

pos_net.output_layer.bias f4 [6]
000000 54 4b b5 ba d3 9e 6c bd 43 a0 bf bd 88 96 8f 3e
       -0.0013831654 -0.057768654 -0.09356739 0.28044534
000010 78 8f 95 3e e7 51 c4 3e
       0.2921102 0.38343737

neg_net.linears.0.weight f4 [30, 12]
000000 1b 53 1f 3f 08 ad f2 bc 7b 72 80 be 76 3f 9c 3e
       0.62236184 -0.029623523 -0.25087342 0.30517167
000010 a2 72 64 be 7e b8 00 be 24 20 90 be 02 a5 fc be
       -0.22309354 -0.12570378 -0.2814952 -0.4934464
000020 61 6a 29 be 7b 8d 30 3d 6b 4d e5 bd a0 69 72 3e
       -0.16544487 0.043103676 -0.11196407 0.23673105
000030 31 75 08 bf 58 5a 69 be d5 4a be be 3d 95 3b be
       -0.5330382 -0.2278837 -0.37166467 -0.18318649
000040 4d 42 bf 3e 4b ef 0b 3d fc db 38 3c d8 fe cd be
       0.3735527 0.034163754 0.011282917 -0.40233493
000050 a3 d7 49 be 2f 3a dd be f0 72 01 be f5 2b dc be
       -0.19711165 -0.43208453 -0.12641501 -0.43002287
000060 45 ad e0 be 8b d2 81 be a0 da a5 be 24 75 9b 3c
       -0.43882194 -0.25355944 -0.3239336 0.018976755
000070 0c 18 0c 3f e5 1a ac be ab 28 52 3e 3a 0a 96 be
       0.5472419 -0.3361427 0.20523326 -0.29304677
000080 f7 39 e4 be 02 3b c2 be f6 0e 1e 3e 43 23 03 3d
       -0.44575474 -0.37935644 0.15435395 0.03201605
000090 f2 23 89 be 46 62 78 be 68 98 9e bc 3f b8 4b 3f
       -0.26785237 -0.24256238 -0.019359782 0.7957801
0000a0 85 ad 70 be 02 ad 59 3d 68 02 71 3e f6 08 b1 3e
       -0.23503692 0.05314351 0.23536074 0.3457715
0000b0 f9 dd 6b be 5e 3e 28 3e 45 84 d3 bd fc ec a4 3d
       -0.23033895 0.16430041 -0.10327963 0.08053014
0000c0 11 11 26 3f c8 c9 9c 3e 9f 73 ce 3d 9d b8 25 be
       0.6486979 0.30622697 0.10080647 -0.16183706
0000d0 2e be 24 be c6 12 c7 bc cf a7 86 3c 7f 4c a4 be
       -0.16088173 -0.024300944 0.01643744 -0.32089612
0000e0 17 2f db bd 19 e9 06 be e6 67 df bd 7f 28 ab 3e
       -0.10702341 -0.13174857 -0.10908489 0.33429334
0000f0 76 53 e3 3d 78 19 99 ba f6 0c 46 3e f3 82 0c 3f
       0.11099903 -0.0011680564 0.19340882 0.5488731
000100 e1 8c ba be 83 b0 ab be ad 8d c2 be e1 c3 84 be
       -0.36435607 -0.33533105 -0.37998715 -0.25930694
000110 85 a3 f3 3e ec 23 61 3d d8 74 07 be 5e 1e dc be
       0.47585693 0.0549659 -0.13228166 -0.42991918
000120 11 13 e0 3d a2 b7 56 bd 82 c6 17 3e de 7e a5 bd
       0.10941137 -0.05242122 0.14821818 -0.080808386
000130 28 c3 94 3e ad 19 c4 3e f7 2b 59 3d e6 c7 dd 3d
       0.29055142 0.3830084 0.053020444 0.10829143
000140 28 c8 70 3e 9c 57 b5 be b1 87 12 bf 96 3b da bd
       0.23513854 -0.35418403 -0.572383 -0.10655896
000150 af 2b f2 be a6 7e 90 bc 19 68 1c 3f 39 7c cb be
       -0.47298953 -0.017638516 0.6109634 -0.39743212
000160 40 74 97 3e ec 51 23 be 8a ff 89 3c d4 8f f7 3d
       0.2958088 -0.1594922 0.016845483 0.1208798
000170 a7 7f df 3e 66 45 c8 3e 69 3d 09 bf 4f 84 0a 3e
       0.43652079 0.39115447 -0.5360933 0.13527034
000180 45 64 ad be 7f 85 a0 3e 0c ce ca 3e a0 db e8 be
       -0.33865562 0.3135185 0.39610326 -0.4548006
000190 6f c5 96 3e b3 70 64 3e 48 69 9a be 24 fe 0f bf
       0.29447505 0.22308616 -0.30158448 -0.5624716
0001a0 1a 97 07 3d 0d 87 ca 3d 86 8a 50 3c ed 3f bc be
       0.033103086 0.0988904 0.012728339 -0.36767522
0001b0 0c fe 69 3d 7b 1b e1 3e b2 16 9c bc d4 17 60 3e
       0.057127044 0.43966278 -0.01905379 0.2188409
0001c0 c0 a6 d3 be dc c1 24 3c 73 1e 95 be a3 a1 dc be
       -0.41338158 0.010055985 -0.29124793 -0.4309207
0001d0 e2 30 42 be 38 ec 03 3e db a0 cb be 38 81 04 3d
       -0.1896396 0.12883079 -0.3977116 0.032349795
0001e0 20 02 e0 be 5e fd ab bb 06 80 4e 3e d3 b0 cc 3e
       -0.4375162 -0.0052487096 0.20166025 0.39978656
0001f0 51 be d8 3d 12 5f ba bd 2c 0e cf 3d c4 98 63 3d
       0.10583175 -0.091001645 0.10110125 0.05556561
000200 e5 92 b0 3d 61 bb 10 bc ac 25 38 3e 1d f1 d7 3e
       0.08621768 -0.008833737 0.1798312 0.42176142
000210 18 d4 3f 3e ac 42 a9 3e d5 a0 72 be d6 ac 05 be
       0.18733251 0.3305868 -0.23694165 -0.13054213
000220 68 5f 51 bd 8e e8 d6 3e 84 93 31 3d e0 5e 28 3c
       -0.051116377 0.419743 0.043353572 0.010276526
000230 db 94 7c 3e cd b0 03 be 09 c7 ac be a7 3f 10 3e
       0.24666159 -0.12860413 -0.33745602 0.14086781
000240 b5 59 21 be a4 5a 67 3e e9 d0 22 bf 60 b1 f3 be
       -0.15756877 0.2259317 -0.6360002 -0.47596264
000250 62 6d 33 be ac ab 41 3d 7d 08 85 3e 0a 51 78 3e
       -0.17522195 0.04728286 0.2598304 0.24249664
000260 b4 41 f0 be d0 59 92 3c 64 43 5b bb f5 e7 2b 3e
       -0.46925128 0.017865092 -0.0033456916 0.16787703
000270 9f 7c 1b 3e d8 d6 06 bd 4b 51 5f 3e 95 c0 0a be
       0.15184258 -0.032919735 0.21808355 -0.13550027
000280 68 5e 39 3e dd d2 c7 bd cc 44 9d 3e 75 4b 0b bd
       0.1810242 -0.09757016 0.3071655 -0.03400751
000290 b6 0f 3d 3e d9 27 4b bd d4 99 31 bf 24 c9 71 3c
       0.18463024 -0.04959855 -0.6937535 0.014757428
0002a0 06 a2 03 3f 96 3d 32 be 02 8f 60 be 2b 4a a8 3e
       0.51419103 -0.17406306 -0.21929553 0.32869086
0002b0 a5 d8 14 3e 3d 00 95 be 06 4a c2 be 59 ed ac be
       0.14535768 -0.29101744 -0.379471 -0.33774832
0002c0 21 0e 33 be 14 6e 49 bc 55 39 85 be f4 15 15 be
       -0.17485859 -0.012294311 -0.26020303 -0.14559156
0002d0 08 37 ef be f3 0f fb bc 30 fe 56 be ff d6 41 3e
       -0.46721673 -0.030647254 -0.20995402 0.18929671
0002e0 7a 65 a9 3e 28 a9 02 bf 77 a9 c4 bd 20 d3 b8 3d
       0.33085233 -0.5103936 -0.09602635 0.09024644
0002f0 2a 12 2a be e1 e1 37 3f 81 62 55 be a3 7c b1 bd
       -0.16608492 0.7182904 -0.20838358 -0.08666351
000300 b0 dd 43 3e 40 b3 87 be 74 57 d3 be ce 52 bf 3e
       0.19127536 -0.26503944 -0.4127766 0.37367862
000310 3b 98 47 3d 70 3a f8 bd c2 c4 84 3d bf 88 57 be
       0.048729163 -0.12120521 0.06482841 -0.21048258
000320 2a 49 99 be 58 2f e7 bc ec 76 36 bf ba 61 4e 3d
       -0.29938632 -0.028220817 -0.7127521 0.050386168
000330 78 a5 4a be d8 e8 e0 3b 06 f4 02 be be 5d 01 3f
       -0.19789684 0.0068636946 -0.127884 0.50533664
000340 18 cc 06 bf 8b 46 31 bc f7 8e 97 3b a6 4b f9 3d
       -0.5265517 -0.010820041 0.004625197 0.12172632
000350 12 a1 af 3e 92 ea 50 bd fd 6d 11 be 37 f6 a9 3e
       0.34302574 -0.051004954 -0.14202113 0.3319566
000360 01 c7 e0 3e 94 8d ac bb 24 1d cf 3e ae 6a 09 3f
       0.43901828 -0.005265901 0.4045192 0.53678405
000370 b9 d4 cf be df 58 a5 3d 26 05 c2 bd c6 97 d6 bd
       -0.40591982 0.080735914 -0.09473638 -0.10478167
000380 65 2e 4a be 6b 27 1d bc ba 0b 76 be 33 3d 97 3c
       -0.1974426 -0.0095919175 -0.24027911 0.0184618
000390 a1 70 91 bd 84 c4 37 bd d0 23 a5 3e 02 0b 1c 3d
       -0.071015604 -0.044865146 0.32253885 0.038096435
0003a0 f8 b6 86 be 41 76 3d 3f f4 d5 2b 3d d4 4f 38 bd
       -0.2631147 0.74008566 0.04195209 -0.044998005
0003b0 32 42 8b 3e ac 95 df 3e 1f 73 0e bf 01 d8 9b be
       0.2719894 0.43668878 -0.5564441 -0.30438235
0003c0 d4 23 10 bf cc 7a 8e 3d 39 26 a1 3e 95 45 31 3e
       -0.5630467 0.069570154 0.31474474 0.173117
0003d0 6d 5a aa bd 52 28 08 3e eb 35 37 3c 35 cb 82 be
       -0.083180286 0.13296631 0.011182289 -0.2554566
0003e0 fb 29 8e be 01 d3 0c bd c3 9d b3 3e 6e d8 a3 bd
       -0.27766404 -0.034380917 0.350813 -0.08000265
0003f0 87 33 e0 3e f2 4e 16 bf 74 17 33 3d 75 8f b3 3e
       0.43789312 -0.5871421 0.04372354 0.35070387

neg_net.linears.0.bias f4 [30]
000000 2c 55 0f be ac f6 ae be ae 64 3a be b9 82 2c 3e
       -0.13997334 -0.3417257 -0.18202469 0.16846742
000010 26 1e 5e be 3c 10 40 bd 11 c3 48 be d8 dd 39 be
       -0.21691188 -0.046890482 -0.19605662 -0.18151033
000020 62 df 02 be 58 1e 3e be 3a d9 99 bd cf 61 0e bf
       -0.12780526 -0.18566263 -0.07512136 -0.55617994
000030 23 ae 8f be 5d e4 1d 3d 48 38 d9 3d df e0 15 3d
       -0.28062543 0.038547862 0.10606438 0.036591407
000040 15 46 ae bd bf 24 8b bc 72 ab 8f 3e 5e 0c 22 3e
       -0.08509461 -0.016985295 0.2806049 0.1582503
000050 70 ff 52 be 13 00 cb be 6a 1a 90 3e 18 4c 95 3d
       -0.20605254 -0.39648494 0.28145152 0.07289904
000060 29 e5 3f be 69 0b 20 be c9 c3 a1 3d 9b 16 d2 bd
       -0.18739761 -0.15629353 0.07898671 -0.10258218
000070 10 41 38 bf 2e 01 25 bc
       -0.7197428 -0.010071082

neg_net.linears.1.weight f4 [30, 30]
000000 eb 8e ab bd bb 7b be bd 19 86 d7 bd a0 e7 f3 bd
       -0.08376869 -0.093009435 -0.10523624 -0.11909413
000010 8b 41 e1 3d 0e b8 10 be 85 94 8d bd 1a f0 a8 3d
       0.109988295 -0.14132711 -0.069130935 0.08248921
000020 29 7a 98 bd 75 8b c6 3d 19 dc 16 be 6b 62 dc bd
       -0.07445175 0.09694568 -0.14732398 -0.10760959
000030 a0 b2 b0 bc c8 c5 f6 3d d0 17 15 bc a2 b3 0d 3d
       -0.02156955 0.120494425 -0.009099916 0.03459514
000040 4d e4 8b 3d 77 18 8d bd b0 c0 dc 3d 1c b5 4a 3d
       0.06830654 -0.06889432 0.1077894 0.049489126
000050 5c 20 ad bb 5c 27 e6 bc d8 67 e4 bd 98 df de bd
       -0.0052833986 -0.02809494 -0.11152619 -0.10882491
000060 7d 02 87 bd 66 64 6a 3d 55 c8 d1 bd 33 da 38 be
       -0.065922715 0.057224654 -0.102432884 -0.18051986
000070 54 15 1d 3c 02 6f 4f bd 6c 31 1e 3c 5d 25 27 bd
       0.009587605 -0.050642975 0.009655338 -0.040807117
000080 98 3a 54 3d 30 ac 8f bd c7 f6 89 bd 01 f1 60 bd
       0.05181369 -0.07015264 -0.06736522 -0.05491734
000090 7c 98 36 be 6f aa 05 be b2 be 7a be a4 b1 d7 bd
       -0.17831606 -0.13053297 -0.24486807 -0.10531929
0000a0 18 08 29 be 6b 93 58 bc 42 37 16 bd 8c 82 49 bd
       -0.16506994 -0.013218741 -0.03667379 -0.049196765
0000b0 be 63 9a bd f2 56 36 3d 0a fc 82 3d 20 78 54 be
       -0.075385556 0.04451651 0.06395729 -0.20748949
0000c0 78 70 ab 3b 9e 1d 32 bd a5 80 df bd 23 a0 f4 bd
       0.005231913 -0.043485276 -0.10913209 -0.11944606
0000d0 4d b1 76 3d 39 85 55 be 8e c6 75 be c8 e3 93 3d
       0.06022768 -0.20851602 -0.24001524 0.0722118
0000e0 c6 7c e4 bd 12 ce 5c 3d ec f0 11 be 0c d4 2f be
       -0.11156611 0.05390746 -0.1425206 -0.17170733
0000f0 3a 99 25 be d0 86 f0 3a 2e c6 01 3e 18 b4 db bd
       -0.16171733 0.0018350724 0.12673256 -0.107277095
000100 f7 34 4e be e0 ce 5e bd 9a e2 89 be ec a5 f6 bd
       -0.20137392 -0.05439651 -0.26930696 -0.12043366
000110 fe d9 9a bd 14 cf 78 bd cc d8 19 be ef 0e eb bd
       -0.0756111 -0.06074436 -0.15024108 -0.11477458
000120 f8 2d 43 3e 11 89 75 be 91 5b b8 be 47 1e 3b be
       0.19060504 -0.23978068 -0.3600736 -0.18273269
000130 77 3a 4b 3d 8e 0b 4d 3d ea f5 64 be 74 6c cd 3c
       0.049616303 0.050059848 -0.22359434 0.025076129
000140 bc d7 9c bd 47 09 a1 bc f4 02 a0 bd e8 7d bb be
       -0.076583356 -0.019657744 -0.07813063 -0.36619496
000150 52 db 99 be 54 b8 30 bd ba 1b 33 bb ff 46 35 be
       -0.3005014 -0.04314454 -0.0027329759 -0.17702864
000160 76 19 07 bd 13 a1 6f be ea 91 04 3f e2 34 06 be
       -0.032983266 -0.23401289 0.5178515 -0.1310611
000170 b3 6b 07 bf 24 af 21 3d 83 8f 36 3e 1f e1 42 3e
       -0.5289871 0.039473668 0.17828183 0.1903119
000180 19 37 f6 3d b1 4c b2 be 10 01 a2 be be ea 8a 3e
       0.12022228 -0.34824136 -0.31641436 0.2713222
000190 2c 6e 89 be 6f e8 90 be 21 19 95 be 7c eb 28 bc
       -0.26841867 -0.28302333 -0.29120734 -0.01031005
0001a0 48 59 f7 3e d5 aa 82 be b9 0b 80 3e 21 26 ae 3c
       0.48310304 -0.2552096 0.25008944 0.021258416
0001b0 5d 07 8d 3e 1f 88 04 bf f0 f8 f6 be 7d 3b ad 3e
       0.2754468 -0.51770204 -0.482368 0.33834448
0001c0 97 d7 40 bf ad 88 02 be 9d 66 8f 3e 04 9c ba 3e
       -0.75328964 -0.1274745 0.28007975 0.36447155
0001d0 59 6c ca be 44 74 c5 be 95 d6 e1 3d 8e 89 71 be
       -0.39535788 -0.38565266 0.110272564 -0.23587629
0001e0 a3 f6 ae bd d8 a2 06 be 91 49 65 be 78 b1 38 be
       -0.08543136 -0.13148057 -0.22391345 -0.18036449
0001f0 57 62 94 be 1a 99 02 be 90 68 8c be 52 3e 70 bc
       -0.28981277 -0.12753716 -0.27423525 -0.014663296
000200 d5 23 97 bd 2b 2d b6 be 4c a7 84 be 80 d6 3a bc
       -0.07379881 -0.35581335 -0.25908887 -0.01140368
000210 4a 53 88 be 5f 34 4c be 44 bc 61 be a1 86 98 be
       -0.26626045 -0.19941853 -0.22044474 -0.29790214
000220 7b ec 49 be 67 4e ae be 62 97 e2 be bd 26 7b be
       -0.19719116 -0.3404419 -0.4425612 -0.24526496
000230 1e 23 15 bd 14 bb 35 3c 32 3f e2 bd 48 fd 2a be
       -0.036410443 0.011091966 -0.1104721 -0.16698182
000240 79 67 bd bd 62 b9 57 be 19 ae 8c be 77 eb e0 bd
       -0.092482515 -0.21066812 -0.27476576 -0.10982411
000250 ed 5a 8e be 90 16 dc bb 85 31 db be 8b 15 bb be
       -0.27803746 -0.006716557 -0.42811218 -0.36539873
000260 97 d9 57 be c3 86 cf be 36 3a d8 3d 83 d3 64 be
       -0.21079098 -0.40532503 0.10557978 -0.2234631
000270 29 63 87 be 06 1e 88 be 5e b9 9d 3b e3 f2 2e 3e
       -0.2644284 -0.26585406 0.0048133573 0.17084841
000280 6b 10 a9 be 84 cf 2b 3d cd 36 aa bc 2a 20 ac bd
       -0.33020338 0.04194595 -0.020778084 -0.08404572
000290 da f9 95 be 62 f8 48 be d4 6a d9 bc 94 aa 9b be
       -0.29292184 -0.19626 -0.026540197 -0.30403578
0002a0 44 d7 94 3d a9 8a a8 3c 67 3a b2 bc eb 83 6e be
       0.07267621 0.02057393 -0.021756364 -0.2329251
0002b0 d6 68 d2 be 1c 2f a0 be 27 38 99 be 61 e7 97 bc
       -0.41095608 -0.31285942 -0.29925653 -0.018542947
0002c0 4e 0c 74 be a8 36 26 3c 76 7b 67 be 0e 08 de bd
       -0.23832819 0.010144867 -0.2260569 -0.1084138
0002d0 04 e0 58 be 88 dd 24 bd e7 0f cc 3d d0 a7 b2 3e
       -0.21179205 -0.04025033 0.09963971 0.34893656
0002e0 57 ea df be 4b c9 d2 be 9e f7 5b bd fd 4d d4 3d
       -0.43733475 -0.411692 -0.053702943 0.103664376
0002f0 c6 22 87 3e c9 84 57 be bb c6 6e 3e f5 d0 bb be
       0.26393718 -0.21046747 0.23317997 -0.3668286
000300 13 0e 82 be 34 cd 55 3d db 91 f7 3d c3 af a0 3e
       -0.25401363 0.05219765 0.120883666 0.31384096
000310 6f cc 3f 3e db 5f b7 3e 29 92 d3 3d f7 e1 4f be
       0.18730329 0.3581532 0.10330612 -0.20301042
000320 2d 0f 36 3d 43 76 ca 3e ad 3c 38 3e e6 52 55 bc
       0.044448067 0.39543352 0.17991896 -0.013020253
000330 40 b1 37 be d2 a6 73 be 95 8c 01 3e 82 cd ed 3c
       -0.1793871 -0.23794106 0.12651284 0.029028658
000340 08 01 52 be 05 11 95 3d ea ef c9 be 4e cd 3b bf
       -0.20508206 0.07278637 -0.39440852 -0.73360145
000350 c6 bc 69 bd 39 ff 28 be 9c ef 73 be e4 7c 83 be
       -0.057064794 -0.1650361 -0.23821872 -0.2568122
000360 e9 fe f3 be ed f6 f3 bc 3b d9 a9 3e 36 3c 72 3d
       -0.4765542 -0.02978083 0.33173546 0.059139453
000370 bf e7 8a bc cb 86 98 be 2b 8c d4 bd 68 e1 80 be
       -0.016956208 -0.2979034 -0.103782974 -0.2517197
000380 58 6c b9 be 1c 12 4f be 04 02 d3 bd 79 e9 ec 3d
       -0.36215472 -0.20221752 -0.10303119 0.11567969
000390 e1 00 9f 3c fb b3 42 3e cd 77 40 3e 3c 85 27 3e
       0.019409599 0.1901397 0.187957 0.16359419
0003a0 7a 93 6b 3e e9 ec 59 3e 87 b0 02 bf 54 0f 37 bd
       0.23005477 0.2128178 -0.5105061 -0.044692352
0003b0 78 07 51 3d b4 0d ec 3d 78 3a ac bd 17 f9 3f 3e
       0.051032513 0.11526051 -0.084095895 0.18747364
0003c0 d8 3d 0d 3d 3e 86 22 bc 16 3f 22 be 1e eb af be
       0.034482807 -0.009919701 -0.15844378 -0.34359068
0003d0 17 23 6e be 81 30 05 be 93 bd b3 be ce 3b 3e be
       -0.23255573 -0.13006784 -0.3510557 -0.18577501
0003e0 28 d3 42 be 81 c9 8b be 47 f6 2a be b4 da 23 be
       -0.19025862 -0.27302173 -0.1669551 -0.16001397
0003f0 ce ac 16 be a2 09 06 be cf 1b 61 bd fb 26 0e be
       -0.14714357 -0.13089612 -0.05495816 -0.13882057

neg_net.linears.1.bias f4 [30]
000000 d1 17 90 bd c1 82 6c be 0f af a6 be 2b ef 8b bd
       -0.070357926 -0.23096754 -0.32555434 -0.06832727
000010 a5 13 85 be 42 13 a8 be ba af 87 3d 71 ab da bc
       -0.2599155 -0.32827193 0.06625314 -0.026693078
000020 67 78 98 be 20 fb 62 3d 1d dd 1f be ac 0e d0 bd
       -0.2977936 0.055415273 -0.15611692 -0.101590484
000030 3d 29 68 3e 8e d0 70 3d e5 21 d6 bd 1c 42 e9 3d
       0.22671981 0.058792643 -0.104556836 0.113895625
000040 ca 7e 8a 3c 23 9b 86 be 3a a1 1a 3d 3c 49 9d bc
       0.01690616 -0.26290235 0.037751414 -0.01919996
000050 62 0b 40 bd d1 9f da bd 9c 9d 58 bd df f4 0b 3e
       -0.046885855 -0.10675014 -0.052884683 0.1366763
000060 ed bc ba bd 7b c6 6d 3e 6e 8c af 3c 45 09 cf 3d
       -0.09118066 0.23220246 0.021429267 0.1010919
000070 8c 35 18 3e 2e 2f cb be
       0.14864177 -0.39684433
