data/MTMR_28002/sim/random/MLSE4POL/bias_0.001/train/N500/D6_SinCosInput/10/result/model/ReLU_Dual_UDirection_BP.pt (torch_old, 22776 bytes, 20 tensors)

input_mean f4 [12]
0	0x3c488f3c	0.012241181
1	0x3e7abcd8	0.244861
2	0xbbfcdeba	-0.0077169808
3	0x3e5b7050	0.21429563
4	0x3e4d74ad	0.2006404
5	0xbb1273bd	-0.0022346817
6	0x3f6aacfe	0.91670215
7	0x3f6c5db6	0.9233049
8	0x3f70b950	0.94032764
9	0x3e2cb07e	0.16864201
10	0x3e866773	0.262508
11	0x3f6bd7b1	0.92125994

input_std f4 [12]
0	0x3ec9019f	0.3925905
1	0x3e9143d9	0.28372076
2	0x3eac3829	0.33636597
3	0x3f26e083	0.6518633
4	0x3f2f8e94	0.6857693
5	0x3ec3caff	0.3824081
6	0x3d9637eb	0.07334884
7	0x3dac018d	0.08398733
8	0x3d5017a3	0.05080379
9	0x3f3525db	0.7076089
10	0x3f260425	0.64850074
11	0x3d9160f1	0.07098568

output_mean f4 [6]
0	0x3ce1396b	0.0274932
1	0x3ef31fcb	0.47485194
2	0x3e542d03	0.20720296
3	0xbbf128fb	-0.0073596216
4	0xba10287d	-0.0005499197
5	0x3adb3e5d	0.001672696

output_std f4 [6]
0	0x3d1281ca	0.035768308
1	0x3e29fa4f	0.16599391
2	0x3e191b57	0.14951836
3	0x3dd4b247	0.10385566
4	0x3cfd1125	0.030891964
5	0x3c95db09	0.01829292

pos_net.linears.0.weight f4 [30, 12]
0	0xbd20b61a	-0.039236166
1	0xbd8132cb	-0.06308516
2	0x3ea6cf3f	0.3257999
3	0x3f0a016c	0.5390842
4	0x3dc96162	0.098330274
5	0xbe83c82c	-0.25738657
6	0x3e82ea0d	0.25569192
7	0xbc4a4a50	-0.012346819
8	0xbd2ecd02	-0.04267598
9	0xbdb3110a	-0.08743484
10	0x3e7ad64c	0.2449581
11	0x3d415f27	0.047209885
12	0x3da45e8d	0.08025847
13	0xbefdc60d	-0.49565163
14	0xbdd922fc	-0.10602376
15	0xbdd397a0	-0.103316545
16	0x3f1a7a6c	0.6034305
17	0xbf638293	-0.88871115
18	0xbcd06dc2	-0.025442962
19	0xbd90090c	-0.070329756
20	0x3dbe3df7	0.092891626
21	0xbab64db3	-0.0013908654
22	0xbe9e346f	-0.3089938
23	0x3e4895dc	0.19588417
24	0xbec53cc9	-0.38522938
25	0x3ea7693c	0.32697475
26	0x3eed4174	0.46339
27	0x3e3bdaf0	0.18345237
28	0xbf1f84d9	-0.62312084
29	0xbeeae102	-0.45874792
30	0xbdedd327	-0.1161254
31	0xbdf3e6df	-0.119092695
32	0x3df6294e	0.12019597
33	0x3f3f079c	0.74620986
34	0xbe81692e	-0.25275558
35	0xbd849683	-0.0647402
36	0xbb070a3e	-0.002060547
37	0x3d83229f	0.06403088
38	0xbe9945cd	-0.29936066
39	0xbf4422c4	-0.7661555
40	0xbf08102e	-0.5314969
41	0x3e85bce8	0.26120687
42	0x3bdb89e7	0.006699789
43	0x3e5f9951	0.2183583
44	0x3ca44975	0.020054558
45	0xbf01d58a	-0.5071646
46	0x3d93b05a	0.07211371
47	0xbd87ae43	-0.06625035
48	0x3eba6c74	0.36410868
49	0x3ed48dfc	0.41514575
50	0x3efa2dfa	0.48863202
51	0x3e435a17	0.19077335
52	0x3efa08df	0.48834893
53	0x3dd3b70d	0.103376485
54	0xbd8821b6	-0.06647055
55	0xbd56c57a	-0.052434422
56	0x3e06bdb1	0.13158299
57	0xbf0888a1	-0.5333348
58	0xbea8eecf	-0.32994696
59	0xbe05e509	-0.13075651
60	0xbe17ca2d	-0.14823218
61	0xbf0f588a	-0.55994475
62	0xbf51d2aa	-0.8196207
63	0x3e1cf41c	0.15327495
64	0xbec1fbe2	-0.37887484
65	0x3bc139a6	0.005896765
66	0xbd8b5a09	-0.06804282
67	0x3e5f1989	0.21787085
68	0x3e3cda7c	0.1844272
69	0x3ee7b4ae	0.45255035
70	0x3c25203d	0.010078487
71	0x3d70e02f	0.058807548
72	0xbea244c9	-0.31693104
73	0xbf188f92	-0.5959407
74	0x3e01e3d2	0.12684563
75	0x3ef38a10	0.4756627
76	0x3ed46726	0.41484946
77	0xbd7881d5	-0.060670692
78	0xbe272356	-0.16322073
79	0xbe5e3b7f	-0.21702383
80	0xbcd58437	-0.026064022
81	0xbe936908	-0.2879107
82	0xbe0d930f	-0.1382563
83	0x3e080071	0.13281418
84	0x3da1ca5c	0.07899925
85	0x3e6b9339	0.2300538
86	0x3e163182	0.14667323
87	0xbdd0962c	-0.10184893
88	0x3f3781b2	0.71682274
89	0x3ed2059a	0.410199
90	0x3dd1a64d	0.102367975
91	0xbebde85e	-0.37091345
92	0xbded85f4	-0.11597815
93	0x3f1df7e8	0.617064
94	0x3dd46700	0.10371208
95	0x3cec2143	0.028824454
96	0x3d8883fc	0.06665799
97	0xbddfdc68	-0.10930711
98	0xbee79fac	-0.45239007
99	0xbf2c96ab	-0.674174
100	0x3f119c2e	0.56878936
101	0xbe3ce307	-0.18445979
102	0xbc513c0b	-0.012770663
103	0xbd04e44a	-0.032444276
104	0x3e611e82	0.21984294
105	0x3f2d65a4	0.67733216
106	0xbe4239ec	-0.18967408
107	0xbba19b84	-0.004931869
108	0xbe9addd7	-0.30247375
109	0xbd6ddf9d	-0.058074582
110	0x3f3dffd2	0.74218476
111	0xbf00c45a	-0.5029961
112	0x3e81c477	0.25345203
113	0xbe84a637	-0.25908062
114	0xbe51db9b	-0.20493929
115	0x3e6beec3	0.23040299
116	0x3e895910	0.26825762
117	0xbd5b5334	-0.053546146
118	0x3e45e22f	0.19324563
119	0x3e81ed33	0.2537628
120	0x3e63f8aa	0.22262827
121	0xbf2a604d	-0.66553193
122	0x3ca968b8	0.020679817
123	0xbe425af4	-0.18980008
124	0x3ecdf092	0.40222603
125	0x3e70b0bd	0.2350492
126	0xbe301f73	-0.17199497
127	0x3e6ab02c	0.22918767
128	0xbe8c190a	-0.27362853
129	0x3dc35537	0.09537738
130	0xbe903475	-0.28165022
131	0xbeda0d8c	-0.4258846
132	0x3e2ab864	0.16671902
133	0xbe28dba3	-0.16490035
134	0x3e966553	0.2937418
135	0xbe5c1d35	-0.21495517
136	0x3e3dccc3	0.18535142
137	0x3db41d01	0.087945946
138	0xbea82cb5	-0.3284661
139	0x3e146d6e	0.14494869
140	0xbdaec5ec	-0.08533844
141	0x3dc880aa	0.09790166
142	0xbe592249	-0.21204485
143	0x3ea2910c	0.31751287
144	0xbeb0ef66	-0.34557647
145	0x3e80288e	0.2503094
146	0xbe38f68b	-0.18062799
147	0x3da32cf9	0.07967562
148	0x3db7945b	0.089638434
149	0x3e234651	0.15944792
150	0xbe0993b1	-0.13435246
151	0xbd141bfd	-0.036159504
152	0x3de0b35c	0.1097171
153	0x3ecea0f7	0.4035718
154	0xbf77caab	-0.9679362
155	0x3edcaab5	0.4309899
156	0x3e09dea6	0.1346384
157	0x3e2e8a49	0.17044939
158	0x3d8548b3	0.06508007
159	0xbe526ae4	-0.20548588
160	0xbeef17b9	-0.46697786
161	0x3f3d66cb	0.73984975
162	0xbe6dc3cf	-0.23219226
163	0x3d883640	0.06650972
164	0xbba761b3	-0.005108082
165	0xbda3364b	-0.0796934
166	0x3ec053c3	0.37563905
167	0x3d95fcb4	0.0732359
168	0xbeba0623	-0.36332807
169	0x3e2690bc	0.1626615
170	0xbdda0498	-0.106454074
171	0xbd3fe73f	-0.046851393
172	0x3e5aab91	0.2135451
173	0x3c68a860	0.0142003
174	0x3d7ef15a	0.06224189
175	0xbead251f	-0.33817384
176	0xbde80d96	-0.11330716
177	0xbf1aa987	-0.6041493
178	0x3e75f8a3	0.24020629
179	0xbdd679b6	-0.10472433
180	0x3cc6e4b9	0.024278985
181	0xbf4b71d4	-0.7947056
182	0xbf1e4eb9	-0.6183887
183	0x3e9c4392	0.30520302
184	0x3eb6762e	0.3563704
185	0x3df03eef	0.11730754
186	0xbdbacdc6	-0.091212794
187	0xbdb03cd1	-0.0860535
188	0xbe58c9b0	-0.21170688
189	0xbd69c4aa	-0.05707232
190	0x3f279a0a	0.6546942
191	0xbe0780a8	-0.13232672
192	0xbf4d9732	-0.8030883
193	0x3e0d1859	0.13778819
194	0x3e841625	0.25798145
195	0xbe770f12	-0.24126843
196	0xbb91d6c8	-0.0044506527
197	0x3d981e7f	0.07427692
198	0xbe73c6ad	-0.23806258
199	0xbdf5c69c	-0.12000772
200	0x3cc2085c	0.023685627
201	0x3e1ee90a	0.15518585
202	0x3e37e57c	0.17958635
203	0x3e0ce9b6	0.13761029
204	0xbeeb1da7	-0.4592106
205	0x3de47dc2	0.11156799
206	0xbe3dd3e5	-0.18537863
207	0xbeff46f5	-0.49858823
208	0x3d815734	0.06315461
209	0xbdfc3ea4	-0.12316635
210	0xbe813b08	-0.2524035
211	0x3d374c29	0.044750366
212	0xbd59f91a	-0.053216077
213	0xbdff44cf	-0.12464296
214	0x3e9b4697	0.30327293
215	0xbe8ff591	-0.2811704
216	0xbe9ff2db	-0.31239972
217	0xbd793d2a	-0.060849346
218	0xbef8a8ad	-0.4856619
219	0xbee22f5a	-0.4417675
220	0x3de0929f	0.10965466
221	0xbedb19bf	-0.4279308
222	0x3e2e6823	0.17031913
223	0x3e672749	0.2257358
224	0x3dd416f5	0.10355941
225	0x3e967087	0.29382727
226	0xbebe8b67	-0.3721573
227	0x3d141995	0.03615721
228	0x3d711dad	0.05886619
229	0x3f05ffa5	0.5234321
230	0x3e3e3135	0.18573458
231	0xbd05c1b1	-0.03265542
232	0x3f3e1e30	0.7426481
233	0xbeaef704	-0.34172833
234	0x3e761dc3	0.2403479
235	0xbe64fbdb	-0.223617
236	0x3d9eb7c9	0.07749898
237	0x3ec992ce	0.39369816
238	0xbe38e0d0	-0.18054509
239	0xbd34d3d0	-0.044147313
240	0xbd12376f	-0.035697397
241	0xbe8c3958	-0.273875
242	0x3cf2365f	0.029566942
243	0x3e189099	0.1489891
244	0xbecd8ea1	-0.4014788
245	0x3eb09aa0	0.3449297
246	0x3dd85bcc	0.10564384
247	0x3b2ef249	0.0026694706
248	0x3de397f0	0.11112964
249	0x3f0ac5c7	0.54208034
250	0x3e79f84d	0.24411125
251	0x3e898ff5	0.26867643
252	0xbe12c41f	-0.14332627
253	0xbe360a01	-0.17777254
254	0x3e14a362	0.1451545
255	0x3e62817a	0.22119704

pos_net.linears.0.bias f4 [30]
0	0xbd9e84a8	-0.07740146
1	0xbec14a6e	-0.37752098
2	0x3d991ffe	0.07476805
3	0xbe2947cc	-0.16531295
4	0x3d9bded2	0.07610859
5	0xbdfee875	-0.124466814
6	0x3d56f512	0.05247981
7	0xbe471d75	-0.1944483
8	0xbd008502	-0.031376846
9	0xbe6efa63	-0.23337702
10	0xbe724738	-0.2365998
11	0xbe6a8966	-0.22903976
12	0xbe5c0c8a	-0.21489158
13	0xbecd05a3	-0.40043363
14	0xbee2e213	-0.44313106
15	0xbe8fa428	-0.2805493
16	0x3e838170	0.2568469
17	0xbdfa50f3	-0.12222471
18	0x3dab2f22	0.08358599
19	0xbe793c3a	-0.24339381
20	0xbf046bbf	-0.5172691
21	0xbeba82a2	-0.3642779
22	0x3d803358	0.06259793
23	0xbf360aaf	-0.7111005
24	0x3c1be4e2	0.009515019
25	0xbe2f9307	-0.1714593
26	0x3d46cc07	0.04853442
27	0xbe6be9c3	-0.23038392
28	0xbd184032	-0.037170596
29	0x3eaf4501	0.34232333

pos_net.linears.1.weight f4 [30, 30]
0	0x3eaa47e6	0.3325798
1	0x3e5ea26d	0.21741648
2	0xbcd840d5	-0.026398102
3	0xbe98c3c5	-0.2983686
4	0x3e6f6048	0.23376572
5	0x3d98030b	0.074224554
6	0x3ee83eb0	0.45360327
7	0x3cb48a83	0.022038704
8	0xbe413fa1	-0.18871929
9	0xbe12529a	-0.14289322
10	0x3e9d4011	0.3071294
11	0xbe36d674	-0.17855245
12	0xbe77d965	-0.24204023
13	0xbdc13fd9	-0.09436006
14	0x3e4ec315	0.20191605
15	0x3e87866c	0.26469743
16	0x3de953cd	0.11392937
17	0x3e0cb2d9	0.137401
18	0x3c149582	0.009068849
19	0xbe803937	-0.2504365
20	0x3e1f6b91	0.15568377
21	0x3e97a2bc	0.29616344
22	0xbdf2fbb0	-0.11864412
23	0xbe8c8da8	-0.27451825
24	0xbe68d1ee	-0.22736332
25	0x3eb98c70	0.36239958
26	0xbe544d33	-0.20732574
27	0x3babbe00	0.0052411556
28	0x3ed9fd1f	0.4257593
29	0x3ddf8955	0.10914866
30	0xbd4ec8fd	-0.050484646
31	0xbd9757d6	-0.073898
32	0xbe2b9d9d	-0.16759343
33	0xbd5c48eb	-0.053780477
34	0xbb6a9601	-0.0035794976
35	0xbe09bfd2	-0.1345208
36	0xbdc83969	-0.09776575
37	0xbd091338	-0.033465594
38	0xbde47998	-0.11156005
39	0xbce6de13	-0.028182065
40	0xba27c504	-0.0006399902
41	0xbca905f2	-0.020632718
42	0x3b8516ea	0.0040615695
43	0xbd41e482	-0.047337063
44	0xbdd4a03c	-0.10382125
45	0xbd2400fd	-0.040040005
46	0xbdb88926	-0.09010534
47	0xbd81bdc1	-0.06335021
48	0xbe54783e	-0.20748994
49	0x3af51da3	0.0018700849
50	0xbda30e01	-0.079616554
51	0x3b79af45	0.0038098854
52	0xbd22a507	-0.039708164
53	0xbd0f9820	-0.035057187
54	0x3b817801	0.003951073
55	0xbab74636	-0.0013982716
56	0xbdd42abc	-0.103597134
57	0xbd95d7dc	-0.073165625
58	0xbdbef27a	-0.093235925
59	0xbc851689	-0.016246097
60	0xbea93350	-0.3304696
61	0x3c6b738e	0.014370812
62	0xbf0dac76	-0.5534128
63	0x3dd54d6b	0.10415157
64	0xbe44250b	-0.19154756
65	0x3bc7745f	0.0060868706
66	0x3d47710a	0.048691787
67	0xbe16bb49	-0.14719881
68	0x3ee0ed56	0.43931073
69	0x3d70a60a	0.058752097
70	0x3ec78772	0.38970524
71	0xbdf7fb75	-0.121085085
72	0x3ed7edc9	0.42173603
73	0xbdf656e6	-0.12028293
74	0x3c4c9a1a	0.012487913
75	0xbefd3e18	-0.49461436
76	0xbdbddadb	-0.09270259
77	0x3e421706	0.18954095
78	0x3eb1c3b1	0.34719613
79	0x3e12364c	0.14278525
80	0xbeaf6e2f	-0.3426375
81	0xbd8bb8bb	-0.06822344
82	0xbd76c172	-0.060243078
83	0xbf2d138c	-0.6760795
84	0x3e2e2a56	0.17008337
85	0x3e41ec94	0.18937904
86	0x3daaba02	0.083362594
87	0xbe334b24	-0.17509133
88	0xbf44532e	-0.7668942
89	0x3e1ded9e	0.15422675
90	0x3c018cb0	0.007907078
91	0xbc889f64	-0.016677566
92	0xbd8156ed	-0.06315408
93	0x3b9fb3d8	0.004873734
94	0x3d0d5722	0.034506924
95	0xbb3d4d1c	-0.0028885072
96	0xbb67a084	-0.0035343478
97	0xbd10e3e9	-0.035373602
98	0xbc766684	-0.01503909
99	0x3a84ee0e	0.0010141747
100	0x3c078420	0.008271247
101	0x3a2e6144	0.0006652067
102	0x3c1024d4	0.008797843
103	0x3a738bc8	0.00092905434
104	0x3c74db97	0.014944932
105	0xbb20cde7	-0.002453679
106	0x3c442bd1	0.011973337
107	0x3aae9fce	0.0013322772
108	0x3c0434d1	0.008069233
109	0x3c3136d0	0.010816291
110	0x3be5e636	0.0070159687
111	0xbc132270	-0.0089803785
112	0x3ce6d43b	0.028177371
113	0xba3ae745	-0.0007129799
114	0x3a6053e0	0.000855742
115	0x3c80b836	0.015712839
116	0xbdbc7944	-0.09202817
117	0xbb324fd0	-0.0027208216
118	0xbc915de6	-0.01774497
119	0x3c56b3f4	0.013104428
120	0xbc2952e2	-0.010334702
121	0xbc81458c	-0.015780233
122	0xbcfe0bc6	-0.031011473
123	0xbcde67ba	-0.02714907
124	0x392e1b40	0.00016604085
125	0xbd294eb7	-0.041334834
126	0xbc8b49c3	-0.017002946
127	0x3c40cf2c	0.011768144
128	0xbc72a010	-0.01480867
129	0x3c360e33	0.011111784
130	0x3d6c309b	0.05766354
131	0xbc2e6931	-0.010645197
132	0x3d140f12	0.036147185
133	0xbc51fadc	-0.012816157
134	0xbc3b9c5c	-0.011450853
135	0xbce4b8cb	-0.027920147
136	0x3d08a02c	0.033355877
137	0x3c89aacc	0.016805075
138	0xbcca3141	-0.02468169
139	0x3be10403	0.0068669333
140	0xbc756622	-0.014977964
141	0x3c39fa08	0.011351116
142	0xbc8b00a1	-0.016968073
143	0xbc6459f6	-0.013937464
144	0x3d17c360	0.03705156
145	0xbbd860e4	-0.006603347
146	0xbc8c6e85	-0.017142544
147	0x3bb51728	0.005526442
148	0xbc979178	-0.018501982
149	0xbd065332	-0.032794185
150	0x3e24bbcd	0.16087265
151	0xbe2524a7	-0.16127263
152	0xbf0cdac5	-0.55021316
153	0x3ed3fd0c	0.41403997
154	0xbe36f388	-0.17866337
155	0xbe189e51	-0.14904143
156	0xbe5201eb	-0.20508544
157	0x3da86779	0.08222861
158	0xbe2ad33a	-0.16682139
159	0x3e85dfd4	0.2614733
160	0x3ebc1795	0.36736742
161	0xbd8bdfbc	-0.06829783
162	0xbda7f93c	-0.082018346
163	0xbd1a49b4	-0.037667945
164	0x3e87f909	0.26557186
165	0xbeaa6da5	-0.33286777
166	0xbebac73f	-0.36480138
167	0xbe4bf682	-0.19918254
168	0xbdcb74fa	-0.09934421
169	0xbdf23771	-0.11826981
170	0xbe6b89bd	-0.23001762
171	0xbead2fb4	-0.33825457
172	0xbd054b31	-0.03254241
173	0x3e48b03f	0.19598483
174	0x3eed54dc	0.46353805
175	0xbe83222e	-0.25612015
176	0xbd6ff311	-0.058581416
177	0x3d1a37f2	0.03765101
178	0x3d9ec274	0.07751933
179	0x3e2ae4fa	0.1668891
180	0xbe09a9a9	-0.13443626
181	0xbdb49f51	-0.0881945
182	0xbd860876	-0.065445825
183	0xbc4b0e61	-0.012393565
184	0x3e3255b5	0.17415507
185	0xbe2204ec	-0.1582219
186	0x3e2f8360	0.1713996
187	0xbe29b156	-0.16571555
188	0x3c9e2f1d	0.019309575
189	0x3f1f3751	0.6219378
190	0xbdfff53f	-0.12497949
191	0x3e4eb6a8	0.20186865
192	0xbe94a8f4	-0.2903515
193	0xbe8ec298	-0.27882838
194	0x3e8335a6	0.25626868
195	0xbdd38613	-0.10328307
196	0x3d10a7aa	0.035316147
197	0xbca01f9e	-0.019546326
198	0x3d8fbc4c	0.07018337
199	0xbe17eb77	-0.14835916
200	0x3dea16ca	0.11430128
201	0x3e112819	0.14175452
202	0x3e02779a	0.12740937
203	0xbd81c7f7	-0.063369684
204	0xbe829e02	-0.25511175
205	0x3e350872	0.17679003
206	0xbe4e9983	-0.20175748
207	0xbe636769	-0.22207417
208	0x3e240c42	0.16020301
209	0x3dd58e16	0.10427491
210	0xbd63a15e	-0.055573814
211	0xbe219375	-0.15778907
212	0xbe86033e	-0.2617435
213	0x3e8de1e7	0.27711412
214	0xbe6bac61	-0.23014976
215	0xbeca8408	-0.39553857
216	0xbe566a34	-0.20938951
217	0x3df24514	0.11829582
218	0x3ebd8ab1	0.37019876
219	0x3e328751	0.17434432
220	0x3c07d538	0.008290581
221	0x3e4192e3	0.18903689
222	0x3d4c6f39	0.049910758
223	0xbef2f114	-0.47449553
224	0xbd260460	-0.040531516
225	0xbe075220	-0.13214922
226	0x3ded1267	0.115757756
227	0x3e5d4305	0.21607597
228	0x3ec81ad4	0.39082968
229	0x3dfa618f	0.12225639
230	0xbe9a634a	-0.30153877
231	0xbe173bef	-0.14768957
232	0xbd26a8b3	-0.040688228
233	0x3dfd9cee	0.123834476
234	0x3e70eceb	0.23527877
235	0xbf05d578	-0.5227885
236	0xbdd7011c	-0.104982585
237	0x3deefca6	0.116692826
238	0xbe740315	-0.238293
239	0xbdcdc12e	-0.10046612
240	0xbba1442b	-0.0049214563
241	0x3b8a5839	0.0042219427
242	0xb9bec862	-0.0003638892
243	0x3ad2d97e	0.0016086546
244	0xbc16375a	-0.00916847
245	0x3b7b7a00	0.0038372278
246	0xbc92d3f7	-0.017923338
247	0xbbd4976c	-0.0064877775
248	0x3b037736	0.002006007
249	0xbb33878a	-0.002739402
250	0x3b22f412	0.0024864716
251	0xbbb6fd54	-0.0055843983
252	0x3a902350	0.0010996852
253	0x3c02c941	0.007982553
254	0x3b9449bc	0.0045253914
255	0xbba15620	-0.004923597

pos_net.linears.1.bias f4 [30]
0	0x3e0dd106	0.13849267
1	0xbe55ee92	-0.20891789
2	0xbd48af89	-0.04899553
3	0xbdd58b33	-0.10426941
4	0xbd08c1cf	-0.033387955
5	0x3e86f9bb	0.26362404
6	0xbe2db69d	-0.16964193
7	0xbd646295	-0.055758078
8	0xbdc14965	-0.09437827
9	0x3df8e223	0.12152507
10	0x3c52166e	0.0128227305
11	0x3d2f5c49	0.04281262
12	0x3d8e4b7f	0.069479935
13	0xbcc71ed8	-0.0243067
14	0xbd040572	-0.032231756
15	0x3e88cce7	0.26718828
16	0xbe139570	-0.14412475
17	0xbe283442	-0.16426185
18	0xbde9c222	-0.11413981
19	0xbe1f3fd8	-0.15551698
20	0x3c02b14f	0.007976844
21	0xbda38f0f	-0.07986271
22	0xbd65689e	-0.056007974
23	0x3d9bf62b	0.07615312
24	0xbe552f63	-0.20818858
25	0xbe1a36db	-0.15059988
26	0xbc7f1870	-0.015569791
27	0x3d0feba5	0.035136838
28	0x3eb834f9	0.35977915
29	0xbe5e52bd	-0.2171125

pos_net.linears.2.weight f4 [30, 30]
0	0xbb6ad341	-0.0035831484
1	0xbc1955bb	-0.009358819
2	0xbb7b0348	-0.0038301516
3	0xbaeb5852	-0.0017955399
4	0xbb162c6b	-0.0022914659
5	0x3b23c98c	0.0024991957
6	0xbb42fdf8	-0.0029753428
7	0xb9edbbaa	-0.00045343983
8	0xbd599faa	-0.053130783
9	0xba0326ca	-0.00050030334
10	0xbb1dc3d0	-0.0024073012
11	0xbb02216d	-0.001985635
12	0xbaaa2c52	-0.0012983179
13	0xbb035883	-0.002004177
14	0x3aac6d32	0.0013155101
15	0x3a27608a	0.000638493
16	0x3b3dc8c1	0.002895877
17	0x3bba6566	0.005688357
18	0xba02d690	-0.0004991079
19	0xbbbd2ed5	-0.005773405
20	0x3c1f8ffe	0.00973892
21	0x3ab6ea41	0.0013955311
22	0x3ae57758	0.0017506881
23	0x3b66e180	0.0035229623
24	0xba8ba542	-0.0010654109
25	0xbb0f80e3	-0.002189689
26	0xbb60e524	-0.0034316266
27	0xbb61b6b1	-0.0034441168
28	0x3af09bc2	0.0018356966
29	0xbb1ea0d6	-0.0024204752
30	0x3ed90b14	0.42391264
31	0xbc77dc28	-0.015128173
32	0x3e9c4a56	0.30525464
33	0x3c8be4c4	0.017076857
34	0xbc5bbb54	-0.013411362
35	0xbc8dd77d	-0.017314667
36	0x3e8b6b08	0.27230096
37	0xbec0a4e2	-0.37625796
38	0x38807bb8	6.12656e-05
39	0x3ddf5758	0.109053314
40	0xbe6f1697	-0.23348461
41	0xbe70b028	-0.23504698
42	0xbeb94a1a	-0.36189348
43	0x3d24c8a1	0.040230397
44	0x3e4a3c11	0.19749476
45	0x3eeaaf82	0.45837027
46	0xbd80b834	-0.06285134
47	0x393b8204	0.00017882144
48	0x3f0435c6	0.5164455
49	0xbd16784b	-0.036735814
50	0xbef79cbd	-0.4836177
51	0xbe03aacd	-0.12858124
52	0x3d427231	0.047472183
53	0x3ea115d1	0.31461957
54	0xbd709708	-0.058737785
55	0x3e8d5f7b	0.27611908
56	0xbeb78b18	-0.35848308
57	0x3cdf7861	0.02727908
58	0x3e305d92	0.17223194
59	0xbd75273e	-0.059851877
60	0xbe431061	-0.19049217
61	0x39f8a0f9	0.0004742218
62	0xbeb25249	-0.34828404
63	0x3ab79dc4	0.001400881
64	0x3d191cb2	0.03738088
65	0xbf5cf849	-0.86316353
66	0x3bdd4aea	0.006753315
67	0x3cda3316	0.026635688
68	0xb9a9cb93	-0.00032385867
69	0xbed7c0ee	-0.4213938
70	0x3edb236e	0.42800468
71	0xbd247730	-0.04015273
72	0x3c8aa02a	0.016922075
73	0x3ed725f5	0.42021146
74	0x3f07b1be	0.5300559
75	0x3df08f53	0.11746087
76	0x3d017e91	0.031614844
77	0x396c6650	0.00022544828
78	0xbe234db5	-0.15947612
79	0x379e9910	1.8906343e-05
80	0xbca6e7dc	-0.020374231
81	0xbe96b68f	-0.29436156
82	0xbed9f6ae	-0.42571014
83	0xbed96a3a	-0.42463857
84	0xb923bffe	-0.00015616414
85	0xbe946c0a	-0.28988677
86	0xbdc03858	-0.09385747
87	0xbeae2ba3	-0.34017667
88	0xbea63e55	-0.3246943
89	0xbccd1906	-0.025036346
90	0x3b15de45	0.0022868079
91	0xbcda9443	-0.026682025
92	0xbd1742c7	-0.03692892
93	0x3b56db23	0.0032784424
94	0xbab5cd16	-0.0013870324
95	0x3bbbc36d	0.0057300837
96	0xbb064569	-0.002048815
97	0x3baeaaaa	0.0053304033
98	0xbb0a4fca	-0.0021104687
99	0x3a46cd02	0.0007583649
100	0xbd7045e3	-0.0586604
101	0x3b32e8ac	0.0027299328
102	0x3a889db3	0.0010422975
103	0x3afe9ddd	0.0019425709
104	0xba95760a	-0.0011402976
105	0x3c138ed0	0.009006217
106	0xba0053f2	-0.00048953213
107	0x3a9b840e	0.0011864917
108	0xba54a7b0	-0.00081121456
109	0xbb359250	-0.0027705617
110	0x3c4d0a70	0.0125146955
111	0x3b984b9a	0.0046476843
112	0xb9b54288	-0.0003457258
113	0x39794478	0.00023771997
114	0x3bb89099	0.0056324718
115	0x3add4a79	0.0016883156
116	0xbb0059bb	-0.0019584734
117	0xbb64657d	-0.003485053
118	0xbb47e6b6	-0.0030502505
119	0x3a334afc	0.00068394816
120	0xbe10c9e5	-0.14139517
121	0xb974514c	-0.00023299939
122	0x3c6f1403	0.0145921735
123	0x38ddb804	0.00010572377
124	0x39e8c2cc	0.00044395623
125	0x3c17277c	0.009225722
126	0xb86ce680	-5.6481455e-05
127	0xbcb3e89d	-0.021961505
128	0xba92e8da	-0.0011208311
129	0xbc2c5fe0	-0.010520905
130	0x3c41ceb3	0.011829066
131	0xb9adde7e	-0.000331629
132	0x39057120	0.00012726011
133	0xbdc0325e	-0.09384607
134	0xba59c830	-0.00083077233
135	0xbdb7089c	-0.08937189
136	0x397da435	0.00024189132
137	0x39c222fe	0.00037028635
138	0xb98030b8	-0.0002445036
139	0xba2c2dfc	-0.00065681315
140	0xbd3e0ae5	-0.04639711
141	0xba93dc46	-0.0011280857
142	0xbc2fc310	-0.010727659
143	0x3a09cc5e	0.00052565883
144	0x3aebc284	0.0017987047
145	0xba392e3c	-0.00070640794
146	0xbd46161e	-0.048360936
147	0x3bcf9e16	0.006335984
148	0xbd8d766c	-0.06907353
149	0x39f77c2c	0.00047204026
150	0xbe151905	-0.14560325
151	0x3b2052e5	0.0024463471
152	0xbcdca44f	-0.026933817
153	0x3bae429d	0.0053179995
154	0xbba987b4	-0.005173648
155	0xbf13222c	-0.5747402
156	0xbe71e402	-0.23622134
157	0xbebdb759	-0.37053946
158	0x3a5026bb	0.00079403416
159	0x3e5c65f1	0.21523263
160	0xbec277cd	-0.37982026
161	0x3edc5495	0.4303328
162	0x3d36a1fc	0.044588074
163	0x3dc28bfd	0.09499357
164	0xbe100ecf	-0.14068149
165	0x3d7a841d	0.06116115
166	0xbd27cda8	-0.040967613
167	0x3c4540de	0.012039391
168	0x3d0f263a	0.034948565
169	0xbb2e53a3	-0.0026600144
170	0xbea269cd	-0.31721345
171	0x3eaff07c	0.34363163
172	0x3e97b525	0.2963039
173	0x3ec0a713	0.37627468
174	0xba385fca	-0.00070333167
175	0x3e2ca068	0.16858065
176	0x3ebdc0db	0.370612
177	0x3ebc861f	0.36821076
178	0x3cf4cb6b	0.029882153
179	0x3e3b4310	0.18287301
180	0x3e5710b8	0.21002471
181	0x3a99ef2c	0.0011744252
182	0xbe4cd91b	-0.20004694
183	0x3ca2a92c	0.019856058
184	0xbc1ed1a7	-0.00969354
185	0xbd04fe8d	-0.03246932
186	0x3ee16fd2	0.44030625
187	0xbe8cb3a4	-0.27480805
188	0x3ace496e	0.0015738436
189	0xbd860b03	-0.06545069
190	0xbef1b9a2	-0.4721194
191	0xbe8259ff	-0.25459287
192	0xbe8765d5	-0.2644488
193	0xbeac291e	-0.3362512
194	0xbe8fc4ec	-0.28079927
195	0xbdde0ee4	-0.10842684
196	0x3d49b90a	0.049248733
197	0xba4b0ada	-0.00077454525
198	0x3e7a4059	0.24438609
199	0xba46296b	-0.00075592723
200	0x3da20315	0.07910744
201	0xbea2a189	-0.31763867
202	0x3e64f5b9	0.22359361
203	0x3ea6690c	0.3250202
204	0x3a099603	0.0005248489
205	0xbea25dce	-0.31712192
206	0x3ec275ff	0.3798065
207	0xbec86dc9	-0.3914626
208	0x3e350bb6	0.17680249
209	0xbdcde2b0	-0.10053003
210	0xbbfac577	-0.007652934
211	0xbc177c56	-0.009245953
212	0xbe210bc6	-0.15727147
213	0x3cbbee52	0.022940788
214	0x398e27b0	0.0002711392
215	0xbda067f2	-0.07832326
216	0xbd2da473	-0.04239316
217	0x3e4e9d9b	0.20177309
218	0x3d4131a5	0.047166485
219	0xbeace1c1	-0.33765987
220	0xbe55f1f5	-0.2089308
221	0xbd5b9952	-0.053613015
222	0xbecf3c73	-0.40475807
223	0xbbe7d465	-0.00707488
224	0xbe277b99	-0.16355743
225	0xbdf941b8	-0.12170738
226	0xbd30708f	-0.043076094
227	0xbbba22cd	-0.005680418
228	0xbded2091	-0.11578477
229	0xbd102741	-0.035193685
230	0x3ebbdaf4	0.36690485
231	0x3e1f4353	0.15553026
232	0x3eaa318d	0.3324093
233	0x3e70148a	0.23445335
234	0xbc5d7abb	-0.013518031
235	0x3d90de94	0.070737034
236	0x3e33d8b6	0.17563137
237	0xbea6da2d	-0.3258833
238	0x3e92f1cb	0.28700098
239	0xbda831f2	-0.08212651
240	0xbe60bd31	-0.21947171
241	0xbce96a1a	-0.028492976
242	0xbe7ee962	-0.24893716
243	0x3bab8a60	0.0052350014
244	0x3c34c614	0.011033554
245	0x3edfa196	0.43677968
246	0xbe1e31e7	-0.15448724
247	0xbe39d925	-0.1814924
248	0x3b024314	0.0019876407
249	0xbedea6e3	-0.434867
250	0xbf20b9ea	-0.6278368
251	0xbf19398c	-0.59853435
252	0xbe845476	-0.2584569
253	0x3e2a18f7	0.16611086
254	0xbdf47855	-0.11937014
255	0x3d0df689	0.034658942

pos_net.linears.2.bias f4 [30]
0	0xbe1ee82e	-0.15518257
1	0x3d90eac4	0.07076028
2	0xbef9763b	-0.48723015
3	0xbe2ae298	-0.16688001
4	0xbe685e3d	-0.22692199
5	0xbd3ae694	-0.045630053
6	0xbe34a397	-0.1764053
7	0x3e21fa7b	0.15818207
8	0x3e431ce7	0.19053994
9	0x3c9d7dad	0.019224966
10	0xbe388584	-0.18019682
11	0x3e1ac673	0.15114765
12	0x3d28cc77	0.041210618
13	0xbcf29266	-0.029610824
14	0xbdabc363	-0.083868764
15	0xbe3f95cb	-0.18709485
16	0xbb6f58c8	-0.0036521424
17	0x3e884b8d	0.2662014
18	0xbe735cf6	-0.2376593
19	0x3dce4f17	0.10073679
20	0xbd91c527	-0.07117682
21	0xbe7172a1	-0.23578884
22	0x3e4f7330	0.20258784
23	0xbe753e0d	-0.23949452
24	0xbbbf7ec5	-0.0058439695
25	0xbe59cf16	-0.21270403
26	0x3d7a922e	0.061174564
27	0x3e9d0bdd	0.30673113
28	0x3da0c994	0.07850948
29	0xbe983062	-0.29724413

pos_net.output_layer.weight f4 [6, 30]
0	0xbad6b78b	-0.0016381604
1	0xbc3d236b	-0.011544089
2	0xbcf65998	-0.030072019
3	0x3cea717c	0.028618567
4	0xbe02e90a	-0.1278421
5	0x3cf781aa	0.030213196
6	0xbdf8f4fd	-0.12156103
7	0x3e870847	0.26373503
8	0x3e4164e5	0.18886144
9	0xbe48beef	-0.19604085
10	0xbdd46676	-0.103711054
11	0x3dabff75	0.08398334
12	0x3dbc9734	0.09208527
13	0xbe826a9a	-0.25471956
14	0x3c04e718	0.008111738
15	0x3cc41a52	0.023938332
16	0xbcdb92fa	-0.026803482
17	0xbedad34a	-0.42739326
18	0xbd893578	-0.066996515
19	0x3e194935	0.14969333
20	0xbd6e90e7	-0.05824366
21	0xbe0da34a	-0.13831821
22	0xbd633565	-0.055470843
23	0x3e06836a	0.13136068
24	0x3ecc5dc5	0.3991529
25	0xbd083841	-0.033256773
26	0x3e628243	0.22120003
27	0xbd93f47d	-0.07224367
28	0xbc684fe3	-0.014179203
29	0x3e44b761	0.19210579
30	0xbb5bc2e7	-0.003353292
31	0xbdb9a553	-0.09064736
32	0x3e1b0a08	0.15140545
33	0x3b44a238	0.0030003916
34	0xbe09b493	-0.1344779
35	0x3cca8042	0.024719361
36	0xbec3dd41	-0.3825474
37	0xbc1282a5	-0.008942281
38	0x3dc6d1cc	0.09707984
39	0x3aaf1272	0.0013356938
40	0xbcd8df64	-0.026473708
41	0xbd95e4c1	-0.07319022
42	0x3eb11f00	0.34593964
43	0xbd91c4b6	-0.07117598
44	0x3dcd8612	0.100353375
45	0xbe3d969b	-0.18514483
46	0xbee4ef30	-0.44713736
47	0xbe033ae2	-0.12815431
48	0x3d21344a	0.039356507
49	0xbe5da681	-0.21645547
50	0xbdec76e1	-0.11546112
51	0x3ea809b7	0.32819912
52	0xbe19de3a	-0.15026179
53	0xbd8b2c2c	-0.067955345
54	0xbe373a99	-0.17893447
55	0xbdeb931b	-0.115026675
56	0xbdc3676a	-0.09541209
57	0x3f027eaf	0.50974554
58	0x3ec7b50d	0.39005318
59	0xbe09e9a9	-0.1346804
60	0x3cb4ba45	0.022061476
61	0xbe950180	-0.29102707
62	0x3dddf5a4	0.10837868
63	0xbcc2d230	-0.023781866
64	0xba969073	-0.0011487141
65	0xbed8845f	-0.4228849
66	0x3d075610	0.03304106
67	0x3e98ed80	0.29868698
68	0xbce41d10	-0.02784589
69	0x3ea21567	0.31656954
70	0xbd609c8e	-0.054836802
71	0x3d95164a	0.07279642
72	0xbe30ba6c	-0.17258614
73	0xbe9d1668	-0.30681157
74	0x3ec19af3	0.3781353
75	0x3e68d5a2	0.22737744
76	0x3cc6b786	0.024257433
77	0x3e9cce7d	0.30626288
78	0x3e1b0f83	0.15142636
79	0xbdf6405c	-0.12023994
80	0x3d0383a9	0.032107983
81	0x3e75732e	0.23969719
82	0xbedd1d8f	-0.43186614
83	0x3e3e3afb	0.18577187
84	0x3ecdd07a	0.40198117
85	0xbcbe6b0b	-0.023244401
86	0xbeb55933	-0.35419616
87	0x3e2c0d6e	0.16801998
88	0xbbd30074	-0.006439263
89	0xbd3b2e40	-0.045698404
90	0xbb9d4a42	-0.004800112
91	0x3f11ec1f	0.5700092
92	0xbfa6544d	-1.2994477
93	0x3d45d1a4	0.048295632
94	0x3cb665c4	0.022265323
95	0xbe8304c5	-0.25589576
96	0xbeb4b0e4	-0.35291207
97	0xbd912559	-0.070872016
98	0xbe275a81	-0.16343118
99	0x3df72339	0.12067265
100	0xbd734d49	-0.059399877
101	0xbf1430ca	-0.57886946
102	0x3f199170	0.59987545
103	0x3e609735	0.21932681
104	0xbe9ceda7	-0.30650064
105	0xbe36b13c	-0.17841047
106	0x3e13c6d4	0.14431316
107	0x3eaf44e8	0.3423226
108	0x3be37cbc	0.0069423597
109	0xbe394060	-0.18090963
110	0xbe67ad7b	-0.22624771
111	0x3d761c0d	0.060085345
112	0xbe93be91	-0.28856328
113	0xbe3712e3	-0.17878298
114	0x3e837dee	0.25682014
115	0xbdcfc594	-0.10145107
116	0xbc4b32c5	-0.012402241
117	0x3e93353b	0.2875155
118	0xbf05d5c8	-0.5227933
119	0x3d38bd02	0.045102127
120	0x3b90eddc	0.0044228863
121	0xbe822cdc	-0.2542485
122	0x3dc0d8f5	0.09416381
123	0xbb17a435	-0.0023138647
124	0x3e408a03	0.18802647
125	0x3f369288	0.7131734
126	0xbf1a1eb4	-0.602031
127	0xbec2ff84	-0.38085568
128	0xbf43f253	-0.7654163
129	0xbf0e60bf	-0.5561637
130	0xbd8de771	-0.069289096
131	0xbec740e4	-0.38916695
132	0xbe9655d9	-0.29362372
133	0x3ee16757	0.44024155
134	0x3de15ebe	0.11004399
135	0x3ea6ffd2	0.3261705
136	0xbf323327	-0.696093
137	0xbe184ba7	-0.14872609
138	0x3cb07e4b	0.021544596
139	0x3ec52591	0.38505223
140	0x3e303395	0.17207177
141	0xbe4c6c73	-0.19963245
142	0xbdaaf06c	-0.08346638
143	0xbca95869	-0.02067204
144	0x3ebf88ca	0.3740905
145	0xbe0ee3d0	-0.13954091
146	0xbd5e49b9	-0.054269526
147	0x3e371b60	0.17881536
148	0x3e3e8db5	0.18608744
149	0x3e222d3d	0.1583757
150	0xbae06e72	-0.0017122759
151	0xb9c9a7f3	-0.0003846284
152	0xbeaa8bcd	-0.33309785
153	0xba7f92e7	-0.0009749368
154	0x3d99622b	0.07489427
155	0xbd31aa20	-0.043375134
156	0xbdb21cb9	-0.08696885
157	0x3e677ef0	0.22607017
158	0x3e12b3b3	0.14326362
159	0x3c80cf25	0.015723774
160	0xbdf94d6d	-0.12172971
161	0xbe3dafa6	-0.18524036
162	0xbe21322e	-0.15741798
163	0xbd15c1d2	-0.036561795
164	0xbeb6ceac	-0.35704553
165	0x3eb20e51	0.34776548
166	0xbdd1b602	-0.10239793
167	0xbe310cd7	-0.17290054
168	0xbc82509e	-0.015907582
169	0xbf3a21d0	-0.72707844
170	0x3f48fbff	0.78509516
171	0x3f1a6d5a	0.6032311
172	0x3ecf5b3a	0.40499288
173	0xbd67e02c	-0.05661027
174	0x3e1dac09	0.15397657
175	0xbe15b3bf	-0.14619349
176	0x3eefdc77	0.4684789
177	0x3deb0834	0.11476174
178	0xbea22384	-0.3166772
179	0xbda466bf	-0.0802741

pos_net.output_layer.bias f4 [6]
0	0xbddf391b	-0.10899564
1	0x3ed853d3	0.42251453
2	0x3d6496be	0.05580782
3	0x3ea094d0	0.31363535
4	0xbc996bfb	-0.018728247
5	0xbdd1c356	-0.102423355

neg_net.linears.0.weight f4 [30, 12]
0	0xbd95b0c8	-0.07309109
1	0xbe28e7d8	-0.16494691
2	0x3f363d8c	0.71187663
3	0x3ee7a76d	0.45244923
4	0xbf058b7c	-0.5216596
5	0xbe6da7f0	-0.23208594
6	0x3e31a51d	0.17348142
7	0xbe5808f1	-0.21097161
8	0xbc861285	-0.016366253
9	0x3e97313e	0.29529756
10	0xbe045b36	-0.12925419
11	0x3da78df2	0.08181371
12	0xbd3aa9cf	-0.0455721
13	0x3e42d3b4	0.19026071
14	0x3ec7bfc4	0.39013493
15	0x3f285d20	0.657671
16	0x3ee4b71d	0.44670954
17	0x3e77d6cb	0.24203031
18	0xbe272ed3	-0.16326456
19	0xbe9745e2	-0.29545504
20	0xbd2e1962	-0.042504676
21	0x3ecaa062	0.39575487
22	0x3d4d52f5	0.050127942
23	0x3dec5bdc	0.11540958
24	0xbf2ff23f	-0.68729013
25	0xbe2c73a7	-0.16840993
26	0xbe4c77a3	-0.19967513
27	0x3f0ffe83	0.5624773
28	0xbeb08bd6	-0.34481686
29	0x3e93c776	0.28863114
30	0xbe06beb9	-0.13158692
31	0xbc95de3d	-0.018294448
32	0x3de69e9e	0.112607226
33	0xbea00c1e	-0.31259245
34	0xbdb77606	-0.08958058
35	0xbdd41cb5	-0.10357038
36	0xbed00f26	-0.40636557
37	0x3d4d8752	0.05017788
38	0x3f3d983b	0.7406041
39	0x3e72dae9	0.2371632
40	0x3f2ee05b	0.6831109
41	0x3eba495b	0.3638409
42	0xbdbd81f9	-0.09253306
43	0xbe988b19	-0.29793623
44	0x3e75e7fc	0.24014276
45	0xbf257f00	-0.6464691
46	0x3e2f697c	0.17130083
47	0xbddfec89	-0.109337874
48	0xbea4024d	-0.32033005
49	0xbe99ec8e	-0.3006329
50	0xbe925d21	-0.28586677
51	0x3e7dd3b5	0.24787791
52	0x3f65382e	0.8953885
53	0xbeff9b7e	-0.4992332
54	0xbe43cf0f	-0.19121955
55	0x3c71babc	0.014753994
56	0xbd2abac1	-0.04168201
57	0xbdaecfe1	-0.085357435
58	0xbe434ff8	-0.19073474
59	0xbe103c3d	-0.14085479
60	0xbde9b2e9	-0.114110775
61	0xbf0c0870	-0.54700375
62	0xbf027ca3	-0.5097143
63	0x3ed90b0e	0.42391247
64	0xbeadc1a4	-0.339368
65	0xbc54c2bc	-0.012985881
66	0x3d95435a	0.07288237
67	0x3ddbdacc	0.107350916
68	0xbe41cecf	-0.18926547
69	0x3e93d76b	0.28875288
70	0x3f179294	0.59208035
71	0x3ddb9c4c	0.10723171
72	0x3ed42e73	0.41441688
73	0x3caec09b	0.021332076
74	0xbe083147	-0.13300048
75	0xbee4b184	-0.44666684
76	0xbedce0c5	-0.43140236
77	0x3ce3f471	0.02782652
78	0xbe8e4566	-0.27787322
79	0xbd04d650	-0.032430947
80	0xbc620be8	-0.013796784
81	0xbf2d3760	-0.6766262
82	0x3ea6a499	0.32547453
83	0x3d89cd67	0.067286305
84	0xbddac3bf	-0.10681867
85	0xbd258062	-0.04040564
86	0xbe1d1453	-0.15339784
87	0xbf0c9719	-0.54918057
88	0xbe50177e	-0.20321462
89	0x3e13e1cf	0.14441608
90	0x3de62c8f	0.112389676
91	0xbf0d2b8f	-0.5514459
92	0xbeb5582f	-0.3541884
93	0xbf1b1c18	-0.6058974
94	0xbeae8406	-0.340851
95	0xbe729037	-0.23687826
96	0xbc76ed0b	-0.015071164
97	0x3f18444b	0.59479207
98	0x3f19c8f5	0.6007226
99	0x3d8847c5	0.06654314
100	0x3e419b22	0.18906835
101	0xbd32b6bb	-0.043631297
102	0xbd71251a	-0.058873273
103	0xbdab84bb	-0.08374926
104	0x3d3ff453	0.046863865
105	0x3f2120f9	0.6294094
106	0x3f3c2413	0.73492545
107	0x3dcd75e0	0.100322485
108	0xbef7fb1d	-0.48433772
109	0xbc954d6f	-0.0182254
110	0xbe00eed9	-0.12591113
111	0xbf475b9f	-0.7787418
112	0xbf00973d	-0.5023077
113	0xbd8a5df6	-0.06756203
114	0xbe8fbe66	-0.2807495
115	0x3e5a0c91	0.21293856
116	0x3e40fa4c	0.1884548
117	0xbe901c73	-0.28146705
118	0xbdb48558	-0.08814496
119	0xbe261c8e	-0.1622183
120	0xbf285fb1	-0.65771013
121	0x3dc32ada	0.09529658
122	0x3cc61130	0.024178118
123	0x3eb5d5a4	0.35514557
124	0xbdd224e5	-0.10260943
125	0xbd69dd27	-0.057095673
126	0xbef3bdbf	-0.47605702
127	0xbd908e1a	-0.07058354
128	0xbe3e4ad2	-0.18583229
129	0xbd23c8d2	-0.03998644
130	0x3de12701	0.109937675
131	0x3e001425	0.12507685
132	0xbeda625e	-0.42653173
133	0x3c927a8a	0.017880697
134	0xbdf76780	-0.12080288
135	0xbed2886f	-0.41119716
136	0xbea076a5	-0.3134052
137	0x3e3740cf	0.17895816
138	0xbdd8c364	-0.10584143
139	0xbe666f70	-0.22503448
140	0xbec56a29	-0.38557556
141	0xbd6dd67c	-0.058065876
142	0xbd96d79a	-0.073653415
143	0x3d430736	0.0476143
144	0xbc3267d7	-0.010889015
145	0xbeb4637b	-0.35232148
146	0xbed33afa	-0.41255933
147	0xbf15ce6b	-0.58518094
148	0x3ef731ef	0.48280284
149	0x3ca98d3a	0.020697225
150	0x3c81d137	0.015846832
151	0x3d5e53a8	0.054279
152	0xbddaf559	-0.106913276
153	0x3f487f97	0.78319687
154	0xbed77e9d	-0.42088786
155	0x3d6d2b6d	0.057902742
156	0x3f0957b3	0.53649443
157	0x3ea8dcd6	0.32980984
158	0xbeaa30ad	-0.33240262
159	0xbe883050	-0.2659936
160	0x3e600706	0.21877679
161	0xbd432ce4	-0.047650233
162	0xbe6dd984	-0.23227507
163	0x3d8f758f	0.070048444
164	0xb96f1c58	-0.00022803375
165	0x3e8b78f0	0.27240705
166	0xbe2a263b	-0.16616146
167	0xbe2a2fc5	-0.16619785
168	0x3c33d9ae	0.010977192
169	0x3e30075c	0.17190307
170	0xbd4625c2	-0.048375852
171	0x3df80151	0.12109626
172	0x3f57398e	0.84072196
173	0x3f59b32f	0.8503904
174	0xbe0a4532	-0.13502958
175	0x3e81576f	0.2526202
176	0x3e03001f	0.12793015
177	0x3e15defa	0.1463584
178	0x3e375c78	0.17906368
179	0xbe60dea3	-0.21959929
180	0x3d05cf84	0.032668605
181	0xbd61f113	-0.055161547
182	0x3f10af30	0.56517315
183	0x3c7e9583	0.015538576
184	0x3cfbf965	0.030758569
185	0x3e9fa50a	0.31180602
186	0xbde78bc1	-0.11305953
187	0x3da8a0e4	0.082338125
188	0xbe869511	-0.26285604
189	0x3ef3fa41	0.47651866
190	0x3f08f7a3	0.53502864
191	0xbe1eaece	-0.1549637
192	0x3eab832a	0.33498508
193	0x3ec9f323	0.3944331
194	0xbd8158c0	-0.06315756
195	0xbf02f64b	-0.51157063
196	0xbec7286d	-0.3889803
197	0x3f0503fe	0.51959217
198	0x3e0a8b15	0.13529618
199	0xbdac60c2	-0.084168926
200	0x3e78302a	0.24237123
201	0xbe518133	-0.20459442
202	0xbe9500f3	-0.29102287
203	0xbee87995	-0.4540526
204	0x3e9b2390	0.3030057
205	0x3ea1abb2	0.31576306
206	0x3b92dfaf	0.0044822316
207	0xbc7c3c9e	-0.015395312
208	0xbf4142e2	-0.7549268
209	0xbe00e3ed	-0.12586947
210	0xbee82b1e	-0.45345396
211	0x3e04cf02	0.12969592
212	0x3e3d96f7	0.1851462
213	0x3e1f6098	0.15564191
214	0xbe2655c4	-0.16243654
215	0xbe4dd036	-0.20098957
216	0x3ec4b29f	0.38417527
217	0x3d861b65	0.06548194
218	0x3d535b18	0.051600546
219	0xbf253c21	-0.64544874
220	0x3e9587d7	0.292052
221	0xbec75a51	-0.38936093
222	0x3db1928e	0.08670531
223	0x3db5e0ee	0.088807926
224	0x3cfea461	0.031084241
225	0x3eadb4ac	0.33926904
226	0x3e4f769e	0.20260093
227	0x3ddbae0f	0.107265584
228	0x3e6992cb	0.22809903
229	0x3e72f925	0.23727854
230	0x3ec1c276	0.37843674
231	0x3f14cbfa	0.58123744
232	0xbee14194	-0.43995345
233	0xbf123f52	-0.5712787
234	0x3d320b89	0.043468032
235	0xbd861f8c	-0.06548986
236	0x3e179666	0.14803466
237	0x3eccf3cd	0.40029755
238	0xbdc862f6	-0.097845
239	0x3e01d4dd	0.12678857
240	0x3ebcb0b6	0.3685357
241	0xbf4e9d42	-0.80708706
242	0xbec86dba	-0.39146215
243	0x3efcafe3	0.4935294
244	0x3e6fe4b9	0.23427095
245	0x3de82aa9	0.11336262
246	0x3d81d201	0.06338883
247	0xbe0e1964	-0.13876873
248	0x3c3342fe	0.010941265
249	0xbdc8230c	-0.0977231
250	0xbe73221f	-0.23743485
251	0xbe08a4e1	-0.13344146
252	0x3ec28be3	0.3799735
253	0xbe89f4dd	-0.26944628
254	0xbdf52c08	-0.11971289
255	0xbeb1bd57	-0.34714767

neg_net.linears.0.bias f4 [30]
0	0x3d8d70bc	0.06906268
1	0xbe7ebd3a	-0.24876872
2	0xbe1a925d	-0.15094896
3	0xbe590ce5	-0.21196325
4	0xbd7e131d	-0.062029947
5	0xbd9e9727	-0.07743674
6	0x3e7b8060	0.2456069
7	0xbf162fd7	-0.5866675
8	0xbf0e0767	-0.55480045
9	0xbe075aa5	-0.13218172
10	0xbca219b6	-0.01978765
11	0xbea101c9	-0.31446674
12	0x3e83d254	0.25746405
13	0x3da74ed6	0.08169334
14	0xbe75c7bc	-0.24001974
15	0xbf10aff7	-0.565185
16	0xbeb76f66	-0.35827178
17	0xbe14fbcd	-0.1454918
18	0xbb0cfc31	-0.0021512622
19	0xbd04acdd	-0.032391418
20	0x3dba56f5	0.09098617
21	0xbebb1192	-0.36536843
22	0xbc9dde14	-0.019270934
23	0x3d041e4b	0.032255452
24	0xbd2f68a4	-0.042824402
25	0xbeae4b1d	-0.34041682
26	0x3dcf368e	0.10117827
27	0xbed197ab	-0.40936026
28	0xbe869c51	-0.26291135
29	0xbd88fa4e	-0.06688367

neg_net.linears.1.weight f4 [30, 30]
0	0x3db3e35a	0.08783598
1	0x3e687978	0.22702587
2	0xbf1a93b7	-0.60381645
3	0x3caf0341	0.021363856
4	0x3ec2190b	0.3790973
5	0xbee98179	-0.45606592
6	0xbe8d8685	-0.27641693
7	0xbee47f92	-0.44628578
8	0xbd09a4ea	-0.03360454
9	0xbc6b8e62	-0.014377208
10	0xbd5f0356	-0.05444654
11	0x3e213457	0.15742622
12	0xbd9261a5	-0.071475305
13	0xbe5334ac	-0.20625561
14	0xbebd936e	-0.37026542
15	0xbe032b6e	-0.12809536
16	0x3e858a3b	0.26082024
17	0x3d4160f1	0.04721159
18	0x3ec6802a	0.38769656
19	0xbe229304	-0.15876395
20	0xbe074cb7	-0.13212858
21	0xbc36ac77	-0.011149517
22	0xbe0f81a0	-0.14014292
23	0x3ee72753	0.4514719
24	0x3ee1e8b1	0.44122842
25	0xbdc3e857	-0.095658
26	0x3c27d880	0.010244489
27	0x3f024631	0.50888354
28	0x3ec8b032	0.39196926
29	0x3e2f91d1	0.17145468
30	0x3e762f8e	0.24041578
31	0xbe28c473	-0.1648119
32	0xbdb8b8af	-0.090196006
33	0xbef26701	-0.4734421
34	0xbeb12074	-0.34595072
35	0xbd71f734	-0.059073642
36	0x3e9391ea	0.2882226
37	0x3edb3040	0.4281025
38	0xbe6fdee7	-0.23424874
39	0x3e42d7cb	0.19027631
40	0xbeb0f90d	-0.3456501
41	0xbc8ab6c5	-0.016932854
42	0x3e4e649e	0.2015557
43	0xbbe0029b	-0.006836248
44	0xbd3c65fe	-0.045995705
45	0x3d55831e	0.052126996
46	0xbe741ccf	-0.23839115
47	0xbe102fcc	-0.14080733
48	0x3eba0679	0.36333063
49	0x3e0794be	0.13240334
50	0xbeac4187	-0.33643743
51	0x3e3fc730	0.18728328
52	0xbea71e80	-0.32640457
53	0xbe204cd6	-0.1565431
54	0xbe0b4899	-0.13601913
55	0x3e882e5d	0.26597872
56	0xbda06c0b	-0.078331076
57	0xbd9511a7	-0.072787575
58	0x3d8e9ee1	0.069638975
59	0xbe93e7d9	-0.28887823
60	0xbebefb97	-0.37301323
61	0xbe614a7b	-0.22001068
62	0x3dd2bd54	0.10290018
63	0xbe5da5ab	-0.21645229
64	0x3d14ff8b	0.036376517
65	0xbea697bd	-0.32537642
66	0x3dc154fa	0.09440036
67	0x3e668dbf	0.2251501
68	0x3dd65683	0.104657196
69	0x3e4bac11	0.19889857
70	0xbd564fa9	-0.052322064
71	0x3ec4a4b8	0.3840692
72	0x3b998e6e	0.0046861684
73	0x3e549697	0.2076057
74	0xbda9eff9	-0.08297724
75	0x3dd2bacb	0.10289534
76	0x3f17633a	0.5913578
77	0xbe6ab8ad	-0.2292201
78	0x3e3efd08	0.18651211
79	0x3e3f7cda	0.18699971
80	0xbe35c715	-0.17751725
81	0xbeb3b4e5	-0.3509895
82	0x3e4b6c33	0.19865493
83	0x3e62049e	0.22072074
84	0x3f11a1a5	0.56887275
85	0x3e24ceb4	0.16094476
86	0xbe017f82	-0.12646297
87	0xbe44ce43	-0.19219308
88	0x3d6a4ae6	0.057200335
89	0xbe9d1a9b	-0.3068436
90	0x3c259bdb	0.01010796
91	0xbcb55799	-0.022136496
92	0xbc51d38a	-0.0128067825
93	0x3b76390f	0.003757063
94	0xbcfbd043	-0.030738955
95	0xbdcd8273	-0.10034647
96	0xbc39448a	-0.011307845
97	0x3c008086	0.007843142
98	0xbcfab581	-0.030604126
99	0x3a9b71c2	0.0011859464
100	0x3b92178e	0.0044583743
101	0xba0206ac	-0.00049601006
102	0xbc8d986f	-0.0172846
103	0xbd0b639e	-0.03403055
104	0xbd54ac07	-0.05192187
105	0xbc95a21b	-0.018265774
106	0xbd0bb353	-0.034106564
107	0xbb36bd02	-0.0027883654
108	0xbd1a9b40	-0.037745714
109	0xbc56c147	-0.013107604
110	0xbd54c741	-0.051947836
111	0xbd22e764	-0.039771453
112	0xbda40c4c	-0.08010158
113	0xbccfd6c9	-0.025370972
114	0xbbc239c6	-0.0059272973
115	0x3a09b831	0.0005253582
116	0xbc8e894b	-0.01739945
117	0x3a964221	0.00114638
118	0xbc8912ee	-0.01673266
119	0xbcdb44a9	-0.026766138
120	0x3d83321c	0.06406042
121	0xbd245cdd	-0.040127624
122	0xbdf14f46	-0.11782698
123	0x3dc80c36	0.09767954
124	0x3c5aa3a8	0.013344683
125	0xbd72e79a	-0.059302904
126	0xbde7217c	-0.112856835
127	0xbd18aebd	-0.03727602
128	0x3d91d50c	0.071207136
129	0x3db609c5	0.08888582
130	0x3d595c54	0.053066567
131	0xbc2e8776	-0.010652414
132	0xbd88a04e	-0.06671201
133	0xbd6ef73e	-0.058341257
134	0x3d2ba730	0.04190749
135	0x3e31162e	0.17293617
136	0xbda49967	-0.08037072
137	0xbd284185	-0.04107811
138	0xbdd4934d	-0.10379658
139	0xbcc2f9da	-0.02380078
140	0x3d216fde	0.039413325
141	0x3c5dbf0c	0.013534319
142	0xbe1a472c	-0.15066212
143	0xbd979f10	-0.07403386
144	0xbbf08998	-0.007340621
145	0x3e5ac402	0.21363834
146	0x3e080c81	0.1328602
147	0xbdfae00a	-0.12249763
148	0x3db6b949	0.08922059
149	0xbdbbe264	-0.0917404
150	0xbed99ec4	-0.4250394
151	0x3e11830f	0.14210151
152	0x3cf28cf0	0.02960822
153	0x3dc68273	0.0969285
154	0x3e7e0695	0.24807198
155	0x3ef67567	0.48136446
156	0xbe703d3e	-0.23460862
157	0xbe800d64	-0.25010216
158	0x3e5a2bc6	0.2130576
159	0xbec845ac	-0.39115655
160	0xbd38cc5a	-0.04511676
161	0xbe9a8a8c	-0.30183828
162	0x3e161703	0.14657216
163	0x3e4617fa	0.19345084
164	0xbd5a1fde	-0.053253047
165	0xbd8fc73d	-0.070204236
166	0xbe141ca1	-0.14464046
167	0x3de92c7b	0.11385437
168	0xbd3f6438	-0.046726435
169	0x3e6a8326	0.22901592
170	0x3e909922	0.2824183
171	0xbe15e126	-0.14636669
172	0x3c926e61	0.017874898
173	0xbeaacb21	-0.333581
174	0xbe9523a3	-0.2912875
175	0xbebc4f62	-0.36779314
176	0xbee03d32	-0.43796688
177	0xbe3250cb	-0.17413633
178	0xbd420e47	-0.047376897
179	0xbd3f6af0	-0.046732843
180	0xbe097543	-0.13423638
181	0xbe8db9d9	-0.27680853
182	0xbd179198	-0.037004083
183	0xbe89ebf5	-0.26937833
184	0xbd7fd01b	-0.062454324
185	0xbe2f706c	-0.1713273
186	0x3db6472f	0.08900296
187	0x3eb482fe	0.3525619
188	0xbdcf29b1	-0.10115374
189	0x3e0f32ff	0.13984297
190	0x3d278b67	0.04090443
191	0xbc98fba4	-0.01867468
192	0xbec627de	-0.3870229
193	0x3d132227	0.035921242
194	0xbe2927ac	-0.1651904
195	0x3daf8617	0.085704975
196	0x3eb497cd	0.35272065
197	0x3e2dd4a6	0.1697565
198	0xbdb81144	-0.08987668
199	0xbd71058a	-0.058843173
200	0x3bbd731c	0.0057815444
201	0x3e0fe14e	0.1405079
202	0x3dcff0d9	0.1015336
203	0xbdec2cfb	-0.11532017
204	0xbe85fcf3	-0.26169547
205	0xbe9b8aea	-0.3037942
206	0xbe6b0201	-0.22949983
207	0x3ecb655b	0.39725766
208	0xbd639af2	-0.05556769
209	0xbd4f3c8b	-0.050594848
210	0x3d775590	0.060384333
211	0xbe36813d	-0.17822738
212	0xbe6d6260	-0.23182058
213	0x3f42d9b0	0.76113415
214	0xbe4476dc	-0.19185966
215	0xbe4eeac8	-0.2020675
216	0x3e771016	0.2412723
217	0x3ec2b13d	0.38025847
218	0x3e0a3805	0.13497932
219	0x3eccd254	0.40004218
220	0xbe1e8a8a	-0.15482536
221	0x3dc3f13a	0.09567495
222	0xbec5fcbd	-0.38669387
223	0x3e049925	0.12949045
224	0xbf15ca85	-0.58512145
225	0xbf07476a	-0.52843344
226	0x3e863e17	0.26219246
227	0xbeae8ed5	-0.34093347
228	0x3d274f3c	0.04084705
229	0x3f01eb54	0.5074971
230	0xbe8d6680	-0.27617264
231	0xbd1294a7	-0.035786297
232	0xbd25f255	-0.04051431
233	0xbea832db	-0.328513
234	0xbf12a0bf	-0.5727653
235	0x3e8e4c06	0.27792376
236	0xbe5a3939	-0.21310891
237	0x3de9df6d	0.11419568
238	0x3f09413b	0.5361516
239	0xbbcb0d9e	-0.0061966917
240	0xbbd747a4	-0.0065698195
241	0xbc9f53cc	-0.019449137
242	0xbcd84973	-0.02640221
243	0x3b8c4651	0.0042808433
244	0xbd76d01b	-0.06025706
245	0xbd317c11	-0.04333121
246	0xbcdcfdf4	-0.026976563
247	0xbb336811	-0.002737526
248	0xbcfd8182	-0.030945543
249	0xbd93a169	-0.07208521
250	0x3bac1017	0.0052509415
251	0x3ac96785	0.0015365934
252	0x3c062747	0.008188075
253	0x3bec1a77	0.0072053033
254	0x3c0bc3db	0.008530582
255	0xbd61feac	-0.055174515

neg_net.linears.1.bias f4 [30]
0	0xbd9bd551	-0.07609046
1	0x3d950b27	0.07277518
2	0xbd13a0b3	-0.036041927
3	0xbe54e4b1	-0.20790364
4	0xbda11008	-0.07864386
5	0x3cc425d7	0.023943825
6	0xbe636e26	-0.22209987
7	0x3c144d2e	0.009051604
8	0xbe043c30	-0.12913585
9	0xbe1a15db	-0.150474
10	0x3d81f94c	0.06346378
11	0xbdaaed23	-0.083460115
12	0xbe00cb4b	-0.1257755
13	0xbda1446a	-0.07874377
14	0xbe897ffa	-0.2685545
15	0x3e125c90	0.14293122
16	0x3e438ada	0.19095936
17	0xbd4dd4b5	-0.05025168
18	0x3bd32246	0.0064432947
19	0x3e0f2628	0.13979399
20	0x3e852793	0.26006755
21	0xbb89d5b6	-0.0042063845
22	0x3c3ad7d8	0.011404
23	0x3d9cdf32	0.076597586
24	0xbd7c1720	-0.06154549
25	0xbe4fe363	-0.20301585
26	0xbcb23c7a	-0.021757353
27	0xbd81fcd9	-0.06347055
28	0xbbd1e740	-0.006405741
29	0xbd916977	-0.07100194
