data/MTMR_28002/sim/random/MLSE4POL/bias_0.001/train/N5000/D6_SinCosInput/5/result/model/ReLU_Dual_UDirection_PKD.pt (torch_old, 22776 bytes, 20 tensors)

input_mean f4 [12]
000000 15 9d 02 bb 13 b8 83 3e b1 af 71 39 6c 2e 7e 3e
       -0.0019930054 0.25726375 0.00023049001 0.24822396
000010 88 28 69 3e 79 93 f1 b8 c0 ee 6b 3f a4 c1 6b 3f
       0.22769368 -0.000115192444 0.9216118 0.9209235
000020 c9 22 71 3f 12 32 28 3e 59 88 78 3e 5e b1 6b 3f
       0.941937 0.1642535 0.24270763 0.92067516

input_std f4 [12]
000000 c7 70 c3 3e f2 40 8f 3e 27 e5 a9 3e 56 26 22 3f
       0.3817198 0.27979237 0.33182642 0.63339746
000010 28 24 2b 3f 86 9a c4 3e 91 9e 8f 3d f0 8c b0 3d
       0.66852045 0.38399142 0.07012666 0.08620632
000020 cf af 52 3d da db 36 3f 90 42 2a 3f 50 79 8f 3d
       0.051437195 0.71429217 0.66507816 0.070055604

output_mean f4 [6]
000000 ed 80 d2 3c d4 83 ed 3e be 6c 44 3e 76 75 16 bc
       0.025696242 0.4638964 0.19182107 -0.009183278
000010 43 49 c9 3b 09 08 4a 3b
       0.0061427667 0.0030827543

output_std f4 [6]
000000 6a 83 13 3d e3 40 23 3e 29 35 12 3e 65 b0 d0 3d
       0.036013998 0.15942721 0.14278091 0.101898946
000010 63 f2 0d 3d 22 d1 90 3c
       0.034654986 0.017677847

pos_net.linears.0.weight f4 [30, 12]
000000 f2 79 78 3e 6f dd 93 3e b2 83 e6 be 86 db d4 3d
       0.24265268 0.28879878 -0.4502235 0.10393433
000010 3d c7 e2 3e 89 a7 17 3e ca c2 00 3d 4b bc 0f be
       0.44292632 0.14810003 0.031435765 -0.14036672
000020 d1 31 a4 bd f8 d7 d3 3e c3 ea 36 be 9d b0 57 bd
       -0.08017314 0.4137571 -0.17862992 -0.052658666
000030 75 92 5d bd 3f 77 f8 3e ff 7b fb 3e d1 c0 5b 3e
       -0.05409475 0.48528478 0.4911804 0.21460272
000040 1e d1 eb 3d 2d 57 9a bd 40 1b 13 bd 27 2e 72 3d
       0.11514495 -0.07536159 -0.03591466 0.059126046
000050 91 eb 57 3d a5 95 b3 3d de de 50 bf 96 f1 9f bd
       0.052714888 0.08768777 -0.8159007 -0.07809751
000060 8c 34 ca 3c 30 a6 3c be 89 3d 2c 3d 6d ec b9 3e
       0.02468326 -0.1842277 0.042050872 0.3631319
000070 34 ca d8 be 47 ea a5 3e 2a 06 92 3c 83 34 1f be
       -0.4234177 0.32405302 0.017825205 -0.15547375
000080 6a 9a b1 bd 3e 0d 41 3f 97 51 47 bc 70 77 6a 3c
       -0.0867203 0.7541083 -0.012165449 0.014310703
000090 f6 18 7b 3d b5 20 0d bf 69 8c 05 bf d1 3d c1 3e
       0.0613031 -0.5512803 -0.52167374 0.37742475
0000a0 db 8b aa be de 5d 4b bc 8e 98 af bc 83 5d 17 be
       -0.33309826 -0.012412516 -0.021435048 -0.14781766
0000b0 14 c5 19 3d 0b 07 a3 3e a3 b9 ed 3e 8c 8a a5 bb
       0.037541464 0.3184131 0.46430692 -0.0050519165
0000c0 75 73 0e 3e e7 1b ed 3d 00 16 a0 3e 28 b5 25 3f
       0.13911231 0.115775876 0.31266785 0.6472955
0000d0 71 f4 42 be df ff f8 be fe c9 bd bc b6 58 53 bc
       -0.1903856 -0.48632714 -0.023167606 -0.012899568
0000e0 ba 96 58 3d 0e 28 7f be e4 25 d5 be 64 9e 87 3d
       0.05287812 -0.24917623 -0.4163047 0.066220075
0000f0 98 ec 83 bd e1 06 0c 3f 70 16 04 3f fa af cb 3c
       -0.06441611 0.54697996 0.51596737 0.024864186
000100 1a 6d 2b 3f 92 f6 ec 3c 39 f2 64 3d b4 b1 05 3e
       0.6696335 0.028926168 0.055895064 0.1305607
000110 d0 ad a1 3d 39 3a 02 bf 7f 13 49 3f 6e d2 c2 3d
       0.0789448 -0.5087009 0.78545374 0.095127925
000120 9c 2a a2 bd c8 fc 77 3e 1a 73 dc 3e 1d 33 a5 3e
       -0.07918283 0.24217522 0.43056566 0.3226556
000130 35 62 0c bf 31 e7 25 be 71 a5 3b bc af 6f c0 3d
       -0.5483735 -0.16201474 -0.0114530185 0.09396302
000140 db ee 78 3d 6c a1 25 bf 92 7c 82 3e 8a e4 8f 3d
       0.060774665 -0.64699435 0.25485665 0.07026012
000150 2d a5 66 3d 51 50 ee be 1b ed e6 be f7 81 97 3e
       0.056309868 -0.46545652 -0.45102772 0.29591343
000160 06 ff 41 3e 36 59 9b 3e 3c 7d 62 3c b6 1e b8 bd
       0.1894494 0.303415 0.0138238035 -0.08990233
000170 06 d7 f5 3c 29 1b 00 bf 52 d7 11 bf c6 a6 ba bc
       0.030009758 -0.50041443 -0.5696918 -0.022784602
000180 c4 d3 24 3d 4f a7 4a 3e 28 91 28 3f b5 89 d0 be
       0.040241018 0.19790386 0.6584649 -0.40730062
000190 7a 83 da be ea 66 df bc ae fe eb 3c 8d e4 43 be
       -0.42678434 -0.027270753 0.028807964 -0.19130154
0001a0 74 50 81 3d fd e0 c6 3d 6a 29 30 be 50 8c 8d 3c
       0.06314173 0.09710882 -0.17203298 0.01727882
0001b0 68 6f a5 3d cd 01 85 bd 04 df 5f bd b8 4d 77 3d
       0.0807789 -0.06494484 -0.054656044 0.060376853
0001c0 66 fd 41 bf 2f 89 b6 3e 22 a8 fb bc d8 7b 3e bd
       -0.7577728 0.35651538 -0.03071982 -0.046504825
0001d0 4d 7f 12 bd 50 c1 b3 be 46 25 eb bd a5 76 35 3c
       -0.035765935 -0.35108423 -0.11481719 0.01107565
0001e0 85 84 74 3d c0 ff 53 be 89 a0 10 bf eb bd c0 be
       0.059696693 -0.2070303 -0.5649496 -0.37644896
0001f0 c3 76 a5 be f2 b0 33 3d 1f 09 eb bb e6 05 58 3e
       -0.3231717 0.04386992 -0.007172718 0.21096
000200 ce fc 4d bd 0f 0a 3f bf 81 ef 28 3e 45 40 77 bd
       -0.05028992 -0.74624723 0.16497613 -0.060364027
000210 bd 23 89 bb 94 09 89 3e fb 9b 03 3f b9 ff 93 3e
       -0.0041851685 0.2676512 0.5140988 0.28906038
000220 0d bd 19 3e 11 ca 1e 3e a9 5d 24 3c 06 f4 3a be
       0.15013523 0.1550677 0.010032096 -0.1825715
000230 3a c1 3a bd cf e2 71 bf 72 f3 9b be 4b db c4 bd
       -0.04559443 -0.9448671 -0.30459172 -0.09612139
000240 a1 cf 1f 3f 2a e1 b4 be 25 0c f5 bd 78 00 d7 be
       0.6242619 -0.35328037 -0.11965207 -0.41992545
000250 5e fa 34 3e 67 63 f2 3d 86 27 99 3c 5e cf 29 3e
       0.17673633 0.11835366 0.018695604 0.1658301
000260 5b da 67 3c 72 ff fa 3d 46 6d d7 bd 42 60 58 3c
       0.014151181 0.122557536 -0.10518889 0.013206543
000270 47 90 1a 3e 98 24 82 be 4c 18 70 be 68 4c 8d 3e
       0.150941 -0.25418544 -0.23446769 0.27597356
000280 92 19 3e 3e 2d e4 9b be 06 35 b0 bd e7 30 3a bd
       0.18564442 -0.30447522 -0.086038634 -0.045456793
000290 bf 93 45 3d 5d cc bc 3d e7 60 0e bf 5a f0 bf 3c
       0.048236605 0.09218667 -0.5561661 0.023430038
0002a0 c0 c5 12 3d 7e 35 37 be 9e c9 1d be b8 42 83 be
       0.03583312 -0.178915 -0.15408942 -0.2563684
0002b0 60 1a 32 bf e8 f0 fe be e9 4a ed 3c 0c ae 18 3c
       -0.69571495 -0.49793172 0.028966384 0.00931884
0002c0 c2 a5 45 3c 04 7d c7 bd 70 2a 3b bd 93 25 63 bd
       0.0120634455 -0.09740642 -0.04569477 -0.055455755
0002d0 5e ed 9b bc af a9 e9 bd bf 6f 63 3e 86 4f f3 3d
       -0.019034084 -0.11409318 0.22210597 0.11880402
0002e0 72 d0 83 3f cc c5 3d 3f 07 d1 5b 3a 77 83 21 be
       1.0297987 0.7412994 0.00083853345 -0.15772806
0002f0 16 8c 1a bd b5 9f da bc 49 55 b0 bb b4 72 c6 bd
       -0.037731253 -0.026687482 -0.0053812605 -0.09689847
000300 b2 3e fc be db 8c a6 3e a1 dc 21 3e ad ee da 3e
       -0.49266583 0.3252934 0.1580682 0.4276022
000310 34 91 68 be 3c bc 41 be 32 ca a0 bd f3 30 be bd
       -0.2271164 -0.18919462 -0.07851066 -0.0928668
000320 1d e3 7e 3c c5 39 ec bc 16 a4 b1 3c 40 22 d7 3b
       0.015557078 -0.02883614 0.021684688 0.006565362
000330 9c 04 ce 3d 2d 54 c5 3e dc e2 20 3f c9 9a c6 3e
       0.10059473 0.38540784 0.6284616 0.38789967
000340 b2 92 1a be b3 18 8a be e7 fd 8c bc 62 e7 97 bc
       -0.15095022 -0.2697197 -0.017210914 -0.01854295
000350 37 a5 e0 bd bf b1 2c 3f 8f e0 81 3d cf f5 1e 3c
       -0.10969012 0.6745872 0.06341659 0.00970216
000360 a1 b0 d2 3e 50 c4 3f 3e d0 b9 77 3e 36 dc 41 be
       0.41150382 0.18727231 0.24191976 -0.1893166
000370 37 2b 04 be 18 c4 55 be 83 ee 28 bd 34 f1 f1 bd
       -0.1290711 -0.20875585 -0.041243088 -0.11813584
000380 0f 9b 03 3c 6d 02 0a bf 36 7e da 3e da 26 33 3b
       0.008032574 -0.5390995 0.42674416 0.002733639
000390 8c 06 51 be 9b e2 68 bf 71 8b ce 3e dc f1 cf 3b
       -0.20412654 -0.9097077 0.4034076 0.0063459706
0003a0 dd 52 ad be 43 60 b4 bd 02 3b 22 bd cc b0 03 be
       -0.33852282 -0.08807423 -0.039607055 -0.12860411
0003b0 69 ed 3f bc 1f 54 40 bd cb 04 62 3c 74 71 8e 3d
       -0.011714318 -0.046955224 0.013795088 0.06955233
0003c0 a0 f9 5c 3d ae 60 c9 3e e5 d2 e1 3e 70 bd fd 3c
       0.053949 0.39331573 0.44106212 0.03097412
0003d0 a9 5e 74 3d 94 ae 20 3e b0 80 32 3c 3a 41 fa bc
       0.059660587 0.15691596 0.010894939 -0.03054868
0003e0 1f 29 db bc 72 24 2a 3f ca fc 6b 3f 69 8b 17 bd
       -0.026753007 0.6646186 0.921826 -0.036998186
0003f0 a2 4f 54 bb 3b 20 f8 be 2f 62 d6 be 4c 5f ff 3e
       -0.0032396098 -0.4846209 -0.41871783 0.49877393

pos_net.linears.0.bias f4 [30]
000000 ef c2 a3 3d f3 e4 13 bf d4 86 a4 be 6a 26 34 3e
       0.07996165 -0.57771224 -0.32134116 0.17592779
000010 f2 3c fc 3d 91 4b e5 be 8d 3f 8c be 88 8f 2f be
       0.12316312 -0.44784215 -0.27392235 -0.17144597
000020 10 29 17 bf df 9c dd be 23 d5 8b be db 63 11 3e
       -0.5904703 -0.43283746 -0.27311048 0.14198248
000030 5c 70 6f 3e ba 03 c2 be 11 92 65 bf ee 3d 6d be
       0.23382705 -0.37893468 -0.89676005 -0.23168156
000040 e4 4a 0c be c2 82 82 3e bd c8 8b 3e 82 3b 30 3e
       -0.13700444 0.25490385 0.2730159 0.172102
000050 3d 4c f6 be dd 83 9b be db 22 3c bf 8c 86 91 be
       -0.4810504 -0.3037404 -0.73490685 -0.28422964
000060 0b c0 77 be 5d ee 17 3e 61 b7 0c 3d d3 06 3b be
       -0.24194352 0.14837022 0.03435457 -0.18264322
000070 a0 83 e2 3d 44 6d 87 bd
       0.11060262 -0.06612638

pos_net.linears.1.weight f4 [30, 30]
000000 14 ad 16 3e d0 5c a1 bd 3c 05 34 3f 61 c2 0f 3f
       0.14714462 -0.07879031 0.7032049 0.56155974
000010 d4 cf 6a 3e b4 31 e6 3c 4b 7d 89 bc b6 a9 17 3e
       0.22930843 0.028099872 -0.016783377 0.14810833
000020 a7 29 3d 3f e2 c0 23 3e 94 16 0a bf 5b a7 0f 3d
       0.7389168 0.15991548 -0.539407 0.035071712
000030 1e 64 b2 bd 86 99 33 3e 76 d2 9c be 5f b0 c3 3c
       -0.08710502 0.17539033 -0.3062932 0.023887811
000040 af f2 12 3e 4f 00 1c 3c 75 dc cb bd ed 1d 65 be
       0.14350389 0.009521558 -0.09954158 -0.22374697
000050 b4 4e 2c bf c5 1c f0 3e 88 b8 d0 3e 50 54 6a 3e
       -0.6730759 0.4689695 0.40765786 0.22883725
000060 c6 9e 57 be ab 4a 9e 3c 41 52 0a be 22 1b bc 3c
       -0.21056661 0.019322714 -0.1350794 0.022962157
000070 65 b2 b5 be 9a d8 55 3d f0 86 c8 be 2f bb 4b 3d
       -0.35487667 0.05220852 -0.3916545 0.04973906
000080 cb b6 02 bd 36 da 19 be df 80 6a be ed f0 50 be
       -0.031912606 -0.15024647 -0.22900723 -0.20404406
000090 af 7c 96 3d 40 6e 14 be 42 9c ec 3e df 0e 8a 3f
       0.07348 -0.14495182 0.46212965 1.0785788
0000a0 6b b0 b7 bc 86 38 0d be b3 12 84 3d a0 23 e2 3d
       -0.02242299 -0.13791093 0.06448879 0.11041951
0000b0 f1 38 f6 be a1 ee ae bc ee 37 96 be ad 6d 89 bd
       -0.48090318 -0.021354022 -0.29339546 -0.06710372
0000c0 76 57 44 be b6 ae 0b 3f 12 fc 01 be cf 46 a3 3e
       -0.19173989 0.5456346 -0.12693813 0.3188996
0000d0 fe 62 a4 be 58 65 ef bc 5c 34 1a 3e 30 92 99 3e
       -0.32106775 -0.02922313 0.15059036 0.29994345
0000e0 ca 64 b1 3e 34 f4 cc 3c be 6c c1 3e d3 f2 0d 3e
       0.34647208 0.025018789 0.37778276 0.13862161
0000f0 69 42 42 3e d5 ab 7f 3e fc 44 08 3e 96 e6 6e be
       0.18970646 0.24967892 0.13307565 -0.23330149
000100 f0 cc 03 3f d5 ac 89 be 69 2d 80 be d4 8a 56 3e
       0.51484585 -0.26889673 -0.25034645 0.20951396
000110 97 89 9d 3e 64 02 31 bd 3d 54 c0 3e 79 cc 08 bd
       0.30769035 -0.04321517 0.3756427 -0.033398125
000120 47 dd 8f be b1 d9 e3 3d 3a 54 53 3e 8a 7b b4 3e
       -0.2809851 0.11125506 0.20637599 0.35250503
000130 0b f6 d4 3e 78 d9 cc 3e df 08 0a be 3f 1d 33 be
       0.41593966 0.40009665 -0.13479947 -0.17491625
000140 52 0f 0a 3f e4 13 cf bd 13 d2 6e be 10 d5 52 be
       0.53929627 -0.10111216 -0.23322324 -0.2058909
000150 79 ab 38 be b6 b7 2e be 3a 96 6d be 15 8c e7 3e
       -0.18034162 -0.17062268 -0.23201838 0.45224062
000160 8b 6e f6 bd d6 ff 3a 3d 2b 82 78 3c 43 78 99 bd
       -0.12032803 0.04565414 0.015167753 -0.07493641
000170 f4 74 a5 bd 6a 52 93 bd 40 ca 82 be 18 94 6c bc
       -0.08078948 -0.071934536 -0.2554493 -0.014439605
000180 c3 33 35 be 9a 3a 62 be 2e a6 a1 bd 02 da 93 bd
       -0.17695527 -0.22092667 -0.078930244 -0.07219316
000190 c3 dc 07 3b 46 61 89 be 7a fe b8 bd 3c 3c 88 be
       0.002073095 -0.26832026 -0.090329126 -0.26608455
0001a0 00 e2 4d bc b4 08 73 3d 3c b9 a4 be 6f 10 54 be
       -0.01256609 0.05933447 -0.32172573 -0.20709394
0001b0 8b 89 03 3d 8f 6d 59 be 39 d8 a4 be eb 98 a1 bd
       0.032113593 -0.212332 -0.32196215 -0.07890495
0001c0 2a f9 58 be 55 ac 03 be 13 87 b3 bd 6b 3a 73 bd
       -0.21188799 -0.12858708 -0.08765998 -0.059381884
0001d0 56 dc 2a be c2 cd e9 bd 41 f2 a7 be f1 89 06 be
       -0.16685614 -0.11416198 -0.32802013 -0.13138558
0001e0 9d 9a 04 be d0 01 c4 be 1b 3f b0 be 2b 0a f5 be
       -0.12949605 -0.38282633 -0.34423146 -0.4785932
0001f0 1f 95 30 bd 3c 41 47 3e f5 f6 d8 bc 69 cd cb 3e
       -0.043110963 0.19458479 -0.026484946 0.39805153
000200 35 32 df bd 1b 84 05 bf 24 d8 eb 3e a7 74 bf be
       -0.10898248 -0.521547 0.4606334 -0.37393686
000210 f6 de 22 3e 4c 7b de 3c 54 a5 ce 3e 59 6d ca 3b
       0.15905365 0.027158402 0.4036051 0.006177586
000220 d4 72 d8 bd 32 a6 3e be f0 a4 72 3d 6d f9 ab 3e
       -0.10568777 -0.18618086 0.059239328 0.33588734
000230 4c 18 1e 3e 0b 5a d3 be 5a 88 fb 3e 04 98 7d 3c
       0.15438956 -0.41279635 0.49127465 0.015478138
000240 96 13 05 3e a6 c7 40 3e f6 4a a8 be 58 c1 1d bf
       0.12995753 0.1882616 -0.3286969 -0.61623144
000250 d7 39 b9 3e 24 1c 6d bd e4 c5 99 bb 69 c0 c7 bd
       0.3617694 -0.057888165 -0.00469278 -0.09753496
000260 31 f8 bf bc f4 13 da bd 6e da d5 bd 56 44 5c bc
       -0.023433777 -0.10648337 -0.10442053 -0.013444027
000270 b7 5e 67 be b9 2f 8f bd 87 7a 49 bd 40 b6 85 bd
       -0.22594725 -0.06991524 -0.049189117 -0.06528902
000280 84 63 e8 39 67 e7 92 bb bc 1e d1 bc 17 b0 bc bb
       0.00044324633 -0.0044831517 -0.02552735 -0.005758296
000290 1a 46 67 3a 3e c4 95 bd 36 f4 3e bb aa 4d 75 bd
       0.00088223966 -0.07312821 -0.002913726 -0.05988852
0002a0 23 08 a4 bd 92 7d 82 bd d9 5a b7 3b 34 34 42 bd
       -0.080093645 -0.06371607 0.0055955467 -0.047413066
0002b0 e0 0f 16 38 68 19 91 bc 28 49 40 3c 0a d7 3b 3b
       3.577757e-05 -0.01771231 0.011736192 0.0028662109
0002c0 c2 29 19 3c 9e fc 3c bb e7 f5 79 bd e9 78 27 3c
       0.009348335 -0.0028837095 -0.061025526 0.010221698
0002d0 79 8d fd bb 52 b7 a9 bb d0 bf 31 3c 5e d3 b4 3b
       -0.007737812 -0.005179324 0.010848954 0.005518361
0002e0 ef 5a 9b bc 1d ad d9 bb ea 08 3f bd c4 bc aa 3b
       -0.018964259 -0.006642951 -0.04663936 0.005210491
0002f0 f0 e4 3b bb b0 2a 31 39 bb 89 09 3c 4b 9a c0 3b
       -0.0028670393 0.00016895938 0.008394654 0.005877768
000300 5c b0 95 3b 71 cb db bb 46 a5 56 3b 02 54 f7 3b
       0.004568143 -0.0067076017 0.003275232 0.0075478563
000310 eb 75 f3 3b 86 5e 2b 3c 5a 52 4a 3b 79 a7 24 bd
       0.0074298284 0.010459548 0.003087184 -0.040198777
000320 15 5e 2c bb 9e f5 37 3c 91 49 58 3b 95 ca 14 3c
       -0.0026301194 0.011227993 0.0033002833 0.009081502
000330 0c b2 fd 3b 1d 24 ab 3b 60 d3 9d bb 35 58 fe bb
       0.007742172 0.005222811 -0.0048164576 -0.00776198
000340 76 03 c5 3b 16 79 7f 3b 9b 50 52 be a8 c5 15 3e
       0.0060123755 0.0038982085 -0.20538561 0.14626181
000350 12 03 a5 be 2b 58 f2 be 16 90 b7 bd 06 b5 fb be
       -0.32228905 -0.47332892 -0.08963029 -0.49161547
000360 fb 81 85 3e 16 5c 08 be c1 86 59 3f 67 80 f0 3d
       0.2607573 -0.13316378 0.84971243 0.11743241
000370 93 a4 da bd 12 11 ea 3e 77 2b a9 be 24 f1 ba be
       -0.10675921 0.4571615 -0.33040974 -0.365121
000380 ac fd 89 3c 1c 9d 86 be f3 1a 94 bd ca 78 8b be
       0.016844593 -0.2629174 -0.07231703 -0.27240592
000390 6d f0 99 3d 12 7b 9b be d9 c4 47 bd 0b 8b 01 be
       0.07516561 -0.30367333 -0.048771713 -0.12650697
0003a0 9f e5 17 3c e9 5e 8a be 88 02 68 3e b7 b8 44 be
       0.0092710545 -0.27025536 0.22657216 -0.19211088
0003b0 e1 39 62 be 56 5b 7b be a4 17 68 3e 60 51 ea be
       -0.22092392 -0.2454656 0.22665268 -0.4576521
0003c0 1d bd 1c 3d 02 38 3d bd 19 2b 46 bd e0 c5 2b 3e
       0.03826629 -0.04619599 -0.048380945 0.16774702
0003d0 19 05 c5 3e d9 1b b8 3e 21 80 9b 3e f6 fc 4b be
       0.38480452 0.35958746 0.30371192 -0.19920716
0003e0 b6 d2 41 3d 7e f3 92 be 9c a3 5f be 52 17 cd 3d
       0.04732009 -0.28701395 -0.21839756 0.100142136
0003f0 be 6d e2 3e f6 2f 3b be 05 78 55 3f c1 49 33 3f
       0.44224352 -0.18280014 0.8338626 0.70034415

pos_net.linears.1.bias f4 [30]
000000 33 8a 87 3d 6a e7 c2 3e 20 88 b0 3e 71 f5 69 be
       0.06618156 0.3806718 0.34478855 -0.22847535
000010 f4 f4 b2 bd 5c 78 73 be b4 19 1c be 52 a7 db be
       -0.08738127 -0.23776382 -0.1524418 -0.42901093
000020 23 51 cf 3d cf 6d da bc 94 51 7f be 00 e1 59 3e
       0.101228975 -0.026663689 -0.24933463 0.21277237
000030 c0 b2 ab be 67 b2 14 bd b4 f8 b7 3e b7 6c 04 3d
       -0.33534813 -0.03630295 0.35931933 0.03233024
000040 62 70 b5 3e c8 dc 09 bd c9 9e 8b be 0e 47 30 bd
       0.35437304 -0.03365782 -0.2726958 -0.043036513
000050 f3 cd 07 be a9 bc fb bd b8 01 75 bd 52 e1 1d be
       -0.13262157 -0.122918434 -0.059816092 -0.15417984
000060 b1 f4 66 be 17 ce f7 3d 2c 50 10 3e da b9 3b be
       -0.2255428 0.120998554 0.14093083 -0.18332615
000070 84 a2 ff bd b5 14 1c bf
       -0.12482169 -0.60969096

pos_net.linears.2.weight f4 [30, 30]
000000 ad 0b d9 be 9d d9 ea bd 81 e8 aa 3e f6 7f 31 bb
       -0.4239172 -0.11467288 0.3338051 -0.0027084327
000010 16 e2 68 be d6 42 4f 39 98 82 1e 39 e7 b7 9c bc
       -0.22742495 0.00019765957 0.00015116704 -0.01913066
000020 99 e9 8d bd e3 f1 a4 be 6e 85 3f bc 65 b4 85 3e
       -0.06929321 -0.32215795 -0.011689527 0.26114193
000030 b8 a8 8f b8 00 21 83 b7 4b 6b 95 bd 14 84 91 3e
       -6.850198e-05 -1.5631784e-05 -0.07295855 0.2842108
000040 42 dd 58 be 59 ff 1c 3e fc 00 3f 3a cc 69 14 3f
       -0.21178153 0.15331782 0.00072862185 0.57973933
000050 0d 67 31 be b4 9e 69 3a 24 24 7c 3a 58 b7 28 3a
       -0.17324467 0.0008911893 0.00096184225 0.0006436012
000060 31 03 cc 39 c4 a2 ca bd 20 14 6c 3d 52 30 d0 39
       0.0003891229 -0.09894326 0.05763638 0.00039708853
000070 40 88 60 39 e6 34 4b bd 74 42 ab 3d 90 75 36 3e
       0.00021413062 -0.049610995 0.08362284 0.17818284
000080 f2 ac 73 be ec 42 08 be 09 d6 29 be c7 4e de 3a
       -0.23796442 -0.13306779 -0.16585554 0.0016960733
000090 e0 1d 84 3a 49 ae 2a 3d ea 4a 02 bf fa 39 30 be
       0.0010079704 0.041670118 -0.5089556 -0.17209616
0000a0 a7 c9 ac 3c 9d e9 5b 3d 0b 6b 73 bd 7e a6 5d ba
       0.02109225 0.053689588 -0.059428256 -0.000845529
0000b0 74 04 e3 3e 75 24 f8 ba 6c 97 c5 3d 22 11 db 3e
       0.44339335 -0.0018931763 0.09648022 0.4278651
0000c0 71 e2 10 bd 37 7f ed 3d 92 72 de 3d ca a6 de 39
       -0.0353722 0.1159653 0.10861696 0.00042467407
0000d0 ea b8 cb bb 8c e1 20 3b cc 7b 86 3a f0 48 32 3d
       -0.006217112 0.00245485 0.0010260283 0.04352659
0000e0 d5 af 03 3e a1 d2 f0 3b 24 66 54 bb e2 9d 0d 3e
       0.12860043 0.0073493277 -0.0032409513 0.13829759
0000f0 84 dd 81 be 01 79 2e be a8 94 a3 3b 41 ce 26 be
       -0.25364316 -0.17038347 0.0049920864 -0.16289617
000100 c2 b0 61 bd e2 02 c5 39 0e 94 46 3b fa 84 b9 bb
       -0.05510021 0.00037576916 0.003030065 -0.005661604
000110 b3 f4 5b be 17 96 88 be 18 bf 95 ba 18 31 06 be
       -0.21480064 -0.2667701 -0.0011424748 -0.13104665
000120 bb 75 36 ba 3e 1d 83 bb 58 70 22 be 41 4d a8 bd
       -0.0006960292 -0.0040012887 -0.15863168 -0.0821786
000130 71 2c 96 bd 5a 05 a3 bc 06 87 e8 bd 89 40 40 be
       -0.07332695 -0.019900013 -0.11353879 -0.18774618
000140 fc f7 8d bd ec 7f 93 3a 40 19 7c b7 e3 c7 68 3b
       -0.06932065 0.0011253334 -1.50262495e-05 0.0035519532
000150 94 1a 1e bb 08 dd 94 be ea cd bd bd 1a b7 6e bd
       -0.0024124729 -0.29074883 -0.092677906 -0.058280088
000160 42 a1 45 ba 7d c8 27 39 0e f8 0a 3c f8 a4 fc bc
       -0.0007538983 0.00016001049 0.008481992 -0.030840382
000170 7c 3d c1 39 da 55 01 be 42 f5 1b bb b0 04 65 bd
       0.00036857638 -0.12630406 -0.0023797308 -0.055912673
000180 df 78 17 ba 47 32 d9 ba 6e 85 2a be 32 45 70 be
       -0.0005778204 -0.001657077 -0.16652462 -0.23463896
000190 8d 6f 09 be 74 a7 60 39 d2 c1 b8 3a 80 1d b7 3b
       -0.1342146 0.00021424686 0.0014095849 0.0055882335
0001a0 08 65 eb bc 42 76 07 3c 2e c8 8b bc 8a 8d 9c bc
       -0.028734699 0.008267941 -0.017063227 -0.01911046
0001b0 33 8f f9 bd 18 e9 44 be 94 38 1f be ea d0 a8 b9
       -0.12185516 -0.19229543 -0.15548927 -0.0003219911
0001c0 c9 b0 43 3c a0 21 33 bb c5 42 89 bd 69 b8 af bd
       0.011944004 -0.0027333274 -0.067021884 -0.08580095
0001d0 67 42 51 bd ae c7 30 be b4 80 2e bc 1c 2a 7f ba
       -0.051088717 -0.17263672 -0.010650802 -0.0009733753
0001e0 f8 a0 07 bd e6 58 aa 3e 45 36 1e bf 15 a5 19 be
       -0.033112496 0.3327095 -0.6180156 -0.1500438
0001f0 8b 27 66 3e af b8 d8 3b fa c6 3e 3b bf 27 9f 3d
       0.22476022 0.006613813 0.0029110298 0.07771253
000200 79 73 69 be ed ab 9c bd 78 f2 96 bb d3 56 1f 3d
       -0.22797956 -0.0764998 -0.0046065412 0.03890116
000210 91 d5 35 3b 28 68 01 3c 69 03 71 3e 04 6f e2 be
       0.0027745704 0.007898368 0.23536457 -0.44225323
000220 2c b8 33 3d 41 9d ab 3e 7b 06 79 3d 99 dd 8f bb
       0.04387681 0.33518413 0.060797196 -0.00439043
000230 e4 a7 a6 3e f2 4b dd 3a 3d e6 91 3c a6 85 e7 bb
       0.32549965 0.0016883595 0.017809981 -0.0070654927
000240 46 e8 55 3b ad 0f 99 be 70 c7 ec 3e 9e b7 5d 3d
       0.0032639666 -0.29894772 0.4624591 0.05413019
000250 e4 4d 02 bc 8d 0b d4 3c ab 1a 97 bd 7c be 60 bd
       -0.007953141 0.025884414 -0.073781334 -0.05486916
000260 d5 29 af bd 59 a2 36 be 34 35 99 bb 59 73 ec bd
       -0.08552901 -0.17835368 -0.0046755318 -0.11545438
000270 b2 8d d9 3b 6d 69 f1 3a 29 08 27 be 16 bf a7 be
       0.006639206 0.001841826 -0.16311707 -0.32762975
000280 22 b1 35 be bd 52 91 3b 58 19 cd bc ea 6c 9f bc
       -0.17743352 0.004434912 -0.025036499 -0.019461114
000290 74 83 fa bc 7f 59 10 be 6c d6 99 bd e1 a0 11 be
       -0.03058026 -0.1409664 -0.07511601 -0.14221527
0002a0 3a bc 41 be 63 8c 09 be a1 b6 53 be 82 aa 1c ba
       -0.18919459 -0.1343246 -0.20675136 -0.00059763354
0002b0 75 4a af bb 93 a2 76 bc 6c dc 0a be 44 d5 97 be
       -0.005349452 -0.015053409 -0.13560647 -0.29654896
0002c0 3a 36 05 be 3c 46 41 be 07 5d b2 bd e8 e3 53 3b
       -0.13008967 -0.18874449 -0.0870915 0.0032331888
0002d0 fa e8 02 3f 4a d5 96 3e 34 4d 11 bd 89 c3 0d 3a
       0.51136744 0.29459602 -0.035474017 0.000540786
0002e0 fb b4 1f be 6c f9 be 3a 97 7b 8a ba 06 1e 20 bf
       -0.15596382 0.0014570183 -0.0010565397 -0.6254581
0002f0 b5 79 68 3e 3c af 92 3c 81 90 68 3c e1 ee b7 3e
       0.22702678 0.017905824 0.014194609 0.35924438
000300 9a 1e d5 b9 4a 7e ab bb db 75 8e 3e 79 0e 5c be
       -0.00040649326 -0.0052335607 0.27824292 -0.21489896
000310 c8 d0 3b bd 5a 2b 4f 3e 3a cd c3 3b 50 14 cf bd
       -0.045853406 0.20231381 0.0059753926 -0.10111296
000320 c5 c5 70 be 28 c2 68 38 38 5a 65 bb a4 2c b1 3a
       -0.23512943 5.5493932e-05 -0.0034996402 0.0013517332
000330 91 af f2 39 72 79 72 be eb 19 2e bf c5 9a 08 ba
       0.00046288644 -0.2367914 -0.680083 -0.0005211051
000340 fd 5c 14 3a 37 14 16 3f 74 3c d3 bc f2 5e 8d be
       0.0005659608 0.58624595 -0.025785662 -0.276115
000350 ae 8b 49 be fd b3 f8 3a 2b 27 3d be 16 a0 97 3a
       -0.1968219 0.0018974539 -0.18471973 0.0011568095
000360 4a d4 42 ba 91 9b ba bc 1c 0a 8c be 94 c7 17 bd
       -0.0007432146 -0.022779258 -0.27351463 -0.037055567
000370 ce a5 5c 3a 72 ae 99 be 70 09 33 ba 68 3f 12 ba
       0.0008417041 -0.30015904 -0.00068297144 -0.0005578906
000380 34 21 a1 be 87 1e 55 be cd 0f 9d be df 4d 37 3d
       -0.31470644 -0.20812427 -0.30676118 0.044751998
000390 b5 6a ed 3a b3 a4 3f be d4 92 9f bc 06 0c 3f b9
       0.0018113466 -0.18715172 -0.019479193 -0.00018219659
0003a0 aa 1a bd 39 9b 13 aa 39 be 1a c4 ba 4c 5c 46 3b
       0.00036068755 0.00032439534 -0.0014961583 0.0030267416
0003b0 e3 ff 89 be e0 86 c1 ba f6 01 49 39 2d ea 27 be
       -0.2695304 -0.0014764927 0.00019169584 -0.16397925
0003c0 7f 7d b5 bd df 53 88 be 67 b2 5e 3e 1f 6c 07 be
       -0.08861827 -0.2662649 0.21747743 -0.13224839
0003d0 52 ce 84 bd 78 ee 54 39 fb 72 bf 3a 25 01 82 bd
       -0.06484665 0.00020306732 0.001460641 -0.063478746
0003e0 fb e9 e9 3e 4c c2 91 3c f3 ce ec 3c 57 4d 00 be
       0.45686325 0.017792843 0.028907275 -0.12529503
0003f0 d2 a6 2d ba 52 33 9e 3a c5 29 09 3f 4a 64 e9 3e
       -0.00066242844 0.0012069738 0.5357936 0.45584327

pos_net.linears.2.bias f4 [30]
000000 72 3e a8 be d3 0e 2d 3e 0b 92 27 be 04 01 3f be
       -0.32860142 0.16900186 -0.16364305 -0.18652731
000010 3a fd 5e 3e da dc 63 be 38 48 3c 3e fa ab 8b be
       0.21776286 -0.22252217 0.18386924 -0.27279645
000020 fc 69 ac 3d cf e8 7a be aa 3b 55 3e 32 2f c6 bd
       0.084186524 -0.24502872 0.20823541 -0.096769705
000030 1d 48 79 be 4b fb d0 3e 02 44 49 3e 6b e0 4b be
       -0.24343915 0.4081672 0.19654849 -0.19909827
000040 3c 8b 1c be 85 98 a1 be c5 96 3d be 64 d1 8c be
       -0.15287489 -0.31561676 -0.18514545 -0.27503502
000050 8f a3 f6 bd ec f9 47 3c ad 9a 82 3e 35 df eb bd
       -0.12042915 0.012205582 0.25508633 -0.11517183
000060 93 b9 63 3d 96 96 a2 3e 35 7d 20 be 2a 2f c5 be
       0.0555969 0.31755513 -0.15672763 -0.38512546
000070 bd df 23 be 60 1f 53 ba
       -0.16003318 -0.00080536865

pos_net.output_layer.weight f4 [6, 30]
000000 41 c5 08 3e 0d 7b 16 be 31 7c 8f bd 05 bd 44 3e
       0.13356496 -0.14695378 -0.070061095 0.1921273
000010 63 f1 2b be 02 93 04 3e 06 be 70 bd 0c 62 cc bb
       -0.167913 0.12946704 -0.05877497 -0.006237274
000020 b1 c5 0a be 1e ac 6f 3e e7 03 8f be 09 d5 70 3e
       -0.13551976 0.23405501 -0.27932665 0.23518766
000030 4f 17 37 bd 28 9a 79 bd 22 1d 22 3f 6a 75 32 3e
       -0.044699963 -0.06093803 0.63325703 0.17427602
000040 f2 19 8f 3e 9e 87 0f 3e 64 10 04 3b 0a 3a 4d 3c
       0.27949482 0.14016578 0.002015137 0.012526045
000050 da 09 9b bb 0b c1 f2 bd ec 66 61 be 0f 7d f7 3d
       -0.004731399 -0.11853226 -0.22011918 0.120844
000060 0f fa ae be de 8c a6 3e 1d 11 f4 3c b7 65 28 be
       -0.34175155 0.32529348 0.029793316 -0.16445051
000070 9e 05 3d bc a0 20 89 3e 12 92 7d be ff 1b 89 3e
       -0.011536984 0.26782703 -0.24762753 0.26779172
000080 fc 29 3f 3e 1c 55 6d 3d d5 0b 72 3e 0e cf 41 3e
       0.1866836 0.057942495 0.23637326 0.18926641
000090 16 7a c9 3c 09 c3 3c 3e 1c be 18 3e f8 56 03 3e
       0.024594348 0.18433775 0.14916271 0.12826145
0000a0 52 ed 97 be 37 0b cf 3e cb ef 36 be 08 b5 6b be
       -0.2967325 0.40438244 -0.17864911 -0.23018277
0000b0 68 a5 06 3e cc e7 24 3e 83 c8 db 3d 8a 8b 02 3e
       0.13149035 0.16104048 0.10731604 0.12748542
0000c0 f9 89 70 3b 95 83 38 bc dc ca e0 ba d0 5b 55 be
       0.0036703332 -0.01126184 -0.00171503 -0.20835805
0000d0 07 54 cb ba c2 62 de be 5a 16 26 3d dc 84 04 be
       -0.0015512713 -0.4343472 0.04054866 -0.12941307
0000e0 6e d5 58 bc 2a 67 52 3e 99 7d 03 ba b9 ba 9f bd
       -0.013234479 0.20547166 -0.0005015969 -0.077992864
0000f0 8c 01 32 bd 89 cc 1f 3e 68 96 fa 3d 32 ff 40 3c
       -0.043458506 0.15605368 0.12235719 0.011779593
000100 2c 5b cd 3e f3 d3 d0 3c 26 78 ac bd f2 f1 19 3e
       0.4010862 0.02549169 -0.08421354 0.15033701
000110 91 c2 83 3d 73 bc b7 bb fe be 82 bd c3 26 7c 3e
       0.06433595 -0.0056071817 -0.06384085 0.24624161
000120 60 a7 9a bd 10 d0 be be 0c 2d 51 3e 62 54 05 3e
       -0.075514555 -0.37268114 0.2042734 0.1302047
000130 fa 09 10 3e 2c 5a 9e 3d 43 59 5e 3a 34 bb aa b9
       0.14066306 0.07732043 0.0008481929 -0.00032564404
000140 65 56 60 bc 19 4a 1b be 44 20 90 bd 95 ed 9e 3e
       -0.013692473 -0.15164985 -0.07037404 0.31040636
000150 b4 db ac bc 16 37 5e be 06 6a 8f 3c 7e 1e af 3e
       -0.021100856 -0.21700701 0.01750661 0.3420295
000160 fd 13 0a 3c 1b c5 af be 72 b4 b8 3d 99 fe c1 3d
       0.008427617 -0.34330067 0.09018792 0.09472389
000170 fb b4 43 3d c8 e8 12 3e c6 17 95 3d 34 1d 22 3e
       0.04778002 0.14346611 0.07279925 0.15831453
000180 d2 92 52 bd f6 c8 95 3e e8 6d b7 3e ed cf 60 bd
       -0.05140955 0.29254884 0.3582604 -0.054885793
000190 d9 a0 91 3e 34 25 3f be 31 82 fb bc 26 e6 60 3d
       0.2844303 -0.18666536 -0.030701729 0.054906987
0001a0 8d d4 5a 3e dd 8e 5d 3e 59 49 49 3e 0a 1f 17 3e
       0.21370144 0.2163653 0.19656886 0.14757934
0001b0 8f 8c 44 3d 22 0c cf bd a7 98 06 3e 2e aa 9a 3d
       0.04798561 -0.10109736 0.1314417 0.075519904
0001c0 16 0a 43 3e 91 49 9b be d4 3b 19 bf be 67 4b 3e
       0.19046816 -0.30329564 -0.59856915 0.19863793
0001d0 14 fe 83 3c 66 36 9e 3d f7 2d ff 3b 3b d0 bb be
       0.016112365 0.077252194 0.007787462 -0.36682305
0001e0 fd 55 3c 3f 64 01 db 3c 02 7d f6 3d 1c 24 fd 3b
       0.7356871 0.026734062 0.12035562 0.007725252
0001f0 10 d4 3e 3e 27 a4 bb bd 18 79 48 bf 97 ea a8 be
       0.18635583 -0.09162169 -0.78309774 -0.32991478
000200 09 10 37 3c fe b2 e3 3d e8 ee 95 bd e1 5b c5 3d
       0.011173257 0.111181244 -0.073209584 0.09636665
000210 3b a2 00 be df 81 11 3f b3 a3 44 bd c9 c6 9d bd
       -0.12561886 0.5683879 -0.04800768 -0.07703931
000220 1c 4a 19 bd 4c e0 53 bd ea 96 85 b9 a0 00 03 be
       -0.03742419 -0.051727578 -0.00025480177 -0.12793207
000230 28 54 7e bb 29 12 70 bd 01 ee ad 3e f7 26 0b be
       -0.0038807485 -0.05861107 0.33970645 -0.13589083
000240 fa ee ac 3e a6 16 3a bd 14 d6 f6 ba 9c 6e 68 bd
       0.33776075 -0.045431755 -0.0018832111 -0.05674611
000250 9d e6 92 bb 85 3e db bd 2e f8 dc bc 09 c7 a1 be
       -0.0044830577 -0.10705284 -0.02697381 -0.31597164
000260 b7 f8 82 be 7e 3e 03 bd a0 bf 7c bd 33 7d 06 3d
       -0.2558038 -0.03204202 -0.061706185 0.032834243
000270 99 6f 55 be bb 62 2b be 12 2d 1f 3f 56 6f 06 3d
       -0.20843352 -0.16736881 0.62178147 0.032821022
000280 73 dc 0c 3e 3a 02 d7 3e 77 14 15 3c d3 dd 86 be
       0.1375597 0.41993886 0.0090991175 -0.26341113
000290 38 d3 71 be 7d 03 a2 3d b3 6e 9b 3b 06 24 3c bb
       -0.2361573 0.079108216 0.004743421 -0.0028707995
0002a0 14 75 4a b9 c9 c9 38 3d ce 7d da 3b b6 5b 86 be
       -0.00019307836 0.045114312 0.006667829 -0.26241845
0002b0 b1 a5 47 3d bf 12 35 3d 6f 63 89 be 33 eb 95 bd
       0.048742 0.04420733 -0.26833674 -0.07320251
0002c0 40 19 95 3b e8 4e 49 3e eb c1 1f 3c 7d 88 ff 3e
       0.004550129 0.19659007 0.0097508235 0.4990882

pos_net.output_layer.bias f4 [6]
000000 ad 8d 8e 3d bf 17 4e 3e 40 b7 bf be 0c ed 11 3e
       0.06960616 0.20126246 -0.37444496 0.14250582
000010 bf 58 96 3e e7 29 9b be
       0.29364583 -0.30305406

neg_net.linears.0.weight f4 [30, 12]
000000 8f 1b 0a 3d 03 c1 93 be ba 2b 8c be 68 6b dc 3e
       0.03371769 -0.28858194 -0.2737711 0.43050694
000010 62 ff 87 be 1d 18 dc bc 03 48 c2 bd 38 39 9d b9
       -0.2656203 -0.026866967 -0.094863914 -0.00029988005
000020 70 e3 d9 bc 0b a4 3a 3f 3b 78 0f 3f 18 05 af 3d
       -0.026597708 0.7290656 0.5604283 0.085458934
000030 3a a1 c6 be b3 5b fb be 4a 39 b6 ba 2a fc 22 3f
       -0.3879488 -0.49093398 -0.0013902572 0.6366602
000040 9e 8e 92 3d b8 65 40 be 36 5b c6 3d fe 86 05 bd
       0.07156108 -0.18788803 0.09685366 -0.03259944
000050 e7 04 a3 bc f5 33 47 be 4a d3 e5 bd 4c dc fa 3c
       -0.019899799 -0.19453414 -0.11221941 0.030622624
000060 a1 eb 4c bd 5e 4d 0e be 14 94 03 bf 79 ee f4 be
       -0.0500294 -0.138967 -0.51397824 -0.4783819
000070 e6 e1 8f 3e e0 48 48 bf 90 26 05 be 0e 8a 2f 3e
       0.28102034 -0.782362 -0.13002992 0.17142507
000080 69 22 8d bd 4a c6 ce 3a 15 b4 83 be 1f de 19 3e
       -0.06891329 0.0015775647 -0.2572333 0.15026139
000090 5f e3 0d bc f2 03 37 3e 9f 6f 08 3f 0d c0 78 3f
       -0.0086601665 0.17872599 0.5329532 0.97168046
0000a0 a0 37 11 3f 0f 2e 3b 3e b5 14 8b bd c1 18 27 be
       0.567255 0.18279289 -0.06791059 -0.16318037
0000b0 c0 75 ab 3d 35 f5 bd 3c 9d 10 b5 be 38 28 5c 3b
       0.083720684 0.023188213 -0.35364237 0.0033593308
0000c0 c9 2f 16 be 31 f7 00 3f f7 61 4c 3f 6c 46 f4 bc
       -0.14666666 0.50377184 0.7983698 -0.029818736
0000d0 d8 c8 95 3e 23 e2 49 3d 5b 05 90 bc 51 3a 12 be
       0.29254794 0.049287926 -0.017580679 -0.14280058
0000e0 e0 21 87 3d 29 7e 30 bf 54 c7 06 bf a6 df b1 bd
       0.06598258 -0.68942505 -0.526479 -0.08685236
0000f0 0d 8a 9d 3d 90 f8 1c be 90 39 45 be 9c 0e 22 3f
       0.07692347 -0.15329194 -0.1926024 0.6330354
000100 a6 c0 53 3f ff 79 47 bf 66 db fc bc 97 c6 12 3e
       0.82715833 -0.77920526 -0.030866336 0.14333569
000110 f6 a1 7b 3d 0a 2e b7 3e 1c 24 ae bd a3 cf e2 bb
       0.061433755 0.35777313 -0.08502981 -0.006921725
000120 e9 2b 03 3d d3 85 f0 3e 33 ce 23 3f 0c 84 0b bf
       0.032024298 0.469771 0.6398651 -0.5449836
000130 b0 8b 9c bd 42 64 55 be 4f e2 4c bd a2 20 ae bd
       -0.07643831 -0.20839027 -0.050020512 -0.08502318
000140 7d 3e 68 3c 5a 2c 13 bf 7a a7 05 3f ae 4e 24 3d
       0.014175055 -0.5748955 0.52208674 0.040114097
000150 86 f1 d1 bc e9 79 c6 3e 21 1a 27 3f 0d 0e 04 3f
       -0.025627863 0.38764885 0.65274245 0.5158394
000160 9a d8 af 3e 8b ea e3 3e 12 9b e9 bc fd c3 32 be
       0.3434494 0.4451488 -0.028516326 -0.17457576
000170 1c 91 b0 3b 85 58 33 3f 82 de 45 3f 05 c1 a9 3c
       0.005388392 0.70056945 0.77292645 0.020721922
000180 99 cf 83 bd a3 4c 49 3e 80 11 41 3d 85 14 26 bf
       -0.064360805 0.19658141 0.04713583 -0.6487506
000190 06 59 47 bf 74 18 66 3e 2c 3c 84 bc 4f bf ff 3d
       -0.77870214 0.22470266 -0.016141973 0.12487661
0001a0 fc e2 db 3c e3 a7 bd be 16 1f e6 bc d0 36 6c bc
       0.026841633 -0.3704215 -0.028090995 -0.014417365
0001b0 11 da d8 3c 97 3d 5e be 2a 5b 3b 3e 73 03 f5 3e
       0.02647117 -0.21703182 0.18296495 0.47854194
0001c0 7a b8 25 bf c3 f0 0e 3f 97 0b 84 bc d0 1a 52 be
       -0.64734614 0.55836123 -0.016118808 -0.2051804
0001d0 8e 61 a9 3c 7a a2 04 3f d4 9f b4 3e a5 ca 25 bd
       0.0206764 0.5181042 0.3527819 -0.04047646
0001e0 22 6d 8a be e4 2d ef be 43 56 e6 be aa 40 9f 3e
       -0.27036387 -0.467147 -0.44987687 0.31104022
0001f0 36 d1 6f be 2d 44 c5 3d 63 51 aa 3c 0d 01 bc 3b
       -0.23419651 0.09632144 0.020790761 0.00573743
000200 3b be 33 bd 42 9a 88 bc 0f 2c 2c bc 0e 79 6d 3d
       -0.04388259 -0.016675118 -0.010508551 0.057976775
000210 92 3c e5 3c c3 03 9e 3e 39 22 9f 3d e1 3e 9f be
       0.027982984 0.30862245 0.07770199 -0.3110266
000220 98 2b 98 3c 95 f5 58 be 69 29 c3 3c 8d 35 56 3e
       0.018575475 -0.21187432 0.023823457 0.20918866
000230 4d 48 5a 3d 78 6a fb 3e 0f d0 4b bf 62 f4 6a 3d
       0.053291608 0.49104667 -0.7961435 0.057361968
000240 89 6e 3d 3c 35 b8 e0 3e 01 a5 11 3f ad 09 0f bf
       0.011561998 0.4389054 0.568924 -0.5587414
000250 30 b6 05 bf 3c 3a 23 3e c2 a8 8d 3b c5 ed e0 3b
       -0.5223112 0.15940183 0.004323096 0.006864282
000260 02 88 6c 3d 73 64 a7 3e 73 27 39 bf df 7c b2 3d
       0.057746895 0.32693824 -0.7232582 0.087152235
000270 1b 8a f6 3c db 0e 1d 3f c7 a9 42 3f 85 74 2b 3e
       0.03009515 0.6135079 0.7604031 0.16743667
000280 1f 1f af be 99 eb 97 be 0c 3c 1a 3d f6 01 13 bd
       -0.3420343 -0.29671934 0.03765492 -0.035890542
000290 2c c9 0c 3d 2b 08 97 3f 43 30 34 3e d2 da e6 bb
       0.03437154 1.1799368 0.17596535 -0.0070451284
0002a0 a6 98 04 3f f2 96 0a 3f 6e 33 21 3f ca ea 2e 3e
       0.51795423 0.54136574 0.629691 0.17081752
0002b0 d9 6a 8f bd d4 8d e6 3c f7 a6 8b bd bd bc 00 bd
       -0.070028014 0.0281438 -0.068189554 -0.031429995
0002c0 c0 a6 0e bd f4 39 e1 be 52 7c a4 be 06 32 87 3d
       -0.034826994 -0.43989527 -0.321261 0.06601338
0002d0 c6 f5 49 3f 40 02 01 3e 02 61 77 3e c3 76 04 bf
       0.78890646 0.12598515 0.241581 -0.51743716
0002e0 a4 c8 d4 bd d0 db 9e 3d 08 88 49 be fd ee c9 bb
       -0.10389832 0.0775677 -0.19680798 -0.006162523
0002f0 e8 95 0a bd 00 a5 14 3e 00 45 26 3e 3e 9f 02 3c
       -0.033834368 0.14516068 0.16237259 0.007972537
000300 fc e9 84 be 0e 6e fa 3e 0d bd 00 3f 8c 60 c1 3e
       -0.25959766 0.4891209 0.5028847 0.37768972
000310 79 5f a6 be d9 70 cc bd 67 8b 85 3c 3a 11 16 3d
       -0.32494715 -0.099824615 0.016301824 0.036637522
000320 9e cc 6d bc 80 66 8c 3d 4a c9 af be 3b 0b c7 3c
       -0.014514117 0.06855488 -0.3433326 0.024297347
000330 10 03 11 3f a9 9f 2f bf f3 48 cb be 3b 03 14 3f
       0.566453 -0.68603 -0.39704093 0.5781743
000340 e5 56 50 bd 50 bc 1c be 4f 66 17 be 28 25 ae bd
       -0.05086412 -0.1530621 -0.14785121 -0.08503181
000350 ba f8 f7 bc 17 54 02 bf f3 4d 4e 3c a5 3e 9c bc
       -0.03026997 -0.5090956 0.012591827 -0.01907284
000360 f2 c6 33 3d be f0 aa bd c1 bc 61 3e e1 28 49 3e
       0.0438909 -0.08346699 0.2204466 0.196445
000370 e8 e0 57 bf c1 06 40 bf 93 a0 20 bc a8 55 d5 bd
       -0.84327555 -0.75010306 -0.009803909 -0.10416728
000380 b5 4e 50 3d 2f d0 09 be 81 19 1f 3d 08 80 3c 3e
       0.05085631 -0.13458322 0.03884268 0.18408215
000390 d5 7a c7 3e 5c 17 25 3e 18 52 a3 bc 3e f5 81 be
       0.389609 0.16122192 -0.019936606 -0.25382417
0003a0 b6 62 04 3d 7a fe ec 3c a3 eb c0 be 93 df 57 bb
       0.0323207 0.028929938 -0.37679777 -0.0032939657
0003b0 ba 99 a0 3d f9 80 f6 3d f3 57 51 bc d1 9e 32 3e
       0.07841821 0.12036318 -0.012777316 0.17443396
0003c0 1b 3f 1f bf ca f2 a8 bc bb 17 08 be b7 27 96 3c
       -0.62205666 -0.020623583 -0.13290302 0.018329484
0003d0 76 38 c9 3c e7 5b 55 3d a9 5b 53 be a2 1e c3 3c
       0.024563055 0.052089598 -0.20640434 0.023818318
0003e0 3a 59 6f 3d 0f ca 2a 3e 99 6c cd 3b ed 25 f9 bd
       0.058434702 0.16678642 0.0062690494 -0.12165437
0003f0 b0 58 5f be c7 24 89 bd 24 48 8c bd 84 60 a8 3e
       -0.21811175 -0.06696468 -0.06849697 0.32886136

neg_net.linears.0.bias f4 [30]
000000 b6 47 af be 3c b3 6b 3e 13 49 18 be 0b 84 3c bf
       -0.342344 0.23017591 -0.14871626 -0.7363898
000010 56 20 9a be 91 b8 ab be 08 7c 79 bc 23 19 17 bf
       -0.30102795 -0.3353925 -0.015227325 -0.5902273
000020 30 4b eb bd 42 7d cf be 22 53 93 be 58 b9 13 be
       -0.1148895 -0.40525252 -0.28774363 -0.14426172
000030 93 18 45 bf be 2f 80 bd 15 b3 14 3e 46 e1 1e 3e
       -0.7699062 -0.06259106 0.1452144 0.15515622
000040 52 8b ff 3d d2 fa e6 3c 3d 98 c6 be 12 c8 e1 be
       0.12477745 0.028195772 -0.38788024 -0.44097954
000050 af 44 97 be a4 9c 6a be 76 b7 39 bc 9e 40 4a be
       -0.2954459 -0.22911316 -0.011335244 -0.19751212
000060 36 15 40 be 91 08 c4 bd b4 f3 a5 be 21 19 a0 be
       -0.18758091 -0.095719464 -0.32412493 -0.31269172
000070 49 c6 e2 3e fe 34 ed be
       0.44291905 -0.46329492

neg_net.linears.1.weight f4 [30, 30]
000000 c8 84 5c 3b e9 bf 2a bd a3 49 0a 3c 5e 8c 61 bb
       0.003364848 -0.041686926 0.008440408 -0.003441594
000010 4a 4a 2e bc 4c b9 f9 3b af 9a 20 bb f0 81 d0 bb
       -0.010637829 0.007620966 -0.002450626 -0.006363146
000020 ce 97 cf ba 54 e9 46 3c ad a9 d2 bb f8 64 41 3d
       -0.0015838088 0.012140591 -0.0064289183 0.047215432
000030 24 02 99 39 4e 64 ba bc 83 ba c5 bb 8e a2 76 bc
       0.0002918403 -0.022752907 -0.006034197 -0.0150534045
000040 73 68 fd bc 74 6d e8 bb 99 7e f3 3b 78 c9 01 3b
       -0.030933594 -0.007093126 0.007430863 0.0019803923
000050 ec 84 ad 3a f5 bd e2 bb 9a 79 80 bd 32 2d a5 ba
       0.0013238466 -0.0069196173 -0.06273194 -0.001260197
000060 be 47 5c 3b b4 fa a6 3b 4e cf c1 bb 73 63 b2 bc
       0.0033612098 0.005095804 -0.005914605 -0.021775937
000070 c3 b9 8d bc 84 b3 4f 3c 38 18 83 3e b8 41 50 ba
       -0.017300492 0.012677077 0.25604415 -0.0007944363
000080 e4 ab 1b 3e 7d 1f 27 bc aa a2 ce 3d 23 d4 14 3f
       0.1520229 -0.0102003785 0.100896195 0.58136195
000090 73 f8 13 3f a9 79 05 bf de 5e ce 3e 33 21 18 be
       0.5780098 -0.52138764 0.40306753 -0.14856414
0000a0 ae d7 94 bd a6 d5 97 bd 47 32 44 3f c5 ed 91 3e
       -0.072677 -0.07413797 0.7663922 0.28501716
0000b0 b3 c5 e4 bd 09 74 d0 3d 53 d4 81 bd b8 f4 38 be
       -0.11170521 0.10178382 -0.06339326 -0.18062103
0000c0 23 87 52 bf a9 62 53 bd 77 08 3d 3e 2c 43 e2 3d
       -0.8223745 -0.05160776 0.1846026 0.11047968
0000d0 40 fe ce 3c 8d 84 48 3e 73 d4 7e 3d f3 b5 af 3d
       0.02526772 0.19581814 0.062214326 0.08579626
0000e0 16 96 5e be 77 cc a5 be 3c b5 0c 3f e4 d1 1b 3d
       -0.2173694 -0.32382557 0.5496404 0.038041964
0000f0 5a b0 a4 3e cb fc e7 bd 25 6a 00 bc 0c 5d 17 3e
       0.32165796 -0.11327513 -0.007837807 0.14781588
000100 3c 0d 45 3e bf 53 4b 3e 01 5d ef 3d cc 9d 2f be
       0.1924333 0.19856165 0.11687661 -0.17150038
000110 1a e9 fc bd 75 0f c1 3d 69 76 2b be 46 c0 6e 3d
       -0.12349148 0.09426776 -0.16744389 0.058288835
000120 51 36 43 3e 9b fc 2d 3e 5b 49 cd 3e e7 2e f5 3e
       0.19063689 0.16990893 0.40095028 0.47887346
000130 22 0b 07 be 9f 07 d2 3e 42 a9 51 3c 96 34 d4 3e
       -0.1318784 0.4102144 0.012796702 0.4144637
000140 23 c1 60 be 3f a6 c7 bd f3 59 b3 be dd 99 ed be
       -0.21948676 -0.09748506 -0.35029563 -0.4640645
000150 c1 a9 04 bf bf b4 a3 3e d9 5f e1 bd d2 e5 d7 bd
       -0.51821524 0.31973836 -0.110046096 -0.105418816
000160 03 bb fe bd c0 6f 18 3f 59 82 c3 3e 8a 71 07 3e
       -0.124380134 0.59545517 0.38185385 0.13226905
000170 44 be b8 bb f7 98 d8 bd 7e b7 14 3f 10 36 ab 3d
       -0.005637916 -0.10576051 0.58092487 0.08359921
000180 7f ca 02 3e 1e 37 4a be 00 98 a1 be f3 f5 38 3e
       0.12772559 -0.19747588 -0.3156128 0.18062572
000190 2e 1f 29 3d ce 51 44 be d7 c7 43 3f 8c 8b 02 3f
       0.0412895 -0.19171831 0.76476806 0.5099418
0001a0 79 47 89 3e 1b 41 c0 bd 94 41 13 3f 50 0a e9 bd
       0.26812342 -0.09387418 0.5752194 -0.1137892
0001b0 45 1f 9b 3e dd 11 0a 3d 16 6d 7b bd a6 35 2a 3a
       0.30297294 0.033708442 -0.06138333 0.00064929796
0001c0 3b 39 80 3e 10 b1 08 3e 35 a4 c2 bd 56 57 86 3e
       0.25043663 0.13348794 -0.09503976 0.26238507
0001d0 f0 bd 1a be 7c 1d d2 3e 9d c7 52 be 66 da 8c bd
       -0.15111518 0.4103812 -0.20583959 -0.06877594
0001e0 c5 13 a9 3a b0 fa 01 bd 6a a1 c5 bb 74 03 05 3e
       0.0012899569 -0.031733215 -0.006031205 0.12989599
0001f0 e4 b6 25 bc de af f6 3b bc 99 db bc d4 90 8f bd
       -0.010114405 0.007528289 -0.026806705 -0.07010046
000200 39 2b c5 bd fd 38 f4 bd 00 be 23 38 82 5c f6 bd
       -0.09627385 -0.11924932 3.903918e-05 -0.12029363
000210 17 2d 0a be ea f6 0e be a6 a9 8b bc 27 19 5c bd
       -0.13493763 -0.13961378 -0.017048668 -0.053734925
000220 fe 85 ff bc 20 08 c9 3a 32 9a e1 bd 22 98 ed bc
       -0.031191822 0.0015337504 -0.110157385 -0.029003207
000230 b9 34 83 3c ac 40 18 bc 1a a5 af 3c a2 09 fa bd
       0.016016351 -0.009292763 0.021441031 -0.122088686
000240 67 65 9a 3d 60 06 b5 bc 72 ff 25 3d e3 c1 88 3d
       0.07538872 -0.022097766 0.040526815 0.06677606
000250 9b 49 ab bd 4b 42 19 bd 1f d6 84 bc e6 ec 69 be
       -0.083636485 -0.037416738 -0.016215382 -0.22844276
000260 ce 9a cf bc 5e f9 80 3b f5 12 fc bb 8e a9 c8 bd
       -0.025342371 0.003935977 -0.0076926895 -0.09797965
000270 80 ab 0c 3c 9a b2 3b 3c 3f 07 88 bc b2 7a 8b bd
       0.008585811 0.011456156 -0.016605018 -0.06810512
000280 e9 9f 6c bd ad d7 b0 3b 0c c4 e3 bc e8 25 d4 bd
       -0.05776969 0.0053968043 -0.027803443 -0.103587925
000290 88 58 db 39 e3 68 96 3b 01 c7 ba bd 35 7a 9a ba
       0.00041836896 0.00459014 -0.09119988 -0.0011785688
0002a0 36 ed 14 bc de b1 3b 3b c1 31 96 bd 12 6c 50 bd
       -0.009089759 0.0028639953 -0.073337086 -0.050884314
0002b0 7a 8f 9f bd 0f f2 c0 bc de 8f d3 bc cc 81 08 ba
       -0.07791038 -0.023552923 -0.025825437 -0.00052073295
0002c0 3d 45 63 3c 78 c4 26 3c 57 71 20 bd 95 2a 55 bd
       0.013871488 0.010178678 -0.03917059 -0.052042563
0002d0 4c 75 51 be 19 28 c5 be 1e 9c b3 be 35 45 ca be
       -0.20454901 -0.38507155 -0.35080045 -0.39505926
0002e0 57 8a d0 be 8a 07 bd be 96 1b 2e be 22 59 a4 be
       -0.40730545 -0.36919814 -0.1700271 -0.32099253
0002f0 2d 3d 6a be 4b 56 85 be d8 c7 a0 be 13 0a 2e be
       -0.22874899 -0.260424 -0.3140247 -0.1699603
000300 50 14 5c be 43 72 b1 be e1 66 c6 be 59 a9 b4 be
       -0.21492124 -0.34657487 -0.38750365 -0.35285452
000310 42 c7 c8 be 28 65 c6 be ef d6 6f be 24 f9 44 be
       -0.39214522 -0.3874905 -0.23421834 -0.19235665
000320 0b 25 8e be 8c 0b 86 be 83 99 b8 be 58 5d 92 be
       -0.27762637 -0.26180685 -0.3605462 -0.2858684
000330 b8 6f 9e be 3d f3 be be 76 6b bd be 6a 48 a7 be
       -0.3094461 -0.3729495 -0.3699605 -0.32672435
000340 0f b6 ca be ee ee 1c be 88 94 e3 bc 12 ce 8b bd
       -0.39592025 -0.1532552 -0.027780786 -0.06826414
000350 8d 7f 8c bd 1a d5 7c be a8 bc e9 bd 93 ce 78 bc
       -0.06860266 -0.24690667 -0.114129364 -0.01518597
000360 01 b3 6a 3e f6 16 d7 bd d9 2e 0e be 6e 5e 41 bd
       0.22919847 -0.10502426 -0.13885058 -0.047209196
000370 a4 7d 30 bd bd 9c f5 bd 2c 36 18 bd c6 d5 64 be
       -0.04308857 -0.11992786 -0.037161037 -0.22347173
000380 6a 5f be bd 16 a2 a6 3b 5e a6 09 3e 99 23 d3 bd
       -0.092955425 0.00508524 0.1344237 -0.10309524
000390 90 f2 25 bd 2d cb e7 bd 15 90 a5 bd c8 7f 1b ba
       -0.04051453 -0.113180496 -0.08084122 -0.00059318217
0003a0 56 63 0c 3e 46 64 a2 3e 71 cf cf 3c fe a0 7d be
       0.13709769 0.31717128 0.02536747 -0.24768445
0003b0 ea 41 6a be 4a bb 43 3e 2f 74 21 be 1e 96 99 bc
       -0.22876707 0.19114414 -0.15766977 -0.01874834
0003c0 c2 73 74 3c 0e 05 a1 3c 95 88 1c be 42 89 c5 be
       0.014920177 0.01965573 -0.15286477 -0.38581282
0003d0 5a 12 70 3e 45 5c 85 be c6 8d 3a 3f 2b e6 32 be
       0.234445 -0.2604696 0.7287258 -0.17470615
0003e0 ac 81 9a 3e 95 0d 43 be f4 5d 83 be e1 76 8a be
       0.30177057 -0.1904815 -0.25657618 -0.27043822
0003f0 83 0c 0a bf a5 85 51 be 95 77 8d 3e 74 bd 71 bd
       -0.5392534 -0.20461138 0.27630296 -0.059018567

neg_net.linears.1.bias f4 [30]
000000 87 6c e9 bd 30 24 3e 3e ae da 2c be 7d 22 cf 3d
       -0.11397653 0.18568492 -0.16880295 0.10114
000010 8b 3d a0 bd 52 74 59 be db 94 e2 be 3d 5e 90 be
       -0.078242384 -0.21235779 -0.44254193 -0.28196898
000020 49 01 a0 bd a6 97 a5 3e 97 82 02 3e 9b 09 60 be
       -0.07812745 0.3234226 0.12745129 -0.21878664
000030 99 35 9b be 93 23 23 be 31 5c 94 bd 93 f3 6b 3e
       -0.3031433 -0.15931539 -0.072441466 0.23042135
000040 b0 e8 bc bd 26 00 91 be 8c 57 63 be 3a 7d 8b bd
       -0.09224069 -0.28320426 -0.22201365 -0.068109944
000050 4e 46 c9 3d 45 20 1e 3e ab 5c e7 3d 13 b3 97 3e
       0.09827863 0.15441997 0.11296972 0.2962881
000060 aa 13 c1 be c4 f1 97 3c 4c 05 91 be aa b4 ca bc
       -0.37710315 0.0185479 -0.28324354 -0.02474435
000070 ba 23 22 be 4c 45 7b 3e
       -0.15833941 0.24538153
