data/MTMR_28002/sim/random/Dist_0.02/train/N10/D6_SinCosInput/4/result/model/ReLU_Dual_UDirection_PKD.pt (torch_old, 22856 bytes, 20 tensors)

input_mean f4 [12]
00000000: 9373 61bb 19d5 683e 718d 393c 16b1 693e
00000010: 81a6 723e 8af9 f33c 43c9 6a3f 122f 6e3f
00000020: 40a1 703f 9559 693e 7d73 7b3e db33 6d3f
-0.0034401163 0.2273754 0.011325226 0.22821459 0.23696329 0.029782075 0.9171335 0.93040574
0.9399605 0.22788079 0.24555774 0.9265725

input_std f4 [12]
00000000: caae c83e 770e 8d3e 34a8 ac3e e65d 1f3f
00000010: a904 2b3f 31c6 bc3e e701 943d 3132 a83d
00000020: 70fa 513d da8a 363f b748 293f be75 8b3d
0.39195853 0.27550098 0.3372208 0.6225265 0.66803986 0.36869958 0.07226925 0.08212698
0.051264226 0.7130562 0.6612658 0.06809567

output_mean f4 [6]
00000000: 5a9e 6bb4 2843 bd3e 953b 513e 4612 3fbc
00000010: 67e4 3a3b 4db0 903a
-2.1943688e-07 0.369653 0.20432885 -0.011662072 0.0028517486 0.001103887

output_std f4 [6]
00000000: 4ca9 1438 1970 453e 6b25 193e 45cb 783d
00000010: 9736 263d c724 153c
3.544362e-05 0.19281043 0.1495568 0.060740728 0.040579405 0.009103007

pos_net.linears.0.weight f4 [30, 12]
00000000: e846 413e f7b4 59bd 4a2f f73d b9db b33e
00000010: e24a 673e ec8e 4abe 723f 223c 3ae3 d33d
00000020: 73d6 623e d9ca 61be 164d 93be ae96 8dbd
00000030: 747c 03be 2490 e03d db25 55be 42ed 00bf
00000040: 52ba df3c 9593 74be 1dd6 a93d 3c94 c2bd
00000050: 0f57 8bbe 0484 523e 31db b1bd bf83 823d
00000060: fd2e 0e3e 351f 9bbe 60da 57be 7bbe 2d3e
00000070: e210 973e 2d5a 6a3e 2fd7 86be 1f39 c8bd
00000080: 4379 cdbd ac3c d5be fb50 4fbe 6a67 88be
00000090: 5a7e 94bc ddfe 853d 6981 083e 58f0 0a3e
000000a0: 826e 8d3e c574 ca3e ce6e 2f3e 1e02 d9bd
000000b0: 6c52 22be 90b9 6b3e a36f 99be 800f 153e
000000c0: ee53 d6be 571a 42be ddcd 173d e2ca 99be
000000d0: 011e 0f3f 12e7 c33c ae3f e53e 445d 6c3e
000000e0: 15a6 46bd 5ade 05be 260e 94be 13f6 f0bd
000000f0: 10ce f7bd 52e2 b83e 71ae 103f 0c9f 523e
00000100: 34b8 07be db3b 263d 1a77 29be 2512 48be
00000110: 9c8a 143e bc23 0c3d 5a76 9cbe ffe6 f2bd
00000120: d849 8c3e 0fcb 693e fd69 453e 53d0 ffbe
00000130: 31d5 1abe f7bc 88be afad 22be 0d58 8ebe
00000140: d79b e1be d63c b7be 3165 4fbe be97 28bd
00000150: 5a82 b03e 8300 9cbd f3df 2e3e 1894 a4be
00000160: df9c dbbe 6588 45bc de46 04be 84b3 b03e
00000170: f7de b33d 5762 08bd 951b b93e 0f90 4fbe
00000180: 5742 dd3e 20f2 713e bd42 babe 5338 3d3d
00000190: 4a62 ba3c c890 913d 820a d13d 8d71 dd3d
000001a0: 61c6 d03e cfef 8cbe c1a1 5bbe a11f 503e
000001b0: f46a 60bd 1b97 edbe 40b0 66be 2b21 bebd
000001c0: de0c bdbc 0a76 54be f4ba e5bd 994d c53e
000001d0: f6b0 cdbe 9f8f a23e 8a91 96be 45a1 e13d
000001e0: 5211 483e 2980 ea3e fc40 133f d522 d63d
000001f0: 400e 163c a9f7 953e e8d2 823e e73f b8bd
00000200: 3740 983e 6cfe e03d 3d24 573e 4d59 793e
00000210: 6797 3a3e 5f98 723e 7a2f b13e cbcc ffbd
00000220: 6279 73be c0c5 20bd 1cae dd3c 45b1 783e
00000230: e508 adbe bcec 04bf 6e9d 363d 7ef7 443d
00000240: b8d6 b83e 3584 b43e 32f8 c83e e5f7 eebd
00000250: dc13 a73e 5b66 883d 08d5 c3bd 40e3 93bd
00000260: 227d a53e 859f 5d3e c4d7 adbe fe0e bcbe
00000270: ade8 59bd 01ff 8c3e f95f e93e cfa0 043e
00000280: b022 873e bf6a bf3c e61d bcbe f9d0 523e
00000290: a450 00bf 3970 19be acf6 6c3d 2cc0 ad3d
000002a0: 326d 3bbd 572d 77bd bbd9 02bd f678 963e
000002b0: 7cad 2abf 084b 81be 6f20 21be 1163 9c3e
000002c0: 174c 583e 73a2 6f3e 397b ed3c 8877 f5bd
000002d0: e63a 97be 7983 16bd cd74 b6be b096 07be
000002e0: 66c7 a5be 9dba 953e 23d6 333e aba6 38bd
000002f0: d523 d43d 0dd7 64be eaf8 a73e eb9c 88bd
00000300: 7d14 433e 9b7d cabd d3e1 abbd f706 3abe
00000310: 610e 2dbe fd01 e93a d365 c4be 8047 583d
00000320: cee2 d6bd 9c01 bcbe ab63 10bd 07aa 9bbe
00000330: 931e 8c3e 0202 0a3f d3f9 e73e e20c 3b3d
00000340: 536d d13e 017e 823e 26de 18bd d4e0 ee3d
00000350: 1081 95bd 1b9d c4be 2678 203d 535d de3d
00000360: 24f9 61be 3417 843e dcbb 7a3e 5ec3 2c3d
00000370: fb2a 95be 4b76 d2bc a3ed 11bf efc9 28be
00000380: 23a3 fabd b80d 9ebe cee9 9839 1706 bb3d
00000390: 364a dcbd 8a8a 96be e3ef 653e 5f29 fa3d
000003a0: 0682 b43e c6ff d6bd e0b0 c0be 0dfb 9a3e
000003b0: 8798 7ebe 8ba2 553e 3674 ae3c 0982 b63e
000003c0: 3af5 d73d 863d ae3e b503 f63e efee 203e
000003d0: ba3f 7fbe 9382 7f3e 5026 cebe 1497 33be
000003e0: b93d 2b3e ed09 163f 5556 603c bab2 8c3e
000003f0: 86c6 af3e ac28 0b3e f2e1 b5be 4137 a8be
0.18874705 -0.053151097 0.120695665 0.35128573 0.2258716 -0.19781083 0.009902822 0.103460744
0.22152118 -0.22050036 -0.2876975 -0.069135055 -0.12840444 0.10964993 -0.20815222 -0.50362027
0.027310524 -0.23884423 0.08292792 -0.0950093 -0.27214858 0.20558172 -0.086843856 0.06372785
0.13885112 -0.30297247 -0.21079397 0.16967194 0.29505068 0.22885962 -0.26336047 -0.0977652
-0.100328945 -0.4164785 -0.20245735 -0.266414 -0.018126655 0.06542752 0.13330616 0.13568246
0.27623373 0.39542213 0.17132112 -0.10596107 -0.15851754 0.23020005 -0.29967985 0.14556694
-0.41860908 -0.1895536 0.03706156 -0.300376 0.5590516 0.023913894 0.44775146 0.23082453
-0.048498232 -0.13073102 -0.28917044 -0.11765685 -0.1209985 0.3611017 0.56516176 0.20568484
-0.13253862 0.040584426 -0.1654934 -0.19538172 0.14506 0.034213766 -0.30559045 -0.11860465
0.27400088 0.22831367 0.19278713 -0.49963626 -0.15120389 -0.2670667 -0.15886568 -0.27801552
-0.4406421 -0.35788602 -0.20253445 -0.041160338 0.3447445 -0.07617285 0.17077617 -0.32144237
-0.4289312 -0.012056445 -0.12917659 0.3451196 0.087827615 -0.03329691 0.36153856 -0.20269798
0.43214676 0.2362752 -0.36379042 0.046196293 0.022751946 0.07107693 0.10207082 0.10812674
0.4077635 -0.2752671 -0.21448423 0.20324565 -0.0547895 -0.46404347 -0.22528172 -0.0928367
-0.023077425 -0.20748153 -0.11217299 0.38535765 -0.40174073 0.317502 -0.29407912 0.11017088
0.19537857 0.45800903 0.57521033 0.104558624 0.009158671 0.29290512 0.25551534 -0.089965634
0.29736492 0.10986027 0.21009918 0.24350472 0.18221818 0.23690937 0.34606534 -0.12490233
-0.23776773 -0.03925109 0.02706056 0.24286373 -0.33795848 -0.5192373 0.04458373 0.04808759
0.36101317 0.35257116 0.39251858 -0.11668376 0.3263234 0.06660148 -0.09562117 -0.07221079
0.3232203 0.21642883 -0.3395368 -0.36730188 -0.053200413 0.27538303 0.45581034 0.12951969
0.26393652 0.02336633 -0.3674156 0.20587529 -0.5012305 -0.14984216 0.057852432 0.084839195
-0.045758434 -0.060345974 -0.031945925 0.2938916 -0.66670966 -0.25252557 -0.15735029 0.30544332
0.21122776 0.23401813 0.028989421 -0.119856894 -0.29537123 -0.036746476 -0.35635987 -0.13241076
-0.3237869 0.29243937 0.17562155 -0.045080822 0.10358397 -0.2234766 0.32807094 -0.06670555
0.19050784 -0.098872386 -0.08392682 -0.1816672 -0.16900016 0.0017777082 -0.38358936 0.052802563
-0.10492478 -0.36719978 -0.0352513 -0.30403158 0.27367076 0.53909314 0.45307788 0.045666583
0.4090372 0.25486758 -0.037321232 0.11663976 -0.07300007 -0.38401112 0.039177082 0.10857644
-0.22067696 0.25798953 0.24485725 0.042178504 -0.29134354 -0.025691172 -0.5700323 -0.16483282
-0.12238147 -0.30869842 0.00029165897 0.09132021 -0.10756342 -0.29402572 0.22454791 0.12214922
0.3525545 -0.10498004 -0.37634945 0.30269662 -0.24862872 0.20862786 0.021295648 0.35646084
0.1054482 0.34031314 0.48049703 0.15716146 -0.24926654 0.24952154 -0.40263605 -0.175381
0.16722764 0.58608896 0.013692458 0.27480108 0.3433115 0.13589734 -0.35523945 -0.32854655

pos_net.linears.0.bias f4 [30]
00000000: 3c23 983e 651f 483e 3a2d 87be 9693 8f3e
00000010: bde7 8d3d 88bb d8bd 9751 73bd 4f62 b13e
00000020: 8974 d03e 3119 18be 06c7 553e 8ac0 16be
00000030: ac76 f13d cfcc 5fbe c884 c13e f6a8 213e
00000040: ce83 473e a11f 623d 8675 4cbe 1ac1 d9bd
00000050: 01c6 cdbc 60b8 613e fc99 2c3e 3818 ca3c
00000060: 6f04 993e 95ed 963e a398 c53c 5c1a ab3c
00000070: 7b45 333e dde3 8e3e
0.29714382 0.19543226 -0.26401693 0.28042287 0.06928966 -0.10582644 -0.059403982 0.34645316
0.4071391 -0.1485336 0.20876703 -0.14721885 0.11790213 -0.21855472 0.37796617 0.1578711
0.19483873 0.055205945 -0.19966707 -0.10632534 -0.02511883 0.2204299 0.16855615 0.024669752
0.29886195 0.29478136 0.024120634 0.020886593 0.17506973 0.2790822

pos_net.linears.1.weight f4 [30, 30]
00000000: 8206 1d3e 92da 62be b5d6 353d ab4b 1a3e
00000010: dded e83c 278a 18bd 8373 083e 3cef 3e3e
00000020: 66bb b6bd 6135 923d 9132 313e 3af2 9e3e
00000030: 4772 1d3e fef9 8e3d eced 903e 48ff a3bd
00000040: 6244 b73d f85d 2e3e 359a 403d a01e 86bd
00000050: dcac 1e3c 2125 77bd d7e2 b43e 904b 973d
00000060: 3b40 cbbd 02a9 15be 6cda 49be 6340 4b3e
00000070: 43d1 8bbd 9df4 823e d882 bd3d acd9 30be
00000080: a808 91bd 253d b7bc c65c 92be f4a6 463e
00000090: 7dbe 1fbd 34d1 323e 8e56 31bd d8cd 4a3e
000000a0: dc03 0f3e 411b d93d 6a64 6d3e 21e2 0fbf
000000b0: 1481 6b3e cfdb 3abe 71f1 303e eff8 893c
000000c0: b52a cebd 4205 243e e361 e9be ea3e 77bd
000000d0: 9a3d 813e 7358 f03d ec5a f73d 1a1d 3ebd
000000e0: ec95 183d 5af5 01bf e544 38be 4475 90bc
000000f0: a296 103e ff2a efbe 458a 623e 6834 ac3e
00000100: 6660 76bd 1372 8e3e 0fff 55bd 5e01 c3be
00000110: 4089 0f3d e50d 84be a533 1ebe 1158 0c3e
00000120: c02b bf3d 99c6 a43e 3ae1 ecbe dc8c 85bd
00000130: b9b6 66be 44a5 7c3e ad48 18bd 3c7c 103e
00000140: e025 d9bd ea3e 45bd 0f67 8c3d eed3 e93d
00000150: 7c61 3ebd 9809 58be 5933 babe 58d4 9dbd
00000160: bec6 74be 0c25 7dbe 7cfa 253c 705e 3f3e
00000170: 19e9 f63d 7cf2 8dbd a572 843e 55ec 4fbe
00000180: 1699 22bd 04dc feba 7c9d ba3d 32f5 68bd
00000190: 9f49 8fbc 9952 083d 62dc 443e a746 08be
000001a0: 0633 77be d9d3 913c 51eb ad3d f617 3b3d
000001b0: 36b6 7fbd c56f 463e ea2c d5be 7cce 103e
000001c0: a735 a73b 746a 703e 00e0 c43e 3c28 5bbe
000001d0: 9366 b83e 502b 1cbe 6dcd 3a3e ab7c 52be
000001e0: 3654 adbd 6252 243e 61cf 71be 6eb2 92bc
000001f0: 0915 cd3c bbf4 20bf dcb6 debd 05a1 6c3e
00000200: c3a1 473e 8d19 cb3d f45a 80bd 9103 093e
00000210: 580e e7bc 8cf1 0ebb 373f d73d 81df 233e
00000220: 6b3b fcbb 37c4 4ebe d5f6 d4bc 8a47 023c
00000230: b214 0bbf 0340 a33e 7a84 b7bd 31be 483e
00000240: 7199 ad3d 7cc6 b9b9 8f36 613e 5a0f d7bb
00000250: 1117 ad3e eecc dbbd 6940 d9bc d336 ce3e
00000260: 7476 0fbe 4f92 353d 608f 843e a8ab 3abd
00000270: eef3 1f3e b3f8 8a3d 3a03 23be 5b26 a83e
00000280: c315 a3be 6ac1 85be 49c6 2fbe 0304 edbd
00000290: 334e b23c 19bd 843d 9f9a dcbd 249d b639
000002a0: 2233 74be f8ed 443a e8b3 6b3d 59a7 9a3d
000002b0: 66aa 63be df00 593e 0499 123d 96f9 72be
000002c0: 0050 5dbe f8f8 3ebd 940d 9cbd e81c 23bd
000002d0: ec56 29be 6d86 313e e86b d8bd 357f 93be
000002e0: 0737 d0bd cd57 cabd da29 33be c62c da3d
000002f0: d79a 063e 0415 e33d bbef 1b3e 0e54 36bc
00000300: 569f 0cbd cac2 b0be e1e8 8e3e 7957 a3bd
00000310: c860 87bc fa66 6cbe e0d1 723e b0ed 093c
00000320: f746 0dbe e265 583e 5002 4c3e e44e 9f3e
00000330: 6c82 6b3c 4558 3fbe 5a1c 20bc c90c d9bb
00000340: e026 a3bc 7e50 323e 9fa5 b6bb 5e47 c03d
00000350: 7526 bebd 85a1 55bd 5420 993d da7a a5be
00000360: fcf5 b53d 7c15 eabc 1923 403e f23a cd3d
00000370: 59b8 8c3d 4d8e 243e d9eb 813e 1bb8 74be
00000380: 462a bbbc 125e f7bb a4de 9f3e 2b1c 6bbd
00000390: 335e 8cbd 35c8 9d3d 7f89 e3be 14de 5f3e
000003a0: 79b1 7cbe 200f a03e 35b9 ac3e 82f6 8bbc
000003b0: 8db6 143e 75ee d9bc b2d3 283e dcc2 b6be
000003c0: 03a1 d03d 73d6 5b3d 5675 9e3e bd1a 123e
000003d0: ea78 883d 6e07 5ebd f32c f9bc 0528 49be
000003e0: 007a ca3d 9eda 323e a4fb f53d faa7 923d
000003f0: ed37 8b3e f2c1 9b3e b438 ddbd 932f 2cbe
0.15334514 -0.2215369 0.044394214 0.15067928 0.028433735 -0.037241127 0.13325314 0.18645948
-0.08922462 0.071390875 0.17304446 0.3104418 0.15375625 0.06981276 0.2830652 -0.080076754
0.0894859 0.17028034 0.047022063 -0.0654881 0.009684768 -0.060338143 0.35329315 0.07387459
-0.0992436 -0.14615253 -0.19712228 0.1984878 -0.06827023 0.2557725 0.09253472 -0.17270535
-0.07081729 -0.022368023 -0.28586406 0.19399625 -0.039000023 0.17462617 -0.043295436 0.19805086
0.13966316 0.106009014 0.23182836 -0.5620442 0.22998458 -0.18247913 0.17279603 0.016842334
-0.100667395 0.1601763 -0.45582494 -0.060362734 0.2524231 0.1173562 0.12077889 -0.046414472
0.03725235 -0.50765 -0.17995031 -0.017634042 0.14119962 -0.4671249 0.22123058 0.33633733
-0.060150526 0.27821407 -0.052245196 -0.3808698 0.035043 -0.2579185 -0.15449388 0.1370547
0.093345165 0.32182768 -0.46265584 -0.065210074 -0.2253064 0.24672419 -0.037178684 0.14109892
-0.10602927 -0.048155703 0.06855594 0.114173755 -0.046479687 -0.2109741 -0.363673 -0.07706517
-0.23903939 -0.24721164 0.010130521 0.18688369 0.120561786 -0.06931016 0.25868717 -0.20304997
-0.039696775 -0.0019444232 0.09112069 -0.05687446 -0.01749116 0.033281896 0.19224694 -0.13308202
-0.24140558 0.017801212 0.08492149 0.045677148 -0.06242963 0.19378574 -0.4163583 0.14141268
0.0051028314 0.23478109 0.38452148 -0.21402067 0.36015758 -0.15250897 0.18242426 -0.2055537
-0.084633276 0.16047052 -0.23614265 -0.017907348 0.025034444 -0.6287343 -0.108747214 0.23108299
0.19495301 0.09916983 -0.06267348 0.13380267 -0.028205082 -0.0021811454 0.10510104 0.16003229
-0.007697513 -0.20192038 -0.025996605 0.007951627 -0.54328454 0.31884775 -0.08960815 0.19603802
0.08476532 -0.00035433832 0.21993469 -0.0065631093 0.3380666 -0.107324466 -0.026519971 0.40276203
-0.1401003 0.044328984 0.25890636 -0.04557386 0.15620396 0.06785717 -0.159192 0.32841763
-0.3185254 -0.26124126 -0.17165484 -0.11573031 0.021765804 0.0648138 -0.10771679 0.00034830824
-0.2384763 0.0007512267 0.05754462 0.0755145 -0.2223297 0.21191739 0.03579046 -0.23728022
-0.21612549 -0.046624154 -0.07619777 -0.03982249 -0.16537064 0.17336436 -0.105674565 -0.2880799
-0.10166746 -0.09880028 -0.17496434 0.10653071 0.13145004 0.11087993 0.15228169 -0.011128439
-0.034331642 -0.34523612 0.27912048 -0.079756685 -0.016525641 -0.23086157 0.23712873 0.0084184855
-0.13796602 0.21132615 0.19922757 0.31114876 0.014374357 -0.18686016 -0.009772385 -0.0066238386
-0.019915998 0.17413518 -0.005573943 0.09388612 -0.09284679 -0.05215599 0.07476869 -0.3232029
0.088848084 -0.028574698 0.18763389 0.100210086 0.06871099 0.16069908 0.2537525 -0.23898356
-0.022847306 -0.007549056 0.3122455 -0.05739991 -0.068539046 0.07704202 -0.4444084 0.2186206
-0.24677075 0.3126154 0.33735052 -0.017085318 0.14522763 -0.026602963 0.16487005 -0.3569554
0.101869605 0.05367131 0.30948895 0.14268012 0.066636875 -0.054206304 -0.030416941 -0.19644172
0.09886551 0.17466208 0.12010887 0.07160945 0.27191105 0.30421406 -0.10801831 -0.16815023

pos_net.linears.1.bias f4 [30]
00000000: d49a ec3d 3efb 1bbe 6b17 43bc 69c0 3cbc
00000010: 712d 983d 778f 063e 3a6d 843e 24d1 b4bb
00000020: f020 5e3e e2d8 713e 67da 5fbd f750 e3bd
00000030: 2816 86bb c7a1 d13d 92d7 853b 3f58 7d3d
00000040: 1b03 41be 89d7 523e 2e76 873d 1015 303e
00000050: e6b7 b8bd e717 ef3c 3f8a 0b3e d7d2 853d
00000060: 3050 b53d 37c3 353e d21e 30bd 26ed c0bd
00000070: 9fe2 3f3d ae42 833e
0.115529686 -0.1523256 -0.011907439 -0.0115204835 0.07430542 0.13140665 0.25864583 -0.0055180956
0.21692252 0.2361789 -0.054651644 -0.11099427 -0.0040919967 0.10235935 0.004084536 0.061851736
-0.18848841 0.20590033 0.06614338 0.17195535 -0.09019451 0.029186202 0.13626955 0.06534355
0.08853185 0.1775025 -0.042998143 -0.094202325 0.046846982 0.2563681

pos_net.linears.2.weight f4 [30, 30]
00000000: 0308 65bc 61ee 2ebe c75b f33d 66a0 773d
00000010: 6dd4 48bb 84c8 a33c 082a 09be 2dbf 033d
00000020: 497b 963e f036 9e3b 2494 ba3c f5c4 803d
00000030: 3c3d 74be 9f8b 933e dcb7 7b3d 65d5 593d
00000040: 18db 923d cb9e bb3c 0935 36be 2807 1f3e
00000050: f7fd 9f3d e4d7 d2bd 6692 6b3e d7de bbbd
00000060: 38ec 12be 5fa2 46bd d738 61be bf59 163d
00000070: 537a 8dbe 036a 063d 8370 3f3d b115 b03d
00000080: 07fa 153e c8d2 4fbe 1d48 90bd f7d2 aebd
00000090: 06fc 183e 7d89 48be 49a6 2f3d 02db 0e3d
000000a0: 3505 3dba c9ba 98bd 1f9d c23d c117 0bbe
000000b0: f301 2bbd 214d c9bd b202 99bd f60e 86bd
000000c0: f46e d3bd 9400 45bd 6ea5 a9bc 381b 09be
000000d0: 76f0 a1bd 237e 833d 33b1 cfbc 7fa6 debd
000000e0: b7c1 1dbd 0183 e739 561f 4bbc d6ca 9cbc
000000f0: 9ed6 483d 0957 0e3e 1a88 a83e 27b9 8e3e
00000100: 7e13 7c3d 813b c43e 5aa4 023d 4dac 6c3e
00000110: 5d1b 64bc 4216 23bd df5c c1ba 2a87 6abd
00000120: f37c 9c3d 9743 b7bd 2f4e bf3d 8859 683d
00000130: 9881 e63e 0cf2 463d 61cd 913e fcf6 3e3e
00000140: 8915 9dbd 7d4f 373e 171f e53d b636 0fbe
00000150: a5c0 a03e b3ec 063e daff 013d 80e5 1e3d
00000160: 6e29 d63d c0ee d23c 387a 803e d7d1 3cbd
00000170: 5694 75bd 02ae 6a3b 79ba 273c 2fae 613d
00000180: b83c 983e 3906 dd3a 1ce9 04be f195 203e
00000190: 788a 00bd 6ba4 a73d c8e5 213e 9ba5 22be
000001a0: c718 ab3d 1a46 2f3d 4725 263e 0643 253e
000001b0: 7219 88bd ac8e fbbd 53ea 8d3e 5628 823e
000001c0: 4417 67be 43b6 823e 746d bc3d 4353 873d
000001d0: 18eb 813d 1f1b 7cbc 73a0 9b3e d845 323e
000001e0: efa1 893d ef1e 76be 2321 82be 0e3f 12be
000001f0: d252 33be a9cc a23e 39fc 6bbe 1505 c2bd
00000200: 677a 23bd 9757 273e 9da7 b43b 3a49 86bd
00000210: 32e1 76bd 9712 aa3d 7db6 d53e 90e4 01be
00000220: df11 193f 2110 ce3e 5e50 223d dc89 a9bc
00000230: 821a 723d cd15 52be 0de9 8f3e 09d0 d4be
00000240: ccb8 10be 4311 27be 96f0 4abe d8ad d8bc
00000250: 3019 edbb 48fb e3be 3410 0e3e 3c1f f83d
00000260: 34aa db39 6966 5d3e da88 b93d 258b f63d
00000270: 64f4 903e 69c6 863d 134f 98bd 730e 7f3c
00000280: eec4 20ba 66c7 ecbd be35 b03c 1d09 93bb
00000290: e59e 713e f963 783e f20e cb3d 6633 fe3d
000002a0: b9eb 8d3e 8d3e 1e3e 8dfe 83bc 2e17 bb3d
000002b0: a35b 93bd 5dcd e03c b338 513e d368 ff3d
000002c0: b827 803e a70b 94bd c051 6b3d df69 793e
000002d0: b4bc 5b3e e937 083d 8b94 15bd a888 3bbe
000002e0: ebbe 20be 734b cfbd bd70 3b3e c4ce b7bd
000002f0: d89c 4d3e 5c97 0d3e 96d0 56ba b9a6 133e
00000300: f419 d53c 4c8f 1abe 71d6 d8bd 9eec 29be
00000310: 6642 293e 5642 88be 9323 85be 68b9 14be
00000320: 8133 373e 58df 00be 29ce 4a3e e43f 643e
00000330: 56b7 9dbd 2bb6 b0bd 8d75 9cbd d31f 9f3c
00000340: f4a0 173e 9ab7 bd3c 43bc cebd 2f0d 213e
00000350: a9fd a6bd 34c9 b33d a6bd 923e 450a b9be
00000360: bc13 213e 95b0 023e e014 6f3d 745b 2e3e
00000370: 63e9 893b 9332 dabd 47ca 99be b1c8 ca3e
00000380: 6983 52be 0cfd a23e a5ba 4dbe 9152 38bd
00000390: 52d9 4b3e 5f36 b33e 3ace 8ebe ad8a 8ebd
000003a0: 2be4 493e b19a f73d dec0 67be 1695 b13e
000003b0: 7919 163e 5d03 003d 5458 97be 2cdd 80bc
000003c0: ec3f 0e3e e853 36be 0636 94be c8d5 403e
000003d0: 5847 89be 12bf 5dbb 5288 d1be 0caa 9e3d
000003e0: 7d6e 5dbe 3f2f 02bf 42cb d5bb c0fb 8a3e
000003f0: e07c 65bd 5f11 a3be abe3 61be c8bc 803e
-0.013978961 -0.17083122 0.118827395 0.060455702 -0.0030644194 0.019993074 -0.1339494 0.03216474
0.29390934 0.0048283264 0.022775717 0.062875666 -0.23851484 0.2881746 0.06145464 0.053182025
0.07170695 0.022902867 -0.17793669 0.15530074 0.07812112 -0.10295084 0.23005065 -0.09173363
-0.14347923 -0.048494693 -0.21994339 0.036706682 -0.27632388 0.032815944 0.04673816 0.08597887
0.14646159 -0.2029525 -0.070450045 -0.08536332 0.1493989 -0.19583698 0.04288319 0.03487683
-0.0007210554 -0.074575014 0.09502625 -0.1358328 -0.041749906 -0.09829164 -0.07471217 -0.06545822
-0.10323897 -0.048096254 -0.020708766 -0.1338929 -0.079071924 0.06420543 -0.02535305 -0.108716
-0.03851482 0.0004415736 -0.012397608 -0.019139688 0.0490328 0.13900389 0.32916337 0.27875635
0.061542027 0.38326648 0.03189502 0.23112603 -0.01392254 -0.03981615 -0.0014752409 -0.05725781
0.0764102 -0.089484386 0.09341084 0.05672601 0.45020747 0.048570678 0.28477004 0.18648905
-0.07670123 0.17901416 0.111875705 -0.13985714 0.31396976 0.13176231 0.03173814 0.038793087
0.10457121 0.02574861 0.25093246 -0.046098556 -0.059955917 0.0035809283 0.01023733 0.055097755
0.29733825 0.0016862816 -0.12979549 0.15682198 -0.031382054 0.08185657 0.15810311 -0.15883486
0.08354335 0.042791463 0.16225158 0.16138849 -0.06645478 -0.12283072 0.27717838 0.254214
-0.22567469 0.2552968 0.09200564 0.06607678 0.06343669 -0.015387326 0.3039585 0.17409456
0.067203395 -0.24035238 -0.25415906 -0.14281866 -0.17512062 0.31796768 -0.23045434 -0.094736256
-0.039911654 0.16342007 0.005513145 -0.065569356 -0.060273357 0.08304327 0.4174079 -0.12684846
0.59792894 0.4024668 0.039627425 -0.02069562 0.05910731 -0.20516129 0.2810749 -0.41564968
-0.14132994 -0.16315179 -0.19818339 -0.026450083 -0.0072356686 -0.4452765 0.13873369 0.121153325
0.00041897746 0.21621098 0.090593055 0.120382585 0.28311455 0.065808125 -0.07436957 0.01556741
-0.00061328604 -0.1156147 0.021510001 -0.0044871704 0.2359577 0.24256887 0.0991496 0.12412147
0.27718905 0.15453549 -0.01611259 0.091352805 -0.07195213 0.027441675 0.20431785 0.124711655
0.25030303 -0.07228785 0.05745101 0.24356793 0.21458703 0.033256445 -0.036518615 -0.18313849
-0.1569783 -0.10121813 0.18304725 -0.08974984 0.20079362 0.1382727 -0.0008194534 0.14419068
0.026013352 -0.15093726 -0.105877765 -0.16594169 0.16529235 -0.2661311 -0.26003703 -0.14523852
0.17890741 -0.12585199 0.19805206 0.22289997 -0.07700984 -0.08628496 -0.076396085 0.019424355
0.14807492 0.023158837 -0.10094502 0.15727685 -0.081538506 0.08778611 0.28660315 -0.36140648
0.15730184 0.12762673 0.058369517 0.17027074 0.00420873 -0.106541775 -0.30037138 0.3960624
-0.20557941 0.31833684 -0.2009073 -0.045000616 0.1990712 0.3500242 -0.27891713 -0.06960044
0.19715945 0.12090052 -0.22632167 0.34684056 0.14658155 0.031253207 -0.29559577 -0.015730463
0.13891572 -0.17805445 -0.28947467 0.18831551 -0.26812243 -0.003383581 -0.40924317 0.077472776
-0.21624179 -0.5085334 -0.0065244744 0.27145195 -0.056027293 -0.3184919 -0.22059505 0.2514403

pos_net.linears.2.bias f4 [30]
00000000: a16c 013e 133a 87bc dabb b93d 0564 123e
00000010: 10b1 ed3d 8112 953d 126b 193e 8c8e 6d3e
00000020: 5bf5 44bd 3a26 4ebe 991a 06bd 6191 193e
00000030: c73e 35be 86d5 663e 9659 4abd 458f 113e
00000040: a258 e93d 2c9b 87bd 4fa9 37bd 476a fa3d
00000050: b61e 513e ca60 afbd dfea 483e 993e 193e
00000060: 973f ef3d 8047 42bd 62fd 543e d206 0ebd
00000070: e50b 683e 04c2 193d
0.12639095 -0.016507184 0.09069033 0.14295967 0.116060376 0.0727892 0.1498225 0.23198909
-0.04808555 -0.2013177 -0.03274021 0.14996864 -0.17699729 0.2254239 -0.049401842 0.14214809
0.113938585 -0.066213936 -0.0448392 0.12227302 0.20421872 -0.08563383 0.19620846 0.14965285
0.11682051 -0.04743147 0.20799783 -0.034674473 0.22660787 0.037538543

pos_net.output_layer.weight f4 [6, 30]
00000000: 2eaf e33a a6e3 b33c 792c 813d d204 09be
00000010: 6cc4 4dbf f0d0 06bd a66d 5fbd f126 a73e
00000020: c239 e9be a45a bd3d b04b 22be e69b 63be
00000030: 719c be3e e4ba 793e 34bd 47ba 8e14 583e
00000040: d189 91be a569 0c3e c182 3c3a 36c2 a83d
00000050: 21b4 283d d1ba f1bd a0ba 8cbe 6f20 ce3d
00000060: 84bd c0be 98b4 28bd b3d4 503e d164 a9bb
00000070: 0e34 843c 305c a3be bc9f 2c3e d5d9 bd3d
00000080: ee17 423e 3fee 44be 9678 c43d f8e8 e83c
00000090: bb7e f2bd 6cea 793c 05b3 acbd 4d24 27bd
000000a0: cb45 e53c 2656 02bd bc41 09bd a295 0ebe
000000b0: b86d 85b9 9dc0 6dbe 6f6e 6dbe aa7c 6d3e
000000c0: d5c2 bd39 76ac 23bd b7ae b83c ed7b e83d
000000d0: 68d3 e4bc 5596 79be 9cfe e93d 9b78 34be
000000e0: d8a5 5a3e 6a47 b8bb 7d63 5cba 0c48 db3d
000000f0: f525 0b3e f417 8b3d 0cd1 683e 9862 dbbd
00000100: 0613 babc 7c96 f23d cbee 74be d1f5 0c3c
00000110: 378e 98bc e64e d0bc 923f 773c f28b 1ebe
00000120: fd9e 793d 41ae 7bbe c0e9 c5ba bd43 83be
00000130: 4eed eb3b a533 803e 4cc2 b0b9 f11b 14bd
00000140: 2473 293e a964 803d 0608 c0bd 0b0f 41bd
00000150: d2d3 623c 5ca7 18be 797b c8bc d23f 42bb
00000160: 1504 1d3e 8698 ef3d 7f58 8bbe a201 52bc
00000170: a3df 8b3e 6e4f 713e 7ec8 063e 48fa 8a3e
00000180: e030 19be 0fe6 1abe 2eed 563e e213 9dbc
00000190: ad11 d2bc 8bbc 27be a190 4b3e 9342 e1bd
000001a0: 5338 a639 e521 ff3d e238 a8bd eded 03be
000001b0: b4ad 23ba 0665 39be f193 6bbe cf42 2fbd
000001c0: 7028 1fbe 4d4b 82bd 32f7 9b3d 8b84 a1be
000001d0: 6972 e6bc 57bf 303d b906 9ebd 40a9 103e
000001e0: 9e65 3a3e a5f2 b9bd 7ff9 b43d 0618 bfbd
000001f0: d1ed 343d a709 45be 388b 7a3d 6fdf cebd
00000200: 1400 503e ae97 dd3c 2a99 cf3c 9264 c13d
00000210: 126e 543e 0fd2 99bd 8fd6 b639 989e 903c
00000220: 9757 223e 8c85 c6bd f179 f2b9 42e7 fcbd
00000230: 8cc9 013e da25 433c e404 54be 00ca 0e3e
00000240: f2dd d0bd 92f4 e0bd 3fbe 4d3e aed1 8fbc
00000250: e6d8 bf3d cef9 d139 9c25 a6bc 94ba 343e
00000260: 4ede 213d 8a6b 553e 98b6 983e e9de 58bd
00000270: 9c3d 683e 992f 47be ad8f 643d 0c2e d83a
00000280: cc61 41be ad46 703e a6d5 0cbd bcfd 883d
00000290: f62b 6dba f518 b13d 84dd 73bd 3c6e cf3d
000002a0: 0203 0c3a d2f3 973e 83ad 1bbe 96cc 1c3e
000002b0: 0a6f 44be 97cc a23d f702 783d 78ce 47be
000002c0: db48 03be eb8d 353d 825c 36be 1092 33bd
0.0017370933 0.021959137 0.063073106 -0.13380745 -0.8037784 -0.032914102 -0.05454793 0.32646897
-0.45551878 0.09245804 -0.15849185 -0.2222744 0.3722873 0.243877 -0.0007619441 0.21101591
-0.28425458 0.13712175 0.0007191115 0.08240168 0.04118741 -0.118032105 -0.27486134 0.1006478
-0.3764459 -0.041187853 0.20393638 -0.005169489 0.016138103 -0.3190627 0.16857809 0.09270064
0.18954441 -0.19231509 0.095933124 0.0284314 -0.11840578 0.015253644 -0.08432583 -0.040806103
0.027987381 -0.03182044 -0.033509955 -0.13924268 -0.00025449484 -0.23218007 -0.23186658 0.23192087
0.0003619405 -0.039959393 0.022544248 0.11351762 -0.027932838 -0.24373753 0.11425516 -0.17624132
0.21352327 -0.0056237476 -0.0008407159 0.10707101 0.13588698 0.06791678 0.22735995 -0.10712165
-0.02271415 0.11845109 -0.23919217 0.008603529 -0.0186225 -0.025428247 0.01509084 -0.15483072
0.06094264 -0.24578191 -0.001509957 -0.25637618 0.00719992 0.25039402 -0.00033714098 -0.03615946
0.16547829 0.062691994 -0.0937653 -0.047133487 0.013844447 -0.14907593 -0.024472939 -0.002964009
0.15333588 0.116990134 -0.27215955 -0.012817772 0.2731906 0.23565456 0.13162419 0.27144074
-0.1496005 -0.15126823 0.20988914 -0.01917452 -0.025643194 -0.16380517 0.1987939 -0.10999026
0.00031703952 0.12457637 -0.082139745 -0.1288373 -0.00062438403 -0.18104944 -0.23005654 -0.042788323
-0.1554277 -0.06362019 0.07615508 -0.31546435 -0.028130727 0.043151226 -0.07716126 0.14127064
0.18202826 -0.09079484 0.0883665 -0.09330754 0.044172112 -0.19241963 0.061167926 -0.1010121
0.2031253 0.027049866 0.025341589 0.094430104 0.20745113 -0.075107686 0.00034873604 0.017653748
0.15853725 -0.09693441 -0.0004624869 -0.123487964 0.1267454 0.01191088 -0.2070499 0.13944244
-0.10198583 -0.10984148 0.20092104 -0.017556038 0.09367542 0.00040049705 -0.020281605 0.17649299
0.039518647 0.20841804 0.29826808 -0.05294696 0.22679752 -0.19451751 0.055801082 0.0016493215
-0.18884963 0.2346446 -0.03438344 0.06689021 -0.0009047383 0.08647338 -0.059537426 0.101284474
0.00053410244 0.29678208 -0.15202908 0.15312418 -0.19182983 0.07949179 0.060549702 -0.19512355
-0.12820761 0.044324797 -0.17808726 -0.043840468

pos_net.output_layer.bias f4 [6]
00000000: 707f 1c3e e328 37bb 5430 25bd 2314 d6bd
00000010: 7fdb 4fbc 1a92 febd
0.15282989 -0.0027947954 -0.040329292 -0.104530595 -0.012686609 -0.124302104

neg_net.linears.0.weight f4 [30, 12]
00000000: 48c5 31bd cf8b bf3e 28e2 f53e 4299 ddbe
00000010: 8b8c 893e 4ffc 6cbe 0ef3 1cbe e9cc 003c
00000020: 2736 34bd eef1 093f 1253 12bd 95cd 113c
00000030: 8ef8 d23d 4c20 67be 73a3 a4be ea7d d1be
00000040: d5ae d0be 3a6f c63d 5446 d6bd 26da 843e
00000050: 3193 92b9 2dea 3a3e 964d 2f3e 68fa cf3d
00000060: 31eb bcbd af92 3b3e e816 54be d121 e13d
00000070: 6296 d73e bbdf 583e ac18 033e 1a1d 823d
00000080: 404f 083d 2066 1d3e 1453 b7be 7a10 f53d
00000090: 0795 2f3e ddcd 16be af97 693e a3a9 9b3e
000000a0: b3e8 60be a74c a63e cd7e 053d 283c 143e
000000b0: 9681 603e d480 a43e 5ae8 a63d 432a 083e
000000c0: 9bad 31be c0d8 843e e7f4 4c3e 9c1b f7bd
000000d0: f25b 04bc 47ae 4dbd eb56 953e 707a 94be
000000e0: 6470 46bd 4f09 a73e 1722 6e3d 699f 23be
000000f0: d36b 3abe 61a0 1ebd 7e90 5a3e 66ec 933e
00000100: 75e7 8cbe 5fae b93c 6ef5 0bbe 47c6 5cbe
00000110: b62e f13b df5b e33e 2798 94be d8d7 263e
00000120: a581 333e 06df a43e f2d7 e23e 5336 513e
00000130: 22c9 55be 44d8 d2bd 8d4c 423d 5036 69be
00000140: f077 4fbd f04f a73e 2269 2cbe 9230 25bd
00000150: 72e5 063e 3598 84be 20bb 80be d532 14bd
00000160: 49e3 d33e 8e92 f9be 4ff9 1dbc 2da9 07be
00000170: 908d fd3a 363b 1a3e 7e2b 87be 5e51 3abe
00000180: d8df 54be d9f0 853e 6d51 933e 07ff 863e
00000190: 96f0 9ebd dd59 243e 6a97 393e 68eb 76be
000001a0: 2ccc 50be bb84 7bbe 38ae 193d f5c4 973c
000001b0: 96d8 313e 037d 993e 7a23 65be 4c2c 063e
000001c0: 0c23 5abd ec41 b63d 1ec9 143c 7270 89be
000001d0: cc3e aa3d 453c 14be acee a03e 718f d03d
000001e0: 16e7 0c3e 1faa 9a3e c335 113e 627b ebbd
000001f0: c7f0 ee3d 73ea c83d 6e3a b83e 6d3e f1bd
00000200: cd76 c9bc ed8d fd3e 2566 9c3d 2832 babc
00000210: 2d17 33be b376 83be 4619 8dbe 1e2c 20bd
00000220: e468 7f3d 03c3 4abe 8f85 a53c 68d3 99bc
00000230: f61c 723e 2425 94be 95e5 a3be fe80 383e
00000240: 4bf5 08be 1a49 4dbd 447b 12be 672e 2f3d
00000250: f613 df3e 1ae2 a5be 07a1 2c3e fa6b 903e
00000260: 3640 873d 09ae afbc 0ba1 8c3c 7d6b 6e3b
00000270: 72e6 42bc 842b 403e 5819 293e f80e fcbe
00000280: f186 06bf b806 0e3f 0a34 6cbd afc2 38be
00000290: 3c85 debd 58cb 1e3e 6d56 62be a90b 433d
000002a0: e15c 343e 2f2b b63e d3bd 553e 9a5b e1bd
000002b0: 51e1 a33d f146 393d 4f99 3f3d 9cc5 c3be
000002c0: 90f8 bd3d d288 3cbe 929d 56be 2ad7 473e
000002d0: 7867 423e 3065 eebe 0fbf 8c3e b4f4 cdbe
000002e0: c68f fc3d 0440 753a fe06 c73d 521a 593d
000002f0: 7080 043f 25c5 923e 6183 1f3e 180f c2bb
00000300: e561 b13d eb83 323e 19cb f63e b114 2e3e
00000310: 955a 9b3e 7c4b 283e 56cc 2cbe 5026 89bd
00000320: 0683 61be 8ea5 84be db4d 71bd 7a61 cfbd
00000330: 8413 d53d 9f17 14be 108e b5be 47a5 b1be
00000340: e55a b63e 37ae 5d3e 7bde 18be 1161 543e
00000350: 07cd a7bd 922d 62bd 74b0 e0be 3245 11bb
00000360: 7780 31bd 9a06 8f3e aa3e c43e 8ad1 ae3e
00000370: 7bb7 b7be f871 eabe 2f7b c73c cb43 6ebe
00000380: 1ff4 5b3c 397d 893d d1c1 2d3e 346e 5fbd
00000390: 655e e5bd 616e 983e 0cc0 c13e 95f3 783e
000003a0: 6511 27be f655 15be 8759 e33d 8035 1c3e
000003b0: d4d7 20be 812a 8cbe 166b 8fbe e4ec 0bbe
000003c0: dde9 da3c cfc8 c93e 0beb b1be f04e edbe
000003d0: 70bb 0dbe 8af6 b9bd 3605 8bbd 0cc1 e3bd
000003e0: 230a aebe 0605 79be 7bf5 f73c 1787 a9bd
000003f0: f317 93be 8fec fabd 3a2a e1bb 93d5 5c3e
-0.043401033 0.37411353 0.48024106 -0.4328099 0.26865038 -0.23143123 -0.15327093 0.007861354
-0.043996956 0.5388478 -0.035723753 0.008899112 0.10301314 -0.22570914 -0.32155952 -0.40916377
-0.40758386 0.096891835 -0.10462633 0.25947684 -0.00027956956 0.18253393 0.1711944 0.10155183
-0.09224547 0.18317674 -0.20711863 0.10992778 0.4210692 0.21179096 0.1280238 0.06353207
0.033278704 0.15370989 -0.3580557 0.11966033 0.17146693 -0.14726968 0.22811769 0.3040286
-0.21963768 0.32480356 0.03259163 0.14476073 0.21924433 0.32129538 0.08149786 0.13297372
-0.17351381 0.25946617 0.20015298 -0.12065813 -0.008078562 -0.050215032 0.29167876 -0.28999662
-0.048447028 0.3262429 0.05813798 -0.15978779 -0.18205194 -0.038727168 0.21344182 0.28891295
-0.27520338 0.022666154 -0.13667843 -0.21560012 0.0073603047 0.4440603 -0.29022333 0.16293275
0.17529924 0.32201403 0.44305378 0.2043088 -0.20877507 -0.10295156 0.047436286 -0.22774625
-0.05065149 0.32678175 -0.1683698 -0.040329523 0.13173464 -0.25897375 -0.25142765 -0.03618129
0.41384342 -0.48744625 -0.009641959 -0.13248129 0.0019344557 0.1506165 -0.2640037 -0.18195102
-0.20788515 0.26160315 0.2877306 0.26366445 -0.07760732 0.16049905 0.18124166 -0.24113238
-0.20390385 -0.24562351 0.037519664 0.018526534 0.17367777 0.2997819 -0.22376814 0.13102835
-0.05325608 0.08899292 0.009081153 -0.268436 0.08312759 -0.14476116 0.31432092 0.10183609
0.13760027 0.30207917 0.14180665 -0.11498143 0.116670184 0.09810343 0.35982078 -0.11779485
-0.024592781 0.49522343 0.0763667 -0.022728994 -0.1748931 -0.25676498 -0.27558345 -0.039104573
0.06235589 -0.19800954 0.020205287 -0.018777564 0.2364386 -0.28934586 -0.32011095 0.18017957
-0.13374822 -0.050118543 -0.14304835 0.042768862 0.43569916 -0.32399064 0.16858302 0.2820738
0.06604044 -0.021445291 0.017166635 0.0036379986 -0.011895763 0.187666 0.16513574 -0.4923017
-0.52549654 0.55479 -0.057666816 -0.18043016 -0.10865256 0.15507257 -0.22103281 0.047618542
0.17613555 0.3557982 0.20873193 -0.110038 0.0800196 0.04523367 0.046777066 -0.382367
0.09275925 -0.18411568 -0.20958546 0.19515672 0.18984783 -0.46561575 0.27489516 -0.40225756
0.1233211 0.00093555474 0.097181305 0.053003617 0.5175848 0.28666034 0.15577461 -0.0059222095
0.0866125 0.17433135 0.48201826 0.1700008 0.30342546 0.16435045 -0.16874823 -0.06696761
-0.22022638 -0.25907558 -0.05891214 -0.10126014 0.10404113 -0.14462136 -0.35459948 -0.3469641
0.35616222 0.21648489 -0.1492862 0.20740153 -0.08193403 -0.05521924 -0.43884623 -0.0022166488
-0.043335404 0.27934724 0.3832906 0.3414424 -0.35882172 -0.45790076 0.02435073 -0.23268048
0.013424902 0.067133375 0.16968466 -0.054548457 -0.11199645 0.29771712 0.37841833 0.24311669
-0.16315229 -0.14583573 0.1110106 0.15254784 -0.15707332 -0.27376178 -0.28011388 -0.13664585
0.026722843 0.39411017 -0.34749636 -0.46349287 -0.13841033 -0.09080227 -0.06788103 -0.11120805
-0.3399211 -0.24318323 0.030268421 -0.082777195 -0.2872921 -0.12252151 -0.006871489 0.21565847

neg_net.linears.0.bias f4 [30]
00000000: f13d ed3d f688 8a3e c4fc 363e 27d2 09be
00000010: 6fcd 76be 3650 1fbb dea8 9abe 4dfc 653c
00000020: c241 af3e c75b bfbd 5e69 fbbd 67b8 153c
00000030: 2040 0d3d 7b8a e4bd 9cd9 183e dbeb 35be
00000040: b5b5 193e 8f7b 1b3e 9eea d13d adce 58bd
00000050: 1dbd 90bd 8bed 92be c132 36be b172 71be
00000060: 3e5b 4bbe e951 5b3d d4c8 233e 3cc6 a3bd
00000070: f424 363c ed63 843c
0.1158408 0.27057618 0.1786986 -0.13459073 -0.24101804 -0.0024309284 -0.3020696 0.014037204
0.34229857 -0.09343677 -0.122759566 0.009138203 0.034484982 -0.111592256 0.14926761 -0.17765753
0.15010722 0.15183853 0.10249828 -0.052931476 -0.070673205 -0.28696856 -0.17792799 -0.23578908
-0.19859025 0.053544912 0.15994579 -0.079967946 0.011117209 0.01616093

neg_net.linears.1.weight f4 [30, 30]
00000000: 30dc 753e 3b29 58bd 90ae 9b3b 080c a53d
00000010: 1c0a 853e 3093 893e 2358 e83d ce0a 1cbd
00000020: 118c bfbd 32f2 753c 547f 343e 03ce 33be
00000030: 18bd a03c 684c 913d 392f f0bc 4c5b c33e
00000040: 4e29 503d 61f2 5ebe 381e 403e 57bf a03c
00000050: b722 f6be 5141 f0bd 056b a33d 796c 723d
00000060: 0455 813e 84be a73d b662 25be d2a3 0dbe
00000070: cc01 82bc 3f5e dd3e e718 b4be 0670 a33e
00000080: 7930 87be 7e14 b83e 7ee8 27be 8502 da3d
00000090: 3ac7 4c3e 9013 acbe 8186 2d3e 9455 213c
000000a0: 824a 8c3d e8fa 76be dd0b 74be 4033 503e
000000b0: a4ba a33d 8e54 74be 5bd8 f7bd 6bae adbd
000000c0: 68a0 79bd 04a1 9cbd 60b7 1cbb 9bfc 9e3e
000000d0: 61b5 be3d ef86 97bd 064a 28be b6a0 40be
000000e0: 76d5 25be ec46 023e 6f3c 193d b560 28be
000000f0: 90bc 9eba 3ee4 0fbc f890 cfbc 19a2 b83c
00000100: 0473 b8bc 0a51 09bd d952 26bb 76c9 4a3a
00000110: e2fb 353c 4345 7a3d e90d 1039 c65b b639
00000120: ed4d c2b9 d401 d4bd aeb0 0ebd 71a5 86ba
00000130: 097a 8cbd c35c 02bb 6659 babd 8ab1 04bc
00000140: 23cb 0cbd 5c94 38bd e544 dfb8 d9d5 303b
00000150: fea0 3cbc 072c 78ba 8cbe f0bd 7b23 093a
00000160: 7fba 77bd ce67 41bb bd02 3abe a3ee c7be
00000170: 7b49 2d3e 09bd ae3d 6f4c edbd 9a02 383e
00000180: 92d4 1cbd 6203 0bbe 5d8e 023e 0f51 8f3d
00000190: 06b0 893d d01d e33d 64ef 83bd f14f 00bf
000001a0: 3fa7 c53d 5399 233e 4261 173e 26cf 8a3d
000001b0: 5a5b 643e 2f49 4c3e 1322 39bc a585 2b3e
000001c0: 69d1 e8bb ac8c b4bd 7dd3 193d a246 763e
000001d0: 6a47 2fbe 74a9 ad3d 148a 39bd 840a 913d
000001e0: 8901 b33e 85b1 b1bd 42a8 393e 8460 7c3d
000001f0: 0473 263e b140 d73d 9434 ee3d 0060 35be
00000200: 1614 923c 58a5 24bd ec1b a23e 238b a13e
00000210: 5b70 e43d e8d0 333e dae8 063e cb0d 0c3e
00000220: 560b 953d a3f4 213e 3c12 183e e93e c6bd
00000230: bdcf 0fbe 978e a9bd a8e9 bc3d f6e7 683e
00000240: 5c77 b43c d986 5d3e 70d2 68be c876 6ebb
00000250: af8f 753e e6fb dd3d 44a3 f73d c319 cebd
00000260: 8e8c 25bd f5c8 dd3d d3dd 423e dbbf 593e
00000270: c070 383e ea40 5a3b a619 a23d 4ff6 a83d
00000280: 1cf7 263e 3c30 2b3e 5e36 a53c cd56 d7bc
00000290: 1f02 ff3d e871 0dbe a9a1 a53d f5f5 7ebe
000002a0: 80ac a83e 89f3 b43d 8763 5dbd 4aa1 ee3d
000002b0: 8e4c 14be fa55 05bd 7964 883e 9e3b 903e
000002c0: 05ce f13d 6687 923d 39d2 66be 0429 4c3e
000002d0: 5c2b bfbc 5f90 82bd 19ed c3bd 3ea7 1ebe
000002e0: 7ec9 2d3d ee6e 0ebe 5f1f 273d 7de2 61be
000002f0: ddd0 0f3e 5dad 2e3d 1711 77be 5bb6 f53c
00000300: b302 60bd e123 713e ef97 a43e cf99 eabd
00000310: c737 fd3c cade 80bc 3e19 afbd f3d7 343e
00000320: a71f f2bd 4188 34bd c562 b3bd 1ff4 063e
00000330: e8a4 cebd e44e 76bc 28e5 973e fde5 063e
00000340: 372c 0f3c c2c1 4ebe 3f9d c4bd 2749 9cbd
00000350: 5550 89bd 4f4b 0cbc f5a9 2ebd 4418 2dbd
00000360: 23c4 6ebd eea5 febc 6aff 17bd 9947 a2bd
00000370: 0eed b7bd 55be 0dbd 5acc 1abd 0be4 bdbc
00000380: da66 33bd e77a 91bc ae13 07bd f17a 9abd
00000390: cd9d f1bd 3758 1cbc e841 acbd a560 b0bb
000003a0: 7efd a5bc b024 b0bb 6d59 23bd 5bd0 e2bc
000003b0: 0476 a8bc e0ef 7fbc 8253 27bd 7d80 fabc
000003c0: 7b25 b53e 795a cdbd be4c 41be 20aa 5bbe
000003d0: 35bf 8cbc f0e9 52be 870d 5c3e 9d38 d43e
000003e0: a4f4 c0ba cd81 4b3d d543 df3b 2fb4 2e3e
000003f0: 6e75 dc3e 84f5 a43d cea6 293e aede 24be
0.24009776 -0.052773695 0.004751034 0.080589354 0.25984275 0.26870108 0.11344936 -0.03809624
-0.093528874 0.015011357 0.17626697 -0.17559056 0.019621417 0.070946515 -0.029319393 0.3815559
0.05082064 -0.21772148 0.18761528 0.019622488 -0.4807336 -0.11731208 0.07979397 0.05918548
0.25260174 0.08190635 -0.16150936 -0.13832024 -0.015869997 0.43235967 -0.3517525 0.31921405
-0.2640417 0.35953134 -0.16397282 0.10645012 0.19997874 -0.33608675 0.1694584 0.009847064
0.06850149 -0.2411915 -0.2383265 0.2033205 0.07994583 -0.2386038 -0.121018134 -0.08480533
-0.06094399 -0.07647899 -0.002391301 0.31052098 0.09311939 -0.073987834 -0.16434488 -0.18811306
-0.1619471 0.12722367 0.03741115 -0.16443141 -0.0012110639 -0.0087824445 -0.025337681 0.022538232
-0.022515781 -0.03352455 -0.002537897 0.00077357085 0.011107417 0.06110121 0.00013738092 0.00034782122
-0.00037060623 -0.10351911 -0.034836464 -0.0010272694 -0.06859214 -0.0019891716 -0.09099083 -0.008098969
-0.034373414 -0.04506336 -0.00010646301 0.0026982932 -0.011512993 -0.000946701 -0.11755094 0.0005231422
-0.06048059 -0.0029511335 -0.18165107 -0.39049253 0.16922562 0.08532149 -0.11586844 0.17969742
-0.03828866 -0.13575509 0.1274962 0.069978826 0.06723027 0.11089671 -0.064421445 -0.5012198
0.0965104 0.15976457 0.14783195 0.06777792 0.22300473 0.19949792 -0.011299628 0.167502
-0.0071050418 -0.088158935 0.037555207 0.24050382 -0.17117086 0.08479586 -0.045297697 0.07082084
0.3496211 -0.08676437 0.18130592 0.061615482 0.16254812 0.10510386 0.11631122 -0.17712402
0.017831843 -0.040196747 0.31661928 0.31551465 0.111542426 0.1756016 0.13174763 0.13677137
0.07277553 0.15815978 0.14850706 -0.09679968 -0.1404409 -0.0827915 0.09224254 0.22744736
0.022029571 0.21633472 -0.22736526 -0.0036386717 0.23980592 0.108390614 0.12091687 -0.100635074
-0.040417247 0.10829345 0.19029932 0.21264593 0.1801176 0.0033302852 0.07915048 0.08250105
0.16305202 0.16717619 0.020167526 -0.026286507 0.124515764 -0.13812983 0.08087475 -0.24898513
0.32944107 0.08835513 -0.054049995 0.11651857 -0.14482328 -0.032552697 0.26639155 0.28170484
0.11806873 0.071547315 -0.22541131 0.19937521 -0.023336105 -0.06375193 -0.09566707 -0.15493485
0.042428486 -0.13909504 0.040801402 -0.22059055 0.14044519 0.0426458 -0.24127613 0.02999418
-0.054690074 0.23548843 0.32147166 -0.11455118 0.030910386 -0.015731234 -0.085497364 0.17660503
-0.118224435 -0.044075254 -0.08759073 0.13179062 -0.10090047 -0.015033457 0.2966702 0.13173671
0.008738569 -0.201911 -0.09600305 -0.0763114 -0.06704775 -0.008562877 -0.042642552 -0.04225947
-0.05829252 -0.03108498 -0.037108816 -0.079238124 -0.089807615 -0.034605343 -0.03779254 -0.023180028
-0.04379926 -0.0177588 -0.032977752 -0.075429805 -0.11797676 -0.009542516 -0.08411008 -0.0053826147
-0.020262476 -0.0053754672 -0.039880205 -0.027687242 -0.020564087 -0.0156211555 -0.040851124 -0.030578846
0.35380158 -0.10027022 -0.18876931 -0.21451616 -0.017181018 -0.20597053 0.21489535 0.41449443
-0.0014721346 0.049684335 0.006813506 0.17060922 0.43058342 0.08054641 0.16567537 -0.1610057

neg_net.linears.1.bias f4 [30]
00000000: 33ba 33bc 034c bd3d 86c0 61be c529 083e
00000010: 18d8 b4bc 9cb1 163e 41b6 55be f435 e0bd
00000020: ca79 9ebd f639 fc3d 7e4e e8bb 1189 a13e
00000030: 0dcb 023e 04ce dc3d a06e c73d a82f 9d3d
00000040: 5d20 4cbc a541 ed3d 4898 773c e7d1 06be
00000050: 10fe 51be 37a3 f93d 638a 36bd 833f 9f3c
00000060: 1c0e ecbd 046b 4dbd 01b0 9d3c dc04 033d
00000070: d87d 813e 6876 613e
-0.010969686 0.09243014 -0.22046098 0.13297184 -0.022075698 0.1471619 -0.20870306 -0.10947791
-0.07738073 0.12315743 -0.007089435 0.31549886 0.1277277 0.10781482 0.09737897 0.07675105
-0.012458888 0.11584786 0.01511199 -0.13166009 -0.20507073 0.12189334 -0.04456557 0.019439464
-0.11526129 -0.050150886 0.019248964 0.031987056 0.25291324 0.22017825

neg_net.linears.2.weight f4 [30, 30]
00000000: ee58 93b8 99f8 7f3d 2be0 2c3a 420c c83a
00000010: ad01 753a 1740 aabc 89bc 633b 3ad3 5d38
00000020: 72b8 233d f8d8 cdbc 92bf bc3c 71ed 9dbd
00000030: 24c1 06be ce37 d3ba 7b21 073d 57eb 0239
00000040: 8a3d 8dbd 0371 1db9 3cc9 bfbc d0c5 433b
00000050: 40c5 67b8 1e1f b03a 3aa6 99bd 9273 5dbc
00000060: d64e 8abc 7072 7f39 64e2 3a3d cb06 8bbd
00000070: 3f6d 94bc 9377 7d3b 6a0b ed38 dd16 a8bc
00000080: fc80 9e39 a79b 17bd 0eaf 9f3a f72b 7e3b
00000090: 8154 19bc 8500 bd39 30ce dd36 06f2 ba39
000000a0: d788 3e3c 8102 403a 7682 52bd 887e 85ba
000000b0: 52ef a4bd 4f20 df39 cde1 9339 fc40 b7b8
000000c0: f77b 1dbd ca57 9e38 1092 8f38 d4b0 2b3c
000000d0: 8cc5 833d c214 66bd 8945 093b 7d6f 1fba
000000e0: bd70 303a d74b 33bd 160d 87bb 4c2d 87b7
000000f0: fbbc 1abe 11ff e4bd 4201 23bb 8f32 853e
00000100: bfc9 b73d 7aba 3f3e 08b8 12be 8c54 96bd
00000110: 2545 94bd 88d6 c23d 35a8 ddbd f4be 87bd
00000120: 6289 99bc 1112 b4bd 8a7a b73d 823a be3b
00000130: 4cec 503b 5efa 9d3d 1b98 a5be 45a0 8bbc
00000140: 49ca 2f3e 3614 7e3e bcfc 883b 3385 ba3d
00000150: a085 eabc ceee 643a b46a 35be 22f4 583e
00000160: aead 403b 7c14 513e 0da2 df3b 443b 4abe
00000170: 6601 453a a6b7 8d3e 762f 743e f6ce 5b3e
00000180: 11e6 4b3d 77f7 a1bc 953a c7bd 8d61 e9bd
00000190: 16d1 1a3e ec2f 80be 2a62 323e 13c6 70be
000001a0: d728 2b3e 25bf a5bc fa75 62be c92a eb3d
000001b0: 1f7b f73d 8bde 253e df28 c13d 1e7d 813e
000001c0: 7814 f5bd 12f6 b4bd e25c 9fbd 8de6 bdb8
000001d0: 3ba9 83be 2ac8 12bd e944 b4bd 71c1 293e
000001e0: d952 2b3e 7550 51be 7299 56bc 5be9 813e
000001f0: 8fa1 053e 4c2f 943e 0d44 0ebe c5da 0b3d
00000200: 18a9 24bd 8bef a73d dfd3 8ebd d222 6c3e
00000210: a4b3 1e3e aa3e c63d 761a 673c 9dcd 01bd
00000220: 1edc 42be bbb2 163e b3e1 8abd 2ca5 23be
00000230: 1ac7 04be 0d20 6c3e 34cb dfbd 48fb 91bd
00000240: 5de5 41be 022f 773a e8ac d23c 64e0 643c
00000250: bfd9 cc3d 33fe 873d 11f1 a2bd 308a 9cbd
00000260: 6705 123b 5bd1 973e 6777 b83d 7893 8bbd
00000270: 827d 453d a1d7 15bc 8224 0fbe 2d36 803e
00000280: 2f63 2fbe 9653 43be d506 883e e8f7 043e
00000290: 4959 9f3e d14f 95bd 4a90 1a3d e7fc a9bd
000002a0: 9638 e73d 76df c93e a878 3dbd 6f84 9e3e
000002b0: 4cc5 4b3e 9f19 1f3e 61d9 403e 9434 4b3a
000002c0: a0f9 843e 99a4 9c3d 608e d43c 965b 8ebd
000002d0: d926 8c3d 6dd7 a03e 2245 e5bb 816d 093e
000002e0: 86ba aa3d 1fdd e53d 523c 543d 9365 4e3d
000002f0: fce9 7e3e 8999 363e f027 e5bd b6e3 b93e
00000300: c926 11bd 5a4d 503e 8b8c 97be 735d 213e
00000310: 7176 233e dcf1 2ebd 9a9f a5bd 0849 15be
00000320: 3dec a33e 2e41 50be 0559 3f3d 0180 073e
00000330: 31fa 5cbe 05bc b8ba f945 4b3e 46bb 5f3e
00000340: 27cd 8b3e 1af7 16be 7257 8dbd 958f f73c
00000350: db87 86ba 6609 8a3c 7f31 c8bd 37c4 8cbe
00000360: 28a8 91bd 5942 19bd b49a 57bd d6ad 40be
00000370: a0d1 92be 0fdd 4bbd b81e c9bd d036 b23e
00000380: 68bf 0d3e c801 35bd 8c25 d13e e4cd d4be
00000390: b64a 3b3e 119c aa3e eb1c b93d 8fd7 3c3d
000003a0: 06bd 033e 1327 723d de21 6abe a0fb 443a
000003b0: 8abb 513d 72bf 7e3e 0a57 0dbd 21c0 04be
000003c0: ef44 a23d 52ba 52be 9436 583a ae13 03bd
000003d0: 42bf 9ebc 1aa2 493e 41d9 e63d c06d 2fbd
000003e0: ab46 6abe bb7d cf3e e4cf 513d 8958 85bd
000003f0: c31d 01bd da87 8fbd bf4d 2d3e 042c 123e
-7.026071e-05 0.06249294 0.0006594683 0.0015262442 0.0009346258 -0.020782514 0.0034749827 5.2887226e-05
0.039970823 -0.025127873 0.023040567 -0.07711304 -0.13159615 -0.0016114654 0.032990914 0.00012485437
-0.06896503 -0.00015014787 -0.023411386 0.0029872544 -5.5258395e-05 0.0013437008 -0.07502408 -0.013516324
-0.016883295 0.00024361326 0.04562606 -0.06788405 -0.018118499 0.0038676008 0.00011303167 -0.020518715
0.0003023221 -0.037013676 0.0012182908 0.003878353 -0.009358526 0.00036049276 6.6103166e-06 0.00035657006
0.011629305 0.0007324592 -0.05139395 -0.0010184804 -0.08053459 0.00042557946 0.0002820626 -8.738224e-05
-0.0384483 7.550379e-05 6.8459776e-05 0.010479171 0.064341635 -0.05617214 0.0020945987 -0.00060819817
0.00067306665 -0.0437735 -0.004121433 -1.6114347e-05 -0.15111153 -0.111814626 -0.0024872576 0.26015136
0.08974027 0.18723479 -0.14328015 -0.07340345 -0.07239751 0.09513575 -0.108230986 -0.06628218
-0.018742267 -0.087925084 0.08958919 0.0058053145 0.0031879125 0.077137694 -0.3234261 -0.017044196
0.1716701 0.24812397 0.004180519 0.09107437 -0.02862817 0.00087330944 -0.17716485 0.2118688
0.0029400396 0.2041797 0.006824738 -0.1974917 0.0007515162 0.27679175 0.2384623 0.21465668
0.049779955 -0.01977132 -0.097279705 -0.113955595 0.15118822 -0.2503656 0.17420259 -0.2351306
0.16714798 -0.020232746 -0.22115317 0.1148277 0.1208403 0.16198175 0.09431624 0.2529077
-0.11966795 -0.08835997 -0.07781388 -9.055166e-05 -0.2571505 -0.035835423 -0.08802206 0.16577698
0.16730823 -0.20440848 -0.013098108 0.2537335 0.13049911 0.28942335 -0.13893147 0.03414418
-0.040200323 0.08199986 -0.06974005 0.23060158 0.15498215 0.09679921 0.01410543 -0.03169023
-0.1902928 0.14716618 -0.0678133 -0.15980977 -0.12966576 0.23059101 -0.1092743 -0.07128006
-0.18935151 0.0009429307 0.025717214 0.0139695145 0.10002469 0.066402815 -0.07956136 -0.07643545
0.0022281052 0.29651913 0.09007149 -0.06815237 0.048215397 -0.009145648 -0.1397877 0.25041333
-0.1712768 -0.19074854 0.26567712 0.12985194 0.31122807 -0.072906144 0.03773526 -0.083001904
0.1129009 0.394283 -0.046257645 0.30960414 0.19899482 0.15537117 0.18832923 0.000775167
0.259717 0.07648582 0.025946796 -0.069510624 0.06843347 0.31414357 -0.0069967667 0.13420679
0.08336358 0.11223816 0.05181534 0.050389837 0.24893945 0.17832007 -0.11189258 0.36306542
-0.03543738 0.20342007 -0.29599413 0.15758304 0.1596315 -0.042711124 -0.08087082 -0.1457864
0.32016173 -0.20337364 0.046715755 0.13232423 -0.21579815 -0.001409412 0.19850911 0.21848783
0.27304956 -0.147427 -0.069014445 0.030219832 -0.0010263877 0.016850185 -0.09775066 -0.2749345
-0.071121514 -0.03741679 -0.05263777 -0.18816313 -0.28675556 -0.049771365 -0.09820312 0.34807444
0.13842547 -0.04419115 0.40848958 -0.41563332 0.18290219 0.33322194 0.09038719 0.04610401
0.12865075 0.059119295 -0.22864482 0.00075143017 0.05120424 0.24877718 -0.034506835 -0.12963916
0.07923304 -0.20578888 0.0008247879 -0.03200119 -0.019378308 0.19690743 0.11271907 -0.042829275
-0.2287852 0.40525612 0.05122365 -0.06511027 -0.031522524 -0.070083335 0.16924189 0.14274603

neg_net.linears.2.bias f4 [30]
00000000: 01c2 15be ac18 9cbd e96e e23d 9c10 143e
00000010: 6d1f 043e 52da 3d3d e4ae bf3e 1bb3 4cbd
00000020: 3cae 673e e3a3 493e 89d1 cabd 9bb5 c1bd
00000030: 15bd 343e 6cab 3fbd e0a5 3f3e f457 dbbc
00000040: 1189 0fbd 9e3c 203c 0800 cdbd 4c91 e83d
00000050: 2d66 c13d bb90 bf3d 937d f63d 332c 023e
00000060: 5d3f cfbc eb1e 04be 4547 103e b37d db3b
00000070: f937 2d3e cf68 1a3e
-0.14624788 -0.07621893 0.11056311 0.14459461 0.12902613 0.046350785 0.37438118 -0.049975496
0.22625059 0.19691424 -0.09903247 -0.094584666 0.17650254 -0.04679434 0.1871562 -0.026775338
-0.035042826 0.009780077 -0.100097716 0.11355838 0.094433166 0.09353777 0.1203567 0.12712173
-0.025298769 -0.1290242 0.14089687 0.006698334 0.16915883 0.15079044
