data/Backup/1/train/N1000/D6_SinCosInput/4/result/model/ReLU_Dual_UDirection_BP.pt (torch_old, 22776 bytes, 20 tensors)

input_mean f4 [12]
00000000: e7ab 2cba deb8 843e c0f1 683c d48b 723e
00000010: e296 713e 9a5e c93b eee9 6b3f 97ae 6b3f
00000020: ba2e 723f 0945 f73d 9c83 693e 0ecb 6b3f
-0.0006586895 0.25922292 0.014217794 0.23686153 0.23592713 0.0061453106 0.92153823 0.9206328
0.9460255 0.12073714 0.22804111 0.9210671

input_std f4 [12]
00000000: dd85 c33e 94a3 8e3e 70c0 a33e 694e 223f
00000010: 78ed 2c3f 6027 c43e 28db 8f3d 28d7 b23d
00000020: da9b 4e3d 97e7 393f 7b0b 293f 573a 8e3d
0.38188067 0.27859175 0.31982756 0.63400894 0.6754985 0.3831129 0.070242226 0.08732444
0.0504416 0.72619003 0.6603314 0.06944721

output_mean f4 [6]
00000000: 8436 d63c 4db0 ef3e 517c 473e 0411 c9bb
00000010: a342 f0ba 8d52 303b
0.026149042 0.46814194 0.19481017 -0.0061360616 -0.0018330406 0.0026904673

output_std f4 [6]
00000000: 418e 163d a688 253e 0713 143e 1a62 db3d
00000010: eed0 063d 208e 903c
0.036756758 0.16165408 0.14460383 0.10712071 0.032914095 0.017645895

pos_net.linears.0.weight f4 [30, 12]
00000000: 8765 a33e 14bd 90bc 50ee 2a3d 07d0 67be
00000010: 4112 3a3f 1474 3ebf ee5a 843d ee25 e5bd
00000020: ccb3 86bd 281c 95be d223 1dbd 5ce0 b8bd
00000030: 5104 b3bc 522c e53e 0ecb db3e b95b 323c
00000040: 043d 373f 524b c93d 9b1c 7cbd 69d0 56be
00000050: 5f73 643d f275 0bbf 66ba bebe bf4b ce3c
00000060: 1dfe f43a bfcf 7a3e 073f 093f 5939 063f
00000070: edf9 fabe 9177 0ebe 5e27 4f3b bcb2 31be
00000080: 3a3a cfbd 2a7a e33e dafe b93e 1e9d bcbd
00000090: 3a4d cdbd 349c b3bc 7999 5fbe 4561 27bf
000000a0: 90c8 363e a4f7 a93d 5d75 2abe 0e9c b73e
000000b0: 3c13 823c 3422 78be 78f4 9dbe 278f d13c
000000c0: 844b f43d e22e 0dbe b836 c8be 1b32 edbe
000000d0: 12ca 893e 3fb6 0e3d dc31 08bd 2bc3 9a3e
000000e0: 7da2 1b3e 02d8 9d3e b150 1abe 5e84 1bbc
000000f0: 691d e43e c4ca 28be 75fe 173e 6ef0 32bf
00000100: e4c9 b63d e431 78bd fecc 85bd d3f2 20be
00000110: c8bf 99bd 38bd c8bd ef3e 70be 30f9 283e
00000120: 2a4a 223e e538 0e3f 59d6 393f c2a0 9ebe
00000130: acba e2be e984 d1bd 3e2a 23bc cf76 97bd
00000140: be34 65bc 8837 173d 86e9 35bf 1a58 893d
00000150: 4b1b 8d3e c443 aebe bc7e 3fbe 652a 90be
00000160: 003f 84bd e155 6f3d 37d8 9b3d 19fb ddbc
00000170: 7601 ebbd df77 363e a5a1 4fbf 185a 363e
00000180: fb6c 703e 71a2 373d 5a9c dcbe 1784 a2be
00000190: 67a1 6dbe 9b86 98bc 04ef 833d 9f73 b93d
000001a0: 6d4f 90bd 7f76 05bf 235d 923c 16d1 6b3d
000001b0: 166e 333d cba8 163e 66eb eabb 9745 89be
000001c0: fe63 60be 3b67 693e d38f a63d 556c 8bbe
000001d0: e501 28be fa63 853c 85b0 313e 2604 6cbd
000001e0: 8e7f 223d 25e2 a2bd 25b1 74be 5e92 e3be
000001f0: 3ff9 f4be efd6 c0be de0a 2a3e b38a ab3e
00000200: 8e75 10bb 0bbe 8abe 2c8a e6bc b3d4 44be
00000210: 6d26 b63d 0e8e 62bf 7889 30bf 2a20 1a3e
00000220: 6c42 95be cc86 00bd 7c26 983c 4574 03be
00000230: 02bc 3dbe f6d3 b73e 0da0 a23e cc34 32bd
00000240: fa64 f2be 5bf7 1dbf 984f 283e e21e 853e
00000250: 5fb1 2d3c 714e 00be 2d7d 21be 62e1 20be
00000260: 6105 a2bd 0da4 debe a6a1 a6bd b4a0 8ebc
00000270: 47f2 09be a5b9 a33e c315 213f e7b0 9dbe
00000280: 41bf c23e ff63 65be 641a b33c 7d53 5bbe
00000290: cb35 383d d05c c23e bbcf cd3d aab4 033d
000002a0: c10a c73d 6b62 8a3e c6c7 923e ed5b d93e
000002b0: 303b aa3e ff30 2a3d ebb4 9d3d b67a fbbb
000002c0: 1e53 e13c 264e 9cbe e4e0 5c3e 61ef 093e
000002d0: 8ed3 043f 719a 7abc df9e 833e af16 0d3f
000002e0: 7810 5cbd b85c 95bd 5148 19be 989c 453d
000002f0: 4303 763d 07b7 323e 9544 8ebe fd13 89bc
00000300: 6aa9 4f3e 2441 08bf d739 2cbf f6ac 173f
00000310: 34ec e13e 7b10 fbbe 10ad 483d 939c 11bd
00000320: d7a5 a33d 0737 b4bd 607a 06be 997b dd3d
00000330: c32b aa3d 4d44 a0be 1e95 a53d d469 1abe
00000340: f062 553f 7439 1b3f af95 bf3c ea9c a8bd
00000350: aa66 29be 975d 46be 2c2f dfbd ce96 bbbd
00000360: e0f1 703e 842d adbe 3977 94be e55b a43d
00000370: 9f36 26bf b058 303f b519 d13c eed3 c63c
00000380: 5186 893d 548c 0c3e cb54 75be a66c 80bc
00000390: 89c4 643e 3411 643e ac61 cdbe ad4c b23e
000003a0: 3887 863a 55c7 73bb c512 643c 5ee6 0dbe
000003b0: b6f2 e93d 49fd 643e b646 973e a2d8 b83c
000003c0: 0c81 ba3e 67a0 843e 9d19 0d3e 2f81 49be
000003d0: 8d5c d83e 7a08 4c3e 4090 9fbd 3c4f d83c
000003e0: 2a4c f23d f17b 263f c499 123f cb50 31be
000003f0: eb05 8d3d e2f4 133e 94e4 973e 5e81 bc3e
0.31913397 -0.017668284 0.04173118 -0.2263795 0.72684103 -0.7439587 0.06462656 -0.11188875
-0.06577262 -0.29123044 -0.03836424 -0.09027168 -0.021852644 0.44760376 0.42928356 0.010886126
0.7157748 0.09828819 -0.061550718 -0.2097794 0.05577409 -0.54476845 -0.37251586 0.025182603
0.0018691454 0.24493311 0.536118 0.52431256 -0.49018803 -0.13912798 0.0031609158 -0.17353338
-0.10118528 0.4442914 0.3632725 -0.09209655 -0.100244954 -0.02192507 -0.21835889 -0.65382797
0.17849946 0.08299187 -0.16646333 0.35861248 0.015878312 -0.24231797 -0.30850577 0.025580956
0.11928466 -0.13787416 -0.39104247 -0.4632729 0.2691198 0.034841772 -0.033250675 0.30227026
0.15198703 0.30828863 -0.15069844 -0.009492008 0.44553688 -0.16483599 0.14843161 -0.69898117
0.08925226 -0.060594454 -0.0653324 -0.1571763 -0.075072825 -0.098017156 -0.23461507 0.16501307
0.15848604 0.55555564 0.72592694 -0.30982023 -0.44283044 -0.10230429 -0.009958802 -0.07395708
-0.0139896255 0.036918193 -0.71059453 0.06706257 0.27559885 -0.34036076 -0.18700689 -0.28157344
-0.06457329 0.05843151 0.07609599 -0.027097272 -0.11474888 0.17819165 -0.81106025 0.17807806
0.23479073 0.04483265 -0.43088037 -0.31741402 -0.23206101 -0.018618872 0.06442073 0.09055256
-0.07046399 -0.52133936 0.017866677 0.057572447 0.043806158 0.14712827 -0.007169175 -0.26810905
-0.21913144 0.22793286 0.08132901 -0.27231088 -0.16406973 0.016283024 0.17352493 -0.057621144
0.039672427 -0.0795329 -0.238957 -0.44447607 -0.4784641 -0.3766398 0.16605708 0.33504257
-0.0022042724 -0.27098116 -0.028142057 -0.19221763 0.08894048 -0.8849801 -0.6895976 0.15051332
-0.29152238 -0.031378552 0.018573038 -0.12837322 -0.1852875 0.359039 0.31762734 -0.043507382
-0.47342664 -0.6170556 0.16436613 0.26000124 0.010601371 -0.12529923 -0.15770407 -0.15710977
-0.07911182 -0.43484536 -0.08136301 -0.017410614 -0.13471328 0.31977573 0.6292383 -0.30799028
0.3803654 -0.22401427 0.02186317 -0.21418567 0.044973176 0.37961435 0.10049387 0.032154717
0.09718848 0.27028212 0.2866804 0.42452946 0.3324828 0.041550633 0.07700523 -0.0076745404
0.027505454 -0.30528373 0.21570164 0.13470222 0.51885307 -0.015295611 0.25707147 0.5511274
-0.053726643 -0.07293075 -0.14968993 0.048245043 0.060061704 0.17452632 -0.277867 -0.016733164
0.2027947 -0.53224397 -0.67275757 0.5924829 0.4412552 -0.4903601 0.04899317 -0.03554971
0.07990616 -0.08799558 -0.1313262 0.1081459 0.08309128 -0.3130211 0.080850825 -0.15079433
0.8335409 0.6063454 0.023386804 -0.08233054 -0.1654307 -0.19371639 -0.10897669 -0.09159623
0.23529768 -0.33823788 -0.2899721 0.0802534 -0.64927095 0.68885326 0.025524953 0.024270978
0.06715072 0.13725406 -0.23958127 -0.015676808 0.22340597 0.22272187 -0.4011358 0.34824124
0.0010263687 -0.0037197669 0.013920491 -0.1385741 0.114232466 0.22362246 0.29546136 0.022564236
0.3642658 0.25903627 0.13779302 -0.19678186 0.4225811 0.19925109 -0.077911854 0.02640497
0.118309334 0.6503287 0.5726588 -0.17315976 0.068858944 0.14448884 0.2966658 0.3681745

pos_net.linears.0.bias f4 [30]
00000000: 5fd2 4bbd 6a10 5abe 7701 46be 165c a3be
00000010: aa9f debd 815a e13b 6f5a 51be c430 96be
00000020: 1932 c5bc eeba 29be 08ca 97be 70e1 9ebe
00000030: 5cb9 953c 5ad0 c83d d232 893e bccd f73e
00000040: 033f 6cbc 94e8 59bd e98b a6be c3a7 53be
00000050: 99cc 83be f65f e0bd 7be7 aabd 602a c13c
00000060: 1cd5 93be 58b4 60be 972d 713d 8dc1 60be
00000070: 2652 913e 707b 093e
-0.049761172 -0.21295324 -0.19336496 -0.31906193 -0.10870297 0.006877244 -0.20444654 -0.2933408
-0.02407174 -0.16575214 -0.29646325 -0.3103137 0.018276863 0.09805365 0.26796585 0.4839915
-0.01441932 -0.05320032 -0.32528618 -0.20669465 -0.25742033 -0.10955803 -0.08344933 0.023579776
-0.28873527 -0.21943796 0.05888137 -0.21948834 0.28382987 0.13425994

pos_net.linears.1.weight f4 [30, 30]
00000000: 32ee 36be 239c 3bbf 1e9c 963e ae4b bb3d
00000010: a927 56bd 2f38 b2bc e7d5 c3bd 8c7b 86be
00000020: 90a6 8bbd 36ef f33d f35b f5bd 9b9e adbd
00000030: 9566 efbe 0d88 0a3f 839c 073c be70 f8bd
00000040: bf06 a4bd 8570 7dbe fcb5 df3c e094 42be
00000050: 6c93 e33e 9bab 32be a4b9 e43e ec85 db3e
00000060: c107 98be 8d3e 123d 2372 8bbd 26b2 0c3e
00000070: 59b8 583e 9ab1 153e c937 f93e 1444 433e
00000080: 61a3 763c a772 0bbe f8ef c3bd 672f d83d
00000090: c447 983e e93e 2cbd 67ce b7be 9712 93bd
000000a0: f083 16bf d2fe e83e e487 ad3e 263d fa3d
000000b0: 76c5 92be 5141 e5be 3955 ff3e 278d b7be
000000c0: 4954 4c3e 1969 5e3e 10e6 a4bd 4349 283e
000000d0: 5e63 70be ea0a 05be 70f8 dbbc e7ea 33bd
000000e0: 0d8a 49bd fdee 843e 04f4 313e d1e5 db3d
000000f0: 162c 82bd bcf4 9abd cf54 df3d 857f 28bd
00000100: 7773 00be b2c0 89bd ac0a a93c eb64 9abe
00000110: 207b b9bd e251 92bd c561 983d 0950 b83e
00000120: 9cdf 1dbe c673 09be cb0d fb3d fafc 53be
00000130: 6d69 cf3e 99c9 43bd fb91 0ebe bab0 223e
00000140: 37b6 cfbd fee0 183d c315 6bbe 0253 f1bc
00000150: efb5 123e 7dab dcbd 8049 603d e241 b2bd
00000160: 541b 64be 9d3e 3b3e eed4 3f3d 32bf 823e
00000170: bbde 8dbe 0149 843e da75 89be 2301 643e
00000180: f282 023f 280f d03c e561 29bd efe6 ea3b
00000190: 92ca a2be 4778 e43e 911d 333e c3c2 f8be
000001a0: d302 46be a545 98be ed23 7abe 6d99 a4be
000001b0: d6d0 f83d b892 29bd 43af 9dbd e5a1 de3e
000001c0: 3435 6b3e c315 f0be 9481 9b3e ecd8 49bd
000001d0: b550 e8bc 1ac4 d5be 75dc 72be 9758 84be
000001e0: b69c 1fbf 9777 7d3e cbee 143d d077 f5bd
000001f0: 2249 59bc ba35 263e 8346 a33e 24eb 63be
00000200: 5cff 0abe 0bb9 e93d 1166 e33c 9103 d33b
00000210: e46c 64be 2f50 d13d 5f13 2fbe 4f19 e9bd
00000220: 36bd 9cbe 03f1 dabe c4e8 183f ef60 833d
00000230: b546 b0be a1d1 dbbe d7d9 eb3e e50a d9bd
00000240: b7d7 a7be 0dd3 c73c 1c44 613d 1ad0 8dbd
00000250: a487 c3ba 647a a9bd 72c3 493a 0c55 c53a
00000260: d7e5 053a 8d67 f8ba 5a32 d5ba 6487 c33a
00000270: a2de 6b3b ca38 c339 a91f 963a 3f3c 873a
00000280: 1d4b a7b9 1ebc d53a 2776 00ba 7cac fbb9
00000290: 6831 12bc 9850 1fbb 9b9b d6ba 5e58 5ebc
000002a0: b478 0f3a 2948 27bb d8eb 843a 400f 113b
000002b0: eeb3 15bb 0df9 8e3a f721 e1ba c7f9 8c3a
000002c0: 5c14 9239 e40c b6ba bc57 9d3a 209c ecba
000002d0: 49fb 4a3d 1fd2 dc3e a1ae 993e d1e2 d1be
000002e0: d90a aebe 7041 b1be 64d0 0bbe 9aad 3cbf
000002f0: 8fcf 4e3c 50c8 7d3c c3a4 ab3d fea9 eebe
00000300: 3660 ef3b b8e1 82be 6efc a83e fb59 fd3c
00000310: 0b5f a2be 4859 f73d 84b6 b3bd 2cea a7bb
00000320: 5f6c ebbe 09dd b33e af79 b23e 2210 253e
00000330: 8f31 323c 08b4 aa3e b293 bd3c 5256 20bf
00000340: ea57 01bf eeba b9bd da64 e1ba 4c70 72b8
00000350: 646c 903b 2ac8 353a 317f 86bb 5cd6 40bb
00000360: cdc0 1dbb c6d3 3e3b 1d8f a0bb 361f afb9
00000370: 7bf4 5dbb c923 06bb 2d07 c9ba cca0 9ab8
00000380: 2aa5 90bb 93f9 4dbb 288b b4bb 082e 70bb
00000390: 201d bfbb b583 e6ba 76af b2ba 000c 13b6
000003a0: 2aa0 263b 4704 9fba ecac 24ba b047 bbbb
000003b0: 86a5 8bbb 298b cc3a f6cd 63bb 969d 6f3c
000003c0: fa56 d23d b704 b4be 96aa 48be a229 a0be
000003d0: 66de 423e 86e0 f13d e1c0 d1bd b948 1fbe
000003e0: f953 113e 4c8d e2be 506a 113e 81fd ad3e
000003f0: 6c7b 50be cfdd 90be 30d7 663d 1018 12be
-0.17864302 -0.7328512 0.29415983 0.09145294 -0.052283917 -0.021755306 -0.09562283 -0.26266134
-0.06818879 0.1191086 -0.119804285 -0.08477517 -0.4675795 0.54113847 0.008277061 -0.12130879
-0.08009099 -0.24749954 0.027308457 -0.19002104 0.4444841 -0.17448275 0.44672883 0.42875612
-0.29693416 0.035704184 -0.06808879 0.13739833 0.21164073 0.14618531 0.48675373 0.19068938
0.015053601 -0.13617955 -0.09567255 0.10555916 0.29742253 -0.042052183 -0.3589966 -0.0718128
-0.5879507 0.45506912 0.3389274 0.122186944 -0.28666276 -0.44776395 0.49869707 -0.35849878
0.19954027 0.21719779 -0.080516934 0.16434197 -0.23475406 -0.12992445 -0.026851863 -0.043925192
-0.04920392 0.25963584 0.17378241 0.107371934 -0.06356065 -0.07566211 0.10904848 -0.041137237
-0.12544046 -0.06726207 0.020634972 -0.3015512 -0.09056687 -0.07144524 0.07440523 0.35998562
-0.15417331 -0.1342307 0.1225849 -0.20701972 0.4051012 -0.04779968 -0.13922875 0.15887728
-0.101421766 0.037323944 -0.2295752 -0.029458527 0.14327215 -0.10774896 0.054757595 -0.087039724
-0.2227605 0.18285604 0.046833925 0.25536495 -0.27708992 0.25836948 -0.26847726 0.22266059
0.50981057 0.025397852 -0.041353125 0.0071686427 -0.31795174 0.44623014 0.17491747 -0.4858609
-0.19337015 -0.29740635 -0.24427767 -0.32148305 0.12149207 -0.041399688 -0.07699444 0.4348289
0.22969514 -0.46891603 0.30372298 -0.04927914 -0.028358797 -0.41751176 -0.2371691 -0.2584884
-0.62348497 0.24752651 0.036360543 -0.11985743 -0.013262065 0.16231433 0.31889734 -0.22257668
-0.13573974 0.11412247 0.02775863 0.006439634 -0.22307163 0.10220372 -0.17097233 -0.1138178
-0.30613106 -0.42762002 0.5973017 0.06414973 -0.34428945 -0.42933372 0.46064636 -0.10597781
-0.32781765 0.024392629 0.054996595 -0.06924458 -0.0014917743 -0.08275297 0.0007696665 0.0015055253
0.0005107796 -0.0018951759 -0.0016265616 0.0014917669 0.0035990854 0.0003723561 0.0011453527 0.0010317637
-0.00031908686 0.0016306674 -0.00049004186 -0.00048002962 -0.008922912 -0.0024309512 -0.0016373278 -0.013570873
0.0005473003 -0.0025525189 0.0010141088 0.0022134334 -0.0022842842 0.0010907963 -0.001717626 0.0010755592
0.0002786246 -0.001388934 0.0012004296 -0.00180519 0.04955605 0.4312906 0.30016044 -0.4099336
-0.3399265 -0.34620237 -0.13653713 -0.73702395 0.012622728 0.015489653 0.08381035 -0.4661407
0.0073051704 -0.25562835 0.3300509 0.030926695 -0.31713137 0.12077576 -0.087750465 -0.005124351
-0.45981118 0.35129574 0.34858462 0.16119435 0.0108760735 0.33340478 0.023141716 -0.62631714
-0.5052477 -0.09068857 -0.0017196194 -5.780188e-05 0.0044074524 0.0006934429 -0.004104518 -0.0029424643
-0.0024071217 0.0029117926 -0.004899873 -0.00033401855 -0.0033867646 -0.0020468107 -0.0015337222 -7.373243e-05
-0.0044142203 -0.0031429275 -0.005509753 -0.003664853 -0.0058323294 -0.0017586859 -0.0013632614 -2.1911692e-06
0.0025425055 -0.0012132012 -0.0006281871 -0.005715333 -0.0042616753 0.0015605438 -0.0034760213 0.014624974
0.10270496 -0.35159847 -0.19596323 -0.31281763 0.19030151 0.118104026 -0.10241867 -0.15555085
0.1419219 -0.44248426 0.14200711 0.3398247 -0.20359582 -0.28294227 0.056357563 -0.14266992

pos_net.linears.1.bias f4 [30]
00000000: 53e8 11be 740c a83e a9d4 f0bd ae51 eebd
00000010: b5b2 4c3e 4423 4cbd b009 803e b67d 95bb
00000020: 37e1 1fbe 479f 42bd 38af a43d 7abf 42bd
00000030: 03cb 95be 28be 7fbd 7628 29be c538 d6bd
00000040: 1077 703d 5506 3dbd 9a66 13bd 2d94 b6bd
00000050: 971d 79be 601a 6dbc 7674 a6bc 31b9 1dbd
00000060: d139 883e 8c4e 4dbe fd7b e9bd dd82 3d3d
00000070: 3faa 17be d493 09be
-0.14248781 0.32822 -0.11759312 -0.11636673 0.19990046 -0.04983832 0.2500739 -0.004562105
-0.15613256 -0.04751518 0.08041233 -0.047545888 -0.29256448 -0.062437207 -0.16519341 -0.10460047
0.058707297 -0.046148617 -0.03598652 -0.08914981 -0.24327694 -0.01447162 -0.020319205 -0.03850669
0.2660661 -0.20049495 -0.11400602 0.04626738 -0.14811037 -0.13435298

pos_net.linears.2.weight f4 [30, 30]
00000000: 3421 9b3a 73ec d73a dc1c ffb9 966d 8db9
00000010: 54d4 56b8 ae05 9139 7820 76bd 1453 8d38
00000020: 50c9 96bd d38f 0ebc 87c9 c3bd c4e9 07ba
00000030: 9b99 1c3a 57ee 03bb 79a0 a7bd 0e71 19bb
00000040: f68d f5bd 8057 b136 b1d0 67b9 eb2f a6ba
00000050: ca89 c739 8a79 4ab9 66fd 1fbd a432 64bd
00000060: 592c 093a aa70 0db9 d82a 17bc e3a5 3139
00000070: 3362 fabc 97aa f5bc 1da8 c9be d8de 443e
00000080: a564 7bbe b3dd fb3d 75a8 033f 448a 8e39
00000090: 9cfe 073f e04e fcb9 dbcd 1dbe 3f4c e93e
000000a0: 762c 243d 49ef 513c 4769 aabe edbb 9d3c
000000b0: 4850 4b3e 0906 69bd fe6e 603d 4a5d bfbc
000000c0: bd30 ccb8 5cc7 a33b 6015 f43c 84d3 da3d
000000d0: 373a 84be cb63 eebd a41e c2be ca79 31be
000000e0: a11a bdb9 05a3 d6be 8099 c03e f412 8239
000000f0: bbc9 3dbe 96a7 c83e 0be4 6dbd 2adc eabd
00000100: 5d3e 1b3e 2ef3 11ba 84b6 51be 201c 24bb
00000110: c50c e1bd 78f4 65bd 43e5 cfbe ffd3 633a
00000120: 364e 633d 0da0 20be 1e94 933c f41d 083e
00000130: d7ad 27be defe 0cbd f0bd 10b9 e124 53bd
00000140: 4123 6abe 81ca 6bbc 742a 40bd bbd6 09be
00000150: f3c2 16be 5abd 753d f4fc 0839 747c 213f
00000160: fcdf ef3c f8a6 933a 9b54 0bbe 9a05 96be
00000170: f8f2 7a3d 0e5b 29be 9367 f7bd b3fe 4d3b
00000180: 9e84 4a3e b633 0b3c 9bce 153e 4109 583e
00000190: 9ef6 a9bd e870 46ba 3e10 243e 3b89 463e
000001a0: b16a 1f3e 06ce 863b 6153 fd3e 95dc 9a3e
000001b0: 1de6 ce39 d040 6abd 7517 1bbe e030 61be
000001c0: be98 313e d993 6ebd 4f02 573e 3ee8 d4bd
000001d0: 4d5b 39ba f598 a13e 0f15 d3be 8dc3 2a3b
000001e0: 1252 7d3a 610b 4439 c2ad 3d3a d4a5 7339
000001f0: e5e2 e0b9 3cc5 32ba ceaf 5eba c057 a336
00000200: e45b c2b9 8c9e 81ba 435d 09ba db9f 903a
00000210: 0f9f 3aba fa55 cd38 d5d1 b439 8878 413a
00000220: 1293 e1ba c963 bdbb 011b 0cb9 8e0b 84b9
00000230: fcb2 aeb8 7fc5 423a 362d b53a c2e1 51bb
00000240: e6d3 3cba 74e8 2339 d1bb a4ba b523 8939
00000250: d2d9 cb3b c2ae 8b38 9525 0ebe 5ca9 7ebe
00000260: 1c38 c93d 7b9d d4bd 577f c93d e988 8d3a
00000270: 55ac 2c3d 47cb b83a 002b a33b df7c 823e
00000280: 855b 19be 8c64 04bb 0582 12bf 2396 08be
00000290: 4e7e 0f3d 4f99 60bd 467b 923e 34b4 a1be
000002a0: 5c54 48ba c775 a8bb b622 b63d e898 083e
000002b0: 17d6 a53e 629b 34bd 29cb bc3e 613c 88bc
000002c0: 5f5a 0f3b 51a4 6bbe 8150 edbd 06e5 693b
000002d0: 15f9 ea3b c118 943c 33b6 2bbc aeea 483a
000002e0: e654 2d3c 9d43 d6ba 0036 b6b8 d8f2 ca37
000002f0: 5864 4dbc af88 9f3b 40eb 5e3c b237 93ba
00000300: 7e7a 17bd 94ff a53c de7f 96bb ea6f 67bb
00000310: b0dd 0ebd 10dd c4bb 627c 9ab9 58ac 8838
00000320: 0610 9aba 1c0b 9abc 94c8 20bd 1f02 a4bb
00000330: 42dd b03b 519c f1b9 36e8 c03a 0ae7 343c
00000340: ef29 8bbc dfb4 343a 4314 f53b 3fec 32b9
00000350: d6b8 02b9 9389 0ab9 67bc 58b9 5ca7 b439
00000360: 5327 8ab9 4c56 6eb8 a903 293b 9bbe b4b9
00000370: c61e 67bc b0ac ccb8 9936 3b39 c9ed 21bb
00000380: b5aa 1ab9 a26f 193a d66a 36ba 22a4 763a
00000390: b5a4 09b9 a8fc 4ab9 ec1f 33b8 8d44 d038
000003a0: a743 d1b9 fde1 26bc 2beb a93a e332 a9b9
000003b0: 8ce9 93b8 686c b637 0e59 1dbc ff91 aab8
000003c0: 2535 24be 6b39 223e cfa4 85be 8385 e73d
000003d0: dc56 79bb 506b 7f3a 8137 0bbe 47ae dbba
000003e0: 4a2a 26be 3038 18be a389 623e 97b9 a13b
000003f0: 0b86 e03e fc50 dcbe 4b86 133d 69a7 16be
0.0011835457 0.0016473666 -0.00048658892 -0.00026975264 -5.1219322e-05 0.00027660787 -0.06008956 6.7388784e-05
-0.07362616 -0.008701283 -0.09559923 -0.0005184675 0.0005973817 -0.0020131075 -0.081849046 -0.0023413333
-0.119899675 5.2851974e-06 -0.0002210762 -0.0012679076 0.000380589 -0.00019309498 -0.03906002 -0.055712357
0.00052327436 -0.00013488778 -0.009226523 0.00016941833 -0.030564403 -0.02998857 -0.39386073 0.19225633
-0.24550112 0.12298145 0.5142892 0.00027187367 0.5312288 -0.00048123952 -0.15410559 0.45565984
0.040081464 0.012813398 -0.33283445 0.019254649 0.19854844 -0.05689052 0.05479335 -0.023359913
-9.736556e-05 0.0049981307 0.029795349 0.10684875 -0.25825664 -0.11640128 -0.37914002 -0.17331615
-0.0003606873 -0.4192125 0.3761711 0.00024809653 -0.18533985 0.39190358 -0.058078807 -0.11467774
0.15160508 -0.00055675476 -0.2047978 -0.0025041178 -0.10988764 -0.056141347 -0.406046 0.00086909527
0.05549451 -0.15686055 0.018014964 0.13292676 -0.16374908 -0.034422748 -0.00013803667 -0.051548842
-0.22865011 -0.014391542 -0.046915486 -0.1346082 -0.14722805 0.059995033 0.00013064203 0.63080525
0.029281609 0.001126497 -0.13606493 -0.2930115 0.06126687 -0.16538641 -0.12080302 0.003143233
0.19777152 0.008496216 0.14629595 0.2109728 -0.082989916 -0.0007569925 0.16021821 0.19388287
0.15568043 0.0041139154 0.49477676 0.30246416 0.0003946283 -0.057190716 -0.15145667 -0.219913
0.17343423 -0.058246467 0.20996974 -0.10395859 -0.0007070795 0.3156201 -0.41227004 0.0026056499
0.00096634135 0.00018696256 0.000723567 0.00023236062 -0.0004289366 -0.00068195513 -0.0008494825 4.867994e-06
-0.00037071027 -0.000988917 -0.00052400323 0.0011033969 -0.00071190385 9.791176e-05 0.00034488612 0.0007380326
-0.0017209968 -0.0057797176 -0.000133615 -0.0002518561 -8.330305e-05 0.0007429942 0.0013822678 -0.0032025431
-0.0007203206 0.00015631487 -0.0012568181 0.0002615728 0.0062210346 6.660588e-05 -0.13881524 -0.24869293
0.09825155 -0.103815995 0.09838741 0.0010798249 0.042156536 0.0014098667 0.0049794912 0.25485894
-0.14976318 -0.0020201532 -0.57229644 -0.13338523 0.035032563 -0.054833706 0.28609675 -0.31582797
-0.0007641965 -0.0051409933 0.08893339 0.13339579 0.323899 -0.044093497 0.3687375 -0.016630353
0.0021873934 -0.230119 -0.115876205 0.0035689487 0.007170806 0.01807821 -0.010480451 0.00076643645
0.010579323 -0.0016347055 -8.6884946e-05 2.419336e-05 -0.012536131 0.004868589 0.013605893 -0.0011231808
-0.036982052 0.02026347 -0.0045928797 -0.0035314509 -0.034879386 -0.006007798 -0.0002946584 6.517087e-05
-0.0011754043 -0.018804125 -0.039253786 -0.0050051357 0.0053974697 -0.00046083567 0.0014717642 0.011041412
-0.016987769 0.0006893407 0.007479222 -0.00017063411 -0.00012466623 -0.00013211956 -0.0002066955 0.00034456968
-0.0002635071 -5.6823992e-05 0.0025789535 -0.00034474288 -0.014106458 -9.7596436e-05 0.00017854049 -0.0024708381
-0.00014750178 0.00058531214 -0.0006958669 0.0009408613 -0.00013126696 -0.00019358343 -4.2706655e-05 9.9309815e-05
-0.0003991399 -0.010185716 0.0012963762 -0.00032272105 -7.053008e-05 2.1746571e-05 -0.009603752 -8.1334256e-05
-0.16035898 0.15842216 -0.261023 0.11304762 -0.0038046157 0.0009743469 -0.13595392 -0.0016760313
-0.1622707 -0.14865184 0.22122817 0.004935454 0.43852267 -0.43030536 0.036016744 -0.147123

pos_net.linears.2.bias f4 [30]
00000000: 6051 81be 37ff a9bd a100 10be e141 033e
00000010: c53e 04bd 1222 eb3c 3460 83bd d648 e7bc
00000020: cedf bf3e 847c 8e3e 9979 44be 6426 54be
00000030: 96d9 52be 0b1a d7bd 7d2b 6e3e b2f5 e43d
00000040: b304 06be f2d6 633c fb95 903e 1484 15be
00000050: c839 c3bc 4624 65bc 14e0 ba3d 1351 f13b
00000060: c38e 943c 07c6 283e 8237 86bd 788c 203c
00000070: 4ffe b4bd f251 83bd
-0.25257397 -0.083006315 -0.1406274 0.128181 -0.032286424 0.02870277 -0.06414834 -0.028232973
0.37475437 0.27829373 -0.19187011 -0.2071777 -0.20590815 -0.10503014 0.23258777 0.11179675
-0.1308773 0.013906227 0.28239426 -0.14601165 -0.023831263 -0.013985699 0.09124771 0.007364401
0.01813448 0.16481791 -0.06553556 0.009799115 -0.08837568 -0.06412114

pos_net.output_layer.weight f4 [6, 30]
00000000: 23bc c5bd 66ae b3bb 4a56 3dbd cf78 8a3e
00000010: f007 c7ba 7f6d 073d 01eb e6bc f452 25bb
00000020: a7a7 4abe 2e0c 393e 46c1 013a 4256 bdbd
00000030: 2f88 1e3e 6db9 853c ff3d 13bf f49c b4be
00000040: ae9d dc3a af60 1abe 6090 ba3d 4e82 55b8
00000050: 5d71 ea3e 3e16 623e cace 4fbd 3961 b3be
00000060: 7aa7 243e a43f dabe 7713 fabb 39ab 513e
00000070: e576 043e c5e5 7fba a37b f1bd a623 833d
00000080: df94 fc3c 2c00 d3be 277d 9eba 5e0f b8be
00000090: 548a 6cba 8c9f 81bd 9ba1 9ebe 106b 20be
000000a0: 16a0 1bba bb48 a3be 2961 0c3e 6629 5a3d
000000b0: c15a 0bbe 92b3 cf3e 7c99 d33d 86c2 f4bb
000000c0: 2412 073e e956 08bb 8856 043f c4a5 ee3d
000000d0: 4b2f 3c3e 6de5 b33d 9d1b f8be 5ed9 f93e
000000e0: fc4f 36bb fee0 3a3e db82 e4bc bb8e 623a
000000f0: 754d f4bc 120e d43c 4b67 a3bd 3d30 c1bd
00000100: ecb5 43ba 5403 59be 5bcb 6cbc 9ee7 703d
00000110: 5f72 e63e f373 38be 618e b93a 8725 813d
00000120: bbe8 9d3e fe56 403d a2ff 9dbe 69a9 803d
00000130: 7e31 83be 84b2 ea3d 7510 663e be3a fd3b
00000140: a238 6e3e 8add adbe a254 0f3d e195 cdbd
00000150: 2ec0 c63b 2d99 a53e d200 143d 3cc3 233e
00000160: 4679 8d3e 51c3 c63a b4d2 01bd 19b0 8f3e
00000170: 3934 1a3f c0d6 bb3e b400 6e3b b79c 1abe
00000180: 0e78 8dbb 8529 9a3d 1e75 1ebe 525a 48be
00000190: f4fa e2ba 2d49 193e c26d 4b3f 8fb1 36bc
000001a0: d7f5 db3e c5b8 a13e 050f 633c c9f1 8bbe
000001b0: d6df 22bf 11eb 9239 6aba e1bd fa3b 2e3e
000001c0: 12e9 683e f8ef c8be 398c 583e 0bd1 1c3e
000001d0: 1baf 26bf 100d aabc 9e2c a43e 52b6 ce39
000001e0: 6f28 81bc 3a5a dfbe a413 9f3e f9f3 40be
000001f0: a4ce 4e3a af9e b3be 1e48 94ba eaa1 b53d
00000200: ae80 3cbd ce38 0a3e 7aba c2b9 9f1a b93e
00000210: f3eb eb3e d334 a9bd de95 29bd 9390 83be
00000220: cf81 653f 0c00 f43d 49b5 043f d892 593c
00000230: 0b65 88be dba0 aabe a5df 34bf aa56 dcbd
00000240: b138 6f3e 371c e23d a205 16bf 056b 103f
00000250: 8c5f 70bd 18c7 e63a bef1 22bb 8e68 d6be
00000260: e7cd 87be 9a70 bd3e 6a4b aaba 23ec b43e
00000270: b086 5639 96a3 1cb9 e480 ae3e 9b9e 20bf
00000280: 6e4a 7bba 67a7 8bbe c232 783e a35e e13c
00000290: 2ce8 e3bd 74c8 02be aa05 ef3e 7ad3 193f
000002a0: 5df0 54be 2b70 213b e29c 0b3d 33d0 8fbd
000002b0: 04f9 833e e76b 26be 6ccf 68be e25b babd
000002c0: c67e 2f3e fdcb 42bd 8955 f3be 8886 81ba
-0.09655025 -0.0054834364 -0.04622487 0.27045295 -0.0015184861 0.033063408 -0.02818823 -0.0025226446
-0.19790517 0.18071052 0.00049497595 -0.09244968 0.15481637 0.01632377 -0.57516474 -0.35275996
0.001683166 -0.15075944 0.091095686 -5.0904513e-05 0.45789614 0.22078797 -0.05073432 -0.35035113
0.16079512 -0.4262668 -0.007631715 0.20475473 0.1293598 -0.00097617164 -0.1179116 0.06403284
0.030832706 -0.4121107 -0.0012091742 -0.35949224 -0.0009023298 -0.06329259 -0.3098267 -0.15665841
-0.00059366354 -0.31891426 0.13708939 0.053262137 -0.13608839 0.4056669 0.10332009 -0.007469478
0.13190514 -0.0020803756 0.51694536 0.11652711 0.18377416 0.08783994 -0.48458567 0.4879865
-0.002781867 0.1824989 -0.027894428 0.00086424843 -0.02982209 0.025885615 -0.07978686 -0.09433029
-0.0007465768 -0.21192676 -0.014452781 0.058814637 0.45009133 -0.18012981 0.0014156812 0.06305986
0.30841622 0.046957962 -0.30859095 0.062823124 -0.25623697 0.114598304 0.22467215 0.00772795
0.23263791 -0.33958083 0.03499282 -0.10038353 0.00606539 0.32343426 0.036133595 0.15992445
0.27631587 0.001516441 -0.031695083 0.2806404 0.60235935 0.3668728 0.0036316337 -0.15098844
-0.00431729 0.075274505 -0.15474364 -0.19565704 -0.0017317221 0.1496932 0.7946435 -0.011150732
0.42960998 0.3158628 0.013858561 -0.27332905 -0.63622797 0.00028022428 -0.11021884 0.17015067
0.2274516 -0.39245582 0.2114724 0.15314119 -0.6511094 -0.020758182 0.3206529 0.0003942722
-0.01576635 -0.43623525 0.31069672 -0.18843068 0.0007889068 -0.35082003 -0.0011312997 0.08868773
-0.046021156 0.13498232 -0.000371415 0.36153123 0.46078452 -0.082620285 -0.04140269 -0.2569624
0.896512 0.119140714 0.5183912 0.013279639 -0.2663959 -0.33325848 -0.70653754 -0.10758717
0.2336147 0.11040538 -0.58602345 0.564133 -0.05868487 0.0017606942 -0.0024863328 -0.41876644
-0.2652428 0.3699997 -0.0012992446 0.35336408 0.00020458805 -0.0001493826 0.3408271 -0.6274201
-0.0009585981 -0.27276155 0.24238113 0.027510947 -0.11128268 -0.1277178 0.4668401 0.6008831
-0.20794816 0.0024633508 0.034085162 -0.07022133 0.2577592 -0.16252099 -0.22735375 -0.090995565
0.17138204 -0.04755782 -0.47526196 -0.0009882012

pos_net.output_layer.bias f4 [6]
00000000: 7a48 8cbd 2293 9e3d abd9 163e 1e4d 263e
00000010: 50db 823d 5765 71bd
-0.06849761 0.07742907 0.14731471 0.16240355 0.06389487 -0.058934536

neg_net.linears.0.weight f4 [30, 12]
00000000: 0fa6 9a3d ef53 153e 6402 ac3c 4373 0cbf
00000010: c052 b53e 8490 05be dc41 adbb 44d8 cfbd
00000020: 0613 18bc e9b3 3f3f 3c2d a03d d64e 923d
00000030: 00d3 0d3e 64cc 313c a7b2 98bd f2f4 c0bd
00000040: 7df1 1dbf fbf3 f63e 48ee 6fbd 2604 533b
00000050: 7788 363d 2b9c 75be b0b2 de3c 48cb 1b3b
00000060: dc9d 66bd cb4c fdbe e5d8 e4be 5570 98bd
00000070: 08a7 d63d d237 73bd 502b 853b d113 88bd
00000080: b0d4 b8bd c157 3a3f 7fad e63e f4ef 753d
00000090: 6ef7 14bf c735 853e 0b56 113e 874c 843d
000000a0: 0721 e2bd 9433 6fba 95ee 1d3d 2c97 95bd
000000b0: 7713 aabd beae 993d 49c8 233e 9139 213e
000000c0: d354 af3d f942 a63e 8586 97bd d4bc e73d
000000d0: 805d 3bbf e3cd 1ebf 155e bebd 948f 883e
000000e0: 61b6 273c 389d 263e a02c 21bd d88a adbd
000000f0: b726 8fbd ea62 0cbf 8a8e abbe 1395 e73e
00000100: ef55 0a3f 734c 8dbe b797 3bbd 09e4 85bd
00000110: fa55 4abc 86c4 43be ab54 943d 6c3a 63be
00000120: 34c8 1dbf 1024 a53d 2946 8fbe ccc0 75be
00000130: b00c 313e 2e43 15be 50cb b5bd ed96 50bd
00000140: 432a 323c a89b f43d 2cbb 8ebe 1387 cf3c
00000150: 2ccf 453a a0c2 ba3d 1f39 693d 69c0 1a3d
00000160: 4df0 593f 625a 553f c427 1a3d 00a7 64bd
00000170: 5017 7e3d ebe4 a83d 9b84 083e c210 debc
00000180: a9ac c03d ab26 41bf 8f3c 14be 6fea ef3e
00000190: 47d4 0dbf 3847 aa3c 9089 fcbc b376 32be
000001a0: b235 e33d 2599 723e 55bd 943e eb6c f63c
000001b0: dd57 dfbc 0175 9b3e 229b 053f 576d 543e
000001c0: 51ce f43e 34d2 0bbd fb27 afbd 5802 79bd
000001d0: 725b e5bd 46dc 493e 0e87 b4be a159 9dbd
000001e0: 010e 37bc 5de5 203d 5fbd 10bd ddb7 2a3f
000001f0: d20d e33e f57a 94be 4fff 6c3d d5d4 0a3c
00000200: 772c 4e3d 58e2 40bf 724c 5bbe dd47 333c
00000210: e310 a6bd e593 52be 9085 3bbe 0e91 72be
00000220: 1c49 2c3e 7d26 103d a3a4 e2bd fd56 853e
00000230: df31 1bbe c995 6b3e 4b87 d2be 7ab4 d5bb
00000240: 3919 353d 6299 30be 3db5 0cbf 51b9 b33c
00000250: c796 8bbe bf07 3dbe c5fc a53d ea21 3f3e
00000260: 5fbe 41be 86bf 5dbe 07f2 703e 06ab d53d
00000270: 51c0 653e 5077 133e 6139 023d 4709 283f
00000280: dc5b 9bbd dd5c abbd d61e a03c e11a 11be
00000290: 462d 533d 3889 b63d 4580 253e 5004 b13e
000002a0: 8744 c53d 6292 91be 06e7 a33e fc4c 89be
000002b0: 3e53 7bbe 0dc0 5f3e 14bc 04be 421d a0bc
000002c0: ef1c 0a3d b7b3 a53e 9b86 22be 7709 9e3d
000002d0: 5f2d 1c3f 3db3 56bd 2927 d4be 9252 b2bd
000002e0: b632 d4bd 1b64 38bd 64e2 29be aa77 a73d
000002f0: e9fb 2dbe 44e0 bd3d 2e3a 3abe 8a45 1abe
00000300: c6a9 37bf 648a 1fbe 961b 78bd 6e88 293e
00000310: dc51 4abd 9215 653d a818 9abe ec75 783d
00000320: b4a1 2d3d 362c bdbd 3336 913d cf45 7dbd
00000330: 7779 483c ce6c cbbe dc39 f3be d767 67bf
00000340: f643 d9bb 72f9 4dbd 2c2f d03d f049 08bd
00000350: 6353 5f3d 1ad9 813d 5198 e83d 73c4 f23d
00000360: c3cf 903d 53af c43e b0db e53e 82b1 15bf
00000370: 7fa9 d63e 8991 ddbd ff2d 8bbc a2df 2ebd
00000380: d0a1 93bd 5028 2fbf 9cd5 603d 8019 47bc
00000390: b0b5 cfbd 42a0 be3d c372 d53e c0f2 0e3f
000003a0: 9336 b8bd 0ac5 4dbe bb33 79bd 0c5f 433d
000003b0: b2d2 cb3d 970e 88be 543d 6d3e 3e1d 593c
000003c0: e862 2d3c 701d b23d d284 55bc 4ef0 d6be
000003d0: 5fed b5be 5ffc 8abe 538b 1abb c98f 423d
000003e0: 670d debc e839 87bf 3874 493e 2fe2 fabc
000003f0: 4665 073f 5e01 61bd c571 213e 450e adbd
0.075512044 0.145828 0.020997234 -0.54863375 0.35414696 -0.1304341 -0.005287392 -0.10148671
-0.009281879 0.74883896 0.07821128 0.07143943 0.13850021 0.010851953 -0.0745595 -0.094217196
-0.61696607 0.48233017 -0.058576852 0.0032198518 0.044563737 -0.23985355 0.027184814 0.0023772288
-0.05630289 -0.4947265 -0.44696727 -0.07443301 0.104810774 -0.059379406 0.004064001 -0.06644405
-0.09024942 0.7279015 0.45054242 0.06004329 -0.5819005 0.2601759 0.14192979 0.06459909
-0.11041456 -0.0009124812 0.038557608 -0.07304224 -0.08304494 0.075040326 0.15994371 0.15744616
0.08561101 0.3247297 -0.073987044 0.11315313 -0.73189545 -0.6203291 -0.092952885 0.2667204
0.010236354 0.16270912 -0.0393492 -0.08473748 -0.06989806 -0.5483843 -0.33507186 0.45230922
0.54037374 -0.2759739 -0.045798983 -0.06537635 -0.0123496 -0.19117936 0.07242712 -0.22190255
-0.6163361 0.08063519 -0.27983215 -0.23999327 0.17289996 -0.14576408 -0.088766694 -0.050925184
0.010874334 0.119437516 -0.27877176 0.025332963 0.00075458246 0.09119153 0.05693924 0.037781153
0.85132295 0.8334104 0.03763558 -0.055823326 0.06203395 0.08246788 0.13331835 -0.0271076
0.09407932 -0.7544963 -0.14476226 0.46858546 -0.55402035 0.020785913 -0.030827314 -0.17428093
0.11094226 0.23691233 0.290507 0.030081233 -0.027263576 0.30362704 0.5218984 0.20744835
0.47813657 -0.034136012 -0.085525475 -0.06079325 -0.111990824 0.19712934 -0.3525929 -0.07683111
-0.011172772 0.039281238 -0.03533685 0.66686803 0.44346482 -0.2900006 0.05786067 0.008473595
0.050335374 -0.75345373 -0.2141588 0.0109424265 -0.0810869 -0.2056423 -0.18312669 -0.23688146
0.16824764 0.035192955 -0.11066558 0.2604293 -0.15155743 0.23006357 -0.41118845 -0.0065217586
0.044213507 -0.17246011 -0.5496405 0.021938952 -0.2726347 -0.18459986 0.081048526 0.18665281
-0.18920277 -0.21655092 0.23529826 0.10433011 0.22436644 0.14400983 0.031793002 0.65639156
-0.0758588 -0.08367322 0.019545954 -0.1417041 0.051556848 0.08912891 0.16162212 0.34573603
0.09632211 -0.28431994 0.32012194 -0.26816547 -0.24543473 0.21850605 -0.12962371 -0.019545201
0.033719 0.32363674 -0.1587166 0.07716649 0.6100673 -0.05241703 -0.41436127 -0.08707155
-0.10361235 -0.045017343 -0.16590267 0.08177121 -0.16990627 0.09271291 -0.18186256 -0.1506559
-0.7174343 -0.15580136 -0.060573183 0.1655595 -0.049394473 0.055928774 -0.30096936 0.060659334
0.04239054 -0.09236948 0.07090416 -0.061834153 0.012235991 -0.3973145 -0.4750508 -0.9039282
-0.006630416 -0.050286718 0.10165247 -0.033273637 0.054522883 0.06340237 0.11357177 0.11853876
0.070708774 0.38415012 0.4489417 -0.5847398 0.4192619 -0.10818774 -0.016989706 -0.04269374
-0.07208598 -0.68420887 0.054891214 -0.012152076 -0.10142076 0.093079105 0.4168912 0.5583916
-0.08994784 -0.20094696 -0.06084035 0.047698066 0.09952296 -0.2657363 0.23167926 0.013251601
0.010582663 0.08697021 -0.013032155 -0.41980213 -0.35532662 -0.2714567 -0.002358158 0.047500405
-0.027106 -1.0564547 0.1967324 -0.03062543 0.52888906 -0.054932944 0.15766056 -0.08449987

neg_net.linears.0.bias f4 [30]
00000000: f0d8 843e dd82 f6be da01 41bf 548f 83be
00000010: d769 9fbe 52fd e93c 9235 0c3d 173b 0bbe
00000020: b324 713d 63d9 e5be 2e1e 14be 011f 92be
00000030: 88fe 2ebf 52b0 b2bd 29be 1bbf 48af ca3d
00000040: 6830 9bbb 7952 83be d9ad 0bbf a3b7 c1be
00000050: 1f5e dabe c78c 72be f98e 96be 9ee6 d2be
00000060: 0bf4 6d3d b8b9 72be 8dd5 a6bd d48e 93bd
00000070: 9c49 89be 1cf6 2abd
0.2594676 -0.48146716 -0.7539345 -0.25695288 -0.31135437 0.028563175 0.034230776 -0.1359676
0.05887289 -0.44892415 -0.14464638 -0.2853928 -0.68357134 -0.08725037 -0.60837036 0.098967135
-0.004735995 -0.2564886 -0.54562145 -0.37835416 -0.42649934 -0.23686515 -0.29405954 -0.41191572
0.058094066 -0.23703659 -0.081462 -0.07204977 -0.26813972 -0.041738614

neg_net.linears.1.weight f4 [30, 30]
00000000: 7ad5 bcbe 6bc4 2c3c 464f a3bd 2084 91be
00000010: 02b6 903e e8e5 b7be 0d55 713e dc10 aabe
00000020: 69d0 03bf 3b7c 47be cb6d bebe 4f51 103f
00000030: b5f3 a8be ce9e 9c3d deec dbbd 2abc 803d
00000040: 3f0a 0dbe 1759 893d cc03 6d3d a1a1 583e
00000050: 2053 b03e 3c52 01bd c833 aa3c a1c9 513e
00000060: 867d e6bd 9635 213f 8152 a83e a45f 68bd
00000070: 2ed8 853d b8f7 05bf 7650 9a3e 5f02 23be
00000080: a2d0 8ebe 893a cabe 9e2f 493e 6028 1dbe
00000090: a6a8 01bf fecb 873b 2266 42bd 4453 b03e
000000a0: 2ad8 853d c648 543d 2ed4 7cbe e512 0d3e
000000b0: d73a 0a3e b87c e73e e4ee 5ebe a589 e43d
000000c0: ae93 92bc d5f0 d7bd 3f67 0bbd 0762 0c3f
000000d0: f165 413e 8c53 1fbd 3ac0 0ebe 2698 c4bc
000000e0: 986c 8cbe 41d7 f63e cfe7 b23d 2f9c 10be
000000f0: 7be3 31be e79e 58be 4434 91bd b357 76be
00000100: f059 cfbd b74c 85bd 0af0 debd d88b 91bc
00000110: 9274 1dbc b747 b3bc 626b 00be 9ef6 45bd
00000120: 00cc 56bd d9a8 14be 8630 62bd 9300 8bbd
00000130: c50f 27bd 14b8 13bd da17 52bd 6f9b 80bd
00000140: ea95 2f3a e409 28bd c3a1 f6bc 24b0 7dbd
00000150: 20ff 83be fec0 d8ba 8333 1ebe acc9 4abe
00000160: beb4 42be e049 9cbd fcb2 863e aac3 323f
00000170: 6473 173e a695 403d 76c2 c83d aa19 963e
00000180: 065f 183d e95a 8ebe a07f 46be c064 783e
00000190: e76d e33e f68d b0be e807 c13b 5248 7e3e
000001a0: eab9 3d3e 2fd9 233e 85cd 3ebe 4ba3 eabd
000001b0: 822d 043f 2bc0 79be 8ccd 9bbe 626b 0f3e
000001c0: 6e37 7e3e 88fe c8be 62b4 f83c 596b d63e
000001d0: e5f2 a53c ebfc 573d 0dc5 6abe 2765 9fbe
000001e0: 2291 b4bd feff 69bd 0099 aabd 30c5 96bd
000001f0: a9ef 06bc a966 0abc f4d3 2bbd 6280 b03a
00000200: ffde cfbd 1461 31bd d811 95bd 128a e7bb
00000210: 2216 96bc 2951 50bd e943 dbba 28d4 e039
00000220: 0dbf cbbd dd15 49bd 7770 1dbc 81fb dabc
00000230: c24a 1fb9 a771 fdbb dc0b 62bc 5eaa a3bd
00000240: 9db8 7fbd 808b d9bb de64 9dbd 2ecc 51bc
00000250: 4db4 bebd bc95 cbbd 1b88 daba a2ef 76ba
00000260: 5c32 adba 954f 733b 4b80 283b 885c 9bba
00000270: 54d0 92bb c62c 6cba 120f 11bb a628 4cbc
00000280: cb2b b43b 10ab bab9 46ef d03a 19e0 7c3b
00000290: 745f 97ba 130b 0d39 0b72 0a3b 1d32 4eba
000002a0: 468d 05ba 9b85 6e3a b063 efb8 7f1b 203a
000002b0: b697 8dba 6a0a ca3a a373 5e3a 9401 7c3a
000002c0: c9c5 dfba ccb1 1ebb 12a5 463b 0bb1 13bb
000002d0: f29a 60be 43cd 4fbe ec4c a5bd bca5 17be
000002e0: 4472 74bd a4d3 3abc a998 44be 940d 88bc
000002f0: 8c60 49be 78f7 29bd 8e82 acbd 195e 4bbc
00000300: 9f91 5fbd 4d0a 46bd 08d4 e9bc ca67 60bc
00000310: e198 ccbd 1931 c9bd 22d3 73bd 42c5 edbc
00000320: bf6d 3fba 2a5e f7bc 65ba 79bd 7b0f ffbc
00000330: 6047 37be 2847 ecba 93a1 7cbc 2d0d dfbd
00000340: c30d e3bd 953d 24be 36d4 2dbf 57b2 9cbe
00000350: 4e4c 533e c950 c43d b276 1c3e 1870 b23e
00000360: d970 003e 0152 963b 205d b63e cd4a e0bd
00000370: 68f6 9bbb b4a1 14be c3a6 99be 387d 3dbc
00000380: 09a0 e5bd 7117 273d 1b91 54be 08bb d63e
00000390: 33f5 cd3e c10a 383d 7233 debd 5168 ad3e
000003a0: 6399 f33e bb76 013f 27b6 913c 9916 113f
000003b0: b624 3c3e b8d5 343e e9e1 84bd 95c8 a1bd
000003c0: deab 053f eaf0 a0bd 879e 0bbf ebb6 88bd
000003d0: bc80 8a3d fac9 96bd 052e ae3e 773d 793e
000003e0: 9150 14bd d448 6abe 890e 00be 540c bb3c
000003f0: 6b22 2f3c 356b 2fbe 9686 f0bd 3092 8e3e
-0.3688162 0.010544877 -0.079741046 -0.28421116 0.2826386 -0.35917592 0.235676 -0.33215988
-0.51489884 -0.19480984 -0.3719314 0.5637407 -0.32998434 0.07647477 -0.10738538 0.062858894
-0.1377344 0.06706446 0.05786495 0.21155407 0.3443842 -0.031572565 0.020776644 0.20487072
-0.112544104 0.6297239 0.32875445 -0.056731835 0.06535374 -0.52331114 0.30139512 -0.15918873
-0.2789355 -0.39497784 0.19647071 -0.15347433 -0.5064796 0.004144191 -0.047460683 0.34438527
0.06535371 0.051827215 -0.24690315 0.13776739 0.13499008 0.4521234 -0.21770817 0.11159066
-0.017892685 -0.10543982 -0.03403401 0.5483708 0.18886544 -0.038898036 -0.13940516 -0.023998331
-0.274266 0.482111 0.0873562 -0.1412208 -0.17371933 -0.21154366 -0.07090047 -0.24056892
-0.10124576 -0.06508773 -0.108856276 -0.017766878 -0.009610312 -0.021884782 -0.12540963 -0.048330896
-0.052440643 -0.14517535 -0.055222057 -0.06787219 -0.040786523 -0.036064222 -0.051292278 -0.062796466
0.0006698059 -0.041025057 -0.03010643 -0.06193556 -0.25780582 -0.0016537008 -0.15449338 -0.19803494
-0.1901426 -0.07631278 0.2630843 0.6982981 0.14790112 0.047017716 0.098027155 0.29316455
0.037199996 -0.27803734 -0.19384623 0.24257183 0.44419786 -0.34483308 0.005890835 0.24832276
0.18527952 0.16000818 -0.18633087 -0.11456927 0.5163194 -0.24389713 -0.30430257 0.14005807
0.24825832 -0.39256692 0.03035945 0.41878775 0.020257423 0.052731436 -0.22926731 -0.3113186
-0.088167444 -0.0571289 -0.08329964 -0.07361829 -0.00823585 -0.008447328 -0.04195018 0.0013465995
-0.10149955 -0.04330547 -0.07278794 -0.00706602 -0.0183211 -0.05085865 -0.0016728613 0.00042882678
-0.099485494 -0.049093116 -0.009609333 -0.026731255 -0.00015191271 -0.0077344957 -0.013796773 -0.07991479
-0.06243192 -0.006638944 -0.076852545 -0.012805028 -0.093117334 -0.09940669 -0.0016672643 -0.00094198633
-0.0013213861 0.0037126292 0.0025711234 -0.0011853138 -0.004480401 -0.00090093573 -0.0022134227 -0.012460863
0.0054983846 -0.00035604136 0.001594045 0.003858572 -0.0011548833 0.00013450933 0.0021125104 -0.0007865744
-0.0005094599 0.0009098888 -0.00011414976 0.0006107613 -0.001080266 0.0015414481 0.0008485859 0.0009613272
-0.0017072494 -0.0024214862 0.0030310792 -0.0022535946 -0.21934107 -0.20293145 -0.08071312 -0.14809316
-0.059679285 -0.011402998 -0.1919886 -0.016608037 -0.19665736 -0.04149577 -0.08423339 -0.012412571
-0.054582234 -0.048349667 -0.028543487 -0.01369662 -0.09990097 -0.09823818 -0.059527524 -0.029024724
-0.0007302425 -0.030196268 -0.060968775 -0.031135311 -0.17898321 -0.0018026577 -0.015419382 -0.10891185
-0.11086609 -0.16039117 -0.67901933 -0.30604813 0.20634577 0.09585721 0.15279654 0.34851146
0.12543048 0.0045874123 0.35617924 -0.10951767 -0.0047595985 -0.1451481 -0.30010042 -0.011565499
-0.11212165 0.04079384 -0.20758478 0.4193957 0.40226135 0.04493213 -0.10849656 0.3386865
0.47577962 0.50571793 0.017787052 0.56675106 0.18373379 0.17659652 -0.064884014 -0.07899586
0.52215374 -0.07858451 -0.5453877 -0.06675514 0.067628354 -0.07362743 0.34019485 0.24339853
-0.036209647 -0.22879344 -0.12505545 0.022833027 0.010689358 -0.1713074 -0.1174442 0.27845907

neg_net.linears.1.bias f4 [30]
00000000: eb39 81be 0e6c 723e 3e4d 67be 3e1d a03e
00000010: f5a5 1bbe 996d a7bd 15b0 f2bd 2a0c 8c3d
00000020: bf41 aa3e 1def f83d 7f92 1abe 2816 b7bd
00000030: 8910 fdbd b3cb 803e 8e75 bebd a2fa 76bd
00000040: 91af 18be 4e57 6fbe 6cfe 4c3e 22dd 2dbc
00000050: a38d 81bd 567f b03c 25a8 e2bd a501 56be
00000060: 022d 37bb 1418 d2bd a778 dfbc 195c 0c3e
00000070: 7b3b 8b3d 31dd d43d
-0.252395 0.23674032 -0.2258806 0.3127231 -0.15200026 -0.08175201 -0.11849991 0.068382576
0.33253285 0.12154982 -0.15094946 -0.08939773 -0.123566695 0.2515541 -0.092997655 -0.060297616
-0.14910723 -0.23373148 0.20018929 -0.010611804 -0.06325843 0.021545094 -0.11067227 -0.20899065
-0.002795041 -0.10258499 -0.027279211 0.13707007 0.067984544 0.103937514

neg_net.linears.2.weight f4 [30, 30]
00000000: cba6 4fb9 26bc 2ebe 4c1d 06be 554e a3b9
00000010: 68c5 85be f0c0 4c3b 9d7e a3bd ca18 91bc
00000020: da11 f6bd 11f0 03ba 9dfb 6cbe b276 27bd
00000030: 0a44 d3bc dd7a 59be 9c72 9bbd 01a1 eeb9
00000040: e64e 1d38 1c3b 2abe 5d4b 04be 9e55 0ebe
00000050: 4452 81bd 2c79 1db8 6039 93bd f50f b139
00000060: 41ed d3ba 6ac2 66be 1c30 1cbe af8d 56be
00000070: b9cd 74be 3ccf bbbd b10d f73e 809b a7be
00000080: bfd3 d7bd 90d0 843e 00a0 79be ede9 4039
00000090: f047 a4bd 7ee1 323f 6e26 003c 4285 933d
000000a0: 3833 7bbd 13ba 92bb 255f 9abc 6956 82be
000000b0: 1d17 0ebd e6a2 503e c761 25be 50bd 93bd
000000c0: 43d9 95b9 7c6b 0d3d a41f 5cbe b99c 503d
000000d0: 57fa 11be a230 3dbe 379e df3e e604 3dbd
000000e0: 16bf ecbe 2844 fabd cd02 d8be ba68 f4be
000000f0: 5e91 5e3e 9f44 353d 1e02 71be 83ec 80be
00000100: ee48 71be f6ad bf3a b501 5fbe 4733 3c3d
00000110: c338 c33e 108a 00be 47c2 40be dc5c 5bbc
00000120: 8bf2 1b3b a35c 7abe d1ea 10be fead ba3d
00000130: de7f 003e caca cfbd 13ea 98be b234 f7bd
00000140: d859 2ebe 2e4d a53e 75ba 79bd b4f5 0a3e
00000150: 8343 6dbe 7827 19bd 31e3 c6bd 6db4 17be
00000160: 2bf1 adbd 9597 8fbe 1fcb a6bc 14f7 3b3d
00000170: cef2 803b 211e 64bc 471e 603b 8177 e9b8
00000180: 8fc7 c3ba 0e06 1bbc 75cb 59bd 5f13 b0bd
00000190: 7b02 00ba bdb1 2b3a a26d 26ba 3082 81bd
000001a0: dd52 84ba a031 5bba 37b6 673d 22ff 7f3a
000001b0: 922c bebd 3c4e debc 9246 dfba e4dd 28bb
000001c0: 6149 af3a 6cc1 cdbd 74b8 36be fc4a a639
000001d0: a033 36bd 1530 22bc 00a8 98bc 1f03 a3bc
000001e0: 9996 a73e 47cc a2be 2531 aebd c195 983e
000001f0: 3e73 8bbd 18aa 22ba 7fa5 05bd b6e7 3dbc
00000200: d1c3 853e 2f6c 333f 71fc 41be fcb6 9cbc
00000210: ec33 85bd 69f3 16be ffba 0fbe 2da9 253d
00000220: 22ce 4c3c 9fc2 93bd 4da7 b4bd 9a78 d0bc
00000230: ba6b 4dbe 517f fa3e 3314 c6bd 02bb 85be
00000240: 81bc a6bd e14e 32bd 0a42 e83d 7945 0abe
00000250: dc8c 15bb dc13 213d 0c51 7a3d 54ca c63e
00000260: d88e 24be 3d8f 833e a7b6 92bd eda5 f43a
00000270: 74b1 48bd 9ac4 233e 17df 243e dd93 77be
00000280: eba6 92bd 2e22 8dbd e00e e6bd 5003 2a3e
00000290: 3157 a1bd 91b4 d7bb 83d4 f73d b04f 07be
000002a0: eb04 8a3e 9ffb 4fbe ecf3 3e3c 470f 77bd
000002b0: feba 56be 8853 0cbb a142 e63d d116 21be
000002c0: 43fc aebe d4a2 cfbd e461 cfbb bc1c 9cbe
000002d0: 0450 ea3d 79a8 6fbe 78c5 5db8 e223 233d
000002e0: f26f c3b9 af6b 1aba 27d1 3a3a 2404 ab3e
000002f0: 483b ea3e 60ea 0fbf 4048 beb8 e42e e0b7
00000300: 90a0 1fb9 4d01 9fbe 2daa 2f3a 23d4 f33e
00000310: 614b 35be 95d0 be39 fd7b 663e a98f bcbe
00000320: b66e 9638 dd02 c2be d23d 9939 c7a7 b8be
00000330: 9562 cd3e ccf2 323a 8d64 30bf 3052 67be
00000340: e7ed b6be a087 30be 1b33 2bbd c4b1 4fbe
00000350: fbb6 2fbe 9dce 4ebd f8fa 86bd a8c3 52bb
00000360: 439c 53be 8b88 c2bd 5654 b53d 4d9e 72bd
00000370: 032c 35be 0402 82bc 608b 923a 4800 afbe
00000380: 0f9b e7bc d74d be3c 650f 05bc 6713 98bd
00000390: a88d d8bd 57a0 2b3e 0c2b 5dbe 0f74 1ebc
000003a0: df2c d4bd b5c5 4cbc 06e8 f9bc 6fcb d9bd
000003b0: 730f 79be 2f4e f9bb 27c2 d4bc 9cff c0bd
000003c0: 11dc 1bbe a466 983e ce1d daba c5a0 733e
000003d0: f22b e7ba 0c63 25ba 45ec 233a a31e b6be
000003e0: ae66 993e f2c8 b43b e37c cbb9 b672 083a
000003f0: 3abc 0bba ae51 a2be f9a7 243b 6980 933d
-0.00019803194 -0.1706396 -0.13097113 -0.00031148145 -0.26127172 0.003124293 -0.07983134 -0.017712016
-0.12015124 -0.0005033026 -0.23142858 -0.04088468 -0.02578928 -0.21238275 -0.075902194 -0.00045514855
3.7505197e-05 -0.16624111 -0.12919374 -0.13899848 -0.06314519 -3.7544567e-05 -0.07188678 0.0003377196
-0.001616873 -0.225351 -0.15252727 -0.20952486 -0.23906602 -0.09170386 0.48252633 -0.32735825
-0.10538434 0.2594037 -0.24377441 0.00018397691 -0.080215335 0.69875324 0.007821662 0.07203151
-0.061328143 -0.004477748 -0.018844197 -0.2545655 -0.03469001 0.20374641 -0.1615058 -0.07213843
-0.00028581367 0.034526333 -0.21496445 0.050930712 -0.14255653 -0.18475583 0.43675396 -0.04614725
-0.46239537 -0.12220031 -0.42189637 -0.4773615 0.2173514 0.044254895 -0.23535964 -0.25180444
-0.23562977 0.0014623988 -0.21777995 0.04594734 0.38129243 -0.12552667 -0.18824111 -0.013388839
0.002379569 -0.244494 -0.14152075 0.091152176 0.12548777 -0.10146101 -0.29866084 -0.12070598
-0.1702646 0.32285446 -0.060968835 0.13570291 -0.23170285 -0.037391156 -0.09711302 -0.1481492
-0.08493265 -0.28045335 -0.020360528 0.04588993 0.0039351946 -0.013923199 0.0034197734 -0.00011132565
-0.0014936792 -0.009461893 -0.053172547 -0.08597445 -0.0004883182 0.00065496174 -0.0006348734 -0.063236594
-0.0010095496 -0.0008361582 0.056570258 0.0009765496 -0.09285845 -0.027136914 -0.0017034581 -0.0025767023
0.0013373309 -0.10046658 -0.17843801 0.00031717855 -0.044482827 -0.009899159 -0.018634796 -0.01989895
0.32732084 -0.31796476 -0.08505467 0.29801753 -0.0680909 -0.00062051555 -0.032628532 -0.011590889
0.2612596 0.7008695 -0.18943955 -0.019130222 -0.06504044 -0.14741291 -0.14036177 0.04044454
0.012500318 -0.072148554 -0.088209726 -0.025448132 -0.20060626 0.4892526 -0.096718214 -0.26119238
-0.08141423 -0.043532256 0.11340721 -0.13503064 -0.0022819554 0.03932558 0.06111245 0.3882624
-0.16070116 0.2569522 -0.071637444 0.0018665172 -0.048997357 0.15992966 0.16100727 -0.24177499
-0.07160743 -0.06891285 -0.11233306 0.16602826 -0.078779586 -0.0065828045 0.1210108 -0.13213992
0.26956877 -0.2031083 0.011654835 -0.060317304 -0.2096977 -0.0021412093 0.11243177 -0.1573136
-0.34176835 -0.10138479 -0.006328808 -0.30490673 0.11441043 -0.23404111 -5.2874413e-05 0.039829142
-0.00037276704 -0.000589068 0.0007126503 0.33401597 0.45748353 -0.56217 -9.0733636e-05 -2.6724716e-05
-0.00015223236 -0.3105568 0.00067010784 0.47622785 -0.17704536 0.0003639503 0.22508235 -0.36828354
7.173179e-05 -0.3789281 0.00029228494 -0.36065504 0.40114275 0.00068263407 -0.6890343 -0.22589946
-0.3572838 -0.17239237 -0.041796785 -0.20282656 -0.17159645 -0.05049001 -0.06590837 -0.0032160077
-0.20665078 -0.094987 0.088539764 -0.059233 -0.1769257 -0.015870102 0.0011180453 -0.34179902
-0.02827218 0.023230476 -0.008121346 -0.07425576 -0.10573894 0.16760384 -0.21598452 -0.009671225
-0.10360121 -0.012498309 -0.030506145 -0.10634505 -0.243223 -0.007608197 -0.025971485 -0.094237536
-0.15220667 0.2976581 -0.0016640963 0.23791797 -0.0017636998 -0.00063090096 0.00062531634 -0.3557025
0.2996115 0.0055171186 -0.00038812225 0.00052050815 -0.0005330477 -0.31702942 0.0025124534 0.07202227

neg_net.linears.2.bias f4 [30]
00000000: 6736 0ebe 96f2 cb3d 0a57 883d d714 3bbe
00000010: 1d6f 8b3e 8958 d13c 60e9 5ebe 3b5a 183d
00000020: 0e0d 6c3e ba58 a5bd 5fcd 1dbe 7be1 99bd
00000030: 9075 273c 77e7 fcbd 30de 16be 2451 983e
00000040: d897 a1bd 864f f3bc 5da9 a13e 2001 23bd
00000050: 3c83 8c3d 76fb b9bd 5b8c 6a3d f387 803b
00000060: 8e93 afbd 6616 e43d e12f 1abe 152e 933d
00000070: f717 cfbd 745a 073e
-0.1388794 0.09958379 0.066572264 -0.18269669 0.2723321 0.025554912 -0.21768713 0.037195425
0.23051855 -0.08073564 -0.15410374 -0.0751371 0.0102209 -0.12348836 -0.14733195 0.29749405
-0.0789029 -0.029701006 0.31574526 -0.039795995 0.068609685 -0.090811655 0.05726276 0.0039224564
-0.08573066 0.11137085 -0.15057327 0.07186524 -0.10111993 0.13218099
